Assets/TFModels/Other models trained in the process/prova_curr_6M_BROTNS_REBUILD.onnx (onnx, 800619 bytes, 9 tensors)

action_model._discrete_distribution.branches.0.bias f4 [5]
00000000: fd18 8a3e f767 29bf 9246 cf3d a86b bcbc
00000010: 9e20 953e
0.2697219 -0.6617426 0.10120882 -0.023000553 0.29126447

action_model._discrete_distribution.branches.0.weight f4 [5, 256]
00000000: bbd1 7d3a 4a10 0fbc cd8b 973d 3999 20bd
00000010: 6979 1a3e 0187 b7bc 53cb 3cbb 4384 08bb
00000020: 7933 a4bd cdd3 003e 07de 2d38 ee1e 1f3e
00000030: a80e 573e 90c1 2b3d 2bba af3d 556c 223d
00000040: 207b 4b3d d572 99bc 9221 5f3c 398d 22be
00000050: 9f51 11bd 0ed3 113c 4237 6a3d fd2b 043d
00000060: 82e3 73bd 7f30 3a3b 0e73 15bc 94d9 ac3c
00000070: f30b 90bc fd05 c03a 6e38 9c3d 8ad1 4ebd
00000080: 5d6a aa3c 5a45 21bc 972f 6d3d 93b3 e1bd
00000090: 3130 c23c bebf 77bc 001d 04bd 535b 9cbd
000000a0: c4ed 4bbc 8eca e3bc 0607 6a3d a2b9 563d
000000b0: 5865 073d a407 3b3d f393 f8bc 5a1f c2bc
000000c0: e35f 94bc d7a5 d93b c3d6 fe3c c390 a73c
000000d0: e359 143d f5e6 e23b b03f 8b3d 2ecf 2ebd
000000e0: aace b93c 3832 34be 5726 873b 2110 313d
000000f0: 8063 093c d64e 22be e35f f6bd f3f5 823c
00000100: 9f8d 863d 8249 f9bb 7f9a 01bd 867d ab3c
00000110: 06f1 5f3d c841 d13d a880 2e3d 1a56 a93d
00000120: 7c6b f13d 2bda 28bc d62e a53d 9375 c1bd
00000130: 9792 12bd ff1e 8dbd 956a cf3c b6d0 d13d
00000140: f2d9 a4bd a999 c93c d6d4 303e 12ca 8cbb
00000150: 24e8 48bd a943 0dbe 7bd4 64bd fa99 d43c
00000160: f57d 863d 8732 853c feb9 dd3d 8f8f 8b3d
00000170: 6c74 423c 8149 6ebd ae90 36bd b77e 4b3c
00000180: 6261 d53d 5cc8 82bc b16a 9b3d 625d 8b3c
00000190: 2f37 063e 6a9b 803d 3431 97bd 76cc acbd
000001a0: 075d cd3d c8cb 6bbd 1012 32bc 0f72 f4bc
000001b0: 63de abbb 960c 5cbd 1b3d 153e 974c 10bc
000001c0: 5628 323c 3ace 053e d8d7 acbc 44b1 a6bd
000001d0: 2a72 7e3d 74fd a93c 2be7 333e 792d ea3b
000001e0: 6d83 febb f288 56bc 06ba a43b 7469 913d
000001f0: 9512 37bd 8b12 d03d e619 cdbd a1ba 413b
00000200: 1ad7 a1bd 32e8 193d 720a 54bd d26d 9dbd
00000210: 59d5 d7bd d88d 5bbd da1d 82bd e0a2 13bd
00000220: 2697 39be 286d 773c 1393 f53c 9ad5 c8bd
00000230: 028d 2e3d 0361 2a3d e344 083e 104d c63d
00000240: d2a6 23bc 5823 693d ee78 c63d 2448 283c
00000250: a0c3 343d 1d34 c93d 249a 033e a58a 35bd
00000260: 700a 563d 3c22 9a3d 1177 4f3d e629 90bc
00000270: 6728 dabd aabf 8f3d e21e d43c 20d3 893d
00000280: 156b 123e cbac 38bd 1c5d eb3d f16f 39bc
00000290: 321e 893d 8ea9 ee3c 7fa8 74bd ea1c 37bd
000002a0: d241 d2bc f3d3 d2bc 9687 533e 012b 66bc
000002b0: ddea a4bb 4afa ac3d cb91 93bb b0dc 6fbc
000002c0: 06dc 45bd 177d a63c da27 5a3d 0cd4 c0bd
000002d0: d323 d53c dcf1 113d 9764 473d 70b4 fd3c
000002e0: 8493 953d 0286 5b3e cdb7 8dbd 6fc1 073e
000002f0: dc8a 8abd 5e3b 2b3d c492 903d 1bf2 adbb
00000300: 234e c23d d036 1a3d 30ab 57bc 4892 a33c
00000310: b9dd 19bd 21ab f43b 2224 fbba b57a b43d
00000320: 96cf 15be db2b 86bd 9ae0 063d 62b0 7d3c
00000330: c31e aa3c d470 683d f2c6 973d 07be dbbc
00000340: 4b72 98bd b62c 8b3d 0714 053d 6892 61bd
00000350: 4f0c 1c3c 8552 00bd a567 943c 410a ec3c
00000360: d495 6f3c 9938 2c3c 48df c1bc 65ae 08bd
00000370: fed5 dfbc b1d8 46bc 376c 2c3e ea09 8f3c
00000380: ec1e b83b 99ce 403d 59d5 90bd 4510 f4bc
00000390: f784 3c3c 6ff7 c8bd 6c04 e03d b7b9 563d
000003a0: bb12 25bd 5f31 853d de9a dc3b 6a4d 4cbd
000003b0: 5a41 a2bd 5c3f 13bc 898b e63d 16ae b1bc
000003c0: b06a cbbc 42eb 813d 46d3 a1bd 845e 853d
000003d0: f044 d7bd 4416 2c3c de88 ff3c b32d 123e
000003e0: 80ab 303d c4f5 7f3b 776e af3d d874 13bd
000003f0: 6abf 2f3e fb62 9f3d 1559 31bc 96d9 9f3c
0.00096824364 -0.008731911 0.07399712 -0.039208625 0.15085377 -0.022403242 -0.0028807714 -0.0020830787
-0.0801763 0.12580796 4.1453193e-05 0.15539142 0.21001685 0.041932642 0.085804306 0.039654095
0.049677968 -0.018731514 0.013618844 -0.15874185 -0.03547823 0.008900417 0.057181604 0.032268513
-0.05954314 0.0028410254 -0.009121669 0.021099843 -0.017583823 0.0014650222 0.076279506 -0.0504928
0.020802671 -0.009843195 0.057906713 -0.11020579 0.02370462 -0.0151213985 -0.03225422 -0.07634606
-0.012446824 -0.027806547 0.057135604 0.052423127 0.033055633 0.045661584 -0.030343985 -0.02369659
-0.018112129 0.006642084 0.031108266 0.02045477 0.036218535 0.006924505 0.06799257 -0.04267805
0.022681553 -0.17597282 0.0041244435 0.043228272 0.008385539 -0.15850386 -0.12030008 0.015986418
0.06569981 -0.00760764 -0.03164148 0.020933878 0.054673217 0.10217625 0.042603165 0.08268376
0.11788079 -0.010305922 0.08065574 -0.09446254 -0.03578433 -0.06890678 0.025319377 0.102448866
-0.08049382 0.024609404 0.1726869 -0.0042965496 -0.04904951 -0.13795342 -0.0558667 0.025952328
0.06566993 0.016259445 0.10826491 0.06814491 0.011868577 -0.058175568 -0.04457157 0.012420348
0.10418965 -0.01596468 0.07588709 0.017012302 0.13106988 0.06279643 -0.073824316 -0.08437435
0.10027509 -0.057567388 -0.010868564 -0.029839544 -0.0052450164 -0.05372294 0.14574091 -0.008807323
0.010873875 0.1306695 -0.021099016 -0.081392795 0.062120594 0.020750739 0.17568652 0.007146534
-0.007767132 -0.013094174 0.0050270585 0.07100192 -0.044695456 0.10159787 -0.10014705 0.0029560702
-0.079023555 0.037574954 -0.051767774 -0.07686962 -0.1053874 -0.05360207 -0.0635335 -0.036044
-0.18124065 0.0151017085 0.029977357 -0.09806366 0.042614944 0.041596424 0.13307528 0.09682667
-0.0099885035 0.056918472 0.09691034 0.010271106 0.044131875 0.09824393 0.12851769 -0.044321675
0.052256048 0.07526061 0.05065066 -0.017598104 -0.106522374 0.07018979 0.025893632 0.06729722
0.14298661 -0.045086663 0.114923686 -0.011318193 0.066952124 0.029133584 -0.059731003 -0.04470531
-0.025666151 -0.02573583 0.2065719 -0.014048339 -0.0050328807 0.08446176 -0.004503464 -0.014640018
-0.048305534 0.02032332 0.05326066 -0.09415445 0.026018059 0.035631046 0.048679914 0.030969828
0.07303527 0.21437839 -0.06919823 0.13257383 -0.067647666 0.041804664 0.07059243 -0.0053084022
0.0948756 0.03764993 -0.013163373 0.019967213 -0.037564967 0.007466689 -0.0019160549 0.08812467
-0.14629969 -0.065513335 0.03292904 0.0154839475 0.020766621 0.056748226 0.07410993 -0.02682401
-0.07443675 0.06795637 0.032489803 -0.055071265 0.009524419 -0.031328697 0.018115828 0.028813483
0.014623124 0.010511541 -0.02366604 -0.03336944 -0.02732372 -0.012136624 0.16838156 0.017460782
0.0056189205 0.047072027 -0.07071943 -0.029792914 0.011506311 -0.09812819 0.109383434 0.052423205
-0.040301066 0.065035574 0.006732329 -0.049878515 -0.07922621 -0.008987274 0.11257083 -0.021689456
-0.024831146 0.063437 -0.07901625 0.06512168 -0.10511196 0.010503355 0.031193193 0.14275245
0.043132305 0.00390564 0.08565991 -0.036000103 0.17162862 0.07782551 -0.0108244615 0.019512933

action_model._discrete_distribution.branches.1.bias f4 [3]
00000000: ea1f 68bd b8a3 da3c db78 953d
-0.05667106 0.026689395 0.07298442

action_model._discrete_distribution.branches.1.weight f4 [3, 256]
00000000: 4521 c83d f08d 3e3d 5078 243e 98d5 98bd
00000010: 9b51 1dbc a960 8c3d 340d 073d 012a 913d
00000020: 5f46 27bd c75d 3c3d ed33 bbbd 0196 8dbc
00000030: 9ee9 ed3b 8fb0 ef3d c638 833d 60d8 623d
00000040: 056b 1b3e 0881 a73d 1f58 a1bd 30e9 b33d
00000050: 8659 dc3d 96d3 393d 5579 673d 0131 86bd
00000060: e274 13bb 8c0d d33d af2c 0c3d ee56 95bc
00000070: c9c8 aabb 6b52 18bb ca9b 1a3e ddd6 4a3d
00000080: c6ac 29bd 0447 c23c 22ad 1a3d ca10 cb3b
00000090: d2e1 5f3d 53b5 8e3d 768a 1b3d 96b1 f23c
000000a0: 2b9b 673d e570 c9bc e7ba 4abd f8a3 813d
000000b0: cc17 dc3d 8aa7 283d 090a 093e f74c 033d
000000c0: 3f2d 863d 9602 fb3c 948f b03d 5a2a a4bb
000000d0: 3acc 3c3d 40d7 9b3c fda1 133d dc3a 9bbd
000000e0: 11fb 853d 8d7c a03c 4482 443d 0b9e e0bc
000000f0: 3f98 66bd 9140 2cbe dbd0 4a3d b120 753d
00000100: 0d38 87bd f709 8b3d 5b83 89bd 9376 923d
00000110: c56a 32bd f170 a4bd 2545 57bd 1268 1b3c
00000120: e39e 55bd 16be 4a3c 9141 bc3d 00e6 113d
00000130: 72d8 ba3c 84f1 90bd 667b 043d f341 c43d
00000140: 1bef e33c 7706 893d f072 8d3d d302 8bbd
00000150: 4205 36bd 9466 cd3c 0d46 a73d bf9b 613d
00000160: af0e 413c bc40 cdbd c525 223e b4ad 663d
00000170: 663b f33b 99fc 053e 99d1 353d cc99 bcbb
00000180: d844 90bc 9f20 3f3c 48ea ad3d 9ba3 a33c
00000190: e346 9a3d 6cbc b2bc 2ab1 94bc d70b c6bc
000001a0: e4a5 8abd f431 333d 489a 833d 2760 e73c
000001b0: e9b6 5b3d eeca d93d 7c4f 8c3e ef24 ee3d
000001c0: 1f3f 6d3d 60c0 ba3b 7ad8 233e 3307 c03d
000001d0: 1513 393d 245e b93d 4a6f 4d3e 94f2 023d
000001e0: c4ed de3c bd2e e5bd 441b 673d 89fb 16bd
000001f0: bc7a 253c 38c0 2cbd 11db cabb dd44 a83d
00000200: ca21 133c c12a 2f3e 0e4d a5bc a489 9b3d
00000210: 3a47 243c 39ce 413d c987 dc3d 18be 143d
00000220: 7d19 5a3d 424a 483e 0bd8 a4bd 86d1 ed3b
00000230: f15d e53d 96b4 31be f4c0 a83d 3502 853d
00000240: 1347 bb3c d797 803d 9f08 78bb a7a8 3ab9
00000250: 5d5a 463d 9ca9 f23d 6246 85bc c181 b9bc
00000260: 068b 6fbd 277b fe3c 1ae3 f23d c4b5 9bbd
00000270: a43a 583d 618c 2b3d 92ec 83bd 174c 3f3d
00000280: 98c3 363c a6c6 a7bc 11c6 9a3d 76a7 803d
00000290: 326f 013e b0a1 14bd e755 353e e73b d1bd
000002a0: 5107 9c3d 467b 553d 2560 84bc 4bb6 b83c
000002b0: 60db 1f3e e2a0 dbbd c14e 393c 0ca7 923d
000002c0: 945f a83c 99d8 a33d f732 a2bd c138 bf3c
000002d0: 0a87 5a3e 77d6 e53c 97f0 0dbd b650 9b3c
000002e0: ec9a b43d 7415 c93d 4e32 313e cfae e83c
000002f0: 11df 1cbd 6f2f d73d fa90 54bd 6db8 d7bc
00000300: a337 8c3d 7bfe 9b3d 349c a33d 90e6 d4bd
00000310: 6130 0ebd 33ed 65bd 96a5 6e3d 0bcc c6bd
00000320: 7557 0d3e 3287 833d bdae 213e 099e bd3d
00000330: 7b53 db3d 93fe cb3d a7f1 463e 9b5b ec3c
00000340: 1509 ae3d 5b2c ce3d 94a5 623d 7016 e8bc
00000350: 5517 efbd 2494 4f3e e841 323d 2cf0 193d
00000360: ddf2 e8bc 7567 29bd 6170 54bb 233f 0bbc
00000370: edca aa3c 3530 9a3d 43f3 22bc b337 25bc
00000380: a153 3b3d 97aa fbbc 4b14 e53d 0afe 013d
00000390: 20f6 223d 4be3 053b 93cf ff3c 611d 983c
000003a0: 394d aabc df3b 6a3e 435c 663d b960 063e
000003b0: 65ac 043c f026 45bd 2798 d2bc da4c b33c
000003c0: 9d07 113e 197b e3bd 0f8b 0e3d 5e8b 083d
000003d0: f500 943d 6da5 853d bfc5 be3c 8e3c fdbb
000003e0: 09e5 92bd 3506 6b3e b357 b03d 7c97 40bd
000003f0: a446 e43c 488c 5c3c 65f2 ad3c 6535 093d
0.09771971 0.04652208 0.1606152 -0.07462615 -0.009601976 0.06854374 0.032971576 0.0708809
-0.040838595 0.04598787 -0.091407634 -0.017283441 0.0072605154 0.11703598 0.06407313 0.055382133
0.15177543 0.08178908 -0.07878136 0.08784711 0.10759263 0.0453678 0.056512196 -0.065523155
-0.0022500088 0.10305318 0.0342223 -0.018229928 -0.0052119237 -0.0023242484 0.15098491 0.049521316
-0.041424535 0.023715504 0.03776277 0.00619707 0.05465872 0.069681786 0.037973844 0.029625695
0.056544464 -0.024589965 -0.04949465 0.06330103 0.107467264 0.041175403 0.13382734 0.03205582
0.06551599 0.030640882 0.08621135 -0.0050099315 0.046093203 0.019023538 0.036043156 -0.07579586
0.06542028 0.01959064 0.047975793 -0.02741911 -0.056297537 -0.16821505 0.049515586 0.05984563
-0.06602488 0.0678901 -0.06714507 0.071515225 -0.043558855 -0.08029354 -0.052556176 0.0094852615
-0.05215348 0.012374422 0.09192193 0.035619736 0.022808287 -0.070773154 0.032344244 0.09582891
0.027823975 0.06690686 0.06906688 -0.06787648 -0.044438608 0.025073327 0.08167658 0.05508017
0.011783286 -0.10022113 0.1583472 0.056318 0.0074228523 0.1308464 0.04438934 -0.0057556387
-0.017610952 0.011665492 0.08491951 0.019975474 0.07533052 -0.021818362 -0.018150885 -0.024175568
-0.067699224 0.04374881 0.06425911 0.028244091 0.053641234 0.10634409 0.27404392 0.11628138
0.057921525 0.0056992024 0.16000548 0.09376373 0.045184214 0.09051159 0.20061985 0.03196962
0.027212985 -0.11190555 0.056422487 -0.036860976 0.010100063 -0.0421755 -0.0061906655 0.0821626
0.008980224 0.17106153 -0.020178344 0.07594612 0.010026747 0.04731581 0.107680865 0.0363141
0.053246964 0.19559577 -0.080490194 0.007257643 0.111995585 -0.17354044 0.08239928 0.064945616
0.02286104 0.06278961 -0.0037846935 -0.0001780117 0.04842602 0.11848757 -0.016268913 -0.02264488
-0.058482192 0.031064583 0.118597224 -0.076030284 0.0527903 0.041881923 -0.064416066 0.046703424
0.011155032 -0.020480465 0.075573094 0.06281941 0.12640074 -0.03628701 0.1770855 -0.102165036
0.07618583 0.052119516 -0.016159127 0.022547862 0.15611029 -0.10724045 0.01131028 0.07160768
0.020553388 0.08000297 -0.07919877 0.023342492 0.21340576 0.028056366 -0.034653272 0.018959384
0.088186115 0.09818545 0.17304346 0.028403668 -0.03829867 0.10507094 -0.051896073 -0.026333058
0.06846549 0.07616898 0.07988778 -0.10395539 -0.034714106 -0.056134414 0.058263384 -0.09706887
0.13802893 0.06422271 0.15789314 0.092586584 0.10709282 0.099606656 0.1942812 0.028852275
0.08497826 0.10067054 0.05533369 -0.028331012 -0.11674372 0.20271355 0.043519884 0.03758256
-0.028436119 -0.04135843 -0.0032415616 -0.00849894 0.020848716 0.07528726 -0.009945693 -0.0100840805
0.04573405 -0.030720992 0.11185511 0.03173641 0.039785504 0.0020429667 0.031226909 0.018568696
-0.020788776 0.22874402 0.05624033 0.13122834 0.008097743 -0.048132837 -0.025707318 0.021887232
0.1416306 -0.111074634 0.034800585 0.033336036 0.07226745 0.06525693 0.023287652 -0.007728166
-0.07172591 0.22951587 0.08610477 -0.047019467 0.027865715 0.01346118 0.021233747 0.033498187

discrete_action_output_shape f4 [1, 2]
00000000: 0000 a040 0000 4040
5.0 3.0

network_body._body_endoder.seq_layers.0.bias f4 [256]
00000000: 4994 7dbe 94ed 8dbe 7df5 6ebe 038b 12be
00000010: e939 5e3b beb2 17be 37b8 c7bc 712f abbd
00000020: 0ca5 3dbe 5d53 683c a88b 223d db15 de3c
00000030: 5a4a 0fbd e687 05be ae21 82be 7037 73bc
00000040: c785 9fbd 7cdf 6dbe bb05 54be baf5 76be
00000050: 09e2 7cbc fb93 13bd 311a 92be 93d9 35be
00000060: 451f 86bd 16d7 1fbe f457 2cbe 523e 8cbe
00000070: de69 8bbd 5686 53be c60f 7ebd 2a5f 4ebd
00000080: 6694 9ebd 2b00 10bd f5f0 54be 1849 74be
00000090: 4946 f13c 12d4 dc3c adbc d63b 7968 f2bd
000000a0: f592 7ebd 322e 36be 48b1 e3bd 445f d3bd
000000b0: cfeb 89bd 59d1 87bd 1781 2fbd 3fce 3ebe
000000c0: fb80 a5be 79ff 29be 2dfd 38be da83 64be
000000d0: e488 c2bd 017d 27be 9406 a03c 4b8a b1be
000000e0: 6629 15be 2208 583c 8db4 59bd 38f3 59bd
000000f0: 003c 1cbd 459c 44bd d1f5 423d 6632 5ebe
00000100: 8e8d 1bbe ddb9 60bd 69b9 09be 8321 bdbd
00000110: 4394 633d 73da 31be 44b2 5dbe 41ea d2bd
00000120: c34f 4dbd 7f7e dd3a b0f5 6abd 1193 523d
00000130: 8ab3 3abe 90d6 20be 1e9f 4dbe 434a 3e3d
00000140: 2167 44bd 91ce 08bc d8fc 3fbe b59b e6bc
00000150: a0d5 81bd 6f5b 743d 0f62 cebd 49ce 36be
00000160: b7aa adbd 84ef 3fbe ab70 f5bd 5e4e fabd
00000170: 924a 08be 0c40 25bd fe99 26be decb 06be
00000180: 3593 e8bb 9b70 edbd 4d6e 18be 982c 88bd
00000190: c8a0 ccbd 9426 c5bd 734a 20be 3e8c ab3d
000001a0: be28 d9bc bf88 0bbe 9693 36be 9bee cdbd
000001b0: a900 8bbd b9b5 ebbd f14b 8bbd 5b7b 193d
000001c0: 574e afbd 45fc 79bd 8119 06be a2b3 19bd
000001d0: 68e9 15be 6b90 bebd 1408 a2bd 345b f1bd
000001e0: 04bc 38be 1d26 82bd e1fd 76bd 17bb 12be
000001f0: ccca 233d dc10 bdbd e073 a13b ba4b 38be
00000200: c7d9 1bbd 8ebb b7bd 0138 abbd f709 fdbd
00000210: 6c09 13be a067 eebd 70f8 953c ca23 f2bd
00000220: 806d b2bc f09b 14bd 80f0 3d3d 75c7 453d
00000230: 7092 34be 25b1 f53c 08a5 43be 0a2f 99bd
00000240: 7dca 9fbd 8bab 66bb 110c 4bbe c392 8bbd
00000250: 4c14 e5bd 309d c1bd 080a 32be 225c 183d
00000260: 6b7a 8abd 76a5 9bbc c9e1 61be 6d61 15be
00000270: dac9 4dbd c5ef 29be eb80 a1bd c316 24be
00000280: 92a5 6d3c 162f 43be 3bc5 0fbd e0b3 903c
00000290: 8661 0bbe feaf b2bd d9e3 31be 9d67 47be
000002a0: 10fe 02be 3267 31be ff16 80bd 1c81 a5bd
000002b0: 9b87 0abd cfc0 1abe f085 623d d046 ba3d
000002c0: 8bca a2bd d531 1dbe 403c 74bd 4ccc b5bd
000002d0: d2a5 53be c06d 62be 69c2 d2bd 32c7 73be
000002e0: dafd 26be 4948 a63d dd6b 25be c5bf 07be
000002f0: 95dd 66be 4890 51be d3de 723c 1a2e 74ba
00000300: 87c5 9e3d 6ce5 42bd c9b7 a33c 4d04 a3be
00000310: 7251 6dbd 5525 3a3d 0fda 21be 3403 92bd
00000320: 5115 00be ec57 18be 81d7 5dbe e79d 97bd
00000330: 6b56 f2bd f2d5 423c 0ad2 02be 0eda 313d
00000340: 6b96 bdbd faa8 143c 9a3d 65bd 59c1 eabd
00000350: 495c 27bd 2014 74be 2865 e6bd 26da 61be
00000360: 9f7d 52bc 199d 40bd f224 20be 5250 aa3d
00000370: 9452 1dbd efeb 3cbe 3024 aebd 7ec9 78be
00000380: 737f 16be 2aa3 33bd 918e 4ebd be15 433d
00000390: e693 083b 0fc3 bdbd 4e28 a1bd 800f 92bc
000003a0: 95d0 393d 2c82 8e3c 7d53 82be eea7 8f3d
000003b0: 4f65 33be bb7f 10be bbbf 7cbd 7f5b b4bc
000003c0: a77f 3fbe b3bc acbd 718c a13d 2aa2 84bd
000003d0: 6300 cbbc 1ee4 febb b9e0 9f3c a56e 05be
000003e0: 097e 39be 94d1 38be 94a8 453d 0fce 02bd
000003f0: 1cbb 533d e73b 50be a37d bc3d 3ba0 0fbd
-0.24763598 -0.2772032 -0.23335834 -0.14310841 0.003390903 -0.14814278 -0.024379833 -0.08358658
-0.18519992 0.014180032 0.039683968 0.02711003 -0.034983017 -0.13040122 -0.2541632 -0.01484476
-0.07789188 -0.23229784 -0.20705311 -0.24117175 -0.01543475 -0.036029797 -0.28535607 -0.17758779
-0.06548933 -0.15609393 -0.16830426 -0.27391297 -0.06807302 -0.20656714 -0.06202676 -0.050383724
-0.077431485 -0.03515641 -0.20795043 -0.23856008 0.02945246 0.026956592 0.0065532536 -0.11836333
-0.062151868 -0.1779106 -0.11117798 -0.10320905 -0.0673443 -0.06631727 -0.04284772 -0.18633364
-0.32324967 -0.16601361 -0.18065329 -0.22315922 -0.09498766 -0.16356279 0.019534387 -0.34675822
-0.14566574 0.013185533 -0.053150702 -0.053210467 -0.038143158 -0.048000593 0.04759771 -0.21698913
-0.15190718 -0.054864753 -0.13449635 -0.092349075 0.055561315 -0.17368488 -0.21650034 -0.10298587
-0.050124895 0.0016898661 -0.057363212 0.051409785 -0.18232551 -0.15706849 -0.2008023 0.04645754
-0.047949914 -0.0083500305 -0.18748796 -0.028150419 -0.06339574 0.05965751 -0.10077297 -0.17852129
-0.08479827 -0.18743712 -0.1198438 -0.122219786 -0.13309696 -0.040344283 -0.16269681 -0.13163707
-0.0070976266 -0.115937434 -0.14885826 -0.066491306 -0.09991604 -0.09626499 -0.156534 0.083763584
-0.026508685 -0.13626383 -0.17829737 -0.10055276 -0.06787235 -0.1150927 -0.06801594 0.037471157
-0.08559864 -0.0610316 -0.13095666 -0.037524827 -0.14639819 -0.09304889 -0.07911697 -0.11784974
-0.18040472 -0.06354926 -0.06030071 -0.14329182 0.039988324 -0.09231731 0.0049271435 -0.17997637
-0.038049486 -0.0897132 -0.08360291 -0.12355416 -0.14359063 -0.11640859 0.01830694 -0.118232325
-0.02178073 -0.036281526 0.046371937 0.04828592 -0.17633986 0.029991696 -0.19105923 -0.07479675
-0.078022934 -0.0035197462 -0.19828822 -0.06815102 -0.11185512 -0.09453809 -0.17386639 0.03719724
-0.067616306 -0.018999796 -0.22058786 -0.14587946 -0.05024133 -0.16595371 -0.07885917 -0.16024308
0.014504807 -0.1906093 -0.035100203 0.017663896 -0.13611421 -0.08724974 -0.17372073 -0.19473119
-0.1279223 -0.17324522 -0.06254386 -0.08081266 -0.03382073 -0.15112613 0.055303514 0.09095538
-0.07948788 -0.1535104 -0.05962777 -0.08876857 -0.20668724 -0.22112179 -0.10290987 -0.23806456
-0.16307774 0.08119256 -0.16154428 -0.13256748 -0.22545464 -0.20465195 0.014823633 -0.0009314731
0.07752519 -0.047582075 0.019985097 -0.3183922 -0.057939 0.04544576 -0.15805839 -0.07129517
-0.12508132 -0.1487729 -0.2166424 -0.07403164 -0.11832889 0.011891829 -0.12775436 0.043420844
-0.092572056 0.00907349 -0.05596695 -0.114626594 -0.040859494 -0.23835802 -0.11249763 -0.22055873
-0.012847333 -0.04702482 -0.15639094 0.08316101 -0.03840883 -0.18449377 -0.08502996 -0.24295613
-0.14697056 -0.043856777 -0.05042893 0.047628157 0.0020840107 -0.0926572 -0.07869016 -0.017829657
0.045364935 0.017396055 -0.25454322 0.07014452 -0.17519115 -0.14111225 -0.061706286 -0.022016285
-0.18701039 -0.08434429 0.07888115 -0.06476243 -0.024780458 -0.0077786585 0.019516336 -0.13030489
-0.18114485 -0.18048698 0.04825647 -0.031934794 0.051692113 -0.20335351 0.09203651 -0.035064917

network_body._body_endoder.seq_layers.0.weight f4 [256, 513]
00000000: 9016 d3bd d0bf 2bbe 216b cc3b ce07 24be
00000010: d2bd 26bd ef3e 333d c902 47bd 70cf e03c
00000020: 2f48 2b3b 198e 4fbd e3ef 54bd ed6c 963d
00000030: b5fc ad3d 7f69 9bbc 9835 93bd b8a2 02bd
00000040: d341 eabb 86d0 1bbd 5f18 f8bd 3ff7 7d3d
00000050: c542 26be 5f23 ddbd 2884 d2bd 22f3 01bc
00000060: 219a babd ccf6 53be 0ad6 88bc 1483 0fbe
00000070: 000f 7cbe 6b42 ac3d 9841 5f3d 7476 dd3b
00000080: cc9b 343d 5da2 3b3c ece8 b8bc 419a c5bd
00000090: e182 e6bd 01dd d4bd 70aa 3ebd 9b4a c2bd
000000a0: d133 503c 6d5b cdbd d317 f0bc b64d 173d
000000b0: d7e0 9abd e69d 9abd 59cc d1bd 0d21 b1bd
000000c0: 4f29 80be af2a 82be fccd e7bd 554e ee3c
000000d0: 041f d5bd 6ec3 2dbe 75e9 773c 8e09 11be
000000e0: e610 813d a5aa 2dbc 27e9 653c 4299 bebc
000000f0: bb72 843d 5679 45bd 3674 42be 9bad 283c
00000100: ae4d 5abc 959d c6bc e126 ea3c 23c8 48bc
00000110: 9af0 ddbd 9335 e6bd 97ad 31bc 93d2 aa3d
00000120: 54b6 9ebd 4982 1c3e 901e 2dbd 649e c6bc
00000130: 8bb8 bfbd 4e80 79bd 1eeb 8fbd 1f23 933c
00000140: 937d a83b 2236 b83d b8bc 9ebd 78b5 1abe
00000150: 3e74 81bc a512 e03b 87ba 20bd 02aa 5c3d
00000160: 6e1c 343c 4c8c a93d fbe1 1ebe 81d0 dc3c
00000170: d390 ffbd 4cf7 233d 505d 483d ab38 7d3d
00000180: c136 0dbd 6080 22be bc90 4c3d bb85 47bd
00000190: c2fa 1b3d 00f4 41bd 9e00 d83d cb7d 49bc
000001a0: 657f 01be 0889 023d 2695 dbbd a739 113c
000001b0: 290e 523b ebd2 2dbd d4e2 9ebd 22d1 e9bd
000001c0: ff53 cc3c e205 bdbd 731c 433d c1ba a6bd
000001d0: 1b9b 273e f8e7 89bd 3209 23be 0bf0 b93d
000001e0: b562 55bd 5e74 043c 373d d73d 9e1e 68bc
000001f0: cfd1 8b3d e1c7 0ebe fd81 753d 00c9 55bd
00000200: adc8 0cbc 7208 b43a 97c5 51bb 0869 17bd
00000210: aa75 d6bd f473 afbb 66df 4e3c bf29 fc3c
00000220: 7cfc f8bd 722a 36be e516 1cbd 4a4a 49bd
00000230: b296 143d 0f6c 67bd 9c30 2bbd f986 e2bd
00000240: 9d70 4abe b4c3 e0bd c5a8 1ebe 4fc5 f43c
00000250: eb33 e1bd bd74 2a3d 5ffa 25be 11c0 adbd
00000260: 6419 cdbd 77f8 f1bd 423d 383d 4521 4cbd
00000270: cea9 31bd 5c29 1bbe 821e 32bc ee2a cabc
00000280: a1b2 83be 7676 a2bd a93c b83c 3d25 483d
00000290: d1d0 d2bc 9fbe 58bd 3ef7 98bd 9680 43be
000002a0: 83ef f1bc e92f 8e37 a16c 40bc a000 573d
000002b0: 85f7 ef3d a1b0 d1bd cf36 94be 3b9e 1dbe
000002c0: b669 a73d d27b 993c c293 0bbe 5faf 90bd
000002d0: 67b8 38be 3587 e3bd 937f ae3c 73a5 313c
000002e0: 0ee1 cc3d c77d ac3c 21bb 6b3c 24fb 6abd
000002f0: 7773 08be c22d 22bc 88be c13d 52b5 80bd
00000300: 0603 ce3d efc6 29be 9e7e 18bd e2d5 a6bc
00000310: e0af 56bd f838 c6bd cdc9 a13c 3353 4a3d
00000320: 4943 07bc adfd 8abd 743e 2fbe 39e1 09be
00000330: 85b8 1bbe 9dd2 463c c4b1 793d 4bc4 38be
00000340: e681 6ebb fd88 17be 33d6 863d 71cf 2d3d
00000350: 113d 33bb 471c afbc 0375 05be 9576 dbbd
00000360: 0277 cdbd 120e e5bd 8e96 aa3d 5cd9 fd3d
00000370: f95f 4b3d 17a9 e3bd 70f8 e93c f689 dfbd
00000380: 3c78 1abe 06cc 4b3d 4632 2c3e 3309 283b
00000390: 17d4 e8bd 82b5 57bd 6825 b3bd a227 323b
000003a0: f361 04be d202 c1bc 507f a53c a739 763c
000003b0: 05bb 53bc 7f32 33be 5fd4 f4bc 6c9e 91bd
000003c0: 56e8 17be b62c 41bd 9f08 34bd a007 6bbd
000003d0: 4f4f 1abd dc2d 69bd 9ffd 8abd 663e 03be
000003e0: 440f 913d bd91 22be 1153 89bd 9428 f7bd
000003f0: 36bb fdbd f4d9 bbbd 444e 3bbd 2d04 893d
-0.10307038 -0.1677239 0.0062383567 -0.16018602 -0.04070837 0.04376119 -0.04858664 0.027442664
0.0026135554 -0.050672624 -0.051986586 0.07344995 0.08495466 -0.018971203 -0.071879566 -0.031893462
-0.00714896 -0.03804066 -0.121140234 0.06200337 -0.16236408 -0.10797762 -0.10279113 -0.007931503
-0.09111429 -0.20699614 -0.016703624 -0.14014846 -0.24615097 0.08411106 0.054505914 0.0067585055
0.044093892 0.011452285 -0.022572003 -0.09648562 -0.11255432 -0.10393716 -0.04654926 -0.09486886
0.0127076665 -0.10027204 -0.029308235 0.036939345 -0.07562416 -0.07549648 -0.10244054 -0.08648882
-0.25031516 -0.2542319 -0.11318585 0.029090086 -0.104063064 -0.16969082 0.015131344 -0.14163801
0.06302051 -0.010599767 0.014032639 -0.023266438 0.064671956 -0.048211418 -0.18989643 0.010295297
-0.013324184 -0.024245063 0.028582992 -0.012254748 -0.10836907 -0.11240687 -0.01084461 0.08340945
-0.0774962 0.15284075 -0.042265475 -0.024245448 -0.09361371 -0.060913377 -0.07027267 0.017961083
0.0051419227 0.089947 -0.07750839 -0.15108287 -0.015802499 0.00683816 -0.039240386 0.05387307
0.010993106 0.08278713 -0.15515892 0.026954891 -0.12478795 0.040030763 0.048917115 0.06182162
-0.034476046 -0.15869284 0.049942717 -0.04871152 0.03808094 -0.047351837 0.10546993 -0.012298058
-0.12646253 0.031868964 -0.10721807 0.008863843 0.0032051897 -0.042437475 -0.07758108 -0.11416842
0.024942396 -0.09229638 0.047634553 -0.08141089 0.16367762 -0.06733698 -0.15921476 0.09078988
-0.052096087 0.008084385 0.10509723 -0.014167456 0.06827127 -0.13943435 0.05993842 -0.05219364
-0.008592767 0.0013735427 -0.0032008642 -0.0369654 -0.104716614 -0.005354399 0.0126265045 0.030781625
-0.121575326 -0.17789629 -0.03810777 -0.049143113 0.036276527 -0.056499537 -0.041794404 -0.110609
-0.19769521 -0.109748274 -0.15494068 0.02987924 -0.10996231 0.041615237 -0.1620879 -0.084838994
-0.100146085 -0.11814969 0.044980295 -0.049836416 -0.04337483 -0.15152496 -0.010871531 -0.024678674
-0.2572222 -0.07932751 0.022489863 0.04886364 -0.025734337 -0.052916165 -0.07469033 -0.1909202
-0.029533153 1.6950029e-05 -0.011744649 0.05249083 0.117171325 -0.102387674 -0.28948066 -0.15392391
0.0817446 0.0187358 -0.13630584 -0.070646994 -0.18039094 -0.11109773 0.021301067 0.010842669
0.10003863 0.021056069 0.014387877 -0.057368413 -0.13325296 -0.009898605 0.09460169 -0.06284584
0.100591704 -0.16579793 -0.037230127 -0.02036566 -0.05241382 -0.09678835 0.019749546 0.04939575
-0.008255788 -0.06786666 -0.17113668 -0.13464822 -0.15207107 0.012135175 0.060960546 -0.1804363
-0.0036393343 -0.1479835 0.06583824 0.04243416 -0.002734963 -0.021375788 -0.13032918 -0.10715977
-0.100324646 -0.11184324 0.08329497 0.12394974 0.049652074 -0.11116236 0.028560847 -0.10914986
-0.15084928 0.04975512 0.16816053 0.0025640249 -0.11368578 -0.052663334 -0.08747369 0.0027184268
-0.1292799 -0.023560915 0.020202309 0.015028394 -0.012923007 -0.17499731 -0.029886423 -0.07110295
-0.14834723 -0.04716178 -0.043953534 -0.05738032 -0.03767329 -0.0569285 -0.06786656 -0.12816772
0.0708299 -0.15875907 -0.06705297 -0.120682865 -0.12389223 -0.09172431 -0.045728937 0.066902496

network_body._body_endoder.seq_layers.2.bias f4 [256]
00000000: 9e13 5cbd 87cd 223b e23b 173d 2a5a 2abe
00000010: d78f d2bd 2071 0abd f8e8 a8bd b651 f7bc
00000020: 527b d23c e3c1 eabc 341c 983c 1803 3cbd
00000030: 39f7 b73c 0383 67bd 84d2 13be 290b ffbd
00000040: b7e6 f4bc 96fe 123d d868 fdbd 4e35 cd3d
00000050: fee0 8dbd 4c6e 7fbe 697c 50bc 1098 7b3d
00000060: d6ad 473b ced7 0ebe 772c d3bd 26bf 8bbd
00000070: d655 09be 89d6 ae3b 3384 90bd 1231 30bd
00000080: 276f 40bc 10c8 cbbd 322c 743d e1ae ffbd
00000090: f15c 3bbe b865 15be 6f43 f1bd bcf8 8b3c
000000a0: a15c 3cbe 29b2 e9bd 7296 85bd a7a1 363c
000000b0: e6cc 053c 8f48 87bd 61e4 803d 8cfa c7bd
000000c0: 096e 1fbe 567c 5fbe 8d87 4fbc e802 3ebe
000000d0: c9e1 0fbe 3a79 dfbd f240 cbbd e553 b4bc
000000e0: a1bb 6dba 359e 30be 4fac cabd cc2d c8bd
000000f0: ee08 9ebc 0892 e23b 4151 13be 7176 c13d
00000100: c617 febd 061d debc 6472 83bb 2d07 37be
00000110: 683b 4d3d d1f1 74bd 7780 acbd e5fa e9bb
00000120: 0969 2a3c 66c1 32be 11c7 b7bc eece 47bd
00000130: f8c1 1b3d 157e abbd 2d63 d63c ab43 77bd
00000140: 55d9 80bd 8d98 233d 88cb 03bd 7e2a 1fbe
00000150: 176a d3bd 4863 d13c 5f97 12be df05 32be
00000160: 159f a7bd c519 c1bd 8f1c 31bd 60c2 89bd
00000170: 0318 5fbe 606d c7bd 1347 5bbe 7459 043d
00000180: 8385 033e 8876 3dbe 7a7a 51bd 4f73 c1bd
00000190: b67d 2ebd d303 aa3c 71e5 06bd 6620 4c3d
000001a0: 2fe4 90bc 5ac1 5dbd f4c7 b93d c360 e1bd
000001b0: 6f4e 4bbe c3a3 c8bc d465 ca3c dfc1 f7bc
000001c0: ee76 4fbe c3c0 63bc a2b2 2e3c 5b52 b0bd
000001d0: 801e 3d3a a35e 4abe 515c a7bd 9f91 31be
000001e0: b74b 81bd af54 01be a97f 2abe 53b5 71bd
000001f0: e91a 98bc 0a29 7f3c c53c 68bc 0d41 78be
00000200: 7f51 23be e5a0 0f3c 21a5 afbc 6411 06be
00000210: 62c9 ab3b bbb0 f8bd 72ba f8bd af90 36be
00000220: 4850 16bd 97dc 143c bb96 143c 3293 453c
00000230: 6f47 413d 6301 8a3d 4fa1 dabc 7725 9abd
00000240: e60f 26bd 9497 8bbd 574f abbc fac1 1abd
00000250: 3ddd 86bd 4511 acbc 4d6f 423c f743 5ebd
00000260: 4060 d9bc fbf3 c1bd 038f 1ebd 5812 9bbd
00000270: 4a9c 89bd 271f 3dbd 5f91 d0bd e8ce 1bbc
00000280: bbcc bbbd dd5a 2ebd 6ecb ffbb 544b adbd
00000290: 25a6 1bbc 995c f3bd 970d 75bd 286d 53bd
000002a0: 5312 28bd 45a0 f33d e67d 05bd 5781 85bc
000002b0: 02c1 2dbd 5c4e 13bc e352 b7bd 3156 45bd
000002c0: 8a4b e9bd 28d6 ddbd 49c4 9abd 953c 88bd
000002d0: 80a9 303d 2202 70bd d3df 353d f8fa be3c
000002e0: c11f cb3d 78e5 e7bc 956d 993c 658d c43d
000002f0: 5d3c f4bd 8782 12be 4e50 b63d 8482 093d
00000300: 5444 c9bc 9817 36be d08b 973c 0510 c93d
00000310: 74ee b9bc e7b7 273d c1fe 19be d52f 213d
00000320: 91ea ecbd 90f3 78bd de6e 98bd 4d1e 96bd
00000330: d7cd 8cbd 9226 e23c 8af4 84bd 8b03 6bbe
00000340: ed39 09be 6d61 97bd 06ed 8bbd 581d 8bbc
00000350: 8b44 9ebc 54df 953d b01c c1bd afe2 6dbd
00000360: 8bfb 5fbd d13c cebd 9dd6 00be 30f8 5cbd
00000370: 5f1e f6bc 19c5 9b3a e841 883b 0704 33bd
00000380: f061 1abe 9d08 d53c e01e e93d e209 dabc
00000390: ad58 0bbe f660 023d fc10 47bc 9206 c5bc
000003a0: 71a4 03be ed08 03be d668 253d 2e35 a9bd
000003b0: 7dee 1bbe df61 92bd 531e 133e f125 0abe
000003c0: 094d e5bc c3bd c5bb 34d7 96bd 3f22 17be
000003d0: acbc a1bb 1972 233d 937c 05be f9dd d1ba
000003e0: f426 ccba f741 d5b9 ab13 de3c 2b9c a8bd
000003f0: 53d9 083d 0107 d7bb 1b1a 52be 2a77 10bb
-0.053729646 0.0024841742 0.036922343 -0.16635957 -0.102813415 -0.03379929 -0.0824756 -0.03019033
0.02569357 -0.028656906 0.018568136 -0.045901388 0.022456752 -0.056521427 -0.14435774 -0.124533005
-0.02989517 0.035887323 -0.12373513 0.10019933 -0.069276795 -0.24944419 -0.012724974 0.061424315
0.0030468605 -0.1394951 -0.10311215 -0.06823568 -0.1341165 0.005335633 -0.07056465 -0.043015547
-0.011745251 -0.09950268 0.05961246 -0.124845274 -0.18297173 -0.14589584 -0.1178044 0.01708638
-0.1839471 -0.114109345 -0.06522836 0.011146939 0.008166527 -0.06605636 0.0629356 -0.09764585
-0.15569319 -0.21824774 -0.012666595 -0.18555796 -0.14050974 -0.10911794 -0.09924497 -0.02201266
-0.00090687914 -0.17247851 -0.098961465 -0.0977436 -0.019291367 0.006914381 -0.14386465 0.09446419
-0.12406878 -0.027113449 -0.004011439 -0.17873831 0.050105482 -0.059800927 -0.0842294 -0.0071405047
0.010401019 -0.17456588 -0.02243379 -0.048781328 0.03802678 -0.083736576 0.026170338 -0.060367268
-0.06291453 0.039940406 -0.032176524 -0.15543553 -0.103229694 0.025560036 -0.14315556 -0.17385052
-0.08184639 -0.09428743 -0.043240126 -0.06726527 -0.21786503 -0.097376585 -0.21413831 0.03231187
0.128439 -0.18502247 -0.051142193 -0.094458215 -0.042600356 0.020753777 -0.032933656 0.049835585
-0.017686931 -0.054139473 0.09071341 -0.11004784 -0.19854139 -0.02449215 0.024706759 -0.030243812
-0.20260212 -0.013900938 0.010662707 -0.08609458 0.00072143227 -0.19762664 -0.08171905 -0.17340706
-0.063132696 -0.1262996 -0.16650261 -0.059010815 -0.01856752 0.015573749 -0.014174645 -0.24243565
-0.15949057 0.008766388 -0.021441044 -0.13092571 0.0052425126 -0.12143084 -0.121449366 -0.1782863
-0.036697656 0.009085796 0.00906914 0.01205902 0.047187265 0.06738546 -0.026688246 -0.07526677
-0.040542506 -0.068160206 -0.020911856 -0.037782647 -0.065851666 -0.021004329 0.0118673565 -0.054264035
-0.026535153 -0.09470364 -0.038710605 -0.07571858 -0.06719263 -0.046172287 -0.10183977 -0.0095097795
-0.091699086 -0.042567123 -0.007806233 -0.08461633 -0.009500061 -0.11882896 -0.059827413 -0.05161777
-0.0410331 0.11895803 -0.03259077 -0.016297026 -0.042420395 -0.00899085 -0.08951356 -0.0481779
-0.11391361 -0.10831863 -0.0755697 -0.0665218 0.043130398 -0.058595784 0.04440291 0.02331303
0.09918166 -0.028307661 0.01872901 0.09597281 -0.11925576 -0.14307605 0.08902036 0.033571735
-0.024568714 -0.17782438 0.018499285 0.098175086 -0.022696711 0.040946867 -0.15038587 0.039352257
-0.115681775 -0.060779154 -0.07443021 -0.07329998 -0.06875198 0.027606282 -0.064919546 -0.2295057
-0.13401003 -0.07391629 -0.06832318 -0.016981766 -0.019319793 0.07317987 -0.094293 -0.05807751
-0.05468325 -0.100701936 -0.12581868 -0.053947628 -0.030043779 0.0011884301 0.0041582473 -0.043705013
-0.15076423 0.026005084 0.11382842 -0.02661604 -0.13608046 0.03183075 -0.0121500455 -0.024050985
-0.12855698 -0.12796374 0.040383182 -0.08262096 -0.15227695 -0.07147574 0.14367037 -0.13491036
-0.027990835 -0.0060345843 -0.073652655 -0.14759158 -0.0049358215 0.039903734 -0.13035803 -0.0016011588
-0.0015575574 -0.00040675674 0.027108988 -0.08232912 0.03341038 -0.006562114 -0.20517771 -0.0022043684

network_body._body_endoder.seq_layers.2.weight f4 [256, 256]
00000000: 3d80 06bd 1768 9ebd 88f8 b5bd e509 89bc
00000010: 4f82 013e 81dd debd 07cb 06be b752 d93d
00000020: 6d51 9c3d 2d8f c3bd 7848 92bc 5240 3dbc
00000030: 051a bbbd a633 ee3c bcf9 863c a087 a9bc
00000040: 5d88 34bd 29e5 4f3d 3672 953d f68a 443b
00000050: d6ec 8e3d 48af 873e aef5 b2bd 1ff4 d6bc
00000060: 593b 8c3d b3dd c6bd 7187 993d f1b5 6abc
00000070: 467b d33d 2eb9 82bd cc7e 96bd 57b1 ddbd
00000080: 0160 983d 8aa5 01be 30e1 bcbb bbeb a5bd
00000090: 8f67 d0bd a33c 283e 8ecf 403d 36c2 dabd
000000a0: b3c9 023e 367c 56bd 6ac3 e7bd 7d3f 9d3d
000000b0: 313b 783d 1ea5 433c e3c5 e3bd 80ac 33bc
000000c0: 9f77 7c3d 94d7 52be 4f58 73bd 7d95 9dbd
000000d0: 669c 3abd 3ba6 43bc 9136 53be c8ee acbc
000000e0: d102 243d 657b 993c 394f 113d 22dd 86bd
000000f0: 7c81 f6bb d05e 123e 2637 1f3e 398e b6bd
00000100: a562 32be c62d b23d b21c d6bd dd58 05bd
00000110: 5214 1d3d a3e3 113c de7e da3d bb44 f2bd
00000120: f3c8 85bd a8c1 c5bd 22d9 9f3d 3420 723d
00000130: eff1 63bd 9916 203d 8711 0abe 339a 8bbd
00000140: bf59 c13d 27ac 14bd 4959 2fbd 0a6e 25bd
00000150: 4c3e ca3a d98c d73c d981 cabd da58 0d3d
00000160: 4b7e 9b3d ccaa 2abe 46e2 41bc b240 b93c
00000170: 32b0 75bc f03b 443e e1e0 cdbd be55 5f3d
00000180: 7f57 683d 6407 ebbd 833e 9bbd 1fb8 14bd
00000190: 9be8 f2bc 8855 003e 53a5 21be 63a0 0f3d
000001a0: c005 2ebe ff23 09bd e988 1fbe 036e 40be
000001b0: 2187 ac3c 1af2 ac3d bfff 31be 79d2 aa3d
000001c0: ffc2 dd3c 052f fdbd 827a cd3c 7f5e 123c
000001d0: 96d9 973b 5fcd ddbd a266 a53d 7264 c8bd
000001e0: aff5 753e 503a 6dbd 6613 37be c1c9 443c
000001f0: 34ed fb3d a562 c53b 0c37 29bd 4f12 c3bd
00000200: d766 01be c7ce 9b3b a70e 7f3c d757 0f3d
00000210: 49d6 6c3d f6f6 0fbe e446 3fbe d901 79bd
00000220: f42c 9c3b d01d e3bc 34dd 93bd 8510 f9bd
00000230: 10a8 993d 9058 10be 8d67 92bd 2dbe 2e3e
00000240: 154e b23d ad23 9f3d ac52 c3bd a1c4 9dba
00000250: aaa2 b43c 2f6f be3c 5714 4bbd f234 33bd
00000260: b4f6 10be f714 023e 0129 3fbe 69d9 00be
00000270: fb35 d93d 6979 22bd c271 f23b 102e 343d
00000280: 6d20 22be a5bb a93d b34c 8f3d 92a8 233e
00000290: d886 47bd f16c 6c3d 42d1 b0bd e3d1 5a3c
000002a0: 2a16 193e 8433 073b 8407 0fbc 8a2e 5f3e
000002b0: da4f 053e 770a 98bc 030b e2bd ae2f bf3c
000002c0: 1540 c1bd daea ab3d fcbd 583d 059b dd38
000002d0: d6bd 003e 7610 f7bd b295 b9bd 0e66 ab3d
000002e0: ca21 96bd a099 a03d fb4c 853d 2040 a93c
000002f0: 7f98 213d 5dd5 773d e372 73be b430 90be
00000300: 8a4e c83a 2efe b83d de38 3dbd cc4a 443b
00000310: 7a83 2ebe 2453 043e e76e 2abb 1633 04be
00000320: 7b0f 13be e7c4 b2bc ca2c 8cbd 266a 48bd
00000330: f9c1 94be be99 3abd fdfb 40bd e4f9 733d
00000340: 7769 93bd 5f86 50be 35bc 0ebe dfab 253c
00000350: d75b ecbb b34b ca3d f187 9bbd cf61 abbd
00000360: 7568 97bc 7401 afbd b109 95bd 991a 463e
00000370: ff4d d0bd 1432 32bd 1aa3 a63d 7f4b 2dbe
00000380: c3a3 68bc c1c3 613d c3fc 823e 1834 803d
00000390: 9e1a 36be fda2 33be 343a 013e a485 00be
000003a0: ec0f 7a3d f459 503c df85 5abc 56fa 123e
000003b0: 76f5 40be 25bc 81bd 3441 cebd e444 cbbd
000003c0: 572c 353d 139a 2e3e 2ad9 d2bd 503d 30be
000003d0: e198 93bc ee01 d9bc 1fe0 dbbd c76f abbb
000003e0: 39ef 683d a537 4fbc 8303 353d a448 9fbd
000003f0: fcfa 5abd 07ca 763d 8b76 3bbe 8124 75bd
-0.03283714 -0.07734697 -0.08885294 -0.01672835 0.12647365 -0.10882092 -0.13163386 0.1061148
0.07632718 -0.09548793 -0.017856821 -0.01155098 -0.09135822 0.029077362 0.016476505 -0.020694554
-0.04407536 0.050755654 0.07297175 0.0029990054 0.069787666 0.26500916 -0.08738266 -0.026239453
0.06847257 -0.097102545 0.074965365 -0.014325605 0.10326247 -0.063829765 -0.07348403 -0.108248405
0.07440186 -0.12660804 -0.005764149 -0.08101603 -0.10176002 0.16429381 0.04707294 -0.10681574
0.12772255 -0.05236455 -0.11316569 0.07678125 0.060603324 0.0119412225 -0.11121728 -0.01096642
0.061637517 -0.20590049 -0.05941039 -0.07694528 -0.04555931 -0.011941488 -0.20626284 -0.021109954
0.04004175 0.018735597 0.035475943 -0.065851465 -0.00752276 0.1429398 0.15548381 -0.089138456
-0.17420442 0.08700137 -0.10454692 -0.03255545 0.038349457 0.0089043705 0.10668729 -0.118295155
-0.06532469 -0.096560776 0.07805087 0.059112743 -0.055650648 0.03908405 -0.13483249 -0.068165205
0.09440946 -0.03629699 -0.04280976 -0.040388145 0.0015429943 0.026312279 -0.09888048 0.034508564
0.07592448 -0.16666716 -0.011833733 0.022613857 -0.0149956215 0.1916349 -0.10052658 0.05452513
0.056724068 -0.11476019 -0.075802825 -0.036308404 -0.02965193 0.12532628 -0.15785722 0.035065066
-0.16994381 -0.033481594 -0.15579571 -0.18791966 0.021060528 0.08444615 -0.17382716 0.08340926
0.02707052 -0.12362484 0.02508283 0.008933662 0.0046340926 -0.10830187 0.08076216 -0.097847834
0.24019502 -0.05791694 -0.17878494 0.0120109925 0.12301102 0.0060237222 -0.041312262 -0.095249765
-0.12636887 0.0047548744 0.015567458 0.03499588 0.057821546 -0.14059052 -0.18679386 -0.060792778
0.004766101 -0.027724177 -0.072199255 -0.12161354 0.075027585 -0.14096284 -0.07148657 0.17064734
0.08706299 0.077704765 -0.09537253 -0.0012036749 0.02205022 0.023246376 -0.049579944 -0.043751664
-0.1415661 0.1270331 -0.18667985 -0.12582935 0.10605999 -0.039666567 0.007398815 0.04398924
-0.15832682 0.082877435 0.06997051 0.15982273 -0.04871258 0.057721082 -0.08633663 0.013355705
0.14949861 0.002063007 -0.008729819 0.21795097 0.13018742 -0.018559678 -0.110372566 0.023338165
-0.09436051 0.08394404 0.05291556 0.00010566976 0.12572417 -0.120636865 -0.09061755 0.08369075
-0.073306635 0.07841802 0.065088235 0.02066046 0.039452072 0.060506213 -0.23774295 -0.28162158
0.0015282196 0.09032856 -0.04619681 0.002995181 -0.17042342 0.1292234 -0.0026006044 -0.12910113
-0.14361374 -0.021822406 -0.0684448 -0.048929356 -0.2905424 -0.045556776 -0.047115315 0.059564486
-0.0719785 -0.20363759 -0.13938983 0.010111778 -0.0072130966 0.0987772 -0.07594288 -0.08368265
-0.018482426 -0.08545199 -0.07277239 0.19346084 -0.101711266 -0.04350479 0.08136578 -0.1692333
-0.0141992 0.055118326 0.25583467 0.06259936 -0.17783591 -0.17542644 0.12619859 -0.1255098
0.06105034 0.012716759 -0.013337581 0.14353308 -0.18843636 -0.06334714 -0.1007103 -0.09925249
0.04423174 0.17050962 -0.10295327 -0.17210889 -0.018017234 -0.026490178 -0.10736107 -0.0052318308
0.056868766 -0.012647544 0.044192802 -0.07777527 -0.053462014 0.060251262 -0.1830694 -0.059849266
