Assets/TFModels/Other models trained in the process/prova_curr_6M.onnx (onnx, 911175 bytes, 9 tensors)

action_model._discrete_distribution.branches.0.bias f4 [5]
0	0x3d13bf70	0.03607124
1	0x3d7bf65b	0.06151424
2	0xbe28b161	-0.16473915
3	0xbb2f38a1	-0.0026736634
4	0x3d19d0e6	0.037552737

action_model._discrete_distribution.branches.0.weight f4 [5, 256]
0	0x3d0d2198	0.034455866
1	0xbdfbe725	-0.12299947
2	0x3e3a86d1	0.18215491
3	0xbe29b8d8	-0.16574419
4	0x3d16df59	0.036834095
5	0x3d96f042	0.07370044
6	0xbcc253e2	-0.023721639
7	0x3d1a8fbe	0.03773474
8	0xbe455c36	-0.19273457
9	0x3d8c5b7e	0.06853388
10	0x3dcc8436	0.09986155
11	0xbe790178	-0.24316967
12	0x3d3a929f	0.045549985
13	0xbe227009	-0.1586305
14	0x3e0968d3	0.13418894
15	0x3cb7279f	0.02235776
16	0x3cfcc90f	0.030857591
17	0xbe1de94e	-0.1542103
18	0x3d2c5cb3	0.042080592
19	0xbd7411b7	-0.059587207
20	0x3d328a0e	0.04358869
21	0xbdb61363	-0.088904165
22	0x3d7e8554	0.06213887
23	0xbdd77945	-0.10521177
24	0xbc984bfa	-0.018590916
25	0x3c94e47d	0.018175358
26	0xbe1e1ae4	-0.15439945
27	0x3d0e8a1b	0.034799676
28	0x3cf2cf3a	0.029639829
29	0x3e325e32	0.17418745
30	0x3de63fb9	0.11242623
31	0x3c85f980	0.016354322
32	0xbcce0358	-0.025148079
33	0xbc69ab79	-0.014262074
34	0x3cd3b08e	0.025841024
35	0xbd93edeb	-0.072231136
36	0xbb8a29a1	-0.0042163883
37	0x3d4f3654	0.05058892
38	0xbe02745b	-0.12739699
39	0x3e1c7348	0.15278351
40	0xbe588605	-0.21144874
41	0x3d061f4f	0.032744702
42	0x3e13dfd4	0.14440852
43	0xbcbfd097	-0.023414893
44	0x3de893e0	0.1135633
45	0xbe1c97f4	-0.1529234
46	0x3c964974	0.018345572
47	0xbc0159bc	-0.0078949295
48	0x3d759a7e	0.05996179
49	0xbc81e8a8	-0.01585801
50	0xbe025b28	-0.12730086
51	0x3dea0699	0.1142704
52	0xbd212418	-0.039341062
53	0xbdff65a2	-0.12470557
54	0xbd372746	-0.04471519
55	0x3e98dc14	0.29855406
56	0x3dfb1325	0.12259511
57	0xbd191c86	-0.037380718
58	0x3d76b011	0.060226504
59	0x3d85c295	0.06531254
60	0x3da25eab	0.07928213
61	0xbd8dcf33	-0.06924286
62	0x3d2727ff	0.040809628
63	0xbe793c14	-0.24339324
64	0x3bd2b90a	0.00643075
65	0x3e1435a4	0.14473587
66	0x3db45394	0.08805004
67	0xbe5be825	-0.21475275
68	0xbdf4a74d	-0.119459726
69	0xbce094fe	-0.027414795
70	0x3e8e7b18	0.27828288
71	0x3c087016	0.008327505
72	0xbd98e395	-0.07465283
73	0xbdaa9d1a	-0.08330746
74	0x3e11144b	0.14167897
75	0x3d7a8ef3	0.061171483
76	0x3d6a6dfb	0.05723379
77	0xbd7f506f	-0.062332567
78	0x3a475b05	0.00076048105
79	0x3dcfd6b2	0.10148372
80	0x3e009796	0.12557825
81	0x3e3c2550	0.18373609
82	0xbdab7077	-0.0837106
83	0x3da803a7	0.08203822
84	0x3ea280c7	0.31738874
85	0x3e45193e	0.1924791
86	0xbdc80c74	-0.09768
87	0xbc8f49fb	-0.017491331
88	0x3de285a4	0.11060646
89	0xbdaecf94	-0.08535686
90	0xbdef17c2	-0.11674453
91	0xbca1e2cf	-0.019761471
92	0xbd9fe532	-0.078073874
93	0x3e1954c0	0.14973736
94	0xbc5828b6	-0.0131933
95	0xbe09bb8d	-0.13450451
96	0xbd321673	-0.04347844
97	0x3da21748	0.07914597
98	0x3d9a6844	0.07539418
99	0x3d0b6168	0.03402844
100	0x3decbf9d	0.11559985
101	0xbe539a8f	-0.20664428
102	0x3e13341f	0.14375351
103	0x3e1a10bf	0.1504545
104	0xbe37cd9c	-0.17949528
105	0x3e0ed864	0.13949734
106	0x3da2f6b1	0.07957209
107	0xbad6fe50	-0.0016402695
108	0xbd49ec5d	-0.04929768
109	0x3d788bcf	0.060680207
110	0xbd6256f7	-0.055258717
111	0xbdd34c48	-0.10317284
112	0x3d869aa7	0.06572466
113	0xbd81e0eb	-0.06341728
114	0xbde5ec66	-0.1122673
115	0x3dc61d3f	0.09673547
116	0xbbabab9b	-0.005238963
117	0xbd0e5d4f	-0.034756955
118	0xbd944b83	-0.07240965
119	0xbdf6fe2e	-0.120602
120	0x3c5718de	0.013128487
121	0xbc8e973a	-0.017406095
122	0x3c772ed7	0.015086851
123	0x3dbcf91a	0.092272
124	0x3d86fc36	0.06591074
125	0x3e6d6966	0.23184738
126	0xbd4bd17e	-0.049760334
127	0xbcb91e12	-0.022597346
128	0x3e494bac	0.19657773
129	0xbd8f9de1	-0.07012535
130	0x3e09c5d7	0.13454376
131	0x3d11c78a	0.035590686
132	0xbe40edbb	-0.18840687
133	0xbe80d9b0	-0.25166082
134	0x3cba087d	0.022709126
135	0x3db72a08	0.08943564
136	0x3dad7e51	0.084713586
137	0x3e37664a	0.17910114
138	0x3e354c8a	0.17704979
139	0xbe1e9532	-0.15486601
140	0xbc823a6d	-0.015897
141	0x3e0f6b9b	0.14005892
142	0xbdfb019a	-0.12256165
143	0x3c8d5b41	0.017255427
144	0x3d98f4f9	0.074686
145	0x3bb616d6	0.0055569215
146	0xbe803a8c	-0.25044668
147	0x3d5473e5	0.05186834
148	0xbdf1d934	-0.11809006
149	0x3d7679ef	0.06017488
150	0xbdff93b6	-0.124793455
151	0x3d32c5db	0.04364572
152	0x3dfcd51e	0.123453364
153	0x3da80511	0.08204091
154	0xbe09ae75	-0.13445456
155	0xbd9f5d59	-0.077814765
156	0x3d5e1337	0.054217543
157	0x3df0294d	0.117266275
158	0xbc9a83c1	-0.018861653
159	0x3d693238	0.056932658
160	0xbe16350b	-0.14668672
161	0x3da5d8a5	0.08097962
162	0x3df47ea4	0.11938217
163	0x3c252527	0.010079659
164	0x3dd59b87	0.10430055
165	0xbe225d72	-0.15855959
166	0xbec0b73c	-0.37639797
167	0x3a98ae70	0.0011648666
168	0x3d1c1346	0.038104318
169	0x3e24b251	0.16083647
170	0x3e1ad321	0.15119602
171	0xbdd29b59	-0.102835365
172	0x3d47429b	0.048647504
173	0x3dc79370	0.09744918
174	0xbe1fe05f	-0.15612935
175	0x3e010c86	0.12602434
176	0x3e76f378	0.24116313
177	0xbdd54c8c	-0.10414991
178	0xbbb93de6	-0.005653131
179	0xbc72fa96	-0.014830252
180	0xbd5d63b0	-0.054050148
181	0xbe6f8c44	-0.23393351
182	0xbe191bb8	-0.1495198
183	0x3c61d053	0.0137825785
184	0x3e640d70	0.22270751
185	0x3e08b8d4	0.13351756
186	0x3c691957	0.014227233
187	0x3e390535	0.18068393
188	0x3e88ea9c	0.26741493
189	0xbe0376ee	-0.12838337
190	0x3d95aa91	0.073079236
191	0xbd6133c9	-0.054981027
192	0x3de84215	0.11340729
193	0x3e115d92	0.1419585
194	0xbd19270c	-0.037390754
195	0x3db30354	0.08740869
196	0xbdbd6258	-0.09247273
197	0xbd1863b1	-0.037204448
198	0xbd6c3077	-0.057663407
199	0x3e119665	0.14217527
200	0xbe0c12e8	-0.13679087
201	0x3c445a5f	0.011984437
202	0x3d57113a	0.052506663
203	0xbd30874a	-0.04309777
204	0x3d292fa5	0.041305203
205	0xbcf2a4eb	-0.029619655
206	0x3e6acee9	0.22930492
207	0x3b1e6a8a	0.002417239
208	0x3e0e7fd8	0.13915956
209	0xbe77f0fb	-0.2421302
210	0xbe0608de	-0.1308932
211	0x3d56a8bc	0.05240701
212	0xbd0fc1f0	-0.035097063
213	0xbdb69363	-0.089148305
214	0x3cd7e939	0.026356326
215	0x3e459542	0.19295219
216	0xbd1a6158	-0.03769049
217	0x3e1d81ba	0.15381518
218	0x3d9028b4	0.070390135
219	0xbcadb935	-0.021206478
220	0xbd109aa1	-0.035303716
221	0x3e0459e7	0.1292492
222	0xbcc099ea	-0.023510892
223	0xbd97c91d	-0.07411406
224	0xbbd77f42	-0.0065764496
225	0x3d9e75a4	0.07737282
226	0xbd70fc26	-0.058834217
227	0x3db7c5d3	0.08973279
228	0x3b8ce53b	0.0042997873
229	0xbe4a907f	-0.19781683
230	0x39be18b1	0.0003625802
231	0xbe114a84	-0.14188582
232	0x3c3448c7	0.01100368
233	0x3d9d4e59	0.07680959
234	0x3e0e539c	0.13899082
235	0x3c64a275	0.013954748
236	0x3dfef293	0.12448611
237	0x3da7cb2c	0.08193049
238	0x3e2adc5b	0.16685621
239	0xbc8a4a32	-0.016881082
240	0x3e20f17f	0.15717123
241	0x3c38e60b	0.011285315
242	0x3e419d23	0.18907599
243	0x3dc9c9a8	0.09852916
244	0x3d599e5a	0.05312953
245	0xbcb5872e	-0.022159185
246	0x3dadbc87	0.08483224
247	0x3e4b4e40	0.19854069
248	0x3df39de8	0.118953526
249	0x3da93c96	0.08263509
250	0x3ddafc78	0.10692686
251	0x3e3d39e4	0.18479115
252	0x3ec1761e	0.3778543
253	0x3e0fb4f4	0.14033872
254	0xbcf34482	-0.029695753
255	0x3e304622	0.17214254

action_model._discrete_distribution.branches.1.bias f4 [3]
0	0x3d9ed84e	0.077561006
1	0xbe573f9e	-0.21020362
2	0x3dd2fa97	0.103017025

action_model._discrete_distribution.branches.1.weight f4 [3, 256]
0	0xbd6ad1fe	-0.05732917
1	0x3e000a7d	0.12504001
2	0xbdeee74b	-0.116652094
3	0xbe185807	-0.1487733
4	0xbe3a74f1	-0.18208672
5	0x3bf13463	0.0073609813
6	0xbda07b30	-0.07835996
7	0x3e3f48b6	0.18680081
8	0x3cb8ce12	0.0225592
9	0x3b774982	0.0037733023
10	0xbd9dea8a	-0.077107504
11	0x3e157911	0.14596964
12	0xbe9a3e33	-0.3012558
13	0x3d09d382	0.033648975
14	0x3de8348d	0.11338148
15	0x3c905e1a	0.017622996
16	0xbd6cd294	-0.05781801
17	0x3d15b06c	0.036545202
18	0xbe3a5549	-0.18196596
19	0xbe7d9765	-0.24764784
20	0xbe6ca90e	-0.23111364
21	0xbe5284e6	-0.20558509
22	0x3e962ded	0.29331914
23	0xbe7c1fae	-0.2462146
24	0xbbfa8219	-0.0076449034
25	0xbe00f0b8	-0.12591827
26	0xbc901a27	-0.017590595
27	0xbea1b069	-0.31579903
28	0xbe325c55	-0.17418034
29	0xbd9cd7c7	-0.07658344
30	0x3e0f3e4a	0.13988605
31	0x3c852368	0.016252235
32	0xbdb16ae9	-0.086629696
33	0xbe529b47	-0.20567046
34	0x3d8895bb	0.06669184
35	0xbe88f1df	-0.26747033
36	0x3c899ed6	0.016799372
37	0xbd973e44	-0.07384923
38	0xbcac4f9f	-0.02103406
39	0xbe44269d	-0.19155355
40	0xbe4e2cb7	-0.20134245
41	0x3ccb2c16	0.024801295
42	0x3e523d6f	0.20531248
43	0x3e28f7f8	0.16500843
44	0x3df18ff5	0.11795036
45	0x3d5b67d5	0.05356582
46	0xbd6ebde4	-0.058286563
47	0x3e34641a	0.1761631
48	0x3e6116c7	0.21981345
49	0xbe7ce6d6	-0.24697432
50	0x3d47fa46	0.048822664
51	0xbe3140ae	-0.1730983
52	0x3e5a9b63	0.21348338
53	0xbb86676f	-0.0041016857
54	0x3cb9fd3a	0.022703756
55	0xbb2f47f6	-0.0026745773
56	0x3d167871	0.036735956
57	0xbea004c2	-0.3125363
58	0x3e011382	0.12605098
59	0xbe876a1e	-0.26448148
60	0x3e50ab97	0.20377956
61	0x3e245b4f	0.16050456
62	0xbcbe3940	-0.023220658
63	0xbe7966e3	-0.24355654
64	0x3dbfcc21	0.093651064
65	0x3dfefa64	0.12450102
66	0x3c4c82bf	0.012482344
67	0xbeb43974	-0.35200083
68	0xbd2a1f44	-0.041533723
69	0x3c2e1f26	0.010627544
70	0x3df00515	0.11719719
71	0xbe32caea	-0.17460218
72	0xbdd20a74	-0.102559
73	0xbe10564b	-0.14095418
74	0x3c7aae02	0.015300276
75	0xbd8490ef	-0.064729564
76	0xbe8336db	-0.2562779
77	0x3dc5116a	0.09622462
78	0x3de9b117	0.1141073
79	0x3dc673a3	0.09690025
80	0xbe9d9176	-0.3077504
81	0x3ca79127	0.020454956
82	0xbe296ffd	-0.16546626
83	0xbe5ebe0d	-0.21752186
84	0x3ce1d842	0.02756894
85	0x3d1fd2ce	0.0390194
86	0x3e0c86d1	0.13723303
87	0xbc458eba	-0.012057954
88	0xbe37d7f5	-0.17953475
89	0x3c5628bd	0.013071236
90	0x3e1c71f7	0.15277849
91	0xbe644418	-0.222916
92	0x3e753907	0.23947535
93	0xbd0b134e	-0.033953957
94	0x3e5085df	0.20363568
95	0xbd810df6	-0.06301491
96	0x3d841b03	0.064504646
97	0xbda296c5	-0.07938913
98	0xbe4357af	-0.19076417
99	0xbda173f1	-0.07883442
100	0xbdb20b7d	-0.086935975
101	0xbc97aba3	-0.01851446
102	0x3d02c948	0.031930238
103	0x3b2610ad	0.002533953
104	0x3de2f4d5	0.11081854
105	0x3a4f8fd3	0.0007917855
106	0xbe0bbd09	-0.1364633
107	0x3d7f6f81	0.062362198
108	0xbdaf4741	-0.085585125
109	0xbdf8c518	-0.12146968
110	0xbed26219	-0.41090468
111	0xbe11ee91	-0.14251162
112	0x3cd4dcca	0.025984187
113	0x3e13594c	0.14389533
114	0xbe193f99	-0.14965667
115	0xbe7942b0	-0.24341846
116	0xbde48032	-0.11157264
117	0x3d684c35	0.0567133
118	0x3e46a13e	0.19397447
119	0xbd6fc4d3	-0.058537316
120	0x3e61e705	0.22060783
121	0x3c820b36	0.015874486
122	0xbdd5a75f	-0.10432314
123	0x3e7a0830	0.24417186
124	0x3e5a63eb	0.21327178
125	0x3ccf4f3c	0.025306337
126	0xbd25a413	-0.040439676
127	0xbe6383b2	-0.22218207
128	0xbded7fd0	-0.11596644
129	0xbe10bc0e	-0.14134237
130	0x3e51508f	0.20440887
131	0x3d56946c	0.05238764
132	0xbdc91d8c	-0.09820089
133	0xbe9cc1a8	-0.30616498
134	0x3cf96de2	0.030447904
135	0xbd341cfe	-0.04397296
136	0xbdc8c330	-0.09802854
137	0x3e15d8d5	0.14633496
138	0x3c0e1bc7	0.008673615
139	0x3d06f318	0.032946676
140	0x3c594397	0.013260744
141	0x3d61f727	0.055167343
142	0x3e830b20	0.25594425
143	0xbe9d0bec	-0.30673158
144	0x3d5310dc	0.05152975
145	0xbdccc868	-0.09999162
146	0x3dab3bf5	0.08361045
147	0xbd5e491b	-0.054268938
148	0xbe6f8616	-0.23390993
149	0xbcb493fd	-0.022043223
150	0x3aaf3b16	0.0013369049
151	0x3df13e61	0.11779476
152	0xbe94b059	-0.29040793
153	0x3c4bd373	0.01244055
154	0x3e2d56ad	0.16927595
155	0xbd7ed8b2	-0.062218376
156	0xbdfc48a7	-0.12318545
157	0xbe8c4211	-0.27394155
158	0x3e87303c	0.26403987
159	0x3e6df946	0.23239622
160	0xbdb660dc	-0.08905193
161	0xbcaecc28	-0.021337584
162	0x3e4d07ef	0.20022558
163	0x3da784f5	0.081796564
164	0xbce4f0ed	-0.027946914
165	0xbe8a3817	-0.26995918
166	0xbe7e1d70	-0.24815917
167	0xbd5ef8a3	-0.054436337
168	0x3dc9ed1e	0.0985968
169	0xbe47cc96	-0.19511637
170	0x3e289bda	0.16465703
171	0xbc873e9f	-0.016509352
172	0x3e4bf354	0.19917041
173	0x3d8b4a5e	0.06801294
174	0xbba085a2	-0.004898743
175	0x3e268988	0.16263402
176	0xbdb3a44d	-0.08771572
177	0x3d6a7b73	0.057246637
178	0x3e72784f	0.23678707
179	0x3e0a99bb	0.13535206
180	0xbe985861	-0.29754928
181	0x3aca5dc7	0.0015439325
182	0x3e1e3f52	0.15453842
183	0x3ce8335d	0.028344804
184	0xbe9c914e	-0.3057961
185	0xbdeff97a	-0.11717506
186	0x3e2a749a	0.16646042
187	0x3da0410b	0.07824906
188	0xbd58b2f3	-0.052905034
189	0x3deff48c	0.117165655
190	0x3d7e9115	0.06215008
191	0xbede2172	-0.43384892
192	0x3e3b6321	0.18299533
193	0xbe969a60	-0.29414654
194	0xbd814b55	-0.063131966
195	0xbe820dfc	-0.25401294
196	0x3dba081e	0.090835795
197	0x3e79ac4c	0.24382132
198	0x3d23bb15	0.039973337
199	0xbe8dd989	-0.2770503
200	0x3d32360a	0.043508567
201	0xbcf51e07	-0.029921545
202	0xbd20485e	-0.039131515
203	0x3d862038	0.06549114
204	0x3e256f48	0.16155732
205	0x3cf16892	0.029468808
206	0x3e00dbd1	0.12583853
207	0x3e0b6be2	0.13615373
208	0xbc98a7fd	-0.01863479
209	0xbc6c62af	-0.014427825
210	0x3e07f77b	0.13278
211	0x3dfec0bd	0.12439106
212	0x3db2027f	0.08691882
213	0xbc6bc74f	-0.014390781
214	0xbc354a94	-0.011065144
215	0xbe8d6738	-0.27617812
216	0xbe49ba56	-0.19699988
217	0xbd97f624	-0.074199945
218	0xbc9a17a7	-0.018810106
219	0x3e2b571d	0.1673245
220	0x3dbe62d3	0.09296193
221	0x3d8830b5	0.06649915
222	0xbdc97a37	-0.09837764
223	0x3e134fff	0.14385985
224	0xbdcb7c16	-0.09935777
225	0xbe463880	-0.1935749
226	0xbd948cd3	-0.072534226
227	0xbdb3d9c7	-0.08781772
228	0xbe89d878	-0.26922965
229	0xbe80b224	-0.2513591
230	0x3d417038	0.04722616
231	0x3d175f65	0.03695621
232	0xbe356fd1	-0.17718436
233	0x3d8dd113	0.06924643
234	0xbe0f545f	-0.13997029
235	0xbd04cc0c	-0.032421157
236	0x3e1ef390	0.15522599
237	0xbd8da443	-0.06916096
238	0xbe5ee0ef	-0.21765493
239	0x3e07bcd8	0.13255632
240	0xbde17e20	-0.110103846
241	0x3d0bc663	0.034124743
242	0xbe0540db	-0.13013022
243	0xbd930268	-0.07178193
244	0x3c922d24	0.01784379
245	0x3ded1c84	0.115777045
246	0xbd2ff3a2	-0.042956956
247	0x3dbcd5e9	0.092204876
248	0x3e6cb2e6	0.2311512
249	0xbc663754	-0.014051277
250	0x3e2544eb	0.16139571
251	0xbd92e284	-0.07172111
252	0xbe3b0111	-0.18262126
253	0xbe71df15	-0.23620255
254	0xbe66b83e	-0.2253122
255	0xbdb1aa8c	-0.08675107

discrete_action_output_shape f4 [1, 2]
0	0x40a00000	5.0
1	0x40400000	3.0

network_body._body_endoder.seq_layers.0.bias f4 [256]
0	0xbd4e82bc	-0.050417647
1	0x3d88f4bb	0.06687304
2	0x3e207fc9	0.15673746
3	0x3c829c66	0.015943717
4	0x3e21915c	0.15778106
5	0x3d7dfe12	0.06200988
6	0x3da78258	0.08179158
7	0x3d23d9e8	0.040002733
8	0x3c2f2a10	0.010691181
9	0xbd4eacc8	-0.050457746
10	0xbc9a5362	-0.018838588
11	0xbd332a6e	-0.043741636
12	0x3b54af21	0.0032453018
13	0xbbe01af9	-0.006839153
14	0x3d243cc6	0.04009702
15	0x3d28a054	0.041168526
16	0xbe80a5ee	-0.25126594
17	0xbdc2f121	-0.09518648
18	0xbd6cc493	-0.057804655
19	0xbdcfc489	-0.10144908
20	0x3b980736	0.0046395315
21	0xbdc53de9	-0.09630949
22	0x3daa424f	0.083134286
23	0x3c17b17a	0.009258622
24	0xbd0a393d	-0.033745993
25	0x3e53238e	0.20619032
26	0x3c1a3953	0.009413081
27	0xbcc15464	-0.02359981
28	0x3cb1ccfd	0.021704191
29	0xbc11a171	-0.008888588
30	0xbc3d2169	-0.01154361
31	0xbd91889a	-0.07106133
32	0x3c02add7	0.007976017
33	0xbd06f8d1	-0.032952134
34	0x3d84599e	0.064624056
35	0xbd4be4ad	-0.04977863
36	0x3cf7c90e	0.030247238
37	0x3bfba9f8	0.007680174
38	0x3d0d6086	0.03451588
39	0xbc7484a3	-0.014924201
40	0x3d4af089	0.0495458
41	0xbbed031f	-0.007233038
42	0xbd2f875f	-0.04285371
43	0x3d1c3e29	0.038145218
44	0xbd0dd1b6	-0.034623824
45	0x3c84283f	0.016132472
46	0xbd37dea5	-0.044890065
47	0x3dd91285	0.105992354
48	0x3cc6e5fa	0.024279583
49	0xbdac1e98	-0.08404273
50	0xbbdaa503	-0.006672503
51	0x3c93e49f	0.018053351
52	0x3c89ba43	0.01681245
53	0x3de1dda5	0.110286035
54	0xbc3b3075	-0.011425127
55	0xbbba1a7d	-0.005679427
56	0x3de0d1e5	0.10977534
57	0xbc1c4cce	-0.009539796
58	0xbd8a4175	-0.06750766
59	0xbd37cb7d	-0.044871796
60	0xbd8ec43e	-0.06971024
61	0x3c6109f9	0.013735288
62	0x3e0b8522	0.13625005
63	0xbd462f6c	-0.04838507
64	0x3d41f46b	0.047352236
65	0xbd51fc47	-0.05126598
66	0xbd91ab70	-0.07112777
67	0x3bc2f1db	0.0059492416
68	0x3cefa47c	0.029253237
69	0xbd377e92	-0.04479844
70	0xbb848c7d	-0.004045068
71	0xbd8843a6	-0.06653528
72	0x3d47b840	0.0487597
73	0xbc4115df	-0.011785
74	0xbd8bda26	-0.06828718
75	0xbcc5112d	-0.024056042
76	0x3d186d91	0.037213866
77	0x3b57b68d	0.0032915205
78	0xbd947ff0	-0.07250965
79	0xbda986f0	-0.082776904
80	0xbc22edd4	-0.009944398
81	0xbda93135	-0.082613386
82	0xbcc535ce	-0.024073508
83	0xbd89d004	-0.06729129
84	0xbd525c92	-0.051357813
85	0xbcd2a6b9	-0.025714265
86	0xbc95708b	-0.018242141
87	0xbb6a9a1d	-0.0035797425
88	0x3cd4fc74	0.025999285
89	0xbd81889c	-0.06324884
90	0xbd70c5e3	-0.05878247
91	0x3c2f5022	0.0107002575
92	0x3d2e04f1	0.04248518
93	0xbd765211	-0.06013686
94	0x3d874c2f	0.06606328
95	0xbc9481d8	-0.01812832
96	0xbd79653c	-0.06088756
97	0xbddb8aae	-0.107198104
98	0xbae4e23a	-0.001746244
99	0xb9d1f689	-0.0004004727
100	0xbc85de3b	-0.01634132
101	0x3d353aa2	0.04424537
102	0x3da5c76b	0.080946766
103	0xbbeb1c6c	-0.007175019
104	0x3e3cd41e	0.18440291
105	0xbdb76792	-0.08955301
106	0x3d5ebb48	0.054377824
107	0xbdb7c7c5	-0.0897365
108	0xbdbba51e	-0.09162353
109	0x3e31ba32	0.17356184
110	0x3c0594c5	0.008153145
111	0x3df79081	0.12088109
112	0xbc0945bc	-0.008378442
113	0xbdb01433	-0.08597603
114	0x3c7bb311	0.015362517
115	0xbd414873	-0.047188234
116	0xbd735eed	-0.0594167
117	0x3c3d1d22	0.01154259
118	0x3cb262ff	0.02177572
119	0xbc41872e	-0.0118120145
120	0xbe02c0a6	-0.12768802
121	0xbcfd85cf	-0.030947594
122	0xbd64e7e8	-0.055885226
123	0x3da00e8c	0.078152746
124	0xbc0a48c1	-0.008440197
125	0x3d88b3de	0.06674932
126	0x3d97cf04	0.07412532
127	0x3c810afa	0.015752304
128	0xbd7acd45	-0.061230917
129	0xbcac1ac0	-0.02100885
130	0x3ddbe218	0.10736483
131	0x3e4464eb	0.19179122
132	0x3bdf4187	0.0068132314
133	0x3c8a296b	0.016865453
134	0xbdb333a7	-0.08750086
135	0x3de69bca	0.11260183
136	0x3c4b76a4	0.012418423
137	0xbd4e389f	-0.050346967
138	0xbbb1f541	-0.005430848
139	0x3df837df	0.121200316
140	0x3d6367d6	0.055518948
141	0xbdbf51c3	-0.09341767
142	0xbcf8990b	-0.030346414
143	0x3c89e63d	0.016833419
144	0xbd0d07f9	-0.03443143
145	0xbd8aa7b4	-0.06770268
146	0xbd4f7578	-0.050649136
147	0xbd4c1b78	-0.049830884
148	0xbdaa702c	-0.08322176
149	0xbd89ee38	-0.0673489
150	0x3dc2dea9	0.09515125
151	0x3d0f8d5b	0.035046916
152	0xbbfc0773	-0.0076913177
153	0xbd6c1ee9	-0.057646666
154	0x3d1a8e2d	0.037733246
155	0xbd16b431	-0.036792938
156	0xbdbc3495	-0.09189717
157	0x3c62cf7c	0.013843413
158	0xbd236a10	-0.03989607
159	0x3c8b0ad0	0.01697293
160	0xbc386525	-0.0112545835
161	0xbd39ab5a	-0.04532943
162	0x3d91ad91	0.07113183
163	0x3d264b6c	0.04059927
164	0xbc599d9d	-0.013282207
165	0xbb805d09	-0.0039173407
166	0x3d75b91f	0.059991
167	0xbc294b6b	-0.010332922
168	0xb984f10a	-0.0002535659
169	0x3e24caa9	0.16092934
170	0xbcd16eb4	-0.025565483
171	0xbdd014ae	-0.10160194
172	0xbd893197	-0.06698912
173	0xbcdd56ea	-0.027018983
174	0x3d5dd441	0.0541575
175	0xbdaac793	-0.08338847
176	0x3d5273cd	0.051379967
177	0x3db36572	0.087595835
178	0xbcbbc790	-0.022922307
179	0xbd797fd0	-0.060912907
180	0x3bd9f2f8	0.0066512786
181	0x3ddc9a03	0.10771563
182	0x3c21a5c4	0.009866182
183	0x3c1845fe	0.009294031
184	0x3dc7e01b	0.097595416
185	0xbcb6af90	-0.022300512
186	0x3e1c61e0	0.15271711
187	0xbdd5fca7	-0.1044858
188	0xbce75f6b	-0.028243741
189	0xbda7d9c8	-0.08195835
190	0xbbd9a12a	-0.0066415267
191	0xbd6e9887	-0.05825093
192	0xbd147730	-0.03624648
193	0x3c85f92b	0.016354164
194	0x3d7dac37	0.061931815
195	0xbd8ca6ea	-0.06867774
196	0x3d46f365	0.048571963
197	0x3cc05fc3	0.023483163
198	0x3d537f82	0.051635273
199	0xbd8be6b7	-0.06831115
200	0x3cd67a91	0.026181491
201	0x3d3cf97c	0.046136364
202	0xbc35e216	-0.011101266
203	0xbd4de77b	-0.050269585
204	0x3d9e5480	0.07730961
205	0x3db22629	0.08698685
206	0x3e110722	0.14162877
207	0xbcf1bf33	-0.029510116
208	0xbdb70cd5	-0.089379944
209	0x3d640b24	0.055674687
210	0x3ca00f28	0.019538477
211	0xbd6d564c	-0.057943627
212	0xbd625186	-0.055253528
213	0xbd52e785	-0.051490325
214	0x3c05cfb6	0.008167198
215	0xbdb29001	-0.08718873
216	0x3dc3f3e0	0.09568
217	0x3e3bbedb	0.18334524
218	0x3d9d84a4	0.07691315
219	0x3dbc3324	0.09189442
220	0x3e09d6f3	0.13460903
221	0xbcacd8a2	-0.021099392
222	0x3d231a31	0.0398199
223	0xbdf82e47	-0.12118202
224	0xbe21e6dd	-0.15810724
225	0xbdc1cf81	-0.09463406
226	0xbbc9a0ab	-0.0061531863
227	0x3c111e74	0.008857358
228	0xbde3639f	-0.111029856
229	0xbdb06ccc	-0.08614501
230	0x3dc214a6	0.094765946
231	0x3d682288	0.056673557
232	0x3c9d0b63	0.019170469
233	0x3cb5ca77	0.02219127
234	0xbe33b949	-0.1755115
235	0xbcc8bb60	-0.02450341
236	0xbcf1eeeb	-0.02953287
237	0x3db80ffd	0.089874245
238	0xbd38cff1	-0.045120183
239	0x3db95fc3	0.09051468
240	0x3cf5e9ed	0.030018771
241	0x3a3a7724	0.000711309
242	0x3da9bea4	0.08288315
243	0x3d8172e4	0.06320742
244	0x3d85b101	0.065279014
245	0xbc1f13bd	-0.009709296
246	0x3ddc8b89	0.10768802
247	0xbad420bc	-0.0016184072
248	0xbd09198d	-0.033471633
249	0x3d102f84	0.035201564
250	0x3c9a16e4	0.018809743
251	0xbd9a42cb	-0.07532271
252	0xbcc85695	-0.024455348
253	0xbd64a9dd	-0.055826057
254	0x3e2a42c9	0.16627039
255	0xbc0c0c39	-0.008547836

network_body._body_endoder.seq_layers.0.weight f4 [256, 621]
0	0x3cfc51b0	0.03080067
1	0x3d89df0a	0.067319945
2	0xbda2f1ce	-0.07956277
3	0xbdcc3a7e	-0.09972094
4	0x3d06115e	0.032731406
5	0x3e8557ec	0.26043642
6	0x3cc90696	0.024539273
7	0xbd2cf726	-0.042227887
8	0xbc166439	-0.009179168
9	0xbe6e35ca	-0.23262706
10	0xbde8079e	-0.11329578
11	0x3e0a09d8	0.13480318
12	0xbe7d859c	-0.24757999
13	0xbeac61d8	-0.336684
14	0x3def0f7e	0.11672877
15	0xbe020446	-0.12696943
16	0xbd774b48	-0.06037453
17	0x3c7a9af5	0.015295734
18	0x3e7d90a7	0.24762212
19	0xbeb07830	-0.34466696
20	0xbd8d60dc	-0.0690324
21	0xbe82ae79	-0.25523737
22	0xbde0e8ae	-0.1098188
23	0xbe9312a6	-0.28725165
24	0x3e302c7d	0.17204471
25	0x3da7b17a	0.08188148
26	0xbdd98ac7	-0.10622173
27	0x3bdca578	0.0067335926
28	0x3d309d59	0.04311881
29	0x3daf228e	0.08551513
30	0x3dc9f707	0.0986157
31	0x3e0c08a9	0.13675179
32	0x3e0aa664	0.13540035
33	0x3d989a73	0.07451334
34	0xbda58973	-0.08082857
35	0x3d1ef87e	0.0388112
36	0xbe8c1c31	-0.27365258
37	0x3d0871b7	0.033311572
38	0x3e0a29a2	0.13492444
39	0xbde3f70e	-0.11131106
40	0xbe94c378	-0.2905538
41	0xbd80370f	-0.062605016
42	0xbe50cd85	-0.203909
43	0x3c98e74c	0.018664978
44	0x3de1c5b0	0.11024034
45	0x3e449e1b	0.19200937
46	0xbe65771f	-0.22408722
47	0x3e8b739d	0.27236643
48	0xbdb69648	-0.089153826
49	0xbd5dc4b4	-0.05414267
50	0xbe50b491	-0.2038138
51	0x3e9c6540	0.30545998
52	0x3e0345a3	0.12819533
53	0xbd3ee5d6	-0.046605907
54	0x3e13fee6	0.14452705
55	0x3eabbf73	0.33544502
56	0xbe8f89a0	-0.28034687
57	0xbd82b05d	-0.06381295
58	0x398f2bc9	0.00027307708
59	0x3e7a1ae3	0.24424319
60	0xbe82e6b0	-0.25566626
61	0xbda89b1b	-0.08232709
62	0x3db0cf13	0.08633246
63	0xbe827a86	-0.25484103
64	0x3e6907b7	0.22756849
65	0x3e926b05	0.28597274
66	0xbe538177	-0.20654856
67	0x3d91b775	0.0711507
68	0xbe8ba638	-0.27275252
69	0x3e2a3a2a	0.1662375
70	0xbda8d41b	-0.08243581
71	0x3cbfc050	0.023407131
72	0x3d2a117c	0.04152058
73	0x3e2b5f17	0.16735493
74	0x3e30d531	0.17268826
75	0xbdd243b7	-0.10266822
76	0x3dd2c59b	0.102915965
77	0xbe07d2d6	-0.13264021
78	0x3e6fcb23	0.23417334
79	0xbd80555d	-0.06266282
80	0x3c929f72	0.017898295
81	0x3d8bfac3	0.068349384
82	0xbd1cbc15	-0.038265307
83	0xbae87118	-0.00177339
84	0xbe8602c7	-0.26173994
85	0xbd518a7c	-0.05115746
86	0x3e7d5c16	0.24742159
87	0x3d239b23	0.03994287
88	0x3d743343	0.0596192
89	0xbdff5142	-0.124666706
90	0x3dd3feb1	0.10351313
91	0x3db1e0a6	0.086854264
92	0xbd8bbd05	-0.06823162
93	0xbd992f08	-0.074796736
94	0x3dc9d23a	0.09854551
95	0x3ce38020	0.027771056
96	0x3c616439	0.013756805
97	0x3db6990d	0.08915911
98	0xbd6b59da	-0.057458736
99	0x3e0e01e3	0.13867907
100	0xbda88b57	-0.08229702
101	0xbe809e90	-0.25120974
102	0xbe1351cd	-0.14386673
103	0x3d537429	0.05162445
104	0xbd74d1f3	-0.059770536
105	0x3e3ba550	0.1832478
106	0xbd34eaeb	-0.044169348
107	0xbd856e21	-0.06515146
108	0x3e3a4add	0.1819262
109	0xbd918646	-0.07105689
110	0x3cf3078b	0.029666683
111	0x3ddea4e9	0.10871298
112	0x3d6572a4	0.056017533
113	0xbdaca69a	-0.08430214
114	0x3cd62af6	0.026143532
115	0x3c8fd6ff	0.017558573
116	0xbcbc4d1d	-0.02298599
117	0xbbe87f0c	-0.0070952233
118	0x3ec4651a	0.38358384
119	0xbe8c6e40	-0.27427864
120	0xbde51632	-0.11185874
121	0x3dea603d	0.11444137
122	0x3d0f906b	0.035049837
123	0xbcd85695	-0.026408473
124	0x3c59ce6f	0.0132938465
125	0xbd3d2029	-0.04617325
126	0x3e0953c6	0.13410863
127	0x3e648f4b	0.22320287
128	0x3e26144c	0.1621868
129	0xbe92e52e	-0.28690475
130	0x3e8c443b	0.27395806
131	0xbc4b85e6	-0.012422061
132	0xbe10afba	-0.14129534
133	0x3da86b57	0.082235985
134	0xbdd9d02e	-0.1063541
135	0x3dfcf9a5	0.123523034
136	0x3cbae5d2	0.022814665
137	0xbe802832	-0.25030667
138	0x3d766e17	0.060163584
139	0xbc80e40a	-0.015733737
140	0x3de85ab6	0.11345427
141	0x3dfe9b3c	0.12431952
142	0x3d96ce2c	0.07363543
143	0xbd8ee562	-0.06977345
144	0x3e35fbcd	0.17771836
145	0x3c89957e	0.016794916
146	0x3daad8c1	0.08342124
147	0x3d190264	0.037355796
148	0x3e2b7b95	0.16746362
149	0xbe580acf	-0.21097873
150	0x3e3feda8	0.18743002
151	0x3df60da3	0.1201432
152	0xbda3f2f6	-0.080053255
153	0x3e3d115b	0.18463652
154	0xbe478b13	-0.19486646
155	0xbd32c1d1	-0.04364187
156	0xbce63447	-0.0281011
157	0xbd07dce5	-0.033169646
158	0x3e6a0d70	0.22856688
159	0xbd1ffbb4	-0.039058402
160	0x3e275dab	0.16344325
161	0xbde7dc9a	-0.11321373
162	0x3d73a8f5	0.0594873
163	0xbd0e91b1	-0.03480691
164	0x3ea7cffd	0.3277587
165	0x3cd8e69c	0.02647715
166	0x3dfd4c25	0.12368039
167	0xbd855b36	-0.06511538
168	0x3b0afdf4	0.0021208497
169	0x3df7e3af	0.12103974
170	0xbd914582	-0.07093336
171	0xbe8e1a8c	-0.2775463
172	0xbe96c6ba	-0.2944849
173	0xbd360d81	-0.044446472
174	0x394d57af	0.00019582988
175	0x3e3647d0	0.17800832
176	0xbdc7882c	-0.097427696
177	0x3da8ce55	0.0824248
178	0xbb835e29	-0.0040090275
179	0xbdf1aba9	-0.1180032
180	0xbe76bb69	-0.24094929
181	0x3e1664ee	0.14686939
182	0x3d91491a	0.07094021
183	0x3bfc6842	0.007702858
184	0xbd6cbb1a	-0.05779562
185	0xbd4cb934	-0.04998131
186	0x3e1d598b	0.15366189
187	0xbde091ea	-0.10965331
188	0xbe4607c4	-0.193389
189	0xbe8bcdff	-0.273056
190	0x3d114a58	0.03547129
191	0x3e84d036	0.25940102
192	0x3d777edf	0.060423728
193	0x3cb0c4b6	0.021578174
194	0xbe9d0060	-0.3066435
195	0x3e39bc45	0.18138225
196	0xbd2d2bf3	-0.04227824
197	0xbe2e6287	-0.17029773
198	0xbdae6687	-0.08515649
199	0xbe8a159e	-0.26969618
200	0x3e3b0380	0.18263054
201	0x3cd0e845	0.02550138
202	0x3d85dd59	0.06536359
203	0x3ca43a1e	0.020047244
204	0x3bf34f8e	0.007425255
205	0xbc9968c3	-0.018726712
206	0xbe04e695	-0.12978585
207	0xbe2b34ff	-0.16719435
208	0x3e272c8d	0.16325589
209	0xbc5fd8bd	-0.013662514
210	0xbcf1ef7d	-0.029533142
211	0x3b6e4e1b	0.0036362472
212	0x3d49ef86	0.049300693
213	0xbda8b212	-0.08237089
214	0xbc9c9934	-0.019116022
215	0xbd5b5269	-0.05354539
216	0x3d44dacb	0.04806022
217	0x3e20bdf5	0.15697463
218	0x3d684181	0.056703094
219	0xbdb75a5c	-0.089527816
220	0xbe0c7d70	-0.13719726
221	0x3e2a1b72	0.16612032
222	0xbd8e3943	-0.069445156
223	0xbad0324b	-0.0015884129
224	0xbd6987c2	-0.057014234
225	0x3e3fec59	0.18742503
226	0x3d8649e1	0.0655706
227	0xbe758c3b	-0.23979275
228	0x3df240e5	0.11828784
229	0x3df75c38	0.12078136
230	0x3da7c910	0.081926465
231	0x3d5494bb	0.051899653
232	0xbc63fffc	-0.013916012
233	0x3e1290ff	0.14313124
234	0x3c8cc862	0.017185394
235	0x3ea33d1d	0.31882563
236	0x3e31ea5d	0.17374559
237	0xbdfd4b43	-0.12367871
238	0xbe608638	-0.219262
239	0xbdb6059d	-0.088877894
240	0xbc95a0a6	-0.01826508
241	0x3d1aa1f5	0.03775211
242	0xbdce44d6	-0.10071723
243	0xbe192ae6	-0.1495777
244	0x3d7e21a2	0.062043793
245	0xbea82438	-0.32840133
246	0x3da45e29	0.08025772
247	0x3d85f1fb	0.06540295
248	0x3e6c3449	0.2306682
249	0xbcda4ba9	-0.026647406
250	0x3cc9dd5f	0.02464169
251	0x3d9cd45b	0.07657691
252	0xbddbd35e	-0.107336745
253	0xbe369dec	-0.1783368
254	0x3d817057	0.06320255
255	0xbd9b41e3	-0.07580926

network_body._body_endoder.seq_layers.2.bias f4 [256]
0	0xbd966525	-0.073435105
1	0x3ca4c27e	0.020112272
2	0xbe09957f	-0.13435934
3	0xbd288632	-0.041143604
4	0xbe3ec3cb	-0.18629377
5	0xbe2d7811	-0.16940333
6	0xbd859a85	-0.06523613
7	0x3ddc9c52	0.10772003
8	0xbd43ac9c	-0.047772035
9	0xbd22d387	-0.03975251
10	0xbe89f613	-0.26945552
11	0x3db5fe1e	0.0888636
12	0xbeb567db	-0.35430798
13	0xbd873e2b	-0.066036545
14	0xbd939d8b	-0.07207783
15	0xbdd49d04	-0.10381511
16	0xbe015511	-0.12630107
17	0xbdad9e14	-0.08477417
18	0xbe3618aa	-0.17782846
19	0xbe39ef3b	-0.18157665
20	0xbdf47cd3	-0.11937871
21	0xbe5af0e5	-0.21380956
22	0x3da52f03	0.080656074
23	0xbde0faf0	-0.109853625
24	0xbd391041	-0.045181517
25	0xbdb64a5f	-0.08900904
26	0xbc2b2385	-0.01044548
27	0xbe2349b6	-0.15946087
28	0xbe105a97	-0.14097057
29	0x3dcc3006	0.09970097
30	0xbd7821dd	-0.06057917
31	0xbdad8721	-0.084730394
32	0xbd91ae2d	-0.071132995
33	0xbd84938c	-0.06473455
34	0xbd784da5	-0.060620923
35	0xbcd7f219	-0.026360558
36	0xbd2da1ab	-0.042390507
37	0xbdd6e0f3	-0.104921244
38	0xbd7ab533	-0.06120796
39	0xbdfc1d81	-0.12310315
40	0x3c880919	0.0166059
41	0xbe22f5e4	-0.15914112
42	0xbd0db85e	-0.034599654
43	0x3c99ffdc	0.018798761
44	0xbe1fabde	-0.15592906
45	0x3cdbf64a	0.026850838
46	0xbdb5d8eb	-0.088792644
47	0x3deb5c5c	0.114922255
48	0xbd015573	-0.03157563
49	0xbe80c7ef	-0.25152537
50	0x3d9acc9e	0.07558559
51	0xbe488893	-0.19583349
52	0xbd6edadc	-0.05831419
53	0xbd11c9b1	-0.03559274
54	0xbc1e95ce	-0.009679271
55	0xbd9f44d4	-0.077768
56	0xbcbc5d64	-0.02299375
57	0xbe0d4a8a	-0.13797966
58	0xbd00c153	-0.03143437
59	0xbb8a67b7	-0.0042237896
60	0x3c80db12	0.01572946
61	0xbcf4d268	-0.029885486
62	0xbe0c4aae	-0.13700363
63	0xbe55b668	-0.20870364
64	0xbcddb799	-0.027065085
65	0xbdd33d74	-0.10314456
66	0xbd518c76	-0.051159345
67	0x3c34a100	0.0110247135
68	0xbdc31980	-0.09526348
69	0x3ceb957a	0.0287578
70	0xbde27be4	-0.110587865
71	0xbde3614c	-0.11102542
72	0xbe20592a	-0.15659013
73	0xbdd1dfa4	-0.10247734
74	0xbce98b5b	-0.028508833
75	0xbda76e66	-0.08175354
76	0xbd656af1	-0.05601019
77	0xbe057787	-0.13033877
78	0x3c15f435	0.009152462
79	0x3c83a4d1	0.016069802
80	0xbda8c42c	-0.08240542
81	0xbcd580e9	-0.026062446
82	0xbe38bbf0	-0.18040442
83	0xbd50f303	-0.051013004
84	0xbde9814d	-0.11401615
85	0xbd929378	-0.07157034
86	0xbdb815c1	-0.08988524
87	0x3d96e61b	0.07368108
88	0xbe0f1174	-0.13971502
89	0xbc160c10	-0.009158149
90	0xbc7e4a96	-0.015520712
91	0xbd4ba9d0	-0.049722493
92	0x3d4f8fe9	0.050674353
93	0xbe02c141	-0.12769033
94	0x3dce2c4f	0.10067045
95	0xbdb5c9f5	-0.08876411
96	0x3cddeaf8	0.02708958
97	0xbdc5def9	-0.09661669
98	0xbdaf9da9	-0.08574993
99	0xbd5bcd49	-0.053662572
100	0xbe2220dc	-0.15832847
101	0xbde16c9e	-0.11007045
102	0x3b80d81c	0.0039320122
103	0xbce3e16f	-0.027817456
104	0xbd138403	-0.036014568
105	0x3a897597	0.0010487315
106	0xbe04a6f1	-0.12954308
107	0x3cc4f073	0.024040436
108	0xbe33cf33	-0.17559509
109	0xbe6ac393	-0.22926168
110	0xbd203b0f	-0.039118823
111	0xbcae8fbb	-0.02130877
112	0xbe0397da	-0.12850896
113	0x3d655521	0.05598939
114	0xbd4c1213	-0.049821924
115	0xbddabd95	-0.10680691
116	0xbdd9bc4a	-0.106316164
117	0x3d216a0f	0.039407786
118	0x3dbae6b2	0.09126033
119	0xbbd2eacf	-0.006436683
120	0x3d9fc838	0.078018606
121	0xbcfcc8d2	-0.030857477
122	0xbc5b9467	-0.013402081
123	0x3c76a607	0.015054232
124	0x3c81b5a2	0.01583368
125	0xbd43e003	-0.047821056
126	0xbdaf67a6	-0.08564691
127	0xbe1812c7	-0.14850913
128	0xbdf18513	-0.1179296
129	0xbd9ff795	-0.078108944
130	0xbc4c056b	-0.012452464
131	0xbc0ee1ac	-0.008720797
132	0xbdb7e519	-0.08979244
133	0xbcb5efcc	-0.02220907
134	0x3c41a341	0.011818708
135	0xbe041c3b	-0.12901394
136	0x3bc5705a	0.0060253562
137	0xbcbc4c03	-0.022985464
138	0xbda2ffdd	-0.07958958
139	0xbd7721c5	-0.06033494
140	0x3e285954	0.16440326
141	0x3c8ab913	0.016933953
142	0x3d421616	0.047384344
143	0xbe04abe4	-0.12956196
144	0x3d952d9f	0.07284092
145	0xbdb3cf48	-0.0877977
146	0x3d11b20f	0.0355702
147	0xbd332805	-0.043739337
148	0xbcb90840	-0.022586942
149	0xbe0ae5a0	-0.13564157
150	0xbde01fe5	-0.109435834
151	0x3cfde4b9	0.030992853
152	0xbe05110d	-0.12994786
153	0xbdc1e844	-0.09468129
154	0x3d3fd00b	0.046829265
155	0xbdd2112f	-0.10257184
156	0x3d188670	0.037237585
157	0xbdbca3fe	-0.092109665
158	0x3d968b88	0.07350832
159	0x3d9cbe12	0.076534405
160	0xbd794f41	-0.060866598
161	0xbdd6d95d	-0.104906775
162	0x3cd22583	0.025652653
163	0xbca753bd	-0.020425672
164	0xbdb74192	-0.089480534
165	0xbe2a4777	-0.16628824
166	0x3ca60662	0.020266715
167	0xbc912717	-0.017718835
168	0xbe1446e8	-0.14480174
169	0xbe271f05	-0.16320427
170	0x3cfad122	0.0306173
171	0xbca7ef02	-0.02049971
172	0xbd969ff3	-0.07354727
173	0xbdf49e71	-0.11944283
174	0xbd7aef4b	-0.061263364
175	0xbdc52d1b	-0.09627744
176	0xbdd34d58	-0.103174865
177	0xbd25f76a	-0.040519156
178	0x3d8cd8d3	0.068772934
179	0xbcb66bd2	-0.02226821
180	0xbd6bce8f	-0.057570037
181	0x3bf60eaf	0.0075090746
182	0x3da55cd1	0.08074344
183	0xbc1dd6d2	-0.009633737
184	0xbd9d8cc5	-0.07692865
185	0x3ced0ec3	0.028937703
186	0xbdbb397b	-0.09141823
187	0xbd223b68	-0.039607435
188	0xbe101442	-0.14070228
189	0xbdf17295	-0.11789433
190	0xbc8e7584	-0.01739002
191	0xbdfbd901	-0.122972496
192	0xbdbbfed8	-0.09179467
193	0xbe08ba62	-0.1335235
194	0x3d7c6b18	0.06162557
195	0xbdc5802f	-0.0964359
196	0xbd74d437	-0.059772696
197	0x3d10f391	0.035388533
198	0xbd13a9af	-0.036050495
199	0xbe36b232	-0.17841414
200	0x3c76e17d	0.015068409
201	0x3c2e6ed6	0.0106465425
202	0xbc5249ee	-0.012835009
203	0xbd72bd5e	-0.059262626
204	0xbcf6312b	-0.030052742
205	0xbda3317b	-0.07968422
206	0x3d852812	0.065017834
207	0xbc9c410a	-0.019073982
208	0xbe02743a	-0.1273965
209	0xbd1db20a	-0.03849987
210	0xbd31e02a	-0.04342667
211	0xbc7f103e	-0.015567837
212	0x3d49debe	0.04928469
213	0xbdd1b65e	-0.10239862
214	0xbc9d4dbe	-0.01920211
215	0xbede5297	-0.43422386
216	0xbdb1ccc3	-0.08681633
217	0xbe48b6e1	-0.19601013
218	0xbddcf850	-0.10789549
219	0x3d4352fe	0.04768657
220	0x3c1d51a9	0.009601989
221	0xbdc8c8c6	-0.098039195
222	0xbdaf9e51	-0.08575118
223	0xbd62a4d1	-0.055332962
224	0xbd1935ed	-0.037404943
225	0xbc5b3d61	-0.013381333
226	0xbddb4902	-0.107072845
227	0xbd1c17e1	-0.03810871
228	0xbd2e7327	-0.042590287
229	0xbd1237e4	-0.035697833
230	0xbd6cf1f6	-0.05784794
231	0xbd05c9ae	-0.03266304
232	0x3ce44104	0.027863033
233	0xbd5dd96d	-0.05416243
234	0xbdeea298	-0.11652106
235	0xbcedcf77	-0.029029591
236	0x3cf21d05	0.029554853
237	0xbda09fc7	-0.07842975
238	0xbd365c9e	-0.04452192
239	0x3d33e856	0.043922745
240	0xbd9edfe1	-0.07757545
241	0xbc2ba638	-0.010476641
242	0xbd5c096c	-0.053719923
243	0x3c4ba5f3	0.012429702
244	0xbd9f13b1	-0.07767428
245	0x3c843c74	0.016142108
246	0xbe33f937	-0.17575537
247	0x3d996757	0.07490414
248	0x3c413f7d	0.011794922
249	0xbdf06f40	-0.11739969
250	0xbdcf6d80	-0.10128307
251	0xbd944d16	-0.072412655
252	0xbe3b4c97	-0.18290935
253	0xbe1d3758	-0.15353143
254	0xbe379628	-0.17928374
255	0xbe2bcafa	-0.16776648

network_body._body_endoder.seq_layers.2.weight f4 [256, 256]
0	0xbe5d2de0	-0.21599531
1	0xbe1e63cc	-0.15467757
2	0xbe10475f	-0.14089726
3	0x3e848386	0.25881594
4	0xbdf9d215	-0.12198273
5	0xbc0bed04	-0.008540396
6	0xbec314b0	-0.3810172
7	0x3e1e4b6e	0.15458462
8	0xbe335c49	-0.17515673
9	0xbdea4dd6	-0.11440627
10	0x3e461ea6	0.19347629
11	0x3e0aa5ce	0.13539812
12	0x3eb16e7b	0.34654602
13	0x3d77d622	0.060506947
14	0x3e1882d7	0.14893661
15	0xbd098475	-0.033573586
16	0x3deb5261	0.11490322
17	0x3cd01a6a	0.02540322
18	0xbd01cd55	-0.03168996
19	0xbe3918a3	-0.18075804
20	0xbe92d344	-0.28676808
21	0x3dd02d2d	0.101648666
22	0xbe91fb80	-0.28512192
23	0xbc4600b1	-0.012085126
24	0x3de677dd	0.11253331
25	0xbcbfd31e	-0.023416098
26	0xbcbb24d0	-0.022844702
27	0xbd67ace2	-0.05656136
28	0xbe73eb24	-0.23820168
29	0x3e8b7fd9	0.27245978
30	0xbe660140	-0.22461414
31	0x3d5c1ba9	0.053737316
32	0xbc9fd941	-0.019512774
33	0x3ca2bf1a	0.019866515
34	0xbe999b6b	-0.30001387
35	0x3c9a27d2	0.018817816
36	0xbe1676f6	-0.14693817
37	0xbd43622f	-0.047701057
38	0xbea223a6	-0.31667823
39	0x3dbbd98e	0.09172355
40	0x3bbef358	0.0058273487
41	0xbad1f6e0	-0.0016019009
42	0x3d88bb3f	0.06676339
43	0xbcc2036a	-0.023683269
44	0xbe58d9e2	-0.21176866
45	0x3d523366	0.05131855
46	0x3df53775	0.11973468
47	0xbda619de	-0.081104025
48	0xbc6731a3	-0.014110955
49	0x3e0f106f	0.13971113
50	0xbbe167d8	-0.006878834
51	0xbeb42cb1	-0.35190347
52	0x3dac2652	0.084057465
53	0x3e8fbc5e	0.280734
54	0x3e493724	0.1964994
55	0xbcf142e9	-0.02945085
56	0x3daa1f01	0.08306695
57	0xbdd90508	-0.10596663
58	0x3dd37f50	0.10327017
59	0xbd8fca37	-0.07020991
60	0xbe591378	-0.21198833
61	0xbd25b54d	-0.040456105
62	0xbead7cb0	-0.33884192
63	0xbd3da73c	-0.046302065
64	0xbeb1c5a6	-0.34721106
65	0x3e56bf44	0.209714
66	0x3dcd0094	0.10009876
67	0xbdbef845	-0.093246974
68	0xbd54d029	-0.05195633
69	0x3e34473b	0.17605297
70	0x3e06ae00	0.13152313
71	0xbd819297	-0.06326788
72	0xbf2d4c7c	-0.6769483
73	0xbde1e7f9	-0.110305734
74	0xbe2dd57c	-0.16975969
75	0xbd9e8c85	-0.07741646
76	0xbd33d1c0	-0.043901205
77	0xbcf98444	-0.030458577
78	0xbd166626	-0.03671851
79	0x3d5d645c	0.05405079
80	0xbd108599	-0.03528366
81	0xbd206bdb	-0.03916536
82	0xbda14d51	-0.07876075
83	0xbcdf2962	-0.027241413
84	0x3aa253fe	0.0012384651
85	0xbd948cb5	-0.072534
86	0xbed94e2a	-0.42442447
87	0x3e194fa9	0.14971794
88	0x3cd1c73d	0.0256077
89	0x3d2fd722	0.042929776
90	0xbdb1b94d	-0.086779214
91	0xbe1c3bc3	-0.15257172
92	0x3a15fa58	0.0005721203
93	0x3e3cbd05	0.1843148
94	0x3dc00dbc	0.093776196
95	0x3e3acffc	0.18243402
96	0xbe08b6a2	-0.13350919
97	0x3ebe1590	0.37125826
98	0x3d52546d	0.051350046
99	0xbcba52e8	-0.02274461
100	0x3c96f614	0.018427886
101	0x3cc2e687	0.023791565
102	0xbda40a33	-0.08009758
103	0x3dfa9acc	0.122365564
104	0x3d26966f	0.04067081
105	0xbd22499e	-0.039620988
106	0x3e2015bc	0.15633291
107	0xbcf94976	-0.030430537
108	0x3dfc24f2	0.12311734
109	0xbe84465a	-0.25834924
110	0xbe2d7074	-0.16937429
111	0xbe63d9c7	-0.22251044
112	0xbd05218e	-0.032502703
113	0xbd9106aa	-0.07081349
114	0xbda241d8	-0.07922715
115	0x3e0105b5	0.12599833
116	0x3d82409f	0.06359982
117	0x3d6474be	0.055775397
118	0x3c9d0e8e	0.01917198
119	0x3ed3125c	0.41224945
120	0x3da2fa58	0.079579055
121	0x3e45ed9a	0.19328919
122	0xbd10dacd	-0.035364915
123	0xbde66878	-0.112503946
124	0x3d11ca45	0.03559329
125	0x3e9f1b47	0.31075498
126	0xbd0f540e	-0.03499227
127	0x3d93c1f1	0.07214726
128	0x3e2c6c00	0.16838074
129	0xbe970af3	-0.2950054
130	0x3c35c1f1	0.0110936025
131	0x3e4256ac	0.18978375
132	0xbe130ac5	-0.14359577
133	0xbd682256	-0.05667337
134	0xbed598a9	-0.41718033
135	0xbddbd4c2	-0.1073394
136	0x3d9ddd85	0.07708267
137	0x3c9e9ec2	0.019362811
138	0x3e2cfe67	0.16893922
139	0xbd24b326	-0.04020991
140	0xbe2b8b3a	-0.1675233
141	0x3e0de8f8	0.13858402
142	0xbe3c4dea	-0.18389097
143	0x3dfded37	0.12398761
144	0x3d41c189	0.04730371
145	0xbd82ea18	-0.06392306
146	0xbd87450f	-0.06604969
147	0x3dd63d94	0.10460964
148	0x3cf403a6	0.029786896
149	0xbea2ac71	-0.31772187
150	0xbe75e90b	-0.2401468
151	0xbe48e76c	-0.1961953
152	0x3dc2d822	0.0951388
153	0xbcbaced0	-0.022803694
154	0x3e7363e3	0.23768573
155	0xbddba2f2	-0.10724439
156	0xbd9b56e2	-0.07584931
157	0xbe9640f5	-0.29346433
158	0x3c734bff	0.014849662
159	0xbd1efe1a	-0.03881655
160	0xbb842dfc	-0.004033802
161	0xbe270fc8	-0.16314614
162	0xbda6cf8c	-0.08145055
163	0x3c9f418e	0.019440439
164	0x3d208f62	0.03919924
165	0x3cf6af9c	0.030113034
166	0xbe8e5d03	-0.27805337
167	0x3e95c0f4	0.29248774
168	0xbd43b670	-0.047781408
169	0xbeadcd29	-0.33945587
170	0x3e84a4e4	0.25907052
171	0x3ccf087e	0.025272604
172	0xbd9bf8b9	-0.076157995
173	0x3e13655f	0.14394139
174	0xbdae9b35	-0.08525697
175	0x3bb20e2a	0.0054338174
176	0x3d80119b	0.06253358
177	0xbe05a912	-0.13052776
178	0xbb9373b7	-0.0044998783
179	0x3dae39ef	0.08507144
180	0xbe325e12	-0.17418697
181	0x3dba9275	0.09109966
182	0xbd070cd6	-0.032971226
183	0xbdb0f957	-0.08641308
184	0x3d3c8f9d	0.046035398
185	0xbe59b7f3	-0.21261577
186	0x3e8e6714	0.27813017
187	0xbd21672f	-0.039405044
188	0x3ce710f8	0.028206334
189	0x3eb782f4	0.35842097
190	0x3e7fff75	0.24999793
191	0xbe4f7e9d	-0.20263143
192	0xbe2ef0bf	-0.17084025
193	0xbc518377	-0.012787691
194	0x3dd8739b	0.10568925
195	0x3dc945d4	0.09827772
196	0x3b439470	0.0029843114
197	0x3e737a09	0.23777021
198	0x3e8428bd	0.2581233
199	0x3e4b5807	0.19857799
200	0x3d0fde81	0.035124306
201	0x3eb278b8	0.34857726
202	0x3d641224	0.055681363
203	0xbda47f93	-0.08032145
204	0xbe0364e2	-0.12831452
205	0x3ddcdf43	0.10784771
206	0xbd72c914	-0.059273794
207	0x3e0419b5	0.12900431
208	0xbd5d96c8	-0.054098874
209	0x3ddd797a	0.108141854
210	0xbe9e4e12	-0.30918938
211	0xbdd5367b	-0.10410782
212	0xbf0767e8	-0.52892923
213	0x3d7420cf	0.0596016
214	0x3e3511ec	0.17682618
215	0xbd9576aa	-0.07298024
216	0x3d11ac33	0.035564613
217	0xbb3701c3	-0.0027924634
218	0xbe06e40a	-0.13172927
219	0xbe8cc4e1	-0.27493957
220	0xbb02cae1	-0.001995735
221	0x3e46f502	0.194294
222	0xbe0eac75	-0.13932975
223	0xbe3b4af7	-0.18290316
224	0x3ea6d68f	0.3258557
225	0xbd2f9005	-0.042861957
226	0x3e492db6	0.19646344
227	0x3d029ec4	0.031889692
228	0xbd823a49	-0.06358773
229	0x3e5232e2	0.20527223
230	0x3c550af8	0.013003103
231	0xbe05ba2b	-0.13059299
232	0xbe073e5b	-0.1320738
233	0x3e5991ce	0.21247026
234	0xbcb3cd26	-0.021948408
235	0xbcd33b13	-0.025785005
236	0xbd01bfb7	-0.031676974
237	0x3e2f37d5	0.17111142
238	0x3d815009	0.063140936
239	0x3d382447	0.04495647
240	0xbe6ab0c7	-0.22918998
241	0xbe6b3e96	-0.22973093
242	0xbe0b48d8	-0.13602006
243	0xbd31c4a2	-0.043400414
244	0x3deba5d9	0.11506242
245	0x3de51eaa	0.11187489
246	0xbdfe6e43	-0.124233745
247	0xbdf74767	-0.12074166
248	0x3d4fa0cb	0.050690453
249	0x3e2305c9	0.15920176
250	0xbec457a8	-0.38348126
251	0xbdb6dda6	-0.08928995
252	0xbd3c0c7c	-0.045910344
253	0xbe5f63bc	-0.2181539
254	0xbdf7a463	-0.12091901
255	0x3d872fa2	0.06600882
