Assets/TFModels/Other models trained in the process/prova_curr_12M_REBUILD.onnx (onnx, 769862 bytes, 9 tensors)

action_model._discrete_distribution.branches.0.bias f4 [5]
0	0x3c127ee6	0.008941388
1	0x3e5d1024	0.21588188
2	0xbcf8b6c3	-0.030360585
3	0xbe001672	-0.12508562
4	0xbda6896a	-0.081316784

action_model._discrete_distribution.branches.0.weight f4 [5, 256]
0	0xbe36e8a5	-0.17862184
1	0xbc67ca52	-0.014147358
2	0x3dbe32d1	0.09287036
3	0x3cce3bbc	0.025174968
4	0x3da080ae	0.07837044
5	0x3d8393f8	0.06424707
6	0xbe1abf2d	-0.1511199
7	0x3c69ec25	0.014277493
8	0xbe363a8e	-0.17795774
9	0x3da081ea	0.07837279
10	0x3dc07c49	0.093987055
11	0xbe0dad75	-0.138357
12	0x3db088e4	0.0861986
13	0x3e51a3c6	0.20472631
14	0x3e0e778c	0.13912791
15	0xbca690ba	-0.020332683
16	0xbe8660af	-0.2624564
17	0x3e1691bf	0.14704035
18	0xbdaebd25	-0.0853217
19	0xbe186d2f	-0.148854
20	0x3c0f432c	0.008744042
21	0xbe85bd0c	-0.26120794
22	0xbe750a97	-0.23929821
23	0x3dc0c64e	0.094128236
24	0x3cf117aa	0.02943023
25	0xbd2e3f20	-0.04254067
26	0x3e6bbd82	0.2302151
27	0x3e585616	0.21126589
28	0x3dca1fee	0.09869371
29	0x3d04d9cb	0.032434266
30	0xbe0cb3d2	-0.13740471
31	0x3e46a5ff	0.1939926
32	0xbde425b1	-0.111400016
33	0xbe3e8007	-0.18603526
34	0x3e8775b8	0.26457
35	0xbe4b7a53	-0.19870882
36	0xbdac5475	-0.084145464
37	0x3dfaf212	0.122532025
38	0x3e055d1a	0.13023797
39	0xbe125256	-0.14289221
40	0x3d0dff30	0.034667194
41	0xbde876d1	-0.113507874
42	0xbd778139	-0.06042597
43	0xbd0b1a91	-0.033960883
44	0xbe129a09	-0.14316572
45	0x3dd955e5	0.10612086
46	0xbe306c52	-0.17228821
47	0xbcaac3d1	-0.020845326
48	0x3db54ad6	0.088521644
49	0xbe143a79	-0.1447543
50	0xbc66da21	-0.014090092
51	0xbd844552	-0.06458534
52	0xbd038250	-0.032106698
53	0x3e1407ad	0.14456053
54	0x3e113693	0.14180975
55	0x3d78f3f0	0.060779512
56	0xbaf85201	-0.0018945338
57	0x3d14cf2a	0.03633038
58	0x3c94aa29	0.018147545
59	0xbd1d8b6c	-0.03846304
60	0xbe95a3e3	-0.29226598
61	0x3e8b636a	0.27224284
62	0xbe4eb1f3	-0.2018507
63	0x3dbb4475	0.091439165
64	0xbb2f0c4f	-0.0026710217
65	0x3c7a0e7f	0.015262245
66	0xbbd4e2fa	-0.0064967843
67	0xbe2563a2	-0.16151288
68	0xbe84f70b	-0.2596973
69	0xbe9f25d1	-0.3108354
70	0xbdff2c23	-0.1245959
71	0xbd370241	-0.044679884
72	0x3db87887	0.09007364
73	0x3d020418	0.031742185
74	0x3dab43ce	0.08362542
75	0xbe333383	-0.17500119
76	0x3c947cfa	0.018126
77	0x3cd949cd	0.026524449
78	0xbdb827cb	-0.08991965
79	0xbca6d20d	-0.020363832
80	0xbe1cb5f3	-0.15303783
81	0x3ccfa763	0.02534837
82	0xbd4d83db	-0.050174575
83	0xbe13047d	-0.14357181
84	0xbdddc2f7	-0.10828202
85	0x3d1e79db	0.03869043
86	0xbdaf9db4	-0.08575001
87	0xbe2e02eb	-0.169933
88	0x3ccdbb01	0.025113584
89	0x3db6bb4b	0.08922442
90	0xbde97c9b	-0.1140072
91	0xbd96cf10	-0.07363713
92	0x3de10a0e	0.10988246
93	0x3d57fdbc	0.052732214
94	0x3e3728a8	0.17886603
95	0xbde3b9ff	-0.1111946
96	0xbe794173	-0.24341373
97	0xbc7eb936	-0.015547087
98	0xbd3646b8	-0.044501036
99	0xbe4e1818	-0.20126379
100	0x3cb89052	0.022529755
101	0x3e3385e5	0.17531545
102	0x3c1131e5	0.008861993
103	0xbd55a50d	-0.052159358
104	0xbd1b6aab	-0.037943523
105	0x3c15888e	0.009126795
106	0x3e81556c	0.25260484
107	0x3e15f374	0.14643651
108	0xbd436442	-0.047703035
109	0x3dea59ef	0.11442935
110	0x3c7737c1	0.015088976
111	0xbde37966	-0.11107139
112	0xbcdc0ab6	-0.026860576
113	0xbecfdd40	-0.40598488
114	0xbdd9f5c1	-0.10642577
115	0xbd52e5a0	-0.05148852
116	0xbd9ac6aa	-0.075574234
117	0xbdf653f7	-0.12027734
118	0xbd785a73	-0.060633134
119	0xbc2a25fd	-0.010385034
120	0xbcb6cbfc	-0.022314064
121	0x3e1f8dec	0.15581483
122	0xbd2f8476	-0.042850934
123	0x3da260f8	0.079286516
124	0x3d0d5b1c	0.034510717
125	0xbe7265a3	-0.23671584
126	0x3e1ddb52	0.15415695
127	0xbcff7324	-0.031182833
128	0xbde071c4	-0.10959199
129	0xbd14a75b	-0.036292415
130	0x3da8e223	0.08246257
131	0xbe17622c	-0.14783543
132	0x3b36e4b9	0.0027907325
133	0x3b83f018	0.004026424
134	0x3c951eb0	0.01820311
135	0xbd55a82e	-0.05216234
136	0x3d3109cb	0.04322223
137	0x3ea03a62	0.31294543
138	0xbd52f155	-0.051499683
139	0xbbf570c0	-0.0074902475
140	0xbe236f5e	-0.15960452
141	0xbdc3c13f	-0.09558343
142	0x3e41f615	0.18941529
143	0xbdc31eac	-0.095273346
144	0xbe1c1042	-0.15240577
145	0x3d83ece1	0.064416654
146	0x3d4f6d4c	0.050641343
147	0x3df7ef2f	0.121061675
148	0x3e1c394c	0.15256232
149	0x3dc831ef	0.09775149
150	0x3d73802b	0.059448402
151	0x3c4b8234	0.01242118
152	0xbcf4db92	-0.029889856
153	0xbe646025	-0.22302301
154	0xbe86385d	-0.26214877
155	0x3e34cc5b	0.1765608
156	0x3cadda02	0.021222118
157	0xbb137077	-0.0022497454
158	0xbe1a180a	-0.15048233
159	0xbe5f3106	-0.21796045
160	0xbe009130	-0.12555385
161	0x3e27bbd9	0.16380252
162	0xbda63e66	-0.0811737
163	0xbe15780e	-0.14596578
164	0x3c5c3762	0.013440939
165	0x3e38c21b	0.18042795
166	0x3d1ed31d	0.038775552
167	0xbd695010	-0.05696112
168	0xbdad0fcf	-0.08450281
169	0xbe110f2b	-0.14165942
170	0x3cd70bf0	0.02625081
171	0x3d3f2e40	0.046674967
172	0xbe65c925	-0.22440012
173	0xbe64e1b8	-0.2235173
174	0x3d8cdccc	0.06878051
175	0xbe99a9a3	-0.30012235
176	0x3df3860b	0.11890801
177	0xbbc4f46d	-0.006010583
178	0x3e46d432	0.19416884
179	0x3d47b461	0.048756007
180	0xbdd5e474	-0.104439646
181	0xbe9f735d	-0.31142703
182	0x3d8edecc	0.06976089
183	0xbde204ec	-0.11036095
184	0x3e8118bb	0.2521418
185	0x3da94824	0.08265713
186	0xbe73a8d0	-0.23794866
187	0x3e78df7a	0.24304
188	0x3ddd4dc3	0.108058475
189	0x3d6b987f	0.05751848
190	0xbe9d38a9	-0.3070729
191	0x3c94cafa	0.018163193
192	0x3d5ac9c7	0.053415086
193	0x3c17aa4b	0.00925691
194	0xbeb6cd09	-0.35703304
195	0x3e1e1909	0.15439238
196	0x3d80fa5b	0.062977515
197	0xbe08b6b7	-0.1335095
198	0xbe859902	-0.26093298
199	0x3a3f01bb	0.00072863296
200	0x3e0e13f3	0.13874798
201	0xbd790082	-0.0607915
202	0x3d4bdb3f	0.049769636
203	0xbde1bc49	-0.11022241
204	0xbe5bc482	-0.2146168
205	0x3ce14f9a	0.027503777
206	0xbd46be82	-0.048521526
207	0x3d24f32e	0.040270977
208	0xbd892d5f	-0.06698107
209	0xbc408c32	-0.011752175
210	0x3dad5600	0.08463669
211	0x3e163cde	0.14671656
212	0xbe609314	-0.21931106
213	0xbe1624f7	-0.14662538
214	0xbd8d917e	-0.06912516
215	0xbe2fbb76	-0.17161354
216	0xbd9b46f9	-0.07581896
217	0x3d0f55f2	0.034994073
218	0xbe63b067	-0.22235261
219	0x3d964479	0.07337279
220	0xbdb3c035	-0.08776895
221	0xbdc9fa74	-0.09862223
222	0xbdcb5515	-0.099283375
223	0xbe277db2	-0.16356543
224	0x3dddc7f2	0.10829152
225	0x3d3f0cc4	0.046643034
226	0x3e668213	0.22510557
227	0xbc9e3112	-0.019310508
228	0xbe910bdc	-0.2832936
229	0x3d876102	0.066103
230	0x3cd5ff45	0.026122699
231	0x3e157430	0.14595103
232	0xbd8f6756	-0.07002132
233	0x3da3e38a	0.08002384
234	0x3dbb2b94	0.09139171
235	0xbda24dcd	-0.079249956
236	0x3dc00623	0.093761705
237	0x3e39754f	0.18111156
238	0xbd78ca91	-0.060740057
239	0xbe74cfeb	-0.2390744
240	0x3d52e8bd	0.051491488
241	0x3e1652be	0.14680001
242	0x3d44ffef	0.04809564
243	0xbdfeb34d	-0.12436543
244	0xbe0af81e	-0.13571212
245	0xbc5efe60	-0.013610452
246	0xbcbaff43	-0.022826796
247	0x3d55d42c	0.052204296
248	0xbdbd6af4	-0.09248915
249	0x3d8c4d0f	0.06850635
250	0x3e3175f3	0.1733015
251	0xbe0a4d90	-0.1350615
252	0x3dcac366	0.099005505
253	0x3dcd2ef6	0.10018723
254	0xbe236af1	-0.15958764
255	0xbdd9dffa	-0.10638423

action_model._discrete_distribution.branches.1.bias f4 [3]
0	0x3da48338	0.080328405
1	0xbdacef5c	-0.08444092
2	0xbc308e1e	-0.010776071

action_model._discrete_distribution.branches.1.weight f4 [3, 256]
0	0xbeb63528	-0.3558743
1	0x3e88f7d2	0.26751572
2	0xbd2d1ae0	-0.042261958
3	0x3e0d37b7	0.13790785
4	0x3d8a414e	0.06750737
5	0x3e40916d	0.18805476
6	0xbe9a4599	-0.30131224
7	0x3cf1735f	0.029473959
8	0xbc81d9eb	-0.015850982
9	0xbde23fd4	-0.110473305
10	0xbd036b07	-0.03208449
11	0x3da64721	0.081190355
12	0xbda1d0a0	-0.0790112
13	0xbd0e783b	-0.03478263
14	0xbe1b444f	-0.15162776
15	0x3e1e2840	0.15445042
16	0x3d01d4b2	0.031696983
17	0xbe58e326	-0.211804
18	0x3dd8d02a	0.10586579
19	0x3d7809ed	0.06055634
20	0xbc86e3ce	-0.016466048
21	0x3d1c85ca	0.03821353
22	0x3d5d7559	0.05406699
23	0x3e8efb38	0.2792604
24	0x3ea51348	0.32241273
25	0x3eb63878	0.35589957
26	0x3db14681	0.08656026
27	0xbdc510aa	-0.09622319
28	0xbd5cbc6f	-0.05389064
29	0xbe7fd649	-0.24984087
30	0xbd857aca	-0.06517561
31	0x3e1b090f	0.15140174
32	0xbe3383ee	-0.17530796
33	0xbde0e33e	-0.10980843
34	0x3e993962	0.29926592
35	0x3db9ac42	0.09066059
36	0xbde91e66	-0.11382751
37	0x3dc88895	0.09791676
38	0xbdb5515a	-0.08853407
39	0x3c9dde0d	0.019270921
40	0xbd81facb	-0.06346663
41	0xb9410e1e	-0.00018411173
42	0x3a4df8a3	0.0007857179
43	0x3c1838de	0.009290902
44	0x3dac181c	0.08403036
45	0xbdf0667e	-0.11738299
46	0x3de92c96	0.11385457
47	0x3df24961	0.11830402
48	0x3df6c7ad	0.12049804
49	0x3da4e058	0.08050603
50	0xbe01b102	-0.1266518
51	0x3cc22df0	0.023703545
52	0x3da84e6d	0.082180835
53	0xbdea200f	-0.11431896
54	0x3db46396	0.08808057
55	0x3d579102	0.052628525
56	0x3db670dc	0.08908245
57	0x3e4babf3	0.19889812
58	0x3e00eadc	0.12589592
59	0xbea8a8b4	-0.3294121
60	0xbe9fb854	-0.3119532
61	0x3d5afe15	0.053464968
62	0x3e176c55	0.14787419
63	0xbe41ba1b	-0.1891865
64	0x3deee052	0.116638795
65	0x3d3563f5	0.04428478
66	0xbd8f601f	-0.070007555
67	0x3b995955	0.0046798387
68	0x3e8048c6	0.25055522
69	0x3d2fe53c	0.042943224
70	0xbde7ab35	-0.11311952
71	0xbcad8bb2	-0.021184776
72	0xbe271e41	-0.16320135
73	0xbe2898cd	-0.16464539
74	0x3d4d94d8	0.050190777
75	0xbe23e25a	-0.16004315
76	0x3b334d60	0.0027359352
77	0xbe4241b3	-0.18970375
78	0x3dc68457	0.096932106
79	0x3e9d25a2	0.30692774
80	0xbe7d4356	-0.24732718
81	0x3cbb1260	0.02283591
82	0xbc8cd806	-0.017192852
83	0xbe60b3f9	-0.21943654
84	0x3ead6dd0	0.33872843
85	0xbe24f1d3	-0.16107874
86	0xbd3e9556	-0.046529137
87	0xbde80c68	-0.11330491
88	0xbd918ffb	-0.0710754
89	0xbec92058	-0.3928249
90	0x3d68fa8a	0.056879558
91	0xbe212d35	-0.15739901
92	0x3dd0aa0f	0.10188686
93	0x3e41701e	0.18890426
94	0xbdb57fc6	-0.088622615
95	0xbea6c633	-0.3257309
96	0x3e031b64	0.12803417
97	0x3de57a37	0.11204951
98	0x3b88c6e8	0.004174102
99	0x3d831e58	0.06402272
100	0xbe8fdddd	-0.28098956
101	0x3e1a804c	0.15088004
102	0xbdb82f06	-0.08993344
103	0x3e43c674	0.19118673
104	0xbe1fd247	-0.15607558
105	0x3eb4dce2	0.3532477
106	0xbd94ad45	-0.07259611
107	0x3e340f0b	0.17583863
108	0xbddc2fa1	-0.10751272
109	0xbea54eff	-0.32286832
110	0x3dd0e3a9	0.10199673
111	0xbd4dac59	-0.05021319
112	0xbdc98be6	-0.09841137
113	0xbe865989	-0.26240185
114	0xbcdd46de	-0.027011331
115	0xbe35b7e2	-0.17745927
116	0xbe07449c	-0.13209766
117	0xbe082ff7	-0.13299547
118	0xbca44b8b	-0.020055553
119	0xbe0f04eb	-0.1396672
120	0x3de49585	0.11161331
121	0x3e3cc852	0.18435791
122	0x3ea94382	0.33059317
123	0xbd8fe024	-0.07025173
124	0x3e8988cc	0.2686218
125	0xbe9ccc86	-0.3062479
126	0x3d55fb22	0.052241452
127	0x3d686bfe	0.056743614
128	0x3d99f24a	0.07516916
129	0x3ccc4ad9	0.024938034
130	0x3c9303bc	0.017946117
131	0xbe06b404	-0.13154608
132	0x3bcc3405	0.006231787
133	0xbe337c9c	-0.17528003
134	0x3de27106	0.11056714
135	0x3cc2fb99	0.023801612
136	0xbe2146f1	-0.15749718
137	0xbdccf909	-0.10008437
138	0xbdab05ae	-0.08350693
139	0x3c649f42	0.013953986
140	0xbe1c1442	-0.15242103
141	0x3e509867	0.20370637
142	0x3bd52a9d	0.006505324
143	0x3d849bd9	0.06475038
144	0xbce4c11e	-0.027924117
145	0x3dec1fe8	0.11529523
146	0xbe06fa6a	-0.13181463
147	0x3d5ff809	0.054679904
148	0xbc69c07b	-0.014267082
149	0xbc715091	-0.014728681
150	0xbe2af56a	-0.1669518
151	0x3e2170f8	0.1576575
152	0x3c812da9	0.015768843
153	0x3de70a97	0.11281317
154	0xbdc0225a	-0.09381552
155	0x3e25b2e6	0.16181526
156	0x3d2fefd6	0.042953335
157	0x3b3fb449	0.0029251745
158	0xbe3067a7	-0.1722704
159	0x3d2fe8c1	0.04294658
160	0x3e9d4083	0.3071328
161	0xbc3fd431	-0.011708305
162	0x3dec826a	0.11548312
163	0xbe1245e0	-0.14284468
164	0xbc3bff67	-0.011474467
165	0x3d08a3a2	0.033359177
166	0xbcf7b663	-0.030238336
167	0x3d6c0436	0.057621203
168	0xbd85c68d	-0.06532011
169	0x3e3dd1e8	0.18537104
170	0x3dda6ff8	0.106658876
171	0xbdaf9b25	-0.08574513
172	0xbde37fe6	-0.11108379
173	0xba0347d9	-0.00050079596
174	0x3ddf15fe	0.108928666
175	0xbdf3019d	-0.11865542
176	0x3d9ff6ad	0.078107215
177	0x3d70c17f	0.058778282
178	0x3e199e3f	0.15001772
179	0x3e9723f6	0.29519624
180	0x3e95dade	0.29268545
181	0xbe911254	-0.28334296
182	0x3ddafe87	0.106930785
183	0xba00fbdc	-0.00049203425
184	0xbdef3a84	-0.11681083
185	0xbdc93252	-0.09824051
186	0x3da3ad17	0.07991999
187	0xbe4d42b9	-0.20044984
188	0x3e2f1ad0	0.17100072
189	0x3d96b68e	0.07359038
190	0x3e6b444a	0.22975269
191	0xbe820c51	-0.25400022
192	0xbba2b8e1	-0.004965887
193	0xbd289978	-0.041161984
194	0xbd27b11c	-0.04094039
195	0xbe2558a4	-0.16147095
196	0x3df23956	0.11827342
197	0xbe4bcbba	-0.19901934
198	0xbdb148c4	-0.08656457
199	0xbe6fb3e7	-0.23408471
200	0xbe204cce	-0.15654299
201	0x3e660ded	0.2246625
202	0x3e0f3893	0.13986425
203	0x3e88d3be	0.26724046
204	0x3e833863	0.25628957
205	0x3d558757	0.052131023
206	0x3d98ffbf	0.07470655
207	0xbd95f280	-0.07321644
208	0x3d1bcb06	0.038035415
209	0x3bf4bc3c	0.0074687283
210	0x3eb31956	0.34980267
211	0xbdd51b5e	-0.104056105
212	0x3db90905	0.090349235
213	0xbeba7a07	-0.36421224
214	0x3df5ead6	0.12007682
215	0xbd86a67e	-0.065747246
216	0xbe524d6e	-0.2053735
217	0x3e01bf21	0.12670566
218	0xbc8f5200	-0.017495155
219	0x3da0fdc3	0.07860901
220	0xbe838cfb	-0.25693497
221	0x3ded8203	0.115970634
222	0xbe1cd836	-0.15316853
223	0x3e0eee46	0.13958082
224	0xbdb9a313	-0.09064307
225	0x3ce0fa53	0.027463114
226	0x3d408a7d	0.047007073
227	0x3a559600	0.0008147657
228	0xbea698df	-0.32538506
229	0xbe0452ad	-0.12922163
230	0xbd93806e	-0.072022304
231	0xbd8eedd4	-0.06978956
232	0x3e0895c0	0.13338375
233	0xbe258312	-0.1616328
234	0xbd99789b	-0.07493707
235	0xbed3e3c9	-0.41384724
236	0xbe1ac0a4	-0.15112549
237	0x3cd39170	0.025826186
238	0xbeab4a35	-0.33455053
239	0xbdf838e9	-0.1212023
240	0x3cac88be	0.021061298
241	0x3e0dd89c	0.13852161
242	0x3e62e0e0	0.22156096
243	0xbe346f97	-0.17620693
244	0xbe6b8469	-0.22999729
245	0xbd18f09c	-0.037338838
246	0x3d437272	0.047716565
247	0x3da87982	0.08226301
248	0x3df9abdd	0.121909834
249	0x3e07d6bd	0.1326551
250	0x3e364a35	0.17801745
251	0xbdf2ffaf	-0.11865174
252	0x3e4e524c	0.20148581
253	0xbc63d840	-0.0139065385
254	0xbdba1b4a	-0.09087236
255	0xbd5197f9	-0.051170323

discrete_action_output_shape f4 [1, 2]
0	0x40a00000	5.0
1	0x40400000	3.0

network_body._body_endoder.seq_layers.0.bias f4 [256]
0	0x3dac9c9d	0.08428309
1	0xbb9b3fda	-0.0047378363
2	0x3d2652f4	0.040606454
3	0xbd554ad5	-0.05207332
4	0x3d51da1a	0.05123339
5	0xbe0dcad7	-0.13846909
6	0xbd4c8951	-0.049935643
7	0xbd624c14	-0.055248335
8	0xbda07be0	-0.07836127
9	0x3df2cdc0	0.1185565
10	0xbcbfeba0	-0.023427784
11	0xbd64e2b1	-0.055880252
12	0xbdabdc04	-0.08391574
13	0x3bef473b	0.0073021925
14	0xbc813f68	-0.015777305
15	0x3d4c1618	0.049825758
16	0x3da59f69	0.08087046
17	0x3d11e81e	0.035621755
18	0xbdd4d4e0	-0.10392165
19	0x3b393680	0.0028261244
20	0xbd8499a7	-0.06474619
21	0x3d1f6600	0.038915634
22	0x3c89c082	0.016815428
23	0x3d8f14d7	0.06986397
24	0xbbb6d2d2	-0.005579331
25	0xbd29d951	-0.041467015
26	0xbd8512ff	-0.06497764
27	0xbd055e56	-0.03256067
28	0xbaa0ba08	-0.0012262473
29	0xbc3e775c	-0.011625137
30	0x3ca02eda	0.01955359
31	0xbd4f3213	-0.050584864
32	0xbda86107	-0.082216315
33	0xbd5d9049	-0.05409268
34	0x3d833715	0.064069904
35	0xbbd7d9dd	-0.0065872506
36	0x3c4fba04	0.012678627
37	0xbd273506	-0.04082205
38	0xbceab72d	-0.028651798
39	0xbb9e28ab	-0.0048266253
40	0x3c7d0bbe	0.015444694
41	0xbc4dbb6c	-0.012556892
42	0xbd367807	-0.04454806
43	0xbdd479f9	-0.10374827
44	0x3d31ad09	0.04337791
45	0x3b80f721	0.00393571
46	0xbd083053	-0.03324921
47	0x3de12047	0.109924845
48	0x3c1704a9	0.00921742
49	0xbc802cb0	-0.015646309
50	0x3d54c2ce	0.051943593
51	0xbd153ed9	-0.03643689
52	0xbe002c12	-0.12516811
53	0x3e906e52	0.28209168
54	0xbc8ec650	-0.017428547
55	0x3d70d663	0.058798205
56	0xbcccc3e6	-0.024995755
57	0xbdb81721	-0.089887865
58	0xbcf14950	-0.029453903
59	0x3a09516a	0.0005238267
60	0xbce7db4f	-0.028302817
61	0xbc32c0ef	-0.010910257
62	0xbce73e89	-0.028228061
63	0xbc0eecdb	-0.008723463
64	0xbc0c1b2f	-0.008551403
65	0xbcd4c2b9	-0.025971757
66	0x3bc1c251	0.005913057
67	0xbe085481	-0.13313486
68	0x3b8bbadd	0.004264219
69	0xbd61ba79	-0.055109475
70	0x3aebb12d	0.001798188
71	0x3d68155f	0.056661006
72	0x3c64ee70	0.013972864
73	0x3dfb168d	0.122601606
74	0x3d8c5c4c	0.06853542
75	0x3bd79ccc	0.006579971
76	0xbd735c90	-0.059414446
77	0xbd9a93ae	-0.07547699
78	0xbd1cd95b	-0.038293224
79	0x3caeed3a	0.021353353
80	0xbd9dbfea	-0.0770262
81	0x3dbba30d	0.09161959
82	0xbb044e7c	-0.0020188382
83	0x3d1422af	0.03616589
84	0x3d0fedff	0.03513908
85	0x3d2f9f90	0.04287678
86	0x3d61d2a9	0.05513254
87	0x3e8f13ee	0.27944893
88	0xbda2e796	-0.07954328
89	0x3bb030d6	0.0053769154
90	0x3d604149	0.05474976
91	0xbdbb7797	-0.09153669
92	0xbc537103	-0.012905362
93	0x3d7d2ed7	0.061812248
94	0x3c8155b9	0.015787946
95	0x3e67fa1d	0.22654004
96	0x3df9656b	0.12177547
97	0x3ce95209	0.0284815
98	0x3d8fb336	0.07016604
99	0x3d1bb38c	0.038013026
100	0xbcb4f5b5	-0.022089818
101	0xbd840b53	-0.064474724
102	0x3e17fd70	0.14842772
103	0xbbf08585	-0.0073401355
104	0x3cc73fcf	0.024322418
105	0xbd4b57fd	-0.04964446
106	0x3d8a9bb0	0.06767976
107	0xbcc0ec9d	-0.023550326
108	0xbc35d8fc	-0.011099096
109	0x3c41bc34	0.011824656
110	0xbd425e91	-0.047453467
111	0xbc8a2f6a	-0.016868312
112	0x3c4c9452	0.012486534
113	0xbdde753e	-0.10862206
114	0xbd63e384	-0.055636898
115	0xbd500869	-0.05078927
116	0xbc71e056	-0.0147629585
117	0x3d33e39a	0.04391823
118	0x3d2d52fd	0.042315472
119	0xbb295dcc	-0.002584326
120	0x3cd61096	0.026130956
121	0xbd4963dc	-0.0491675
122	0xbd386c48	-0.04502514
123	0xbcd57524	-0.026056834
124	0xbdc4163f	-0.095745556
125	0xbcba37da	-0.02273171
126	0xbda438fa	-0.0801868
127	0xbdda1114	-0.10647789
128	0xbd543fa1	-0.051818494
129	0xbd070f5f	-0.032973643
130	0x3d9f4d1a	0.07778378
131	0x3d09a7f1	0.033607427
132	0xbcbc480a	-0.02298357
133	0xbcf40b1b	-0.029790452
134	0xbcdeeea1	-0.027213397
135	0xbd9f3ee5	-0.07775668
136	0xbd79a5a1	-0.06094897
137	0xbda27ab1	-0.07933558
138	0xbd3f6a11	-0.046732012
139	0xbd64944b	-0.055805486
140	0x3bd167bf	0.0063905413
141	0xbdb75a7a	-0.08952804
142	0xbd37daf0	-0.04488653
143	0xbbec09aa	-0.0072033005
144	0x3d49c1a2	0.04925693
145	0x3d5002cc	0.050783917
146	0x3d77fbb2	0.06054277
147	0x3c4025e0	0.01172778
148	0xbcfd8672	-0.030947898
149	0x3cc6b5cd	0.024256611
150	0x3d4a656c	0.04941313
151	0xbd954e82	-0.07290365
152	0xbc18f547	-0.009335822
153	0x3c107be8	0.008818604
154	0xbcc0a1b0	-0.023514599
155	0xbd2bbc42	-0.041927584
156	0x3cb407c7	0.021976365
157	0xbca15d17	-0.019697709
158	0xbc8ff5d7	-0.01757328
159	0xbd32a59e	-0.043614976
160	0x3cbbdd96	0.022932809
161	0xbd1c494a	-0.03815583
162	0x3d246a5d	0.0401405
163	0x3d7827d2	0.06058485
164	0xbd231951	-0.039819065
165	0x3d3acf0e	0.04560762
166	0xbc103f82	-0.008804204
167	0x3d8d499a	0.06898804
168	0xbc1f4bc2	-0.009722652
169	0x3bb06ade	0.0053838333
170	0x3caa560d	0.020792985
171	0x3d1b2117	0.037873354
172	0xbca07fed	-0.01959225
173	0xbcea3cb6	-0.028593402
174	0xbde7715e	-0.1130092
175	0xbd9da244	-0.07696965
176	0xbd5ecd88	-0.05439523
177	0x3d89f723	0.06736591
178	0xbd951406	-0.0727921
179	0xbbc13b06	-0.0058969287
180	0xbd297b72	-0.041377492
181	0x3c0f547a	0.008748168
182	0xbd0dbef5	-0.03460594
183	0xbc0fc8b2	-0.008775877
184	0x3c6db398	0.0145081505
185	0x3d6da578	0.05801913
186	0x3c273b89	0.010207065
187	0x3b3676dd	0.0027841844
188	0x3d8d36e2	0.06895234
189	0xbdd44180	-0.10364056
190	0xbd25240b	-0.040317576
191	0x3d8d721f	0.069065325
192	0x3c9f8488	0.019472376
193	0x3dbaf7ea	0.09129317
194	0xbe076de1	-0.13225509
195	0x3d7c8393	0.061648916
196	0xbdc64b23	-0.096823
197	0xbd0f29c0	-0.034951925
198	0xbca21f9c	-0.019790463
199	0x3d260821	0.040535096
200	0xbd2f7207	-0.042833354
201	0xbdfaab52	-0.12239708
202	0x3d847908	0.064683974
203	0xbc4824aa	-0.012215773
204	0x3d8284b7	0.063729696
205	0xbc11d10c	-0.008899938
206	0x3bc8e6d5	0.006131033
207	0x3bf388e0	0.0074320883
208	0xbd30f7b3	-0.043204974
209	0x3d80a655	0.06281725
210	0x3d52fa02	0.051507957
211	0xbd33d6b8	-0.043905944
212	0xbc6b12e3	-0.014347765
213	0x3da9e9f9	0.0829658
214	0x3c903d48	0.017607346
215	0xbbde1934	-0.006777907
216	0x3d1c7a91	0.038202826
217	0xbc81126d	-0.015755856
218	0x3da986cb	0.08277663
219	0x3c944d4c	0.018103264
220	0xbcf115ec	-0.029429398
221	0x3d4aa155	0.049470264
222	0x3d7aea83	0.061258804
223	0xbb60d63e	-0.0034307386
224	0xbbb9e631	-0.005673193
225	0xbc81252b	-0.015764793
226	0x3dc9f765	0.0986164
227	0x3c9b34ff	0.018946169
228	0xb88f93c3	-6.846294e-05
229	0xbd711755	-0.05886014
230	0xbcc1eaf0	-0.023671597
231	0x3d77e2f9	0.060519192
232	0x3cf51670	0.029917926
233	0xbc76930e	-0.015049709
234	0xbd81cb9e	-0.06337665
235	0xbdb06931	-0.08613814
236	0xbc9c1954	-0.019055046
237	0xbc54abcf	-0.0129804155
238	0xbcd81e52	-0.026381645
239	0xbc37adb7	-0.01121085
240	0x3dadf359	0.084936805
241	0xbd2d1b4f	-0.04226237
242	0x3e06a792	0.1314986
243	0xbd7e6b7c	-0.062114224
244	0xbc7b721d	-0.015347031
245	0x3d4bc402	0.049747474
246	0x3d1f8e6c	0.038954183
247	0xbd00f6f5	-0.031485517
248	0xbcedc465	-0.029024312
249	0xbc14aed5	-0.009074886
250	0xbda78df1	-0.0818137
251	0x390338a6	0.00012514237
252	0xbd40c923	-0.04706682
253	0x3caadb20	0.02085644
254	0x3c077178	0.008266799
255	0x3c819637	0.015818698

network_body._body_endoder.seq_layers.0.weight f4 [256, 483]
0	0xbb63f4e7	-0.0034783424
1	0xbdb53097	-0.088471584
2	0xbda3cca2	-0.07998015
3	0x3e894f84	0.26818478
4	0xbcdcf78e	-0.026973512
5	0xbd6acdb0	-0.057325065
6	0xbd833d8c	-0.064082235
7	0xbddaf701	-0.106916435
8	0xbd66d49c	-0.056355104
9	0x3d888616	0.066662
10	0x3e847db9	0.2587717
11	0xbe9ef55c	-0.3104657
12	0xbe8161c8	-0.25269914
13	0xbe65eed5	-0.22454388
14	0xbe253678	-0.1613406
15	0xbd22f942	-0.039788492
16	0xbd09d341	-0.033648733
17	0x3e6ffb95	0.23435815
18	0x3e210fb0	0.1572864
19	0xbe188d78	-0.14897716
20	0x3da178fd	0.07884405
21	0xbe0afec9	-0.13573755
22	0xbca4dca1	-0.020124735
23	0xbd97c39a	-0.07410355
24	0x3c8fcfce	0.017555144
25	0xbe2589a2	-0.16165784
26	0xbe5bac26	-0.21452388
27	0xbdfb438d	-0.12268744
28	0xbd82348b	-0.06357678
29	0xbd67354c	-0.056447312
30	0xbd441238	-0.047868937
31	0x3dacd2f4	0.084386736
32	0xbe16b258	-0.1471647
33	0xbdec0d16	-0.115259334
34	0xbe8bbdd4	-0.27293265
35	0xbe4e22a6	-0.20130405
36	0x3e92c6a2	0.2866717
37	0xbe057263	-0.13031916
38	0xbd5d6d10	-0.05405909
39	0x3e4bad70	0.1989038
40	0xbdf809e5	-0.12111262
41	0xbb055d60	-0.0020349845
42	0x3d99f251	0.07516921
43	0x3b73a6cc	0.0037178276
44	0xbdf6deb7	-0.12054198
45	0x3e50f352	0.2040532
46	0xbe7cae62	-0.24675897
47	0xbe3e2435	-0.185685
48	0x3d05842e	0.03259676
49	0xbda612f4	-0.08109084
50	0xbdb720fe	-0.0894184
51	0x3cd07f9c	0.025451474
52	0x3e85ac5c	0.26108062
53	0x3e18f866	0.14938506
54	0xbe05ef76	-0.13079628
55	0xbe490616	-0.19631228
56	0x3e62183a	0.22079554
57	0x3ed67dd9	0.4189289
58	0xbcad39f0	-0.02114579
59	0x3e20db69	0.15708698
60	0x3e4b0534	0.19826204
61	0xbcbfe1bc	-0.023423068
62	0x3d3360bf	0.043793436
63	0xbacc4b49	-0.0015586402
64	0x3e921d7c	0.2853812
65	0xbdb037b7	-0.08604377
66	0x3d923e6b	0.071408115
67	0x3e6ea57b	0.23305313
68	0xbc4c0c85	-0.012454157
69	0x3d7a990c	0.061181113
70	0xbe197f34	-0.1498993
71	0x3e049078	0.12945735
72	0x3e590b68	0.21195757
73	0x3d036fc7	0.03208902
74	0x3e50d68f	0.20394348
75	0xbb84ed7b	-0.00405663
76	0x3dfd24bc	0.12360522
77	0xbd917df7	-0.07104104
78	0xbde63bb8	-0.11241859
79	0xbe554d44	-0.20830256
80	0x3dde84c1	0.108651645
81	0x3e92b2c9	0.28652027
82	0x3d6b09f4	0.05738254
83	0x3dc11307	0.09427457
84	0x3d5d7da1	0.054074887
85	0xba5af936	-0.00083531754
86	0xbe2b6ff3	-0.16741924
87	0xbe2b685a	-0.16739026
88	0x3de08e7a	0.10964675
89	0xbd261fdc	-0.040557727
90	0x3e80b4eb	0.2513803
91	0x3c8d0acf	0.017217068
92	0xbd6a605b	-0.057220798
93	0x3e092bdf	0.13395642
94	0xbd134cb0	-0.035961807
95	0x3e2ec4f9	0.17067327
96	0x3d9e7948	0.07737976
97	0x3e023105	0.12714012
98	0xbea2cc0a	-0.31796294
99	0xbe057f01	-0.1303673
100	0x3e7dedc6	0.24797735
101	0xbd6bad0a	-0.05753807
102	0xbe06e2a0	-0.13172388
103	0x3c743f36	0.014907649
104	0x3da20006	0.07910161
105	0xbe91f40b	-0.28506503
106	0x3e62c828	0.22146666
107	0x3d9f2f38	0.07772678
108	0xbe956cb9	-0.2918451
109	0xbea21c1f	-0.3166208
110	0x3d9a3e75	0.07531444
111	0x3e6b4b47	0.22977935
112	0xbeba2830	-0.36358786
113	0xbe0ba341	-0.13636495
114	0xbd6d8493	-0.05798776
115	0x3e38f8d1	0.18063666
116	0xbe18c4ef	-0.14918874
117	0x3d1e791a	0.03868971
118	0x3e1fe051	0.15612914
119	0x3ccb6a57	0.02483098
120	0xbd1101e2	-0.035402186
121	0xbe846bfd	-0.2586364
122	0xbe755ecc	-0.23961943
123	0x3ca70adf	0.020390926
124	0xbd96f566	-0.07371025
125	0x3e893593	0.26798686
126	0x3dcccab4	0.099996
127	0x3d78dba1	0.06075633
128	0xbca515ff	-0.02015209
129	0x3dac55ab	0.08414777
130	0x3e3e3eeb	0.18578689
131	0x3d3bf91c	0.045891866
132	0x3d7df069	0.06199685
133	0x3d8de376	0.0692815
134	0x3e9393b4	0.28823626
135	0xbec72667	-0.38896486
136	0xbec5db9f	-0.3864412
137	0xbea6f2fb	-0.32607254
138	0xbdad1ac8	-0.08452374
139	0x3edb82fa	0.42873365
140	0xbde7cba9	-0.11318142
141	0x3e21913e	0.15778062
142	0xbec1dea1	-0.37865165
143	0x3da6e60e	0.08149348
144	0xbe49b608	-0.19698346
145	0xbe20c148	-0.15698731
146	0x3ee2b865	0.44281307
147	0xbcdd38a0	-0.02700454
148	0x3e750042	0.2392588
149	0x3eae0406	0.33987445
150	0xbcbc2e02	-0.022971157
151	0xbe510f0d	-0.20415898
152	0xbd964a52	-0.07338394
153	0x3d6e51b8	0.0581834
154	0xbeb45d97	-0.35227653
155	0x3c35bc3b	0.011092241
156	0xbeaf6398	-0.34255672
157	0x3e51790d	0.20456333
158	0xbe830666	-0.2559082
159	0xbe013f64	-0.12621838
160	0x3ea85c30	0.32882833
161	0x3de4f1ff	0.111789696
162	0x3db4a67b	0.08820816
163	0xbdc03ba4	-0.093863755
164	0xbe19f4fe	-0.15034863
165	0xbcfa2544	-0.030535348
166	0xbca1d4ed	-0.019754851
167	0x3e1132ee	0.14179584
168	0x3eaa7d21	0.3329859
169	0x3d2d621b	0.04232989
170	0x3dcb593f	0.09929132
171	0xbd8c7fc4	-0.06860307
172	0xbe404a22	-0.1877828
173	0x3e14770e	0.14498541
174	0x3cb9d10f	0.022682695
175	0x3dddd52d	0.10831676
176	0xbc9eef00	-0.019401073
177	0x3dfde365	0.12396888
178	0xbe5ff1f3	-0.2186964
179	0xbe5b9c10	-0.21446252
180	0x3d739829	0.059471283
181	0x3ddb9822	0.107223764
182	0x3cfe6eec	0.031058751
183	0xbe88d524	-0.26725113
184	0x3e521e79	0.20519437
185	0xbd109b5b	-0.03530441
186	0xbe05fc8f	-0.13084625
187	0x3e2301cd	0.15918656
188	0xbd67cb06	-0.056590103
189	0x3d879414	0.066200405
190	0xbd86318a	-0.065524176
191	0x3d8034cc	0.0626007
192	0xbe181a74	-0.14853841
193	0x3e85347e	0.2601661
194	0x3e3f4b25	0.18681009
195	0x3d4557f3	0.048179578
196	0xbcbf3036	-0.023338418
197	0xbca73faa	-0.0204161
198	0x3daba525	0.08381108
199	0xbd8a0588	-0.06739336
200	0xbddfe13e	-0.109316334
201	0xbc99d2a1	-0.018777194
202	0xbb6a358b	-0.003573748
203	0xbdf41ef4	-0.11919966
204	0xbe1cc9bb	-0.15311329
205	0x3d8389d5	0.06422774
206	0xbe56de17	-0.20983158
207	0xbe283f0b	-0.16430299
208	0x3e84fb5e	0.25973028
209	0x3df5e500	0.12006569
210	0xbd2496a5	-0.04018273
211	0x3dbc0f3e	0.09182595
212	0xbdb9ac24	-0.09066036
213	0xbdfefd2d	-0.12450633
214	0xbea3be34	-0.3198105
215	0x3e27148b	0.1631643
216	0x3e1551a1	0.1458192
217	0x3d82bda7	0.063838296
218	0xbd364947	-0.044503476
219	0x3d49c615	0.04926117
220	0xbe058b11	-0.13041331
221	0x3b006efd	0.0019597404
222	0x3e327584	0.17427641
223	0x3e2c3a47	0.16819106
224	0x3c795f5b	0.015220488
225	0xbd8c52ea	-0.06851752
226	0x3d8a7001	0.06759644
227	0xbe875091	-0.26428655
228	0xbca9e29e	-0.020737942
229	0x3db6f85d	0.0893409
230	0x3ddbc782	0.107314125
231	0x3d734b6f	0.05939811
232	0x3e4e420f	0.20142387
233	0xbe4f3890	-0.2023642
234	0xbe5bf877	-0.214815
235	0x3c7b42a0	0.015335709
236	0x3e0be5c2	0.13661864
237	0x3e50abd6	0.2037805
238	0xbddafca6	-0.1069272
239	0x3cfa6c4e	0.030569222
240	0x3e7e6303	0.24842457
241	0xbe6a27b1	-0.22866704
242	0xbdfc5de0	-0.12322593
243	0x3e028028	0.127442
244	0xbb701538	-0.003663374
245	0x3e12e3ed	0.1434476
246	0xba036c3c	-0.00050133816
247	0x3e09f2af	0.13471483
248	0xbcee377a	-0.029079188
249	0x3d915c9c	0.07097742
250	0x3e14642e	0.1449134
251	0x3e2731f1	0.16327645
252	0xbe080fe0	-0.13287306
253	0xbe60a54c	-0.21938056
254	0xbcb2e335	-0.021836856
255	0xbcf202e2	-0.02954239

network_body._body_endoder.seq_layers.2.bias f4 [256]
0	0xbd594c24	-0.05305113
1	0xbd115d10	-0.035489142
2	0xbe0acaec	-0.13553971
3	0x3c773ab9	0.015089684
4	0xbb9e3a01	-0.004828692
5	0xbd8906f6	-0.06690781
6	0xbe2a6bba	-0.16642657
7	0xbb8ea7de	-0.0043535074
8	0xbe559ca7	-0.2086054
9	0xbe763ef4	-0.24047452
10	0xbdec52cd	-0.115392305
11	0x3cda4d53	0.0266482
12	0xbd7f3feb	-0.062316816
13	0xbe22b2f6	-0.1588858
14	0xbe2912dc	-0.165111
15	0xbe19828b	-0.14991204
16	0xbe2123f8	-0.15736377
17	0xbde3dda8	-0.11126262
18	0xbda8c5d3	-0.08240857
19	0xbd942fac	-0.07235655
20	0xbc519a3f	-0.012793123
21	0xbc888c27	-0.016668392
22	0xbdbaf57f	-0.09128856
23	0x3d278a76	0.04090353
24	0xbd1bcd9e	-0.03803789
25	0x3e32ba04	0.17453772
26	0xbab0b86a	-0.0013482694
27	0x3cba4497	0.022737784
28	0xbced20d1	-0.028946312
29	0xbe225779	-0.1585368
30	0xbdf26bc3	-0.1183696
31	0xbb011ac2	-0.0019699787
32	0xbd9ca6fc	-0.07649037
33	0x3d126f28	0.035750538
34	0xbabc961a	-0.0014387995
35	0xbdc4077e	-0.095717415
36	0xbdb27903	-0.087144874
37	0x3c7f735d	0.01559147
38	0xbd82a42d	-0.0637897
39	0xbd5d0316	-0.05395802
40	0xbe28d6ff	-0.16488265
41	0xbe2545bd	-0.16139884
42	0xbd2e0145	-0.04248168
43	0xbe0e3663	-0.13887934
44	0xbe152928	-0.14566481
45	0xbdda7986	-0.1066771
46	0xbddcc7a0	-0.10780263
47	0xbcd0c079	-0.025482403
48	0xbe47d875	-0.19516166
49	0xbe8030b3	-0.25037155
50	0xbd87ab30	-0.06624448
51	0xbe372261	-0.17884208
52	0xbddda0f1	-0.10821713
53	0xbba43d70	-0.0050122067
54	0xbd6d3c95	-0.057919104
55	0x3ca7dfd0	0.020492464
56	0x3d521fb1	0.051299755
57	0xbdffb4c7	-0.124856524
58	0x3d217576	0.03941866
59	0xbe3fffc3	-0.18749909
60	0xbd106448	-0.035251886
61	0xbd8b9002	-0.06814577
62	0xbcb45c8f	-0.022016792
63	0x3ce19b19	0.027539777
64	0xbe0fa006	-0.14025888
65	0xbe0ce673	-0.13759784
66	0xbded0070	-0.11572349
67	0xbe097b61	-0.13425972
68	0x3e26b95c	0.16281646
69	0xbd8afd50	-0.06786597
70	0xbdc5e262	-0.0966232
71	0xbe5f78ae	-0.2182338
72	0xbe678edd	-0.22613092
73	0xbe39cea4	-0.18145233
74	0xbdd7773c	-0.10520789
75	0xbe057eaa	-0.130366
76	0xbe2b35c2	-0.16719726
77	0xbd9ebbf3	-0.07750692
78	0x3e248599	0.16066588
79	0xbd3a056d	-0.04541533
80	0x3c9ee48a	0.019396085
81	0xbe40cb60	-0.18827581
82	0xbd7ffad9	-0.062495086
83	0x3c88744c	0.016657017
84	0x3db982b1	0.090581305
85	0xbe24809a	-0.16064683
86	0xbd7a45df	-0.06110179
87	0xbcfe8c23	-0.031072682
88	0xbe6de70f	-0.23232673
89	0xbe0975ae	-0.13423797
90	0x3d9448cc	0.072404474
91	0xbdbd5254	-0.092442185
92	0xbe3e2306	-0.18568048
93	0xbd4bce5a	-0.04975734
94	0xbde8ea0f	-0.11372768
95	0xbe3ad7fb	-0.18246453
96	0xbd988eb4	-0.074490935
97	0x3d755420	0.05989468
98	0x3cdae72e	0.026721563
99	0xbd5c4695	-0.05377825
100	0xbdbdf2bb	-0.09274813
101	0xbd0bed26	-0.03416171
102	0xbd9073f4	-0.07053366
103	0x3e08e77c	0.13369554
104	0x3cbedddc	0.02329915
105	0x3c8145de	0.015780386
106	0xbe370927	-0.17874585
107	0x3bfc3162	0.0076963166
108	0xbdb1347f	-0.08652591
109	0xbe1f6743	-0.15566735
110	0xbc37f609	-0.011228093
111	0xbb3fe70c	-0.0029282002
112	0xbeb1d58f	-0.34733245
113	0xbd852f63	-0.06503179
114	0x3de2d2a6	0.11075334
115	0xbe24890b	-0.16067903
116	0xbe81a9ce	-0.25324863
117	0xbdc13889	-0.09434611
118	0xbe004ff7	-0.12530504
119	0xbe4d8a86	-0.20072374
120	0xbd8f3be2	-0.069938436
121	0xbcd6665a	-0.026171852
122	0xbb227614	-0.0024789618
123	0xbd57cc59	-0.052685115
124	0xbd980c07	-0.07424169
125	0xb9f68f87	-0.00047027713
126	0xbd927db7	-0.071528845
127	0xbd6c24be	-0.057652228
128	0xbb848813	-0.0040445416
129	0xbde6c4d6	-0.11268012
130	0x3d56eccf	0.052471932
131	0xbe2ae654	-0.16689426
132	0xbe074dd7	-0.13213287
133	0xbd8e6ac4	-0.06953958
134	0xbd141fad	-0.03616302
135	0xbe50c7c2	-0.20388702
136	0xbe133817	-0.14376865
137	0x3cf2879c	0.02960568
138	0x3d50533d	0.050860632
139	0xbbe8c404	-0.007103445
140	0xbe091f8f	-0.13390945
141	0xbd479d6e	-0.04873412
142	0xbded9b0c	-0.116018385
143	0xbdcf6259	-0.1012618
144	0xbe86d260	-0.26332378
145	0x3caaf6d2	0.020869646
146	0xbdd20ab7	-0.1025595
147	0x3d39a949	0.04532746
148	0xbe5d9713	-0.21639661
149	0xbdacaa08	-0.084308684
150	0xbdf97cae	-0.12181984
151	0xbdcbad14	-0.099451214
152	0xbdc9e68b	-0.09858426
153	0x3d6364b1	0.05551595
154	0xbd9f249d	-0.07770655
155	0x3cabd39f	0.020974932
156	0xbdcb1717	-0.099165134
157	0xbddb0235	-0.1069378
158	0xbe8cd716	-0.27507848
159	0xbd80f548	-0.06296784
160	0x3dd8b802	0.10581972
161	0xbe21b783	-0.1579266
162	0x3d947e4a	0.0725065
163	0xbe260b0e	-0.16215155
164	0xbd972d55	-0.07381693
165	0xbe000223	-0.12500815
166	0xbe032ce8	-0.12810099
167	0xbd9d162e	-0.07670246
168	0xbe028f85	-0.12750061
169	0xbd4f74b9	-0.050648425
170	0x3d2a1aba	0.041529395
171	0xbdf91210	-0.12161648
172	0xbd569e45	-0.05239703
173	0xbdb0d705	-0.08634762
174	0xbb94f484	-0.00454575
175	0x3d51d33a	0.051226832
176	0xbd086e0c	-0.033308074
177	0x3d34eddb	0.04417215
178	0xbd9a6ce8	-0.075403035
179	0x3cb8689d	0.022510821
180	0x3e305ad6	0.17222151
181	0xbdb31321	-0.08743883
182	0xbe086218	-0.1331867
183	0x3cfd3d23	0.030912941
184	0xbd491686	-0.049093746
185	0xbe4a444e	-0.19752619
186	0x3d4f462e	0.050604038
187	0xbe1d4714	-0.15359145
188	0xbdd9c08d	-0.10632429
189	0xbdbe7d19	-0.09301204
190	0x3d78c6c5	0.060736436
191	0xbe2bf79f	-0.16793679
192	0x3c277224	0.010220084
193	0x3c0ba5e7	0.008523441
194	0xbcc0ea78	-0.023549303
195	0xbdf597e8	-0.119918644
196	0xbcc62aa9	-0.024190264
197	0xbe20d4d0	-0.15706182
198	0xbdc8e991	-0.09810174
199	0xbc52d0ff	-0.012867211
200	0xbe029cbd	-0.12755103
201	0xbdeb2810	-0.11482251
202	0xbdbfb6dd	-0.0936105
203	0x3d8e37ce	0.06944238
204	0xbd9d9d2b	-0.07695993
205	0xbd28fe74	-0.04125829
206	0xbcf55166	-0.02994604
207	0xbd454d89	-0.048169646
208	0x3d26edbb	0.04075406
209	0xbd9bff3a	-0.0761704
210	0x3c18a04f	0.009315564
211	0xbd9f3000	-0.07772827
212	0xbdcdccff	-0.100488655
213	0xbd67eb55	-0.056620914
214	0xbe166bf7	-0.14689623
215	0xbe4806b7	-0.19533812
216	0xbe391dd9	-0.18077792
217	0x3df5d9d9	0.12004442
218	0xbc37d2bb	-0.011219676
219	0xbd3dbc73	-0.046322297
220	0x3c3da4c6	0.01157493
221	0xbcc417e6	-0.023937177
222	0xbdb3029e	-0.087407336
223	0xbdb5e33e	-0.08881234
224	0xbe1ddacc	-0.15415496
225	0xbcf37446	-0.02971853
226	0xbd8e96e9	-0.069623776
227	0xbc61b7ae	-0.013776703
228	0xbbc1a80b	-0.005909925
229	0xbd236ffa	-0.03990171
230	0xbe2866ab	-0.16445415
231	0xbd305f65	-0.043059725
232	0xbe092446	-0.13392743
233	0xbe701efd	-0.23449321
234	0x3d1a257e	0.03763341
235	0xbb2dd749	-0.0026526025
236	0xbe0f3ea0	-0.13988733
237	0xbd5bfdae	-0.053708725
238	0x3d3c091f	0.045907136
239	0x3d26b82b	0.04070298
240	0xbb11b24a	-0.0022231513
241	0x3d16fa11	0.036859576
242	0xbcb1bf8b	-0.02169778
243	0xbe093e59	-0.1340269
244	0xbda6776b	-0.08128246
245	0xbde0d141	-0.10977412
246	0xbd4855eb	-0.048910063
247	0xbe0a8277	-0.13526331
248	0xbe6664da	-0.2249941
249	0x3dc5312e	0.09628521
250	0x3cea9ffe	0.028640743
251	0xbd1f1269	-0.038835917
252	0xbcf27a99	-0.029599475
253	0xbe181466	-0.14851531
254	0x3c9d9e63	0.019240564
255	0xbdf2923a	-0.11844297

network_body._body_endoder.seq_layers.2.weight f4 [256, 256]
0	0xbdd3d8f9	-0.103441186
1	0xbdd7aa58	-0.10530537
2	0xbe802638	-0.2502916
3	0x3e9ec244	0.31007588
4	0xbe177e57	-0.14794289
5	0xbe2f8203	-0.1713944
6	0x3d3309b4	0.043710425
7	0xbe967d82	-0.2939263
8	0x3e25b8fd	0.16183849
9	0x3cea1b86	0.028577577
10	0x3e68d1fb	0.22736351
11	0x3d96b8b1	0.07359446
12	0xbe00c231	-0.12574078
13	0x3e483d52	0.19554642
14	0xbea7b8ae	-0.32758087
15	0xbe58a24b	-0.2115566
16	0xbe1bbeab	-0.15209453
17	0xbe87d4f7	-0.26529667
18	0xbc6f32a8	-0.01459948
19	0x3f04a2a4	0.5181067
20	0x3e014b0d	0.12626286
21	0xbe875650	-0.2643304
22	0x3e198e84	0.14995772
23	0xbe35c270	-0.17749953
24	0x3e111782	0.14169124
25	0x3db110dc	0.08645794
26	0xbcdfa7a7	-0.027301623
27	0xbe7c3a78	-0.24631679
28	0x3e4c42d6	0.19947371
29	0xbe85b975	-0.26118055
30	0xbdc57ae9	-0.09642584
31	0x3b37f9ff	0.0028072593
32	0x3dffadc4	0.12484315
33	0xbe2527c5	-0.16128452
34	0x3e2072a0	0.15668726
35	0x3e81ed5b	0.253764
36	0xbd97b53b	-0.07407614
37	0xbda67630	-0.08128011
38	0x3dac8618	0.08424014
39	0x3dcc979a	0.09989853
40	0x3d42c4a2	0.047550805
41	0xbe229a61	-0.15879203
42	0xbeab7697	-0.33488914
43	0xbe2c8dda	-0.16850987
44	0xbd4132ee	-0.04716771
45	0xbe3b612f	-0.18298791
46	0x3e4beba2	0.19914106
47	0xbe3aef56	-0.18255362
48	0xbd533d46	-0.051572107
49	0x3e1a0a4b	0.15042989
50	0xbe0b990f	-0.13632606
51	0x3c2f8a5f	0.010714143
52	0xbcf442ae	-0.029816952
53	0x3d7cef9a	0.06175194
54	0x3e154c4f	0.1457989
55	0x3ca9dd9c	0.020735554
56	0x3d17108d	0.03688102
57	0xbe691017	-0.22760044
58	0x3dfba915	0.12288109
59	0xbdffd598	-0.12491912
60	0xbe9d6d90	-0.30747652
61	0xbdd95956	-0.106127426
62	0xbeb6386f	-0.3558993
63	0x3e7eade6	0.24871024
64	0x3e000123	0.12500434
65	0xbdc4f499	-0.09616966
66	0x3e5b942c	0.21443242
67	0x3e766ed5	0.24065717
68	0x3cd2c15f	0.025726972
69	0xbe107970	-0.14108825
70	0x3da7c7e4	0.08192423
71	0x3dfe2df5	0.12411109
72	0xbe1e402e	-0.1545417
73	0xbe06b83a	-0.13156214
74	0x3eae69bf	0.34065053
75	0xbd2a8c06	-0.041637443
76	0xbe13dd54	-0.14439899
77	0x3dd2f7bd	0.103011586
78	0x3e1c49f7	0.1526259
79	0xbe4102a6	-0.18848667
80	0xbe27299e	-0.1632447
81	0x3c8d3c27	0.017240597
82	0xbeb60ae8	-0.35555196
83	0xbca00433	-0.019533252
84	0x3dd9277e	0.10603236
85	0x39147368	0.00014157372
86	0xbdc2c0e0	-0.09509444
87	0xbe8393fc	-0.2569884
88	0xbdc9831e	-0.09839462
89	0xbd7fe081	-0.062469963
90	0x3d351bb5	0.044215877
91	0x3e08001d	0.13281293
92	0xbe51ebc8	-0.205001
93	0x3df82ceb	0.121179424
94	0xbd32df7a	-0.043670155
95	0x3dcf897b	0.10133644
96	0xbe94c0aa	-0.2905324
97	0x3ea65720	0.32488346
98	0x3e058158	0.13037622
99	0x3e8aece3	0.27133855
100	0x3bd97cc7	0.006637189
101	0xbe83df1b	-0.25756153
102	0x3c2a1192	0.010380166
103	0xbd734698	-0.059393495
104	0x3ceec8cb	0.02914848
105	0xbdb4d442	-0.088295475
106	0x3d0a94c6	0.033833288
107	0xbdc9546e	-0.09830557
108	0x3dc14bc8	0.09438282
109	0xbc9cdbfc	-0.019147865
110	0xbdd96666	-0.10615234
111	0xbc823d90	-0.015898496
112	0xbde5ef1b	-0.112272464
113	0x3d936836	0.07197611
114	0xbe16e2e9	-0.14734997
115	0xbd873111	-0.066011555
116	0xbd8b38f5	-0.06797973
117	0x3e49a6f1	0.1969259
118	0xbe123663	-0.1427856
119	0xbdbd0edd	-0.092313506
120	0x3e049e2d	0.12950964
121	0x3d84d1d4	0.06485334
122	0x3e3cd9cb	0.18442456
123	0x3e4f950d	0.20271702
124	0xbdc35e6f	-0.09539496
125	0x3e185958	0.14877832
126	0x3c645dc2	0.013938369
127	0x3edac490	0.4272809
128	0xbdad0bdb	-0.08449527
129	0xbdbfb7a6	-0.093612
130	0x3ec3f1d8	0.3827045
131	0xbe565723	-0.20931678
132	0xbe64c38b	-0.22340219
133	0xbcb01edd	-0.021499092
134	0x3ddd6a4c	0.1081129
135	0x3e6a1162	0.22858194
136	0xbda97706	-0.08274655
137	0x3d1349e1	0.03595913
138	0x3ce89463	0.028391069
139	0xbe9dffc4	-0.30859196
140	0x3cc5aefd	0.024131292
141	0x3d2c0ced	0.042004514
142	0x3e505883	0.20346265
143	0xbd85b3fd	-0.06528471
144	0xbeb283ee	-0.3486628
145	0x3e2965c2	0.16542724
146	0xbdd99ef4	-0.10626021
147	0x3d98698f	0.07442009
148	0xbe23b0fb	-0.15985481
149	0x3d2062c8	0.039156705
150	0x3e25cc5a	0.16191235
151	0xbe683da6	-0.22679767
152	0xbe0f06de	-0.13967463
153	0xbe662874	-0.22476369
154	0xbe004f59	-0.12530269
155	0xbe76afbb	-0.24090473
156	0x3d251ad7	0.0403088
157	0x3e1ff1d9	0.15619601
158	0xbdba98c7	-0.09111171
159	0xbd511512	-0.051045485
160	0x3d44f2e2	0.048083194
161	0x3dd85360	0.105627775
162	0xbe4b4793	-0.19851522
163	0x3e6a0f1a	0.22857323
164	0xbe8950d5	-0.26819482
165	0x3e680313	0.22657423
166	0xbd7221f8	-0.059114426
167	0xbe6382a6	-0.22217807
168	0x3d257a6b	0.04039995
169	0x3b71249d	0.0036795505
170	0xbe4f6062	-0.20251611
171	0xbe03bdf2	-0.12865427
172	0xbe32c59b	-0.17458193
173	0x3cb38cf0	0.02191779
174	0xbea8662e	-0.32890457
175	0x3e7eb902	0.24875262
176	0x3e6b5ae0	0.22983885
177	0xbd4ed30f	-0.05049425
178	0x3d443489	0.047901664
179	0xbc9a7db2	-0.018858764
180	0x3cb1ec1b	0.02171903
181	0xbe6785ad	-0.22609587
182	0xbdfe6b0d	-0.12422762
183	0x3d74e4bf	0.05978846
184	0xbd65dbce	-0.056117825
185	0xbdd26694	-0.102734715
186	0xbea7ee63	-0.32799062
187	0xbc465852	-0.012106018
188	0x3d6b0900	0.05738163
189	0xbdcebc4e	-0.1009451
190	0xbe80f458	-0.2518642
191	0x3d7a89a8	0.061166435
192	0xbdb62a00	-0.088947296
193	0x3d99370c	0.074812025
194	0x3e628206	0.22119913
195	0xbeb62348	-0.35573792
196	0xbae0693d	-0.0017121207
197	0x3cd7ab61	0.026326837
198	0xbd9adc03	-0.07561495
199	0xbe759ffe	-0.23986813
200	0x3d477d69	0.048703585
201	0xbdf06e11	-0.117397435
202	0x3d79a2af	0.060946163
203	0xbb558c0f	-0.0032584702
204	0xbe5204e0	-0.20509672
205	0x3d9f4b4c	0.077780336
206	0xbc1e920d	-0.009678376
207	0xbcb1e6a2	-0.02171642
208	0xbef78794	-0.48345625
209	0xbe7d16f9	-0.24715795
210	0xbda4058e	-0.08008872
211	0xbd0fc667	-0.03510132
212	0xbdffe244	-0.124943286
213	0xbd7b886d	-0.061409403
214	0x3e8e2f2d	0.27770367
215	0x3e7ee955	0.24893697
216	0x3dac0c4e	0.084007844
217	0x3e12a9bb	0.1432256
218	0x3dd4adce	0.10384713
219	0xbe543204	-0.20722204
220	0x3ea73d08	0.3266375
221	0x3e1e7a8a	0.15476432
222	0x3e55174f	0.20809673
223	0x3eb65c3c	0.35617244
224	0xbe463a7a	-0.19358245
225	0xbd292205	-0.04129221
226	0x3d438071	0.047729913
227	0xbe37791c	-0.17917293
228	0xbde7eb3a	-0.11324163
229	0xbe620841	-0.22073461
230	0x3e4c85fc	0.19972986
231	0xbc29af1a	-0.010356689
232	0xbe137ae6	-0.14402351
233	0xbe1cf938	-0.15329444
234	0x3e7a1607	0.24422465
235	0xbeb377af	-0.3505225
236	0xbdb723ba	-0.08942361
237	0x3de3544f	0.11100065
238	0x3eaa428b	0.33253893
239	0xbdf533b9	-0.11972756
240	0xbedf892a	-0.43659335
241	0x3dba050b	0.09082993
242	0xbe110bab	-0.14164607
243	0x3e2b2da4	0.1671663
244	0xbe051e22	-0.12999776
245	0xbe436b8e	-0.19083998
246	0xbe8068c3	-0.25079927
247	0x3d97883f	0.07399034
248	0xbf013131	-0.50465685
249	0xbe8aec8d	-0.271336
250	0xbc8d1d14	-0.01722578
251	0xbe89881a	-0.2686165
252	0xbe391e28	-0.1807791
253	0x3ea5dad6	0.3239352
254	0xbda26fc2	-0.07931472
255	0xbdd4c429	-0.10388977
