Assets/TFModels/Other models trained in the process/prova_curr_6M_BROT.onnx (onnx, 912236 bytes, 9 tensors)

action_model._discrete_distribution.branches.0.bias f4 [5]
000000 e5 c3 18 3d 8f 80 1f 3e b9 6f 30 be da f5 90 bd
       0.037296195 0.15576385 -0.17230119 -0.070781425
000010 f5 65 af 3c
       0.021410922

action_model._discrete_distribution.branches.0.weight f4 [5, 256]
000000 72 95 b2 bd fa e4 d1 bd 08 8f 1a bd 26 ed 16 3c
       -0.08719911 -0.10248752 -0.03773406 0.009211814
000010 0d 42 2e be c1 18 28 bd 34 48 19 be fc 4f 4c be
       -0.17017384 -0.041039232 -0.1496895 -0.19952387
000020 71 9d e4 3b 07 30 dc bd e6 c3 b4 bc ae 37 60 be
       0.0069767763 -0.10751348 -0.022066068 -0.2189624
000030 68 6a a1 3d ba 64 cf bd c5 59 de bd 36 c3 eb 3d
       0.078816235 -0.10126634 -0.10856966 0.11511843
000040 0b 7d 8e bc 2f 99 06 3e 3f 63 ab 3d 83 33 9e 3d
       -0.01739361 0.13144372 0.08368539 0.07724669
000050 10 3e 52 be 58 dc be bc 15 16 aa bd 1c ec 86 be
       -0.20531487 -0.023298427 -0.08304993 -0.26352012
000060 f6 55 3d 3e a9 d3 ee 3d bf 01 48 be a3 b1 af 3d
       0.18489823 0.11661465 -0.19531916 0.085788034
000070 12 37 8a be 96 40 c6 3d a0 a2 eb 3c 03 b3 e3 bc
       -0.2699514 0.096802875 0.02876407 -0.02779532
000080 a0 f7 4c bc ed 65 01 3e 6b 27 8f 3e fe 12 6c 3d
       -0.01251021 0.12636538 0.2795976 0.0576353
000090 9d d6 89 3e e3 de 9a bd 0d b9 ca bc cb d9 a7 3c
       0.2692155 -0.075620435 -0.024746442 0.020489594
0000a0 48 81 59 be f8 81 ba 3d 31 e0 8f 3d b7 d8 18 be
       -0.21240723 0.09106821 0.07025183 -0.1492642
0000b0 b3 61 e6 3c b4 37 41 3e fa aa 4f 3e 68 72 39 bd
       0.028122758 0.18868905 0.20280066 -0.045275122
0000c0 41 c7 99 bd 4d ef f4 bd b7 f3 0f bd 98 64 24 be
       -0.07508708 -0.119597055 -0.035144534 -0.16053998
0000d0 7b 75 84 bc 77 6a bf 3d d1 86 09 be cc 1b a3 3d
       -0.0161693 0.093464784 -0.13430335 0.07964286
0000e0 de 21 20 be 1e 43 49 be 68 f7 b3 3d 16 18 5b 3d
       -0.1563792 -0.1965451 0.08787423 0.053489767
0000f0 26 59 2a 3e e8 77 1c 3e df 9d 7a 3c a4 06 04 bd
       0.1663557 0.15280116 0.015296428 -0.032232895
000100 d2 d6 37 3d b2 b8 e3 bd 67 9e 89 be 11 03 12 3e
       0.044882603 -0.11119212 -0.26878664 0.14258982
000110 88 27 d9 3c a1 55 0a be df e6 89 bd 3e 3d 9e 3d
       0.026508108 -0.13509227 -0.06733488 0.07726525
000120 eb e1 5a 3d 32 69 68 bb 3d 04 9a be 01 f0 72 bd
       0.05343811 -0.0035463092 -0.3008136 -0.059310917
000130 a1 ce 4c bd cb c9 a5 3c d0 ca fd 3c 94 a5 f8 3d
       -0.050001744 0.020237824 0.030980498 0.121409565
000140 62 33 94 bd ba be c0 3c 87 b5 3e 3e ba b6 8e 3d
       -0.07236363 0.023528446 0.18623935 0.06968446
000150 e3 63 87 bd 48 aa a1 bd 65 68 9b 3b 0a 2b bb bd
       -0.06610849 -0.07893807 0.0047426694 -0.091390684
000160 6c 97 67 be 4c c2 a7 bd 8f f2 d2 3d 85 92 c1 bd
       -0.22616357 -0.08191356 0.10300171 -0.094517745
000170 b4 cb 20 be 43 b5 27 be 32 1a 64 bd 36 c1 f9 3d
       -0.15702707 -0.1637774 -0.055689044 0.12195055
000180 b4 32 30 3e 40 5d 38 3e e0 c8 0d 3e 38 db 9a bd
       0.17206842 0.18004322 0.13846159 -0.07561344
000190 2c 4a ab be 39 9a 91 be 95 c9 13 be 01 0a e1 3c
       -0.33455026 -0.28437975 -0.14432366 0.02747059
0001a0 63 5e 41 3d 5b 52 39 be a3 0f 8d bd 6f d6 84 be
       0.047209155 -0.18097822 -0.06887748 -0.2594485
0001b0 d7 cb 5a 3e 19 f7 a1 bc 9e 3b db bd 1d b1 89 3b
       0.21366821 -0.019771146 -0.107047305 0.0042020218
0001c0 6b 02 03 be 37 77 1b be b1 e9 37 3d 4f cd 79 3d
       -0.12793891 -0.15182196 0.0449006 0.060986813
0001d0 d9 a3 89 3d ee d4 00 be 81 2f 9d bd 95 1a 37 bd
       0.067207046 -0.12581226 -0.07675076 -0.044703085
0001e0 b0 ed 82 bd a0 b9 3b 3e 42 af f2 3d 6d 2e c3 bd
       -0.063929915 0.18332529 0.11849834 -0.095303394
0001f0 2c 0d 3b be ec fb 1f be 93 fd ad bd c6 52 78 3d
       -0.18266743 -0.15623444 -0.08495631 0.060625814
000200 02 43 3f be c7 37 45 3e 0c a4 00 3e 88 6f d6 bd
       -0.18677905 0.19259559 0.12562579 -0.10470492
000210 75 76 83 3e 3e c5 ec bd 6c 90 8b 3e 24 e0 85 3c
       0.25676313 -0.115610585 0.27258623 0.01634223
000220 ee 56 82 bd 54 16 7f 3d bf b0 32 bd 5d fe f0 3d
       -0.06364237 0.062277153 -0.04362559 0.11767266
000230 1a 05 71 3e 4d 14 0f 3d f4 c1 26 3e 33 7e 72 bc
       0.23537102 0.03493147 0.16284925 -0.014800596
000240 a9 18 4e 3e ac 58 b7 3c b9 ef ff 3d 8e 3c d8 3d
       0.20126595 0.02238115 0.12496895 0.10558425
000250 4e 91 1b be ed 35 46 bd cc 18 06 be 34 c0 16 3d
       -0.15192148 -0.04839127 -0.13095397 0.036804393
000260 2c de 7e 3d 91 38 ee 3d bc 1e cf 3d 88 73 08 3e
       0.0622236 0.11631883 0.10113284 0.13325322
000270 7d a8 06 3b f5 25 3a bd 92 92 4a bd e2 67 83 bd
       0.0020547204 -0.045446355 -0.049456187 -0.064162984
000280 35 84 ce 3d f3 96 20 be 37 36 35 be 19 7e 9f bd
       0.1008381 -0.15682583 -0.17696463 -0.07787723
000290 04 6d 9e bc 25 45 e9 3c 3b 38 90 bd 32 f1 27 3d
       -0.019339092 0.028475353 -0.07041975 0.041001506
0002a0 5a b9 00 be ad e8 64 bd 90 33 02 be c2 5f 64 bd
       -0.12570706 -0.05588596 -0.12714982 -0.055755384
0002b0 93 22 ae 3d 02 3b d7 3d 4b a5 02 be b7 28 51 be
       0.08502688 0.10509302 -0.12758367 -0.20425688
0002c0 54 d6 76 bd 2c 4b ef 3d 6f 6e c4 3d f4 5f 91 bd
       -0.060262993 0.1168426 0.09591376 -0.0709838
0002d0 e8 a9 3d be f4 c0 0d be c1 3f 16 be 4e b3 08 be
       -0.18521845 -0.13843137 -0.14672758 -0.1334965
0002e0 95 81 49 be 7d 72 39 bd bd 0d df be 06 bf 3d bc
       -0.19678338 -0.0452752 -0.4356517 -0.011581188
0002f0 78 95 41 3d 72 84 9c 3d 9c 1c b0 bc 48 a0 c7 bd
       0.047261685 0.076424494 -0.021498017 -0.09747368
000300 75 9a bf 3d 2a d3 b9 3d a7 5e dc bc 21 c5 a3 bd
       0.09355632 0.090734795 -0.026900603 -0.07996584
000310 58 2e 39 3e 6a 96 9f 3d e0 1e 3c be 4c 2e 83 bd
       0.18084085 0.07792361 -0.18371153 -0.06405315
000320 bf 59 4f bd de a6 a1 3d 9f 40 14 3e 0c 96 53 bd
       -0.050622698 0.078931555 0.14477776 -0.051656768
000330 5a 58 d5 bc 69 82 b2 3d c0 e8 47 bd 9d 3c 93 3d
       -0.026043106 0.0871628 -0.048805952 0.071892954
000340 98 56 b5 3d 4a 4a 9e bd 60 09 07 bd de 8a bf bd
       0.08854407 -0.07729013 -0.032967925 -0.09352659
000350 00 15 b4 3d 71 29 25 be 51 b1 27 be 52 63 21 be
       0.08793068 -0.1612909 -0.16376235 -0.15760544
000360 eb 8e 27 be ef 7a 52 be 71 f9 f5 3c fe 5d 1c bd
       -0.16363113 -0.20554708 0.03002617 -0.038175575
000370 29 60 57 be 61 65 8b bd 34 33 17 be fb e1 ba be
       -0.21032776 -0.06806446 -0.14765626 -0.36500534
000380 21 5c 86 3c e1 e1 6a be a9 a5 2f 3e d0 2f fe 3d
       0.016401352 -0.22937728 0.17153038 0.12411463
000390 1a 43 b0 3d 09 42 78 3c 4f 1a 83 3c ef 64 e0 bd
       0.086065486 0.015152463 0.016003756 -0.109567516
0003a0 c6 4a d5 3c 9e bc e4 bc ef 2e 83 3c 9d ee e8 3c
       0.026036631 -0.027921971 0.01601359 0.028434092
0003b0 5e f6 1a be b1 12 7f 3d b4 37 dd bd 35 bf 5f be
       -0.15133044 0.062273685 -0.1080164 -0.21850283
0003c0 33 f9 2d bc d0 c1 ff bd ce 3d ad 3d 54 a8 3f bd
       -0.010618496 -0.12488139 0.08459054 -0.04679139
0003d0 24 1c be 3d 46 b9 ae 3d 63 cb 92 bd a2 bf 8b bd
       0.09282711 0.08531432 -0.07167699 -0.068236604
0003e0 25 9d 4e 3e 7d f1 1f be 6c 2a ed 3d e0 f0 9b be
       0.20177133 -0.15619464 0.11580357 -0.3045721
0003f0 81 cf b2 3c 68 5a 5e be 58 e5 40 bd 42 56 41 bd
       0.021827461 -0.21714175 -0.04709372 -0.047201402

action_model._discrete_distribution.branches.1.bias f4 [3]
000000 31 cd 45 3d a4 a6 90 bd a3 f8 cd 3c
       0.04829139 -0.07063034 0.025142973

action_model._discrete_distribution.branches.1.weight f4 [3, 256]
000000 6c 1c 41 bd e5 07 c1 bd ab fe f1 3b 39 c7 44 bd
       -0.047146246 -0.09425334 0.007385095 -0.048041556
000010 4a c5 81 bd 42 f9 9f bc 1f 96 44 bd 67 02 59 be
       -0.06336458 -0.019528035 -0.04799473 -0.21192323
000020 9a d4 d1 bd 51 f1 55 bd ae f3 64 bd 1e b6 e6 3c
       -0.10245629 -0.05223209 -0.055896454 0.028163012
000030 94 2c 10 be 0b 6c 70 3b 23 29 af 3c b1 bb 55 be
       -0.14079505 0.0036685492 0.02138192 -0.2087238
000040 cf 12 a8 3d 52 ec 07 3e 50 55 89 3e 0b 2e ff bb
       0.082067125 0.13273743 0.268229 -0.007787471
000050 0f 18 9e bc ff 41 65 3d e8 a7 da bd 74 1e fd 3d
       -0.019298581 0.055971142 -0.10676557 0.12359324
000060 c3 f2 e6 3c 16 27 aa bc 7e 2f 20 3e 86 88 12 be
       0.02819193 -0.02077059 0.15643117 -0.14309892
000070 b2 36 66 3d 05 cf 05 be 09 d8 48 3e 54 a4 30 3e
       0.056204505 -0.13067253 0.19613661 0.17250186
000080 3d ca 43 3c 2b bd fb bd 8d a9 d4 bd d9 e5 36 bb
       0.011950073 -0.1229194 -0.10383902 -0.0027907996
000090 2e a7 0b 3e 44 17 6f bd b8 1f 91 bd 53 ed 34 3d
       0.13637993 -0.058371797 -0.07086128 0.044171643
0000a0 d0 3b 0d bc b8 b2 19 3e e7 d3 60 3d d5 1d 16 3c
       -0.008620217 0.15009582 0.054889586 0.009162386
0000b0 1b cd 75 bd 06 8b 33 bd 5a da 86 3d 75 48 c9 bb
       -0.060010057 -0.043833755 0.06584616 -0.0061426708
0000c0 a0 80 b2 3d fb be 3a 3e 92 1d 06 be 11 6c c9 3d
       0.087159395 0.18236916 -0.13097218 0.09835065
0000d0 35 c9 e0 3d dd 08 c2 3d 10 f1 83 3e cf 4c ae 3d
       0.10975877 0.09474347 0.25769854 0.08510744
0000e0 99 db 7e 3d 6a 5a 1a 3e 50 3e 8a 3d 54 1e 0d bd
       0.062221143 0.15073553 0.067501664 -0.03445275
0000f0 51 43 90 3d 4b b9 94 3d 4e bd a2 bc ef d7 0c 3e
       0.070440896 0.07261904 -0.019865658 0.13754247
000100 24 4c 7b be 53 3f e8 3d 95 b6 cf 3c d9 b3 1f bd
       -0.24540764 0.11340203 0.025355617 -0.038989875
000110 06 82 9c 3d 35 9c ed 3d 14 9f 20 3b a4 75 94 be
       0.076419875 0.1160206 0.002450888 -0.28996003
000120 4e bc b4 3d e7 ec 89 3e 1e 47 4d 3e 5f a1 80 3c
       0.08824979 0.26938555 0.2004666 0.015701948
000130 a8 4b b2 3d 11 cd e3 3d 30 ff ba bd 9f 16 00 3e
       0.087058365 0.11123098 -0.091307044 0.1250863
000140 7a bc 1d 3e fb 78 2c 3e 7d 9f 6b be 2e 38 49 3d
       0.1540393 0.16843025 -0.23010059 0.049125843
000150 f2 a7 30 3d e3 71 c1 3d ba df 4f 3d 0d 88 1e 3e
       0.043128915 0.0944555 0.05075047 0.15481587
000160 0a da 82 3e a5 fc dc bc 73 82 ac bc f6 bb 42 3d
       0.25556976 -0.026975939 -0.021058297 0.047542535
000170 90 a8 87 bc 3d 13 05 bd 09 9d 77 bd 84 96 29 3e
       -0.016559869 -0.03248905 -0.060452495 0.16561323
000180 f6 7c 00 3d 13 dd 4e 3e 45 76 d3 bd 5f 77 d0 bd
       0.031369172 0.2020152 -0.103252925 -0.10179018
000190 ad 91 81 bd cc b7 63 3e c1 e4 a7 3d db b6 76 3d
       -0.063266136 0.22238082 0.08197928 0.06023298
0001a0 7f e3 21 3e 65 d8 c3 bc 0b cc 15 3e d6 ff 2e bd
       0.15809439 -0.023906896 0.14628617 -0.042724453
0001b0 b4 4e 00 3e f5 63 1c be 20 2c 85 3d d9 ae a5 bd
       0.12530023 -0.15272506 0.06502557 -0.0808999
0001c0 ef 30 9f 3e 69 00 05 3d 7b 50 86 bc 0b 08 a2 bd
       0.3109202 0.032471094 -0.016395798 -0.0791169
0001d0 a6 87 ec 3d 13 2f 71 3d ce c3 26 be a2 ed 86 3d
       0.115493104 0.058882784 -0.16285631 0.065882936
0001e0 72 3e 7e 3d c8 a4 81 bd cc fd 3d 3d 9b ac 25 3e
       0.06207127 -0.06330258 0.046384618 0.16179125
0001f0 ee ea 54 bd de e8 c9 bd d5 13 13 be 2e 91 55 bd
       -0.05198186 -0.09858869 -0.14363034 -0.052140407
000200 2f 92 a9 be 91 a3 80 3d dc 6c aa be d1 5d 92 3d
       -0.33119342 0.06281198 -0.33286178 0.071468
000210 59 15 f1 3d 83 14 0c 3e 1f 00 fa 3c 07 57 87 bd
       0.1177165 0.136797 0.030517636 -0.06608396
000220 ab 95 aa 3e d7 fa 72 3d c7 6b a0 3d 80 86 bb 3d
       0.33317313 0.05932125 0.07833057 0.09156513
000230 dc 2b 0c 3e 2e 8e 4b bd e9 ae 6c bd 50 2f bf bb
       0.13688606 -0.04969614 -0.057783995 -0.0058344975
000240 fd eb a7 3d 98 bd af 3c d8 7e 5c bd 8c c1 d9 3c
       0.08199308 0.02145271 -0.053831905 0.026581548
000250 71 e8 46 3d e8 0b 35 bc f6 6d 72 bb 74 c0 0e 3d
       0.048561517 -0.011050202 -0.0036991811 0.034851506
000260 c2 b0 83 3d c5 7d 73 3d fa 44 3a 3e ea eb a4 bd
       0.06430198 0.059446115 0.18190375 -0.080528095
000270 41 8f 64 bd 30 b0 54 bd 4f fa 2d 3e 23 83 b3 bc
       -0.05580068 -0.051925838 0.16990016 -0.021913117
000280 77 f9 36 bc 8f 26 7c be c9 5a 38 bd 45 36 c8 3d
       -0.0111678755 -0.24624084 -0.045008454 0.09775976
000290 dc 8e 82 be 4b 6f 0f 3e 38 34 f6 3d 33 2d a4 3e
       -0.25499618 0.14007299 0.12021679 0.32065734
0002a0 3c 8b 24 3e 1b c6 c8 3d 50 c4 f8 bd ba 20 cf 3d
       0.16068739 0.098034106 -0.12146819 0.10113664
0002b0 db 45 10 3e 80 cc 46 3e 59 4d 91 bd 4e 05 c1 bd
       0.14089148 0.19413948 -0.07094831 -0.0942484
0002c0 1f 4a b3 3c 61 4b 0d be f7 77 33 3d 07 e9 85 3d
       0.02188593 -0.13798286 0.04381558 0.06538587
0002d0 95 15 9f bd 8d 2d f8 bc ab 86 d7 bd 17 18 2a 3e
       -0.07767788 -0.030295158 -0.10523733 0.16610752
0002e0 e1 43 1b 3e 9b 29 16 3e e2 4e 44 bd aa 56 30 3a
       0.15162612 0.14664309 -0.04792679 0.0006726781
0002f0 ed 17 0b 3e 9e 0f 69 3e 9e d9 5e 3e d5 2f 0a 3e
       0.13583346 0.22759864 0.21762702 0.13494809
000300 26 69 71 bb c5 5e 55 3e b0 37 e5 3d 20 25 64 3d
       -0.0036836355 0.20836933 0.11192262 0.055699468
000310 55 39 24 bc 60 14 c7 3c f3 b9 45 3d 3b 57 f5 bd
       -0.010023435 0.024301708 0.048273038 -0.119795285
000320 65 33 00 3e ae 46 65 be 6e bb 56 3d b5 f7 13 bc
       0.12519605 -0.22390243 0.05242484 -0.009031226
000330 73 93 07 be 7a d2 fa bd 73 be 9d 3e 44 de b7 bd
       -0.13239841 -0.122471765 0.30809364 -0.08977941
000340 41 31 16 3e 49 a6 21 be 1c ad 3d 3d 99 b6 1a 3e
       0.14667226 -0.15786089 0.046307668 0.15108718
000350 91 6f 28 3c 94 57 42 3d 7b 46 3b 3e 31 a3 0c 3e
       0.010280506 0.047446802 0.18288605 0.13734128
000360 c0 10 8c bd 31 6f f8 bd a6 8e a7 3e d5 85 6b bd
       -0.06839132 -0.12130583 0.3272602 -0.05750068
000370 8f 72 2b 3d 2e bb 22 3e 35 af 8b bb c3 5a f4 3b
       0.0418573 0.15891716 -0.0042628297 0.0074571087
000380 79 3f 18 3e aa bf 3d 3e b4 4a 66 3e a4 34 f9 3b
       0.14867963 0.18530145 0.22489434 0.007605152
000390 51 d3 c6 bd a0 1d 97 3d 59 43 c6 3d e1 18 b2 3d
       -0.09708274 0.073786974 0.09680814 0.086961515
0003a0 59 16 4e 3d bd 2a 24 3d 31 0f e8 3d 85 08 69 3e
       0.05031428 0.04007982 0.113310225 0.22757156
0003b0 92 e6 b5 bd 2a a7 af bd 87 1a 70 bc 28 8c 09 bd
       -0.088818684 -0.08576806 -0.014654762 -0.03358093
0003c0 ca 26 99 bd f4 31 17 3e 28 e4 94 3e 9f ae 27 3e
       -0.074781016 0.1476515 0.2908032 0.16375206
0003d0 5b 49 8d 3d 3e a9 2a bd d0 f1 53 3d 21 1a af bd
       0.06898757 -0.04166531 0.051744282 -0.085499056
0003e0 30 60 1d 3d 2f 0d a2 ba 2e aa 82 3d 82 7f 10 be
       0.03842181 -0.0012363548 0.063801154 -0.1411114
0003f0 d4 0f c0 bd e5 6c e9 bd 57 44 74 bd 6b 32 3a 3e
       -0.09378019 -0.11397723 -0.059635486 0.18183295

discrete_action_output_shape f4 [1, 2]
000000 00 00 a0 40 00 00 40 40
       5.0 3.0

network_body._body_endoder.seq_layers.0.bias f4 [256]
000000 f8 81 2d be 65 e4 c8 3c 97 1c f6 bd 64 03 89 3c
       -0.1694411 0.02452297 -0.12017172 0.01672525
000010 15 ca 10 bd cc a0 27 3c 89 6b 7a 3c ad a1 43 bc
       -0.03534897 0.010231208 0.015284427 -0.011940402
000020 ee f5 cc 3c eb 47 6e 3d 7f c8 02 bc b4 ef 95 bd
       0.025019612 0.058174055 -0.007982372 -0.0732111
000030 f2 14 a5 bd 32 04 fe bc 6f 2c 90 3d 5d b7 7d 3d
       -0.080606356 -0.03100786 0.07039725 0.061942447
000040 d2 62 e7 3c d1 9e 1c 3d 7a 12 52 bc 7d b8 8c 3c
       0.028245363 0.038237397 -0.012821788 0.017177815
000050 ae ab bc 3c 5c bd f2 bd 83 4a cb 3d dd 88 90 bd
       0.023031082 -0.11852524 0.09926321 -0.070573546
000060 66 0d 79 3d 6b ed 76 3d 33 2e d9 3c ba 79 b7 bd
       0.060803793 0.060285013 0.026511287 -0.089587644
000070 61 8b fb bd cd 1a 1f bc c2 41 4f bd fd d0 2f bd
       -0.12282444 -0.00971098 -0.05059982 -0.042923916
000080 b3 10 2f be 96 43 a8 bd b9 5c 65 bd 0d 0f 9d 3d
       -0.17096214 -0.08216016 -0.05599663 0.07668886
000090 5e b5 e7 bd f4 42 01 be 77 a7 02 be cf 12 61 3d
       -0.1131389 -0.12623197 -0.12759195 0.054949578
0000a0 4d 16 8b bc 8f 14 80 bc 8b cb 99 bd 46 22 f6 bd
       -0.016978407 -0.015634803 -0.07509526 -0.12018256
0000b0 5b c2 c2 bb 08 aa 1a be e4 8c f5 3a 06 e7 e2 bd
       -0.005943579 -0.15103924 0.0018734005 -0.110792205
0000c0 8a 4a 94 3d 32 83 ac bd e4 69 fe bd 0b bb 85 3c
       0.0724078 -0.08423461 -0.12422541 0.01632454
0000d0 c1 cd 0b 3d 69 4c 7d 3c 98 df a4 3d e6 73 ee bb
       0.03413177 0.015460112 0.080504596 -0.0072769998
0000e0 67 83 b0 bd d1 b6 4d 3c 41 f1 9b 3d 5d fc c9 bc
       -0.08618813 0.012555794 0.07614375 -0.024656469
0000f0 ef 92 26 be 04 e4 f3 bd e6 f7 84 bc 03 58 57 bb
       -0.16266988 -0.11908725 -0.016231488 -0.0032858856
000100 98 59 c1 3d ab ee 98 bd 62 01 42 bd bd 43 66 3c
       0.09440917 -0.07467397 -0.0473646 0.014054236
000110 2d 89 9d bd 65 01 6b bd e4 0b bf 3c 26 19 ed 3b
       -0.0769218 -0.057374377 0.0233211 0.007235664
000120 7c e5 e8 3d e8 3e 8b 3c 0a bb b7 3b 21 ad 05 3e
       0.11371896 0.01699777 0.0056070136 0.13054325
000130 7b 66 94 bd 46 57 20 bd fb dd 00 bc 62 16 5d bd
       -0.07246109 -0.03914573 -0.007865424 -0.053976424
000140 c9 84 13 be 4c 5a 7b 3d 65 99 a9 3d 8e a0 ac bc
       -0.14406122 0.06136541 0.08281211 -0.021072652
000150 b9 1c 4d 3b ce d5 21 3c 61 77 09 bd 44 97 7d 3d
       0.0031297638 0.009877635 -0.033561114 0.061911836
000160 bb 53 71 3d c9 a7 b8 3d 19 83 a2 bd 78 e8 7e 3d
       0.058917742 0.090163775 -0.07935161 0.06223342
000170 d3 27 9d bd 46 47 10 3e d7 f2 a7 3d 28 b7 60 be
       -0.076736115 0.14089689 0.08200615 -0.21944869
000180 95 a5 21 bd 34 7a 65 bd e2 1c 1a be b1 41 61 bd
       -0.039464552 -0.056024745 -0.1505008 -0.05499429
000190 12 88 d1 3b b0 5f b3 bc 08 b4 be bd 42 81 81 3d
       0.0063943947 -0.021896213 -0.09311682 0.06323482
0001a0 f0 ad 3f bd 20 99 dc 3c 0e 44 2d bc 6b 0a 35 3d
       -0.04679674 0.026928484 -0.0105753075 0.04419939
0001b0 85 d7 06 be 9b a2 89 3d 09 b7 be 3c 1e 3a ed bc
       -0.13168152 0.06720468 0.023280637 -0.028958376
0001c0 23 53 07 be 5d a1 b0 bd bc 8a 60 bd cb d8 d6 3b
       -0.13215308 -0.086245276 -0.054819807 0.0065566055
0001d0 d1 10 cd bd bb 3d fe bd bc 97 6e 3c 92 41 e7 bd
       -0.10012973 -0.12414118 0.0145625435 -0.112918034
0001e0 30 ea 95 3d d4 ae f5 3b cd 49 9f 3d 5d d4 7d bd
       0.07320058 0.007497648 0.07777748 -0.061970104
0001f0 5f 22 7d bc ed 13 a7 3d 82 c0 25 bd ef 7f d4 bd
       -0.015450089 0.081580974 -0.040466793 -0.10375964
000200 f5 38 eb bc 5b a0 db bb ad 17 19 3e 8d ff ad 3c
       -0.028713683 -0.0067024655 0.14950438 0.02124002
000210 86 fa 51 bd c6 1e 39 bc 27 eb 04 be e6 3e 7f be
       -0.05126431 -0.011298841 -0.12980329 -0.24926338
000220 04 f6 a8 bd 42 81 c8 3d 4b a9 07 3d 74 c4 00 3d
       -0.08250049 0.09790279 0.033120435 0.031437352
000230 8b 4d 16 bd 5b 3b 91 3d 96 ff a3 bd e1 0d 3e 3d
       -0.036695044 0.07091399 -0.080077335 0.046399955
000240 80 29 40 3d 89 15 b1 bc 99 20 82 3d 22 ee bd bd
       0.046914577 -0.021616714 0.06353874 -0.09273936
000250 e0 1b 43 3d 20 29 ae 3b 16 ad 3b 3c 37 e8 06 3c
       0.047634006 0.005314961 0.011454841 0.008234075
000260 9a af 1f be 96 05 ef 3d a8 a9 8b 3d 45 0f a5 bd
       -0.1559433 0.11670987 0.06819469 -0.08059553
000270 d2 05 ea 3b 23 1a 80 3c 63 78 2a 3d 47 7a 5f bd
       0.007141807 0.015637463 0.041618716 -0.054559972
000280 a5 79 26 be dc 2b cc bd f9 df 80 3d f4 97 07 be
       -0.16257341 -0.09969303 0.062927194 -0.1324156
000290 02 a7 1b be 74 a7 1c 3a 2d 46 99 bc 39 eb e6 bd
       -0.15200427 0.000597588 -0.01871022 -0.11275334
0002a0 2d 3b d9 bd 86 16 79 bc 03 41 76 bc 2d fd ac bd
       -0.1060699 -0.015203124 -0.015030148 -0.08446727
0002b0 b6 4e 89 bd 07 27 69 bb 2f 59 35 be c1 18 68 bd
       -0.06704466 -0.003557624 -0.17709802 -0.056664232
0002c0 47 f2 b2 3d fd f5 d9 bc 11 c7 12 bd e4 4b cb bd
       0.08737617 -0.026606554 -0.035834376 -0.09926584
0002d0 f1 03 c8 3b 8e 30 fe 3c 4e 02 fc 3d ba c4 1c bd
       0.0061039855 0.031029012 0.12305127 -0.03827355
0002e0 66 cf a5 bd 0b e5 91 bd 51 f0 d4 3b 58 bf fd bd
       -0.08096199 -0.071237646 0.0064983745 -0.123900115
0002f0 97 19 7f 3c c8 81 d0 ba 96 1c 6e bd b7 99 1a bd
       0.015570066 -0.0015907818 -0.05813273 -0.03774425
000300 88 2c 08 bc a7 3e 9f 3b 53 54 24 3d a3 70 96 3c
       -0.008311398 0.0048597637 0.04011948 0.018364256
000310 19 88 d7 3c 6d ab 41 bd fe 2c 70 3c d2 03 e2 bd
       0.026310014 -0.047282625 0.0146591645 -0.11035885
000320 ad 0b d4 bd 79 59 ae bc 41 61 04 be c0 f5 e5 3d
       -0.103537895 -0.021282898 -0.12927724 0.11228514
000330 33 8d 95 bd 09 f8 89 bb 8f a0 6b 3d 20 34 9a bd
       -0.07302322 -0.0042104763 0.057526167 -0.07529473
000340 7f 72 87 3d df 81 62 bd 24 64 25 bd 4d 9a 2a bd
       0.06613635 -0.055299636 -0.040378705 -0.04165106
000350 b4 3e 95 bd 15 e1 fc bd 08 d8 72 bd b4 37 8b 3d
       -0.0728735 -0.123476185 -0.059288055 0.06797734
000360 f3 2b f8 bd 57 16 a3 bb 17 74 2b bd 74 97 5f bd
       -0.12117758 -0.0049770284 -0.04185876 -0.054587796
000370 8f 2c df 3c 24 f2 7a 3d db a1 75 3a 70 24 1b 3e
       0.027242927 0.06126608 0.00093701266 0.15150619
000380 e7 0e a7 3c 21 19 ed 3d 26 ab 22 3d 3c 41 95 3c
       0.020392848 0.115770586 0.039714 0.018219583
000390 77 17 7e 3c 5b 87 94 bd 95 22 35 bd ae e1 33 bd
       0.015508524 -0.072523795 -0.044222433 -0.043916397
0003a0 e7 ef 40 bd 75 29 69 3c e5 54 49 bd e3 9f 05 be
       -0.04710379 0.0142310755 -0.049153227 -0.13049273
0003b0 5f 77 a8 bd 41 5d 69 bd 40 8d c9 3c 46 6c df 3d
       -0.08225893 -0.0569737 0.024603486 0.109093234
0003c0 55 92 e0 bd 3d 95 b4 3d 63 14 3f bd fd 86 86 bd
       -0.109654106 0.088175274 -0.0466503 -0.06568716
0003d0 74 bb 26 bd 0b b4 9a 3d b4 bc a3 3c 7b 6a 03 bd
       -0.040706113 0.07553872 0.019987442 -0.03208397
0003e0 60 a1 e3 bc 8f b5 cc bc de 2d 11 3d 1b 1e e9 bc
       -0.02778691 -0.024988918 0.035444133 -0.028456738
0003f0 fc 47 72 3d df db 74 bd cb bc 8e bd 91 e3 56 3c
       0.05915068 -0.059779998 -0.06969603 0.0131157795

network_body._body_endoder.seq_layers.0.weight f4 [256, 622]
000000 bc 5d 95 bd f4 05 c9 3e 40 02 9d bd d4 81 92 bc
       -0.07293269 0.39262354 -0.07666445 -0.017884172
000010 05 56 25 bd 92 48 f9 3d 43 14 22 3e 40 3f 11 bd
       -0.040365238 0.12172045 0.15828042 -0.03546071
000020 7b 3c 87 bd f8 11 2b be b1 07 ed 3c b9 2b ed 3c
       -0.066033326 -0.16706073 0.028934332 0.028951513
000030 91 23 00 be ff 0d cd 3e 2a e2 09 3e 95 fc 28 be
       -0.12513568 0.4004974 0.13465181 -0.16502602
000040 5c ec c3 bd 23 8e 3d bc 80 ca 47 3e 58 87 34 be
       -0.09566566 -0.011569533 0.19510841 -0.17629755
000050 cf 3a 05 be 8b 6d 0e 3d 70 d8 c2 bd 46 65 71 3e
       -0.13010715 0.034772437 -0.095139384 0.23573789
000060 62 4a 2c be ad 6d 2b ba f2 9f e5 3d 54 d4 0b bd
       -0.1682525 -0.0006539475 0.11212148 -0.03413804
000070 c4 ae 76 3e 7a 15 fd bd 0d b7 1a 3e ed 07 71 3d
       0.24090105 -0.12357612 0.15108891 0.05884545
000080 be 1e 3c 39 51 d5 5a 3e dc 20 1e bd c9 e5 1f bd
       0.0001794053 0.21370436 -0.038605556 -0.0390375
000090 00 ee 81 be f2 7e a0 3e d4 ca 10 bd 2e 61 6c 3c
       -0.25376892 0.31346852 -0.035349682 0.014427466
0000a0 81 9b d5 3e 7f c8 de bd 4d 3d 1d be af 78 98 bd
       0.41720203 -0.10878085 -0.15355416 -0.074448936
0000b0 48 e9 19 be a1 ac 6a 3e 87 59 c7 3d ca ed a2 bd
       -0.15030396 0.22917415 0.09733873 -0.07955511
0000c0 56 48 b6 3d 57 e8 94 3d fe 69 c8 bd 04 16 49 be
       0.08900516 0.07270878 -0.097858414 -0.19637305
0000d0 2f 1b 36 bd bd a4 56 3d eb ee 33 3e cd 39 40 3c
       -0.044459518 0.0524032 0.17571609 0.011732531
0000e0 fc 3f 38 3e fe f6 0c bd 90 ff f0 3a 73 74 63 3e
       0.17993158 -0.034415238 0.001838671 0.2221239
0000f0 2a 25 87 be 78 43 d4 bd 54 6b be bd c7 71 b2 bd
       -0.2639554 -0.10364431 -0.09297815 -0.087131076
000100 f3 39 0d 3e c6 2b 7d be 22 6b a6 bd de 93 6e 3e
       0.13791637 -0.2472373 -0.08125903 0.23298594
000110 44 ed c7 3d a5 54 80 bb 8d eb bf 3c 49 8e 40 be
       0.09762052 -0.0039163404 0.023427749 -0.18804277
000120 5d 1b 3f be 0d bc cc 3d 7e 73 13 bb d1 91 e0 3c
       -0.18662782 0.09996805 -0.0022499259 0.02741328
000130 23 98 b3 3d 11 f4 bb 3d b8 6a 8d 3d 37 8b 87 bd
       0.08769252 0.09177411 0.069051206 -0.0661835
000140 66 d3 9c ba a1 31 3d 3b ac d6 9b 3c 05 05 92 be
       -0.0011964857 0.0028868692 0.019023262 -0.28519455
000150 64 eb c0 3d 24 5a 91 3d f6 48 ae bd d3 2f c9 bc
       0.09419897 0.07097271 -0.0851001 -0.024558937
000160 c9 d9 3d 3d af 3b b7 3c a1 d7 4a 3e 07 ea fe bd
       0.046350274 0.022367327 0.19808818 -0.12446981
000170 4b 00 24 be 87 49 ed bb 80 a7 46 3e ff 43 82 3d
       -0.16015737 -0.007241431 0.19399834 0.063606255
000180 ee 5f 3d be b2 4c a4 3d fc 36 df 3d 3d 40 b3 bd
       -0.18493626 0.08022441 0.10899159 -0.08752487
000190 8d cb 21 3c be 2e bc bd 3f 9b 94 bd 96 bb 5e 3d
       0.00987519 -0.09188603 -0.07256173 0.054378115
0001a0 d0 9b 3a 3e 02 f8 2f be 36 d2 a7 3d d2 33 d1 3d
       0.182235 -0.17184451 0.081943914 0.10214962
0001b0 b3 60 22 3c a6 e9 0e bc c4 da a6 bd f0 88 a1 bc
       0.00991075 -0.008722698 -0.08147195 -0.019718617
0001c0 41 f3 7f 3e 1c c2 5f bd cd 91 74 be ca 1c 6d 3d
       0.24995138 -0.054628477 -0.23883744 0.057888784
0001d0 9e 21 9d 3d 10 ec 28 3c d7 bf be be f0 1b aa 3d
       0.076724276 0.010310188 -0.37255737 0.0830611
0001e0 7f f4 16 bc 38 e5 fe 3b 95 b8 41 3c 62 8e c9 bd
       -0.009213566 0.00777879 0.011823793 -0.098416105
0001f0 ee a6 1e 3d 5b a2 59 3d 3b f0 97 3d bd a1 ae bd
       0.038733415 0.05313335 0.07418867 -0.08526943
000200 23 33 80 bd da 4a 83 bd 4e cb 2c bc c4 d5 65 3e
       -0.062597536 -0.06410761 -0.0105465185 0.22444826
000210 a8 3e 4f be d3 8b 85 3d 81 c3 60 3d 0e a2 47 3d
       -0.20238745 0.0652081 0.054873947 0.04873853
000220 4b 8a c1 bb cd 53 d9 bd 55 12 c3 3d 56 47 09 3d
       -0.0059063784 -0.10611687 0.09524981 0.033515297
000230 23 48 08 3e 9d 95 ba bd ce ae 14 3e 42 19 3e 3d
       0.13308768 -0.09110568 0.14519808 0.046410806
000240 68 84 3d 3d 5c 3a f5 3c 3e 30 7e be 4a 27 81 be
       0.04626885 0.029935054 -0.2482309 -0.25225288
000250 dc 29 46 3b 77 59 fc bc 33 42 07 be 62 ea 06 3e
       0.0030237352 -0.030804379 -0.13208847 0.13175347
000260 6d b6 12 3d ed 47 9a 3d f6 2a 11 3e d2 e1 8e 3d
       0.035818506 0.0753325 0.14176545 0.069766656
000270 a8 76 c8 bc 43 04 3f bc 5c 54 a2 bd 5e a3 cf bc
       -0.024470642 -0.011658731 -0.079262465 -0.025346454
000280 ba 52 74 3d d9 a2 54 3c 83 28 5e 3d 43 72 12 be
       0.059649207 0.012978279 0.054237854 -0.143014
000290 23 f7 95 be 0c f2 26 bd 79 1a f9 3d c8 8b 0b be
       -0.29290113 -0.040758178 0.121632524 -0.13627541
0002a0 5e 8f 8b be c4 8e 10 3d dd 92 a3 3d 39 63 9c bd
       -0.27257818 0.035292402 0.07986996 -0.07636113
0002b0 9d 5b c2 be 22 cf ec bd 6d e9 96 be 08 89 b5 3d
       -0.3796052 -0.11562945 -0.29474965 0.08864027
0002c0 54 87 ca 3c ec c1 93 3e fd 2b 69 3d 1f cc 95 bc
       0.024722733 0.28858888 0.056926716 -0.01828581
0002d0 8a b3 7d bd 03 3f 2f 3e ce f1 d2 bd 89 46 ef bc
       -0.0619388 0.17113881 -0.10300027 -0.029208438
0002e0 09 b9 31 3e ba 2e a2 bd c6 b0 36 bd 26 38 8a ba
       0.17355742 -0.07919069 -0.044602178 -0.0010545298
0002f0 bb 45 92 3d 77 f9 7f be 24 76 4f be fc 25 b6 be
       0.07142206 -0.24997507 -0.20259911 -0.35575855
000300 9a c6 a4 bd cd ad 56 3e 9b 33 82 be cb 1b 47 be
       -0.08045693 0.20964737 -0.25429997 -0.19444196
000310 11 17 87 3d c7 3a c9 3d ea f0 88 3e bc 26 8d be
       0.065961964 0.09825664 0.26746303 -0.27568614
000320 b7 46 1a bd 7c c1 a6 3c d3 80 17 3e 66 5c a2 bd
       -0.037665095 0.020355932 0.14795236 -0.0792778
000330 ea 0d 33 bd e3 e7 d2 bc 12 cc a8 bc 9c e1 98 bd
       -0.04371444 -0.025745338 -0.02060512 -0.074649066
000340 b8 dd 1c bd f2 1c 32 3d 60 26 ae bd 45 2c 8e 3d
       -0.038297385 0.043484636 -0.08503413 0.069420375
000350 5f e2 62 3e 42 eb 45 be 4e aa ae bb 62 07 1d 3b
       0.22156666 -0.19328025 -0.0053303605 0.00239607
000360 31 2a 20 be 3b f7 f8 bb fc 8d ec 3d a0 0b a1 3d
       -0.15641095 -0.0075978315 0.11550519 0.078635454
000370 21 63 8c bc 6e 3a d3 bd cc 97 df 3d 68 a5 47 3d
       -0.017137112 -0.10313879 0.10917625 0.048741728
000380 02 bf 9e bc 09 06 1f 3e 5e 1d c3 bc bb 27 5c 3d
       -0.019378189 0.15529646 -0.023817714 0.053748827
000390 b9 36 df 3c 47 6c 92 3e 25 55 3a be e3 bf 5c be
       0.027247773 0.28598234 -0.18196543 -0.21557574
0003a0 42 ad cd bd 69 06 a7 3c 05 03 5c bd d5 b6 1b 3d
       -0.10042812 0.020388799 -0.053713817 0.03801616
0003b0 f4 a8 8e 3c 47 bc df 3d 59 85 16 be c7 d0 2c 3e
       0.017414548 0.10924583 -0.14699306 0.16876517
0003c0 74 6a ef bd fd a9 ad bd 5a 3a a6 3c ac 6f 67 bc
       -0.11690226 -0.08479688 0.020291496 -0.014125746
0003d0 80 d9 8e 3e 74 4b 4e 3c 79 48 3e 3d da b7 17 3e
       0.27900314 0.012591232 0.046455834 0.14816228
0003e0 7b 68 a4 3d 0d 83 85 bd ba 81 76 bc aa 7c 94 3d
       0.080277406 -0.065191366 -0.015045578 0.0725034
0003f0 ce 3d d2 3d 5b b3 6d 3e 63 71 45 3d 75 84 16 bd
       0.102656946 0.2321295 0.048203837 -0.036747415

network_body._body_endoder.seq_layers.2.bias f4 [256]
000000 2d 53 87 bd 06 05 64 be cc 2f 1c be bc 9c 1e bd
       -0.066076614 -0.22267541 -0.15252608 -0.038723692
000010 55 84 3d bd 9a ed 45 be 63 78 06 3d 6d 70 ff bd
       -0.04626878 -0.19328919 0.032829653 -0.124726154
000020 b5 5d 3f be c8 af a8 be 9c 82 1e 3c b1 92 24 bd
       -0.1868809 -0.3294661 0.009674694 -0.04017896
000030 24 61 01 be 9c 56 bc bd 80 be 40 bd eb b3 60 be
       -0.12634712 -0.09196207 -0.047056675 -0.21943633
000040 58 ed b3 bd ac 1c 5f 3c 5c 8f 50 bd 9b 13 2a be
       -0.08785504 0.013617676 -0.05091797 -0.16609041
000050 5a 6e 59 be 5a ef 3f 3d 93 84 6e be 05 0b 98 3b
       -0.21233502 0.046859123 -0.2329276 0.0046399855
000060 5e e8 8e bc 3f fa c7 bd eb ca 3b 3b 3e 7c 15 bc
       -0.017444786 -0.097645275 0.0028654884 -0.00912386
000070 32 cc 39 be de ba af 3b 1d a0 1c bd 4f 74 5d bc
       -0.181443 0.0053628525 -0.038238633 -0.0135165
000080 0b ad 5c 3c 3d 40 9c bd 20 08 51 bd 72 ab c3 bd
       0.013468991 -0.0762944 -0.05103314 -0.09554185
000090 ca e9 e6 3c 3c 03 d6 3c a0 e5 bf be 1d 0c 19 be
       0.028187651 0.02612459 -0.37479877 -0.14946027
0000a0 bc 93 d9 bd 50 64 c6 bd ff 66 1d be 5a 50 1e 3c
       -0.10623881 -0.09687102 -0.15371321 0.009662712
0000b0 b8 0b 62 bc f7 37 55 bd 7b c1 9b bd aa ab 39 be
       -0.013796739 -0.052055325 -0.07605263 -0.18131891
0000c0 db 94 3b bd 45 e8 f7 bd 47 85 8e bd 4c d0 f9 bd
       -0.045796257 -0.12104849 -0.069590144 -0.121979326
0000d0 d6 a3 58 bd e5 c1 ac bc 90 1a 1a bd e4 70 e9 bd
       -0.05289062 -0.02108855 -0.03762299 -0.11398485
0000e0 85 d9 b8 bd ca fe f0 bd 7a 15 36 bb d0 7e 95 bd
       -0.090258636 -0.11767347 -0.0027783797 -0.07299578
0000f0 5c e3 ad bc 5d b4 19 bd be 50 89 bd 9a 3e cc bd
       -0.021226577 -0.037525523 -0.067048535 -0.09972878
000100 c4 2c 3e be b5 0c 13 be 3e ff f0 bd ad 65 18 bd
       -0.18571764 -0.14360316 -0.117674336 -0.03720634
000110 34 44 b9 bb f9 40 35 bd 92 be 7b bc fc 4b 78 be
       -0.0056538824 -0.044251416 -0.01536526 -0.24247736
000120 95 3f 8b bd 71 62 82 bd 7c 4b ea 3c 93 33 51 be
       -0.06799237 -0.063664325 0.028600447 -0.2042983
000130 e3 55 9a bd 73 5d 0c be 6a 96 2b bd 53 c9 16 bc
       -0.07535913 -0.13707523 -0.041891493 -0.009203273
000140 6e 66 c4 bb bc 40 0a 3d 80 86 41 bd cb a2 bb bd
       -0.005993656 0.03375314 -0.04724741 -0.0916191
000150 e9 56 5f be 68 0d bc bd 10 1d bd bd c3 6a 9d 3d
       -0.21810497 -0.091822445 -0.09234059 0.07686379
000160 e0 eb dc bc 0e 27 9f bd 64 82 3c be 63 fa a0 bd
       -0.026967943 -0.07771121 -0.18409115 -0.078602575
000170 aa cb 34 be 34 c0 8e bd 16 75 02 be 20 84 04 3e
       -0.17655817 -0.069702536 -0.12739977 0.12941027
000180 9e 00 bc bd d1 39 82 3c 8f 46 4e bc cb 01 ab be
       -0.09179805 0.01589671 -0.012590065 -0.33399805
000190 d3 56 8e bc 7b ce 2a bd 8c b5 e1 bd 66 2d 24 be
       -0.017375385 -0.04170082 -0.110209554 -0.16032943
0001a0 17 d2 91 bd 94 3d 29 bd 1b 53 8a bd e9 7e 6d be
       -0.071201496 -0.04131849 -0.06754132 -0.23192944
0001b0 a8 02 f5 3c c8 ad 92 be 3a 9c 87 bd d7 b9 6e be
       0.029908493 -0.2864821 -0.06621595 -0.2331308
0001c0 cf 83 45 bb 5e 50 d1 bd 81 8b a6 3c d0 13 1d be
       -0.0030138378 -0.10220407 0.020330193 -0.15339589
0001d0 dc 57 a6 bd 44 aa 8e bd 38 cf 02 be 9c ec 81 bc
       -0.081222266 -0.06966069 -0.1277436 -0.015859894
0001e0 b9 d4 36 3d 6f c2 a8 bd 5c 3d 9b bd a0 06 b6 bc
       0.044636462 -0.0824021 -0.07580063 -0.022219956
0001f0 b2 e7 91 bd a0 45 50 3c f3 8b ef bd 88 fd cc bd
       -0.071242705 0.012711912 -0.11696615 -0.10009295
000200 bb 0f 12 be c7 da 35 bd eb a1 75 be ae bb df bd
       -0.14263813 -0.044398095 -0.23987548 -0.10924469
000210 35 12 6a bd 75 65 cc 3d aa 08 0a 3c 84 9b 1d be
       -0.05714627 0.09980289 0.008424917 -0.15391356
000220 c8 93 be 3d a0 23 a8 bd 8c 74 34 be 76 0b 3a bd
       0.09305531 -0.0820992 -0.17622584 -0.045421086
000230 49 ae a9 3a 99 e9 06 3c 11 77 b0 bd c3 9a 6b bd
       0.0012945618 0.008234405 -0.0861646 -0.05752064
000240 68 42 1e bd 6f 57 0d 3c 67 64 61 bd d2 a8 d7 3c
       -0.03863755 0.008626803 -0.05502739 0.026325617
000250 6f 4f 63 3c 9a 0a 17 3c 35 95 6e be 06 40 05 bd
       0.013873919 0.009218836 -0.23299105 -0.03253176
000260 04 d6 22 3d 5c cc 0a bc 96 86 ea 3c 2d c0 9e 3c
       0.039754882 -0.008471575 0.028628629 0.019378746
000270 07 ef 70 bd b4 2f 9b bc a4 12 51 3d cc 72 93 bc
       -0.058821704 -0.018943645 0.051043168 -0.017999075
000280 18 eb 57 bd 6d 5e 57 be 2f 68 7a 3d 6c b7 ff bc
       -0.052714437 -0.21032114 0.061134513 -0.031215392
000290 a4 da 89 bd 77 65 41 bc 3b b0 43 bd 8e b6 62 bb
       -0.067311555 -0.011803976 -0.04777549 -0.0034593674
0002a0 16 a5 d7 3c e5 b8 0d bd 19 b5 0d bd 4f 10 ad bd
       0.026323836 -0.034600157 -0.034596536 -0.08450376
0002b0 12 6d 83 3d ee c3 fb 3b 83 18 a3 3b d7 44 78 be
       0.06417288 0.0076832687 0.0049772873 -0.2424501
0002c0 d3 09 03 bc 06 11 96 be 2e c1 2e 3c 06 e9 16 be
       -0.007997948 -0.29309863 0.010666175 -0.14737329
0002d0 25 bf 06 be 8f dd b6 bd 0b 2c 4e be 8b 3e 08 be
       -0.13158853 -0.08928978 -0.20133989 -0.13305108
0002e0 c6 8f 8f bc 2b 2e ac bc 90 25 b9 ba 35 e2 8d bd
       -0.017524611 -0.021018108 -0.0014125574 -0.06927911
0002f0 6e 27 51 bd 2b 41 7d bd e1 9f 1d bd ec a6 bb 3c
       -0.051062994 -0.061829727 -0.03848255 0.022906743
000300 dd cb a5 bd 14 9b 49 3d c6 11 35 3c a8 b1 3d 3c
       -0.080955245 0.04922016 0.011051601 0.011578001
000310 aa d5 f6 bd ab 68 ad bc fe 8f d5 bd c4 a4 7f be
       -0.12052472 -0.021168074 -0.10427855 -0.24965197
000320 01 f3 dc 3c 17 5b 5d bd fb bc b5 bd 47 7b 10 be
       0.026971342 -0.05404195 -0.08873936 -0.14109527
000330 0a a1 85 be 05 ef 2d be e2 c4 d5 3c eb 1a b6 bd
       -0.26099426 -0.1698571 0.026094858 -0.08891853
000340 48 a9 7f 3b bf 36 15 be 3c b1 18 bd 20 16 44 3c
       0.0039010812 -0.14571665 -0.0372784 0.011968166
000350 4e 91 36 bd 20 76 59 bd 75 16 53 3d 60 59 5c bc
       -0.044572167 -0.05309117 0.05153509 -0.013449043
000360 58 03 65 be 91 6d e2 3d 9a 7f b9 bc ba 01 8b bd
       -0.22364557 0.110560544 -0.022643853 -0.06787439
000370 31 fd 5c bd 04 a3 57 bd c0 cd a1 bd 82 8f 30 bd
       -0.0539524 -0.0526457 -0.07900572 -0.04310561
000380 ee 33 10 be 47 29 80 bd 37 c9 2d 3d db 1c 33 3d
       -0.1408231 -0.06257873 0.04242822 0.04372869
000390 86 8c 1f be 23 5f b6 bd c2 b4 7a 3c b9 f5 a9 bc
       -0.15580949 -0.08904865 0.015301885 -0.020747053
0003a0 d8 b5 31 3c a4 6d 7f bd 8e 97 cb bd ff 6b 04 3d
       0.010846578 -0.06236042 -0.09941016 0.032329556
0003b0 86 f2 1b be ad 93 07 3c 3f 77 7d bc 31 23 14 3c
       -0.15229234 0.008274955 -0.015470325 0.009041593
0003c0 2f 30 ed bd 35 be 17 be 22 8b ff 3d a7 a4 13 be
       -0.11581456 -0.14818652 0.12477709 -0.14418279
0003d0 d8 a0 33 bc 41 2c 8d be 97 3b b9 bc 79 5f 8a bd
       -0.010963641 -0.27572826 -0.022611422 -0.06756491
0003e0 9c 35 af bd 82 c5 87 bd af f7 b0 3a b4 40 0b be
       -0.08555147 -0.066294685 0.001350155 -0.13598901
0003f0 ac a3 6a 3c eb db ea bd 67 cf 66 be 2b e0 4a bd
       0.014321249 -0.11467727 -0.22540055 -0.04953019

network_body._body_endoder.seq_layers.2.weight f4 [256, 256]
000000 bb c2 df 3c 23 49 dd 3d e7 56 6e 3d cd 0b 2b 3e
       0.027314534 0.10804965 0.058188345 0.1670372
000010 f7 e5 0b 3c 75 52 c0 3d e7 c1 83 3d 61 24 f6 3d
       0.008538715 0.093907274 0.06433468 0.120186575
000020 f9 aa 8f 3e c8 3a 9e 3e 26 4c 1f 3d e8 48 39 bc
       0.2806013 0.30904222 0.03889098 -0.011308886
000030 29 6e 8b 3e 6d 1f 3d bd 75 a1 bd 3d 9d bd 57 be
       0.27232483 -0.046172548 0.09259311 -0.21068425
000040 db 10 0b 3e e9 59 45 3e 50 01 b7 3e fc fe 8a 3d
       0.13580649 0.19272579 0.3574319 0.06786916
000050 b6 25 83 3d 97 87 10 be f1 2e 25 3c e0 97 b6 3e
       0.06403677 -0.14114223 0.0100819925 0.35662746
000060 eb 86 ef bc 4e 72 e3 3d ca c1 12 bd 12 52 56 3e
       -0.029239139 0.11105786 -0.035829343 0.20929745
000070 d7 9b 8f bd 65 71 a6 bd ea e4 f9 3d 24 ea a8 3d
       -0.07012146 -0.08127097 0.12201865 0.08247784
000080 f4 40 4a 3d 0f a6 b6 bc c6 fb b2 bd c0 64 85 bd
       0.04937835 -0.02229598 -0.08739428 -0.06513357
000090 0e 9f b1 be ba 4d 69 bd 1c de 26 be 40 b4 db 3c
       -0.34691662 -0.05695889 -0.16295666 0.026819348
0000a0 a4 fd 98 3d ca c2 ae 3e 66 f0 08 3e 69 94 e0 bc
       0.07470253 0.34132987 0.13372955 -0.027414517
0000b0 85 f2 08 3e f2 95 ba 3e 30 a6 86 bc 2d 53 af bd
       0.13373764 0.36442524 -0.016436666 -0.085607864
0000c0 2a ee ef 3c 37 e8 30 be ff f6 59 be 99 fc 79 3d
       0.02928837 -0.17276083 -0.21285628 0.06103191
0000d0 35 ec f3 3d 96 cf 26 3d b8 8b 42 3a 36 27 dc 3c
       0.11910287 0.040725313 0.00074213324 0.026874166
0000e0 ad 34 f4 3d 7e 9c 7a 3d 5f 2f 4a bd b7 47 06 be
       0.119241096 0.0611844 -0.049361583 -0.13113295
0000f0 5f bb d6 bc f6 0e 6e bd 45 2f 8d bd 37 10 bd bd
       -0.026212392 -0.058119737 -0.068937816 -0.09231608
000100 8d 51 1e be f6 9e c3 3c fd 8b 35 be 29 3f 8e be
       -0.15460797 0.02387951 -0.17729183 -0.27782562
000110 3c 2f 75 3e 6a 88 3a 3d 61 f0 0f 3e dc 0d 0b 3e
       0.239438 0.04554025 0.14056541 0.13579506
000120 56 48 d8 3c cd 4a e7 3c 98 9f 35 3e 0d c4 a0 3d
       0.02640168 0.02823391 0.17736661 0.07849894
000130 55 8d 9a 3d cc 45 95 be 91 14 5d bd c3 86 e0 bc
       0.07546488 -0.29154813 -0.05397469 -0.02740801
000140 ee de fd bd 55 25 91 3e 98 e0 26 3d 8b 72 b0 bc
       -0.12396036 0.28348795 0.040741533 -0.021538993
000150 f8 79 4a 3e 70 f6 0c bd 14 0d 77 3b 78 72 62 bd
       0.1977309 -0.03441471 0.0037697004 -0.055284947
000160 ad 9f 17 be a5 5a c9 bd da 93 64 bd b5 21 4c be
       -0.14807005 -0.09831742 -0.055805065 -0.19934733
000170 c0 20 62 3e da f1 4d 3d 6c 93 22 bd 4f 40 14 3a
       0.22082806 0.050279476 -0.039691374 0.00056553347
000180 3b 66 e1 bd 83 fb f3 3d 3e 8a 59 bd f0 9d e6 bd
       -0.11005827 0.119132064 -0.053110354 -0.11260593
000190 34 33 87 be 43 48 0c bc 53 0f 98 3e 2e 40 bb bd
       -0.26406252 -0.00856215 0.2969919 -0.09143101
0001a0 e6 47 9a 3d bc 64 00 3e a4 ce 8c bd 67 f8 52 3e
       0.07533245 0.12538427 -0.06875351 0.2060257
0001b0 a6 41 41 be 2d e2 30 3e bf 7a 0a be fa 5b 17 3e
       -0.18872699 0.17273779 -0.13523386 0.1478118
0001c0 1c bb dc bc c2 64 62 3e 2d 78 02 3e 7f 2a 07 bc
       -0.02694469 0.22108749 0.12741156 -0.008249878
0001d0 69 36 4c 3c ce 5c ba 3c 25 39 e2 3e 2b 8d 44 bb
       0.012464144 0.02274933 0.44184223 -0.002999137
0001e0 14 70 4b be af b3 a9 bb 1c 1c 31 be c1 46 2f be
       -0.19866973 -0.0051788907 -0.17295879 -0.17116834
0001f0 44 84 89 be 28 d1 21 3d 04 86 91 3d 9b f7 cb bd
       -0.26858723 0.039506108 0.071056396 -0.09959336
000200 ae a1 52 bd d2 0b 71 3e d2 d8 2e 3e 79 4c 3a 3d
       -0.05142372 0.23539665 0.17074898 0.045483086
000210 a9 ca 8f bd 24 7a 82 3d fb 87 04 be f4 ca e2 bd
       -0.07021076 0.06370953 -0.12942497 -0.110738665
000220 34 b6 85 bb 20 3e 46 bd 2d 2a fa 3d c4 3e af 3d
       -0.004080558 -0.04839909 0.12215076 0.085568935
000230 6b 52 ef 3d e4 7c bf bd 8a 6e 21 3e f1 ed b0 3d
       0.11685642 -0.09349993 0.15764824 0.08639134
000240 19 c1 28 3e ed 65 16 3c 68 9d 22 bd d7 af d8 3d
       0.16479911 0.009179574 -0.039700896 0.10580414
000250 37 bd 83 bd e4 20 36 3c 59 d5 d4 3d e8 09 39 be
       -0.06432574 0.01111624 0.10392255 -0.18070185
000260 e3 f1 db 3d d4 83 55 be 09 93 56 3e 97 ad 21 be
       0.107394956 -0.2085107 0.20954527 -0.15788876
000270 14 77 52 bd 34 8d c5 3d cf 07 83 be 57 e1 34 3d
       -0.051383093 0.09646073 -0.25591895 0.044160213
000280 2a 8a 14 bc 94 88 2a be 27 a5 4d 3d cb 35 63 bd
       -0.009066144 -0.16653663 0.05020633 -0.055471223
000290 b2 e7 c3 3d 58 70 1b 3e 07 c5 65 3e b3 7c e9 3d
       0.09565677 0.15179574 0.22438441 0.114007376
0002a0 d3 a8 2a 3e 4e 80 8f 3e 41 af 05 3e 75 2c 46 bd
       0.16665964 0.28027576 0.13055135 -0.04838224
0002b0 d5 e5 19 3e ab f7 d6 3a 37 55 91 3d c9 f1 ec bd
       0.1502908 0.0016400715 0.070963316 -0.11569554
0002c0 d4 ce a7 bd 9b ad 64 be 52 d1 2b bd 40 28 df 3d
       -0.08193746 -0.2233185 -0.04194767 0.10896349
0002d0 d7 60 f6 bc 27 47 50 3e 04 22 05 be e0 9f 6d 3d
       -0.030075474 0.20339642 -0.13001257 0.058013797
0002e0 ae 90 51 be e9 da a3 3e 11 41 35 be d9 f0 d3 bc
       -0.20465347 0.32002953 -0.17700602 -0.025871681
0002f0 fe f4 25 3c 62 a8 ba 3b d0 13 26 be 37 fb 37 3e
       0.0101292115 0.0056963423 -0.16218495 0.17966925
000300 03 94 e3 bb 21 97 15 be 4e 7f c6 3d 16 15 d5 3d
       -0.0069451346 -0.14608432 0.0969225 0.104044124
000310 aa 9d 16 3e a5 af a6 be bc fe 87 be af 18 9b be
       0.14708582 -0.3255588 -0.26561534 -0.3029227
000320 e2 bf 38 bc 63 99 4f 3e 56 cf 6d 3d 46 66 9a 3d
       -0.011276217 0.20273356 0.05805906 0.07539038
000330 ca 7c 7b bc ae 30 e6 3c 9f 9d 74 3d 74 8f dc 3d
       -0.015349576 0.028099384 0.05972063 0.10769549
000340 e5 0f 49 bd 73 04 8d bc 86 01 9e bd 7f 26 7e be
       -0.049087424 -0.017214036 -0.07715134 -0.24819373
000350 f9 13 c7 3d 07 86 f8 bb 14 a2 93 3d 97 b3 7b bc
       0.09720606 -0.0075843367 0.07208648 -0.015362642
000360 20 1c b9 bd fa c5 7e 3d 89 95 b0 bd f4 3e 9a 3e
       -0.090385675 0.062200524 -0.086222716 0.30126154
000370 19 2c e7 bd e1 e8 ab 3d ef f8 db bb 59 da 61 be
       -0.11287708 0.083940275 -0.006713025 -0.2205595
000380 a1 34 74 3d 6e 3d 8b 3c e5 5a fa bd 55 65 a3 ba
       0.059620503 0.016997065 -0.12224368 -0.0012466112
000390 75 46 bc bd 88 a2 31 3d f5 0b 13 3d 91 44 2e 3e
       -0.09193126 0.043367893 0.035900075 0.17018344
0003a0 39 7d 8c be 78 a9 1a 3e 9a ac 32 be 02 6f 40 3e
       -0.27439287 0.1510371 -0.17448655 0.18792346
0003b0 0e 94 87 bd 33 63 a3 3d 7a cb 24 be 1c a2 df bd
       -0.06620036 0.07977905 -0.16093245 -0.10919592
0003c0 61 dc 42 bd a0 5b 20 be 15 81 e1 3c 3e 27 64 3e
       -0.04757345 -0.15659952 0.027527371 0.22280595
0003d0 94 5a 65 be 60 0d a2 bd bd c1 d3 bd 45 7d d6 bb
       -0.22397834 -0.07912707 -0.10339687 -0.006545695
0003e0 16 cb 36 be 09 0f a7 3d b9 2a bd 3d 05 81 2f 3e
       -0.17850909 0.081571646 0.09236664 0.17139061
0003f0 00 bf 1e 3d 79 b7 c5 bd 44 59 24 3d 59 5d b3 3d
       0.03875637 -0.09654135 0.040124193 0.08758039
