Assets/TFModels/Other models trained in the process/prova_curr_6M_BROTNS_3.onnx (onnx, 914284 bytes, 9 tensors)

action_model._discrete_distribution.branches.0.bias f4 [5]
00000000: d364 be3a ac21 f73d 5986 c9bd fb26 d8bc
00000010: 4393 e53b
0.0014525898 0.12066969 -0.09840078 -0.026385775 0.0070060804

action_model._discrete_distribution.branches.0.weight f4 [5, 256]
00000000: aec4 72bd a831 91bc b86c f33d 669d a7bb
00000010: a394 b13b bc63 c7bd 5a12 65be c444 87bd
00000020: a766 033e 4986 d8bd c721 8bbc 08dc a2bc
00000030: 0c80 5ebe d544 33be 8254 2d3e 84f0 dbbd
00000040: 9df7 6fbd 1c3c 4ebe 8759 583c 70f1 c1bc
00000050: 00f2 1bbe 9123 53bb bc5b 8ebe 7ab3 b1bc
00000060: e745 b5bd 9e2c 7e3c b9ae d2bd 9724 22be
00000070: 85e3 4b3d e326 be3d 45b4 9c3d 9099 7e3b
00000080: 8778 5a3e 7fc9 053e d8bf 8cbd 8a84 f8bd
00000090: 6149 21bd b395 47bd 3079 19bc 2b52 c9bd
000000a0: 1a6c 17be 9eab 953d d603 253e ab71 0f3e
000000b0: d502 85ba 3a37 b5bc f616 a93d 6a37 503e
000000c0: 6ff2 adbc 0a43 7abe 277d 783b adaa 0a3e
000000d0: 8d6a 08be e493 043e cfb1 383e 1bac f73c
000000e0: fc27 93bd 8b95 debc 424f ee3c 2a48 25be
000000f0: 9f0b b93c 646a 003e 7927 4fbd aee1 3cbe
00000100: 3246 fdbc 4202 de3b a20d 0abe 4594 6dbc
00000110: b11c 843e df01 993d 1149 703d bc54 17be
00000120: c93d 11be 55df ca3d a4e8 19be 55d1 be3d
00000130: c185 8a3d 21f9 693d 29ff 803d 96b0 aabd
00000140: 9cec 14be e6ea b53d 667c e43c df3e 68bd
00000150: 8bd8 b2bd c85e 8a3d 1bba 6bbe b638 c33d
00000160: a1f1 21bc 7361 933d 53bd c63c cd70 0c3d
00000170: 097a 543e b16b 16bd dcc3 cebd df6b 91be
00000180: 4cd8 e6bd 808a 3dbd b1b4 4ebc 1ac8 a3bd
00000190: 0d49 793e db5a dfbd 2168 ba3d 2bd5 90be
000001a0: d662 c23d 8e8c b5bd 2f6b 823d 91cb 03be
000001b0: 39c3 063e c3a0 babe 4558 f83c 0da1 45bd
000001c0: c817 823e fee0 003b 4138 b9bd 224f b53c
000001d0: 92d0 afbd 73ad e7bd d7f4 a4bd 8e3b 1e3e
000001e0: 3884 b93c db52 29bc 863c ee3d 1e18 01be
000001f0: d26a 1abe 72f8 4e3d 516c a23d 305c 03be
00000200: e399 e63d 9074 6e3c 4c96 4c3d 9feb 2d3e
00000210: 85eb fdbd 6564 d4bd 1a7d c8bd 11a5 d6bd
00000220: 3c7f 6c3d 74b6 aabd 0f4e 033d 8b83 70bd
00000230: c76b 173e 400f c7bd b342 7bbd 7980 6dbd
00000240: b600 b6bc 769a 5a3d b39e 603d 70d1 31be
00000250: 59a8 79bc 825c f13d f1d5 11be 6646 183d
00000260: c36e 87be d531 12be 82fb 46bd c7a9 5c3e
00000270: 3ea3 e3bd dba3 413d 8a0e 313d 6838 06be
00000280: 2c2f 5cbe d10c b4bc 6f2f 9cbc 9573 28bc
00000290: 9b4a c5bd 05c9 08be 862f 1f3e af37 c8bd
000002a0: 2376 07bd 0d28 ae3c 4363 62be a078 483e
000002b0: 1dc8 0c3d 076f 0abe 4b5f 333d 1d14 a0bd
000002c0: dcbb 9a3d 878f 283e b697 e6bc f0ea 43be
000002d0: 3a6e 1d3d 0a9a 8fbd 3ea4 f1bd 2197 b0bd
000002e0: cf6e 16bc a8bc b3be bfeb 893b 676a e53c
000002f0: d8dd 56be b106 babd ac3c 0e3e c7df ba3d
00000300: c7da 193c 1256 143e accc 903c be6d 393e
00000310: 87b7 57bd fb72 06bd 297f d73d f969 f5bd
00000320: 54c2 fdbb 105f c2bd 9d8a 4abd d22b a03c
00000330: 61d1 c43d eec9 95bd 497e 31bc 505f e53c
00000340: e53c c7bd 9a86 223d 04e4 073e cf6c 23be
00000350: 1042 a9bc ded5 66be 8d6f 1c3d 886c a03c
00000360: e8fe 1dbe d6eb 10be 5dc1 babd ffc3 05be
00000370: 73ea 303d 2ac3 4ebc ac7b 06be b6a0 173e
00000380: 8252 49be 0e52 673e d12d 13be b2f5 10be
00000390: 62c5 eebd 86b1 28be a50b 753e af67 073a
000003a0: 450b 7fbb a069 e0bd 155f b83c 31a2 32bc
000003b0: 1c80 073d 3ed2 01be b5c7 6fbc e05f 31bd
000003c0: ffe1 c2bd 10b9 fb3d 74df 063d d651 b0be
000003d0: cc8a debb cb16 12bc 569d fabc 425e c0bd
000003e0: aeb0 223e a6d4 6fbd 46d3 e7bc b2af 7ebc
000003f0: 2b3e 4c3d c5fe a9bc 8221 843d c57f 95bd
-0.0592696 -0.017723873 0.11885971 -0.005115199 0.00541933 -0.0973582 -0.22370282 -0.06604913
0.12832128 -0.10572488 -0.01698388 -0.01988031 -0.21728534 -0.17506726 0.16926768 -0.10739234
-0.05858575 -0.20140117 0.013204939 -0.023674697 -0.15229034 -0.0032217244 -0.27804363 -0.021692026
-0.088512234 0.015513567 -0.10287232 -0.1583427 0.049777526 0.09284761 0.07651571 0.0038848855
0.2133504 0.13065146 -0.06872529 -0.12134655 -0.03937662 -0.04872675 -0.009367272 -0.098301254
-0.14787331 0.07308124 0.16114745 0.14008205 -0.0010147939 -0.02212106 0.082563326 0.20333639
-0.021233765 -0.24439636 0.0037916393 0.1354167 -0.13321896 0.12947041 0.18036579 0.030233433
-0.07185361 -0.027170917 0.029090527 -0.1614081 0.02258855 0.12540585 -0.050574753 -0.18445465
-0.03091726 0.0067751715 -0.13481763 -0.014500682 0.2580314 0.0747106 0.05866343 -0.14778417
-0.14183725 0.099058785 -0.15030152 0.09317271 0.06763793 0.057122353 0.06298668 -0.08334462
-0.14543384 0.08882694 0.027891349 -0.056700584 -0.087327085 0.06756359 -0.23020212 0.09532301
-0.009884269 0.07196321 0.024260199 0.034287263 0.20749678 -0.036723796 -0.10095951 -0.28402612
-0.11271724 -0.046274662 -0.012616322 -0.07997151 0.24344273 -0.10906001 0.09101892 -0.28287634
0.09491508 -0.08864699 0.063681 -0.12870623 0.13160409 -0.36450776 0.030315528 -0.048249293
0.2540877 0.0019665356 -0.09043933 0.02213246 -0.085847035 -0.1131238 -0.08054512 0.15452406
0.022646055 -0.010334696 0.11632638 -0.12606856 -0.15079811 0.050529905 0.07930816 -0.12828135
0.1125982 0.014554158 0.04994802 0.16984414 -0.123984374 -0.10370711 -0.09789486 -0.10480703
0.057738528 -0.083355814 0.032056864 -0.0587192 0.14787208 -0.097197056 -0.061342906 -0.05798385
-0.022217136 0.05336996 0.054838847 -0.1736505 -0.015237891 0.117852226 -0.14241768 0.037176512
-0.26451692 -0.14276822 -0.0485797 0.2154914 -0.1111512 0.047275405 0.043226756 -0.13107455
-0.2150237 -0.021978768 -0.019065587 -0.010281463 -0.096333705 -0.13357933 0.15545473 -0.09776246
-0.03307165 0.021259332 -0.22108178 0.19577265 0.03437053 -0.13518916 0.04379205 -0.07816336
0.075553626 0.16461001 -0.028148513 -0.1913259 0.0384352 -0.070118025 -0.11798905 -0.086225756
-0.009181692 -0.3510487 0.0042090113 0.028004838 -0.20983064 -0.090833075 0.13890332 0.091247134
0.0093905395 0.14485958 0.01767572 0.1810827 -0.05266526 -0.032824498 0.10522301 -0.11983103
-0.007744113 -0.09490788 -0.0494486 0.019552145 0.09610248 -0.07313906 -0.010833331 0.02799955
-0.097284116 0.039679147 0.13270575 -0.15959476 -0.020661384 -0.22542521 0.03819232 0.019583002
-0.1542927 -0.14152464 -0.09118912 -0.13063048 0.04319234 -0.012619773 -0.13133115 0.148074
-0.1966038 0.22589895 -0.14372946 -0.14156225 -0.116587415 -0.1647397 0.23930223 0.00051652914
-0.003891663 -0.10957646 0.022506276 -0.010902927 0.03308116 -0.12677857 -0.014635016 -0.043304324
-0.095157616 0.12291157 0.032927945 -0.34437436 -0.006791448 -0.008916567 -0.030592602 -0.09392978
0.1588771 -0.058552407 -0.028298985 -0.015544819 0.049863975 -0.020751366 0.064517036 -0.07299761

action_model._discrete_distribution.branches.1.bias f4 [3]
00000000: bf6b ddbd af3a 7e3d c63c 5f3d
-0.108115666 0.062067684 0.054501317

action_model._discrete_distribution.branches.1.weight f4 [3, 256]
00000000: 940b 153d ced9 fc3d bd65 023e 5a8a 233c
00000010: eee3 81bd d190 6fbe 27de df3d bf3f 9fbe
00000020: cc52 573d 042c 02bd 1481 3f3d 772a 68bd
00000030: cda9 073e 60d2 e33b 71ab 1e3d d1e8 9d3d
00000040: 57e0 f73d 9796 0c3e d90e b53d cecd 2e3e
00000050: 7d59 d23d a83d 5dbd a545 103e 70db 853d
00000060: f150 b23d 961c 123e 2b25 c23d 880d 1dbd
00000070: 0ae5 a1bc 1b2a f53d 512e 31bc 6f9e 8b3d
00000080: 4d2f b43d cd4b 823d 7c3e 433d 2a37 f53d
00000090: ee37 c9bd 77fa 193e d097 e3bd aaab 753d
000000a0: aaad 7cbd dfa4 123d 7733 eeba 75a9 c9bd
000000b0: d082 a13d 3458 d53d ec3f d13b d55c b1bd
000000c0: 1e65 5bbd 6cc0 e2bd c5fa d23d 6a36 513d
000000d0: 57d0 603d 72e4 a0bc 1b30 06be 93fa 003e
000000e0: cda3 d93d d0fb 20be c2f1 ae3c e1e1 3e3e
000000f0: 8626 8f3d 19d7 c03c f7c2 29bc c62d 403d
00000100: 9083 e93b aa1b 2ebe fb4c 873e fb1a 6fbd
00000110: 9d08 3fbd 0098 d6bd a1df 12bd f504 873d
00000120: 138c 593d ef96 6cbc ffbc bb3b ec4b e0bd
00000130: 35bf 36be a1ad 67bd 0817 dc3d 00bb f83d
00000140: fb12 3fbe a7bc 11be 6e82 f73d 409d e33b
00000150: 929e 453d 6f17 993d 42b8 703d 6bda e93d
00000160: b598 85be 60e2 9abd 9b7c f9bc 1e82 05bd
00000170: cfab 72bd 530e 69bd d7b7 1f3d 5663 bf3d
00000180: 71c9 743e bb53 ed3d 14f5 7e3e 1dc1 35be
00000190: 88cb c2bd 958b a1bd a7ba bdbd fe2d 0a3d
000001a0: 83b0 353e ff72 703c e1ea 393c 68ad f43d
000001b0: df45 4b3e 3487 3cbd 716f 1f3e 4015 aabd
000001c0: 2501 833d a24b fdbd 5e97 2f3e dec8 63bd
000001d0: e3a1 573e c3d5 2d3e 1cf6 2bbe e2f1 9bbd
000001e0: cc10 053e 4f68 0e3e 0347 5ebd 0c43 b9bd
000001f0: 80d8 14be 6f4d 23be 0b1b c63d 9997 8a3e
00000200: 4cd3 b7bc 7abe ec3c b3c8 073b c064 6a3c
00000210: 3033 36be 2858 f7bd f0df 8d3d 5ed5 2e3e
00000220: fe2d 053e 1b99 163d 93b3 acbc 2f09 a43d
00000230: 1f1e 0cbe 63eb 5c3e b114 79bd 0ec6 4bbe
00000240: a112 353d 2986 19be 66bb 413d 2c03 eb3d
00000250: 9f7c 443e 732c 72bd 365a 323e 2756 33bd
00000260: a055 763d c283 0d3e cd97 4cbd 69f7 dd3d
00000270: eecd a8bd b8c7 2f3e b5fc f23d 250b a0bd
00000280: 6389 a43d f27c 04be c051 7f3d 46bd 2bbe
00000290: 1f48 093e 0bf1 2dbc ad27 1a3e 9b94 413e
000002a0: 6907 b23d c69f 2cbe ba84 91bd eaa6 343e
000002b0: 8442 7b3c 222d d23b c822 6f3d 0394 e43d
000002c0: 616d 55be 3e1a 8abe 0f13 b4bd 5a7d a43b
000002d0: e593 023e 43f3 a93c 32a2 a43c f9a3 6ab8
000002e0: 10f0 c53c ed69 3ebb 25f8 573e 51d9 7f3d
000002f0: 3817 363d 2d53 0e3e 0066 ecbd c351 173c
00000300: 094a 913b 66c7 043c 3588 663c a9a9 3cbd
00000310: d68f 693e 7fb8 c03b 8d8d 83bd fd20 923d
00000320: ed0c 233e e1d7 7c3d b3f4 553e b37f e33d
00000330: d123 e13c e18a acbd 1ce3 503d 8bf2 7a3d
00000340: 988a 2abe 0c93 ce3d f5ec 903d b36a f63d
00000350: 9f22 a7bd 13d8 953d 16d8 d1bb 24b9 873d
00000360: 5711 bbbc ab15 ba3c 1af0 f23d 0f7f 443d
00000370: 1c98 063d 0f9f b1bd d4a9 69be 370c 613e
00000380: e5de ebbd 675f edbc afe2 913d 4553 2d3e
00000390: 0354 fc3d 2026 d8bd d511 be3d 10ab df3d
000003a0: bce9 9f3c d86e 3bbe 1d90 b0bc 2aa4 263e
000003b0: f20a 713d 46b7 053e 7739 a93d 3992 073e
000003c0: bc5e 2abe 1871 b8bd 2064 203e b6a6 0f3c
000003d0: dc1e 873e 1170 86be 78d7 f7bd 7e20 223e
000003e0: c647 a4bd 96ec 003e 568c 8cba e903 09bd
000003f0: 863e 0a3e 9a27 94bd 6c2a 723e 41b4 50bb
0.036387995 0.123462304 0.12734123 0.009981716 -0.06342302 -0.23395087 0.10931044 -0.31103322
0.052569196 -0.031780258 0.046753958 -0.056681123 0.13248368 0.006952569 0.038737718 0.07710422
0.12103336 0.1372932 0.088407226 0.17070696 0.10270975 -0.054013878 0.14089067 0.06535995
0.087068446 0.14268717 0.094797455 -0.038342983 -0.019762535 0.119709216 -0.010814265 0.06817328
0.087980844 0.06362114 0.04766701 0.11973412 -0.09825121 0.15036951 -0.1111294 0.059978165
-0.061689056 0.035801765 -0.0018173297 -0.098467745 0.07886279 0.10417214 0.006385794 -0.086602844
-0.05356323 -0.11071858 0.10301737 0.051077284 0.05488619 -0.019640181 -0.13104288 0.12595586
0.10626946 -0.15721059 0.021355513 0.18640853 0.0698977 0.023540067 -0.010361425 0.046918653
0.007126279 -0.1700274 0.2642592 -0.05837534 -0.046639074 -0.104782104 -0.0358578 0.06592742
0.0531121 -0.014440282 0.005729317 -0.10951981 -0.17846377 -0.05656207 0.1074658 0.121450424
-0.18659584 -0.14232121 0.12085424 0.006946236 0.048246928 0.07475173 0.058769472 0.11418613
-0.2609307 -0.07562709 -0.030454924 -0.032594793 -0.05924588 -0.056898426 0.038993683 0.09345119
0.23904969 0.11588236 0.24898177 -0.17749448 -0.09511477 -0.07887951 -0.09264117 0.033735268
0.17743115 0.014675855 0.011347503 0.11947137 0.19850872 -0.046027377 0.15569855 -0.08304834
0.06396703 -0.123679414 0.17147586 -0.055611484 0.21057849 0.16976075 -0.16793102 -0.07614495
0.12994689 0.13906978 -0.05426694 -0.09045991 -0.14535713 -0.15947507 0.09673127 0.27068785
-0.022439621 0.02889942 0.0020718991 0.014306247 -0.17792964 -0.12077361 0.06927478 0.1707358
0.13005826 0.036767107 -0.021081721 0.08009564 -0.13683365 0.21574168 -0.06081075 -0.1989977
0.04420722 -0.14992584 0.047297858 0.11475214 0.19188164 -0.05912442 0.17417225 -0.043783333
0.060140252 0.13819793 -0.049949456 0.10838205 -0.08242403 0.1716603 0.11864606 -0.07814626
0.08034017 -0.12938288 0.062333822 -0.16771421 0.13406418 -0.010616551 0.15054198 0.18904345
0.086928196 -0.16857824 -0.07105394 0.17641798 0.015335683 0.0064140717 0.05838278 0.111610435
-0.20842506 -0.26973146 -0.08792698 0.005019826 0.1275173 0.020745879 0.020096872 -5.594266e-05
0.024162322 -0.0029054836 0.21090753 0.06246311 0.044455737 0.13898917 -0.115428925 0.009235802
0.0044338745 0.008104181 0.01407056 -0.046060238 0.22808775 0.0058813686 -0.06423483 0.07135198
0.159229 0.061729316 0.20894127 0.11108341 0.027482899 -0.084249265 0.05099784 0.061266463
-0.16654432 0.10086641 0.07076446 0.1203207 -0.081609 0.073166035 -0.0064039333 0.0662711
-0.022835417 0.02271541 0.11862202 0.047972735 0.032859907 -0.08672916 -0.2281869 0.21977316
-0.11517123 -0.028976155 0.071233146 0.16926296 0.123207115 -0.10554147 0.09280745 0.109212995
0.019520633 -0.18304002 -0.021553094 0.16273561 0.05884833 0.13058195 0.08262914 0.13239373
-0.16637701 -0.09005946 0.15663195 0.008767774 0.2639073 -0.26257375 -0.12101644 0.15832707
-0.08021502 0.1259025 -0.0010722976 -0.033450995 0.13500413 -0.07234116 0.23648995 -0.003184572

discrete_action_output_shape f4 [1, 2]
00000000: 0000 a040 0000 4040
5.0 3.0

network_body._body_endoder.seq_layers.0.bias f4 [256]
00000000: 48c4 5dbc 3d06 cb3c c9c1 d5bb 09a7 403d
00000010: f4c2 b0bc 76b3 79bc 7fc1 a33c e54c 313d
00000020: 499e f13a 2a93 603b ec66 26bd 9c60 433c
00000030: 6a33 043d 7e7c 6e3c 1f8b 81bd 9e27 83bd
00000040: 6620 8f3d 985f 9e3c f87d bc3b cab6 64bd
00000050: 774f f5bd f663 b8bc 9521 debb f4cf 3b3d
00000060: 4b6a 093d 881c cbbd 4c2f 49bc 9145 853c
00000070: 1e9b 203a a462 993c 280f 66bc 4388 193d
00000080: b8af a33c 337b 54bd fdf4 fe3c b47c a0bd
00000090: c854 e23c 0f1a cb3c ab8e f7bc 31ef f2bc
000000a0: 7287 e2bc 0833 633d a2a3 0e3c e2e1 783c
000000b0: 9b47 933d 11f2 3e3d 2971 68bd 3fd3 38bc
000000c0: ccea acbb 42e6 a43c 043a 1a3b a381 1f3d
000000d0: b3db 253d 1d97 283b 4ac9 a63d 01bb f6bc
000000e0: 03b0 413d 0b02 a63d a51d 823c e8bb 02bc
000000f0: b7e0 38bc 78f2 bf3c d12e 453c 90c3 6cbc
00000100: 8f78 cfbc b0f8 7c3c e649 8dbc 5a0b 4abd
00000110: 96ea 613d bfa9 283c b9db 1abb 9849 983d
00000120: 7c59 cbbb 56ac 10ba 51f8 92bc 315b 55bb
00000130: fe79 10bd 6c4c 843d efff ea3b 78e2 98bd
00000140: 9965 2abc 5e64 9b3d da35 97bd 24a7 a6b9
00000150: 9c32 613d a729 df3c a81c 103d 6dbe f63c
00000160: 56f3 bcbb b4b7 1c3d 0d77 3dbc 0460 d93c
00000170: d233 233d 5a79 4a3d 8209 0ebd 6971 083d
00000180: 09e2 3f3b 074b c73b ccbf 27bd 07c5 5d3d
00000190: 226c ef3c 46e1 443d b601 98bd 8969 92bc
000001a0: e2fc 913c ad2b 943c 3cf6 7f3c d5fe b8bc
000001b0: d173 783c 1d25 b53d 1a7a 9f3c 819c d23c
000001c0: e254 2a3c fcdb 71bb 1721 923c 4775 bc3b
000001d0: a09c 61bd c6af 78bc 2b5c b5bd c2a3 883c
000001e0: 0713 883d 6878 bd3d ed94 bcbc 3ed0 053d
000001f0: 03a4 b03c 7d39 d23c 5b2b 913b 1f5a 39bd
00000200: b341 40bd c159 853d 5d34 fa3b a2d7 17bc
00000210: 8651 293d cc3f 15bc 9658 eabc 985a 19bc
00000220: dd43 a03d 85ab 683d 7bcd 22bc 67cb 303c
00000230: 9de1 a0bc 69c4 cc3d ae48 38bd a2d9 dbba
00000240: cc71 813d b355 ad3d 6f3b dabc f670 093d
00000250: 04ac 013d f96f 173c cc0c b3bc 0f55 33bd
00000260: 3dcf 383c 73b1 4f3d 9def 553d 8840 06bb
00000270: 617a e33c 30ff 413d aa72 4a3d 0a7b 80bc
00000280: 52f3 843d be20 9f3a c576 95bc 25cc 473d
00000290: 8e03 22bd 932c 93bd 5588 84bc e135 70bc
000002a0: 8a3d 19bd 3b65 123d d844 7bbb 211e 9a3a
000002b0: ae4d 1c3d 3d55 ef3c 2b28 1f3d 8374 0b3c
000002c0: f2b9 77bd cebd c4bc b335 7dbd 65ba 693c
000002d0: c214 4cbc 6142 aebd dc84 e5bc e0c4 42bd
000002e0: 9606 7a3d 4863 68bc 480a 513d 2957 e7bb
000002f0: 47ff 98bc 0b71 523d 545c 383d 0361 cebd
00000300: 5e1a 973c cb5d 6f3d e591 7ebd c81a 02bb
00000310: ea11 273d dd9f fa3c 5553 5bbd 8904 e5bd
00000320: d3e7 4abc 0c1e 0e3d 0004 603c 24fa ccbc
00000330: 4725 a83c 72dc 223c 1395 173d 1ef6 05bd
00000340: 58bb 8c3d 62e6 5a3b fce8 1d3d d9d4 0b3d
00000350: 69b7 673c 858d 0bbd db22 253e 5b8f ec3b
00000360: 6131 0cbc 114f ba3c 87fa cc3a 5a50 a0bd
00000370: a707 ff3c b909 b4bb fb20 3c3b 61f6 513d
00000380: 52ca e9bb db12 dbbc 24d5 99bd cdd9 7bbc
00000390: e1b5 edbc a64b 353d c9be 933d 1114 19bd
000003a0: 4baa 3ebd 8ca7 0a3c f8de 293d e678 0cbd
000003b0: 426e 06be 3b15 90bc 60b7 dcbd 23ec 4bbb
000003c0: 2fb4 053d eef2 dd3b 7cbd adbc bb4d 3c3d
000003d0: 4db9 7f3c 7d6e c03c fafb 0a3d 88a2 da3c
000003e0: 1be1 52bc 1e5d e33c 3a02 5e3d cf9b 823c
000003f0: 9840 2fbc dd7e dfbc 4d7e 56bc d8c9 27bc
-0.013535567 0.024783248 -0.006523345 0.047034297 -0.021577336 -0.015240541 0.019989727 0.043286223
0.0018434013 0.0034267404 -0.040625498 0.011924889 0.032275595 0.014556048 -0.06325363 -0.06404041
0.069886014 0.019332692 0.0057523213 -0.055838384 -0.11978047 -0.022508603 -0.0067789056 0.045852616
0.033548634 -0.09917551 -0.012279343 0.016268523 0.000612663 0.018723793 -0.0140416995 0.037483465
0.01998125 -0.051875304 0.031122679 -0.07836285 0.027628317 0.0247927 -0.030219397 -0.029655071
-0.027652476 0.05546859 0.008706005 0.015190573 0.07191392 0.04661757 -0.056748543 -0.011280834
-0.0052770134 0.020129327 0.0023533115 0.03894199 0.040492725 0.0025724836 0.081438616 -0.030118467
0.047287 0.081058584 0.015883276 -0.007979371 -0.011284045 0.023431048 0.012035088 -0.014450923
-0.025326042 0.015440151 -0.017247152 -0.049327232 0.05515536 0.010294377 -0.00236295 0.07435912
-0.0062057357 -0.0005518844 -0.017940672 -0.0032555575 -0.03527259 0.06459889 0.007171623 -0.074650705
-0.010400199 0.07587503 -0.07383318 -0.00031786517 0.054979905 0.027241541 0.03518358 0.030120099
-0.0057663126 0.03826113 -0.011564028 0.026535042 0.03984434 0.049432136 -0.034677036 0.03331128
0.0029279015 0.006081942 -0.040954396 0.054142978 0.029226366 0.0480664 -0.07422201 -0.017872589
0.01782078 0.018087232 0.015622672 -0.02258245 0.0151643315 0.088449694 0.019467402 0.025709393
0.010396214 -0.0036904803 0.017838044 0.0057512852 -0.05508101 -0.015178626 -0.0885547 0.016679648
0.06644254 0.09251481 -0.023020232 0.0326693 0.021562582 0.025662178 0.004430217 -0.04525196
-0.046937656 0.0651126 0.0076356367 -0.009267719 0.041337512 -0.009109449 -0.028606694 -0.009359978
0.07825444 0.0568042 -0.009936686 0.010790682 -0.01963883 0.099984 -0.044991188 -0.0016773234
0.06320533 0.084636115 -0.026639668 0.033554994 0.031658188 0.009243005 -0.021856688 -0.04378229
0.011279878 0.05070634 0.052230466 -0.002048524 0.027768316 0.047362506 0.04942576 -0.01568367
0.06491722 0.0012140495 -0.01824511 0.04877867 -0.03955417 -0.07186236 -0.01617829 -0.014661283
-0.037412204 0.035741072 -0.0038340595 0.0011758247 0.03816002 0.02921545 0.038856667 0.008511665
-0.060480066 -0.024016287 -0.06181879 0.014265631 -0.012456121 -0.085087545 -0.028017454 -0.047551036
0.061041437 -0.014183827 0.051035196 -0.007059951 -0.018676413 0.051377337 0.045009926 -0.10077097
0.01844519 0.058439057 -0.062150855 -0.0019852389 0.04078857 0.030593807 -0.05354627 -0.11182506
-0.012384373 0.034696624 0.013672829 -0.02502162 0.020525588 0.009940254 0.037007403 -0.03270542
0.068716705 0.003340148 0.03855227 0.034138534 0.0141428495 -0.03407051 0.16126578 0.0072192377
-0.008556695 0.02274278 0.0015638628 -0.07827826 0.031131579 -0.005494323 0.0028706181 0.051260356
-0.007134714 -0.02674239 -0.075113565 -0.015371752 -0.02901739 0.044261597 0.07214124 -0.037372652
-0.046549123 0.008462798 0.041472405 -0.034294985 -0.13127998 -0.017588248 -0.107771635 -0.003111609
0.03264254 0.0067733442 -0.021208517 0.045972567 0.015608144 0.023490185 0.03393171 0.026688829
-0.012871052 0.027754363 0.054201342 0.015943436 -0.010696553 -0.027282173 -0.013091636 -0.010240994

network_body._body_endoder.seq_layers.0.weight f4 [256, 624]
00000000: b1ae 4b3e ce73 4bbe 6867 a93e 9b76 9c3e
00000010: bb46 7c3d 70bb 7e3e 8e39 9e3d 1ec9 28bd
00000020: d75a 81be 9d02 48bd 06d8 a43e b333 ff3d
00000030: 584f cb3d 0667 1c3e a523 f7bc 1e67 3abe
00000040: 365f 2d3d 62f4 89bc eef2 0bbd d701 31bd
00000050: 5888 c5bd dc7d 4e3e 63b5 74be 5f43 223e
00000060: cd63 a9bd abea 383e b2ef 9ebd 6701 053e
00000070: 06d8 123e de2b 8d3e 3153 8e3e 2671 3f3e
00000080: 6ea8 8abd ba96 643e 577d 94bd 962c 61be
00000090: 1740 813d 389d bf3d e652 453e f724 c23d
000000a0: cac7 463b 87f9 d73d 6271 cebc e3fa 1fbd
000000b0: b6dd f3bd 855a eabd ff17 91bd 20c3 71be
000000c0: e385 c13d 6bfb 6dbd b418 cf3c a92a 21be
000000d0: cfc6 2e3e 547d f5bd ac48 0b3d 4f79 393e
000000e0: 58e5 59be beb9 393e f549 453e 8c56 da3e
000000f0: 4b45 ddbc c23c d63d e4d5 b8bd 16c6 103e
00000100: 3cdf a93d 7c70 903d 708f 133d b8a7 b63d
00000110: 7e10 bfbc 74f3 fc3d 22c0 473d fcc7 4abd
00000120: e6f5 2c3d 7f6d c33c 2ce1 a5be 50da a83d
00000130: b336 353e 49b1 afbe 4e36 6fbe 97db b53d
00000140: 3cf6 58bd f63d e8bd 076a 0b3e 294d 3b3e
00000150: 7d7a df3c 8c28 333e 3917 5ebe 92ab b1bd
00000160: d442 f6bd e684 273e 0e98 173e 3659 fdbe
00000170: 9705 c93d 8981 19be 2695 923c a3f2 3abd
00000180: c267 a4bd b6b2 32bd aa9d 5e3e efd4 10bb
00000190: fd0e f73d 2dcc e83a 24a9 d4bd 93f5 0fbe
000001a0: 7602 543e c889 ee3c 499e 05be 4b67 ed3d
000001b0: 2bad cbbd 3389 fd3d 9591 ae3e 5719 32be
000001c0: ba63 ed3d bdf4 b43d 89f3 ec3c b865 45bc
000001d0: 3f23 433e 6832 dbbd 1d56 64be 8275 aa3d
000001e0: 62ea b7bd 5e15 ccbd 4f6a fa3d e1f4 42bc
000001f0: edd4 1bbe 3d84 4c3e a37c b1bb e394 8b3e
00000200: 6f6e 95bd 0a57 ab3d 5882 acbd fc5d 29be
00000210: 305f 293e a414 0a3d 9bc8 693d 7a7b 313e
00000220: eb6e 1dbe a6aa 463e 8bc6 5b3d ce52 93bd
00000230: 7c1a 423d 42bb 993d fb95 a1bb 9bad 1f3e
00000240: 544e 39be 3c79 043e c37f cd3d 4546 293d
00000250: 6ad0 f7bd a3f5 d03c b3ea 983e 02a2 663d
00000260: aad7 f33c 6c53 39bd 0791 d63d 9c9e 5d3e
00000270: e425 12be 37bb f13d ebf5 ca3b 5d73 163e
00000280: 98b3 8bbb e13f 2c3d 973e 31be 97a5 4b3e
00000290: 4748 b6bd 3be4 ae3c c290 f23d 260e 593e
000002a0: 49d7 e73d dda9 953c bc8a ef3d 04ea 13be
000002b0: 5c62 373d 7411 2a3e 2f5c 85be 9266 be3d
000002c0: d7bd f0bd f6d3 783d de5a 4e3d 5171 363e
000002d0: 9e7d 0e3e 749a b7bd 624e 20bd d7b0 b8bd
000002e0: 0e80 9c3d 779b b53d f673 8a3d c2e3 163c
000002f0: 97a7 643e 6eeb 3bbe 7496 223e 550e e03e
00000300: 30d6 b8bc 10e4 c3bd dba7 b73d bc7a c8bd
00000310: 6b33 95bd 8bef 1d3e 6b3d 4d3d 5d7f 733d
00000320: 87ec 83bc b0df 04bd c006 ca3d 65ab 8cbe
00000330: f6a3 fd3d 7800 d33d e6a3 3b3e 3c07 aebc
00000340: 817a 043e ab9b 4a3e 4cac 3abd 08ca 1cbd
00000350: 28f3 02be c9f4 0cbd ffbe b8bd 008d a73d
00000360: 6423 dabd 8390 c83d c598 77be 91c3 8fbd
00000370: e3ed bf3d a7c1 17be cb95 ac3b 6aa8 84bd
00000380: 572b 5b3e 2175 c8bb 4b27 e33d 0a18 03be
00000390: be9c ddbc 61aa dabd 0785 97bb 117c 593e
000003a0: 9bb8 823d 0f05 4a3e 8cea 78bd 89e1 b23d
000003b0: c6d9 b73c 6043 29bd 5a79 b5bd 3a57 67bb
000003c0: 1f55 85bb 2532 21be c5fe fc3d 3d80 5fbd
000003d0: 6a24 0e3e 37f2 adbe 6184 43bd 7c5f 8c3d
000003e0: ab05 bf3d eaf7 89bc 52ea e43a c185 4b3e
000003f0: ba4f b3bc 6f86 233e dde1 f83d 3990 433d
0.19890858 -0.19868395 0.33086705 0.3055924 0.06159089 0.24876189 0.077258214 -0.041207425
-0.25264618 -0.048830617 0.32196063 0.12461033 0.09927243 0.15273675 -0.030168364 -0.18203399
0.04232713 -0.016840164 -0.034167223 -0.043214645 -0.09645146 0.20165199 -0.23897319 0.15846013
-0.082709886 0.18058269 -0.07760562 0.12988816 0.14340219 0.2757253 0.27797845 0.18695506
-0.06770407 0.22323123 -0.07250469 -0.21989664 0.06311052 0.09356159 0.19269904 0.09479707
0.0030331486 0.105456404 -0.02520055 -0.039057624 -0.119075224 -0.114430465 -0.07084655 -0.2360959
0.09449365 -0.0581011 0.025280334 -0.1573893 0.17068027 -0.11986795 0.034004852 0.18112682
-0.21278894 0.18137261 0.19266494 0.42644155 -0.02701058 0.104608074 -0.090251714 0.14138064
0.08294532 0.07052705 0.036025465 0.089187086 -0.023323294 0.123511225 0.048767217 -0.049507126
0.042226695 0.023855923 -0.32398355 0.08244765 0.17696647 -0.34314945 -0.2336056 0.08879774
-0.052969202 -0.11339943 0.13614665 0.18291153 0.027280087 0.17495936 -0.21688546 -0.086753026
-0.12024465 0.1635929 0.14804098 -0.49482125 0.09815519 -0.1499082 0.017893385 -0.045641553
-0.08027603 -0.043627463 0.21739832 -0.0022099575 0.12063406 0.0017761044 -0.103838235 -0.14058523
0.20704064 0.029118434 -0.13048662 0.11591967 -0.099451385 0.12379684 0.34095445 -0.17392479
0.11591287 0.088357426 0.02892472 -0.012048177 0.19056414 -0.107029736 -0.22298475 0.08323194
-0.08980252 -0.09965013 0.12227308 -0.011899204 -0.15217943 0.1997232 -0.005416469 0.2726203
-0.07296454 0.08366211 -0.084232986 -0.16539758 0.16540217 0.03371109 0.057076078 0.17332259
-0.15374343 0.19401035 0.053656142 -0.07193528 0.04738854 0.0750642 -0.004931209 0.15593569
-0.18096286 0.12936872 0.10034134 0.04132678 -0.12100299 0.025507754 0.2986656 0.056306846
0.029765923 -0.045245573 0.104768805 0.21642536 -0.14272267 0.118032865 0.0061938665 0.14692445
-0.0042633526 0.042053107 -0.17309032 0.19887386 -0.089005046 0.021349063 0.118440166 0.21196803
0.11320359 0.018269474 0.11696383 -0.14444739 0.044771537 0.1660822 -0.26046893 0.092969075
-0.11754959 0.060749017 0.050379626 0.17816664 0.13915107 -0.089650065 -0.03913725 -0.090181045
0.07641612 0.08867543 0.06760399 0.009209575 0.22329555 -0.18351528 0.15877706 0.43760934
-0.02256307 -0.09564984 0.08967563 -0.09789035 -0.07285198 0.1542341 0.0501074 0.059447635
-0.016103996 -0.032439888 0.09864569 -0.27474514 0.12384789 0.10302824 0.18324241 -0.021243684
0.12937357 0.19785945 -0.04557447 -0.03827861 -0.12788069 -0.034413133 -0.090208046 0.081811905
-0.106512815 0.097931884 -0.2417937 -0.07019723 0.09371545 -0.14819966 0.00526688 -0.06477435
0.21403252 -0.0061174785 0.11091479 -0.12802139 -0.02705228 -0.106770284 -0.0046240124 0.21238734
0.06382867 0.19728492 -0.060770556 0.08734424 0.02244271 -0.04132402 -0.088610366 -0.0035299794
-0.004068985 -0.15741785 0.12353281 -0.054565657 0.13881078 -0.33973858 -0.04773367 0.0685415
0.09327253 -0.016841847 0.0017464852 0.19875242 -0.021888603 0.15969251 0.12152455 0.047744963

network_body._body_endoder.seq_layers.2.bias f4 [256]
00000000: c98e 173d 18c0 7ebd fef0 243d 1303 07bd
00000010: fac2 79bd b12d 18be 22b6 9c3b 95ec 04bc
00000020: 5c2a 00be 0d92 d1bd f581 94be 20b7 8abc
00000030: 7dc5 43bc f109 50bd 9ab1 1cbe 15d3 16bd
00000040: 8b53 32bd 9213 43bd fe32 e2bd 0423 eebc
00000050: 056e adbc b07d 18be fc93 5ebd 404d 0fbd
00000060: e65e 1dbe 6a29 07be 66a1 debd b004 3cbd
00000070: 688b 6f3d f2e0 2fbd f56f 21be 4845 34bd
00000080: 6cd2 c73d 50fa aebd be13 e0bd 4105 6ebb
00000090: cfc4 713b 0071 d5bc 2823 d3bc 83ec 10be
000000a0: 0e5e 36bc c3a4 f0bc fc23 63bd 1095 9ebd
000000b0: 8f56 9bbd 25b6 75be cc56 abbd 3801 503d
000000c0: 2fed f83c 65ae 5bbd f063 523c 3174 263d
000000d0: 3f3f bc3b b421 75bd ac1c 293c 6e96 d8bd
000000e0: 0a35 73bc 5999 0fbd b326 b5bd c0e6 99be
000000f0: c3fa 083c ff56 83bc 50c0 39bd e859 0d3d
00000100: 03e7 1fbc f95c a3bd 241c 01bd 4c3f e2ba
00000110: dee5 6d3d 0089 90bc 057e 26be c191 a9bd
00000120: 8567 6fbe 7c9a bbbd 3072 62bd fd65 c4bd
00000130: d9d1 cbbc 38f8 5fbd ad69 d33c 07d7 0f3d
00000140: cb7b 3abe 7217 38bd 2d5f c6bd 345b 81bd
00000150: 10de ccbd 8dd1 01be acd2 57bd 17f7 a2bd
00000160: 0cbc 443c 6736 1e3d 9e5e a9bc c884 23be
00000170: 00fe 75bd 64f0 9bbb 21d9 193d f422 8cbc
00000180: f249 76bd e4c2 ccbc 50ec 2fbd e3dc 8d3c
00000190: cf06 033d 2cea 51bd 7a4e a3bd 6038 e8bd
000001a0: fa61 773d 70f3 43b9 5df3 f83b 0db8 01be
000001b0: 52a1 c8bd c81e b4bd cac3 64bd 6eb0 32bd
000001c0: 0da6 99bd a557 b0bd e668 01bd 9589 ccbd
000001d0: 6493 44bc 60ae 9e3c a52a 60bd 6249 f4bd
000001e0: a84c 8bbd 0cc5 e2bd 38e4 f5bd 3bb2 403d
000001f0: dd7c c03d 7ab4 70bd db68 54bc cd8b 44bd
00000200: 7546 8fbd 89f4 6ebe b5cd 52bc c3e2 1bbd
00000210: 858c 10bd 2896 92bd 633a 28ba 5190 1fbe
00000220: 8efb 6fbb fac6 57be c7c2 29be b506 edbd
00000230: b726 6bbd 4492 9bbd 09fe 72bd eb24 81bd
00000240: d3e2 08bd 7335 77bd 5ac7 85bc ad08 d5bb
00000250: eb35 23bd 78c9 a9bd fd01 03be e4ca 93bc
00000260: cec7 d4bd ef52 c43c bd8f d0bb 8856 3dbc
00000270: 4b8a 0e3d a71e 2bbe 2f91 f7bc a9be a6bd
00000280: eef4 f2bd d4f0 b03c 5280 c13c 22eb c1bb
00000290: 5168 25be 7c3d 2dba 0bd7 aebd 5433 36bd
000002a0: 4fd6 c5bd ce4a 80bd 8287 e5bd beeb b13b
000002b0: a2e8 2a3d 4f0b 05be fc47 7cbc df30 97bc
000002c0: 2f78 1bbd 43d7 983c e141 5f3c b23f 11bd
000002d0: b16c b93c a007 1fbd aa86 d7bd 6cd0 91bd
000002e0: e86f c0bd 754e 8abc d21d 6ebc a2f6 1dbd
000002f0: 0848 963c 4224 0ebd 8b9a 643d dd9c 83bd
00000300: 35a3 95bd 613a d1bd dd39 993d 33e6 07be
00000310: 5d75 23bd 608a 5dbd a4b3 06be b8a1 1fbe
00000320: 9734 67bd 1904 1ebd e1b4 5fbe ea67 a1bd
00000330: 7aa1 5fba 84b7 3bbe 80a8 803b 086a babd
00000340: 5379 e93c c91c 89bd 2c18 42bc 2c6f c4bd
00000350: cb2d 0abe 8de2 a1bd 0ce6 48bd 1b87 acbc
00000360: 9be3 74bd 6b02 10bc 4fcd 8c3d 3250 ccbd
00000370: a3d6 8bbc d527 58bd 70e3 0fbd 666f 37be
00000380: a3b7 60bc 100c c33c 3edb 37bd 7786 88bd
00000390: d466 f6bd 4bd3 1f3c 14eb 98ba f2ed 14be
000003a0: 253a 1ebd 7fe2 0cbe 93d0 2ebd 74fc 70be
000003b0: de76 0bb8 f5d1 eabd 830b c3bc 3695 dbbc
000003c0: 4514 ae3c ed06 c8bd 1a68 9abc fbe4 2ebd
000003d0: c322 a6bc 0943 28bd 96df 3ebe e6e3 32bd
000003e0: ac41 5abd 41db 59bd f649 72bd 7c5d 1e3d
000003f0: 691f 803d 3cbb f4bd 0c5d 05bd 3b8c 6ebd
0.037001405 -0.062194914 0.04026889 -0.032961916 -0.06097696 -0.1486118 0.004782454 -0.008113046
-0.12516159 -0.10232935 -0.290054 -0.016933024 -0.01194894 -0.05079073 -0.15302125 -0.036822397
-0.043536704 -0.047626086 -0.11044882 -0.029069431 -0.021170625 -0.14891696 -0.054340348 -0.03498578
-0.15368232 -0.13199392 -0.10870628 -0.045902908 0.058482558 -0.042939134 -0.15765364 -0.044011384
0.09756932 -0.08543837 -0.109412655 -0.003631905 0.0036890989 -0.02605486 -0.0257736 -0.14152722
-0.011130823 -0.02937544 -0.05545424 -0.07743275 -0.07584869 -0.23995264 -0.083661646 0.050782412
0.030386535 -0.053633112 0.01284121 0.040638153 0.005744844 -0.059846595 0.010321777 -0.10575567
-0.0148441885 -0.035058353 -0.08845272 -0.3005886 0.0083605675 -0.016032694 -0.04534942 0.03450957
-0.009759667 -0.079767175 -0.031520978 -0.0017261296 0.058080547 -0.017643452 -0.1625901 -0.082797535
-0.23379333 -0.09160325 -0.05528468 -0.09589765 -0.024880337 -0.05468008 0.025807226 0.035117175
-0.18211286 -0.044944234 -0.09686122 -0.06316224 -0.100032926 -0.12677594 -0.052691147 -0.07957285
0.0120077245 0.0386261 -0.020675 -0.15968621 -0.060056686 -0.0047588814 0.037560586 -0.01710651
-0.060129113 -0.024995275 -0.042949975 0.017317241 0.031988915 -0.051248714 -0.079739526 -0.11338878
0.060396172 -0.00018687337 0.0075973705 -0.12667866 -0.097963944 -0.087949336 -0.05585078 -0.043625288
-0.07502375 -0.08610467 -0.03159418 -0.09987179 -0.011998031 0.019370258 -0.05472817 -0.11928059
-0.068017304 -0.1107274 -0.1200642 0.047044974 0.09398816 -0.058765866 -0.012964453 -0.047984887
-0.069958605 -0.2333547 -0.012866427 -0.038058054 -0.03529026 -0.07157546 -0.00064173917 -0.15582396
-0.0036618444 -0.21071997 -0.16578208 -0.11573545 -0.05740997 -0.07596257 -0.059324298 -0.0630587
-0.03341944 -0.060353708 -0.01633041 -0.0065012784 -0.039846342 -0.0829038 -0.12793727 -0.018041082
-0.10389672 0.023965327 -0.006364791 -0.011556275 0.034799855 -0.16710912 -0.030220596 -0.08141834
-0.11863123 0.02159921 0.023620758 -0.0059179226 -0.16153075 -0.0006608588 -0.0853711 -0.044482544
-0.09660017 -0.06264268 -0.11207487 0.005429714 0.041725762 -0.12992595 -0.015398022 -0.01845592
-0.037956413 0.018657332 0.013626547 -0.035461135 0.022634836 -0.03882563 -0.10523732 -0.071198314
-0.093963444 -0.016883114 -0.014533477 -0.038565286 0.018344894 -0.034702547 0.055811446 -0.06426404
-0.0730652 -0.10216213 0.0748174 -0.13271408 -0.03990685 -0.054087043 -0.13154465 -0.15589035
-0.056446638 -0.038578127 -0.21846344 -0.07881148 -0.0008530837 -0.18331724 0.0039263368 -0.09102255
0.028500235 -0.066949435 -0.011846583 -0.09591517 -0.13494031 -0.07904539 -0.049047515 -0.021060517
-0.059787374 -0.008789639 0.06875097 -0.099762335 -0.01707012 -0.05277236 -0.03512901 -0.17913589
-0.013715657 0.023809463 -0.04488682 -0.06666272 -0.12031332 0.009754966 -0.0011666738 -0.14543894
-0.03862967 -0.13758276 -0.04267938 -0.23533803 -3.3250886e-05 -0.114658274 -0.0238092 -0.026804548
0.0212499 -0.09766946 -0.018848468 -0.04269884 -0.020280248 -0.041079555 -0.18639979 -0.043674372
-0.053285286 -0.053187612 -0.059152566 0.038663372 0.06255991 -0.119497746 -0.03255944 -0.058239203

network_body._body_endoder.seq_layers.2.weight f4 [256, 256]
00000000: f797 f03d 4650 393e c5a0 e73d f748 483e
00000010: bb1a 72bd fbd8 693e 3501 263e 7065 433e
00000020: 57b0 053e cd04 eabd 42d2 7fbc 50cc f43c
00000030: 6f76 95be ff72 05be 3cb1 8c3c 773f 393e
00000040: 0fbe 2a3d 29f9 b13d 9b7f 773e a07c a03d
00000050: b898 d03d f08c 373c 7b1f 223e c49c f7bc
00000060: b502 933d 6f1d f7bd a7ad b33d 6079 ed3a
00000070: 3361 053e 62cf dcbd 0b96 2f3e ba18 50bc
00000080: 97b3 373e 4583 83bd f215 ea3d ee09 7dbe
00000090: 42c5 9a3e 25cb 9abd be4f 52bd 67dc d63c
000000a0: e3e0 80be 6864 6bbd 21eb 01bf 7a83 68be
000000b0: f185 1fbe bead ed3c 1088 4ebe 267a 0cbe
000000c0: 2935 763e 7777 1abe 1090 8d3d bfc7 0bbe
000000d0: bed1 1bbe e923 4dbd 8723 fd3d b8bb 29bd
000000e0: a488 233d b3f5 0cbd 9bca d03c 1237 943c
000000f0: e06f 293d 6fa9 803c 2c7b 9dbe a6ac b63b
00000100: 4673 4c3d de30 f0bc 2d5b 2f3e 2367 c6bc
00000110: ec33 92bc 504f c13e 3de7 943d 1470 6b3d
00000120: f613 3e3e 9dbf cc3d 2059 433e cebc 17be
00000130: 7e56 c1bc e001 b0bc 4cf1 8f3a f863 4cbc
00000140: 0cbb 6b3d 34fb 9dbe 3ebf 47bd 98f6 1ebe
00000150: d7e5 c33e 451e 19bd f99e 31bd f8fe 123e
00000160: 11f1 89bd 6d72 b23e 1115 30be 5ff9 45be
00000170: 929b 9b3e 5356 b7bc a479 e83d 26d3 a7bc
00000180: a79d f2be 8f22 473c 9da1 2a3e d293 d5bd
00000190: 2074 f2bd 9bbf 913d 66d2 153e 05e5 2c3b
000001a0: 7081 d6be 6657 773e 8c28 733e d987 62be
000001b0: f4b0 633d 944f 843d 25e2 8b3e 8145 a9bb
000001c0: 568d aabe bb8d 01be a79d 9cbc f875 2ebc
000001d0: 0ac9 76be 7702 bfbd 7945 423e 6505 20be
000001e0: 2ddd 9ebd d37a d2bd 6ec7 25bd 23e5 27be
000001f0: 0db2 5f3c ac6b 9c3d e314 a93e 3762 5c3c
00000200: 29c1 733d 18c9 52be 0459 e4b8 fa73 283b
00000210: f5ee 4ebd 823f 44bd 6ece f7bd 4184 973c
00000220: 00e9 e2bd 6ffd 073d 6df3 c13c 7e9a 27be
00000230: f7c5 063e 982a 0d3e 719b cfbd f81b cfbc
00000240: 1bd1 d93d 3eab e33d 9420 fc3c ee8b 47be
00000250: 6c6a 4fbe 98ff 843d c7a1 633d ce0c f13c
00000260: 4b8a 4a3d a236 b73b 915a 0ebd 0394 f0bd
00000270: 667b 803e 25b5 843d 6c48 8d3e 82e6 5bbe
00000280: 35ab eabc 56e9 76bd cab5 0e3e a699 9d3e
00000290: ce2a 1c3d ae43 193e 02c6 21bd b25c 233c
000002a0: 8413 95bd f7a4 c9be 243b dfbd 0496 c4bc
000002b0: 9fe4 afbe 67d4 2cbe a645 3a3e d844 2e3e
000002c0: 000a 013e b5de aabe 92d4 7fbd 044d 07be
000002d0: 9152 6b3d 3b59 00be bb49 a73e a7eb cbbd
000002e0: 36ba 673e 5925 b23d 4078 2cbe 0502 d33e
000002f0: fe9e c43c c4e6 dabd e041 8b3e e7cb 5b3d
00000300: 0dbb 8a3d 6bc6 02bd 7377 503b d519 0cbe
00000310: 28f0 57be c5ea 8abd 1562 fabd 4946 2bbd
00000320: 6232 ad3d 64ae c3bd 355f 263e 116c 5dbd
00000330: 637e b7bc bb94 c5bc 64d0 903e 3a22 153d
00000340: 4883 02be 8cab 403e 4c6e 803e 85f1 4ebe
00000350: f058 9bbc be82 943e 3d14 363d 9868 403c
00000360: bca7 d8be 81c9 aebe 9ba7 c03d e411 753e
00000370: 12b4 99be e0ea b73d 4788 813e 7366 c43e
00000380: a6df f23d b38d 34be f4d3 4ebd 7a74 82bd
00000390: b59d 003e 1100 1c3d 3b11 ca3e c11f cb3d
000003a0: 575c 873d fcf1 ce3d ed9f f53d 3897 ccbc
000003b0: e724 63bd b3ed 213e 299d e4bb 30ef 863e
000003c0: df4b d63d 266a b8be 7a1f 9abc 3dbf bbbe
000003d0: 1f32 e83b 6fcf 8a3e c81a 193e b6a2 b6bb
000003e0: 3455 12bd da71 503e 6729 013e 61a5 97bd
000003f0: 8f56 7cbe 23cd 3b3d aa8d 5abc 38b7 55bc
0.11747735 0.18097028 0.11309961 0.19559084 -0.059107523 0.22836678 0.16211398 0.19081664
0.1305555 -0.11426697 -0.015614094 0.02988258 -0.2919192 -0.13032149 0.017174356 0.18090616
0.04168516 0.08690102 0.24169771 0.0783627 0.10185379 0.011203036 0.15832321 -0.030226119
0.07178251 -0.12066161 0.08773356 0.0018117838 0.1302536 -0.10781743 0.1714708 -0.012701208
0.17939602 -0.06421522 0.11429967 -0.24710819 0.3022862 -0.07558278 -0.05134558 0.026228143
-0.25171575 -0.0574688 -0.50749403 -0.22706404 -0.15578438 0.02901351 -0.20169091 -0.13718471
0.24043716 -0.15084635 0.06912243 -0.13650416 -0.15216729 -0.050083075 0.12360292 -0.04143879
0.039925233 -0.034414005 0.025487235 0.018092666 0.041366458 0.015705792 -0.30758035 0.0055747805
0.04991462 -0.029320177 0.17124625 -0.024219101 -0.017847024 0.37755823 0.07270668 0.057479933
0.18562302 0.09997485 0.19076967 -0.14818117 -0.023600813 -0.02148527 0.0010981946 -0.012475006
0.05755143 -0.30855715 -0.048766367 -0.15523756 0.3826129 -0.037382383 -0.0433645 0.14355075
-0.06735433 0.34852925 -0.17195536 -0.19333409 0.30392128 -0.02238003 0.11351326 -0.020486426
-0.47385904 0.0121542355 0.16663213 -0.10428585 -0.11838555 0.07116624 0.14631042 0.0026381623
-0.41895628 0.24154434 0.23745936 -0.22122134 0.055588678 0.06460491 0.27320972 -0.005165756
-0.33310956 -0.12651722 -0.019118143 -0.010648243 -0.24100128 -0.09326642 0.18971814 -0.15627058
-0.0775703 -0.10277333 -0.040473394 -0.16396002 0.01365329 0.07637724 0.33023748 0.013451151
0.059510384 -0.20584524 -0.00010888468 0.0025703893 -0.050520856 -0.04791213 -0.1209992 0.01849568
-0.110795975 0.033200677 0.023675645 -0.16367528 0.13161455 0.1378578 -0.1013707 -0.025281891
0.10635587 0.11116646 0.030777253 -0.19486973 -0.2025544 0.06494063 0.055574205 0.029425051
0.049448293 0.0055912295 -0.03475434 -0.11746981 0.25094146 0.06479863 0.27594316 -0.2147465
-0.028646091 -0.06028112 0.13936535 0.30781287 0.03812676 0.14967224 -0.039495476 0.009970831
-0.07279113 -0.3938367 -0.10899952 -0.023997314 -0.34354112 -0.168779 0.18190631 0.1701845
0.12601471 -0.33373037 -0.062458582 -0.13212973 0.05745179 -0.12534039 0.3267344 -0.099570565
0.22629628 0.0869853 -0.16842747 0.41212478 0.024001595 -0.10688546 0.27198696 0.053661253
0.06773958 -0.031927507 0.0031809479 -0.13681729 -0.21087706 -0.0678306 -0.12225739 -0.041815076
0.084568754 -0.09554747 0.16247256 -0.05405814 -0.022399133 -0.024118772 0.2828399 0.036409594
-0.12745392 0.1881544 0.2508415 -0.2020932 -0.018963307 0.29005998 0.044452894 0.011743687
-0.4231547 -0.3413811 0.09406968 0.23932606 -0.30020195 0.08980346 0.25299284 0.38359413
0.11859064 -0.17632179 -0.050495103 -0.063698724 0.1256016 0.038086 0.3946627 0.09918166
0.06609409 0.101047486 0.11993394 -0.02497445 -0.055455115 0.15813331 -0.0069767428 0.2635436
0.1046369 -0.36018485 -0.018813837 -0.3666934 0.007086053 0.27111384 0.14951622 -0.005573596
-0.035725787 0.20355931 0.1261345 -0.074045904 -0.24642394 0.04584993 -0.013339439 -0.013044171
