Assets/TFModels/Other models trained in the process/prova_curr_3M_BROTNS.onnx (onnx, 912236 bytes, 9 tensors)

action_model._discrete_distribution.branches.0.bias f4 [5]
00000000: d695 99bc 8c34 9c3d 0f79 6b3b 6a78 7bbd
00000010: 031a adbb
-0.018748205 0.0762721 0.003593031 -0.061394133 -0.005282642

action_model._discrete_distribution.branches.0.weight f4 [5, 256]
00000000: f6b0 ab3c 4bd6 ac3d 0415 a5bd 5947 9e3d
00000010: 9c28 bd3d b269 633d fbc3 663d 728f a8bc
00000020: 404e f03d dd2c 6bbc 5976 c73d 8734 e0bd
00000030: 27ae 88bd c6af 0c3e 595e ed3d f55d 593d
00000040: 55a5 153d 9415 233b 0905 b7bd 56dc f2bc
00000050: 783a c73b a948 823d 75f9 953d 4b25 b23d
00000060: 8563 6e3d afb7 b83d 8bd6 f53d eb7f 3ebc
00000070: 62d3 c93b 1e7a 5dbc 295a bbbc 0642 b33c
00000080: 0072 b33b 5f6d 283e 7337 93bc 44fe c53d
00000090: 6da1 c8bd b8cd 3b3c f7d9 cd3c 20e4 82bd
000000a0: bd07 0c3e 8673 1cbd ae47 f5bb e28b e63d
000000b0: a94f e33d 123b 1e3e f80e f5bb 3004 ddbd
000000c0: 6f46 1e3c e74c cc3d a70a 4c3d 4ae8 05bd
000000d0: d738 013e 821f 0b3c 4435 d13c 3646 103e
000000e0: ef1a 4f3c 0d2f c43c 36ad b53c 85df 943c
000000f0: 9774 b03d ecaf efbc 356b 913c 797c 803d
00000100: ebbc 3f3d 475d 51bd ee29 8fbd d012 d7bd
00000110: 05f3 2fbc ba29 6dbd 1632 f4ba 1bb9 243e
00000120: 6231 f63d 095e 31bb b2f3 e7bd 60d1 5a3d
00000130: ac01 f6bb 6baf 483c 5017 263e 2f81 573c
00000140: b38b 233c 5b31 623d 76ce ba39 6ccd 493d
00000150: c19a 79bd 6ec3 0e3c a385 553c ac78 0b3c
00000160: 23bb efbc 62a5 29bd c34b 80bd 1714 8d3c
00000170: 0540 a23d 1bad da3d 8548 afbd 648a 353d
00000180: 0e2c eabc d996 183d 4f72 ef3c cd41 ae3d
00000190: 91e6 d43c 7ec0 e73d e31d 723c cd99 e13d
000001a0: b267 a03c e7b7 63bd 3165 4bbd a485 ae3c
000001b0: 1f1b 4dbd 7082 ebbd 7473 4a3c bc6b e1bd
000001c0: 8d65 8d3b 430a 6a3d f0f0 1c3e 60e8 58bd
000001d0: df27 083e 2d2c 063e 246b bd3d 8b16 c83c
000001e0: 745e 6d3b 7b05 f93d af9d 133e 0ee2 9a3d
000001f0: 42f6 b9bc 3e43 bb3d da69 90bc 6257 163b
00000200: 6baa 733d 7cde 01bd 38ca cb3b 042c c03d
00000210: aa9f 3e3d e69b a63d 9a0d e13d 1a1f 3c3d
00000220: 822f 94bd a0da 533d 73b4 5b3c 9e24 b93d
00000230: 1c46 9ebd acbf 083c 6951 83bb 7536 b03d
00000240: d490 e2ba 212c 603d b799 923c 945b 8d39
00000250: 874e 9a3d 66a2 af3d 6a86 4a3d 5b22 893d
00000260: f3ad 993d 8bc0 01bd 772d 93bb 3ab6 1a3e
00000270: 9fbc 96bd 5149 e53b d9a0 153d 0a5d f73d
00000280: 8b56 c83d ecb2 2fbd 5fb3 d13d e7ed b83c
00000290: 9cdf 503c 2e15 29bc f5a7 0dbe 861f eabc
000002a0: e915 0a3e 37bf 22bd 16fb 7d3d 1fa8 ea3d
000002b0: ed22 d2bc fb61 13bc 8b90 fe3d 6e32 fabc
000002c0: c5c0 4f3c db43 26bc 4fe7 eb3d c6a4 4b3d
000002d0: 8624 073d 714f 99bd 2799 03bc 4a01 eebb
000002e0: 1278 a1bc 9178 47bc d1e3 49bd f55c 423e
000002f0: c519 9ebc 6794 1b3e b4ba ea3d 2fe4 593d
00000300: d482 e5bd 420d c53d 19ce 643b f146 cb3d
00000310: 91ce 03be 8c68 413a 393c dabd d9da d73d
00000320: 98ce d13d 5b5a d23c 53c4 e3bd dc21 403d
00000330: 07f4 153d 8f28 153c 8e2c 81bd 53b1 1fbd
00000340: 0020 573d 1b7c babd fa8c 3bbd 7d65 163e
00000350: 57ce cd3d 379e 2f3d 097b 313c 1bf3 1a3d
00000360: c24e aa3c 83f8 51bd 69db 15be 8046 f1ba
00000370: 1d41 ef3d 4169 52bc 478e 9d3d 287f bc3d
00000380: e4e7 cdbd 676c 103d 332b 4e3c 2807 9e3b
00000390: 2c98 7ebd 810b 03bc 53fe ee3d fd67 063e
000003a0: 0d32 e53b fd99 fd3c f82d 463e 50ab a9bd
000003b0: af89 9fbb 3c03 8abd 7584 24bc 5e8f 573d
000003c0: a95f 9f3c 13a2 8b3d 3a63 453c 9cb8 8bbb
000003d0: 8856 e3bc 7990 013e b75a 873c a774 f03d
000003e0: 3b6b 283d 35e5 5f3d e5da c63d 3474 6ebc
000003f0: 1ec1 96bc 725a 0cbd 93ca 293d 67de 1e3d
0.020958405 0.08439311 -0.08060649 0.07728452 0.09236261 0.05552072 0.056339245 -0.020576213
0.11733675 -0.014353958 0.0973937 -0.10947519 -0.06673842 0.13738927 0.11590261 0.05306812
0.036534626 0.0024884688 -0.08936507 -0.02964608 0.006079968 0.06361515 0.07322971 0.08698519
0.058200378 0.0901941 0.120038114 -0.011627178 0.006159232 -0.013517885 -0.02287014 0.021882068
0.0054762363 0.16447972 -0.017970776 0.09667638 -0.097964145 0.011462621 0.025128348 -0.06391168
0.13674827 -0.03819611 -0.0074853515 0.11257149 0.11099178 0.15452221 -0.007478591 -0.10791814
0.009660347 0.099756055 0.049814846 -0.03269223 0.12619339 0.008491399 0.025538094 0.14089283
0.012640699 0.023948217 0.02217732 0.018172989 0.08615988 -0.02925869 0.017751316 0.06273741
0.046811026 -0.051114347 -0.06990419 -0.10501635 -0.010739093 -0.05790112 -0.001863065 0.16086237
0.12021138 -0.0027064106 -0.11325778 0.05342233 -0.0075075235 0.012248854 0.1621983 0.013153358
0.009982037 0.05522285 0.0003563051 0.04926817 -0.0609386 0.008713586 0.01303235 0.008512657
-0.029264038 -0.041417487 -0.062644504 0.017221494 0.07922367 0.106775485 -0.08558754 0.044321433
-0.02858546 0.037253235 0.029229311 0.08508644 0.025988849 0.11316012 0.014777633 0.11015663
0.019580696 -0.055595305 -0.04965705 0.02130396 -0.050074693 -0.11499488 0.012356628 -0.11006877
0.0043150843 0.057138693 0.15326285 -0.052955985 0.1329646 0.13102789 0.09248951 0.024424812
0.0036219629 0.121592484 0.1441562 0.07562648 -0.022700433 0.09143685 -0.017628599 0.0022940268
0.059488695 -0.03170632 0.0062191747 0.09383395 0.046538986 0.08135204 0.109889224 0.0459281
-0.07235624 0.05172217 0.013409722 0.09040187 -0.07728216 0.008346479 -0.0040075076 0.08604137
-0.0017285594 0.054729585 0.017895563 0.00026961847 0.07534509 0.08575897 0.049444593 0.06696006
0.07503881 -0.031677764 -0.004491504 0.15108576 -0.07360195 0.0069972654 0.03653035 0.12078293
0.09782132 -0.042895243 0.102392904 0.022574378 0.012748625 -0.010319991 -0.13833602 -0.028579485
0.1348492 -0.039733138 0.062007032 0.11457848 -0.02565142 -0.008995528 0.12429913 -0.030541625
0.012680237 -0.010148014 0.11518728 0.049717687 0.032993816 -0.07485855 -0.00803212 -0.0072633373
-0.019710574 -0.012174741 -0.04928953 0.18980773 -0.019299397 0.1519333 0.11461392 0.05319613
-0.11206594 0.09621669 0.0034912883 0.099256404 -0.12871768 0.00073779444 -0.10656018 0.10539789
0.10244483 0.02567785 -0.1112143 0.04690729 0.036609676 0.009103908 -0.06307326 -0.03898747
0.052520752 -0.091057025 -0.045788743 0.14687152 0.10049122 0.042875495 0.0108325565 0.0378295
0.020789508 -0.05126239 -0.1463448 -0.0018407851 0.11682341 -0.012842477 0.07693153 0.09203941
-0.10053995 0.03525963 0.012583542 0.0048226304 -0.06215684 -0.007998348 0.11669602 0.13125606
0.006994492 0.030957216 0.19353473 -0.082846284 -0.004868708 -0.06738898 -0.010041346 0.05262696
0.019454794 0.068180226 0.012047583 -0.0042639505 -0.027751222 0.12652768 0.016522748 0.11741
0.041117888 0.05466195 0.097097196 -0.014554072 -0.018402632 -0.034265943 0.041452955 0.03878632

action_model._discrete_distribution.branches.1.bias f4 [3]
00000000: 0055 09be 7531 8b3d a71a 6e3d
-0.13411331 0.067965426 0.058130886

action_model._discrete_distribution.branches.1.weight f4 [3, 256]
00000000: a4af b53d 7a7e 453d 739b 223c 10ec 683d
00000010: a450 3c3c e6f7 9b3b 9d5a 093c a013 093c
00000020: b086 2bba 3cd4 153d 78c4 0c3d 64df 9d3c
00000030: ded9 173e d4b0 a0bd 24d5 973d fd60 833d
00000040: 1f72 f9bc 54b3 bcbc 85f6 07bd c1bf 113d
00000050: db1e 5b3d dc2d 1c3d 6eba 4dbd 3afe ae3d
00000060: 2dc8 a03d 6159 1abc eb8d 31bc a222 ad3d
00000070: 4921 343c d275 073e cb64 d63d 1d75 3bbd
00000080: 5c8c cf3d b716 a1bd ced5 c7bc aca1 143e
00000090: cba8 d83d cc80 dd3b 96a1 5fbd 7fc7 ad3d
000000a0: 33da 8c3d e1d3 863c 18df 9d3b 0a88 2d3d
000000b0: cc70 653d ed44 1b3d 803b de3d 6844 1a3d
000000c0: ddae 65bc fba2 843c d6c3 4c3c a5eb e5bd
000000d0: 193d 343d 0624 9c3c 3cff 6ebd b026 b53d
000000e0: 8e76 e3bb 90ce 423e a2c2 d33d 840a 173d
000000f0: aad6 953d 8782 dd3d 1b65 863c abd3 353d
00000100: cfe3 02bd b32f 713b 800a 7abd 80e5 cf3d
00000110: 18a8 29bd 39d9 a7bc bed6 9fbc acfe 843c
00000120: 386c 993d ab64 8e3d 308a 8d3d 6125 f33b
00000130: c4bf 06bd 589e 8abd 127d eb3d f670 3c3c
00000140: e2d3 cdbd 93bf b9bd 1aff 943d 8ace 93bc
00000150: 3684 d7bc d3f8 12bd c14f 103e 7848 b33c
00000160: cac5 5f3d bc00 853d 9bc2 a43d 977a 3c3d
00000170: 724a ac3c 4d36 f4bc e12a 6fbd a6ba 613d
00000180: 9178 efbc 8b42 723d 8a4b 66be d2f0 653d
00000190: 7e9b 893d 6b91 0e3d 6652 953d 8bf2 dc3d
000001a0: 7f66 463d fb1c bb3c a7d0 2c3d 5cbf f83d
000001b0: 0373 8a3d 0651 4f3d e0cc d539 28ad 603d
000001c0: ecd6 8b3c c479 bf3d a989 b63c 34bc 81bd
000001d0: c9d2 9a3d 1541 f43c 548b e73d f7da a13d
000001e0: 1234 e33d 13da ab3d 0064 c3bc 3902 bf3d
000001f0: b1f7 b83d d101 483d 3b10 a9bd 6e03 7e3d
00000200: 2546 0abd 166f 4f3d fbae 2a3e 1b37 2d3b
00000210: 9819 973d 1187 933d 7e43 733a b971 13be
00000220: 779d 2e3d 2737 17bd 986f abbd 7bf9 3d3d
00000230: 0de2 ef3c 86ff fabc ac07 02be 9a5f 4fbe
00000240: e33b 113d f5bc 30bd 1cd3 023e 1a60 87bd
00000250: bbd1 14be e80d 743c a560 8d3d a25c 843d
00000260: 6298 033e 3325 14bd 2889 083d 19cc 673d
00000270: 75c6 2e3d 6a40 e63d d029 043d d1b2 943d
00000280: 0c87 e83d 79ea 2dbd edef 643d d08f 92bd
00000290: 2f84 5cbd 3a23 0a3c f17b 5f3c 5456 333d
000002a0: e238 01bd b09a 163e 3c46 883c ce40 623c
000002b0: f2cc d1bc e3ef 3a3d 4368 343d babe 813c
000002c0: 0c1d 293d 4185 0abe ca59 cb3d 9e45 683c
000002d0: fe58 acbc a629 e93c f797 cdbd 390e 62bd
000002e0: 5068 343d 48a5 6d3d d3d3 79bc 8432 633d
000002f0: efa3 d43d 6c43 163d 4ead 0f3e b60a 32be
00000300: 1dd3 393d 35f1 8cbd 7e57 3a3e 380b 163d
00000310: f7ee b43d cf20 c43d be41 173d 9ad5 86bb
00000320: a504 97bc 4f81 90bd 65ba 993d 4d04 003d
00000330: 7793 7f3d 1325 133e ee15 31bd c3df c63d
00000340: 3b89 853d 559f 973d bb60 f93d 6d8b 803d
00000350: d95b 153e 66d8 693b f652 a13c a744 d33d
00000360: 95df 163d 1bc1 d83c 8518 adbd 6925 073e
00000370: cefe 703a 724d aa3c 5f90 803d 1f02 0f3e
00000380: 4eba c7bc 6226 9cbd 5032 19bc c158 ad3d
00000390: e6d2 8bbb c26f 6c3d 0b30 74bb 72c6 623d
000003a0: f5cf 1abb df3d 993d d913 b23c de99 c23d
000003b0: bec0 b6bd 5d16 fcbd 1528 ae3d 349d b0bc
000003c0: 7f2b 213e 2573 b93d 2720 d9bb d7ea 1f3d
000003d0: 6f6b 07bd 69b9 65bd f304 663d 3b34 88bd
000003e0: 122f 7cbc d264 c63d 2d2d 203b 1997 233d
000003f0: 8f8d 25bc 3a24 dd3c 23b1 613e d46b d33d
0.088713914 0.04821632 0.009924757 0.05686575 0.011493836 0.0047597764 0.00838342 0.008366495
-0.00065432023 0.036579356 0.034367055 0.01927156 0.14829203 -0.07846227 0.074137 0.064149834
-0.030449925 -0.023034729 -0.033194084 0.03558326 0.053496223 0.038129672 -0.05022662 0.085445836
0.078506805 -0.009420724 -0.010837059 0.08453871 0.010994264 0.13228539 0.104684435 -0.045765985
0.10134193 -0.07865661 -0.024393942 0.14514798 0.1057907 0.0067597385 -0.05459746 0.084853165
0.06877556 0.016458454 0.0048178546 0.042366065 0.056015775 0.03790753 0.108511925 0.037662894
-0.014018741 0.016190996 0.012497863 -0.11226586 0.04400358 0.019060146 -0.05834888 0.0884527
-0.006941623 0.1902411 0.10339858 0.036875263 0.073163345 0.10815912 0.016405633 0.044391315
-0.031955536 0.0036802113 -0.06104517 0.101511955 -0.041420072 -0.020489322 -0.019511577 0.016234718
0.07491344 0.06952795 0.06911123 0.0074202274 -0.032897726 -0.06768483 0.11498465 0.011501541
-0.10050179 -0.09069743 0.07275219 -0.018042821 -0.02630816 -0.03588183 0.14092924 0.021885142
0.054631986 0.06494281 0.080449305 0.04601535 0.021031592 -0.029811049 -0.058390502 0.055109642
-0.029232295 0.05914549 -0.22489753 0.056137867 0.06719111 0.03480665 0.07291107 0.10788449
0.04843759 0.022840967 0.042191174 0.12145874 0.06760218 0.05061438 0.0004077917 0.054852635
0.017070256 0.09349397 0.022282438 -0.06334725 0.07559735 0.02981619 0.113058716 0.07903092
0.11093916 0.08391204 -0.023851395 0.09326596 0.090316184 0.048829857 -0.08255049 0.06201499
-0.0337583 0.05064305 0.16668312 0.002643055 0.073779285 0.07203496 0.00092797715 -0.1439885
0.04263064 -0.03691783 -0.08370894 0.0463805 0.029282594 -0.030639421 -0.12698239 -0.20251313
0.035457503 -0.043148953 0.12775844 -0.06610127 -0.14533131 0.014895894 0.06903199 0.06462981
0.12851098 -0.03616829 0.033333927 0.056591127 0.042669732 0.11242755 0.032266438 0.07260669
0.11353883 -0.04245994 0.055892874 -0.07156336 -0.053836998 0.00843125 0.01364039 0.0437835
-0.03154839 0.14707446 0.016635053 0.013809396 -0.02561042 0.04563893 0.044044744 0.015838016
0.041287467 -0.13527395 0.09929235 0.014176754 -0.021038529 0.028462242 -0.100387506 -0.055189345
0.044044793 0.058018953 -0.015248257 0.055468097 0.1038283 0.036685392 0.14030954 -0.17386898
0.04536735 -0.06881944 0.18197438 0.036631793 0.088346414 0.0957657 0.03692793 -0.0041148188
-0.018434832 -0.07055914 0.07506255 0.0312541 0.062396493 0.14369611 -0.043233804 0.09710648
0.06520315 0.07403437 0.12176653 0.06276593 0.14585818 0.0035681962 0.01969288 0.10315829
0.03683432 0.026459267 -0.08451942 0.13197865 0.00091932423 0.020788882 0.062775366 0.13965653
-0.02438083 -0.076245084 -0.009350374 0.08464194 -0.0042670844 0.057723768 -0.003726008 0.055365033
-0.0023622487 0.07482504 0.02173798 0.09502004 -0.089234814 -0.12308953 0.08503739 -0.021559335
0.15739249 0.09055165 -0.0066261473 0.03904232 -0.03306144 -0.056085024 0.056157064 -0.06650587
-0.015392082 0.09687199 0.002444099 0.03993902 -0.010104551 0.026994813 0.22040229 0.10323301

discrete_action_output_shape f4 [1, 2]
00000000: 0000 a040 0000 4040
5.0 3.0

network_body._body_endoder.seq_layers.0.bias f4 [256]
00000000: 4eb2 e93b caff f4bc 3aec 563d d13b 0e3d
00000010: 585b 2abd 97fe b93c 5b7e c53c 44c1 8b3d
00000020: 4d65 e73c b904 d53b d9fa 793d a422 0fbd
00000030: 91ca 4bbd 0b89 763d e344 a9ba 2726 4fbd
00000040: d518 8f3c 46e8 f6bc 81b5 6e3d ca05 a9bb
00000050: 15d2 13bd 6daf c4bc 2f83 c03c 78c8 b23a
00000060: f930 8ebd ab5c 16bd 2f9e 82bd 1757 d13c
00000070: ad99 8ebd 57c8 19bc 2f42 37bc 9325 4e3d
00000080: 2f39 213b 0bbc 29bd f870 9b3d 0ebf dcbc
00000090: 1cf8 f4bc f772 1c3d f5dd acbc 58aa acbd
000000a0: ec2e 2bbd c1a1 453d 0465 42bd 6b7a 233d
000000b0: e421 ecbc 3b0e d23b e6e6 83bb f930 bebc
000000c0: 04a1 5ebc 1cdd 173c 14b8 5d3c f9bb f4b9
000000d0: 47e8 9f3b e425 a3bc 828e 71bc dccd 59bd
000000e0: 03df 633c df32 54bd b1ff 6a3d d9af b9bc
000000f0: 3c0a f2bc 3610 7ebc b86e fdbc d707 0ebb
00000100: 69c8 1e3b 34be 453d 7294 813c 68cf 9d3c
00000110: d0a1 3dbd 2786 543c d527 2fbd 0c1a 273d
00000120: 7132 bf3c 2045 d6bc 152b 9fbd 553e 24bd
00000130: a6b0 72bd 395b 493c c991 1a3d d2f6 36bd
00000140: 2194 11bd 6837 2d3c 1a07 103c 4b8e 913c
00000150: 1d41 1fbb f2ab d5bc b3de a3bb 52a5 493d
00000160: c9e4 653d 36ba 58bb 2873 bc3b de42 1d3d
00000170: be90 1abc f7a9 413b 3784 eabb d0ad 0fbc
00000180: d698 fcbc 17de c03c c930 d23c 90ef 053d
00000190: 0adc a0bb 1cbf 7a3c f249 31bd 8cc8 98bc
000001a0: 82ac 07be 6e7a cc3b 73f1 d23a d398 2c3c
000001b0: f733 393d 2710 9b3c f7b3 703d da95 e8bc
000001c0: 7da2 053c 679a 863c 3a06 c73d 20b7 74bd
000001d0: 1aa7 32bd 3996 c2ba c6d5 a5bb 4150 783c
000001e0: 5552 c33a 4675 eabc 2b7f 2a3d dc7c 2cb8
000001f0: 6b52 32bc 513e 193c 088c b4bc afca 90bd
00000200: 15e0 42bc 2e4f a0bc 6e7c 22bd f350 1c3d
00000210: 8e4d 2fbd d93b 513c 3865 13bd 0cf4 a4bb
00000220: 2999 a73c e06c 813d 7eba e6bc 40f7 803d
00000230: 60a0 193d dedc 0b3d 7ee1 05bd 9008 d0bb
00000240: 27c1 4cbd e387 e03b d02c 82bc 6bbd 7c3c
00000250: 10fc 853c 491c c1bd 3fc3 45bd 5110 69bc
00000260: cfdb 2ebd e18f 54bd cb15 0bbd 208c e1bc
00000270: 8f2b 793c d113 21bc 8395 04bd 003d a3bc
00000280: d41b 8cb9 900d 9ebc eacd dabc 5901 953c
00000290: c934 6cbd 3083 18bb a834 203c 4149 b43c
000002a0: 8c11 473d 48da f03c 017b 2cbc a3eb acbb
000002b0: 6530 a1bd 9914 4fbc b92b a43c 75e6 5cbd
000002c0: fd9f 05bd 010b b5bd 4e86 8a3c 49ab 8fbb
000002d0: 5fef 5bbc b190 9fbc ec65 3d3d 36d2 35bd
000002e0: 2bc6 91bd aca2 803c 7bc7 11bd 3624 6abd
000002f0: 0996 873c 96cd 42bd 2d76 9fbc f2dc a6bd
00000300: b5ca 943c 328a b3bc 3c23 0a3d 90ac 91bd
00000310: 8e81 16bd 8e7b 02bb cefd 063c 4888 5dbd
00000320: 733b 153d d00b cfbc 09ea b53b 395c adbc
00000330: 13bf 37bd 809e cb3a eaba 4fbc 9838 b2bc
00000340: bb8c 7a3d 41aa 85bd a828 06bd 7404 473c
00000350: df11 eb3c ce67 b03d e3e1 5d3d 3ec7 c33c
00000360: 5bac 813d f703 6a3c fd9f 5abd 0049 1dbc
00000370: 33d9 913d 1f6a b83d c580 5bbd 7aaa 4abc
00000380: fa74 973a f8ca 85bc 493a ddbb 8d8f 1ebd
00000390: 8feb 803c 17ce 843c 93fa 4dbd ab0e eebb
000003a0: b617 b43d ec8f 083d fd63 86bc 583f b23c
000003b0: a16d 7bba 5d9b 2fbd 91a9 c1bc c0dd 193d
000003c0: ca61 183d be15 8abc 9f9a 5bbc 0488 743c
000003d0: 8546 583c 0d85 19bd 084d 34bd 8337 81bd
000003e0: 1feb d43c 2257 60bd 1796 c43c d660 ff3b
000003f0: f31f 6bbc 5f5a 3cbb 9ba1 063c 9a9f efbc
0.0071318513 -0.029907126 0.052471377 0.034725014 -0.04159102 0.022704406 0.024108103 0.06823972
0.028246546 0.006500807 0.061030243 -0.034945145 -0.04975373 0.060189288 -0.0012914207 -0.050573494
0.017467896 -0.030140053 0.058278564 -0.005158161 -0.03608902 -0.02400943 0.023500053 0.0013640067
-0.069429345 -0.03670947 -0.063778274 0.025554223 -0.06962905 -0.009386144 -0.011185213 0.050328802
0.0024600734 -0.041439097 0.075899065 -0.02694657 -0.029903464 0.038195577 -0.021101931 -0.08430928
-0.041792795 0.048249964 -0.047459617 0.03991167 -0.028824754 0.006410388 -0.004025328 -0.023216711
-0.013588194 0.009269025 0.013532657 -0.00046679357 0.0048799845 -0.019915529 -0.014743449 -0.05317484
0.013908151 -0.051806327 0.057372753 -0.022666859 -0.029545896 -0.015506795 -0.030936584 -0.0021672153
0.002422834 0.048277095 0.015817855 0.019263938 -0.046296895 0.012971438 -0.042762596 0.040796325
0.023339482 -0.026156008 -0.07771889 -0.040098507 -0.059250496 0.012289816 0.037736688 -0.04466898
-0.035541657 0.010572292 0.008790756 0.017768046 -0.0024300285 -0.026082966 -0.005000913 0.049229927
0.05612639 -0.0033069975 0.0057510324 0.038393848 -0.009433923 0.002955077 -0.0071568745 -0.0087694675
-0.030834597 0.0235434 0.025658028 0.032699168 -0.004909043 0.015304353 -0.04328341 -0.018650316
-0.132494 0.0062401807 0.0016093686 0.010534483 0.045215573 0.0189286 0.058765378 -0.028391767
0.008156416 0.016431047 0.097179845 -0.059744954 -0.04361639 -0.0014845795 -0.005060884 0.015155853
0.0014901856 -0.028620373 0.041625183 -4.112428e-05 -0.010883908 0.009353236 -0.022039428 -0.07069909
-0.011894246 -0.019569006 -0.039669447 0.038163137 -0.04279857 0.012770616 -0.0359852 -0.0050339755
0.020458775 0.063195944 -0.028165098 0.06297159 0.03750646 0.034146182 -0.03268575 -0.006348677
-0.049988892 0.0068521365 -0.015890509 0.01542602 0.016355544 -0.09429223 -0.048281904 -0.014225082
-0.042690095 -0.051895026 -0.03395633 -0.027532637 0.015208139 -0.009831385 -0.032369148 -0.019926548
-0.00026723614 -0.019293576 -0.026709516 0.01818912 -0.057667527 -0.0023271553 0.009778179 0.022007586
0.04860072 0.02940096 -0.010527373 -0.0052771135 -0.07870559 -0.012639188 0.02004038 -0.05393072
-0.03262328 -0.088399895 0.016909745 -0.0043844325 -0.01342377 -0.019478174 0.04623978 -0.044389926
-0.07117876 0.015702568 -0.03559063 -0.05716344 0.016551035 -0.047559343 -0.01946553 -0.08147611
0.018163064 -0.021916483 0.03372501 -0.07112992 -0.036744647 -0.001991007 0.008239223 -0.054085046
0.03643365 -0.025274187 0.005551581 -0.02116214 -0.044859957 0.0015534908 -0.012678841 -0.021755502
0.061169367 -0.06526614 -0.032753617 0.012147058 0.028695045 0.08613549 0.0541705 0.023898717
0.06331702 0.014283172 -0.053375233 -0.009599924 0.071215056 0.09004616 -0.0535896 -0.012369746
0.0011555247 -0.016332135 -0.006751333 -0.03871112 0.015737323 0.016211553 -0.050287794 -0.007264932
0.08793585 0.03334038 -0.0164051 0.02175872 -0.0009591226 -0.042872775 -0.023640426 0.037564993
0.037202634 -0.01685607 -0.013403564 0.014925007 0.013200407 -0.037480403 -0.044018775 -0.06309416
0.02599102 -0.054770596 0.02399735 0.007793526 -0.014350879 -0.0028740389 0.008217241 -0.029250909

network_body._body_endoder.seq_layers.0.weight f4 [256, 622]
00000000: 43e0 813e 0551 c13d 83d0 89be 283e dabc
00000010: 61ec e6bb 6781 bc3d af07 ccbd 2d84 aabd
00000020: 0c6d 5d3d 09d8 003e 1ef8 6b3d 0bdc e3bd
00000030: eda9 d3bd b109 f539 ae0c c03c 375e 193d
00000040: 51c6 babd 537e 90bc faaf 313e d014 11be
00000050: 92c5 1ebe df91 33be 0744 b8bb 72b6 04bd
00000060: 87d0 553e d1f8 a1bc 4a22 953d 2481 ad3c
00000070: a1d3 803d 277c 37bd 0db3 7c3c 2e68 3fbb
00000080: 5009 57bd 1b44 9bbd 9cd3 9a3d dc98 c03d
00000090: 7619 083d c62a bf3d 0254 4c3d 66b8 2dbd
000000a0: 3f40 b0bd 3840 c9ba bd48 c53c bd4a a4bd
000000b0: 5e2b ac3d 6c35 323d 0049 903d b220 13be
000000c0: 30de 58bd 8a79 19be 1574 073e ba29 5b3d
000000d0: 110d 9c3d f899 0c3d a2ec 2e3e ad77 2dbe
000000e0: a741 0fbf d0a5 e1bd 6a8d 773d 4b12 48be
000000f0: 8cb6 1dbe 1bd5 bcbc f1fa 353d 92ae 453d
00000100: 414b 6cbe 071a d6bd 9d31 6bbe e68d 5ebe
00000110: 4af1 a73d 13c1 be3c 7cb2 9ebd e1ee 4cbb
00000120: fade 0a3e 0de0 98bd 033f 4d3d ec8e b8bd
00000130: 4a16 d53d 3046 093d 92d5 c13d 3c10 43bd
00000140: c031 6a3d 490c f73b cea9 93be de17 c4be
00000150: 834e 55bd 82d9 533c a47b 073e 1095 073a
00000160: 21aa 18bd 1ed0 52bc 298c 183d c2e1 fbbd
00000170: c7da 55bc 4ce2 293e f109 eabd a4f3 8e3d
00000180: f9a0 053e 0750 c8bd eda5 823d 5d2b d2bd
00000190: d22f 1b3e 18f2 1fbe 3370 4cb9 7e09 ee3d
000001a0: 0828 32bd fcb3 5e3d b7e8 e53a 80fd 943d
000001b0: 66bd 1c3c 62ca a7bc 48d4 c8bd 79ff 843d
000001c0: ad7c 39be f4c7 773e 0e42 53be fcf4 b9bd
000001d0: 8e0d d5bc c978 51be 3bf2 7dbd ded7 68be
000001e0: 0d99 cfbd 2865 003e 0b7a 06be 9029 4cbd
000001f0: dfef b73c 7420 3d3c 266f d6bd 66b3 ad3d
00000200: 8cc4 00bd 4d9b 113c aaad 243d 874c 933d
00000210: 8144 343d b136 923d fe58 a83d 8d06 19be
00000220: 9383 c93d 92dc 44be 6874 2c3e e123 23bc
00000230: 1f0e b83d 47ff c93d bf0c 5d3c 9675 0eba
00000240: 589a ecbd 3a58 083e 862d 1ebe 6b9e 913c
00000250: 791a d03d eab3 023d 7db1 d93d 7c2e d43d
00000260: 1302 073d a9f5 eabd 6bb5 733c 23b7 9cbd
00000270: 8f0c c6bd 0e31 a8bd fc67 2e3e f717 cabc
00000280: 3cd0 bf3d a64f 273d 514d 30be 2a0b 6bbc
00000290: f133 ebbd 82c1 debd 03b4 3e3e 9aa5 0c3e
000002a0: c1be 40bd 5ea5 9b3d f6dd b93c 8c1e 2abe
000002b0: 4e40 ae3b 287d bbbe 9956 b23d d89f 0c3e
000002c0: c202 0a3e d381 89bd 2e3b dfbd 9a9d 4dbd
000002d0: aa11 1bbe 3e2d c83d 6a85 96be 63f2 423e
000002e0: 6e7b a93d 8a5e 283e 0915 45bd de24 87bd
000002f0: 399f 843c ca2c 08be dc93 ac3d 8652 cabd
00000300: 2107 7fbe 1bcf d83c 7dee 4dbd cef0 0a3c
00000310: 278c 5bbd fb53 833c 6708 113d af93 28be
00000320: 8471 38be be53 a63d 3e78 80bc 7625 d03c
00000330: 8da0 c23d c8f6 62bd e2ca c7bd b856 22be
00000340: 2ee4 473d cbe5 df3d 9c32 31bd c665 303d
00000350: 5d03 b2bd ff6d f0bd 9392 1dbd ae75 0e3c
00000360: 5d13 acbd 5aef 47bd 1848 9abd 4f58 ddbd
00000370: 77c6 8fbd fa7b fb3c 7184 113e 60a9 c23a
00000380: 4dc4 873d dca0 e53d c2b5 80bd 1e4d 80be
00000390: be7e 0fbe 19ea 523c ecaf 9a3d 7f7d acbd
000003a0: f16d 003c d27f 1e3d 8395 c8bd 0490 5abe
000003b0: 0fa7 2e3d 2aef 62be 63ee f6bd 8799 20be
000003c0: f9d9 b53d c25e 563d d24b 1e3d 308d a1bd
000003d0: c647 0b3e 9d28 82be 9972 dd3c b416 903d
000003e0: 2e4a c13d 8b92 08be 68d2 e7bc 7a79 a13d
000003f0: b490 64be 099f db3d 9f1d e13d 1050 83bd
0.2536641 0.094392814 -0.26916894 -0.026640967 -0.0070472215 0.09204369 -0.09962403 -0.08325992
0.054059073 0.12582411 0.05760967 -0.11125954 -0.10335145 0.00046737262 0.023443546 0.037443366
-0.09119857 -0.017638361 0.17352286 -0.14168096 -0.15505055 -0.17536114 -0.005623344 -0.032400556
0.20880328 -0.019771965 0.07281931 0.021179743 0.06290365 -0.044796135 0.015423548 -0.0029206383
-0.052499115 -0.075813495 0.075598925 0.094041556 0.033227406 0.0933433 0.049884804 -0.042412184
-0.08606004 -0.0015354222 0.024082536 -0.08022068 0.08406709 0.04350798 0.07045174 -0.14367941
-0.05294627 -0.1498777 0.13227876 0.05350659 0.0761968 0.034326524 0.17082456 -0.16940184
-0.5595955 -0.11017954 0.060437597 -0.19538228 -0.15401667 -0.023050835 0.04442877 0.048262186
-0.23075582 -0.10454183 -0.22968145 -0.21733817 0.08200319 0.023285424 -0.07748887 -0.0031270313
0.13561621 -0.07464609 0.05010892 -0.09011635 0.10404642 0.0335142 0.094645634 -0.047622904
0.05717635 0.0075393063 -0.28840488 -0.3829946 -0.052076828 0.012930276 0.13230759 0.00051720534
-0.037271623 -0.012867002 0.037243042 -0.12298919 -0.013052649 0.16590232 -0.114276774 0.069800645
0.13049687 -0.09780889 0.06379304 -0.10262177 0.15154961 -0.15619695 -0.00019496754 0.11622904
-0.043495208 0.054370865 0.0017540668 0.07274914 0.0095666405 -0.020482246 -0.098061144 0.0649404
-0.18113966 0.2419737 -0.20630667 -0.0907993 -0.02600744 -0.20456232 -0.061998587 -0.22738597
-0.10136614 0.12538588 -0.13132493 -0.049844325 0.022453247 0.011543382 -0.10470419 0.08481483
-0.03143744 0.008887124 0.04020468 0.07192331 0.044010643 0.07139338 0.08220099 -0.14943905
0.09839549 -0.19224766 0.1684128 -0.009957285 0.089870684 0.098631434 0.013491808 -0.0005434392
-0.11552876 0.13314906 -0.15447053 0.017775735 0.10161299 0.03190986 0.10629556 0.10360429
0.032960963 -0.11472637 0.014874796 -0.07652118 -0.09670364 -0.082124814 0.17031854 -0.02466963
0.093658894 0.040847443 -0.17216994 -0.014345923 -0.114845164 -0.108767524 0.18623357 0.13735047
-0.047056917 0.07599901 0.022688847 -0.16613215 0.0053177243 -0.36618924 0.087079234 0.1373285
0.13477615 -0.06714215 -0.108999595 -0.05019913 -0.15143457 0.09774254 -0.29398662 0.19037776
0.082754955 0.16442314 -0.048115764 -0.06598829 0.016189205 -0.13298336 0.084266394 -0.09879021
-0.24905063 0.026465943 -0.05027627 0.008480264 -0.053600457 0.016031256 0.035408404 -0.16462587
-0.18012053 0.08121441 -0.015682336 0.025408488 0.09503279 -0.05541113 -0.09755494 -0.15853393
0.048801593 0.109325014 -0.043261155 0.04306581 -0.08692048 -0.1173973 -0.038469862 0.008695049
-0.08402131 -0.048812248 -0.07533282 -0.10807859 -0.07020276 0.030698765 0.14210679 0.0014851503
0.06629238 0.11212322 -0.062846676 -0.25058836 -0.14013192 0.012873196 0.07553086 -0.08422374
0.007838712 0.038696118 -0.09794142 -0.21344 0.04263979 -0.22161546 -0.120571874 -0.15683566
0.088794656 0.05233646 0.038646527 -0.078882575 0.13601598 -0.2542161 0.027032183 0.0703558
0.09437977 -0.13337152 -0.028298572 0.07884498 -0.22320825 0.10723693 0.10991978 -0.06411755

network_body._body_endoder.seq_layers.2.bias f4 [256]
00000000: 178b 1fbd 95a7 79bd 2f25 8d3c cc1f 893c
00000010: 0c18 a13c 00f3 e53b 2c38 d5bc 9d11 0a3d
00000020: c589 c03d 9ee9 4abd 9c86 34ba 1cc5 20bd
00000030: 1c68 03bb c998 78bd c427 0abd 637f 19bd
00000040: ac55 b7bc 01ab efbd be77 24bc ee0a 4dbd
00000050: d5ab 5bbd c781 d33c 5d24 113d 8da3 e6bc
00000060: 6ae0 60bd 446d 88bc 9f8d 60bd 5aa6 7fbd
00000070: a18d 4bbd 6a5c 26bd f006 bfbd f847 9cbc
00000080: dd83 f4bc 9564 b1bc 6113 853c 2556 99bc
00000090: 8764 c9bd f798 cdbd 1b13 0cbb 1cae b4bd
000000a0: 1f22 87bd 4b6d 8fbd d5cb a0bd 2dc2 71bd
000000b0: 2669 84bd 8806 553d ff41 a2bc 68d6 5dbd
000000c0: cc00 c739 a9df 68bd f565 dc3b d772 353d
000000d0: 1586 38bd f422 de3c 123d 9d3c 2b9d 7cbd
000000e0: cc3e a9bc e097 8bbd 7a0c 8abd 1824 193c
000000f0: 9775 b1bc 59dd 33bd 6be5 94ba b4b9 b0bd
00000100: 15a0 9f3c 7dd0 f2bd ce2b 74bd 6003 f3bd
00000110: ebf0 b33c c4da 8fbc b987 f0bc 5819 53bd
00000120: 2e94 ccbc c86a 7fbd da77 20bd dfaa cebd
00000130: 7016 52bd a7f0 6d3c 5952 c7bd effb 6bbd
00000140: 7d29 203c bd00 753b 8472 653c 6487 adbc
00000150: 4a99 2dbd 7838 aebd 2671 b1bd 1cca afbd
00000160: 4a07 b3bd 6eb8 94bc 9c91 e3bd 3ae1 f2bc
00000170: 3c88 f7bd 5323 fa3c 3c56 e03b 0d9a 57bd
00000180: d644 443d b015 67bd bf17 823d eead f5bc
00000190: ea78 8ebd 6cb4 d93b 07f8 42bd bc51 42bd
000001a0: 44e8 e93b 5655 76bc d92d b0bd 39a3 b3bd
000001b0: b104 8c3a 7d20 213c 7332 aebc 2755 3dbd
000001c0: b941 fcbc 709c c1bd 11fa 07bd db55 27bd
000001d0: 98b9 df3b 500a 86bc e9a4 7dbc 3f1e 6bbe
000001e0: e2d0 d6bd 5007 45bb 669f 75bd c3be d4bc
000001f0: 2348 06be cc56 2abd 6c1c cd3c c47f 7dbd
00000200: cb92 5cbd 24fc c4bd 617d aebd 0398 5d3c
00000210: 2e9d 0a3d 4fe1 fabd 8e32 8dbc da17 a2bc
00000220: 99da 91bd 2388 b5bd 63cc 2b3b cb1f adbd
00000230: 99e0 efbc 91f2 5dbd 12d0 88bc b74b a43c
00000240: 7be0 f3bd 53b2 733d 195d e9bd f472 87bd
00000250: 8804 71bb 051b 44bc 2649 9b3c 90eb 16bd
00000260: e76f cfbd c4cd 05be d82b 9bbd ee49 63ba
00000270: 6d52 c3bd 2c01 23bc 6b4b 20bd 9c90 e5bd
00000280: 21be 71bd 9e00 36bd fc0c 20be b12c 34bc
00000290: bf86 f23c 5cfb a0b9 a20f 5dbc 8029 33be
000002a0: a3f0 33bd 79cf 95bd e55a 87bc 7dd0 17bd
000002b0: 022e 67bd 41dc 9abd 164d 79bc e9f5 47bd
000002c0: a2e0 b93b 5627 373d c4b9 e1bd 5bea 033c
000002d0: 8e96 e23c 7cbf ecbd d649 083c 92a5 11bd
000002e0: 8408 bdbd bed8 d8bd 06b7 973c 4870 683b
000002f0: 8e90 893a 7007 fd3c 38ba 98bd b267 2a3d
00000300: 2ff5 81bd 7ee2 42bd 1d37 24bd a629 423c
00000310: 6d36 04be c3d7 7ebd 2903 bbbc 65ed 693d
00000320: 6222 a0bc 7df9 1abc 9aa5 e6bd 7905 a9ba
00000330: e828 cb3c d893 97bd dd93 86bb 3c7b 00bd
00000340: 6a69 a8bd 66b9 febd 9510 09bd 2704 c8bc
00000350: 2d40 4ebd b76a ddbd 8f7f 1abd e636 33be
00000360: 6a89 29bd 71bf d7bd be22 f1bc 4e09 b1ba
00000370: a18b 59bd c033 30bd d9fa fcbc 151a 54bd
00000380: 3d0d bebd f993 b9bc ef25 51bd babb 87bc
00000390: c51a ecbd ec0f 26bd af26 c7bd ad8a c63c
000003a0: 4a28 05bd 2552 03be 4275 30bd 3165 93bd
000003b0: 31b4 31bb 890e 723c 12c4 03bd fa6f bebd
000003c0: f517 cfbd e0b6 65bd e14d cdbd 5ab9 b4bd
000003d0: 1694 f2bc 387c 96bb ac60 0bbd 3214 b6bd
000003e0: fb04 3ebc 3569 fcbd b174 17bc 9824 203d
000003f0: dbe4 c6bd d27a 86bd b94d d7bd 0fa5 ccbd
-0.038951006 -0.060950834 0.017229645 0.016738795 0.019664787 0.0070174932 -0.026027761 0.033708204
0.094012775 -0.0495392 -0.00068865134 -0.03925048 -0.0020051068 -0.060692582 -0.03372933 -0.037475
-0.022379719 -0.11702538 -0.010038314 -0.05005925 -0.05363067 0.025818719 0.03543507 -0.028154159
-0.054901518 -0.016653664 -0.05482256 -0.062414505 -0.049695615 -0.040615477 -0.09327495 -0.019077286
-0.029848034 -0.021654407 0.016244592 -0.018717835 -0.09833627 -0.10038941 -0.0021373692 -0.08822271
-0.06598305 -0.07003268 -0.07851378 -0.05902307 -0.06465368 0.05200818 -0.01980686 -0.05415955
0.00037956832 -0.056853924 0.0067260214 0.044298973 -0.045049746 0.027116276 0.01919416 -0.061673325
-0.020659827 -0.06816077 -0.06740661 0.009346984 -0.021662517 -0.043912265 -0.0011359876 -0.0862917
0.019485513 -0.11856172 -0.059612088 -0.11865878 0.021965465 -0.01756037 -0.029361593 -0.05153784
-0.024973001 -0.062357694 -0.0391768 -0.10091185 -0.05129093 0.014522708 -0.097325034 -0.05761331
0.009775517 0.0037384473 0.014004353 -0.021182723 -0.042382516 -0.08506864 -0.086641595 -0.08583471
-0.08741625 -0.01815435 -0.11111757 -0.029648412 -0.120865315 0.030534422 0.0068462174 -0.05263715
0.04791721 -0.056417167 0.063521855 -0.029990163 -0.06956656 0.0066438224 -0.04759982 -0.04744123
0.007138284 -0.015034994 -0.08602495 -0.087713666 0.001068255 0.009834406 -0.02126429 -0.046223786
-0.030793058 -0.09453666 -0.033197466 -0.040853363 0.0068275444 -0.01636234 -0.015481212 -0.22960757
-0.1048906 -0.0030064173 -0.059966467 -0.025969869 -0.13113455 -0.041586682 0.025037967 -0.061889425
-0.05385093 -0.096184045 -0.08520008 0.013525012 0.033841304 -0.122500055 -0.01723602 -0.019786764
-0.07121772 -0.08863857 0.0026214353 -0.0845333 -0.029281901 -0.054186407 -0.016700778 0.020055635
-0.119080506 0.059496235 -0.1139471 -0.066137224 -0.0036776382 -0.011969333 0.018955778 -0.036845744
-0.101287656 -0.13066775 -0.07576722 -0.0008670379 -0.09537206 -0.00994901 -0.039134424 -0.11209223
-0.05901921 -0.044434182 -0.15629953 -0.010996983 0.029605268 -0.00030704855 -0.013492497 -0.174963
-0.04393066 -0.07314963 -0.016522834 -0.037064064 -0.05644036 -0.07561541 -0.015216133 -0.048818503
0.0056725303 0.044715248 -0.1102176 0.00805148 0.02765968 -0.1155996 0.008318385 -0.03555829
-0.0923014 -0.10588215 0.01851989 0.0035467315 0.0010495351 0.030887336 -0.074573934 0.041602798
-0.06345593 -0.04757928 -0.040091623 0.01185075 -0.12911387 -0.062217485 -0.022828655 0.057111163
-0.019547645 -0.009458897 -0.11262055 -0.0012895308 0.024799779 -0.07401246 -0.004106982 -0.031367525
-0.08223231 -0.12437706 -0.03346308 -0.024416042 -0.05035417 -0.1081137 -0.037719306 -0.17501411
-0.041390814 -0.105345614 -0.029435512 -0.0013506801 -0.053111676 -0.043018103 -0.030881332 -0.051782686
-0.09279869 -0.022653567 -0.051061567 -0.016569007 -0.115285434 -0.040542528 -0.09724175 0.024236048
-0.032509126 -0.12824304 -0.043080576 -0.07197035 -0.002711546 0.014773973 -0.03216941 -0.092987016
-0.10111991 -0.056082606 -0.1002462 -0.088244155 -0.029611629 -0.0045924447 -0.03402774 -0.08890571
-0.011597867 -0.12324754 -0.00924413 0.0390974 -0.097116195 -0.06566395 -0.10512871 -0.0999242

network_body._body_endoder.seq_layers.2.weight f4 [256, 256]
00000000: 068b 0bbe 1f3c ee3d 2674 323d e8e8 f5bc
00000010: c10e 9bbe 16e0 26be e426 0c3c 6b4b 833d
00000020: 0e36 63be 190d fa3d dc5b 4bbe af7d 5c3e
00000030: 2ce8 573e c930 83bd f4a9 54be 8c2b 4abe
00000040: c670 32bd 4da9 29be 444b 753c cc84 c7bc
00000050: 9129 073c 3abc 42bd b547 573e 1a54 423e
00000060: de79 93ba 741c c23d 1073 973d 548f cdbc
00000070: 74db aabd 3f69 54bd a8d7 403d 7d06 013e
00000080: fa37 70bd a900 9f3c 85b6 8f3e 4bca 39bc
00000090: 66a5 13be ea5b 93bb 293a a23d 8dfb 3dbc
000000a0: 9cd6 333e 6406 0abd e2a5 4f3d f609 123d
000000b0: fa18 1f3e 78c4 12be b56c c83b 6e84 c53d
000000c0: 55ff ae3c 2020 c0bd 7bb9 91be 3ea2 9a3c
000000d0: ca1b 04be 2dc4 323d 06e8 113d 52e4 a7bd
000000e0: a5aa aabd 3b32 143e fb8c 1dbd 2f5e 413d
000000f0: c91d 533e 1435 273c 23b8 613d 5235 69be
00000100: a947 3d3e d337 073e 3173 a43c 4cd9 bfbb
00000110: 5f19 dabd 0ba7 803d f4a3 223e 6618 1a3e
00000120: 880b 44bd 783b 16be 78ae 813d ec4f 88bd
00000130: 6317 48bd d93e f93d f245 babd 3c4c c3bc
00000140: afb3 3cbe 27bc 4a3c 5b7a 88bd 7e37 083e
00000150: b98a ea3d 476b 583c e40c 97bd 7cec a5bc
00000160: 41de b13d 57db 7abe eea7 683e 918b 963d
00000170: ec76 0bbd 877f 5d3d b42e 5d3c a097 86bd
00000180: 8844 833c d4e6 b23c e508 91bd 922c d5bd
00000190: 5fce 27be 0e29 2b3e b787 b1bd 34ab 003e
000001a0: dc89 a4b8 a216 78be 10be b3bc 7180 ddbd
000001b0: 85ac 1dbe 0d4f 8dbd 6d23 403d 5279 3a3e
000001c0: 4336 cbbd 8e14 f2bd d065 8e3d 7466 0cbe
000001d0: c191 2fbd 2f9a f93c 4a05 033c 309d 513d
000001e0: 215b 183d 14bd d63d f0f8 843d 67d9 e8bd
000001f0: 2b34 863c bb37 68bd f3a2 763d eb27 433d
00000200: d072 31be 571a c23d bd77 0abd f233 143d
00000210: df0f f43d a5e9 7b3d d399 53bd 1f2a 963d
00000220: 1b9e 6e3d a44e 1f3e d7b3 1cbe 417a 943d
00000230: 1159 b3bd 873e 003e 4998 b3bd 8106 e6bd
00000240: 31fb 12bc df5e 5dbe 1d82 98bd 5621 6ebe
00000250: 7395 eb3d 10ef b63c cc2c dd3d 5729 92ba
00000260: 64af 9e3d ef91 d4bd 4d7c 84bc c792 543e
00000270: 79d3 57bd b566 613e cdff 99be 209e ca3c
00000280: f77c 103d b186 eabd 861d b53d 4965 53bd
00000290: b2c9 803d b2de 6c3d ad49 6a3b fdf6 bdbd
000002a0: 5342 553e 709e 85bd 0a17 c1bd dd0b f8bd
000002b0: 86d1 04be 6d6c eb3d 74e9 b8bd a621 4abe
000002c0: 38ac 1fbe 6f9a 0c3e f235 00be fee9 0dbe
000002d0: 5c35 54bd a2ff 38bc 51c4 b6bd b488 46be
000002e0: 54d9 8c3e 8c1e a83d a723 4bbd 0956 0ebe
000002f0: f8a3 e8bd f96c 03bd 60b4 00be aa82 23bd
00000300: be88 9d3e 8dc4 953d 0fb8 0e3e 305b 8fbb
00000310: 4183 163e 1b92 2fbc 30e2 e23d 46e6 123e
00000320: 6aa3 013e 0f1b 903d a966 483d b901 85bb
00000330: cae6 44be dd1b 1ebd 64a1 11be 7d52 fbbd
00000340: d409 3c3b 1742 55bd d349 9cbd a7f5 1a3d
00000350: ce7e e53d 899f 4a3e 2909 44bd f230 2ebd
00000360: d5ee d8bd 22b5 41bc 1aad c53d d67c 22be
00000370: 872a 6ebe 8755 02be 02af d7bd 9e5e 20bd
00000380: 5ea5 833e e458 8d3b d8b2 2d3e 707d 663e
00000390: 75c4 59be 0749 603e 0a71 0fbe 4aff 02be
000003a0: f3ff a33d 38ff c7be 8b42 ae3c ea63 0bbe
000003b0: 0835 fa3d d730 ad3d ea66 c63d f3fc ecbc
000003c0: 4c7e 99bb f073 91bd c887 39bd a495 96bb
000003d0: 1279 17bc 196e 213e 35e5 d33d 0d10 39bd
000003e0: ef1c d03d 887a cf3c d865 5ebd 70aa 89bd
000003f0: 13ce 413e fa98 4c3d 90ac 15bd 6e18 92bd
-0.13627252 0.11632561 0.0435678 -0.030018285 -0.30284694 -0.1629642 0.008554194 0.06410869
-0.22188589 0.122095294 -0.1985926 0.2153232 0.2108466 -0.064057894 -0.20767957 -0.19743174
-0.04356458 -0.1656849 0.014971558 -0.024355315 0.008249656 -0.047542788 0.21023448 0.18977395
-0.0011251529 0.09478083 0.07394993 -0.025092758 -0.083426386 -0.051858183 0.047080666 0.12600131
-0.058647133 0.019409494 0.2806894 -0.011339734 -0.14418563 -0.004497041 0.079212494 -0.011595619
0.17562336 -0.0336975 0.050695308 0.03565403 0.15536872 -0.1433276 0.0061164745 0.096443996
0.021361986 -0.09381127 -0.28461823 0.018876191 -0.12901226 0.04364412 0.035621665 -0.081978455
-0.08333329 0.14472286 -0.038464528 0.04720896 0.20616831 0.010205526 0.055107247 -0.22774246
0.18484367 0.13204889 0.020074459 -0.005854761 -0.106493704 0.06281861 0.15882856 0.1504837
-0.04786256 -0.14671123 0.063321054 -0.06655869 -0.04885043 0.1217019 -0.09095372 -0.023840062
-0.18427919 0.012373961 -0.066639625 0.13302419 0.114522405 0.013209171 -0.073755056 -0.020254366
0.0868497 -0.24497734 0.2272031 0.07350839 -0.03404896 0.054076698 0.013499904 -0.06571889
0.01602389 0.021838583 -0.070817746 -0.10408892 -0.16387318 0.1671488 -0.08668464 0.12565309
-7.845808e-05 -0.24227384 -0.021941215 -0.10815514 -0.15397842 -0.06899843 0.046908785 0.18210343
-0.09922459 -0.11820327 0.06953013 -0.13710958 -0.04286361 0.030469028 0.0079968665 0.051175296
0.037196282 0.104852825 0.064927936 -0.11369591 0.016382298 -0.056693774 0.060213994 0.04764549
-0.17328954 0.0947768 -0.033805598 0.03618235 0.1191709 0.061502118 -0.05166037 0.07332253
0.05825625 0.15557343 -0.15302978 0.072498806 -0.087572224 0.12523852 -0.087692805 -0.11231709
-0.0089710215 -0.21618222 -0.07446692 -0.23254904 0.115031146 0.02233079 0.1079956 -0.0011151236
0.07748297 -0.10379397 -0.016172552 0.20759116 -0.05269191 0.22011836 -0.30077973 0.024733603
0.035275426 -0.114514716 0.08843522 -0.051610265 0.0628847 0.057829566 0.003574948 -0.09275625
0.20826082 -0.0652436 -0.094282225 -0.12111638 -0.12970552 0.1149529 -0.09028903 -0.19739398
-0.1559304 0.13730787 -0.12520579 -0.13858792 -0.0518087 -0.011291416 -0.08924163 -0.19388086
0.27509558 0.08208951 -0.049594548 -0.13900007 -0.113593996 -0.032086346 -0.12568808 -0.039919533
0.30768389 0.0731288 0.139374 -0.004374884 0.14698507 -0.010715987 0.11078298 0.14345655
0.12659994 0.07036411 0.04892603 -0.0040590432 -0.19228664 -0.03860079 -0.14221722 -0.12271593
0.0028692381 -0.05206498 -0.07631268 0.03783193 0.11205827 0.1978742 -0.0478603 -0.042527147
-0.105924286 -0.011822971 0.09652157 -0.15867934 -0.2325841 -0.12727939 -0.10531427 -0.039152734
0.25712103 0.004313575 0.16962755 0.22508788 -0.21266349 0.21902858 -0.14007965 -0.12792698
0.08007803 -0.39061904 0.021271965 -0.13612333 0.12217146 0.08456581 0.09687598 -0.02892921
-0.004684245 -0.071021914 -0.045295507 -0.0045954753 -0.009245174 0.15764655 0.10346452 -0.045181323
0.10161769 0.025326982 -0.054296345 -0.067219615 0.18926267 0.049950577 -0.03654152 -0.07133566
