Assets/TFModels/Other models trained in the process/prova_curr_12M_BROTNS.onnx (onnx, 912236 bytes, 9 tensors)

action_model._discrete_distribution.branches.0.bias f4 [5]
000000 99 e9 4a bd 9c 03 1f 3e 8e ce fe 3d b5 31 64 be
       -0.049539182 0.1552872 0.12441741 -0.22284587
000010 ce b3 fd 3b
       0.0077423817

action_model._discrete_distribution.branches.0.weight f4 [5, 256]
000000 59 36 e5 3d d3 be a5 3c 28 00 b1 3e 9f 8a 1e 3d
       0.111920066 0.020232594 0.34570432 0.038706418
000010 92 8a 3b 3e 54 e6 83 bc 42 4a 05 3d 31 86 09 bc
       0.18314579 -0.01610104 0.03254152 -0.00839381
000020 4a b5 10 3e 51 f2 23 3d eb bd 21 bd 1f 3b eb 3d
       0.14131656 0.040026013 -0.03948776 0.11485886
000030 3d 64 da bd bb 42 c6 3e 08 2b b3 3d 2d b2 63 3e
       -0.1066365 0.38722786 0.08748442 0.22235937
000040 4b 7a fb bd e4 b0 da 3d f4 e1 86 3e 5f 4f 93 3c
       -0.12279185 0.106782705 0.26344264 0.017982183
000050 5a 02 f7 bd 43 c4 37 be 78 71 a0 bd 93 82 6c 3e
       -0.120609954 -0.17945962 -0.078341424 0.23096685
000060 f7 e1 53 be b7 6a 54 be ba 3c 09 3e 15 a1 99 3e
       -0.20691667 -0.20743833 0.13402072 0.30005708
000070 41 d8 96 bb 9a 1c a3 bd 2d c2 9a be ae b5 20 3e
       -0.004603416 -0.0796444 -0.3022627 0.15694305
000080 83 52 78 be 8c 8a 26 3e 2c 20 9a 3d 1b 18 05 3e
       -0.24250226 0.16263789 0.075256675 0.12997477
000090 ce 70 51 be a6 9d 95 3d 54 4c fa 3d 3e 7e 0e 3e
       -0.20453188 0.0730546 0.1222159 0.13915345
0000a0 e4 fe 69 3e 0f 9d 53 be ad 76 8b 3d 24 95 67 3e
       0.2285114 -0.20665382 0.06809745 0.22615486
0000b0 6b 3f 0d 3d 93 fc b5 3c fc 95 57 3c a5 60 bd bc
       0.03448431 0.022215163 0.013158318 -0.023117373
0000c0 4e 0a 02 be 48 af 70 3d 95 f4 09 3e 40 4f 8d be
       -0.12699243 0.05876091 0.13472207 -0.27599525
0000d0 a0 a1 86 be 71 8f 08 3b 51 ed 56 bd 07 57 c8 bd
       -0.26295185 0.002083745 -0.052472416 -0.09782224
0000e0 f9 fd 1e be f5 fc a1 3e dd 77 a4 bd ac 9f 15 3e
       -0.1552657 0.31638303 -0.080306746 0.14611691
0000f0 d8 7a 36 3d 62 67 7e 3e 23 59 a7 3d dc e3 97 3d
       0.044550747 0.24844125 0.08171298 0.074165076
000100 aa 18 8f be 46 1c f2 3b b2 30 b9 bd 87 bd bd 3d
       -0.27948505 0.0073886244 -0.09042491 0.09264665
000110 a9 85 22 3e 9c 52 4e bb f6 85 0d 3d 34 09 62 be
       0.158713 -0.0031482344 0.034551583 -0.22073823
000120 04 58 96 3e 11 4e 7b 3d 9b 70 40 3e 19 55 12 be
       0.29364026 0.061353747 0.18792956 -0.14290275
000130 0b ff 8e bd 59 bf 3c 3e d9 75 b8 be 2b 8a 17 3e
       -0.06982239 0.18432368 -0.3602741 0.147988
000140 d9 b4 01 be 81 f7 98 3e 1b 63 d8 3d 9a 17 9e bc
       -0.12666644 0.2987633 0.10565778 -0.019298363
000150 26 6b 33 3e 6d 32 d6 3d 36 31 ab 3d 06 73 96 3e
       0.17521343 0.10458837 0.083589956 0.2938463
000160 f5 f6 8a 3d 37 09 53 bd 8d 7a d4 3d 84 1e bd 3d
       0.067853846 -0.05152246 0.10374937 0.09234336
000170 12 67 e7 3d ab 70 c1 3d c2 5e d0 bd 69 fe cc 3d
       0.11298956 0.09445318 -0.101743236 0.100094624
000180 2f e8 2a 3e b3 95 81 3e b5 bb 6d be 81 3e 94 3e
       0.16690134 0.25309524 -0.23216136 0.28953937
000190 cb 08 67 bc c3 14 48 be 5c ef 3b be 78 00 60 3d
       -0.0141012175 -0.1953917 -0.18353027 0.054687947
0001a0 d2 7a 55 3b 42 8d 61 3e 01 5a 02 be 70 b0 3d bd
       0.0032574427 0.22026542 -0.12729646 -0.046310842
0001b0 d1 09 97 bd 6f b6 a4 3d 67 81 2e bd 4c 4f 6d bd
       -0.07374919 0.08042609 -0.042603876 -0.05793695
0001c0 c8 8a 2f 3e 4e 99 c7 bc d8 1b 47 be 84 7d 28 be
       0.17142785 -0.024365094 -0.19444215 -0.1645413
0001d0 9b 55 10 be 06 cf 52 be ca 2c 9e 3d 58 4d 6c bd
       -0.14095156 -0.20586786 0.077233866 -0.05769095
0001e0 8d 2f eb 3b d6 76 c7 bd 7b 61 e4 3d f0 11 39 3d
       0.0071772994 -0.09739463 0.111514054 0.045183122
0001f0 cc 54 81 3c 9c d3 64 3d 45 65 40 bd c4 17 16 3e
       0.015787505 0.05586587 -0.04697158 0.14657503
000200 b0 e5 09 be 1e 21 c4 bd 17 92 82 bd e7 5b 36 be
       -0.13466525 -0.09576629 -0.06375521 -0.17808495
000210 13 0c 4f 3d a1 40 6b 3d f4 4e 79 bd 1b 5d f2 3d
       0.050548624 0.05743468 -0.06086631 0.11834165
000220 3f b6 6c 3d ce 52 82 3d ad 95 aa 3a b6 8b ab 3d
       0.05779099 0.0636345 0.0013014578 0.08376257
000230 00 22 49 3b 53 57 60 3c 6b c9 62 be 84 69 61 3d
       0.0030690432 0.013692695 -0.22147147 0.05503227
000240 d6 23 c1 3d f5 08 4d be d9 33 18 3e f5 25 09 3e
       0.09430663 -0.20022948 0.14863528 0.13393386
000250 87 72 e7 3c 07 a0 66 3e c4 2b 3c 3e 83 ee 13 bd
       0.028252853 0.22521983 0.1837607 -0.036116134
000260 ef 44 b0 bd 91 fb aa bb f2 05 0b be 71 f7 6c 3e
       -0.08606898 -0.0052179773 -0.13576487 0.23141266
000270 5f cc 39 3e 42 b5 a5 bd ef 8a 66 3e 82 be 5c bd
       0.18144368 -0.08091213 0.22513936 -0.05389262
000280 87 a9 fd 3d 2f db 3a 3e 76 84 a0 bd 95 b2 a9 be
       0.123858504 0.18247674 -0.07837765 -0.3314406
000290 f6 d3 a9 bc 94 a3 28 3e eb 8c 1a be 37 f7 b0 3d
       -0.020730954 0.1646865 -0.15092818 0.086409025
0002a0 ae bf 5f 3d ac cf 85 3e 54 5e 85 3d e3 e6 21 be
       0.05462616 0.26135004 0.06512132 -0.15810733
0002b0 ca 0a c9 3d bc 66 40 3d 28 23 37 3e 09 97 8e bc
       0.09816511 0.046972975 0.17884505 -0.017406004
0002c0 e7 95 54 3d c7 7f 1a 3e a8 4b 8e 3d 9f e6 80 3d
       0.05190077 0.15087806 0.06948024 0.062939875
0002d0 9c fd 55 be bb a9 eb 3d cb 5c e6 3d 93 25 8a bd
       -0.20897526 0.11506983 0.112481676 -0.06745448
0002e0 18 4c 05 3e c0 97 f9 bc 7e 91 c8 ba 8a d4 a9 bc
       0.13017309 -0.030467868 -0.0015302149 -0.02073123
0002f0 c6 fd 12 3d f1 56 b3 3d 0e 8d 84 3c 39 41 23 bd
       0.03588655 0.08756817 0.016180541 -0.039857123
000300 5c a6 a7 3c f9 dd e6 3c 1e a2 50 3e 88 9a 4a bd
       0.020465069 0.028182017 0.20374343 -0.04946378
000310 35 24 1a be 69 d6 cd bd 71 13 29 3e c3 f0 54 3e
       -0.15052874 -0.10050661 0.16511323 0.20794968
000320 f2 f0 e6 3d 48 26 b0 3d 8e 63 c8 bc f7 1e 20 3e
       0.112764254 0.086010516 -0.024461534 0.15636812
000330 92 3f d2 bd d7 9b 1e 3e 9d c7 16 3e 1f 5f 89 3d
       -0.10266031 0.15489136 0.14724584 0.06707596
000340 15 37 2c be d7 48 a4 3d 54 97 e2 bc 1b 8a 90 bb
       -0.16817887 0.080217056 -0.02766005 -0.0044109947
000350 41 44 bb 3e 25 1a cc 3e 2a cc 91 3d 18 67 55 bd
       0.3657551 0.39863697 0.07119019 -0.05210027
000360 77 5d 72 3e 66 52 81 3d 47 05 68 bd 08 83 d0 bc
       0.23668467 0.063145444 -0.056645658 -0.025453106
000370 46 84 74 bd 01 3b ed 3d 1e b3 a5 bb 0f 91 b6 3d
       -0.05969646 0.1158352 -0.005056753 0.089143865
000380 8b 74 8a 3e f4 0d 34 bd 6a ab e2 bd 38 62 bb bd
       0.2704204 -0.04395862 -0.11067851 -0.09149593
000390 2b 9d 82 bc 13 d4 64 3d 48 97 90 3d 1c 25 fd 3d
       -0.015944084 0.055866312 0.070601046 0.12360594
0003a0 bd e3 39 bd 16 e2 20 be 98 f8 58 bb 9a 9d 5e be
       -0.045383204 -0.15711245 -0.0033107158 -0.21739808
0003b0 a2 59 8b be 79 df 6e 3e 04 b2 88 bd aa 8a 99 3d
       -0.27216822 0.23327436 -0.06674579 0.07497151
0003c0 c2 c5 35 3d 23 b2 76 bd 1e ae 04 be d8 cd 01 3e
       0.04437805 -0.06022848 -0.12957045 0.1267618
0003d0 b9 3a 1b be 34 bb 48 bd 46 4b 58 3d 27 0f a1 bd
       -0.1515912 -0.049006656 0.05280616 -0.07864218
0003e0 31 64 7c 3c 91 db 59 3e 4f bd 5a 3e a5 fb 09 3d
       0.015404747 0.21275164 0.21361278 0.033687253
0003f0 c4 00 16 be 0c 95 60 bd 1b d8 d6 3c 41 6f 1e 3e
       -0.1464873 -0.054829642 0.026226094 0.15472127

action_model._discrete_distribution.branches.1.bias f4 [3]
000000 16 fc cf bd 02 82 ae 3d 14 f7 e0 3c
       -0.101555035 0.08520891 0.027461566

action_model._discrete_distribution.branches.1.weight f4 [3, 256]
000000 1e 22 a6 3e df 89 4b bd 0b 5b 00 3e cb d4 88 3e
       0.32447904 -0.04969203 0.1253473 0.26724848
000010 44 59 06 be 34 e6 3f bd 2a 6a dc bd 93 9d c8 bc
       -0.1311999 -0.0468504 -0.10762437 -0.0244892
000020 a7 cc c8 3d 65 64 11 3e 3a 00 32 be 7c 54 54 3e
       0.09804659 0.14198454 -0.17382899 0.20735353
000030 a1 17 2d 3e 04 ff 00 be 6f 27 94 bd a0 19 b1 3d
       0.16903545 -0.1259728 -0.07234084 0.08647466
000040 ec 41 e7 bc 83 65 1d 3d ee 44 1b be 58 ad 1e bd
       -0.028229676 0.038426887 -0.15163013 -0.038739532
000050 00 47 54 bd 29 5f ac bd 54 55 7c 3e ce 6a c2 bd
       -0.051825523 -0.08416588 0.24641925 -0.094930276
000060 51 35 d1 3a 1a 81 00 be e9 25 99 be 0d 15 f4 bd
       0.0015961324 -0.12549248 -0.29911736 -0.119180776
000070 95 0a c2 bd e8 bf 88 3e 96 d8 0d 3e c8 8b 70 bd
       -0.094746746 0.26708913 0.13852152 -0.058727056
000080 71 25 cb 3e 26 4a aa 3d 04 6e 9e bc f2 81 08 3e
       0.39677003 0.08314924 -0.019339569 0.1333082
000090 0b 18 70 3d b1 f5 b3 bb 40 64 2f bd e1 a8 c3 be
       0.05861668 -0.005491935 -0.042820215 -0.38214782
0000a0 f2 ec 18 be ac 23 49 be 95 e0 6b 3e 47 d9 1b 3e
       -0.14934137 -0.19642514 0.2303489 0.15219603
0000b0 3a e5 d9 3c 6b e4 ff bd 3c fe 0b 3e f4 42 df bd
       0.026598562 -0.12494739 0.13671201 -0.10901442
0000c0 28 75 85 be a9 60 9e be 72 30 c4 bc e2 22 c7 bc
       -0.26065946 -0.3093312 -0.023948882 -0.024308626
0000d0 53 b3 43 3e bf b3 9c bd cc 46 77 bd 6c 4e ab bd
       0.19111376 -0.07651471 -0.06037025 -0.08364567
0000e0 92 a5 e3 3b 00 1b 26 3e 6f 69 1e 3e f9 30 4b 3e
       0.0069472278 0.16221237 0.15469907 0.198429
0000f0 48 66 93 3a de 57 81 3e fd 5b c8 3e d5 e9 04 be
       0.0011245692 0.2526235 0.3913268 -0.12979825
000100 41 df 84 bc c0 72 44 bc f1 e6 c5 3d 80 47 9e bd
       -0.016219737 -0.011990249 0.09663189 -0.07728481
000110 42 87 13 3d 2f 4b ac 3d 59 a6 8d 3d 63 7d 56 be
       0.036017664 0.08412778 0.06916494 -0.20946269
000120 e0 d5 97 bd 5e 6e 58 3d 57 65 84 bd 30 7b f6 3d
       -0.0741384 0.05283963 -0.064646415 0.12035215
000130 fc be 20 3c 11 be cb 3b ee c9 b2 bd 6b 2a 01 be
       0.009811159 0.006217726 -0.08729921 -0.12613837
000140 53 2c 33 bc 32 8f 54 bd 43 9d a5 3d 99 3c ae 3c
       -0.010935861 -0.051894374 0.08086636 0.02126913
000150 5f 35 fb 3d bd e2 86 bc 50 77 75 3d 4f 1a 57 bd
       0.12266039 -0.01646554 0.05992824 -0.052515324
000160 e0 b5 61 3e 2e 1e 3d 3d 08 1a fd bc 8f 6d f7 bd
       0.22042036 0.04617136 -0.030896202 -0.120814435
000170 66 51 a8 3d bc 48 da bd 5c 97 6c 3e d3 88 16 bd
       0.082186505 -0.10658404 0.23104614 -0.03675158
000180 0f 62 69 3d 79 a4 81 3d 2e 9d 5a be 1e 60 ca 3d
       0.05697828 0.06330199 -0.21349022 0.09881614
000190 be b3 79 3e c5 e5 83 bd b0 bd 7d bd c4 4e 6a 3e
       0.24384972 -0.064403094 -0.06194848 0.22881609
0001a0 ad b9 ff bd ce fd a6 3d 9f eb 23 3e 4b 4b 82 3c
       -0.12486587 0.08153878 0.16007851 0.015905043
0001b0 55 0d bb 3c 18 f1 29 bd 20 df 31 3b 0d 3e 45 3c
       0.022833506 -0.04148969 0.002714105 0.01203872
0001c0 5f e6 94 3e 6a 58 68 3e 70 5a 4c be b7 53 53 3e
       0.2908201 0.22689977 -0.19956374 0.20637403
0001d0 f9 65 00 3e 0e 75 9f 3e 42 76 d3 bb 6f 4e 45 be
       0.125389 0.31143993 -0.0064533064 -0.19268201
0001e0 3d 76 8a 3e 6b ed 59 be 43 c4 9c 3d 66 73 47 3e
       0.27043334 -0.21281974 0.076546215 0.19477615
0001f0 fa 71 23 3e 6f f7 91 3e 9c 1b 5c bd 4d 03 96 bd
       0.15961447 0.2850909 -0.053737268 -0.07324848
000200 23 fc 85 3d f1 9e 49 3e 37 34 8f be 7e 65 44 3e
       0.06542232 0.19689538 -0.27969524 0.19179341
000210 16 c1 8d 3d b0 da 3e 3e b7 12 8d 3e 80 7c 11 be
       0.06921594 0.1863811 0.2755334 -0.14207649
000220 a9 86 32 bd bd b8 01 3e 63 aa a3 bb 41 ff 21 3e
       -0.043585453 0.12668128 -0.004994677 0.15820028
000230 44 c7 3b bd 3f c4 db bd e3 d8 f6 3d 6b eb a5 3d
       -0.04584433 -0.1073079 0.120530866 0.08101543
000240 0d 7d 0d 3e 13 2e 72 bd da 68 d9 bd ec cf 8b 3e
       0.13817234 -0.05912597 -0.10615702 0.2730707
000250 af 74 05 be 05 33 78 bb 0b 0f e9 bd 9b 88 9f bc
       -0.13032793 -0.0037872207 -0.11379822 -0.019474318
000260 cb 32 b2 3d c2 36 d5 3d 0a 01 84 3e ee 4c 0c 3e
       0.08701094 0.10410835 0.25782043 0.13701221
000270 f7 bc 49 3e 6a f4 4e 3c 81 c1 e6 3d 80 cc d4 bd
       0.1970099 0.012631515 0.11267377 -0.10390568
000280 68 ca c1 bd d9 7a 5c 3e 25 a2 85 3d f3 0e 57 bd
       -0.09462434 0.21531238 0.06525067 -0.05250449
000290 d1 d4 d5 3d 50 26 91 3d b8 29 a3 3d 7a 84 2f 3e
       0.10440982 0.07087386 0.079669416 0.1714038
0002a0 7c 2c d3 bd 95 52 47 be e0 da fe bd c9 45 1c 3e
       -0.10311219 -0.19465096 -0.12444091 0.15260996
0002b0 e1 28 d9 3d c9 62 98 3e 32 15 ec 3d c6 59 ad bd
       0.106035 0.29762867 0.1152748 -0.084643885
0002c0 c8 a8 07 be 57 8a 64 3d 37 f5 08 3e c1 cd ec bd
       -0.13247979 0.055795994 0.13374792 -0.11562682
0002d0 86 8c 0d be 7b b5 13 bc 1d 56 bf 3c 2f 85 63 3e
       -0.13823137 -0.009015436 0.023356492 0.22218774
0002e0 72 cc ed 3d 28 c3 42 3e a5 2f e4 3d e4 bb 01 3e
       0.116112605 0.19019759 0.111419 0.12669331
0002f0 af 4a f4 3d 54 78 23 3e 2e 4f 58 bd 02 9f 57 be
       0.11928307 0.1596387 -0.052809887 -0.2105675
000300 f1 5d a2 3d 0b 7a b5 bd 1f 92 42 be ca d1 d4 3c
       0.07928074 -0.088611685 -0.19001053 0.025978941
000310 f0 2d f6 3d 00 6c 39 bd cc 79 95 3e fe da 3d 3e
       0.12020481 -0.045269012 0.29194486 0.1854057
000320 3b b5 49 be e9 09 8b bd dd 8d 2d 3e 87 16 a0 bb
       -0.1969804 -0.067889996 0.16948648 -0.004885498
000330 ec a9 81 3e f2 ce 5c be a5 71 27 3e a8 3a 90 bd
       0.25324953 -0.21563318 0.16351946 -0.07042438
000340 5d 71 83 3e 12 5c ad 3c 6c 26 45 3e a4 9a 60 bd
       0.25672427 0.021162067 0.19252938 -0.054834977
000350 04 63 4d 3e 19 80 f4 bc c2 ca af be 7a 78 f3 bc
       0.20057303 -0.029846238 -0.3433438 -0.029720534
000360 83 62 78 bd e0 f4 cc 3d 9d 50 c4 3d eb 79 28 3e
       -0.060640823 0.10007644 0.09585688 0.16452758
000370 b5 e6 95 be 79 70 90 3d 29 95 1d 3e 14 fe 20 3d
       -0.29277578 0.070527025 0.15388931 0.039304808
000380 a8 48 86 3e 43 fc 49 3e f5 61 b5 3d 59 6e c3 3d
       0.26227307 0.19725136 0.088565744 0.095425315
000390 9f d2 d6 3c 97 c5 19 be e1 af 9b bb 3e 55 7e be
       0.026223479 -0.15016781 -0.004751191 -0.24837205
0003a0 3f a4 bb 3d bf 34 bb bb 20 1e ec 3e a2 55 c6 ba
       0.09162187 -0.005713075 0.46116734 -0.0015131722
0003b0 0f 33 0b 3e 22 d3 5d 3e 19 89 e2 bd c1 a5 86 3e
       0.13593696 0.21662572 -0.110613056 0.26298335
0003c0 de ba 8e be 9a 57 8d 3b a1 4f dc bd 8b 1f 1f 3e
       -0.27876943 0.0043134214 -0.107573755 0.15539376
0003d0 13 c9 57 3e bf 20 f0 bd 9f 3a 86 3c 0c 79 3e be
       0.21072797 -0.11724996 0.016385375 -0.18600863
0003e0 15 51 a5 3a a3 f4 83 be c9 f0 95 bd 77 db 8c be
       0.0012612665 -0.2577258 -0.07321317 -0.27511188
0003f0 a6 90 8c 3e 92 97 1a 3e 0f c7 d1 bd f7 56 92 3d
       0.27454108 0.15096882 -0.102430455 0.071454935

discrete_action_output_shape f4 [1, 2]
000000 00 00 a0 40 00 00 40 40
       5.0 3.0

network_body._body_endoder.seq_layers.0.bias f4 [256]
000000 9c 1a 27 3d 90 4c d4 bc 3d 0d 0c bc 3f 98 c0 bc
       0.04079686 -0.025915414 -0.008548078 -0.023510097
000010 f7 cd 1a be 7f 63 bd 3c 3b 98 9d bd 7a 91 9a bd
       -0.15117632 0.023118732 -0.07695051 -0.07547279
000020 f2 93 96 3c 8e 43 99 bc 92 44 08 bc a7 6d af bc
       0.018381093 -0.01870897 -0.00831713 -0.021414591
000030 3b 6a a9 bc 88 98 85 3d 88 e0 f5 3c 2c 05 5b 3d
       -0.020680537 0.06523234 0.030014291 0.05347173
000040 b5 e1 bd 3c 4c c4 3e 3a 94 b6 7c bd 10 8d fe 3d
       0.023178915 0.00072771753 -0.061697558 0.12429249
000050 94 57 de 3c 44 89 50 bd 7e da ec 3c 7c 41 79 3b
       0.02714137 -0.050912157 0.028912779 0.0038033416
000060 73 e5 7d 3d 87 fe bf bd 20 a2 5f 3c d5 23 9a bd
       0.061986398 -0.09374719 0.013649493 -0.07526366
000070 41 3c 65 bd 8d 26 98 3d e6 10 17 3a 3e cb 12 3e
       -0.055965666 0.07429228 0.0005762711 0.14335343
000080 47 61 2c 3d 74 a3 75 3d 95 0a a0 bd a7 d9 0d bd
       0.04208496 0.059970334 -0.07814518 -0.034631398
000090 14 05 c7 bc 77 f6 a5 3d d4 f2 82 bc 94 64 42 bd
       -0.024294414 0.0810365 -0.01598493 -0.0474592
0000a0 f6 f1 c0 3c 94 2f 6a bd d8 10 7f bd a9 b0 67 bc
       0.023552876 -0.05717428 -0.062271923 -0.01414124
0000b0 59 a4 c1 3d 13 88 60 3d 01 f1 97 3d f3 ef 3b 3c
       0.09455175 0.05481727 0.07419015 0.011470783
0000c0 d0 a0 ac 3c a5 f3 c3 3c 33 48 23 3e f9 c5 2a bc
       0.021072775 0.02391989 0.1594551 -0.010423177
0000d0 4e 36 93 3c 61 0c 0f be e9 f8 03 bc b5 5e 85 bd
       0.01797023 -0.13969566 -0.00805495 -0.065122046
0000e0 5d 11 f0 bc 21 a1 e3 3b 52 c0 7b bd 6a 02 ac 3d
       -0.029305154 0.0069466983 -0.061462708 0.08398898
0000f0 6c e2 ff 3d 4b db 8b 3b 9b ef 73 bd be 07 a6 bd
       0.124943584 0.004268085 -0.059554677 -0.081069455
000100 ab b7 b0 bc 52 24 c8 bd 8a d8 4b bd f4 a1 d5 3d
       -0.021571955 -0.097725525 -0.049767055 0.10431281
000110 99 e0 5b bd a6 15 42 3d bf d1 12 3c b4 8a a3 bc
       -0.05368099 0.047383927 0.00896114 -0.0199636
000120 e5 3d be 3c f1 66 47 bc a7 ad 16 3d cb 58 c4 3b
       0.023222873 -0.012170539 0.0367867 0.0059920303
000130 fd b0 95 3d 20 c8 0d bc 0e a8 39 3d 6e 46 01 bd
       0.073091485 -0.008653671 0.045326285 -0.031561308
000140 ce 14 f8 bb 48 65 f3 bb b4 a9 7f 3b 8f 0a af 3c
       -0.0075708395 -0.007427845 0.0039011063 0.02136734
000150 39 e0 57 3c d3 8d fa bc 3c e2 f7 bb 88 83 d7 3c
       0.013176017 -0.030585205 -0.007564811 0.026307836
000160 77 e1 8a 3b 87 19 80 bc db 3e ec 3c ea c5 b0 3d
       0.0042383033 -0.015637172 0.028838566 0.08631499
000170 40 84 d2 3d e6 e9 e0 bd c8 df fb 3c c4 9d 9f bd
       0.10279131 -0.109821126 0.030746356 -0.07793763
000180 ae 1f ed bb 7b 4f 15 be cc 73 e3 bc 63 b6 f9 3b
       -0.0072364425 -0.145811 -0.027765177 0.007620619
000190 f9 4d cd bc 99 7e 48 3d 6c 76 22 bd 0d 79 c8 bc
       -0.025061594 0.048948858 -0.039663717 -0.024471784
0001a0 52 44 b0 bc fc 0d 4c 3c f7 80 e3 bc 99 77 db 3b
       -0.021516953 0.012454506 -0.027771456 0.0066976068
0001b0 57 b5 31 3c cf a0 07 be 85 1e 77 bd 45 e0 1e 3d
       0.010846457 -0.13244937 -0.06033184 0.0387881
0001c0 ad da 3d 3b 7a bb 2a 3c 09 0d cb bc fe 40 12 3c
       0.0028969452 0.010420674 -0.02478649 0.008926628
0001d0 6e 73 5c ba a1 99 f2 bc 28 74 b2 bc 2e 7c 4d 3c
       -0.00084095343 -0.029614272 -0.021783903 0.012541814
0001e0 47 37 9b bd e1 98 9b bc 48 16 5d 3d 87 da e6 bd
       -0.07578903 -0.018993797 0.053976327 -0.112721495
0001f0 37 a4 35 bd 32 ba eb 3c 5f 11 d4 bc 72 da 37 bb
       -0.04434606 0.028775308 -0.02588719 -0.0028053788
000200 57 df 27 3d f2 f3 22 bd 8b de 26 3d 57 f1 41 3d
       0.040984478 -0.039783426 0.040739577 0.0473493
000210 85 83 ee 3b 25 67 5b bd 74 b0 13 bd 91 89 fa 3c
       0.007278862 -0.053565163 -0.03605695 0.030583175
000220 24 5a d7 bc 01 5a 1c 3d 48 74 49 3d c8 75 5c bc
       -0.0262881 0.038171772 0.04918316 -0.013455816
000230 8e 41 b9 3c 5e bb 04 bd 1a 72 ef bb 15 bb 0a 3e
       0.022614267 -0.03240525 -0.007307303 0.13547929
000240 6a 06 3b 3c d9 77 9f 3d 86 e7 ad 3d e0 03 8b 3d
       0.011415103 0.07786531 0.08491425 0.067878485
000250 6c f5 f3 bd 3e a4 8d 3d 42 2c 7b bd 10 bf a1 bd
       -0.11912045 0.06916092 -0.061321504 -0.078977704
000260 95 72 20 bd c9 6b 1e bd 6a c1 b5 3d 39 83 42 3c
       -0.039171774 -0.03867701 0.088747814 0.011872106
000270 cc a0 c5 3c 27 aa 1b bd a1 bb 19 bd 9e 80 3d bc
       0.024124525 -0.038004067 -0.037532452 -0.011566309
000280 7e 98 a3 3a 83 d0 3b bd 79 cb 9a bc 15 bf 03 3c
       0.0012481359 -0.04585315 -0.018895851 0.008041163
000290 b4 21 56 bd 41 dc cd 3c 3d d7 ae 3d 51 85 1d bd
       -0.052278236 0.02512944 0.08537147 -0.03845722
0002a0 ae cb ab bb 5c bc 8b bd 05 a9 92 3d 00 3b 04 bd
       -0.0052427864 -0.06823036 0.07161144 -0.03228283
0002b0 cc 07 81 bd 8d dc 8b bd 27 aa 77 bb f3 6f 8b bd
       -0.06300315 -0.06829176 -0.0037790628 -0.06808462
0002c0 f1 c6 cd bd 32 dc 16 be 53 99 a2 bd 5c ef 41 bd
       -0.10047711 -0.14732435 -0.079394005 -0.04734741
0002d0 06 22 2a 3d ce c7 02 3c 53 4c 2d 3d 18 d1 7e 3c
       0.041536354 0.007982207 0.042309117 0.0155527815
0002e0 3a 9e 3a 3d 2e 18 6e bd 6a 72 d2 3b 20 30 0f be
       0.045561053 -0.05812853 0.0064223306 -0.13983202
0002f0 87 94 d2 bd 46 47 84 bd 79 5e 8c bd 85 d4 8e bd
       -0.102822356 -0.06458907 -0.06853957 -0.06974129
000300 71 94 0a be 3f 73 ca 3b e2 02 98 3c 4e 7e 1b bd
       -0.13533188 0.006178289 0.018556062 -0.03796225
000310 40 80 c6 3d 39 43 9e bc 6e 28 29 bd f9 42 d6 bc
       0.096924305 -0.019319164 -0.041298322 -0.026154982
000320 a0 32 ff 3c 26 66 1e 3c 2a 87 57 bc 9e dc b0 3d
       0.03115207 0.009667909 -0.013154784 0.086358294
000330 14 9d 17 be a5 14 05 3c ab ab bb 3c 6b 06 0c bd
       -0.14806014 0.008122598 0.022909006 -0.03418581
000340 7f 12 00 3d 01 7a 8c bc b6 8d b2 3d b3 3c 0c bd
       0.03126764 -0.01714802 0.087184355 -0.034237575
000350 3b b2 b1 bd 82 8c c1 3c 47 52 6f bd 56 68 3e ba
       -0.08676573 0.02362657 -0.058428075 -0.0007263472
000360 79 76 96 bc 89 93 a0 3c 12 b8 5d 3c 8f be 9a 3d
       -0.018367039 0.0196016 0.013532655 0.075558774
000370 f9 24 d1 3d bf d7 98 bc 4b 28 c9 bc 71 8a 09 bd
       0.1021213 -0.018657563 -0.024555346 -0.033579294
000380 9e 4e 56 ba da 80 d8 3c 8c e9 36 3b 97 36 14 3d
       -0.0008175167 0.026428629 0.00279102 0.036184873
000390 49 c4 72 3c 27 b4 66 3d 6c 29 08 3d 48 95 85 3c
       0.014817306 0.05632415 0.033242628 0.016306534
0003a0 c0 24 3c 3c c5 2e bd bc e9 54 b5 bc 66 11 bc bb
       0.011483371 -0.02309359 -0.022135215 -0.0057393787
0003b0 c1 e1 77 bc 84 19 90 3d 09 b3 ee 3c 82 77 11 bc
       -0.0151295075 0.07036117 0.029138105 -0.008878591
0003c0 aa cc 8d 3c 42 af d2 bd 10 11 d7 bd 4f 85 40 bd
       0.017309505 -0.10287334 -0.10501301 -0.047002133
0003d0 50 da 75 bd e9 03 44 3b f6 06 95 bd 73 df b7 bd
       -0.060022652 0.0029909557 -0.07276718 -0.089781664
0003e0 24 e0 06 bc 39 2e 19 3c 47 7c 8c bd 3f 0a 89 bc
       -0.00823215 0.009349399 -0.068596415 -0.016728519
0003f0 1c e2 00 3d 34 8c 9d 3d 46 2a 25 bd 8c bb 83 3c
       0.031465635 0.07692757 -0.04032352 0.01608064

network_body._body_endoder.seq_layers.0.weight f4 [256, 622]
000000 8a c6 5b be bb 87 80 bc 9b 32 89 3e c0 c6 52 3e
       -0.21462455 -0.015689721 0.2679642 0.2058363
000010 69 59 09 be 63 8e 9e bd 98 f5 b9 3e cc e8 1c bd
       -0.13413014 -0.07742002 0.36320186 -0.03830795
000020 b2 2a 74 be f7 75 cf 3c d9 70 c0 3d 5f 2d 71 bd
       -0.23844412 0.025324805 0.09396524 -0.05888116
000030 3c fc c2 3d 60 ce 9f be 67 c3 17 be 70 67 5a be
       0.09520766 -0.3121214 -0.14820634 -0.21328521
000040 1b ea ca 3c ff 92 d7 bd a5 4d 53 3e e8 98 0b 3e
       0.024769833 -0.10526084 0.20635088 0.13632548
000050 94 08 a8 3e 4d 6b 54 bd d2 b3 ca 3d 79 e3 a7 3e
       0.32819045 -0.051860142 0.09897579 0.32790735
000060 a2 3c 37 be 2e 9e ed bd 14 90 5c 3d dc 4a 15 be
       -0.17894223 -0.11602436 0.05384834 -0.14579338
000070 55 e1 19 be ad ab 8a bd f0 bb 9c 3c ac 4a ef bd
       -0.15027364 -0.06771026 0.019132584 -0.116841644
000080 19 97 a7 be 06 bc fc 39 ac ec 8c be 06 45 1c bd
       -0.32732466 0.00048205274 -0.27524316 -0.038151763
000090 0c 85 89 bb c2 37 e3 3d f2 9b 46 bc 8e ef ab 3c
       -0.0041967686 0.11094619 -0.012122141 0.020988252
0000a0 c8 02 4b be 82 df 45 be d4 39 34 bf 7b 8a e7 bc
       -0.1982528 -0.19323543 -0.7040074 -0.028264275
0000b0 f1 6a 10 be 71 5b 19 3e 27 c4 26 be 8f 07 8e 3d
       -0.14103295 0.14976288 -0.16285764 0.069350354
0000c0 05 21 05 3e c5 11 23 3e c7 36 bd bd 03 2b e4 3c
       0.13000877 0.15924747 -0.092389636 0.02785254
0000d0 ca 14 6d be 19 17 eb 3d e4 9e ab be 12 75 c3 bb
       -0.23152462 0.11479015 -0.3351966 -0.0059648836
0000e0 6a af 08 bd 7f b6 1a be 77 2e 04 be 94 eb ac be
       -0.033370413 -0.15108679 -0.1290835 -0.33773482
0000f0 af 77 8a bc ee 41 e5 bc 87 a3 6a 3c 09 20 f1 bd
       -0.016902773 -0.02798554 0.0143212145 -0.11773688
000100 55 54 e8 bc 8d f6 9c 3e ef af df bd 2f 70 49 3c
       -0.028360525 0.30656853 -0.109222285 0.012294813
000110 03 53 9d be c7 f5 b0 bd f1 54 44 3e 37 8e 1a be
       -0.30727395 -0.08640628 0.19173028 -0.15093313
000120 65 d5 7c be af ce 76 3d 16 e5 1c 3e d2 5f 44 be
       -0.24690779 0.060255703 0.15321764 -0.19177178
000130 3d 9d 49 bd 8c 57 28 bc 8d d7 8a 3c ce 8b e6 ba
       -0.04922222 -0.010274779 0.016948486 -0.0017589272
000140 de f0 1a 3e 32 69 90 bb f2 ff 9e 3d 38 ea d2 3d
       0.15130946 -0.0044070715 0.077636614 0.1029858
000150 52 3e 21 be b4 77 87 3d 04 e9 84 be db 9b ee bd
       -0.1574643 0.066146284 -0.25959027 -0.11650821
000160 18 01 a5 bd b9 2b ca 3c 2a fe 27 be e4 51 0f be
       -0.08056849 0.024679052 -0.1640555 -0.13996083
000170 75 fe 91 be a4 eb f8 bd 28 ee 0c bc 6e c0 6f 3c
       -0.28514448 -0.1215432 -0.008601703 0.014633281
000180 62 42 6d bc 56 8c 21 be 22 ca 81 3c c9 56 80 3c
       -0.014481159 -0.1577619 0.015843455 0.015666382
000190 21 7c aa bc 23 7a 06 be 29 77 58 3d 2d a3 02 3d
       -0.020811142 -0.13132529 0.052848015 0.031893898
0001a0 15 53 bc bd 10 85 59 bc ba f5 c4 bd bc 90 28 bd
       -0.09195534 -0.0132763535 -0.09617181 -0.041153654
0001b0 f6 d4 e8 3c 3e 80 59 be 97 47 b2 3c f7 0c e7 3d
       0.02842186 -0.21240327 0.021762652 0.1128177
0001c0 ce 1e cd bc 97 16 16 3e 9f f3 d4 3c f4 e3 38 be
       -0.025039103 0.14657055 0.025995074 -0.18055707
0001d0 46 d7 bb 3d a3 01 b1 bd 37 5f ad 3e 06 91 34 bd
       0.091719195 -0.0864289 0.33861706 -0.044083618
0001e0 95 6a ab bc 68 3a 67 bb 68 87 b6 bd 9c f0 91 3c
       -0.020924846 -0.0035282616 -0.089125454 0.017814927
0001f0 a6 f0 52 bd df 43 13 bd 9e e0 34 3e 89 4a 31 3e
       -0.05149903 -0.0359534 0.1766381 0.17313589
000200 e0 da d0 be 7a 28 87 bd e2 b9 4b bd 14 05 82 3d
       -0.40791988 -0.06599517 -0.04973782 0.06348625
000210 e0 fa 9e 3b 8c 62 a3 bd c6 bb c7 bd 14 cb af 3d
       0.004851684 -0.07977781 -0.09752612 0.08583656
000220 c7 7c 22 3e f8 33 6d bd cd 86 ac bd 62 d3 82 bc
       0.15867911 -0.05791089 -0.08424149 -0.015969936
000230 d9 1b 58 3e 38 5a 90 3c 4e f2 5f be 32 b9 dd bd
       0.21104373 0.017621145 -0.21869776 -0.10826339
000240 d4 0e 0d 3e 8a c1 c1 bd e3 53 18 3e 11 16 ca 3c
       0.13775188 -0.09460743 0.1487575 0.024668725
000250 2b 91 de bd 1b d0 da bd 56 cf 1c 3e 1a d7 f3 bb
       -0.10867532 -0.10684224 0.15313467 -0.0074414136
000260 55 d3 22 be 36 28 c3 3d a7 63 4c be 40 26 c2 3e
       -0.1590093 0.09529154 -0.1995989 0.37919807
000270 c4 a3 91 bc 1f 72 04 be d9 23 1c 3b fb fa 81 3c
       -0.017778285 -0.12934159 0.0023825078 0.015866747
000280 59 48 1a be bb 48 97 bd bf 54 40 3d 2f 1d 86 3e
       -0.15066661 -0.07386919 0.04695582 0.2619414
000290 ea f9 24 3d 8f 03 53 be 95 36 9a 3d db e9 a3 bd
       0.0402774 -0.20606826 0.07529942 -0.08003589
0002a0 45 7e e2 3d 1e de bb bd 47 52 69 bc 11 b2 24 3e
       0.1105924 -0.09173225 -0.014240808 0.16083552
0002b0 e4 40 1e be fe 47 64 3e de 16 63 be cd 6b 4a 3c
       -0.15454441 0.22293088 -0.22176692 0.012354803
0002c0 c2 26 9e be 7c 18 5a 3d fd 43 4c bc 04 99 5d bd
       -0.30888945 0.053246006 -0.012467382 -0.054101005
0002d0 5c c1 cf bc 09 8d 69 be ff 5d ef 3d 1b a7 61 ba
       -0.025360756 -0.22807707 0.1168785 -0.00086079695
0002e0 4c 6e 25 be 83 6d 86 bd f8 95 a1 3d bf f6 c2 3c
       -0.16155356 -0.065638565 0.078899324 0.023799298
0002f0 64 a9 51 bd ff 50 ef 3d ad df 98 be 7e c2 69 3d
       -0.051186934 0.11685371 -0.2985815 0.057070248
000300 2f 17 a5 be 8a d4 6d 3d d1 ee 28 be 37 7a eb 3c
       -0.3224425 0.05806402 -0.16497351 0.0287448
000310 e4 39 c3 3d da 09 30 be 98 45 04 bd f1 9e 33 3e
       0.09532526 -0.17191258 -0.032292932 0.175411
000320 7a 13 87 3d a6 7f 30 bd 91 ad ee bd 1e 64 c0 3c
       0.06595512 -0.043090485 -0.11654199 0.02348524
000330 ff f4 6f 3d df 14 dc 3c 55 fe 00 be 28 82 d9 bd
       0.058583256 0.02686542 -0.1259702 -0.106205285
000340 f6 a7 86 3e c7 fc 81 3d 95 6f d7 3c 00 f3 8e 3d
       0.2630002 0.063470416 0.026298324 0.06979942
000350 f8 52 96 be 62 a5 96 3e 74 12 89 bc 7e 24 82 be
       -0.29360175 0.29423052 -0.016732432 -0.25418466
000360 23 17 ae bc 88 4c 01 be 7c 3c 93 3d 40 01 6e 3d
       -0.021251267 -0.1262685 0.07189271 0.05810666
000370 47 31 69 bd 7f e0 1d be 94 49 44 be 09 54 0d be
       -0.05693176 -0.1541767 -0.19168693 -0.13801588
000380 9d ea 0c 3d 9b e6 65 3d fa 50 a4 be 29 41 0a 3d
       0.034403432 0.056128126 -0.3209303 0.033753548
000390 df 2f 8c 3d ed 83 aa 3d 75 e1 c4 3d cc f2 0a be
       0.06845068 0.08325944 0.09613315 -0.13569182
0003a0 a0 09 36 be e1 20 33 bd 76 e3 3b be 65 07 d1 3e
       -0.17777109 -0.043732528 -0.18348488 0.40825954
0003b0 ef 12 0a 3d f8 9a 91 bd ad ec 64 be b0 6a 1d bd
       0.033709463 -0.07109636 -0.2235591 -0.038431823
0003c0 14 9f 66 be 4e 09 2f be dd 88 19 bd 25 68 66 3d
       -0.22521621 -0.17093393 -0.03748404 0.056251664
0003d0 a6 5b a1 bd b3 3f d2 3d 88 10 24 3d 43 d8 2f 3e
       -0.07878809 0.10266056 0.040054828 0.17172341
0003e0 18 a6 be 3d 47 4a 45 be a0 00 16 be 27 1d 4a bb
       0.093090236 -0.19266616 -0.14648676 -0.003084013
0003f0 ca a9 97 3d 09 b5 15 3d ce 83 7b bc b0 ab 87 be
       0.074054316 0.0365496 -0.015351249 -0.26498175

network_body._body_endoder.seq_layers.2.bias f4 [256]
000000 a6 62 6d 3c 66 33 be bd bb 8e 43 3d f6 52 69 3d
       0.014488852 -0.09287147 0.04774354 0.056963883
000010 e8 e5 95 3d 4d 0a 8b bd 12 9d be 3d 74 c1 5e 3c
       0.07319242 -0.06789074 0.093073025 0.0135959275
000020 0c d0 e8 bc 65 e5 55 bd b9 ec 28 3e 91 80 85 bd
       -0.028419517 -0.05222072 0.16496553 -0.06518663
000030 e3 b9 ce bd d1 62 7d bd 00 51 e1 bd 9d fd de bd
       -0.10094049 -0.061861817 -0.11001778 -0.10888217
000040 cc 0f 41 3d 5b da 05 be 57 bf ea 3d 09 9c a1 ba
       0.047134206 -0.13071577 0.114622764 -0.0012329827
000050 06 d3 90 bd bb 12 f8 3d ee bc 46 bd 36 c1 f5 bd
       -0.070714995 0.121129476 -0.04852002 -0.11999743
000060 d0 9b bd bd 07 43 51 bd c5 72 91 3d 42 00 d5 bc
       -0.092582345 -0.051089313 0.07101969 -0.0260011
000070 2d d4 5b bc 80 7b 68 be e1 4d f7 3d ae e5 02 be
       -0.013417286 -0.22703362 0.12075401 -0.12782928
000080 47 1a 3b 3b f6 4f c5 bd a6 ff f5 bd 47 70 b5 3d
       0.0028549598 -0.09634392 -0.12011652 0.08859306
000090 d6 46 8a bd 89 fa cf bc 11 ae 51 be fa 12 c9 3d
       -0.06751792 -0.02538802 -0.20476557 0.098180726
0000a0 ff 14 11 bd 12 3a f9 bc 62 7f 06 be 8a c7 94 bc
       -0.035420414 -0.030423198 -0.1313453 -0.018161554
0000b0 92 3c 1d be c9 0c 7c bc a9 a9 23 3e ca ae 5b 3d
       -0.15355137 -0.015383908 0.15982689 0.05363349
0000c0 2c c7 44 3c 1d cf fd bc 15 79 3f 3d ad 3f 85 3c
       0.012010377 -0.030982548 0.046746332 0.016265715
0000d0 7d be 89 bb 0a ac c3 3d 40 30 b1 bc ba 4d ca bd
       -0.004203616 0.09554298 -0.021629453 -0.098781064
0000e0 7b 2d c4 bd bf 8f 10 3e 79 81 91 bc 06 a7 e6 bd
       -0.09578987 0.14117335 -0.017761933 -0.11262326
0000f0 a3 92 6d bc 85 20 55 bc b7 72 f6 bd 87 b2 dc bd
       -0.014500293 -0.013008242 -0.12033599 -0.10776239
000100 db a2 9f bd 5b d0 e1 bb 43 9e df 3c 76 cf 8b bc
       -0.07794734 -0.006891293 0.027297145 -0.017066699
000110 75 ad 41 be aa 66 4e bd 76 83 87 bd 43 d7 1b 3e
       -0.18913825 -0.050390877 -0.06616871 0.15218835
000120 89 6f 96 bd 3c 4a cb bc bc 1f c9 3c 7c 5b 9f 3c
       -0.073454924 -0.024815671 0.024551265 0.019452803
000130 47 cd a2 bb 88 a6 7d 3d 9b f2 ac 3d 2f d4 1a be
       -0.0049683186 0.061926395 0.08444711 -0.15120004
000140 01 80 20 3c a7 77 82 bc 4e b6 1f be 59 7c 68 bd
       0.0097961435 -0.015926195 -0.15596887 -0.056759212
000150 a0 69 55 bd a0 92 ef bc ac 7c 6f bd 23 4b b8 bd
       -0.052102685 -0.029244721 -0.058468506 -0.08998706
000160 67 c8 ec bc 46 23 01 bd 73 a8 3e 3d 3d bd 53 bc
       -0.028904153 -0.03152778 0.046547364 -0.012923536
000170 1a 2c 26 be 2f ae 32 bd 93 27 3d 3e 03 8c 01 be
       -0.16227761 -0.043623146 0.18472128 -0.12651066
000180 e7 09 d8 3d 8c 32 03 be 61 03 be 3c c3 92 b6 3d
       0.10548764 -0.12812251 0.02319497 0.08914711
000190 c0 6a ee bd 4a f5 1d be 77 b6 ed bd 11 b5 13 be
       -0.11641455 -0.15425602 -0.11607068 -0.1442454
0001a0 a1 37 5d bd 84 62 a9 3d 37 bf f9 bd a4 69 b2 bd
       -0.05400813 0.082707435 -0.121946745 -0.087115556
0001b0 5d ba 4c be ec 75 bb bc 90 13 69 3c 7c 43 8f 3c
       -0.19992967 -0.022883378 0.0142258555 0.017488234
0001c0 70 01 c6 bd 09 cd f8 bd 82 ea b8 bc ca 42 5c 3d
       -0.09668243 -0.12148482 -0.02257276 0.053774633
0001d0 c3 ab 59 3d d8 ef 21 bd f2 e2 c8 bc 32 d6 cc bc
       0.05314232 -0.039535373 -0.024522278 -0.02500448
0001e0 93 71 6d bc 23 a4 47 bd e6 e7 7e bc 43 2e cf bd
       -0.01449241 -0.048740517 -0.015558219 -0.101162456
0001f0 12 fc 05 bd 65 ca 06 3d 85 69 ae 3c 74 9a 40 3a
       -0.032711096 0.032907862 0.02129055 0.0007347234
000200 c3 27 d4 bd 34 d8 67 be d9 c5 96 3c 63 c8 59 bd
       -0.103591464 -0.22641069 0.018404888 -0.05316962
000210 d5 eb 6b bd 1e 0b 25 be 6b ee c3 bd 80 3c 90 bc
       -0.057597954 -0.16117522 -0.09566959 -0.017606974
000220 a5 27 bf bd c1 23 96 bd 75 d0 e5 bc 17 76 27 bd
       -0.093337335 -0.07331038 -0.028053502 -0.040884104
000230 09 18 0b 3d f3 0a b7 bd a6 56 8e bd 24 62 81 3d
       0.03395847 -0.08937635 -0.06950121 0.06317547
000240 e3 52 e1 3d ae 63 91 bc e4 66 07 bd f7 44 ce bb
       0.110021375 -0.017747726 -0.03305711 -0.0062948423
000250 fb a9 8d bd c7 c5 b3 bd ee 43 3c bd de 12 08 3e
       -0.06917187 -0.087779574 -0.04596322 0.13288447
000260 59 81 23 be 3d 34 8c bd 19 4a 23 3b a6 da 70 3b
       -0.15967311 -0.06845901 0.0024915992 0.0036751418
000270 0d c9 84 3c 72 bc 46 3b 64 75 04 bc e3 41 c3 be
       0.01620915 0.0030324725 -0.008084629 -0.38136205
000280 75 27 94 bc 8e 2c 0c be 95 fa 96 bd 82 ed a2 bd
       -0.01808522 -0.13688871 -0.073720135 -0.07955457
000290 b4 4f 05 be f3 4b 21 be 8a 89 7c ba c4 34 92 bd
       -0.13018686 -0.15751629 -0.0009633532 -0.071389705
0002a0 c0 3e a8 3c 7e fd 18 be 61 93 83 3c c4 85 8f bd
       0.020537734 -0.1494045 0.016061487 -0.07007936
0002b0 10 e1 0b be da 8a 82 3c bb 29 94 bd e8 09 08 be
       -0.13660073 0.01593535 -0.07234522 -0.13285029
0002c0 23 ed 5b be b0 72 66 bd 84 5f 64 3b 7f 9a d6 bc
       -0.21477179 -0.05626172 0.003484697 -0.026196716
0002d0 81 78 34 bd ba 72 bc ba 69 e4 01 3d 67 09 9e be
       -0.044060234 -0.0014377453 0.03171197 -0.30866548
0002e0 cc 5c e0 bc 61 6b 4e 3d 8f d2 3b 3c 75 0a e0 bd
       -0.027387999 0.050395373 0.011463775 -0.109394945
0002f0 26 92 d8 3c a5 6f 0b be 01 56 b2 bd 4e 5e 2e be
       0.026436877 -0.13616808 -0.0870781 -0.17028162
000300 f1 7d d2 bd da ea 31 3d f6 f8 a8 bd da f1 47 be
       -0.10277928 0.043436863 -0.082506105 -0.19525853
000310 1a 2c 1c bd 1d 5d 20 3c 57 e3 95 bd 34 0b 60 bd
       -0.038127996 0.009787825 -0.07318752 -0.054698184
000320 1b de cc bd a9 89 42 bd ae 29 09 be b6 2a 2d 3d
       -0.10003301 -0.047494564 -0.13394806 0.04227706
000330 9c 59 3f bd 5b 20 6e 3d 0b b2 74 bc fa b4 a0 bd
       -0.046716318 0.058136325 -0.014935027 -0.078470185
000340 82 b1 91 3d 79 a1 a9 bd 8f 95 d1 3b 6d b8 6e 3c
       0.07113935 -0.082827516 0.0063960026 0.014570338
000350 46 58 c0 3b 59 dd f1 bd fe 5d 53 3d a5 50 1b be
       0.005869898 -0.11809797 0.05160331 -0.15167482
000360 ca e9 9b bd bb 28 1a bd 26 29 f3 bd ff 04 8e bc
       -0.07612951 -0.0376365 -0.11873083 -0.017336367
000370 21 0b 2c be 5c fd 58 bd 2b 59 56 be 6d 3c 7d bd
       -0.1680112 -0.052975997 -0.20932452 -0.061825205
000380 47 92 9c bd 5c f5 23 be 0d ab a7 be 30 10 51 3c
       -0.07645088 -0.16011566 -0.3274769 0.012760207
000390 65 be 9b bd ec e1 d7 bd f3 b2 67 bd 8c a9 0e bd
       -0.07604674 -0.10541138 -0.056567144 -0.03482966
0003a0 28 08 6a 3d fd d4 06 bd 94 3c 6c 3d 81 6b d1 bd
       0.057136685 -0.032917965 0.05767496 -0.10225583
0003b0 6f a7 bb bd ec a5 aa 3d 77 9c 78 bd 28 35 b5 bd
       -0.09162795 0.08332428 -0.06069609 -0.088480294
0003c0 02 8b d9 bd 55 94 1b be e7 d9 a1 bd f1 1a ef bd
       -0.10622217 -0.15193303 -0.0790289 -0.116750605
0003d0 a2 1d f1 bd dd e4 c0 bd 1a 7a f5 bd 69 95 03 be
       -0.1177323 -0.09418652 -0.1198618 -0.12849964
0003e0 0e 99 86 bb 99 04 17 3c 50 93 9a 3d c8 c3 a6 bd
       -0.004107601 0.009217405 0.07547629 -0.08142811
0003f0 e8 43 6b 3d c5 77 28 be c0 c8 9e 3d 4b ad c3 bc
       0.057437807 -0.16451938 0.07753134 -0.023886343

network_body._body_endoder.seq_layers.2.weight f4 [256, 256]
000000 e6 4d 46 be 11 33 ae be 33 75 f9 bd 11 dc 09 3d
       -0.19365653 -0.34023336 -0.12180557 0.033657137
000010 05 9f 41 3c c9 a1 24 be d0 3c 93 3e c8 f5 4b be
       0.011817698 -0.16077341 0.28757334 -0.19917977
000020 3f 41 e3 3c 9d cb bd 3d 29 06 f6 bd f9 2e 61 be
       0.027741073 0.09267352 -0.12012894 -0.21990575
000030 4f c1 6a 3e 43 82 fa bc 0f b8 15 be f1 b5 f2 3d
       0.22925304 -0.030579692 -0.14620994 0.11851109
000040 40 93 6d be 6f 74 1b 3e ec 1d eb be a9 a1 07 be
       -0.23200703 0.15181135 -0.45921266 -0.13245262
000050 4d 40 35 be 18 ae e0 bd f6 fb 57 3d 09 b6 ae 3d
       -0.1770031 -0.10970706 0.052730523 0.08530814
000060 01 02 87 3e 65 5c 71 bd 31 95 66 be 9d c0 4e 3e
       0.26368716 -0.058926005 -0.2251785 0.20190664
000070 dc 17 91 3d 6a 30 91 bd e7 7b e3 be f5 e5 89 3e
       0.07084629 -0.070893124 -0.44430467 0.26933256
000080 66 7f 8d 3d 3f d7 21 be 6b ed 08 be 63 62 c6 3d
       0.06909065 -0.15804766 -0.13371818 0.096867345
000090 c7 67 06 bd 8f 12 59 be 08 f1 78 be 24 55 07 be
       -0.032813814 -0.21198486 -0.24310696 -0.13216072
0000a0 9d d0 4c 3e 76 10 c9 3e fc 1e 38 3e de f4 82 3d
       0.20001455 0.3927037 0.1798057 0.06394361
0000b0 4d c9 68 3d 92 78 63 be fb 8f f2 3c 20 a4 fa bc
       0.0568326 -0.22213963 0.02960967 -0.030595839
0000c0 8b 35 bf 3d 3c 87 67 be 6e e6 17 3e 0f ed 4b 3e
       0.093363844 -0.22610182 0.14833996 0.1991465
0000d0 19 da 15 be 9c ab 04 3e bd 96 97 3d 06 10 5d 3e
       -0.14633979 0.12956089 0.07401798 0.21588144
0000e0 b6 93 b2 bd c8 90 c5 3c ac 66 a5 3d 7d c1 8f be
       -0.0871958 0.024116889 0.08076224 -0.28077307
0000f0 6f 57 91 be fe 5d 44 3e 78 17 43 be 81 f0 8d bc
       -0.2838702 0.1917648 -0.19051921 -0.017326595
000100 7b 1c 24 3e 29 fd 2b be 67 e1 d4 bd 1e 5e a8 3e
       0.1602649 -0.16795792 -0.103945546 0.32884306
000110 a2 0f 3b 3e d5 82 00 3e 89 be 2a be 16 05 a5 bd
       0.18267682 0.12549908 -0.16674246 -0.08057611
000120 8c 4a 5f be 7f 22 60 3e 76 d8 d3 bd 61 b0 36 be
       -0.21805781 0.21888159 -0.10344021 -0.1784072
000130 72 12 b7 3d f3 76 d1 bd 4f f6 df bd 80 4c 88 3e
       0.08939065 -0.10227766 -0.109356515 0.26620865
000140 bb 9c 98 39 1e 3d ea bd 9b d1 f7 bd 33 3e 99 be
       0.00029108473 -0.114374384 -0.12100526 -0.29930267
000150 17 bf f8 be 95 49 ee bd dd 40 93 bd 83 74 a7 3d
       -0.4858329 -0.116351284 -0.07190106 0.0817652
000160 b5 f0 14 3e f2 6f 4f 3e f4 54 97 3d 33 79 80 be
       0.14544947 0.20257547 0.073892504 -0.25092468
000170 ad ed 92 3d 33 94 58 bd 08 39 2a be 48 ed 9e be
       0.07174239 -0.05287571 -0.16623318 -0.31040406
000180 46 5a 13 be fb 95 91 be e9 1a 1b 3e 7e 53 84 be
       -0.14389905 -0.2843474 0.15146984 -0.2584495
000190 fb e0 03 3e 06 b9 da bb 5e bf e1 3e 5c e8 1d 3c
       0.12878792 -0.0066748885 0.44091314 0.009637918
0001a0 a9 33 22 be 8f d3 a8 be 67 c5 88 be 86 45 19 3e
       -0.1584002 -0.32973906 -0.26713106 0.14967927
0001b0 8d ea c5 3d 7f b7 c7 bd ad d2 c3 bd 48 d5 e3 3d
       0.09663878 -0.09751796 -0.095616676 0.111246645
0001c0 67 27 73 be 81 03 a1 3d 65 dc 1f 3d 51 84 06 bd
       -0.237455 0.078619964 0.039028544 -0.03284103
0001d0 2b bd 77 be 02 38 00 be 67 46 a0 bb 39 1e 80 3e
       -0.24193256 -0.12521365 -0.004891205 0.25023058
0001e0 23 6b 43 3e 4c 85 b8 be 82 1d 67 3c 67 47 a5 bd
       0.19083838 -0.36039197 0.014106156 -0.080702595
0001f0 4a 7d 5a be 47 2e 73 3d 99 e3 88 3d 7e 22 9f bd
       -0.21336856 0.059370305 0.06684036 -0.07770251
000200 2b b9 60 3b 1f 0d ca bd 33 38 b6 3d 4e 11 cd 3d
       0.0034290056 -0.09865784 0.08897438 0.10013066
000210 d5 9c 4d 3d 79 4b 1d be 1b 92 fd bd c0 95 2e be
       0.050198395 -0.15360822 -0.12381383 -0.17049313
000220 52 b5 31 3d ad dc 36 be 56 16 9c 3b ca c0 d9 3d
       0.04338581 -0.17857619 0.004763405 0.10632475
000230 74 73 2c be dd 4c 26 3e c5 d1 29 3d 85 82 4d be
       -0.16840917 0.16240259 0.041459817 -0.2006932
000240 03 49 a6 bb 0b 58 de be 42 52 78 be fe 3b 3d 3e
       -0.0050746216 -0.43426546 -0.24250129 0.18479916
000250 70 35 12 be a9 39 99 bd 81 d6 ae bd 03 c0 93 3d
       -0.14278197 -0.07481701 -0.08537007 0.07214358
000260 66 36 0b 3d e3 86 b5 be dd 7a 29 be 3f 7e c9 bd
       0.033987425 -0.35454473 -0.16550775 -0.09838533
000270 3b fe 60 3e 68 51 8b bd 19 37 a4 3d be c3 f6 bc
       0.21971981 -0.068026364 0.080183215 -0.030122634
000280 74 00 5a bb e1 7e 67 bd 4c 98 ae bd 51 f1 ed 3d
       -0.003326443 -0.056517486 -0.08525142 0.11618293
000290 0d 7d 89 be ce 13 8a bd f4 51 45 bd 56 29 86 3c
       -0.2685322 -0.06742059 -0.04817386 0.016377132
0002a0 ab 80 af 3e 30 5b 38 3d bc 67 58 3c dd e0 29 3e
       0.34277853 0.04500884 0.013208326 0.16589685
0002b0 04 5a e5 bd 9e 70 2a 3d 0c 30 21 bd 3b 88 7f 3c
       -0.1119881 0.041611306 -0.03935246 0.015596445
0002c0 da 74 43 3e 2b 9c dc bd 8b c9 30 be de 6e fd bd
       0.19087544 -0.10771974 -0.17264383 -0.12374662
0002d0 3e 18 a6 3e a2 62 20 be 1d 5b 47 be 12 39 b6 bd
       0.3244037 -0.15662625 -0.1946835 -0.08897604
0002e0 41 c4 fe bc 64 f2 81 be 87 67 5c be 14 63 af 3c
       -0.03109944 -0.25380242 -0.21523868 0.021409549
0002f0 40 8f 48 be ed 33 6c be 74 65 85 bd 58 e7 99 be
       -0.19585896 -0.23066683 -0.06513491 -0.30059314
000300 68 89 ed 3c ec c1 0a be 1e 57 67 3d 1f 4a 30 bd
       0.028996184 -0.13550538 0.056479566 -0.043039437
000310 52 fe af be 86 cc 57 be 33 1d 3a 3e 6a 38 92 be
       -0.34373719 -0.21074113 0.18175201 -0.28558666
000320 ec 3e ae 3d 22 5b 90 be e6 75 00 3c 54 f9 e7 3c
       0.08508095 -0.2819453 0.007840609 0.028317131
000330 a7 94 00 be e7 b7 1a bd a8 a1 09 be ab de c7 bd
       -0.12556706 -0.03777304 -0.13440573 -0.097592674
000340 bd e6 b3 3d dc 3f 8a be fc 90 4a be b0 00 84 3e
       0.08784244 -0.27001846 -0.1978187 0.25781775
000350 9b 73 b6 be 0f 57 16 3d 48 b3 b7 3e 4e ef 09 3e
       -0.35635075 0.03670412 0.35878968 0.13470194
000360 29 5f 22 3e 60 65 5d 3e 51 88 01 be de e8 65 be
       0.15856613 0.21620703 -0.12649657 -0.22452113
000370 47 c1 31 3d 80 e7 e2 3c 09 83 19 bd 8a 73 2a bc
       0.043397214 0.027698278 -0.03747848 -0.010403523
000380 50 24 1a bf 83 64 5b bd 7f e2 57 bd c0 9e 62 3e
       -0.6021166 -0.053562652 -0.052706238 0.22130871
000390 a7 3b b2 bd d0 e6 1c 3e 95 b0 78 3d 5a 3a e5 be
       -0.08702784 0.15322423 0.060715277 -0.4477108
0003a0 e4 62 4d be 40 9c 1f be 15 e1 f7 bd 8b 81 ea bd
       -0.20057255 -0.15586948 -0.12103478 -0.114504896
0003b0 0c 0e e4 bc cf 1c 4f be bc 76 04 be 3a d3 84 3c
       -0.02783873 -0.20225833 -0.12935919 0.016214002
0003c0 aa 91 61 be 3d 5f c3 bd fc 9c 86 bd 18 75 bc 3d
       -0.22028223 -0.0953965 -0.06572911 0.09202021
0003d0 71 e1 88 be 19 d2 80 be 8e 39 a3 bd a3 d0 8b 3d
       -0.26734498 -0.25160292 -0.07969962 0.06826904
0003e0 57 01 b1 bd 14 b3 e3 be c2 a0 85 be 46 60 0d bd
       -0.08642834 -0.44472563 -0.2609921 -0.03451564
0003f0 e3 15 2c be 0b 4e dd bd 49 c3 19 be 6a 8e b0 3d
       -0.16805224 -0.10805901 -0.15015902 0.08620913
