Assets/TFModels/Other models trained in the process/prova_curr_3M.onnx (onnx, 911175 bytes, 9 tensors)

action_model._discrete_distribution.branches.0.bias f4 [5]
00000000: ff69 0dbd 2ad6 be3d 9fbe 87bc 5765 95bd
00000010: c73d 353c
-0.034524914 0.09318192 -0.016570387 -0.0729472 0.011062092

action_model._discrete_distribution.branches.0.weight f4 [5, 256]
00000000: cba5 11be 79eb b3bd 1f39 12bd ab82 cfbd
00000010: cb04 b83d f7ad 833d 5167 4b3d d7c4 bf3d
00000020: 918c ed3d 5deb bb3d 6ed2 06bd 6ca5 b4bc
00000030: 27b6 48bd 53a8 5abd 08f3 3e3e 7f58 28bc
00000040: 07a8 ac3d 0b27 b0bd b1f6 39be ff8e 26bd
00000050: ded0 103e ff5d 9ebc 9279 75bd 982a 663e
00000060: eca3 e63c e3a0 2b3d 86ba dd3c 076f 7fbd
00000070: 7f7a 663d 4a1c 50bd 329f df3d 46cd a73d
00000080: e576 043e 5491 aa3d 2409 463d c05d 11bc
00000090: e48e 77bd e062 15be dbaf f33c 60a1 5ebd
000000a0: 35a8 7ebd 3907 b43d 9f77 8e3d 25b7 803d
000000b0: ca62 27ba 67fa 033e 3cf3 043c 380e 913d
000000c0: b12b 773d 678e daba a4df f93d 3638 443e
000000d0: 91e8 5e3b 000d 393d 7a94 34bd c5c3 32bd
000000e0: bed2 f4bd 6efc d73d 4810 333d dea1 cc3b
000000f0: 2a7e a53d c085 36bd c1a7 ec3d 4775 dd3d
00000100: 0c6a 5e3d 1e84 da3d 7358 5ebc 4bb3 b4bd
00000110: daaf 633d 1f5d 52be 56ca 933d 4e4f 013d
00000120: d672 4c3d 3cca 093e eda1 553c f97c 6f3d
00000130: df28 013e 6522 103e 6a52 0f3e 62ac 9a3d
00000140: 873d 80bd 4517 143d 5ef4 3f3e 444c 4c3c
00000150: 67e0 22bd aa66 1bbd a78f 5fbd 8eb7 623d
00000160: d2c9 bd3d 9aa8 9d3c 2c3c 0dbe 7f34 003d
00000170: 005e 003e fcfb 90bd 9e99 dcbb 3ad6 0d3e
00000180: b612 283a 86d5 1e3d df1f 2abe da79 9ebd
00000190: ea04 163d ff02 01be 5471 6a3d f528 93bd
000001a0: 8c01 31bc 82de fabc 31c2 3d3d 528f 92bc
000001b0: 7c05 80bd bd78 1f3d 50db df3d c4e1 da3d
000001c0: c01c a7bc 5679 003e a179 873d 37bb 133d
000001d0: 05ee 32bc e8d1 253c f7fc 643d d40c fc3d
000001e0: 1de4 003d 4ef9 8cbd 93d4 9fbb e543 d4bd
000001f0: e75b 393d 7098 243d e541 80bd a642 5cbd
00000200: 6252 c2bd 4c89 3b3c a524 ce3c 3e0e d5bc
00000210: 5e4b 84bd 05fa 16be 44a1 c8bd d3ca 463d
00000220: 2050 85bd b8bd 17be b1ae 543d 5cff 423d
00000230: 3323 53bc 1313 91bd 2670 e23d 4522 d2bd
00000240: fcfa 15bc c72a a7bd 1a4e d13d fa3a 2e3d
00000250: 239e 123e 3967 96bc 0646 9f3d 7274 813d
00000260: 841d 9fbd 94ea ee3d 910e e03c 88f7 49bd
00000270: 60d0 febc f257 893d a177 ee3d 1634 b33c
00000280: 6fbd 14bc c5ae f8bc 9253 1e3e f4d3 103e
00000290: 6e5a 953d f683 5ebb fb51 cabd 2133 243d
000002a0: 8cc0 de3d 9043 05be a369 4b3c eb4a c63d
000002b0: 8d73 413c ac18 083e 0d04 e13d e0d0 c33d
000002c0: adfd 1cbe d762 0b3c 68a0 853d 1f34 eabd
000002d0: bd16 1ebe 670f 0d3d 7826 3b3d 73e6 73bc
000002e0: e0eb b13b 9a8f 05bd fc84 a83d 6bfd 95bd
000002f0: a9ee c63d b729 053c 7ddc 2f3d 8bf3 133d
00000300: 5571 ad3d 8bc0 8bbd d4fc 0ebd ced8 8c3d
00000310: 7c64 a33d 1bd8 55bd e1d0 b0bd dcaf b03d
00000320: b387 613c 6ace e9bd 76ec d5bc 2a71 81bc
00000330: b729 ad3d 9f5b 113e 30e2 7fba d34e 8ebb
00000340: 49c9 a53d 2fe2 68bd bc54 35bd 51db 7ebd
00000350: 437f 56bd e651 27bd b238 8b37 2316 8bbd
00000360: 319c 283e acf1 d4bc 65cb 8fbe 5096 743c
00000370: fea2 e4bd fb3e 0c3c 058a a43d 8bda 113e
00000380: cc64 86bd e24b afbd d165 0f3d ae25 673c
00000390: 27e0 2a3a ecbc 233e 5fac c33d 062e a53d
000003a0: 7d80 763d 3ec5 d5bd 5c62 13bc a270 1e3c
000003b0: 36a9 04be 6aca 8f3d 0146 6fbd 1cbb 003d
000003c0: 6aae 153e 9604 7ebc 6647 8b3c a353 b93d
000003d0: 8185 fb3d 6de0 eb3d 050c b73d d592 d33c
000003e0: 99d0 30bd af6c 0abe 2cb7 613d 4b7a 46bd
000003f0: 7f52 ac3d 4c2b 403c b87f aabc bfae 153d
-0.14223401 -0.08785147 -0.035699006 -0.10132345 0.08985289 0.064296655 0.049659077 0.09363716
0.115990765 0.09175751 -0.032915525 -0.022051536 -0.04900184 -0.053383183 0.18647397 -0.010275005
0.08430486 -0.08601197 -0.18160512 -0.040663715 0.14142177 -0.01933193 -0.05993039 0.22477186
0.028154336 0.04190148 0.02706648 -0.062361743 0.056269165 -0.05080823 0.10919036 0.0819345
0.1293598 0.083285004 0.04834856 -0.008872449 -0.060439005 -0.14588499 0.02974694 -0.054353118
-0.062172133 0.0879044 0.0695641 0.06284932 -0.0006385265 0.1288849 0.008114632 0.0708279
0.0603444 -0.0016674519 0.12200859 0.19162068 0.0034013132 0.045178413 -0.04408691 -0.04364373
-0.119542584 0.10546194 0.0437167 0.006244882 0.080807045 -0.044561148 0.11555434 0.108133845
0.054300353 0.106697306 -0.013570893 -0.0882326 0.055587627 -0.20543335 0.07216327 0.03156977
0.049914204 0.13456053 0.013039094 0.058468793 0.12613247 0.1407562 0.13996282 0.07552411
-0.062617354 0.036155004 0.18745562 0.012469355 -0.039764788 -0.037939705 -0.054580357 0.055350833
0.0926701 0.019245435 -0.13792485 0.031300064 0.12535858 -0.07079312 -0.00673218 0.13851252
0.00064114796 0.03877785 -0.1661372 -0.07738085 0.03662578 -0.12598799 0.057236984 -0.07185546
-0.010803591 -0.030623678 0.046327773 -0.017890606 -0.06251046 0.038933504 0.109305024 0.106875926
-0.020399451 0.12546286 0.06614996 0.036067214 -0.010921006 0.010120846 0.05590531 0.12307134
0.031467546 -0.068834886 -0.0048776357 -0.10364512 0.04525366 0.04018444 -0.062625684 -0.0537745
-0.094883695 0.011446308 0.025163958 -0.026007768 -0.06459688 -0.14743812 -0.09796384 0.048533272
-0.06509423 -0.14818466 0.05192441 0.04760681 -0.01288681 -0.07083716 0.11056547 -0.10260443
-0.009154078 -0.08162456 0.10219975 0.042536713 0.14318137 -0.018359767 0.07777028 0.06321038
-0.077693015 0.11665836 0.027350696 -0.04930833 -0.03110522 0.06706227 0.11643911 0.021875422
-0.009078368 -0.030356774 0.15461567 0.14143354 0.07292639 -0.0033953167 -0.09878918 0.040087823
0.10876569 -0.13014054 0.0124153225 0.09682258 0.011807335 0.13290662 0.10987101 0.09561324
-0.15331145 0.008507452 0.06524736 -0.114357226 -0.15438361 0.034438517 0.045690984 -0.014886486
0.00542973 -0.032607652 0.0822849 -0.07323726 0.097134896 0.008127621 0.042934883 0.036120933
0.08468882 -0.06823834 -0.034909084 0.0687729 0.0797815 -0.052208047 -0.086335905 0.086272925
0.013765263 -0.114163235 -0.02611373 -0.015801031 0.08455222 0.14195107 -0.00097611826 -0.0043428927
0.08095033 -0.05685633 -0.044270262 -0.062220875 -0.05236746 -0.04084959 1.6596492e-05 -0.067913316
0.16465832 -0.025994144 -0.28084865 0.014928415 -0.11163901 0.008559938 0.08034138 0.14243524
-0.06562194 -0.085593954 0.03500921 0.014108105 0.00065183867 0.15990037 0.095543616 0.08065419
0.06018113 -0.104380116 -0.008995619 0.009670408 -0.12955174 0.07021029 -0.05841637 0.03142844
0.14617315 -0.015504023 0.017001819 0.090491556 0.12281323 0.11517415 0.089378394 0.02582685
-0.043167684 -0.13518022 0.055106327 -0.04845647 0.084141724 0.011729073 -0.020812854 0.036543604

action_model._discrete_distribution.branches.1.bias f4 [3]
00000000: 5e47 033e 747d febd 9935 91bc
0.12820193 -0.12426272 -0.017725753

action_model._discrete_distribution.branches.1.weight f4 [3, 256]
00000000: 1537 a73b 4710 903d 0beb 443d b885 92ba
00000010: 18d5 a73c c3f3 2a3d eae6 e73c 0883 4fbd
00000020: 8519 11bd 4713 0d3c 87f3 7cbc a16d 173e
00000030: 11fd a4bb c6b5 2f3d 9c76 2c3c 03e9 7f3d
00000040: 1118 5cbd 22ec 63bd 303b 5ebd cdc7 6abd
00000050: 5ee8 79bd 602c fcbc f501 9dbd b679 5e3d
00000060: 0c02 42bd b1cd 72bc 0b26 e0bd 7b20 e73c
00000070: ef3f 16bb 9132 123d 30d1 3a3d 1234 dd3c
00000080: fe7f e2bc 73b5 9cbc 10ca 203d 99ac 01be
00000090: f97d 313d 78fd 7ebc 1607 ec3d 9a56 b6bd
000000a0: 5ddc a83d 0a58 443e e62b 103e 7a9f 913d
000000b0: 4196 84bd d7e5 77be 40bd bebd cd67 1a3e
000000c0: dfbf 0fbe 1ff0 1f3d 81d8 873d e6ca 3a3d
000000d0: 5f3a 093e 5b83 5ebd eecc 173d ccb3 30bb
000000e0: dd1d de39 5502 c13d 0600 1abe 5c00 2dbe
000000f0: 9ccd b6bd 3fcc fc3b db02 b2bd 6d1f 70bd
00000100: 0522 0d3e bda5 a53d 675b d8bb 7799 f73c
00000110: ef20 183e fa61 ccbc 4bf8 083e 35a3 803d
00000120: f6d7 63bd 0ff7 af3c 5d23 ebbc 61a0 173e
00000130: b4f1 d3bd 1472 b7bd 1a65 74bd 3480 e53d
00000140: d757 83bc c70e e03d aab6 8ebd 7abb 313c
00000150: c4e5 aabd 18e9 a7bc 1bff 133c 1a4a d83d
00000160: 414d 60bb d53b 023e 9a05 07be 3bbe 38bc
00000170: 1811 b5bd ae16 953d 4c4e 4bbc 6400 a0bd
00000180: eac9 983d ef62 d23d c8fb 933c b8de b23c
00000190: 0d49 3bbd aeaa 573d 3e25 403d c2ba 27bc
000001a0: 492f 563d cf85 043d fbae c13b 32b8 943d
000001b0: 4f22 73bd 43d3 05be dd95 36bd a7f9 91bc
000001c0: d730 dc3d a468 ae3c 3c2f 10be d1c7 e3bc
000001d0: ed7e 9a3c f662 1ebd 5c14 bd3d dab1 0ebe
000001e0: 5448 483d 853e 4abe c3d5 853d 2041 5cbc
000001f0: 1251 603d 4a62 d33d b816 1cbe cb16 193e
00000200: 7535 babd e776 eabd 441f ad3d 8a46 9dbd
00000210: 0772 ecbc 4afe c83c 5ae8 553d d980 56bd
00000220: 4c0e 87bd 89b1 b93c 87b5 073e 3867 dbbd
00000230: c399 c33b 7402 42bd 6f91 09be ae18 4f3d
00000240: b52e 24bc d017 143d a71a 3abd 8cf6 c9bc
00000250: 3db9 373e 95a6 e53a 487e 4bbd 2b21 95bd
00000260: 2507 bfbd 5bf0 5cbd 9a41 293e c690 a4bd
00000270: 1507 f83d 1366 873c b363 983b 2b7c e43d
00000280: 13cb d63c 2f73 a53c 176b a8bd 5478 813d
00000290: 8472 b8bc e5d6 c7bd bfdb 00be b597 cd3b
000002a0: 3d93 6e3d f829 483d b469 b6bd 0a2f 2e3a
000002b0: a0f5 063e 0270 debd 234d 583e e8cd 103d
000002c0: c704 f23c e32d 083d c923 8dbd cfee 9dbb
000002d0: 0588 09be e04d f5bd 8fb0 833d 00c3 b43c
000002e0: 973d ce3d 6480 573d c419 c43c 1b5f 06be
000002f0: 2a01 77bd 429a 0c3e de3e 3abd 4126 5a3d
00000300: 5fb4 09be af15 0fbd 5464 df3d fbda d23d
00000310: 3e45 d9bd 0ea6 a7bd dbcb a2bd 9489 ecbc
00000320: 12d3 2bbe 0e9b 8abd 0040 f0bd 91cd 2bbc
00000330: 1e03 3bbc 9fbc 233e 5181 233c 3e17 933d
00000340: 565a 3f3d 113e 0c3c 6ed2 02be 2a81 06bd
00000350: 6367 24be 084a 48bc 6aa4 56bd 5d21 a0bd
00000360: e779 3a3c 0733 02bd f101 32bc 6c0a 98bd
00000370: b11f 023e 0bb2 b1bd fd22 ffbd 065f e4bb
00000380: 5080 e23d 23ce 93bb ae48 aa3b 4090 0fbd
00000390: 4005 fcbc 9610 25bd 88d0 a8bc af8a 803d
000003a0: d127 2e3e ea84 a23d 66ed b33d 9e80 a23d
000003b0: ec86 a0bd 53f6 383d 0c99 723b f66a 72bd
000003c0: 7377 b53d d0c8 b93d 7d7c d73d 7b6a 213d
000003d0: 4d79 80bd bc48 ca3d aad7 a5bc c2d8 3dbd
000003e0: ccd5 d63d 4c8c 98bd 8daa d43c e045 cd3d
000003f0: 97ca 40bd e632 bf3d a0c0 d23c 8e64 8dbd
0.005103002 0.07034355 0.048075717 -0.0011178767 0.020487353 0.041736376 0.02830835 -0.05066207
-0.035424728 0.008610553 -0.015438921 0.14787914 -0.0050350507 0.042897962 0.010526326 0.062478077
-0.05373389 -0.055645116 -0.054255664 -0.05731945 -0.06101262 -0.030782878 -0.07666389 0.05431529
-0.047365233 -0.014819548 -0.10944756 0.02821373 -0.002292629 0.035692755 0.045609653 0.027002368
-0.027648922 -0.01912949 0.0392552 -0.12663497 0.043333028 -0.015563361 0.11524789 -0.08903237
0.08245156 0.19174209 0.14079246 0.07110496 -0.06473971 -0.2420877 -0.0931344 0.1507866
-0.14038037 0.039047357 0.06633092 0.045603655 0.13401173 -0.05432449 0.03706067 -0.0026962636
0.0004236539 0.09424273 -0.15039071 -0.16894668 -0.089259356 0.0077147777 -0.08691951 -0.05862372
0.13782509 0.08088253 -0.006602693 0.030224545 0.14856313 -0.024949063 0.13375966 0.06281129
-0.05562588 0.021480111 -0.028703386 0.14807273 -0.103488356 -0.089573056 -0.05966673 0.112060934
-0.016033096 0.109403186 -0.06968434 0.010847921 -0.083446056 -0.02049689 0.00903299 0.10561009
-0.0034225734 0.12718137 -0.1318573 -0.011275823 -0.08841151 0.072797164 -0.012408804 -0.078125745
0.07460387 0.10272776 0.018064395 0.021834716 -0.045723964 0.052653007 0.046910517 -0.010237398
0.05229119 0.032354172 0.005910752 0.07261695 -0.05935889 -0.13068871 -0.044576515 -0.017819239
0.10751503 0.02129013 -0.14080518 -0.02780524 0.018859351 -0.038668595 0.09232399 -0.13935032
0.048897102 -0.19750412 0.065349124 -0.013443261 0.054764815 0.103214815 -0.15243042 0.14950101
-0.09092227 -0.1144846 0.08453229 -0.0767947 -0.028862966 0.024535317 0.05222354 -0.052368972
-0.06594524 0.022667663 0.13252841 -0.10713047 0.0059692576 -0.04736562 -0.13434385 0.050560646
-0.010020901 0.036155522 -0.045435574 -0.024653696 0.17941757 0.0017520959 -0.049680978 -0.07281717
-0.093275346 -0.05394016 0.16528931 -0.08035426 0.12110726 0.016528165 0.004650557 0.11156496
0.02621988 0.020196525 -0.08223551 0.06321779 -0.022515543 -0.09757785 -0.12583826 0.0062741884
0.058245886 0.04886815 -0.0890688 0.00066445826 0.13179636 -0.108612075 0.21123175 0.035352618
0.029543294 0.033246886 -0.06891591 -0.004819728 -0.13430794 -0.11977744 0.0643016 0.02206564
0.10070341 0.052612677 0.023938067 -0.13122217 -0.060303845 0.1373072 -0.04547011 0.053259138
-0.13447712 -0.03493279 0.10907808 0.102956735 -0.1060891 -0.08185969 -0.079490386 -0.028874196
-0.16779736 -0.067678556 -0.11730957 -0.010486023 -0.011414317 0.15989922 0.009979562 0.071821675
0.04671701 0.00855972 -0.12775585 -0.032838024 -0.16055064 -0.012224682 -0.05240289 -0.078188635
0.011381603 -0.031786945 -0.010864721 -0.07423863 0.12707402 -0.08676537 -0.12457845 -0.0069693355
0.1105963 -0.0045106574 0.0051966524 -0.035049677 -0.030764222 -0.04029902 -0.020607248 0.06276452
0.17007376 0.079355076 0.087855145 0.07934688 -0.07838234 0.045156788 0.0037017493 -0.059184037
0.08860674 0.09071505 0.10521791 0.03940819 -0.06273136 0.09877154 -0.020244438 -0.046349294
0.10489997 -0.074486345 0.025960231 0.10023093 -0.047068205 0.0933588 0.025726616 -0.06903945

discrete_action_output_shape f4 [1, 2]
00000000: 0000 a040 0000 4040
5.0 3.0

network_body._body_endoder.seq_layers.0.bias f4 [256]
00000000: 7c8c e3bc 0902 33bb ac9d 683d b50f b73d
00000010: 4aeb 78bd 25b5 9abc 87a3 0b3c d3b4 603e
00000020: 30db e3bd 7b83 e1bc 3f09 4dbc 200d 483d
00000030: 8de2 a93c 4d29 e6bc ddd5 a63c d4be 523b
00000040: 6636 b3bd 66b4 303d b99e 8bbc 7267 4a3d
00000050: f5a8 163d 2f2e bcbc 7992 923d 9705 ac3c
00000060: 5e33 e43d ca19 fc3b 6fdd aa3c 5fff e73c
00000070: 833b 0fbe 7fbc 55bd 01a5 363c 497d b73d
00000080: 7f78 e03c c92d 8cbd 08b4 c1bd 7d8a 90bd
00000090: 08fa 123d c14f 36bc 1c8a d33a 40a3 ce3c
000000a0: 382a 1abd 1a80 fb3c 584e 4f3b 2063 c8bc
000000b0: 89d6 8b3d b31c 81bc 5ddc 08bd da40 9ebd
000000c0: 2457 953d b833 09be 5417 bfba ac42 95bc
000000d0: ca5c f6bb 36a9 a4bd 03de 4dbd af1a 58bc
000000e0: f1f5 04bd e3e6 e13d a3fe abbd 7f04 a73d
000000f0: d797 65bb 8cab 2bbd 8065 21bd 839a 153d
00000100: 6e7d 4cbc 93e1 223d b8b3 4fbc f776 923c
00000110: 14e9 4cbb 9ea1 2a3a 6415 b33d abb5 70bc
00000120: 7c73 d8bc 1cec 163d 54a2 b73d 62e5 a63b
00000130: 5ae5 183d ee15 d13d b32a 2abc 5120 0e3d
00000140: 26f4 0cbc fe85 59bd e40d 4dbd e71a 7dbd
00000150: 5546 42bc 3740 c0bc 2aa9 6ebd be9f f0bc
00000160: 1538 e93b dd7c d23d fff6 25bc ed75 153e
00000170: fcc2 b93a 9adb 6a3b cfaa af3d 873b a9bd
00000180: 2c6d 4b3c be90 443d e083 da3c 8f2d 00bd
00000190: 4333 193d 2065 863d 65b0 67bd 597c 743c
000001a0: 93e1 16bd a300 833d fa29 c9bd bfe4 1abe
000001b0: af49 123c 7839 97bc a957 ce3d 31a8 f8bc
000001c0: 664f 093c 95c0 25bd 54ef 1e3d bcc5 11bd
000001d0: a1ac 3abd cf8b 943d c8e2 9abd f74e bfbd
000001e0: 001d 63bd 4bd1 a43d bd77 5cbc d6ad 02be
000001f0: daec e9bd 2863 6dbd 01a5 4e3d 418a 60bd
00000200: 4d61 fcbb cf8a b7bd 196e 8c3d 832a 4f3c
00000210: dcab 883c 8859 24bc 2f83 ccbd ea2e 85bd
00000220: 982b b7bc e7b1 eabc ee2b bbbb b1c6 7abd
00000230: 2dc0 09bd b4be 04bd 18b0 9c3d 0c1a 2fbd
00000240: 106d ae3d 91c4 c2bb 7821 94bd bb11 cbbc
00000250: 1abb 293d 3cc3 1b3e 277a 6ebc b490 8e3d
00000260: e36c 553d c9a9 ecbd 0a88 57bd 4a51 a2bd
00000270: 65d1 c93c 41b4 60bd 55a6 82bc f489 f53b
00000280: 9b49 8cbb e023 f2bc 5abd 63bd a3dc e4bb
00000290: d63c f43c bb29 87bd 6306 973c c1ef 143a
000002a0: 91b4 0f3d 447b cbbc f454 e3bc 8db4 10bd
000002b0: 5beb 2a3d bd64 8bb9 6338 c33d b6e5 9dbd
000002c0: c069 21bd 5e41 78bc d0cd 713d ccc2 f63c
000002d0: cdb0 44bd 6b4d bf39 6855 a9bd 7862 e03c
000002e0: 0b6e 463d 2aaa febd f35b f4bb 83dd 8cbd
000002f0: 6787 e2bd 6ab8 74bc 4801 1abd cd69 51bd
00000300: efe7 933d d6ee 69bc 1a80 11bb 6a83 60bd
00000310: 2f9e 493c 6ed9 e7ba 0f3b d3bc 00d4 41bc
00000320: 0294 3dbd 9767 36bd 2d49 bcbd b10f 183d
00000330: f858 c33b 51c1 0c3e 6fdc 3dbd 6027 d4bc
00000340: 455c bd3c d22b 023d 75f0 5fbd 8cc3 3cbd
00000350: da7c bdbc fa8c 333d 5c92 adbb 70a9 23bd
00000360: c118 28bd 7917 febd fa0f e8bc c1d5 39bd
00000370: 66a9 90bc d52f 2abd 45b3 8a3d b00f bd3c
00000380: 7f6d d0bc 0a60 ffbc 8306 463c c253 d93c
00000390: 5bff 04bd db30 82bb 0992 68bb 7ce0 35bc
000003a0: ea8d 933c 5001 713c 57c0 79bb 5371 1dbb
000003b0: 4041 9bbd b158 c83c 08d8 5ebd af58 f43c
000003c0: de3f c33d d811 863d 2d1a 15bc 513d 19bd
000003d0: 61fa cebd 458c 92bd fd18 95bc 2bb6 53bd
000003e0: 8569 f3bd 2061 0c3c 65d7 993d 3c87 55bd
000003f0: 6247 aa3c ad3d 7ebc 23e0 38bd 9342 f13c
-0.02777695 -0.0027314445 0.056790993 0.08938543 -0.060771264 -0.018885205 0.008522875 0.21943979
-0.11125791 -0.027528515 -0.0125144115 0.048840642 0.02073791 -0.028095866 0.02036565 0.00321572
-0.0875061 0.04314079 -0.017043458 0.04941506 0.036782224 -0.02297124 0.07156844 0.02099876
0.1114261 0.007693504 0.02085754 0.028320013 -0.13987546 -0.052181717 0.011147738 0.08959443
0.027401207 -0.0684467 -0.09458166 -0.070576645 0.03588298 -0.011127413 0.0016139182 0.025224328
-0.03763792 0.030700732 0.003163239 -0.024461329 0.06828029 -0.015760755 -0.03341328 -0.07727213
0.072920114 -0.13398635 -0.0014579096 -0.018220268 -0.0075183855 -0.08040087 -0.050260555 -0.013189956
-0.03246111 0.11030366 -0.083981775 0.081551544 -0.003503313 -0.041911647 -0.03940344 0.036524307
-0.012481077 0.039765906 -0.012677126 0.017878992 -0.0031266855 0.0006509068 0.08744314 -0.0146917505
-0.026422255 0.036846265 0.089665085 0.0050932625 0.0373281 0.10209261 -0.010386157 0.034698788
-0.008603131 -0.0531063 -0.050062075 -0.061793234 -0.011857589 -0.02346812 -0.058266796 -0.029373046
0.007117281 0.10277722 -0.010129689 0.14595766 0.001417249 0.003583646 0.08577501 -0.08263307
0.012416165 0.0479896 0.026674211 -0.031293448 0.037402403 0.06562257 -0.056564707 0.014922225
-0.036836218 0.06396606 -0.098224595 -0.15126322 0.0089287 -0.01846002 0.100753136 -0.030353637
0.0083807465 -0.040466864 0.03880246 -0.035588965 -0.045574788 0.07253229 -0.07562786 -0.09341233
-0.05544758 0.08047732 -0.013456282 -0.12761626 -0.11422129 -0.05795589 0.05045033 -0.05481935
-0.007702029 -0.089620225 0.06856937 0.012644413 0.016683511 -0.010031112 -0.09985959 -0.06503089
-0.022359654 -0.028649284 -0.005712024 -0.061224643 -0.03363054 -0.03240843 0.07650775 -0.04274945
0.08516896 -0.0059438427 -0.07232946 -0.024788728 0.0414382 0.15211195 -0.014555491 0.06961194
0.052105796 -0.115558214 -0.05261997 -0.07925661 0.02463598 -0.054859404 -0.015948454 0.007493252
-0.0042812354 -0.029558122 -0.0556005 -0.0069843098 0.029814165 -0.06599756 0.018435663 0.0005681478
0.03508431 -0.024839051 -0.02775047 -0.035328437 0.04172836 -0.00026587202 0.09532239 -0.077098295
-0.03940749 -0.0151523035 0.05903417 0.030122183 -0.048020173 0.0003648804 -0.08268243 0.027390704
0.04844479 -0.124348 -0.0074572503 -0.068781875 -0.11060982 -0.014936546 -0.03759888 -0.05112629
0.07221972 -0.014278134 -0.0022201599 -0.054812826 0.01230578 -0.00176887 -0.025784997 -0.01183033
-0.04628373 -0.044532385 -0.09193645 0.03712434 0.0059615336 0.1374562 -0.0463528 -0.025897682
0.023115287 0.03178007 -0.054672677 -0.046084926 -0.023130823 0.043835618 -0.0052969884 -0.03995651
-0.041039232 -0.12406821 -0.02832793 -0.045369867 -0.0176589 -0.041549522 0.06772474 0.02307877
-0.025442837 -0.031173725 0.012086513 0.026529197 -0.03247009 -0.003973109 -0.0035487434 -0.0111008845
0.018012006 0.014709786 -0.0038109028 -0.0024023845 -0.07580805 0.024456354 -0.054405242 0.029827444
0.09533666 0.06546372 -0.009100479 -0.03741199 -0.1010635 -0.071556605 -0.018200392 -0.0516874
-0.11885361 0.008568078 0.07511786 -0.052130923 0.020785991 -0.015517634 -0.04513563 0.02945069

network_body._body_endoder.seq_layers.0.weight f4 [256, 621]
00000000: f340 a7bb ec24 1f3e 4756 33be a323 a5bd
00000010: e107 9a3b c17b 1f3e 80fc d13c 7f0c 3ebd
00000020: 688c b73d f77d 063e 8a8d 253d be8d 0a3d
00000030: ff26 fdbd 3ba2 ae3c d48b 05be d746 f0bd
00000040: 1ecc 2fbe 04c7 363c a82a a3bd 30ef a63c
00000050: c993 a43c 6e14 14bd b9b2 243e 902f f73b
00000060: 76da c6bd 4c9a b23c 6f07 003e af5d a73d
00000070: 0d06 703e 2a4e 123e d1c0 883c dbee 253b
00000080: cda4 673d 0bf2 dd3c daf0 a4bd 8b91 53bc
00000090: f5e2 cbbc 8a9e 763d 5f45 083e 3efe ab3b
000000a0: 0bd0 a53d f6bc fdbd f1a2 a8bc b156 e4bd
000000b0: 6ef8 7dbc 37b5 8d3c 7c21 36bc 0d90 d23d
000000c0: 3ef1 4a3e a7c4 023e 6aa5 183d 969b 5bbd
000000d0: 5e58 183d 667c 0fbc 0de3 fcbc 86db e53d
000000e0: 3fe1 743e 2a81 e3bc 128c ea3d 5e0b d7bc
000000f0: cb1f 423d f9be 37be f0d9 19be da90 9f3c
00000100: 87ba 733d 27ff df3d cb09 af3d af3a 3abd
00000110: 96d9 1bbe 038a dfbd d0f3 b2bd 50bc 40bd
00000120: 849d 393b 0240 26be f48e 1ebe 76a2 3fbd
00000130: 090f 723d 9be8 963e 001a 373d 8a04 1a3e
00000140: 9b93 113d 044e 903d ee66 0fbd 25e6 a1bd
00000150: 5a9f e2bd b929 893d f438 1e3e c9d9 c63d
00000160: 0355 f7bc 4fb3 843d 43e9 393c 550a 0a3d
00000170: b8c9 d73a 754b 6b3d 3b34 cebd 8664 963d
00000180: 3838 183e fc9a 763d d2a2 9bbd ff04 6bba
00000190: 045f 0f3e 3f8b 09be b31d 15be 61b3 8b3d
000001a0: 1b8e 41bd 397a e03d e388 073c b19d c0bc
000001b0: e11b 2e3d def8 d0bc f480 213e 53fe 8bbd
000001c0: f610 bfbc a0c9 ffbc 5c45 3d3e c21e 423b
000001d0: b533 af3c 4703 4cbd 9c35 373d 3811 19bd
000001e0: 524d 63bd 49dc bd3d b9ff f7bc 5c33 5d3d
000001f0: 503c 9dbd 5478 49bd d669 9d3d dea2 bcbc
00000200: 9fed 84bd 1475 ba3c 5d00 7bbb 8b1a 4cbe
00000210: 5737 163e 537d 1fbd b21a 00bd 9982 c93a
00000220: 9182 243d bdad 963d 6144 953c 1a69 9537
00000230: 42ad 39bd c751 0e3e 51c9 ff3c 32ea 5ebd
00000240: 49ae c53d eecf eebd 2991 c8be 2bc5 b7bc
00000250: f086 aa3d ef37 3ebb 2b17 dc3b 055c 88bd
00000260: 6036 61bd b718 b4bc e7a9 54bd be46 1bbd
00000270: 0c76 5e3d f509 1c3d 29ea 5bbd 32ab 2dbd
00000280: 4524 a43d 9a57 5e3c bc26 e23d da51 1fbe
00000290: a9ce a3be cbfd dfbd 5645 a93d 6c97 36bd
000002a0: 3735 af3d 056f 6cbd 9efb 51bb 44da c43d
000002b0: a710 54bd 6c11 3bbe 9098 c03c c188 b93d
000002c0: 50e9 e3bd 15d9 393e 4e0a bfbd ffb9 a1bd
000002d0: 83c1 fe3d c1e8 71bd c4a7 29bc 085d 2e3d
000002e0: 3055 693d 1a19 8bbd bb8d 873d 4386 c43c
000002f0: 7951 c4bd d5c7 103e 08e6 a6be 97fb 9dbe
00000300: a387 3f3e db2b 103e f1db 5a3e 36a2 35bd
00000310: c4de aebc 1d0c b1bd b83f ae3d 6b75 1c3d
00000320: 6a02 833e bd1a 5cbd f0db e4bb abb2 a33d
00000330: 92b0 063e be4f ae3d b037 a4bd a7c6 4f3e
00000340: de0e 1cbe 3dd1 c6be 72f8 6f3d 8a2b f53d
00000350: c83f 8db9 ee96 403e add4 71bd 370d 863c
00000360: 3882 73bc 8d47 c3bc 78ae bbbd 5e73 af3c
00000370: af07 ce3d ad96 7a3e 59d4 493d ef9c 3fbd
00000380: ed9d a13d 5453 8e3d 2ad1 e3bc 6ad6 10be
00000390: 216c 9f3d 2474 ff3d 7ef5 1f3e 3ab8 6e3d
000003a0: fabb 113d 868d 253d f552 d13d 4134 3bbd
000003b0: c658 ae3d 5613 133d 69f7 e13d a61b 17bd
000003c0: 3fb3 14bd db19 fbbd ef7f ee3d 5e9e 5abd
000003d0: bf86 a6bd a4df 00be f468 93bd f565 d43d
000003e0: 0675 0c3d 4267 3a3e e441 e43c 8bea a5bc
000003f0: 9484 31ba 32d3 a1bd f4b2 6e3d c639 b63d
-0.005104178 0.15541428 -0.17513381 -0.08063438 0.0047006463 0.15574552 0.025633097 -0.046398636
0.08962327 0.1313399 0.040418185 0.033826582 -0.123609535 0.021317592 -0.13041621 -0.11732262
-0.17167708 0.011155847 -0.079671204 0.020377725 0.02009 -0.036152296 0.16083802 0.0075435117
-0.09709637 0.02180209 0.12502836 0.081721656 0.23439808 0.1428763 0.016693505 0.002531937
0.05655365 0.027092954 -0.08053751 -0.012913118 -0.024888495 0.06020979 0.13307713 0.005248814
0.08096322 -0.12389557 -0.020585509 -0.111493476 -0.015501125 0.017298324 -0.011116382 0.10281382
0.19818589 0.1277033 0.037267126 -0.053615175 0.03719365 -0.008757686 -0.030869985 0.112235114
0.2391405 -0.027771551 0.114524975 -0.026250537 0.0473936 -0.17943944 -0.15024543 0.01947825
0.05950406 0.10937338 0.0854679 -0.04546612 -0.15219721 -0.109149955 -0.0873791 -0.04705459
0.0028322646 -0.16235355 -0.1548422 -0.046785794 0.05909637 0.2947434 0.04470253 0.15040794
0.03554116 0.0704613 -0.03501027 -0.07905225 -0.1106555 0.06697411 0.15451413 0.09709508
-0.030191904 0.06479513 0.011347118 0.03370126 0.0016463315 0.05744501 -0.10068556 0.07343392
0.14865196 0.0602064 -0.07599415 -0.0008965283 0.1400109 -0.13432024 -0.1456211 0.06821323
-0.047254663 0.10960812 0.008272382 -0.023512693 0.042507056 -0.025509294 0.15771848 -0.06835618
-0.023323517 -0.031224072 0.1848349 0.0029620384 0.02138696 -0.049807813 0.04472886 -0.037369937
-0.05549366 0.09270532 -0.030273305 0.05400406 -0.07677519 -0.04918702 0.07686202 -0.02302688
-0.06490635 0.022760905 -0.0038299777 -0.19932 0.14669548 -0.038937878 -0.03127546 0.0015374004
0.04016358 0.07357357 0.018221082 1.7811126e-05 -0.045331247 0.13898383 0.031223925 -0.054422565
0.09652383 -0.11660753 -0.39173248 -0.022432884 0.083265185 -0.0029025038 0.006716629 -0.06658176
-0.054983497 -0.021984441 -0.051919844 -0.037909262 0.054311797 0.038095433 -0.05369011 -0.042399593
0.0801473 0.0135706905 0.11042544 -0.15558568 -0.31993607 -0.10937079 0.08265178 -0.044578
0.08555072 -0.057723064 -0.0032040845 0.09611943 -0.051773693 -0.18268365 0.023510247 0.09059287
-0.11128485 0.18149216 -0.09328137 -0.07896804 0.12439253 -0.059059862 -0.01035494 0.04256919
0.056966007 -0.06791897 0.0661883 0.023989802 -0.09585852 0.1413873 -0.32597375 -0.3085601
0.18704085 0.1407923 0.21372963 -0.04434415 -0.021346457 -0.086448886 0.08508247 0.038197916
0.2558778 -0.053736437 -0.0069842264 0.079930626 0.13153294 0.08511303 -0.08018434 0.20290624
-0.15240046 -0.3883151 0.058586545 0.11971195 -0.00026941136 0.18807575 -0.059040714 0.016363723
-0.01486259 -0.023837829 -0.09164137 0.021417316 0.10060059 0.24471541 0.049274776 -0.046780523
0.0789145 0.06949487 -0.027809698 -0.14144292 0.07784296 0.12473324 0.15620992 0.05828116
0.03557966 0.04041817 0.10220901 -0.04570413 0.08513026 0.035907112 0.11033518 -0.036891602
-0.036303755 -0.12260791 0.11645495 -0.053373687 -0.081311695 -0.12585312 -0.071977526 0.10371009
0.03429129 0.18203452 0.02786345 -0.02025344 -0.000677177 -0.079016104 0.05827613 0.08897738

network_body._body_endoder.seq_layers.2.bias f4 [256]
00000000: 289e 82bd 2ec0 0c3d 5eab f13c 2735 9fbc
00000010: c51c 14bd f16f a7bd 7539 74bd 43c1 50be
00000020: 2e81 9bbd 347d 8fbd 2f5c a0bc a9d1 f73d
00000030: f4cc 88bc e0d1 6fbd 4c87 39be f219 d3bc
00000040: 434f 09bd 1906 80bd 6d5c 30bd c8dc 99bd
00000050: 96bb 23be 4212 eabd f74d 82bd f656 8a3d
00000060: b7b9 89bd c869 39bd c71b 9fbd be90 3cbd
00000070: c144 8cbd fc98 28bd ee79 a33c 1971 96bb
00000080: f56f 76bd 3947 92bd bc09 49bd 07f5 92bc
00000090: 8920 8e3d ab4f 21bd c6a4 0d3d b788 04bd
000000a0: 18c8 24bc 9a4e 233d bd12 183d 3276 c9bd
000000b0: a947 9dbd ec82 25be fc09 b2bd ddb4 2b3d
000000c0: 69fa fabd 251d 9dbc 2863 6139 2d9a a0bc
000000d0: cb56 023d 036b 11be 2ad0 bcbb 14f7 ae3c
000000e0: 5405 cd3b 8408 263d f8d9 413c 177a 2abe
000000f0: fc00 8bbe a571 d9ba 9687 14be 2317 f1bd
00000100: 29c4 203d c252 c43c ba2c e6bc 6dc0 92bd
00000110: d0a6 2a3d 9537 c4bc 166c 7c3d fdc5 753b
00000120: b492 49bb 0e93 efbc 1786 dfbd 5d7c 0cbc
00000130: dead cdbd b389 30be 2c14 9bbd 2582 a73d
00000140: ac23 263d 3c86 5cbd 4f97 e2bd 80d9 9fbd
00000150: 6e1e 19bd 93ef d63a fac7 0c3d 52e2 ce3c
00000160: 4663 bebd 7f58 103d acb8 ecbd c3b3 cebc
00000170: 3d8c 55bb 7458 54bc 0f6a b5bd fd59 5dbe
00000180: 76a3 863b fd97 4fbc 1b94 26bd 92c6 083d
00000190: 35ce 9dbd de65 0ebd d6bd 5fbc db91 01bd
000001a0: e160 46bd 0ed2 883c c283 d2bc c9c5 1cbd
000001b0: 1fe8 1abe c73f 2ebd 9823 f0bd 0781 5a3b
000001c0: 4a72 d33d bfcb bfbd 8be8 2abd b873 44bd
000001d0: 8afb b13b 475e 3ebd 26ce b93c cc74 afbd
000001e0: 37ff b0bc 9b62 39be 846f e2bc 6d34 743b
000001f0: dee1 4cbd 8c6d 173c 066d 38be 6c8a 0d3c
00000200: 2140 91bb 6e75 3cbe 3515 03bc e317 aabd
00000210: 084f a7bc 0f27 7abd edcb d03d b2d2 0bbd
00000220: f2c7 abbd 7686 dcbc abb2 efbc 35fd 96bd
00000230: a1f3 693d 3b78 13bd 640b fcbd 153f e83d
00000240: b031 5a3a b879 853b 56ae 19be 6ad3 37bc
00000250: d538 4c3d f26d 54bc a05b ddbb c642 363c
00000260: d506 08be d421 d7bd 1235 243d 552f 04be
00000270: 721b 2b3d 6ef0 5e3c f81a 5d3d 24a6 83bb
00000280: 60e7 7abd db39 f6bc a614 febd b423 10bd
00000290: 5fa1 86bd 80ba d3bd 8f97 e2bd c777 a3bd
000002a0: 5337 d13d 491c f83d 8cbf 1fbe 56aa f23b
000002b0: 8718 913d 5578 06be 7d16 d03d b32f e4bd
000002c0: ce84 8cbc ad86 53bd ac31 d0bd 2372 413d
000002d0: b001 b6bd 88bb 18be 8568 3cbd ddd1 cfbc
000002e0: bfdd cfbc 0aba b33b febc 3cbc 6aec 0bbe
000002f0: 584e c3bd cdca a93d 23fa 02bc 5827 b7bd
00000300: 7ecf 8cbd afdd 1fbd c401 e03c 6360 073d
00000310: 4a47 13be ad3a 2cbe d50d 83bd 7134 c8bc
00000320: 6a69 02be 4cb2 c8bd 6765 7bbd a72a 9bbd
00000330: 8708 85bd dedd d33c c24d d0bb aa51 03bd
00000340: caf2 a8bc b487 a33d 9dca ab3a 78e6 12bd
00000350: 5a7e e5bd d489 6fbd 93a0 69bd a176 82bd
00000360: d22d 99bd 7b18 08be faac e43b 962d 0ebe
00000370: 115b 983c 2ecd 2bbc d536 e0bd 4d9b 41bd
00000380: 2643 223d af02 a2bd 4d02 7abd 76bc e6bc
00000390: a5b2 963c 4ac3 44be 625a a8bd 070f 4bbd
000003a0: 757d e53a aa01 5bbd 9dbb f4bc 75a1 4abc
000003b0: e6ca ffbc ab20 09bd 05bd 97bd 8855 21bd
000003c0: 37cb cabd 57a8 033c 8ac2 1a3d 2494 75bd
000003d0: 0f80 bdbd c9ac 153b 8814 c0bd 2efd 71bd
000003e0: 3c0c 7e3d fc84 3dbd 946e 06bd 036a aebc
000003f0: 7187 a4bd 1844 b03c 59b4 22bd e449 10bd
-0.06377822 0.034362964 0.02950066 -0.019434525 -0.03616025 -0.08175648 -0.059625108 -0.20386223
-0.075929984 -0.070063025 -0.019575207 0.121005364 -0.016699292 -0.05854976 -0.18118018 -0.025769208
-0.033522855 -0.06251163 -0.043056894 -0.07512814 -0.15989527 -0.11429264 -0.06362527 0.06754868
-0.067248754 -0.045266896 -0.0776897 -0.046036474 -0.06849051 -0.041161522 0.019955602 -0.004591119
-0.060165364 -0.07142491 -0.04908155 -0.017939104 0.06939799 -0.039382618 0.03458097 -0.032356944
-0.010057472 0.039869882 0.037127245 -0.09836997 -0.07679684 -0.16163224 -0.086933106 0.04192053
-0.12254793 -0.019178936 0.0002149461 -0.019604767 0.031821053 -0.14200978 -0.00576212 0.02135805
0.0062567387 0.040535465 0.011831753 -0.16648136 -0.2714919 -0.0016589655 -0.14504847 -0.11771991
0.039249573 0.023965243 -0.0280975 -0.071656086 0.04166299 -0.023952285 0.061626516 0.0037502043
-0.0030757608 -0.029244926 -0.109142475 -0.008574572 -0.10042928 -0.17240028 -0.07572207 0.0817912
0.040561363 -0.053838953 -0.11064016 -0.07805157 -0.037382536 0.0016398303 0.0343704 0.025254402
-0.09296279 0.035240646 -0.11558661 -0.025232201 -0.003258481 -0.012960542 -0.0885812 -0.21616359
0.0041088415 -0.012670514 -0.040668588 0.033392496 -0.077053465 -0.034765117 -0.0136561 -0.03163324
-0.048432235 0.016701724 -0.025697593 -0.03827456 -0.1512761 -0.04254129 -0.11725539 0.0033341066
0.10324533 -0.09365033 -0.041725677 -0.04796192 0.005431597 -0.04647663 0.022681307 -0.08567199
-0.02160607 -0.18104021 -0.027641065 0.0037262694 -0.05002009 0.009242427 -0.18010339 0.008638959
-0.0044326936 -0.18404171 -0.008000662 -0.08305337 -0.020423427 -0.061072405 0.10195146 -0.03413648
-0.08387746 -0.026919585 -0.02926 -0.07372514 0.05711711 -0.036003333 -0.1230686 0.11340157
0.0008323444 0.004073348 -0.1500791 -0.011219839 0.049858887 -0.012965666 -0.0067553073 0.011124318
-0.13283856 -0.10504499 0.040089674 -0.1290868 0.04177422 0.013607128 0.053980798 -0.0040176082
-0.061255813 -0.030056885 -0.12406282 -0.0351903 -0.06573748 -0.103383064 -0.11064064 -0.0798183
0.102156304 0.1211477 -0.15600413 0.0074055595 0.07084756 -0.1313184 0.10160539 -0.111419104
-0.01715317 -0.05164211 -0.10165724 0.04722799 -0.088870406 -0.14915287 -0.045998115 -0.025368625
-0.025374291 0.005484824 -0.011519669 -0.13664404 -0.09536427 0.08290634 -0.007994208 -0.08943051
-0.068755135 -0.039029773 0.027344592 0.033050906 -0.14382663 -0.16819258 -0.063991226 -0.024439069
-0.12735525 -0.097996324 -0.061376 -0.07576495 -0.06495767 0.02586263 -0.0063569257 -0.032060303
-0.020623583 0.07984868 0.0013106648 -0.035864323 -0.1120574 -0.058481053 -0.0570379 -0.06370283
-0.07479443 -0.13290589 0.006978628 -0.13884577 0.018598111 -0.01048593 -0.109479584 -0.047267247
0.03961482 -0.07910668 -0.06103735 -0.028166037 0.018395731 -0.19215122 -0.08220364 -0.049574878
0.0017508703 -0.053468384 -0.029874617 -0.012367596 -0.03122468 -0.03347842 -0.074090995 -0.03938821
-0.099020414 0.008035741 0.037783183 -0.05995573 -0.09252941 0.0022838584 -0.09378916 -0.05907934
0.062023386 -0.046269402 -0.0328203 -0.021290785 -0.08033646 0.021516845 -0.039722774 -0.035226718

network_body._body_endoder.seq_layers.2.weight f4 [256, 256]
00000000: e96a 683c ca96 483c d5a9 94bd 21fe 3a3d
00000010: 82c7 3a3e 31e7 84bd 07d8 453c 6c51 d9b9
00000020: 7e87 dd3d 179b 08bd 0bab 81bd 007f 383c
00000030: cbdd 27be 303e e63d fa89 083d ebae fdbd
00000040: 4da7 25be c07c 3d3e 4b86 0c3e 1056 493c
00000050: af41 853d 7597 8cbe e9a6 173d 394f 03bd
00000060: 80ec c1bd 2e68 9bbd 0d0f 583d e912 383d
00000070: 88f2 8a3e d71f 073e 8c26 aa3d dc1f 46be
00000080: f650 c8bb 9681 f83d 6fdd 443e 09be c5bd
00000090: eeec 11bd 6ecb 353c 6821 fbbd dcc3 adbd
000000a0: 30d3 3bbe ff96 36bc 7c84 253e 7cbc 69be
000000b0: c68a 4bbd d90b 65be 9c65 30be c76c bb3b
000000c0: c28f b5bd ffbd 14bd f3fb 02be 1040 a3bd
000000d0: f578 d5bd 09f6 8dbd 556a 7cbe 6eb8 7bba
000000e0: b244 1a3c e19a 3bbd dc30 b2bd 6606 073c
000000f0: 69f5 aa3d 71ed 5ebc 78e1 053e cd4f 42be
00000100: 4fa0 203d 55d0 1bbb c2cc 33be a4ec 30be
00000110: 56e2 1f3d 3ca9 103e c70d 053e 4be1 aabd
00000120: efc4 89bd e6c8 32bd 5fbb ec3d 5b37 5fbe
00000130: 68a3 22bc da0a 5c3d 3fc5 e63c 77f0 673d
00000140: aceb 90bd 1c57 063d 3519 5abd 65b5 643d
00000150: 5f0c ba3d 9c2a 813d bedf 3d3e aa2f 86bd
00000160: 44cc b7bd 40c1 f83d 808f 233e 4b1e d53b
00000170: 8579 7fbe 7773 f13d 9eba d8bd 6f09 e4bd
00000180: c550 8a3d ce35 8f3c 7788 0fbd 3025 babb
00000190: 8103 85be ffe7 c43d 0db6 063e 53e0 a6bc
000001a0: 7d77 c4bd 3af8 8abd 398d f5bd 9532 84bd
000001b0: 9947 22bd 6a69 2d3d a1f1 8cbc 3107 013e
000001c0: cbba 1a3e 2381 393d 9d56 2b3d e1a9 38be
000001d0: a449 fa3c 11d7 1fbd 580a 3e3d 6ac6 febd
000001e0: ca55 62bd 7257 cd3d c4a3 a73e 8242 adbd
000001f0: 2041 f33d 9814 343d b26c 273d 6535 12bd
00000200: c151 a93d e7ee 06be 426a babd d477 103c
00000210: e0a8 86bc 813b 9d3c 616e 92be 040e 1ebe
00000220: d105 a6be c49c cfbd 9d1b 303e 7efa a5bd
00000230: ecc4 30be b296 4fbe 73de f6bd 883f cdbd
00000240: fd14 61be be34 0abe a872 aebc e59d 03be
00000250: 23e4 9d3d c2d3 d63d 0569 213e 594c 43bc
00000260: eb1a fabc 3345 243d 5304 29be 34bc 66be
00000270: 177c f7bd 5a51 c6bc def5 cabd 0201 0e3e
00000280: 48ae 863c 735f 21bd 57a5 413d 58d1 fa3c
00000290: 0713 19bd 2c22 6c3e d5e0 9f3d 35f3 bb3d
000002a0: 7d45 eebd 9ad7 1cbe 4ec6 7f3d 7610 073e
000002b0: 7a61 f1bd 2dda a23d 2c3c 87bd 112b 783d
000002c0: 016d 8d3c 5624 303e 0eba a83d cce7 0d3e
000002d0: 26d9 9a3c 3b85 9b3d ec8e b8bd fcca 973d
000002e0: a645 de3c 28b4 3d3e b202 b03d c506 59bc
000002f0: 2d44 85bd 2088 b03e f381 e73c 5b72 a33d
00000300: 8d85 94be 646d 7b3e e15c 62bc 0fce 3d3e
00000310: 424d 6dbc 636f 20be 37e4 a03d 1b26 25bd
00000320: 6a7d 34bc 55d4 d53d fd84 bf3d 3e76 8fbd
00000330: bbd8 57bc 17d1 a63d bc18 5e3b a89a 35be
00000340: 0352 e8bd 4078 64bd b737 f3bc 3ce3 e63d
00000350: 59be f7bd c867 42bc 3cfc a4be a4fb e33b
00000360: 2ccc 71be 7d5d 183d 7d3a 8f3e 9c7a bb3d
00000370: 8855 25be c3d5 a2bd eb09 063d ec59 c8bd
00000380: 8eae 59bd f1fb 9a3e d82f f43d 93cb 0f3e
00000390: 8c86 91be 5a37 183e f536 d1bc 4051 1f3d
000003a0: aa34 723b 368f d4bc 1ed2 77be fbd0 0fbe
000003b0: 09d9 623e d6e1 9a3d 59ed 3b3e f86e fdbc
000003c0: 2492 de3d d175 a83d 913e ce3a 1d8c 43bd
000003d0: 1d9e b23e f6fd e03d 5652 493d 3930 0c3e
000003e0: 8843 2fbe 8632 333d 25e9 813d 9dd8 18be
000003f0: ae11 bfbd e68f 5a3d 3c02 10be 1236 64bb
0.014185646 0.012242982 -0.072589554 0.045652512 0.18240169 -0.06489409 0.012075431 -0.0004145013
0.10816859 -0.03335103 -0.06331452 0.011260748 -0.16393201 0.1124233 0.03333471 -0.123868786
-0.16177101 0.1850462 0.13723104 0.012288585 0.06506669 -0.27459303 0.037024412 -0.032057974
-0.09468937 -0.0758823 0.05274873 0.04493991 0.27138162 0.1319574 0.083081335 -0.19348091
-0.006113167 0.121340916 0.19225095 -0.09655387 -0.035626344 0.011095865 -0.12262231 -0.08484623
-0.1834228 -0.011144399 0.1616382 -0.22825807 -0.04969289 -0.22367801 -0.17226261 0.0057197544
-0.0886531 -0.036314007 -0.12791423 -0.07971203 -0.10423461 -0.06931693 -0.24649937 -0.00096023723
0.009415792 -0.045802 -0.087007254 0.008241272 0.083475895 -0.013606415 0.13074291 -0.18975754
0.039215382 -0.0023775299 -0.17558578 -0.17277771 0.03903421 0.14127058 0.12993537 -0.083437525
-0.06727015 -0.043648623 0.11559176 -0.2179846 -0.009926654 0.053721286 0.028170226 0.05662581
-0.07076201 0.032797918 -0.053246696 0.055837054 0.09084391 0.06306955 0.18542382 -0.0655206
-0.089745075 0.121462345 0.1597271 0.0065038553 -0.249487 0.11789601 -0.105824694 -0.11134612
0.06753687 0.01748171 -0.035042252 -0.0056807026 -0.25979236 0.09614562 0.13155384 -0.020370638
-0.09593103 -0.06785627 -0.11989827 -0.0645496 -0.039619062 0.04233686 -0.017205061 0.126004
0.15110318 0.04528917 0.041830648 -0.18033554 0.030552693 -0.039023463 0.046396583 -0.12440188
-0.055257596 0.100264445 0.3274213 -0.08459951 0.11877656 0.043964952 0.040875144 -0.035695452
0.082675464 -0.13177072 -0.09102298 0.008817632 -0.016437948 0.019193413 -0.28599837 -0.15435034
-0.32426313 -0.101373225 0.17198034 -0.08104418 -0.1726262 -0.2027233 -0.120541476 -0.10021883
-0.21980663 -0.13496682 -0.021294907 -0.128532 0.07709529 0.10489608 0.15762718 -0.011920058
-0.030530414 0.040105056 -0.16505556 -0.22532731 -0.12084215 -0.024208713 -0.09910177 0.13867572
0.016440526 -0.039397668 0.04727682 0.030617401 -0.03737166 0.2305991 0.07806555 0.091772474
-0.116343476 -0.1531662 0.062444977 0.13189873 -0.1178617 0.0795177 -0.06603274 0.060587946
0.017263891 0.17201361 0.08238612 0.13857955 0.018902373 0.07593771 -0.09011635 0.07411763
0.02713282 0.18525755 0.08594264 -0.013246243 -0.06507144 0.34478855 0.028260207 0.07980796
-0.2900814 0.24553448 -0.013816089 0.18535636 -0.014483752 -0.1566749 0.078560285 -0.040319543
-0.011016229 0.1044089 0.093515374 -0.07004975 -0.013174231 0.081453495 0.0033889255 -0.17734778
-0.113437675 -0.05577874 -0.029689653 0.1127381 -0.12096853 -0.011865564 -0.3222369 0.006957488
-0.23613042 0.037198532 0.2797431 0.09154245 -0.16145909 -0.07950928 0.032724302 -0.09782776
-0.053144984 0.3027034 0.11923188 0.14042501 -0.28422964 0.14864865 -0.0255389 0.038895845
0.003695766 -0.025947195 -0.24201247 -0.14044563 0.22153105 0.07562606 0.1835226 -0.030936703
0.10867718 0.08225597 0.0015735199 -0.047741044 0.34886256 0.10985939 0.049150787 0.1369027
-0.17115605 0.043749355 0.06343297 -0.14926381 -0.09329544 0.05335989 -0.14063352 -0.0034822267
