Assets/TFModels/Other models trained in the process/prova_curr_3M_NS.onnx (onnx, 911175 bytes, 9 tensors)

action_model._discrete_distribution.branches.0.bias f4 [5]
000000 f7 02 52 bb 01 7f c1 bd 9f 33 86 3c f6 f2 3e 3b
       -0.0032045224 -0.09448052 0.016382037 0.0029136515
000010 b9 8a ca 3d
       0.098897405

action_model._discrete_distribution.branches.0.weight f4 [5, 256]
000000 54 e5 03 3e dd 22 81 3d 85 5f bf 3c cc e3 ea bc
       0.1288045 0.06305478 0.023360977 -0.028673075
000010 ed 7d 95 3b bd 42 f1 bd 2d 0c e7 3c 91 52 98 3d
       0.0045621307 -0.117803074 0.028204048 0.07437623
000020 d7 40 be bc af 60 45 bc b8 c6 06 3e 85 f3 c0 3c
       -0.023224277 -0.012046977 0.13161743 0.02355362
000030 af a9 fd bc 6f 53 f0 bc 7d e6 5d 3d 12 cf fe 3c
       -0.0309647 -0.02933666 0.05417489 0.031104598
000040 4c 16 f6 3c e7 49 da 3d 02 08 ff bc 3c e0 9e bc
       0.030039929 0.10658627 -0.031131748 -0.019394033
000050 66 1f e1 3d ff 26 25 3d 07 53 8d 3d 8c 9f f4 bd
       0.10992317 0.040320393 0.06900602 -0.11944494
000060 cd f7 9d 3c c0 dc 41 bd 4f 71 d5 3c 59 72 63 3b
       0.0192832 -0.047329664 0.026055006 0.0034705608
000070 dd e1 07 bd 43 4d 00 bc 4e 3b 7b 3d 5c 77 22 bd
       -0.033174384 -0.007830921 0.061335854 -0.03966461
000080 9a 13 76 bc 4c 01 5e bd 5c 20 59 3d 6b c6 42 3d
       -0.015019322 -0.054200456 0.053009376 0.047552507
000090 1d 59 98 bb 39 4e 87 bd 0f e0 24 3d 37 e9 07 bd
       -0.004649295 -0.06606717 0.04025274 -0.033181395
0000a0 8b cf 1f 3c 2e 50 64 bd 75 8c e9 bd 1a fd 85 3d
       0.009754072 -0.055740528 -0.11403743 0.06542416
0000b0 61 6b d6 3d a3 c2 66 bb ba f7 17 ba cc c1 20 3b
       0.104697 -0.0035211227 -0.0005797107 0.0024529574
0000c0 67 c7 31 3c 2c 71 5c bb eb 5a 42 bd 33 29 8d ba
       0.010850764 -0.0033636792 -0.047449987 -0.0010769725
0000d0 1d 5c 5e 3d d0 c2 80 bd 2e fb ef 3d 0f 6d 28 3d
       0.054287065 -0.062871575 0.117178306 0.04111963
0000e0 21 37 cd 3d 9b 50 0f be 5b a3 da bc 95 10 ce bd
       0.10020281 -0.13995592 -0.026689222 -0.100617565
0000f0 05 13 00 3e cd fd 1c be 90 d4 ed 3d 23 06 a7 3b
       0.12507255 -0.15331192 0.11612809 0.005097167
000100 0d 4a 69 bc 05 83 cb 3d db e2 74 3d de 99 a7 3c
       -0.0142388465 0.09937099 0.05978666 0.020459112
000110 cd d7 b3 bc 73 ba b4 3d 93 37 b5 3c 71 53 37 be
       -0.021953488 0.08824625 0.022121226 -0.17902924
000120 e1 8f 5a bd 36 9d a8 bc 3e 1b 90 bd 2d 8f 0b 3e
       -0.05335987 -0.020582777 -0.07036446 0.13628836
000130 e8 1e b4 3d ce 51 d6 3d b8 9e bf 3d 18 cd bd 3d
       0.087949574 0.10464822 0.09356445 0.09267634
000140 cd b7 54 bc 91 78 d8 bd 8b c3 aa bd e5 e6 2f 3d
       -0.012983275 -0.10569871 -0.08338078 0.042944808
000150 05 5e 53 bc 55 9a 72 bc 2f 59 db 3d 83 dc 1b bc
       -0.012900834 -0.014807303 0.1071037 -0.009513023
000160 33 19 4b bd ec 38 bd 3c 0b 36 a7 3c 01 44 5a 3d
       -0.04958458 0.023098432 0.020411512 0.05328751
000170 8e cc a4 bd bc d3 0f bd 26 e7 9d 3d b0 ed fc bd
       -0.08046828 -0.035114035 0.07710104 -0.12350023
000180 37 53 a7 3d b9 28 d7 3d 7c 37 69 3d 06 70 ea 3c
       0.08170169 0.10505814 0.05693768 0.02861787
000190 19 27 56 3d e6 21 51 3c a1 7e aa bc 54 07 9e 3b
       0.05228338 0.01276443 -0.020812334 0.004822651
0001a0 71 83 92 bd 84 b3 bc 3d c5 a3 15 be 83 ff bc bd
       -0.07153977 0.092139274 -0.14613254 -0.092284225
0001b0 f7 05 94 bd cc ac 17 3d 25 5c c5 bd 99 a2 37 3d
       -0.072277 0.037030026 -0.09636716 0.0448328
0001c0 ab 94 90 3d 25 b0 cc 3d 8a 34 b2 3d 5f 19 c9 3d
       0.07059606 0.099945344 0.08701427 0.09819292
0001d0 fb dd 83 bc 91 96 d1 3d 67 cb b2 3d 05 55 c8 3c
       -0.01609706 0.102337964 0.08730202 0.024454603
0001e0 66 e1 aa bd 1f 73 e6 bc a1 6a a1 bd 22 dc 40 be
       -0.083437726 -0.028131066 -0.07881666 -0.18833974
0001f0 8a 95 d6 3c 93 2c 38 3c 6a f3 05 bd eb 13 2b 3d
       0.026194353 0.011241096 -0.03270284 0.041767042
000200 78 82 be 3d 40 e6 d0 3c 87 a7 37 be f6 0e 33 3d
       0.09302229 0.025500417 -0.17935 0.04371544
000210 61 18 4b 3b 64 e8 a6 bd 84 3f c1 3b 11 10 31 3d
       0.0030989873 -0.08149794 0.005897464 0.043228213
000220 93 52 8a bd 62 c1 81 3d 55 50 a8 bd 36 41 03 3d
       -0.06754031 0.06335713 -0.08218447 0.032044612
000230 22 16 ee 3d 88 7b f9 bd 30 80 f4 3c b0 32 29 3d
       0.11625315 -0.12181765 0.02984628 0.041308105
000240 2e 92 84 3d 20 b4 15 bd 9b be 61 3d 5f 77 ea bd
       0.06473194 -0.036548734 0.055113416 -0.114485495
000250 dd 64 84 3c 72 5c f8 bc 43 ca 5a bc 28 c5 8c 3d
       0.016161377 -0.030317519 -0.013353887 0.06873542
000260 a3 58 d4 3d 22 e1 c1 3c 29 49 f5 bc da 8c 8a 3d
       0.103684686 0.023666922 -0.029942112 0.067651466
000270 a6 31 92 bd 59 64 76 bd 40 a6 41 3c 0b b2 42 bd
       -0.07138376 -0.060154293 0.011819422 -0.047533076
000280 f1 33 fe 3c eb b2 89 3d 92 67 42 bd b5 40 8f 3d
       0.031030627 0.06723579 -0.047462054 0.06994764
000290 09 11 02 bd 61 5d 36 3b d9 79 b2 bd af 6f dc 3d
       -0.031754527 0.0027826654 -0.08714647 0.107634895
0002a0 2a 95 32 bc b5 26 f1 3d 42 cc 97 b9 fb b4 c7 bb
       -0.010899821 0.11774961 -0.00028953148 -0.0060945726
0002b0 17 67 f3 bd ae 1f 23 bd e9 6c d5 bd 07 b2 02 3d
       -0.11884897 -0.039825134 -0.104211636 0.03190806
0002c0 c0 6c a7 3d e9 17 ae 3d 20 2f f2 bc d6 a7 a7 bd
       0.08175039 0.08500654 -0.029563487 -0.08186309
0002d0 a0 6f 43 3b e4 17 bb 3c 75 db 30 be 80 a9 51 bc
       0.0029821172 0.02283854 -0.17271216 -0.01279676
0002e0 ca 4b 9b bd 42 82 1c be 37 17 0b 3d e1 7d 70 bc
       -0.07582815 -0.15284064 0.033957686 -0.014678449
0002f0 8f bc 1f 3d c6 ec 2e 3d 5a 8d af bd 9a be 8d 3c
       0.038998183 0.042706273 -0.085718825 0.0173028
000300 e2 7e f6 3d bd 8c f0 bc f2 6f cd 3c c2 e7 ac 3c
       0.1203592 -0.029363984 0.025077794 0.021106604
000310 f3 73 65 3d 44 29 dd bd 89 10 71 bc 87 b7 3f be
       0.05601878 -0.107988864 -0.014713415 -0.18722354
000320 c5 16 e5 3c 4c 79 aa 3d af 4d e7 3d 13 24 bb bd
       0.027964959 0.08323917 0.11294114 -0.0913774
000330 a6 9b ea bc 78 72 17 bd d2 6f b9 39 d8 77 af bd
       -0.028638672 -0.0369744 0.00035369262 -0.0856778
000340 e1 82 7e bd 25 1e 8b bb ec 93 d4 3c 96 5f 86 bd
       -0.062136535 -0.004245537 0.02594944 -0.065612
000350 d0 a4 12 be 41 f2 39 bc 41 f2 74 3b c4 95 83 3d
       -0.14320683 -0.011349262 0.003737584 0.0642505
000360 ba 15 ea 3c 1b 98 80 3d 2b 59 f1 3c 20 39 7c 3d
       0.028574813 0.06279012 0.029461464 0.061577916
000370 f8 97 68 3d 5f 0c 9c 3d 99 b7 85 bd 27 25 2a 3b
       0.056785554 0.07619547 -0.06529159 0.0025962086
000380 85 cc 92 3d 04 1e 06 bd d4 e2 f6 3c c3 37 47 3d
       0.07167915 -0.03274347 0.030137457 0.048637163
000390 09 9d 65 3c df 06 02 be 1c 4a 55 bd e8 5a 94 3d
       0.014014491 -0.12697934 -0.05207263 0.072439015
0003a0 6b 3c 3d 3d fd 59 b0 3d be 7a 5f 3c 13 78 ea 3c
       0.046200197 0.08610914 0.013640104 0.028621709
0003b0 46 e6 24 bd c2 2f 87 3d 59 3b d2 3c ab 65 9e 3d
       -0.04025867 0.06600906 0.025663065 0.077342354
0003c0 86 df bd 3b 18 5e d9 ba d9 a0 99 3c eb 23 b4 bd
       0.0057944683 -0.0016583828 0.018753456 -0.08795913
0003d0 cd 99 0c 3e 49 cf e3 bb 50 45 49 bd e2 33 4a 3d
       0.13730545 -0.0069522006 -0.049138367 0.049365886
0003e0 db 84 4c bd a2 8b d7 bd a0 c5 93 bc f7 c1 61 3d
       -0.04993139 -0.1052468 -0.01803857 0.05511662
0003f0 88 3e b0 3c 74 64 e9 3c 37 9e 82 3d 73 67 86 bd
       0.021514192 0.028490283 0.06377833 -0.065627

action_model._discrete_distribution.branches.1.bias f4 [3]
000000 6e 74 c6 bb 38 2b 11 bd 37 51 44 3d
       -0.00605636 -0.035441607 0.047929015

action_model._discrete_distribution.branches.1.weight f4 [3, 256]
000000 44 9c 7f 3d fb 95 5f 3d 2d 96 b2 3d 62 69 33 bd
       0.062404886 0.054586392 0.0872005 -0.043801673
000010 24 5c 94 3d 9d 32 18 3e a8 0e cf 3d 56 69 4f 3d
       0.07244137 0.14863057 0.10110217 0.050637566
000020 90 1f 09 be 44 56 08 bd 4d 83 8f 3d ca 68 da 3d
       -0.13390946 -0.033285394 0.070074655 0.10664518
000030 1f 31 96 3a 60 e8 e5 bc db c0 8f 3d d0 49 2e be
       0.0011458731 -0.028064907 0.07019206 -0.17020345
000040 a1 de 7f 3c 9a ee 8d 3d 3f 0e 90 bc d2 08 53 bd
       0.015617044 0.06930275 -0.017584918 -0.051522084
000050 38 2b 2c bd 74 9a bf bc df 1b 58 3d d1 2e da bd
       -0.042033404 -0.023389079 0.052760955 -0.10653461
000060 53 ea b3 bc ac 01 8c bc bb 11 d0 3a 62 4d 46 3d
       -0.02196232 -0.017090641 0.0015874425 0.04841364
000070 67 0d 87 bd cf fd 28 bd 74 c1 40 3b 43 29 d5 3d
       -0.06594353 -0.041257676 0.0029412182 0.10408261
000080 4d 75 2b 3d 8d be 0d bd f0 27 02 3e e8 f9 de 3c
       0.041859914 -0.03460555 0.12710547 0.027218774
000090 7b a7 2e 3d d1 6e cb 3c 36 f3 60 3d 4f 7c 1d 3e
       0.04264019 0.024833115 0.054919444 0.15379451
0000a0 51 dd b5 bd 36 57 28 3d 67 a7 12 be 28 13 f7 3d
       -0.088801034 0.041098796 -0.14321671 0.12064201
0000b0 2d 12 00 3d c7 48 bb bd 20 13 f3 3c 2d 68 0b 3d
       0.031267334 -0.091447406 0.029672205 0.034034897
0000c0 c1 06 99 3d ea dd a7 3a 3b 21 8b 3c 30 c3 b1 bd
       0.07471991 0.0012807224 0.016983619 -0.08679807
0000d0 94 4a ce 3c 64 8f c3 bc 2f de 78 3d c7 43 e8 bd
       0.025182046 -0.023872085 0.060758766 -0.113410525
0000e0 b8 f0 fd bb 80 52 48 bd 7f 26 6b bd 0b 29 fb 3d
       -0.007749643 -0.048906803 -0.05740976 0.12263688
0000f0 c1 40 0e 3d 3d 44 08 be 0d 08 43 bd 25 ec 3b 3d
       0.034729723 -0.13307281 -0.0476151 0.0458795
000100 c8 32 03 3d 6b c6 31 3c 2f 56 1c 3e 70 fd a9 3d
       0.03203085 0.010850529 0.15267251 0.083002925
000110 5d 12 0a 3e 0c 10 3e bd 00 fa 04 3d f3 78 99 bd
       0.13483568 -0.046402022 0.03246498 -0.07493772
000120 3f 63 e6 3c e0 eb 64 3d b8 be 22 be ec aa 8d bd
       0.028123496 0.05588901 -0.15893066 -0.069173664
000130 00 da f4 bd eb 42 27 3d 63 a8 c4 bd a5 88 5a bd
       -0.11955643 0.040835302 -0.0960243 -0.05335297
000140 0a 20 0b 3d 0a f2 10 3e a2 8d 87 3d df 34 40 3c
       0.0339661 0.1415483 0.06618811 0.011731355
000150 36 e3 1d 3e 37 19 85 3d 28 61 0c bd 1c f5 d3 bb
       0.15418705 0.0649895 -0.034272343 -0.0064684283
000160 72 19 da bd 5d 92 a6 3d 31 07 e1 bd 11 80 e5 3d
       -0.106493846 0.08133385 -0.109877 0.11206067
000170 47 f6 db 3d f2 57 e4 bd 1d dd 05 3d 0f 03 7b bb
       0.10740333 -0.11149587 0.032681573 -0.0038301384
000180 de 44 e4 3b e4 98 00 bd 9c b4 ad 3d c7 15 bf 3c
       0.0069662174 -0.031395808 0.08481714 0.023325814
000190 78 f9 98 bd 84 0e 16 bd fc 68 ae 3d 90 b3 1c 3d
       -0.074694574 -0.036634937 0.08516118 0.03825718
0001a0 4d d7 e6 3d 15 3b 5b 3c 25 2d 83 bd 77 2b 69 bc
       0.11271534 0.0133807855 -0.06405095 -0.014231554
0001b0 22 8b 1f bb c7 fd 9b bd 2f 86 73 bd e0 5f a6 3c
       -0.0024344404 -0.076167636 -0.05945414 0.020309389
0001c0 12 e1 b5 3d 11 e8 22 3d 07 2e e9 bc 31 6f 93 3b
       0.088808194 0.039772097 -0.02846433 0.004499339
0001d0 a4 b9 be bd fe 8c cf 3c 13 55 4b 3d 2d 4a 00 be
       -0.09312752 0.025335785 0.04964168 -0.12528296
0001e0 9e 5b 18 bb ea b8 8e 3d a6 20 8e 3c 03 74 28 3e
       -0.0023247967 0.06968863 0.017349552 0.16450505
0001f0 8b df f3 3d 4b 51 bf 3d 53 3e 01 bc ed 4b 1f 3d
       0.11907872 0.09341677 -0.007888394 0.038890768
000200 74 df 59 3d 61 3a af bc 51 59 b2 ba ed a3 e9 3d
       0.053191617 -0.021390142 -0.0013606941 0.114082195
000210 33 4c d7 bc 6d a5 81 3d 19 ae 96 bc 00 23 96 3b
       -0.026281452 0.063303806 -0.018393563 0.004581809
000220 8c 2d 69 3d fb aa 97 3d aa 23 2a 3e fb 7b 91 3a
       0.056928203 0.07405659 0.16615167 0.0011099571
000230 fe ce ac bb 19 e1 91 bc e6 b4 2c 3d 61 c9 2d 3d
       -0.005273699 -0.01780753 0.042164706 0.042428378
000240 5d 97 9a 3d 72 7b f5 bd d8 74 dd bb 83 da 52 3d
       0.075484015 -0.11986436 -0.0067583136 0.05147792
000250 e8 c4 58 3d 94 90 b4 bd 9a d7 00 bd ed 54 80 bd
       0.05292216 -0.088166386 -0.031455614 -0.06266198
000260 5a 88 b0 3c 60 6a 86 bc 32 be 02 be 6b e4 82 ba
       0.021549392 -0.016408145 -0.12767866 -0.0009986287
000270 fc 07 4c be eb cb 65 bb cc 22 bb 3d 5b 09 d2 3d
       -0.19924921 -0.0035064172 0.09137496 0.10255691
000280 e2 fc b5 3b 53 81 83 bc e4 cd d5 3d 89 dc d8 bc
       0.0055538276 -0.016052878 0.10439661 -0.026472347
000290 78 f5 e8 3c da f9 ec 3c 59 57 07 3e f3 a6 a7 3d
       0.028437361 0.028927732 0.13216914 0.0818614
0002a0 6b 42 60 3d 3f aa 8a 3d cb 52 0b 3d e2 5c 44 3d
       0.05475084 0.06770753 0.034014504 0.047940142
0002b0 79 27 ee 3c 46 f5 65 3d c5 87 9f bd 24 dc 71 b9
       0.029071556 0.056142114 -0.07789568 -0.0002306556
0002c0 aa 67 6f bd 12 23 06 bc dd c1 34 3c 17 16 8b 3c
       -0.05844847 -0.008187072 0.011032549 0.016978307
0002d0 fd cb 44 bc fb 7b ec 3a 2f 78 04 bd 87 68 a0 bc
       -0.012011525 0.001804232 -0.03234118 -0.019581093
0002e0 cc 11 33 bd ac c7 20 be 54 23 79 bc 26 98 b3 3c
       -0.043718144 -0.15701169 -0.015206177 0.021923136
0002f0 0c 61 55 bd 05 52 02 3e fb 14 2e 3e fc d1 eb bd
       -0.052094504 0.127266 0.17000191 -0.11514661
000300 31 ce d5 3c 6a 1d 3c be 37 a2 75 bd 86 2a 90 bc
       0.026099296 -0.18370596 -0.059969153 -0.017598402
000310 d4 7b 19 bd 0a 7e a6 3d 70 e9 f6 bb 3a db fa bc
       -0.037471607 0.08129509 -0.007535152 -0.030622113
000320 76 41 cf 3d d6 b9 12 3d c1 e1 08 3d 14 f7 53 bd
       0.101199076 0.03582176 0.03341842 -0.051749304
000330 3f 41 91 3d 3d 82 8e 3d 2f 73 9b 3d 04 74 d4 3d
       0.07092523 0.06958435 0.07590329 0.10373691
000340 71 52 e2 3c 6c ca db bd c1 8f 59 bc e6 ed 0e be
       0.027627202 -0.10731968 -0.0132789025 -0.13957939
000350 89 64 f8 3a d9 7e 32 bd 52 e5 de 3d b8 97 f8 bc
       0.001895086 -0.043578003 0.10883583 -0.030345783
000360 1e f7 09 3e dc a7 4b 3d fe 3b e5 bc cb b1 20 3d
       0.13473174 0.04972063 -0.027982708 0.039232057
000370 44 a4 38 bd 26 af d9 3b 2b 5d 08 bd 8b dd 8b 3d
       -0.04507853 0.006643194 -0.033291977 0.06829365
000380 70 1f 8a 3b 89 0f 4e bb 85 35 53 3d 41 e6 be 3c
       0.0042151734 -0.0031442365 0.051564712 0.023303153
000390 e8 2c af 3d 45 6d b8 3c 27 e4 be bd 31 c4 8d bd
       0.08553487 0.022513041 -0.0932086 -0.06922186
0003a0 e2 97 00 3d c6 43 cd bd 06 22 10 bd 68 e5 9e bd
       0.031394847 -0.100226924 -0.035188697 -0.077585995
0003b0 01 fe 58 3d ee 8c 99 3b 55 6a b7 3c 60 b5 07 be
       0.052976612 0.0046859896 0.02238957 -0.13252783
0003c0 3b 0c 8e 3d f9 2c a1 bd 85 bc d2 3d 71 70 b8 bd
       0.069359265 -0.07869906 0.102898635 -0.090058215
0003d0 48 e6 c2 bc d4 99 cf bd af a1 95 3c f8 f3 26 ba
       -0.023791447 -0.10136762 0.018265573 -0.00063687516
0003e0 8a f0 01 be 1e a8 ce 3c c0 ab fb 3c 1a a5 26 3d
       -0.12689415 0.025226649 0.030721545 0.040684797
0003f0 87 0a 7f 3d a4 ea bb 3d 95 ae b7 bb 6b 81 45 3c
       0.0622659 0.091756135 -0.0056055286 0.012054781

discrete_action_output_shape f4 [1, 2]
000000 00 00 a0 40 00 00 40 40
       5.0 3.0

network_body._body_endoder.seq_layers.0.bias f4 [256]
000000 73 52 7b 3b 65 30 41 3d 1e 61 35 bc 73 df 5d bb
       0.0038348704 0.047165293 -0.011070518 -0.003385511
000010 8c eb 13 bd de ee 17 bd e2 c1 a3 3c f9 fc 04 3d
       -0.036113307 -0.037093036 0.019989911 0.032467816
000020 4a 5e 88 3d 93 e5 67 3d d4 4a 2d bc e2 23 35 3d
       0.06658609 0.056615423 -0.010576922 0.044223674
000030 93 bf 3d 3d 14 76 4a 3b 60 80 63 3d b6 40 9f 3b
       0.046325278 0.0030893134 0.05554235 0.004860009
000040 cf 2d cd bc 30 b6 d0 bc 57 7a a9 3d 13 b2 32 bd
       -0.025046257 -0.025477499 0.082752876 -0.043626856
000050 43 bd 95 3c 0e a8 0b 3d ef b8 ba 3c df 06 1a 3d
       0.018278724 0.034095816 0.022793261 0.03760421
000060 e1 09 16 3c 87 bb 8d 3c 83 98 17 3d 11 93 45 bc
       0.009157629 0.017301334 0.03701068 -0.012058989
000070 83 26 32 bd 57 12 30 bd 6a 01 07 3d fc 67 ba 3c
       -0.04349376 -0.04298624 0.032960333 0.022754662
000080 23 90 1b bd af b2 d2 3c 20 3b d1 3c 3a 14 4f bd
       -0.037979256 0.025719969 0.025540888 -0.0505564
000090 0f ee 49 3d e2 e9 a9 bc 96 2c 11 bd ac 82 6f bc
       0.049299296 -0.020741407 -0.03544291 -0.014618557
0000a0 80 18 c4 3d 64 53 1a bd 6c b7 a4 3d 24 b5 46 bc
       0.095749855 -0.037677184 0.080427974 -0.012128148
0000b0 43 cb 0b bd 7d 13 80 3c 37 fc d5 bc 05 3a 1f 3d
       -0.034129392 0.015634293 -0.026121242 0.03887369
0000c0 0a 0f 02 3c 47 c5 96 3b 6f 0b 21 bd db 90 2f bc
       0.007938156 0.004601154 -0.039317545 -0.010715689
0000d0 ee d5 58 3b 44 ea 05 3c 6a 34 0b bd aa f4 00 38
       0.0033086496 0.008173529 -0.033985533 3.074544e-05
0000e0 74 f9 82 3c bd 05 a6 3c 85 8a 42 bc 2b bc 93 3d
       0.01598809 0.020266408 -0.011873846 0.072136246
0000f0 d7 70 be 3d a5 2a cc bb 6d 63 65 bb bd 49 b4 3b
       0.09298866 -0.0062306696 -0.003500189 0.0055019544
000100 a7 c8 28 bd e5 4b 77 3d a4 4e 03 bc 70 4a a7 3c
       -0.041206982 0.060375113 -0.008014355 0.020421237
000110 bc c8 af bc be 87 a9 3b 04 dc 39 bd 9f f2 2b bd
       -0.021458022 0.0051736524 -0.04537584 -0.04197943
000120 be 63 95 ba 42 29 1b 3d 31 7c 87 bd ff be a6 bb
       -0.0011397523 0.037881143 -0.066154845 -0.0050886865
000130 d0 9a 22 bd 59 5b dd bd 9e 5b 6b 3c 52 52 a0 bd
       -0.039698422 -0.10808439 0.014365105 -0.07828201
000140 a1 13 9a 3c 25 0c fd 3c 95 6e b4 3c 68 c8 9a 3b
       0.018808188 0.03088958 0.022025386 0.0047235973
000150 7f 50 58 3d 78 35 9e 3d c2 fd cd 3d 53 fa 90 bb
       0.052811142 0.07725042 0.10058166 -0.004424372
000160 1f a2 4f bc f6 02 8a bd b0 5d 14 bc 08 a6 dc 3c
       -0.01267293 -0.06738846 -0.00905554 0.026934639
000170 af 69 97 bc 45 da 94 3d 17 66 11 bd 08 f5 a8 3c
       -0.018483011 0.07268194 -0.03549775 0.020624653
000180 7a 2e 85 3d d4 b8 06 3c e4 57 f2 bc 11 83 6d 3d
       0.06503005 0.008222777 -0.029582925 0.057986323
000190 34 0d 0a bc 86 eb 12 3d f7 17 69 3c 0d 89 ce bb
       -0.008425999 0.035869144 0.014226905 -0.006302959
0001a0 c7 72 58 bd db a1 02 3d dd 03 f4 bc a9 65 44 3d
       -0.052843835 0.03189264 -0.029786998 0.047948513
0001b0 bc 43 c8 bd c8 c7 2c bd 3c 44 ba bb af d3 3a bd
       -0.09778544 -0.042182714 -0.0056844037 -0.045612033
0001c0 77 b6 ac 3c 06 cf b4 3a 99 d2 2a bd 9d 41 31 3d
       0.0210831 0.0013794608 -0.041704748 0.043275464
0001d0 56 cc bb bb c2 5d 77 3d 30 f7 19 bd 02 c0 5c 3d
       -0.005731146 0.06039215 -0.037589252 0.05389405
0001e0 27 fd 57 bc 78 f6 97 3c b0 71 07 bd 5a c4 cd bc
       -0.013182915 0.018550143 -0.033067405 -0.025118042
0001f0 d3 8d 58 bd e0 81 bd bc e9 80 1f bd 48 78 0b bd
       -0.05286963 -0.023133218 -0.038941298 -0.034050256
000200 bc 5f 55 bb e1 5a 15 3d eb c3 59 3d e2 b1 77 3c
       -0.0032558283 0.036463622 0.053165358 0.015118094
000210 d0 2b b8 bb c5 88 09 bd 30 c2 5b 3d 38 b4 f8 3c
       -0.005620457 -0.0335777 0.05365199 0.030359372
000220 f2 b7 5f 3d 64 7b 56 bc ff 79 62 bb db ee 5e 3d
       0.054618783 -0.013090942 -0.0034557579 0.05442701
000230 3d 21 33 3d e9 16 e0 3b 7f 05 60 bd e6 0d b2 bb
       0.04373287 0.0068386686 -0.05469274 -0.0054337857
000240 d5 dc 83 bd 34 f7 8b 3b 9a a4 56 3d 11 fa 12 3d
       -0.06438605 0.0042714123 0.05240307 0.035883013
000250 9d b9 df bc ac 81 5a 3d 1f 77 b5 bc 1b c7 b4 3c
       -0.027310187 0.05334632 -0.022151528 0.022067597
000260 48 28 65 3c 08 d1 f8 bc 51 5c d9 bc 33 53 9c 3c
       0.013986655 -0.030373111 -0.026533278 0.019082641
000270 d5 fa 2b bd b7 c4 a2 3c 09 26 6b 3b df 1d 43 bd
       -0.04198726 0.019869192 0.0035880825 -0.04763591
000280 ae 27 21 3d df ac 52 bc 57 5f ee bc dd cc 10 3d
       0.039344482 -0.0128585985 -0.029098196 0.035351623
000290 c9 ef 3e 3d ce df 89 bd 19 dd 41 bd 53 ab 9c bb
       0.046615396 -0.067321405 -0.047329996 -0.0047811656
0002a0 0a e5 84 3a 84 5f ee bc 24 78 18 3d 97 13 88 3a
       0.001013906 -0.02909828 0.03722395 0.0010381815
0002b0 6b 11 fc bb 79 36 e8 bb 9c 05 d4 bc 17 b2 d3 bb
       -0.007692506 -0.007086572 -0.025881581 -0.006460439
0002c0 50 a3 08 3d e2 c1 31 bd bb 86 a3 ba 80 df 27 3d
       0.033358872 -0.04339779 -0.0012476066 0.04098463
0002d0 ec 68 af 3c 18 6a a5 bb 52 6b b4 3b 87 5a cd 3c
       0.021412335 -0.0050480478 0.0055059576 0.02506758
0002e0 3d bd e6 bc 85 fe 95 3a 5b 25 47 bd 1d 3f 04 bd
       -0.028166408 0.0011443651 -0.04861961 -0.032286752
0002f0 0f d9 3d 3d bf 9c b6 3b 46 66 6a 3c 07 d8 2b bd
       0.04634958 0.005572885 0.01430661 -0.041954067
000300 7e 5a 66 bd 60 1f e0 3b cf 27 3d 3d 4e a7 33 bb
       -0.056238644 0.0068396777 0.046180543 -0.0027412954
000310 31 13 78 3c 49 a5 7b 3d 41 19 93 bd 15 d3 7e bd
       0.015141294 0.061436925 -0.07182551 -0.062213022
000320 55 de 5c 3c 45 4e 9c 3b 29 70 26 bc ab 6a 42 3d
       0.013480742 0.0047700726 -0.010158577 0.047465008
000330 45 d4 02 bd ab f2 dd bb 70 06 20 3d cc d9 0e 3d
       -0.031940717 -0.006773313 0.03906864 0.034875676
000340 f1 c0 3b 3d 92 21 21 3c 05 99 82 39 66 59 c5 3c
       0.0458383 0.009834664 0.0002490954 0.02409048
000350 d5 47 9d 3d 69 90 d9 3a 27 52 30 3c 8d cc 00 bd
       0.076797165 0.0016598824 0.010761774 -0.031445075
000360 f3 7c 13 bd 38 f1 f3 bc 17 dd 88 3c 15 d9 be bc
       -0.036007833 -0.029778108 0.016706986 -0.023296872
000370 b8 b6 93 bb 46 ee df 3c 1b 55 83 bc cb 5f bd 3b
       -0.0045078658 0.027335297 -0.016031792 0.0057792417
000380 12 96 d3 bc 3e 00 8b 3c c6 28 83 3d 4f 34 20 bc
       -0.025828395 0.016967889 0.06404261 -0.009778096
000390 b9 79 a1 bc 66 6c b1 3c 9b 3d 48 3c 75 12 d8 bb
       -0.019711362 0.021658134 0.012221719 -0.006593997
0003a0 e6 1c 8b 3d 47 c5 6a 3a 46 46 78 bc 53 d2 91 3c
       0.06792621 0.0008955788 -0.015153473 0.017800486
0003b0 6c 89 3c 3d 46 85 6b bd f0 03 7a 3d 67 ef d2 3b
       0.046029493 -0.057500146 0.06103891 0.0064372304
0003c0 1a 6b 85 3c 64 44 4c 3c 49 d6 15 bd 5d bc e6 3c
       0.016286422 0.0124674775 -0.03658131 0.02816599
0003d0 77 56 35 bd a7 0a 8d 3c 5a 03 95 3b 22 17 04 3c
       -0.044271912 0.017216993 0.0045475187 0.008062156
0003e0 7b 7e 8e bc b8 d5 72 3c 72 88 16 bd 0e 0d 94 3b
       -0.017394295 0.014821462 -0.03675122 0.004518158
0003f0 45 c3 ff 3c 94 7c 2c bd e6 43 fd bb 20 d5 c6 bc
       0.031221041 -0.042110994 -0.0077290414 -0.024271548

network_body._body_endoder.seq_layers.0.weight f4 [256, 621]
000000 a1 53 7d 3d 20 7f 8c 3c 6e e4 ac be d5 de d3 3d
       0.061847333 0.017150462 -0.33768028 0.10345236
000010 4c be 80 3e 69 fb e0 3d d5 59 3e be b0 a5 a7 3d
       0.25145185 0.10985453 -0.18588956 0.08185899
000020 85 ba 46 3d bf a9 4c 3d 12 64 d5 bd f8 82 d3 3d
       0.048517723 0.04996657 -0.104194775 0.10327715
000030 a8 c4 38 3d 09 47 f9 3c ac 19 2d 3e 0c 5a 4c bd
       0.04510942 0.03042938 0.16904324 -0.049890563
000040 d9 18 2d 3d e3 ed dc bd 6f 91 ed 3d cf a8 e2 bb
       0.042260025 -0.10787561 0.11600005 -0.006917096
000050 1a cf 39 be 55 eb 2c 3d 2a 44 22 bd 91 01 bd 3c
       -0.18145409 0.042216618 -0.039615788 0.023072036
000060 04 8d 8e bd 07 3f 57 b9 99 01 5f 3d a7 df 0a bd
       -0.0696049 -0.00020527477 0.054444883 -0.033904698
000070 30 63 12 be 4f 42 9b be a3 9e 88 3d 40 fd 8e 3d
       -0.1429565 -0.30324027 0.066708826 0.06981897
000080 c5 36 af 3d 7a 64 c6 bd 20 5c 03 3e 8e a9 84 3d
       0.08555368 -0.09687133 0.12828112 0.064776525
000090 59 fc e2 3c 59 af 9c bd 58 9b 5c bc 67 26 d8 3c
       0.02770822 -0.076506324 -0.013464771 0.0263855
0000a0 74 2c 85 3d 5a ae 1d 3e f7 12 96 be db 52 9f 3d
       0.065026194 0.15398541 -0.29311344 0.07779475
0000b0 75 4f 36 3c 1b a0 1b 3d 56 f0 ff bc 26 4a 56 be
       0.0111273425 0.037994485 -0.03124253 -0.20926723
0000c0 05 3c 92 3d 5a e5 63 bd 28 56 94 bd 4b 13 f1 3d
       0.07140354 -0.05563865 -0.072429955 0.11771258
0000d0 76 19 55 bd a6 9a b2 3d 9c 20 02 bc ba e4 a0 3c
       -0.052026235 0.08720903 -0.007942345 0.019640315
0000e0 31 ec 5e bd 7e 50 01 3e 21 08 7c 3d 4c e9 87 3a
       -0.05442447 0.12628362 0.06153119 0.001036921
0000f0 52 19 d8 3d 0c fe 87 3d cb 10 e1 3d 89 0c 91 be
       0.105517045 0.066402525 0.10989531 -0.28329876
000100 f2 71 33 3d c2 4d e1 3b 5c 9e d3 3d d4 6b b9 3d
       0.04380984 0.0068757245 0.10332939 0.0905377
000110 dc bb a1 3d d3 ee c6 bd 08 85 1c 3d 32 18 15 bd
       0.078971595 -0.09713521 0.038212806 -0.036400028
000120 45 1b 81 3d 80 7c 21 3e 33 ae 97 3c 87 80 82 bd
       0.063040294 0.15770149 0.018515682 -0.06372171
000130 79 0d 43 3c 3d 5a 41 3d dd df 4d 3d 82 29 0b 3e
       0.011905068 0.0472052 0.05026232 0.13590053
000140 73 af 73 3e a1 a8 d9 bc b4 e5 0a be 0b 25 1e be
       0.23797397 -0.026569666 -0.13564187 -0.15443818
000150 cb 4c 1d be 8d 0e b0 bd 08 ff 43 bd 90 73 fd bc
       -0.15361325 -0.08596525 -0.04785064 -0.030938894
000160 1f a5 8d 3d 7b 95 8d 3d c3 8b 5a 3c c6 fc 87 bd
       0.0691626 0.06913277 0.013338986 -0.066400096
000170 be 67 f5 3c 56 61 c6 bd 44 f5 e7 bc 27 ac bd 3d
       0.029956695 -0.09686534 -0.028315194 0.09261351
000180 17 3b f0 bd 3d 92 3f 3d 84 70 bf 3d 51 35 ab 3d
       -0.117300205 0.046770323 0.093476325 0.08359779
000190 68 1e 1e bb b7 4b 76 bc b5 4b 30 3d b0 78 2d be
       -0.002412701 -0.0150327 0.04304095 -0.1694057
0001a0 f7 31 2f be 08 a4 8c be 15 44 7b 3d 93 d8 dd 3c
       -0.17108904 -0.27468896 0.061344225 0.02708081
0001b0 39 38 3e be 01 90 91 3e d0 6d 68 3d 62 ab 20 3d
       -0.18576135 0.2843018 0.05674535 0.039225943
0001c0 74 37 84 3d b2 29 d7 bb 8a ab e9 ba f6 ef 94 bb
       0.06455889 -0.0065662498 -0.0017827612 -0.004545207
0001d0 65 11 1c bd e5 97 c9 3d ef 2b 91 bb 23 9b 96 3c
       -0.038102526 0.09843425 -0.004430286 0.018384522
0001e0 3c eb 6e 3d 24 cf 3d be 7f 38 e9 bd 8d ac 8d be
       0.058329806 -0.18536049 -0.11387729 -0.27670708
0001f0 47 1e d0 3d 6c 2d f8 3c 46 a7 41 bd f1 31 6c 3d
       0.10162025 0.030295096 -0.047278665 0.057664815
000200 8e 6f e7 3c 9e 26 15 bd 9f 56 fa bd d3 a5 35 3c
       0.028251436 -0.03641378 -0.12223553 0.011086899
000210 71 27 9b bd 1d bd d5 3c eb 40 5e bb 61 b5 a0 bd
       -0.07575882 0.026091153 -0.0033913206 -0.07847095
000220 03 f5 73 3e c4 53 04 3b fc ab f5 bd 5a 7d fe bd
       0.23823933 0.002019153 -0.11995694 -0.12426253
000230 6a da e6 3d d1 46 d3 bd bd ed 95 bd 92 81 ee 3c
       0.11272128 -0.103162415 -0.073207356 0.029114518
000240 23 4b cc 3d f9 72 de 3d 8f b4 b9 3d 01 39 10 3e
       0.09975269 0.10861773 0.09067642 0.14084245
000250 d8 cb b9 bd cc 68 9e bc d4 df 98 be 0e ed 9e bc
       -0.09072083 -0.01933708 -0.29858267 -0.019400146
000260 b4 16 cc bc b4 4f 64 bd d0 e7 fa bb d9 3e 1b be
       -0.02491317 -0.055740073 -0.0076570287 -0.15160693
000270 fd dc 23 3c f7 f9 08 bd 47 d0 38 bc a4 1b 8e bd
       0.010001418 -0.03344151 -0.011280126 -0.06938866
000280 6b 6a ed bd b8 46 97 bc d8 5c 4a 3e 65 6b 21 be
       -0.11592563 -0.018466339 0.1976198 -0.15763624
000290 6d 74 46 3e 84 ec bd bc c1 22 94 bc a8 ca 3d be
       0.1938035 -0.023184069 -0.018082978 -0.18534338
0002a0 39 11 cc bd b8 ec 3c 3c cc 8b da 3b 35 40 ff 3c
       -0.099642225 0.0115310475 0.006669497 0.031158546
0002b0 ff a4 e5 3d 09 92 90 3d c5 07 25 be 91 f2 5c be
       0.11213111 0.07059104 -0.16116245 -0.21576907
0002c0 b7 34 42 3d 68 3f 3b 3e ab 73 53 3d 05 1c 38 3c
       0.047413554 0.18285906 0.05162398 0.011237149
0002d0 ef 49 cb 3c 27 cf 2d 3e 42 72 0e 3d a0 57 4c bd
       0.024815528 0.16973554 0.034776933 -0.049888253
0002e0 b2 b7 9d bd ad 31 c9 3a df 1c 08 3c ce f4 da bd
       -0.07701053 0.0015349888 0.008307665 -0.10691224
0002f0 0b c2 21 3c ce ba 67 bd bc cf e6 3d 5a 03 55 3e
       0.009872924 -0.056574635 0.11270091 0.2080206
000300 99 a0 1c 3d df ed bf bd 2f 88 05 be 0d 93 bd 3c
       0.038239095 -0.09371542 -0.13040231 0.023141408
000310 84 e2 97 3c c5 4f 29 3d 67 4a 6d 3e cd 7e 5d 3d
       0.018540628 0.04133584 0.23172913 0.054076005
000320 b5 29 9d bd f8 6b b5 bd ca 33 2e be e9 18 2b 3d
       -0.076739706 -0.08858484 -0.17011943 0.041771803
000330 62 fd 82 3c 0c b9 93 bd f1 b3 00 3d db 30 e0 bc
       0.015989963 -0.07213029 0.031421605 -0.027367046
000340 ad 83 d4 bd 4b 6e 48 3e 45 dd 28 bd e9 62 60 be
       -0.10376678 0.19573323 -0.041226644 -0.21912731
000350 6b b7 4d bc 4d 83 ad 3d 79 97 cc 3c 45 20 bc bb
       -0.012555937 0.08472309 0.024974572 -0.0057411515
000360 f0 e7 72 bd af fc 97 bd 43 be 30 bd f5 39 87 3d
       -0.059303224 -0.074212424 -0.043150198 0.06602851
000370 8d 44 1d be bd 96 8e 3d 4e 9e b8 bc 99 85 90 bb
       -0.15358181 0.06962345 -0.022536423 -0.0044104573
000380 98 0a 9b 3d a3 03 01 be fc 50 07 3e c0 7d 86 3d
       0.0757038 -0.12599044 0.13214487 0.06566954
000390 09 43 e9 3d bd f1 c4 3c 9e ef ad 3c 1a 3b 10 be
       0.11389739 0.024041051 0.021232422 -0.14085045
0003a0 a1 c6 8e bd 08 6e 6f bd 6b 97 45 3d 70 da 0d bd
       -0.06971479 -0.058454543 0.048240107 -0.034632146
0003b0 4e 2d 78 bd 19 13 e5 3c 2e 06 0c be fb 09 77 bd
       -0.06059008 0.027963208 -0.13674232 -0.060312252
0003c0 49 d0 30 be 9e d8 99 bc ad 5a 48 bb 83 41 50 3e
       -0.17266954 -0.018780049 -0.0030571625 0.2033749
0003d0 cf 26 16 bd da ab 06 be e9 47 1c 3e 7c 5c 54 3d
       -0.036658105 -0.13151494 0.15261807 0.051846012
0003e0 b6 15 13 3e 89 97 41 3d 75 6e 60 bc 8e 50 d0 bc
       0.14363751 0.047263656 -0.01369821 -0.025429036
0003f0 92 8d 28 3e f0 3a a7 3c a8 0a 01 be a8 db 0a bd
       0.16460255 0.020413846 -0.12601721 -0.033900887

network_body._body_endoder.seq_layers.2.bias f4 [256]
000000 b6 89 b2 bd ed b7 14 3d 73 cd 06 3d 7c 6a 50 bd
       -0.087176725 0.036308218 0.032910775 -0.0508828
000010 ab 12 f0 3c a6 41 bb 3c 9c b4 55 bd 11 cc 27 3d
       0.029305777 0.022858452 -0.052174196 0.040966097
000020 08 dc 85 bd bc fa d0 bd 3a 56 f9 3c b2 c3 87 bd
       -0.06536108 -0.10204074 0.030436624 -0.06629123
000030 92 96 1d 3d 33 b8 e5 bd f1 59 4d 3c 6d bd 8f bb
       0.038473673 -0.11216774 0.012533651 -0.004386595
000040 2c 62 0d bc cd 3b 8e 3d b4 db 0d be 1e 18 2f bc
       -0.008629363 0.06945 -0.13853341 -0.010686902
000050 69 33 af 3d 6b 28 98 3c 15 50 28 bd 6e 22 c1 3a
       0.085547276 0.01857396 -0.041091997 0.0014734992
000060 02 79 a2 bd 0d 3d 33 3d 99 70 4d 3d 74 e5 a5 bc
       -0.07933237 0.043759394 0.05015621 -0.020251013
000070 89 2e e7 bd 5a 89 51 bb 19 4f f7 3c b2 ab 8f bd
       -0.11288173 -0.0031972737 0.030189084 -0.0701517
000080 f8 60 46 bd 71 54 f1 3c 7e f5 e9 3c 67 bf aa bc
       -0.04843232 0.02945921 0.028559443 -0.02084322
000090 17 61 60 bd 0c ec 23 3b c2 47 27 bd a8 09 95 3d
       -0.054780092 0.002501252 -0.040839918 0.072772324
0000a0 e7 b5 15 bd 96 f7 28 bc ac 62 86 bd 23 ab db 3b
       -0.03655043 -0.010312935 -0.06561789 0.0067037507
0000b0 68 d4 88 3c 04 d0 6e bd b9 da 03 3c 82 62 07 bd
       0.016702846 -0.058303848 0.008047753 -0.03305293
0000c0 a7 4b 8b 3b 76 1b 4b bc a3 d9 07 3d 87 7e 93 bd
       0.004250962 -0.012396684 0.03316654 -0.072018676
0000d0 ed 76 3d 3d 6c f3 7b bd 4a df be bd dd 3a 38 3c
       0.046255995 -0.061511442 -0.09319933 0.011244503
0000e0 0d ed 35 bd 50 43 c1 3b 7a 50 8b 3c 74 a4 c3 ba
       -0.044415522 0.005897917 0.017006148 -0.001492633
0000f0 cc c2 dc 3c 22 86 1e 3c 96 9b 68 bd 67 ab 60 bc
       0.026948355 0.009675534 -0.056789003 -0.0137127405
000100 19 04 e5 bd 07 b2 a5 ba a2 ce 1a 3c c4 a8 14 bd
       -0.11182422 -0.0012641557 0.009448679 -0.03629376
000110 61 0d 9c bc 35 ad 23 bd df ce c5 3d 39 c5 af bb
       -0.019049348 -0.039960105 0.09658598 -0.005364087
000120 b8 af ac 3a e8 d5 18 bd 9b 79 55 bd 98 88 2e bc
       0.0013174927 -0.037313372 -0.052117925 -0.010652684
000130 db 11 6c 3d 9f b9 59 bd 17 b0 42 bc 51 8f 52 3c
       0.057634216 -0.053155538 -0.011882803 0.012851552
000140 37 d6 54 bd ae fc 67 bd dd b7 95 bc 09 63 c0 bd
       -0.051962104 -0.05663746 -0.01827615 -0.093938895
000150 a1 c5 8c bc e4 0a 93 bc f0 b1 89 3d 33 8a 20 bc
       -0.01718408 -0.017949529 0.06723392 -0.009798574
000160 c6 5c 86 bd 1b f3 7f bd 9a b0 6a bd 1b 1b 33 3c
       -0.06560664 -0.062487703 -0.057297327 0.010931755
000170 55 ed 33 bc aa 6a 36 bc ce 45 22 bd 78 77 19 be
       -0.010981877 -0.011133829 -0.039617352 -0.1498698
000180 98 22 97 bd 4c 0f 7b bd 6c 6a a5 bb 8b ac e1 bb
       -0.07379645 -0.061293885 -0.005048087 -0.006887024
000190 f0 6c 8f bc 3a d6 16 3d 9e 80 95 bd 33 b5 02 be
       -0.017508 0.036825396 -0.072999224 -0.12764435
0001a0 cf 3e 7d bd 81 93 33 3d bf f6 17 bc ed de 0e be
       -0.061827477 0.043841843 -0.009275137 -0.13952227
0001b0 fb 89 02 bd 6d 06 06 3c 0c e6 10 be 74 8d 7e 3d
       -0.03186987 0.008180243 -0.14150256 0.06214662
0001c0 1e 0f b6 bd 9b b6 68 bc 6b 65 82 bd d6 f5 30 3d
       -0.08889602 -0.014203693 -0.06367 0.043203197
0001d0 85 cd 6c 3d 41 1e 48 bc c0 24 5c bd 77 c9 5a bb
       0.057813186 -0.012214244 -0.053745985 -0.0033384243
0001e0 ba 41 95 bc 44 d7 c8 bd de 19 2b be d6 b9 6f 3d
       -0.018219817 -0.09806684 -0.16709086 0.058526836
0001f0 58 14 d3 bc 02 a8 9e bd e2 48 d6 bd e6 02 80 bd
       -0.025766537 -0.07746889 -0.1046312 -0.06250553
000200 83 bd 79 bd 09 84 93 bc bc 59 a7 bc ce ed 9f bd
       -0.060971748 -0.018007295 -0.02042853 -0.078090295
000210 91 c3 17 3c 73 42 a4 ba 5a ba ec 3c 9f fb 4d 3d
       0.009262935 -0.001253201 0.028897453 0.050288793
000220 bf 29 e9 bc 69 81 53 bd 24 6b 05 bc 4c bd bd bd
       -0.028462289 -0.051637087 -0.00814322 -0.09264621
000230 14 0f b0 bc e1 ff 66 3d bc e8 48 3d 0c 25 1d 3d
       -0.021491565 0.05639637 0.049050078 0.03836541
000240 84 3c f5 3c 02 7b 6a 3d 8f 61 61 ba c0 87 e1 3c
       0.029936083 0.057246216 -0.0008597606 0.027530551
000250 e1 d4 ea bc 74 37 83 bd 1f c8 90 bd d2 f3 11 be
       -0.028665962 -0.06407061 -0.0706942 -0.14253166
000260 ce 89 d6 bd a2 5e d8 bc a5 7a 62 bd 03 c0 0f 3c
       -0.10475503 -0.026412312 -0.055292744 0.0087738065
000270 83 c9 cc 3c 74 42 28 bc 0f a6 34 3d 81 2f 03 bd
       0.024998432 -0.01026975 0.04410368 -0.032027725
000280 2b 10 70 bd 76 e9 2f bd a9 3c 4d bd 4c 01 71 bd
       -0.05860917 -0.042947255 -0.05010668 -0.058839127
000290 90 9c 00 bc 21 75 95 3c 31 db 97 3d a2 f6 3c bd
       -0.007849827 0.018244328 0.07414854 -0.046133645
0002a0 fc 47 16 bd b4 7f 7a bd 5d 7e dc 3b 1b ae e2 bd
       -0.036689743 -0.061156943 0.006728931 -0.11068364
0002b0 9d 52 1e bc 70 68 f3 bd 2f 15 97 3b f3 21 24 3c
       -0.009663251 -0.11885154 0.0046106796 0.01001786
0002c0 40 1c 97 bc c2 db f5 bc 33 f8 90 bd bc e1 f4 bd
       -0.018446088 -0.030012015 -0.0707859 -0.11957118
0002d0 ae 6d 0b bc ab ae fa bd 99 7a 6a bc 19 2f 01 3d
       -0.008510036 -0.122403465 -0.014311456 0.031539056
0002e0 1b e4 63 bd 92 2f f4 bd 4b 2b 2f bd 97 56 bf bd
       -0.05563746 -0.11923136 -0.042765897 -0.093426876
0002f0 45 ca 3c 3d 74 ff 62 bc 2b a1 f5 bd 6a bc 0e 3d
       0.046091337 -0.01385485 -0.11993631 0.034847654
000300 da 1a 8c bd 2d f1 99 bc ae a4 ae bd cc 4b e4 3c
       -0.06841059 -0.01879176 -0.08527504 0.027868174
000310 dd 7a 62 3d 60 68 ea bc 25 75 ea bc 47 ed 6d bc
       0.055292953 -0.028614223 -0.028620312 -0.014521903
000320 5e ef 39 bd 6f 74 0e 3c 84 aa 2f bd 07 94 91 bd
       -0.045394294 0.008694752 -0.042887226 -0.07108312
000330 60 f5 3c bd 90 d5 1a bd 76 0b b8 bc 5c 4c 89 ba
       -0.046132445 -0.037801325 -0.022466403 -0.0010475027
000340 99 e6 da bc d0 dc 62 bd f7 5f 76 bd be 3d 82 bd
       -0.026721286 -0.055386364 -0.060150113 -0.06359433
000350 36 9e 10 be d0 4e 0e 3d a7 b8 bd bd 2d 80 4c bd
       -0.14122853 0.03474313 -0.09263735 -0.049926925
000360 5f 37 17 bc 34 59 3f 3c 39 f2 9f 3d f7 29 af bd
       -0.00922951 0.0116789825 0.07809872 -0.08552926
000370 5e 3d a8 bc fd 00 9c bd 47 fe 38 3d 56 dd ad bd
       -0.020537075 -0.07617376 0.045164373 -0.08489482
000380 4a 49 cb bc 62 e5 3b be f9 2b b2 3c 9c da 50 bd
       -0.02481522 -0.18349221 0.021749483 -0.050989732
000390 63 11 1c bd 18 3c cf bc a7 e6 c0 bc 24 83 b5 bd
       -0.03810252 -0.02529721 -0.023547484 -0.08862904
0003a0 74 e1 e1 bc de 0f 7c bd 85 d6 d8 bd 80 f7 52 3d
       -0.027573325 -0.06153857 -0.10587791 0.051505566
0003b0 f8 b1 7c bd c4 14 af 3a be 3a d7 bc 05 d7 8f bd
       -0.06169316 0.0013357629 -0.026273128 -0.070234336
0003c0 05 2d f7 bc 72 80 d1 bc 89 23 a4 bd 2c c4 88 bd
       -0.030172834 -0.025573943 -0.0801459 -0.06678042
0003d0 2a 27 00 bd a7 4c 0c 3d 56 c9 bf 3c e6 54 94 bd
       -0.03128735 0.03425279 0.023411434 -0.072427556
0003e0 c1 88 85 bd c9 ee 97 bc 0c ea 40 3c 76 f4 d4 3c
       -0.06520224 -0.018546479 0.011774551 0.025995474
0003f0 bb d4 5c bc 9e a1 59 bd 0a 31 ea 3c 88 7b 6e bd
       -0.013478453 -0.053132646 0.028587837 -0.058223277

network_body._body_endoder.seq_layers.2.weight f4 [256, 256]
000000 5e 65 2e 3e 32 2d 36 bd c7 46 59 3c 47 7b 8d bd
       0.17030856 -0.044476695 0.013261504 -0.06908279
000010 92 20 1f be b1 5b 5c be b9 e1 a8 bd 0d 0e ce bc
       -0.15539768 -0.21519352 -0.08246178 -0.025153184
000020 11 fa e8 bd f8 09 fb bd a5 ae 26 bd a4 6f c8 bd
       -0.113758214 -0.12257761 -0.040693898 -0.09786919
000030 8c bf 80 3e 94 10 03 3e ad 31 36 3b b1 54 71 3d
       0.2514614 0.12799293 0.0027800605 0.05891866
000040 b2 c2 29 bc bb e6 58 3d 5e e3 b3 3d c9 5a 52 bb
       -0.01036136 0.052954417 0.08783601 -0.003209757
000050 d5 5a cb bd e9 7d 39 3e b6 65 f9 3c fc 86 8a 3d
       -0.09929434 0.18114437 0.030444007 0.067640275
000060 dd de b1 3d 4e 81 63 be c6 87 5b bc 99 ac 8a 3e
       0.08685086 -0.22217295 -0.01339907 0.27084807
000070 0e 67 06 3e 43 4e 9f bd 2a 89 8d 3c 95 23 c4 bc
       0.1312525 -0.07778599 0.017277319 -0.023942748
000080 81 98 ff bd 0f b0 18 be 90 9c 10 3e a9 e3 f3 3c
       -0.1248026 -0.14910911 0.14122224 0.029771643
000090 2b be dd 3a 2d 9a 93 bd db d2 35 be d1 29 de 3d
       0.0016917636 -0.07207141 -0.17756216 0.108478196
0000a0 27 5d af bc fc b6 8a be 54 78 fe 3d 2c 18 34 be
       -0.021406723 -0.2709273 0.124252945 -0.17587346
0000b0 bc 2f 48 3d 6b 21 f7 3d 9c 06 13 3d a2 e8 1a 3e
       0.048873648 0.12066921 0.035894975 0.15127805
0000c0 4b 4b d8 3a aa 74 f8 bc 7f 33 68 be c4 bc 85 3b
       0.0016501931 -0.030329067 -0.22675894 0.0040813405
0000d0 1e 2d f1 bd 93 25 be bd 2f f9 b4 bd f4 64 5d 3a
       -0.117761835 -0.092845105 -0.088365905 0.0008445524
0000e0 e7 04 f9 3c fd 21 12 3c 72 0e de 3c cb 4b 7c 3e
       0.030397845 0.008919236 0.027106497 0.24638288
0000f0 f8 ae 71 bd c8 45 80 3d 10 50 10 3d b1 00 b0 bc
       -0.059004754 0.0626331 0.035232604 -0.021484705
000100 11 48 45 3c a5 73 6e be 9d d9 e5 3b 87 75 31 bd
       0.012041108 -0.23286302 0.007014467 -0.043324973
000110 e4 77 39 bd 5a 82 1b 3d c5 21 37 3d 07 ee d5 3c
       -0.045280352 0.03796611 0.04470994 0.026114477
000120 8b c0 6e 3c 91 c7 5a bc 53 0c 6e bd 2b 23 2c 3c
       0.014572273 -0.013353244 -0.058117222 0.010506432
000130 fd 5c a1 3c 2b e5 3a be 49 fc f6 bc 2e a9 54 be
       0.01969766 -0.18251483 -0.030149596 -0.20767662
000140 9a 5d 88 3c 44 c1 b4 bd 44 89 a7 bb d4 4c 92 3e
       0.016646195 -0.08825925 -0.005112799 0.2857424
000150 7f fb 07 bd dd 6b 0d be b1 af 2f bd dc 28 33 3d
       -0.03319883 -0.13810678 -0.04289216 0.04374014
000160 48 31 c8 bc 05 04 22 bd 78 94 71 be 11 c1 7e bd
       -0.024437562 -0.039554615 -0.23591793 -0.06219584
000170 cc 5d 1d bd e5 c5 aa 3c 22 59 c5 bd a6 20 6c bd
       -0.03841953 0.020846317 -0.09636141 -0.057648323
000180 08 83 1b 3e b1 40 87 bd 4d 3b 75 bd c0 73 3d bd
       0.15186703 -0.06604136 -0.059871007 -0.046252966
000190 7f 16 d3 3d 70 1e 80 bd e2 c6 49 be 0f 7b 90 be
       0.10307025 -0.062558055 -0.19704774 -0.28218886
0001a0 e4 f3 86 3d 9f c2 8f 3c 25 76 d1 3b ce 21 d0 bb
       0.06589487 0.017548857 0.0063922578 -0.006351686
0001b0 90 40 88 3c fa 4b 11 be a2 13 0e 3a 16 1c 4a 3e
       0.016632348 -0.14189139 0.00054197956 0.19737276
0001c0 78 1b d5 3b 1c 24 18 be 96 ef ce 3c ef 7d 54 bd
       0.0065035187 -0.14857525 0.025260728 -0.051877912
0001d0 f3 0d 58 bd 4e 4a 0a be 96 02 dc bd 83 d7 08 3e
       -0.052747678 -0.13504907 -0.10742681 0.13363461
0001e0 91 7c 26 3e 29 eb e5 bc ae 1a 6a be 70 89 21 bb
       0.16258456 -0.028066235 -0.2286174 -0.002464857
0001f0 d6 c7 2f 3d 99 83 a5 3d 5e a4 ec 3d d0 62 b0 3d
       0.042915188 0.08081741 0.11554788 0.08612597
000200 4e 7a a9 bd 81 29 a4 be 22 f5 32 3d af 74 0f 3e
       -0.08275281 -0.32062915 0.043690808 0.14009355
000210 ce a7 e0 bd 60 0b 89 bd f6 a4 81 bc 6b d2 62 3d
       -0.10969506 -0.06691623 -0.01582573 0.05537645
000220 8a 37 11 be bd 32 18 3b 65 37 9b 3b 3c 04 19 3e
       -0.14181343 0.0023223602 0.004736828 0.14943022
000230 f5 2b 32 be 23 1b 88 bd cd 89 eb bd ef c5 a9 3c
       -0.17399581 -0.06645801 -0.11500893 0.020724265
000240 1f 37 01 bc 16 d5 40 3d 37 45 0e 3e e1 ba 98 3c
       -0.007886677 0.047078215 0.13893591 0.018643798
000250 c5 96 61 bd 4f f5 a2 3d db 53 5b bd cf d4 9c 3d
       -0.055075426 0.07956945 -0.053546768 0.076577775
000260 af ad 85 3d bf 71 4c 3d 4c 68 62 bd 87 60 ff bd
       0.06527268 0.049913164 -0.055275247 -0.12469583
000270 cc 1d a3 bd bb dd e6 bd 99 49 86 3e 1a 8c 38 3e
       -0.07964668 -0.112727605 0.26228026 0.18022195
000280 92 4f 96 3d e3 89 54 3d 57 99 63 be 5c 64 75 3d
       0.073393956 0.05188931 -0.22226463 0.059910163
000290 3f fa 1b be 23 e4 d6 bd ea 23 1d bd b3 0d 64 be
       -0.1523218 -0.104927324 -0.03836433 -0.22270851
0002a0 0b 24 b0 bb c8 11 c0 bb 32 15 b9 3d bb 58 ef bd
       -0.0053753904 -0.0058614947 0.09037246 -0.11686846
0002b0 91 70 f0 3d d4 02 7a bd 7c 21 06 3e b4 da d9 3d
       0.1174022 -0.061037853 0.13098711 0.106374174
0002c0 c9 d2 a1 3b 55 d8 57 be be 4d 1c 3d 47 b0 63 bd
       0.0049384576 -0.21078618 0.03816008 -0.055588033
0002d0 b8 fd 78 bb f5 19 d0 3d 7a 8a 29 be 8d 79 09 3d
       -0.0037993025 0.10161201 -0.16556731 0.033563185
0002e0 d0 0e 05 3e 7a c8 73 bc 65 7b 8e bc 99 ab 14 bc
       0.12993932 -0.01487934 -0.017392823 -0.009074115
0002f0 f2 3b d8 bd ba 2d f3 3d fe 5f 2f bd 76 c7 a5 3c
       -0.10558309 0.11873956 -0.042816155 0.020236712
000300 4f 6b a2 bc 35 db 95 bb dc ee 49 3d 11 5a bc bc
       -0.01982656 -0.0045732507 0.04930006 -0.022992166
000310 58 53 5c 3d ab 98 8a 3e dc f9 37 be 7f b6 14 3d
       0.05379042 0.270696 -0.17966408 0.036306854
000320 bd 73 e1 bd 38 11 9f 3d ec 5d 4e bd fd c7 8d bd
       -0.110084035 0.07766956 -0.05038254 -0.0692291
000330 78 01 1a bc 94 d0 84 be b7 6d 49 3d d7 41 48 be
       -0.009399764 -0.25940382 0.049176898 -0.19556366
000340 1e 54 4d 3e 31 8c b2 3d 9e f9 09 bd 6b c4 7e 3d
       0.2005162 0.08718146 -0.03368532 0.062199038
000350 13 df 5d 3e 33 6f 99 bc a9 3a 22 bd 47 3f 28 3d
       0.21667127 -0.018729782 -0.039606724 0.04107597
000360 f1 51 7c bd 4a 3c 3b bd 32 0b 3f bd e7 77 e7 bd
       -0.061601583 -0.045711793 -0.046641536 -0.113021664
000370 e5 5b 1c be 62 45 8e bc 88 6c 5d bd 51 0e 5a bc
       -0.1526943 -0.017367069 -0.05405858 -0.013309077
000380 1d e3 c4 bc 30 46 06 bd 22 58 89 3d 0d 6e a3 3d
       -0.024034077 -0.03278178 0.06706263 0.07979975
000390 a3 44 93 bc 5d 28 9e 3c fe 8c b1 bd 0f 56 03 be
       -0.017977064 0.019306356 -0.0866947 -0.12825797
0003a0 3c 58 93 bb fc 6b 04 3d 35 bb 1a be ab cc b1 bd
       -0.0044966023 0.032329544 -0.15110476 -0.086816154
0003b0 e8 b5 c0 3d 73 23 01 be 94 d8 f8 bd 53 85 09 3d
       0.09409696 -0.12611179 -0.12150684 0.033574414
0003c0 86 1b 2f be ec 4a b1 bc ef 19 de bd aa c3 30 be
       -0.17100343 -0.02164217 -0.1084479 -0.1726214
0003d0 7f d0 e9 bd 27 37 45 3d 15 df e4 3d 7f bc 86 3d
       -0.114167206 0.0481483 0.11175362 0.065789215
0003e0 e8 7c 11 be e0 1e 18 bd c9 a9 39 3d 02 c7 02 be
       -0.14207804 -0.03713882 0.045327935 -0.12771228
0003f0 d0 43 a4 bd 6b 7d 5a bd a3 29 f9 bb c3 94 16 3d
       -0.08020747 -0.053342264 -0.0076038404 0.036762964
