Assets/TFModels/Other models trained in the process/prova_curr_6M_BROTNS_BP.onnx (onnx, 915308 bytes, 9 tensors)

action_model._discrete_distribution.branches.0.bias f4 [5]
000000 0f 9a 39 bd 28 0a db bc 60 19 f5 3d b3 b1 eb 3d
       -0.045312937 -0.026738241 0.119677305 0.11508503
000010 d6 3b 19 be
       -0.14964232

action_model._discrete_distribution.branches.0.weight f4 [5, 256]
000000 6b 3c 1d 3d 59 6d 03 bd 8a cb ab 3b b1 95 5c bd
       0.038387697 -0.032086704 0.0052427696 -0.053853694
000010 15 d2 12 3d 86 03 f4 3d 83 89 38 3d a4 a8 ca 3d
       0.03584488 0.119147345 0.045053016 0.09895447
000020 04 35 29 bd 56 20 a0 3d c1 2c c8 3c e0 dc f9 3d
       -0.041310325 0.078186676 0.024435403 0.12200332
000030 59 47 46 3d 25 b8 d9 3d 33 ab 7b bd 3c fe 8d 3d
       0.048407886 0.10630826 -0.061442565 0.06933257
000040 66 ee 4f bd f2 96 1a bd 83 f3 00 3e b4 fe d9 bc
       -0.050764464 -0.03774161 0.12592892 -0.02661071
000050 83 c0 c2 3d 4b b1 d0 3d f5 8d 02 3e 92 49 f5 bd
       0.09509375 0.10190066 0.12749465 -0.11976923
000060 f0 c2 fe bc f2 18 3b bc 72 f8 b9 bd a9 38 be bc
       -0.031098813 -0.011419522 -0.0908059 -0.023220377
000070 b8 26 05 bd c0 55 57 3d f9 bc 9b 3d 53 a2 02 3d
       -0.03250763 0.052572012 0.07604403 0.031893086
000080 d2 9b f9 bd af 9a b1 3d b9 13 b3 3d 32 ac d3 3d
       -0.121879235 0.08672082 0.08743996 0.10335578
000090 57 13 9b bd 6d c8 17 3e ce 2b 31 bd 43 8f 28 3e
       -0.07572048 0.1482255 -0.043254666 0.164609
0000a0 17 50 dc 3d ab da d3 bd 40 d8 d2 3d 1c 64 4c bb
       0.107574634 -0.10344442 0.10295153 -0.00311876
0000b0 d5 c9 8b be 8b 24 ca bd d3 41 66 3c 8b af 87 3d
       -0.27302423 -0.09870251 0.01405378 0.06625279
0000c0 a8 8e d3 bb c7 93 35 bc a9 f4 06 bd 57 f0 de 3d
       -0.006456215 -0.011082596 -0.03294817 0.10885685
0000d0 b1 27 b9 bb 0e d3 37 bc 9f 76 8b bd 1e 18 ac 3b
       -0.0056504835 -0.011219753 -0.068097346 0.0052518984
0000e0 fb 12 c2 bd 47 46 29 bd fa 79 cf bd ae b1 fa 3b
       -0.094762765 -0.041326787 -0.10130687 0.0076505756
0000f0 26 1c 71 3d 77 d7 b1 3b b9 64 ae 3d 65 dd fe bd
       0.058864735 0.0054272967 0.08515305 -0.124445714
000100 ef a1 34 3e 9b 8d 49 3e f9 ca 25 3d 3d 60 86 bd
       0.17639898 0.19682924 0.040476773 -0.06561325
000110 80 4c e7 3d 61 36 f9 3d 58 da 30 3d 6e ff 31 bd
       0.11293888 0.12168575 0.04317698 -0.043456487
000120 b7 a8 85 3d 35 dc 20 bd bc 30 7f 3c ea e4 30 be
       0.065263204 -0.039272506 0.015575584 -0.17274824
000130 9f 7f a2 3d a7 bc a6 bc 0c be 27 3e 09 c2 1d bd
       0.07934498 -0.020353628 0.16381091 -0.038515124
000140 19 49 cf 3c 4c d3 72 3b 89 3d 9e bd 57 12 17 3d
       0.02530341 0.0037052212 -0.07726581 0.036882725
000150 02 12 1e 3e 3a 7f 0a 3e 47 ca 81 3e a2 a3 44 3d
       0.15436557 0.13525096 0.25349638 0.048007615
000160 02 11 2c 3d 6d 68 d5 3c 2e bf 83 bc ab 70 c1 3d
       0.042008407 0.02605077 -0.016082373 0.09445318
000170 0d cd 7a ba 06 b7 95 3d bb ce bb 3d b4 69 fa bd
       -0.0009567298 0.073102996 0.0917029 -0.122271925
000180 ec fd 3c 3e 73 4a ca bd 96 45 87 3d 50 59 b5 bc
       0.18456239 -0.09877481 0.06605069 -0.022137314
000190 67 5e 28 3e e9 6e 01 bb d2 97 3d bd a9 ce 2d bd
       0.16442262 -0.0019749945 -0.046287365 -0.042433415
0001a0 b7 a9 df bb 4a 48 32 3d e6 dd ab 3d 21 78 ab 3c
       -0.0068256515 0.04352597 0.08391933 0.020931305
0001b0 89 8d 85 3d 41 c1 75 3b 0a 51 f9 3c 59 95 81 3c
       0.06521136 0.0037499222 0.03043415 0.015818285
0001c0 80 1e 7b 3d 8b 0a 1b 3e 52 e7 9c 3d fa 21 28 bd
       0.061308384 0.1514074 0.07661308 -0.041048028
0001d0 13 6f 6c 3d b8 c0 ba bc a3 09 82 be 57 8e d7 3d
       0.057723116 -0.022796974 -0.25397977 0.10525196
0001e0 ac 08 6e bc 86 14 79 bd 7d e9 45 be 46 43 f2 3d
       -0.014528435 -0.06081059 -0.1932735 0.11829238
0001f0 02 f8 2c be be be 2e be 7d 71 95 bc 98 48 9e 3d
       -0.16891482 -0.1706495 -0.018242592 0.0772869
000200 e3 c9 b4 bd 2d 79 67 3d 65 e1 92 3d 39 9c 44 3d
       -0.08827569 0.056512047 0.07171897 0.048000548
000210 fa 9c cb bc f4 dc 52 3b f0 94 04 3e 07 fb d2 3d
       -0.024855126 0.0032175155 0.1294744 0.10301786
000220 31 7b 27 bb ea 3b 09 3d 37 f6 14 be 36 c2 ef 3d
       -0.0025555606 0.033504404 -0.14547049 0.11706965
000230 a8 5e 1c 3c 61 f8 cb bc 38 a9 f4 3d 94 3c 56 3d
       0.009544052 -0.02489871 0.119463384 0.052303866
000240 58 7f 81 3d 72 56 e9 bd 5f 76 26 3d 9a 00 16 3b
       0.06323117 -0.11393441 0.04064023 0.0022888542
000250 92 e4 0a be d7 43 f0 3c f9 14 de 3d df 97 75 3d
       -0.13563755 0.029329224 0.10843844 0.05995929
000260 f3 59 10 3d d1 28 4d be 63 69 0c 3c 55 57 b3 3d
       0.035242032 -0.20035101 0.008570048 0.08756892
000270 1e 6b 94 3c ff 6a 89 bd 40 06 82 bd 73 7c 83 bd
       0.018117484 -0.06709861 -0.06348848 -0.06420221
000280 c1 f7 6a bb 92 8b 46 be 6d a6 35 3d 1e 9a 95 3d
       -0.003585324 -0.1938918 0.04434817 0.07304786
000290 c0 3d 71 3d fa d7 d0 3d 3d e1 ca 3d cd 4f 9f bd
       0.05889678 0.10197444 0.09906242 -0.07778893
0002a0 64 bf 83 3c 7a 93 ad bd 9a c2 2f 3d b9 2b 57 bc
       0.016082473 -0.084753945 0.042910196 -0.013132983
0002b0 09 db af 3d 66 cd 42 3d 01 be 82 3d 78 75 6f bc
       0.085866995 0.047559164 0.063838966 -0.014615409
0002c0 e2 fe d0 3d 79 2b 13 3e 93 f6 2b b8 aa 56 04 bc
       0.10204865 0.14372052 -4.0999217e-05 -0.008077303
0002d0 be d5 1d 3e 46 5c 3d 3e 45 c5 30 3e f9 22 7e be
       0.15413567 0.18492231 0.17262752 -0.24818029
0002e0 45 af 55 3d 16 36 4f 3d 30 ea 87 3c 7c f4 15 3e
       0.052169103 0.05058869 0.016591161 0.14644045
0002f0 dc 32 a9 bc 3c 98 20 3d 1a b9 93 3d a3 d4 89 3d
       -0.020654134 0.039207682 0.0721304 0.0673001
000300 e0 41 c1 bd 75 79 94 3d 1f a3 07 3e c5 6b 33 bd
       -0.09436393 0.072497286 0.1324582 -0.04380395
000310 2c b6 14 3d a0 96 4c 3d 85 f7 b1 3c 4b 5a ee 3b
       0.036306545 0.049948335 0.021724472 0.0072739474
000320 13 0a 0c be 64 0e d9 3d 03 bb 12 bd 58 ec 19 3e
       -0.13675718 0.10598448 -0.03582288 0.15031564
000330 d2 ea 23 3e 72 2e 26 3e 4f a5 9b bd df d2 0a 3e
       0.16007546 0.16228655 -0.075998895 0.13557003
000340 4f fd 32 3d f8 bd c3 bc 8e af 26 be c8 3d 01 3d
       0.043698605 -0.023894295 -0.16277906 0.03155306
000350 9b a5 43 3d 29 98 81 bd 21 1a ef bd 3b 1a 9e bd
       0.047765356 -0.0632785 -0.116749056 -0.07719847
000360 a4 9d ae bd d6 bc a9 bd 52 6d 18 3e 39 61 25 bd
       -0.08526161 -0.08287971 0.14885452 -0.040375922
000370 4e 98 55 bd 1b 27 8d bc 1f c5 11 3d 89 42 3c bd
       -0.052147202 -0.017230561 0.03558838 -0.04596189
000380 5c a1 42 bd 66 e5 c8 bc 75 58 28 bc b4 c8 a9 3c
       -0.047517166 -0.024523448 -0.010274996 0.020725586
000390 8f 82 c3 3c f5 c9 c4 3c 6a ed a7 bd 1f 90 f5 bc
       0.023865966 0.024022082 -0.0819958 -0.029975949
0003a0 64 8e 22 be ff 86 70 bd 49 de d0 3d 65 0c 08 bd
       -0.1587463 -0.058722492 0.101986475 -0.033214945
0003b0 60 f1 1f be 21 88 4f 3d bd 8a 5e 3c 13 fa cc bd
       -0.15619421 0.050666932 0.0135828825 -0.10008635
0003c0 ce 1c 70 be a7 25 a3 bb 77 17 1b be 57 0c 11 3e
       -0.23448488 -0.0049788537 -0.1514567 0.14164864
0003d0 a6 de b3 bd 88 34 4a 3e c1 22 96 bb f4 79 b7 bc
       -0.08782701 0.19746602 -0.0045817797 -0.022397019
0003e0 39 f4 9b 3d 10 01 6f bd 47 35 57 bd 0b 6e 0e 3e
       0.07614941 -0.058350623 -0.052541044 0.13909166
0003f0 de 52 20 3d 78 d8 08 3e 42 27 81 3d 04 8f 2c 38
       0.03914153 0.13363826 0.06306316 4.114119e-05

action_model._discrete_distribution.branches.1.bias f4 [3]
000000 66 41 15 be e1 4e 1c 3f ae 8b dd be
       -0.14575729 0.6105786 -0.4327063

action_model._discrete_distribution.branches.1.weight f4 [3, 256]
000000 e8 8b 07 bd de 31 fc 3c 04 41 d4 3d 14 c7 e5 bd
       -0.03309241 0.030785497 0.10363963 -0.11219612
000010 ac 0e c3 3d 21 1d 3b 3d b6 67 a7 3d 5c b9 e8 3b
       0.09524283 0.045682076 0.08174078 0.0071021747
000020 76 00 79 bd dd 1f 29 bd 55 fd 89 3c 80 a7 ca 3b
       -0.060791455 -0.041290153 0.016844431 0.0061845183
000030 ac a6 2f bd 0e 0d 60 3c e0 84 83 ba c2 ca c4 3c
       -0.04288356 0.0136749875 -0.0010034107 0.024022464
000040 a8 20 38 3d e7 b6 1e be cb 59 00 be 89 60 58 bc
       0.04495302 -0.15499459 -0.12534253 -0.0132066095
000050 d4 6c 4d be 3e b8 fa 3d a7 5d 50 bd 8b a1 68 3d
       -0.20061046 0.12242173 -0.050870564 0.056794684
000060 ce a7 01 3d 88 c3 13 bd de 33 c7 3d 58 c2 79 bc
       0.03165417 -0.036075145 0.0972669 -0.015244089
000070 33 52 11 3e 3f 7d 83 bb 17 99 a2 bd 3b 2e 8d bd
       0.14191513 -0.004012733 -0.07939356 -0.068935834
000080 eb d6 dd bd 68 b6 e9 3d 7f 6b 8b 3d f6 94 68 3b
       -0.10832008 0.11411744 0.06807613 0.0035489178
000090 da 7c 82 bc 6e e3 20 be b4 b0 f4 3b 97 4b d3 3d
       -0.015928674 -0.15711758 0.0074673537 0.10317152
0000a0 59 c0 cc 3b 53 65 1b 3e 1a 11 36 3e 34 29 90 bd
       0.0062485156 0.15175371 0.17779961 -0.07039109
0000b0 34 56 f7 bd 9b 67 2e bc 0c 80 02 be 94 af f1 bd
       -0.12076989 -0.010644819 -0.12744159 -0.11801067
0000c0 82 a4 e7 bc 65 e2 1a be 09 f8 0f 3d c0 7f 42 3e
       -0.028276686 -0.15125425 0.035148654 0.18994045
0000d0 48 b3 85 bd 96 56 78 3d d0 01 e8 bb 09 50 e0 3d
       -0.06528336 0.06062945 -0.007080294 0.109527655
0000e0 c2 4e b4 3c 17 b4 0d 3d ff 00 a7 bd 12 db 50 be
       0.02201021 0.034595575 -0.08154487 -0.20396069
0000f0 87 6e 54 be 11 93 86 3d ba cb 04 be 67 54 24 be
       -0.20745288 0.065710194 -0.1296834 -0.16047822
000100 73 32 f7 3d 6b 36 5d bb 99 bd 58 bc 1a bd 2d be
       0.12070169 -0.003375436 -0.013228797 -0.16966668
000110 75 a1 9b 3d 70 7f ad 3c 59 61 be bd cb 33 80 3d
       0.07599155 0.021178931 -0.09295911 0.06259879
000120 c0 ce 95 bd b0 87 e6 3c d8 bd a6 bd 12 60 83 3d
       -0.07314825 0.028140873 -0.081416786 0.06414808
000130 9e e3 0c 3d 19 4f ad 3b 04 66 2f be d5 63 1a 3e
       0.03439676 0.00528897 -0.1712876 0.15077145
000140 39 13 51 3d b1 a8 8b 39 3b 70 e1 bd 36 d7 8a bc
       0.051043723 0.0002663783 -0.110077344 -0.016948324
000150 d2 64 82 3c dc 2c a3 3d e4 d0 13 3e 0a dd d1 bd
       0.015917215 0.079675406 0.14435154 -0.10247238
000160 e9 cb 3b 3d f8 12 f8 3c 9a 8c 17 bc dd 91 92 bd
       0.04584876 0.030282483 -0.009249831 -0.071567275
000170 4f e9 1b bd e2 ba 86 bd 7a 08 b6 3d d7 2b 56 3d
       -0.038064297 -0.06578614 0.088883355 0.052287903
000180 6b 10 8e bd 5e 84 a0 3b ac f6 1b bd e8 c8 82 3b
       -0.06936725 0.004898592 -0.03807704 0.003991235
000190 4c ff 57 bd 64 0f af 3d fe 0f 8d bd 8c 10 82 3c
       -0.052733704 0.085478574 -0.06887816 0.01587703
0001a0 74 7a 7f bd d0 07 d8 bd 49 c6 7b 3d 0d cf 06 3e
       -0.06237264 -0.10548365 0.061468396 0.13164921
0001b0 8b 49 2c be 5d d9 9b 3d 75 cb a4 bd 7f 24 af bd
       -0.1682493 0.07609818 -0.08046619 -0.08551883
0001c0 cb 1d 2e bd 88 54 8d 3d 79 46 bc bd 20 a0 82 3d
       -0.04250888 0.06900889 -0.09193129 0.06378198
0001d0 0c 95 35 be 00 de 17 3d 43 40 c5 3d b5 4d 2e 3d
       -0.17732638 0.03707695 0.096313976 0.042554576
0001e0 a0 6e 97 3c a7 58 79 3d 01 dd 27 be 4b 0f 8e 3d
       0.018485367 0.06087556 -0.163929 0.06936511
0001f0 06 fc 06 bd d2 f4 58 be 1e 33 43 bd 73 7e 90 3d
       -0.032955192 -0.21187142 -0.04765617 0.07055368
000200 a6 da 49 be 1d e1 99 3d 2d e1 66 3c 12 72 94 bd
       -0.19712314 0.0751364 0.014091772 -0.0724832
000210 73 ae 1a 3e e5 c3 11 be c1 fe db 3d a7 f0 09 bd
       0.1510561 -0.14234884 0.1074195 -0.03367677
000220 49 80 9b 3c 12 89 11 be 33 34 45 3d 22 35 96 bc
       0.01898207 -0.14212444 0.048145484 -0.018335883
000230 bd 11 1e be f5 19 92 3b 1d 0d 98 3d c7 b6 75 bc
       -0.15436454 0.0044586607 0.07424376 -0.014997191
000240 1c 09 bc bc df 0f cc bc 37 d4 46 3d e9 3d ba 3c
       -0.022953562 -0.024909912 0.048542228 0.0227346
000250 42 9b 90 3a d5 b7 7b 3d 6e 3f 00 bd 6c a9 65 be
       0.0011032599 0.061454613 -0.03131049 -0.2242791
000260 4b 10 c0 3c 11 cd 13 3d 4a 89 1e 3c 3c 34 fd bd
       0.02344527 0.03608424 0.009676287 -0.123634785
000270 eb f7 4c be 6c 37 32 3d b7 d3 47 3e e8 f7 45 bd
       -0.20016448 0.043509886 0.19514357 -0.048332125
000280 f8 c1 0c be ba a1 92 3c 41 7b 42 bd 93 c4 69 3b
       -0.13745868 0.017899383 -0.047480825 0.0035670146
000290 d0 10 ca 3a cd d4 3f 3d 6d 4d 38 3e 8e b2 97 bd
       0.0015416387 0.046833802 0.17998286 -0.074071035
0002a0 dd 7d 3d 3d fb 0b 65 3d 85 40 6b bd c6 8e be bc
       0.04626261 0.05591963 -0.057434577 -0.023261439
0002b0 b4 58 73 3d 85 47 a0 3c 84 3c 45 be b7 df 0b 3e
       0.059410766 0.019565353 -0.19261366 0.13659559
0002c0 06 a7 a4 3c ee 38 cf bc eb 30 d3 3c 41 1d 1c 3e
       0.020099174 -0.0252957 0.025780162 0.15245534
0002d0 4b 83 5c 3d c7 7b 76 3c ae 44 15 3d d3 8e bf bc
       0.05383615 0.015044159 0.03644245 -0.023383534
0002e0 c8 e8 88 3d 1e f2 f1 3d ff af 53 bc 2a e5 e5 bd
       0.066850245 0.11813758 -0.012920379 -0.1122535
0002f0 5e 04 2c be b7 f1 c5 3d 8b 11 f9 3b 59 31 90 bd
       -0.16798541 0.09665244 0.0076009682 -0.07040662
000300 a2 62 86 3c b9 1c 76 3d 83 54 aa bd 75 58 0c bd
       0.016404454 0.060085986 -0.083169006 -0.034264047
000310 df f5 e5 3b 29 e1 a9 bd 2d da f4 3d a7 a1 9e 3c
       0.0070178355 -0.08294899 0.11955676 0.019364191
000320 33 ef 2f 3e 0d 82 f8 3d 46 9a 03 3d 30 ef e8 bd
       0.17181091 0.1213418 0.03212955 -0.113737464
000330 e5 6a e7 3d 8c eb 0a 3e 1d 5d 66 be b2 37 9a bc
       0.112996854 0.13566417 -0.22496457 -0.018825386
000340 6b fa c3 3d f3 a1 c0 bd 40 2e 8c 3d 7a 2d 83 3d
       0.09569248 -0.09405889 0.06844759 0.06405158
000350 d7 c9 49 be 66 54 36 ba b3 a9 6c 3d 82 f3 0c bd
       -0.19705902 -0.00069553254 0.057779025 -0.034411915
000360 23 bd c5 bd 55 19 5b 3d f7 3b 40 bd ca ef d8 3d
       -0.096552156 0.053490955 -0.046932187 0.10592611
000370 4e 63 1d 3c d9 81 89 bd f4 ec c2 bd 0e cc 8b bd
       0.009606196 -0.067142196 -0.095178515 -0.0682603
000380 70 cb d5 bd cd 15 c5 bd 58 47 8b bb 68 00 c3 3a
       -0.10439193 -0.09623299 -0.004250448 0.001487744
000390 f0 3a 5b bd 76 66 b4 bd 57 32 f6 bd 9d 04 cc bd
       -0.053523004 -0.088086054 -0.1202132 -0.099618174
0003a0 dd 36 bc ba 2d 6a 52 3d c4 4a 95 3c c8 45 e9 bc
       -0.0014359612 0.05137079 0.018224128 -0.028475657
0003b0 86 90 61 be ec 6b df 3b 28 02 82 be b0 1a 68 bb
       -0.22027788 0.006818285 -0.2539227 -0.0035416298
0003c0 85 92 85 3c 63 83 4d 3c 0c 98 97 bb d6 df 62 3d
       0.016305218 0.012543532 -0.0046262797 0.055389248
0003d0 4b d8 c7 3d aa a5 9b bd ae a3 b9 bc 2c 50 0c bd
       0.097580515 -0.07599957 -0.022661056 -0.034256145
0003e0 45 8c a6 bd 1c 2f 29 be 19 a9 58 3d 6e 4b 77 3d
       -0.08132223 -0.16521877 0.05289564 0.06037467
0003f0 81 67 6f bd 02 01 5a bd 5e 51 00 3e d7 54 3f bd
       -0.05844832 -0.053223617 0.12531039 -0.04671177

discrete_action_output_shape f4 [1, 2]
000000 00 00 a0 40 00 00 40 40
       5.0 3.0

network_body._body_endoder.seq_layers.0.bias f4 [256]
000000 bf 38 5e be c4 5f 61 be be 4a 9c be 3a 5f 33 3d
       -0.21701334 -0.22009188 -0.30525774 0.043791987
000010 a0 28 ee 3b 2f fc 8d be b2 53 3c be 01 b2 fd bd
       0.0072680265 -0.27731463 -0.18391302 -0.12387467
000020 74 a8 0a bd a9 5e 91 be 2f bf 4e 3c 29 e7 b6 be
       -0.033852056 -0.28392532 0.012618824 -0.35723236
000030 07 44 81 bd aa 5a da 3b 00 a5 01 be 65 8d de bd
       -0.06311803 0.00666364 -0.12660599 -0.108668126
000040 a3 49 32 be c6 f4 88 be 2a 47 75 bd 66 1e af bd
       -0.17410903 -0.26749247 -0.05988232 -0.0855072
000050 ca 10 2e bd c3 d4 5d be 51 17 a6 3d 4f 63 64 bd
       -0.04249648 -0.21663193 0.08109916 -0.05575877
000060 9b a5 81 3c cd 13 8a bb a0 ec 8a bd 69 2d fe bd
       0.015826037 -0.004213786 -0.06783414 -0.12411005
000070 4e 17 29 bd 1b 29 53 be 88 40 5f bd a8 de c0 bd
       -0.04128199 -0.20621149 -0.0545049 -0.09417468
000080 ee be 37 be 47 f3 1f bc f7 2b 22 be ab 6d 2f be
       -0.17943928 -0.009762592 -0.15837084 -0.17131679
000090 cf aa 36 3d bb 01 12 3c a5 d5 4a 3c ed b6 cd bd
       0.04459649 0.008911545 0.012380038 -0.10044656
0000a0 5a 00 48 be 0d 87 cd 3d 86 9b 70 be ee c7 eb bd
       -0.19531384 0.100355245 -0.23496827 -0.11512743
0000b0 5b f4 1d be 33 b4 9f be 2d 49 8e be d3 5f 3c be
       -0.15425245 -0.3119217 -0.27790204 -0.18395929
0000c0 8b 66 4b be e2 75 f3 bd 9f 4a 72 be 4b 7a 98 bd
       -0.19863336 -0.11887719 -0.23661278 -0.074452005
0000d0 d6 ba 77 bd 00 ec 0a be b4 84 f3 bd 49 69 1f be
       -0.060480915 -0.1356659 -0.118905455 -0.15567507
0000e0 b9 f4 01 be 61 71 df bb b0 a1 bd bc 82 c7 a6 bc
       -0.1269101 -0.0068189357 -0.023148388 -0.020358805
0000f0 4c e9 08 be 93 f6 23 be d3 6e f8 bd 1d fa a6 bd
       -0.13370246 -0.1601203 -0.12130513 -0.08153174
000100 99 c6 8d bd 2f bf a7 bd 36 93 b3 ba e5 ae 51 be
       -0.06922645 -0.08190762 -0.0013700488 -0.20476873
000110 de 6f 86 ba 47 85 c0 bd 48 e5 e4 bd 3d 0c 98 bd
       -0.0010256728 -0.09400421 -0.111765444 -0.07424209
000120 0e 3e d3 3d 16 0b 86 bc ad 91 39 be 63 e4 5c bd
       0.1031457 -0.016362708 -0.18121977 -0.053928744
000130 fe 5a 65 be 83 1b ed bd 1e 09 74 3d 2d ee 95 be
       -0.22397992 -0.11577513 0.059579007 -0.29283276
000140 c1 23 6b bd 17 70 22 be 31 b0 63 be 8e d1 fa bc
       -0.057407144 -0.15863071 -0.2223518 -0.030617502
000150 86 f1 86 3d 1f 82 ec bd fc 2c 04 3d 39 46 03 3d
       0.06589036 -0.11548256 0.032269463 0.03204939
000160 1a 8b 78 be 97 ec 0b bd 57 45 53 3d a1 16 0b be
       -0.24271813 -0.034161177 0.0515798 -0.13582851
000170 c3 c1 c2 3d a5 de 2d bd 47 ca 23 be c9 f0 06 be
       0.09509613 -0.04244866 -0.15995131 -0.1317779
000180 6b 15 82 be ac a3 19 be 4d d6 b9 bd f2 15 a8 bd
       -0.25406966 -0.15003842 -0.09074078 -0.08207311
000190 30 50 a2 bc 28 90 0e be 5c c7 1f be f7 f1 cc 3b
       -0.019813627 -0.13922179 -0.15603393 0.0062544304
0001a0 08 20 7e be 74 15 63 be cd 79 da 3d ab 2a 29 be
       -0.24816906 -0.22176152 0.10667763 -0.16520183
0001b0 e3 b2 5e 3d 72 62 86 bc f8 40 78 be 6d c5 74 be
       0.05436982 -0.016404364 -0.24243534 -0.23903437
0001c0 7a 2b c5 3b c6 98 d4 bc ef b9 07 bd d2 f5 a0 3d
       0.0060171457 -0.025951754 -0.033136304 0.078593865
0001d0 1d df 61 be 65 07 a0 3c 66 a6 4e ba 53 66 af bd
       -0.22057767 0.019534776 -0.00078830717 -0.08564439
0001e0 f5 07 4c be 41 f2 7b be 2b 76 84 be 2f 86 9b bd
       -0.1992491 -0.24604131 -0.25871405 -0.07593953
0001f0 31 92 1f be e4 7c db bd 46 f0 49 bd 82 91 25 bd
       -0.15583111 -0.1071718 -0.04930141 -0.04042197
000200 87 cd 4d 3e 65 7e 5a 3d 71 20 5b 3c 13 35 30 be
       0.20097934 0.053343195 0.013374434 -0.17207746
000210 f3 42 85 be 5c 59 88 bd b3 19 bd 3c ae 65 53 bd
       -0.2602764 -0.06657669 0.023083543 -0.05161064
000220 12 94 1e bd 73 b6 20 be 4f 47 a1 3d dc 6b f3 bd
       -0.03871543 -0.15694599 0.07874929 -0.11885807
000230 95 eb d9 3c 8a d1 19 3e d7 12 63 be ec d5 f4 bd
       0.026601592 0.15021339 -0.22175156 -0.11954865
000240 1c e1 96 3d 63 04 19 bd 44 79 6c be a2 ad a3 be
       0.07367155 -0.0373577 -0.23093134 -0.3196841
000250 c5 d0 c4 bd ee 66 6c be b9 72 6f 3d 78 16 e0 bd
       -0.09610132 -0.2308614 0.058459017 -0.109417856
000260 7c a4 af bd 86 b3 02 be 0e 19 cd bd af e2 8e 3c
       -0.08576295 -0.12763795 -0.100145444 0.017442076
000270 21 15 5a bd 13 9f 3c be 74 c5 2d be df 96 a2 bd
       -0.053242806 -0.18420057 -0.16969854 -0.079389326
000280 53 94 0d be 9e 7a 78 bc ab c1 a2 bd 54 45 8b be
       -0.13826112 -0.015165953 -0.079470955 -0.2720133
000290 61 87 84 be 33 bd e0 bd b6 a9 8d be 8b 63 6e bd
       -0.25884536 -0.10973587 -0.27668542 -0.0582004
0002a0 7f a8 8e bd 6d 72 39 be ad ff 89 be 8b 12 4c be
       -0.06965732 -0.18110056 -0.26952878 -0.19928949
0002b0 07 a9 60 bb 58 bf 39 be 1b 60 b0 3d 5a 27 4f bd
       -0.0034280436 -0.18139398 0.08612081 -0.050574638
0002c0 33 fb 23 be 6f 50 8a bd bb 94 73 be d5 db 84 bd
       -0.16013794 -0.06753623 -0.23787205 -0.06487242
0002d0 23 49 70 be 38 aa 18 bc 69 c8 ac 3d aa 1c f9 3d
       -0.234654 -0.009317927 0.08436663 0.1216367
0002e0 eb 96 a6 bd f7 c2 1e be d8 54 ae bc 6b aa 5c be
       -0.08134254 -0.1550406 -0.021280691 -0.21549384
0002f0 9b 70 76 bd d5 e5 87 bc 3f c0 58 bd 42 1f 35 be
       -0.060165983 -0.016589085 -0.052917715 -0.17687705
000300 d3 24 52 3d e1 61 34 be 7d d0 4d be d7 76 fe bc
       0.05130465 -0.17615463 -0.20099063 -0.031062527
000310 fa 5d 5d 3d 62 9b 3d be 96 9d 3e be 59 3b 9c bd
       0.0540447 -0.18516305 -0.18614802 -0.07628507
000320 01 06 52 be 66 3b 03 be a2 70 46 b9 42 8f 45 be
       -0.20510103 -0.12815627 -0.0001892471 -0.1929293
000330 58 b6 85 3c 7c d4 28 be 56 b7 d5 3c 16 15 85 be
       0.0163223 -0.16487306 0.026088398 -0.2599265
000340 99 f8 b1 bd 92 65 21 bd 74 1e 1b be a5 d7 0a bd
       -0.08689994 -0.039403506 -0.15148336 -0.03389706
000350 72 65 45 be b2 fd e4 3c 31 f9 84 bd e0 a4 2c 3d
       -0.1927698 0.027953003 -0.06492842 0.042149425
000360 b3 4a 34 be 04 3f 49 be bb 39 54 3c 96 ea ab 3d
       -0.1760662 -0.19652945 0.012953217 0.08394353
000370 cf e2 0a be d5 4b 72 3b ae 30 a1 bd a0 36 63 be
       -0.13563083 0.003697147 -0.07870613 -0.22188807
000380 86 07 f9 bd 0b ac 86 be 8c 98 7a be c5 3f 67 bd
       -0.12159638 -0.26303133 -0.24472255 -0.0564573
000390 3f 93 a3 bd 92 76 b0 3c 6a 47 f4 3d 5d 34 1c 3c
       -0.07987069 0.021540914 0.11927684 0.009533969
0003a0 04 5c 1c 3d 3b 0a ec bc 17 69 3e bc a5 8e 0e be
       0.03817369 -0.028813472 -0.011621735 -0.13921602
0003b0 72 c2 85 bc b5 5a a4 bd df 49 93 be 44 2b de bc
       -0.01632807 -0.080251135 -0.28767297 -0.02712024
0003c0 11 3e 4a be 03 76 d4 bd 38 ec 1c be 74 8a de bd
       -0.19750239 -0.103740714 -0.15324485 -0.108662516
0003d0 56 e4 d0 3c cd d0 9b bd b4 8e 76 be 64 52 f4 bc
       0.025499504 -0.07608185 -0.24077874 -0.029824443
0003e0 df e4 64 bd dc cb c4 bd 24 95 f5 bd dd ab 7c 3d
       -0.05588233 -0.096091956 -0.11991337 0.06168734
0003f0 6c 09 2b be 2c 94 f4 3c 95 87 b2 3b 14 28 08 be
       -0.16702813 0.02985581 0.0054482915 -0.13296539

network_body._body_endoder.seq_layers.0.weight f4 [256, 625]
000000 16 1e 6b ba 8d 8f 13 be 72 63 05 bd a0 2b 4e be
       -0.0008969022 -0.14410229 -0.03256554 -0.20133829
000010 81 58 6b be 59 fd 15 3e 8c 29 da 3d ad 7a 95 bc
       -0.2298298 0.14647426 0.10652456 -0.018246973
000020 64 4b 31 be 98 3c c2 bc 17 63 6e bd 86 72 02 bd
       -0.17313915 -0.023710534 -0.05819997 -0.0318475
000030 5f b5 6f be b6 f0 a4 3d 1f 71 8f 3e 5c 8d f0 bb
       -0.23409031 0.080537245 0.28015992 -0.00734107
000040 4d ee 30 bc 41 51 88 be 30 37 62 be b2 b3 90 be
       -0.010799003 -0.26624492 -0.22091365 -0.28262097
000050 7b b5 81 3e f5 b4 7a be 0a 97 dc bb 85 c7 ff 3d
       0.2533377 -0.24483092 -0.0067318724 0.12489227
000060 33 7c c3 3d 6f ad 6e 3c a0 16 8a bd 81 1c e4 be
       0.095451735 0.014567717 -0.067425966 -0.44552997
000070 d1 f9 60 bb d4 27 b6 3e eb e2 be be 4a eb 36 be
       -0.003432859 0.3557726 -0.372825 -0.17863193
000080 e7 df 62 3e bc f7 e3 bd ff 3c 44 3d 33 68 3e be
       0.22155724 -0.11131236 0.047909733 -0.18594436
000090 13 17 13 be 9a 34 73 be 62 fc 89 be 57 b1 67 be
       -0.14364271 -0.23750535 -0.26950365 -0.22626244
0000a0 ec 8c 41 3d 5d bb ed 3d e5 9e c1 bd a6 46 17 be
       0.047253534 0.11608002 -0.09454135 -0.14773044
0000b0 33 8b c1 bd 3a 94 18 bd 01 65 29 bc 88 0f 8f 3e
       -0.09450378 -0.037250735 -0.010339023 0.27941537
0000c0 31 4d aa be 4f 2b 03 bb 92 3c b3 3c a1 20 37 3e
       -0.33262017 -0.0020014828 0.021879468 0.1788354
0000d0 09 97 51 bd a1 64 62 be 3d cb 01 3d be 4d 0e be
       -0.05116943 -0.221087 0.031687964 -0.13896844
0000e0 a9 b3 83 3e a5 3a 89 be 0c 5b 00 be b9 dc bc 3e
       0.25723007 -0.26802555 -0.12534732 0.36887148
0000f0 15 61 df be 04 5d cc bd 7e d2 e8 bd bd 40 4c be
       -0.43628755 -0.09978679 -0.11368273 -0.1994657
000100 e4 de 04 be 03 c0 06 3e a7 15 07 be ff 65 0b 3c
       -0.12975651 0.13159184 -0.13191853 0.0085082045
000110 0d 01 1b 3d f2 6c 38 be b5 da 58 be 69 5a 63 be
       0.0378428 -0.1801031 -0.2117718 -0.22202457
000120 ab 3f 17 be f4 51 5b be f8 f8 2e 3e 7d 45 81 be
       -0.14770381 -0.21417981 0.17087162 -0.25248328
000130 94 a9 e2 3d c7 40 70 be a7 fa 40 3e 6b 3b 96 bd
       0.11067501 -0.2346221 0.18845616 -0.07335552
000140 97 d7 52 be 85 b6 e4 be b5 18 c4 3d a8 76 13 3e
       -0.20590053 -0.446705 0.09575025 0.14400733
000150 37 a3 69 bc 1c 94 5a be 9d b1 ee be 78 87 66 bd
       -0.014260105 -0.21345562 -0.46619883 -0.056281537
000160 ab b5 de 3c e3 80 c3 be 5f ba ab be bc 2b b7 be
       0.027186235 -0.3818427 -0.33540627 -0.35775554
000170 e3 f7 37 be 36 15 d6 bd 7a fe b9 be 27 fd a6 bc
       -0.17965655 -0.104532644 -0.36326963 -0.020384384
000180 21 7f 09 3d 2c 03 ff bd 1f 1b bc be 05 85 17 be
       0.033568505 -0.12451777 -0.36739442 -0.14796837
000190 87 18 e3 be 16 eb 01 3e 49 06 bc bd df be 2a be
       -0.4435465 0.12687334 -0.09180886 -0.16674374
0001a0 c5 d2 7b be 9a 00 b0 bd e9 d1 53 3d 50 24 b1 be
       -0.24592121 -0.08593865 0.051713858 -0.34598017
0001b0 ef b1 e7 be 2f 0f 28 3d 9a 50 60 3d 9f fd 13 3d
       -0.4525294 0.041030105 0.054764368 0.036130544
0001c0 8b 31 ef be 3d a9 c0 bb 3f 1a c9 bd 14 14 78 bd
       -0.46717486 -0.00587955 -0.09819459 -0.060566023
0001d0 f5 66 97 be 33 a7 ea bd 2e 63 01 be 09 37 07 3e
       -0.29570737 -0.11457672 -0.1263549 0.13204588
0001e0 11 a6 70 bd 91 0e dc 3c bf c5 5a be 76 c7 3d be
       -0.058752123 0.026862415 -0.21364497 -0.1853312
0001f0 05 f1 0d bb 08 29 a8 be 1b 1d af be 8c d5 a9 bb
       -0.0021658551 -0.32843804 -0.34201893 -0.0051829275
000200 02 c2 2d be 0d a4 7a 3c 09 8b 0b be 00 49 52 be
       -0.1696854 0.015297902 -0.13627256 -0.2053566
000210 b3 fd 1c be aa b3 97 3d e9 fc 96 be 5d a8 8f be
       -0.15331154 0.07407315 -0.2948983 -0.28058138
000220 43 d4 cf be 87 87 72 bd d5 d6 49 3b 77 4a 74 be
       -0.4059163 -0.05921128 0.0030798216 -0.23856531
000230 7e e9 98 bd 5b 1b 0a be de 70 cd bd d5 a2 93 be
       -0.0746641 -0.13486998 -0.10031293 -0.28835168
000240 c3 89 08 be a1 fd dd 3c 17 7c 64 3d ae d5 ae 3d
       -0.13333802 0.027098479 0.055782404 0.0853685
000250 94 ac af be ae 0a d4 bd bb e4 75 be fc 44 08 3e
       -0.34311354 -0.103535995 -0.24013035 0.13307565
000260 c9 73 ab be d3 cc b3 be d2 04 4a be 11 fb a2 3d
       -0.33486775 -0.35117206 -0.19728401 0.07958043
000270 21 ea 61 bd 2c ae 4f be 5e 6c 89 be 3c 68 ce 3d
       -0.055154923 -0.20281285 -0.2684049 0.10078475
000280 30 63 14 be 83 ae d5 be 58 88 06 3e e7 6b 75 be
       -0.14490962 -0.41734704 0.13137949 -0.23966943
000290 e6 08 96 3d e5 76 a2 3d 51 8c b3 be 00 b3 b3 bd
       0.07325916 0.079328336 -0.3506799 -0.08774376
0002a0 af 83 eb bb 11 04 b6 3d 17 4b d1 be 63 9b 01 be
       -0.0071873288 0.08887494 -0.40877602 -0.12656932
0002b0 76 5d 0a be 29 73 b8 3c 86 0f 83 3d 85 3e cc bd
       -0.13512215 0.02251585 0.06399445 -0.09972862
0002c0 ca 74 82 bd a7 51 a2 3b 38 3f ff bd 4c 9d e4 be
       -0.06369932 0.0049535814 -0.1246323 -0.44651258
0002d0 e0 c7 51 be 8b 6b 06 be 99 79 97 3e 51 42 5c 3e
       -0.20486403 -0.13126962 0.2958496 0.21509673
0002e0 8f 64 2a bc bf 4c 6b be d3 1c f9 3c 39 9e 85 bd
       -0.010399952 -0.22978495 0.030409252 -0.06524319
0002f0 e0 cb d3 be 10 58 00 bd 56 bc 11 be 90 c1 9a bd
       -0.41366482 -0.031333983 -0.14232 -0.0755645
000300 2a e5 c4 3d 92 79 eb bd a5 cc a9 bd 2d b1 78 3b
       0.09614022 -0.11497797 -0.08290986 0.0037947402
000310 09 71 aa bd 19 72 f4 be 86 71 9a be 7e 02 8a be
       -0.08322341 -0.477433 -0.30164737 -0.26955026
000320 b2 2f a1 bc f3 3e 25 3e 8c ca 49 be e8 7f 99 be
       -0.019676063 0.16137294 -0.19706172 -0.29980397
000330 ce c6 8c 3d cf d3 9e bd 14 8f b8 be 6c ed c6 bd
       0.068738565 -0.07755243 -0.3604666 -0.097132534
000340 af 46 f1 bd 65 3c b1 bd 60 9a e2 3d 1d 66 29 be
       -0.1178106 -0.086540975 0.11064601 -0.1654286
000350 9f 67 76 3d e4 3e e4 bd 9f 01 05 bd 4a f3 f8 be
       0.060157415 -0.11144808 -0.03247225 -0.48623115
000360 d4 5b a8 be 1a 8d 3f 3d bc ed 06 bf 08 21 61 be
       -0.3288256 0.046765424 -0.52706504 -0.21985257
000370 5b fd dd 3c ca c0 13 be 53 ea 36 be cc 88 11 bc
       0.027098348 -0.14429012 -0.17862825 -0.008882713
000380 78 86 98 be 4e 1f c9 be 49 ae 39 3d 72 5f 9e be
       -0.29790092 -0.39281696 0.045332227 -0.30932194
000390 4c d7 76 bd 63 ae 91 be 1b f0 73 bd ea 80 8b 3d
       -0.060263917 -0.2845336 -0.059555154 0.06811698
0003a0 53 6a dc bd ab 4e ca be 6e 92 ee bd 2a b5 49 be
       -0.10762467 -0.39513144 -0.11649023 -0.19698015
0003b0 01 9a de bd 77 d5 13 be e5 10 2a be ab fd 51 bd
       -0.10869218 -0.14436899 -0.16608007 -0.051267307
0003c0 81 29 85 bd bc 23 05 bd cd fb d3 be 24 cc 39 be
       -0.06502057 -0.032504782 -0.41403046 -0.1814428
0003d0 f9 16 5f be 98 35 ca be f7 e6 f2 bd 58 b0 10 bf
       -0.21786107 -0.39494014 -0.11860459 -0.5651908
0003e0 88 a2 49 3d 64 30 1f 3b 34 89 44 be a7 c1 b9 be
       0.049227268 0.0024290318 -0.19192964 -0.36280558
0003f0 ee 5a 55 be fe f4 88 be bd 97 54 be 2b 38 f6 bd
       -0.20835468 -0.26749414 -0.20761009 -0.12022432

network_body._body_endoder.seq_layers.2.bias f4 [256]
000000 f0 a6 c3 bd 2b 14 61 bd 08 84 4f be 86 7f 94 bd
       -0.09553325 -0.054950874 -0.2026521 -0.07250886
000010 07 d2 05 3c ce 2f f5 bd 52 ef cb bc 05 1c 20 bd
       0.00816775 -0.11972009 -0.02489439 -0.03908922
000020 5c 5f b5 bd a4 a8 54 bd 16 87 a2 bd ef a9 b2 bd
       -0.08856079 -0.05191864 -0.07935922 -0.087238185
000030 25 66 56 bd 6e 8d c7 bd 2d 0c fe bd fb 64 2a bb
       -0.052343506 -0.097437724 -0.12404666 -0.002600013
000040 bf 8e cc bd c0 54 b6 3c 66 d7 28 be c3 a9 7b 3d
       -0.09988164 0.022257209 -0.16488418 0.061441194
000050 50 cc 3a be 31 b0 dc bc 79 ee 94 bd c7 51 c3 bd
       -0.18242002 -0.026939483 -0.072720475 -0.09537082
000060 36 06 61 bd 80 8e 50 be 12 14 a8 bc 15 50 40 be
       -0.054937564 -0.2036686 -0.020517383 -0.18780549
000070 2b b3 01 be d1 94 ea bd 0a f5 8b bd 8d a3 0d be
       -0.12666003 -0.11454166 -0.06833847 -0.13831921
000080 24 de 59 be f0 72 32 bd 29 c5 fb bd 9b 9a fd bd
       -0.21276146 -0.043566644 -0.12293465 -0.12383004
000090 0e 9b 07 be 67 01 78 bd 98 ca ab bd b6 21 22 be
       -0.13242742 -0.060548212 -0.08388251 -0.15833172
0000a0 b5 6e 5d 3b 40 af 41 bd 31 64 47 bb 90 db 9e bd
       0.003378791 -0.047286272 -0.003042471 -0.07756722
0000b0 e8 a8 5a 3d df 6c d7 bd dc 3e b5 bd 1c e4 86 3d
       0.053383738 -0.105188124 -0.0884988 0.06586477
0000c0 f3 f7 91 bd 9b ae 42 3d b6 96 2b bd b5 42 d4 bd
       -0.07127371 0.047529798 -0.041891776 -0.10364286
0000d0 a4 43 f7 bd e0 cf ef bc a2 ca 2f be 35 76 d6 bc
       -0.12073448 -0.029273927 -0.17167142 -0.026179412
0000e0 0d ab 71 be 09 04 86 bd 8b 01 dc 3c 14 8c 33 bc
       -0.23600407 -0.065437384 0.026856204 -0.01095869
0000f0 bb f7 5a bd 48 22 c8 bd 3c bd 23 be 8c 9d 87 3c
       -0.05345891 -0.09772164 -0.15990156 0.016554616
000100 cb 3b 2a bc fe 8a 69 be 77 03 45 3d da a7 d6 bd
       -0.010390232 -0.22806928 0.048099007 -0.10481234
000110 2f af 52 bd 15 2c b1 bd ee 71 85 3b ca ba 1d be
       -0.0514366 -0.08650986 0.0040724194 -0.15403286
000120 35 ad 4d bc 6f ee c4 3c ff 1d 8b bd cb 85 9d bc
       -0.012553503 0.024039475 -0.06792831 -0.019228837
000130 66 40 a8 bd 50 86 20 be 07 16 e9 bd 64 84 e7 bd
       -0.08215408 -0.15676236 -0.113811545 -0.113045484
000140 ff 76 c6 3c 58 bb 95 bc bd 7a ab bc cd 55 59 bd
       0.024226664 -0.018277809 -0.02093255 -0.05306034
000150 dd 72 a8 bd b6 6e f0 bd 20 f9 2f 3c dd 75 cf 3b
       -0.082250334 -0.117398664 0.010740548 0.006331189
000160 63 59 be bb 5a df 87 bc ac 19 af bd e3 1a 46 bd
       -0.0058089956 -0.016585995 -0.085498184 -0.048365485
000170 04 40 eb 3c 40 63 27 3e 27 f7 67 be 09 dc bb bd
       0.028717048 0.16346455 -0.22652875 -0.09172828
000180 ed af 2f be 91 ea 12 bd 10 d2 a1 3d 79 a4 e5 bd
       -0.17156954 -0.03586823 0.07901394 -0.11213011
000190 55 f7 6c 3d ca 94 f3 3d 97 a4 74 bd d8 b9 55 3c
       0.05785306 0.11893614 -0.059727278 0.013044797
0001a0 73 e5 a8 bd e5 86 16 bd 12 6f d7 bc 24 7d 34 be
       -0.08246889 -0.03674974 -0.02629808 -0.17625862
0001b0 2e 59 5a 3d 56 b0 3a be cb d3 fa bc c5 1c 97 3c
       0.053307705 -0.1823133 -0.030618569 0.018446336
0001c0 a6 8f bc 3d fc 29 4b bd 4e a6 26 be 29 1d dd bd
       0.09207086 -0.049600586 -0.16274378 -0.107965775
0001d0 1e 71 e7 bd 12 0a 51 be bd dc 1c bc 5f 01 18 be
       -0.11300872 -0.20413998 -0.0095741125 -0.14844273
0001e0 61 26 92 3d 46 ef 70 bd 9d 48 93 3d f8 a1 40 be
       0.071362264 -0.05882194 0.07191584 -0.18811786
0001f0 14 eb a3 bb cf c8 2a 3d 59 49 8f bc b3 d4 0e be
       -0.0050023887 0.041695412 -0.01749103 -0.13948326
000200 a9 0a 77 bd d5 7b 5a be af cb 9c 3d 1d 9b 93 bd
       -0.0603129 -0.213363 0.07656037 -0.0720732
000210 f5 53 29 bc 4b 69 11 bd 64 23 ec bd 32 1d 81 bd
       -0.010334958 -0.035500806 -0.11530188 -0.06304397
000220 36 29 99 bd a0 a3 90 bd e8 43 b2 37 ec c7 f3 bc
       -0.074785635 -0.07062459 2.1250875e-05 -0.029758416
000230 6c 9a ae bd c2 58 2f bd 00 a5 86 bd af e0 d2 bd
       -0.085255474 -0.042809255 -0.0657444 -0.10296761
000240 eb 08 d8 bc ef 7e 29 be 2a bb c7 bd 12 fa c3 3c
       -0.02637144 -0.16552328 -0.097524956 0.023922954
000250 74 48 c5 bd fb 50 d0 bd 30 65 02 be 7a 96 c5 3c
       -0.0963296 -0.10171696 -0.12733912 0.024119604
000260 3f b3 36 be 72 05 27 bc e5 04 2f be 74 b9 3a be
       -0.17841814 -0.010194169 -0.17091711 -0.18234807
000270 a8 08 d5 bb 68 3b 92 bd ea 51 8f 3c 5b 6e 60 bb
       -0.006501276 -0.07140237 0.017495114 -0.0034245464
000280 7d d0 89 bd 25 3a ce bd cb 17 b7 bd 3a de 68 bd
       -0.06729219 -0.10069684 -0.08940085 -0.056852557
000290 2d 41 eb bc 37 4f 06 be 63 74 32 be eb b6 3c bd
       -0.028717602 -0.13116156 -0.1742721 -0.04607288
0002a0 35 47 c4 bd 9d 40 d9 3c 3e e9 81 be 4f 48 ca bd
       -0.09583894 0.026520068 -0.25373262 -0.09877073
0002b0 72 e6 b3 3c f7 e1 79 3c ef d3 58 bd 94 ff 35 3c
       0.02196047 0.015251628 -0.05293649 0.011108298
0002c0 1f 59 82 bd e4 a7 2d be c7 98 ef bd 37 2f 8e bc
       -0.06364655 -0.16958576 -0.11699062 -0.017356498
0002d0 fc 49 4c be fe 76 4c bd 69 91 12 be 4f 1d 84 3d
       -0.19950098 -0.049918167 -0.14313282 0.06450903
0002e0 e7 76 3c bd 93 98 8e bd b0 3f 00 be e4 b4 b2 bd
       -0.04601183 -0.06962695 -0.12524295 -0.087259084
0002f0 1e a2 be bd 3d 02 5f be e0 22 2f be f6 f5 0a be
       -0.09308265 -0.21778198 -0.17103148 -0.13570389
000300 59 b4 a2 bd ab 14 6e bd 95 21 0b be 68 0e 9a bd
       -0.07944555 -0.05812518 -0.1358703 -0.07522279
000310 a1 0e 28 be 4b 24 a6 bd d1 13 dd 3a e3 80 0b be
       -0.1641183 -0.08112391 0.0016866868 -0.13623385
000320 26 d5 3e be bf 5d 20 be e1 93 c7 bd e4 9a e5 bc
       -0.18635997 -0.15660761 -0.097450025 -0.02802796
000330 d6 e4 58 be ad 03 0d be 2b 18 19 bd 16 f5 13 be
       -0.21181044 -0.13770933 -0.037376564 -0.14448962
000340 a7 56 cd bd 63 ea 01 be 79 5e 5c 3b 79 56 94 bd
       -0.10026293 -0.12687068 0.0033625646 -0.07243056
000350 8c 7e f4 bd 0f 45 2a be ab 7b 21 bd 0c 6e 86 3d
       -0.119381994 -0.16627906 -0.03942458 0.065639585
000360 59 7b 9a bd 60 9d e0 3c be 2e 44 be 32 aa fb bd
       -0.07543058 0.027418792 -0.19158456 -0.122883216
000370 05 ae 8e bd 73 e8 ce bd a1 17 ce bd 7e c0 eb bc
       -0.06966785 -0.1010293 -0.100631006 -0.02877831
000380 74 fe 2c be bc 49 83 be 42 0d 3e be 03 22 6a be
       -0.16893941 -0.25642192 -0.18559745 -0.22864537
000390 6f 09 21 bd ff 86 06 bd 6c 0b a8 bd eb 2c 4a be
       -0.039315637 -0.032843586 -0.082053035 -0.19743697
0003a0 65 19 ab bd fb a4 4f be ec 90 97 bd a8 92 14 be
       -0.08354453 -0.20277779 -0.074006885 -0.1450907
0003b0 62 3a 9c bc 50 56 2d be ae 04 d4 bd 48 76 b2 bd
       -0.019070808 -0.16927457 -0.10352455 -0.087139666
0003c0 55 1a fa bc b2 07 6f bd 9f f6 c3 bc f8 85 2e be
       -0.030530134 -0.05835695 -0.023921309 -0.17043293
0003d0 73 a8 2e bd 47 a7 0a be f4 fb 20 3d 78 80 b4 bc
       -0.042641114 -0.13540374 0.03930278 -0.022033915
0003e0 12 d7 2e be 22 d0 06 bc a8 9f bf bd e7 e6 7f bd
       -0.1707423 -0.008228334 -0.09356624 -0.062476065
0003f0 96 4e 90 bd 3d 11 2d bd db c9 d1 bc c2 65 ec bd
       -0.07046239 -0.042252768 -0.025608948 -0.11542846

network_body._body_endoder.seq_layers.2.weight f4 [256, 256]
000000 56 23 b8 bd 44 39 4e 3d 74 db 17 3d 7c 63 bc bc
       -0.08991115 0.05034758 0.03707452 -0.022996657
000010 3f 56 40 bd 9c 0d 2b be 33 ec 9b bc 12 bf 72 bb
       -0.04695725 -0.1670441 -0.019033527 -0.0037040156
000020 d0 c9 37 3d 25 7a 61 3d 6c 3d 16 bb 29 8e 18 bd
       0.044870198 0.055048127 -0.0022924794 -0.03724495
000030 75 d2 de bc 78 74 0f bd d9 8e 42 3b 72 8c ae bc
       -0.027199963 -0.035023183 0.0029687195 -0.021307204
000040 0e 21 ed 3b 83 01 0a 3e f2 36 fb bd 54 01 48 3e
       0.0072366064 0.13477139 -0.12266339 0.19531757
000050 fe b7 77 be 78 bb 5c bd b9 ca f3 3c 59 b2 f6 3d
       -0.24191281 -0.05388972 0.029759752 0.12045736
000060 ea 66 3d 3d c1 dc 18 3e e4 d3 1c bd 77 0d e1 bd
       0.046240725 0.14927961 -0.038288012 -0.10988896
000070 81 8a 18 3e cd bc 55 3c ad 8c c5 bd f6 49 c4 ba
       0.14896585 0.013045502 -0.096459724 -0.0014975655
000080 84 b3 1e 3e 8d 14 f8 be 59 44 99 bb 32 48 6e 3d
       0.15498167 -0.4845318 -0.004677337 0.05817432
000090 41 e0 78 bd e3 98 96 bd 17 96 e8 bd 45 35 4b 3d
       -0.06076074 -0.073533796 -0.11356752 0.04961135
0000a0 61 c9 65 bd 76 09 96 3c 23 eb 83 bd 63 0b 29 be
       -0.056100253 0.018315058 -0.06441333 -0.1650825
0000b0 83 2f 8a bd 5e 4a 16 bd d8 ab 3d be 47 09 f2 bd
       -0.067473434 -0.036692016 -0.18522584 -0.11818176
0000c0 80 51 2d 3d 6d c9 3a bd 71 c3 8b bd 54 b2 46 be
       0.042314053 -0.04560225 -0.06824387 -0.19403964
0000d0 d5 e2 7c 3e b8 cb 60 3c 08 3b eb 3d 59 09 5b bc
       0.24695905 0.013720445 0.11485869 -0.013368928
0000e0 c5 1e 2c be af f9 d1 3c 92 ff a9 bd f8 f7 d7 be
       -0.16808613 0.025631754 -0.08300699 -0.42181373
0000f0 a4 fc 43 3e de bd 1a be 23 59 d5 bd 8a 28 16 bd
       0.19139344 -0.15111491 -0.10417392 -0.036659755
000100 9c 1f 3b bd c9 94 1e be 5a 4a 0f bd 88 39 75 bd
       -0.045684442 -0.15486445 -0.034983017 -0.05986932
000110 6b 5f df 3d e0 31 21 3e 21 44 53 3e 75 d7 ac bd
       0.109068714 0.15741682 0.20631458 -0.08439533
000120 d7 e0 1a be bb e7 36 3d 59 5c 9a 3d 47 df 45 be
       -0.15124832 0.04465459 0.07537145 -0.19323455
000130 77 14 38 be 5f 23 a6 bd 21 e3 19 3c b5 aa 9e 3d
       -0.17976557 -0.08112215 0.009392531 0.077474035
000140 28 b7 20 be 4b 5e 8c bb 67 36 0a be cb 9d cf 3d
       -0.15694869 -0.0042837015 -0.13497315 0.101375185
000150 5b 51 e9 bd 76 1f ae bc f3 2f d5 3c d3 5c b1 bd
       -0.113924704 -0.021255236 0.02602384 -0.08660283
000160 66 d1 16 be 7d 9e ca bb ab 38 5c be 53 77 5c bd
       -0.14728317 -0.006183444 -0.21505992 -0.053824734
000170 1b 0f 33 bd e3 66 35 3e 1e 58 1d bd 4b 81 5a 3d
       -0.043715578 0.1771503 -0.038414113 0.05334596
000180 d6 31 ae bd 44 39 00 bd 77 21 8d be 4b 8e 1f 3d
       -0.08505599 -0.031304613 -0.27564594 0.03895406
000190 bf 61 58 bd ac 3f 91 3d c7 55 19 be 64 01 b0 3d
       -0.052827593 0.070922226 -0.14974128 0.08594015
0001a0 11 97 ac bc d3 63 a0 3d 95 db a7 3d ed 0b 2f be
       -0.021068128 0.0783154 0.08196179 -0.17094393
0001b0 67 97 2d bd 40 47 a3 3d fb e4 ed bd d6 79 00 3e
       -0.042380717 0.07972574 -0.1161594 0.12546477
0001c0 9b d5 6a 3e 0d ed 80 3b 76 e2 d8 3c 9c 41 96 bc
       0.22933047 0.0039345087 0.026475172 -0.018341832
0001d0 a3 a7 bc bc e9 c6 71 3d 64 29 be 3c 07 29 44 bd
       -0.023029154 0.059027586 0.023213096 -0.04789069
0001e0 94 7b da 3d 6a 25 4a 3e e7 e2 24 3e 2c 0d f5 3c
       0.10668102 0.19740835 0.16102181 0.029913507
0001f0 4c e5 68 bc 28 46 95 3d ec 3e 06 bb ac e7 b3 bd
       -0.014214825 0.07288772 -0.0020484282 -0.08784422
000200 e0 19 5e be 14 cc 82 be 22 82 22 3d ff a0 c8 3d
       -0.21689558 -0.25546324 0.039674886 0.097963326
000210 d5 f3 07 3e 08 76 a7 bd 51 7b e0 bd b2 56 fa 3c
       0.13276608 -0.081768095 -0.10961021 0.030558918
000220 9e cc 4d be b2 57 2f 3e 42 4c b1 bc a8 7a a1 3d
       -0.20097587 0.17123297 -0.021642808 0.07884723
000230 f1 e2 2b bd 69 62 1f bc aa fe 68 3d 20 e0 02 be
       -0.041964475 -0.009728053 0.05688349 -0.1278081
000240 6a 77 eb bd 21 a3 17 3c 37 5f 14 3e 73 6e 55 bd
       -0.11497386 0.009255202 0.14489447 -0.052107286
000250 0d 13 4f be 8e 95 8a be 85 ee 50 be a6 ba 08 be
       -0.20222111 -0.27067226 -0.20403488 -0.1335245
000260 03 0a cd 3b 26 1e 2c be 84 e8 8e 3d e0 8c db bd
       0.006257297 -0.16808376 0.069779426 -0.10720229
000270 8e 28 dc bd 5b 6b 7e bd 40 95 1c 3d 08 0e 00 3e
       -0.10749923 -0.0621141 0.038228273 0.12505352
000280 0f 93 16 be 67 6d 46 be e4 2a 63 3d 69 ed 27 bd
       -0.14704536 -0.19377671 0.055460826 -0.040997896
000290 d7 8e 4c be 1f 09 c9 bc b7 b6 d6 3c 44 12 66 bd
       -0.19976364 -0.024540482 0.026210172 -0.056169763
0002a0 47 69 4c bd be 82 e0 3b 7b 09 d4 bd ad 7e 0c 3e
       -0.049905088 0.006851523 -0.10353371 0.13720198
0002b0 2e 73 80 3d cd 36 fd bc 8c e2 32 be 71 35 82 bc
       0.06271969 -0.03090992 -0.17469233 -0.015894623
0002c0 f9 8c cc bd f2 f5 ba bb 9c 00 14 be 32 ce 05 3e
       -0.09987826 -0.0057055885 -0.14453357 0.13066939
0002d0 b3 4a 09 bd ec bf 88 3d a9 23 f0 bd bf bc da 3c
       -0.033518504 0.06677231 -0.11725552 0.02670133
0002e0 be 38 1f 3d 84 e8 32 be 7a f6 a4 bd 15 e3 d7 3c
       0.038872473 -0.1747151 -0.08054824 0.026353398
0002f0 cb 9d 56 3d 03 c1 2b 3e 5e 5e 4e bc 11 07 ce 3d
       0.052396577 0.16772847 -0.012595741 0.100599416
000300 46 5e bd bd 93 54 f1 3b 35 a6 99 bd 08 8b 41 3d
       -0.09246497 0.0073648184 -0.075024046 0.04725173
000310 7e 89 5c be 27 1c b3 bd c0 4e d5 bd 97 19 0b be
       -0.21536824 -0.08745604 -0.10415411 -0.1358398
000320 0f d0 92 bd 66 5c 6f be 5f b6 90 3e 51 af 66 3d
       -0.0716859 -0.23375091 0.28264138 0.05631954
000330 2f 0c 36 bd b9 eb 99 bc 31 a2 e2 bd f0 6f 88 3b
       -0.044445213 -0.01878916 -0.11066092 0.0041637346
000340 40 fa 24 3d 5d 6c 33 be e2 07 98 3d a8 af 71 3d
       0.04027772 -0.17521806 0.074233785 0.05900541
000350 79 9e 1d be e3 0b d0 3d 60 a8 0c bd 3f 1e 06 3d
       -0.15392484 0.10158517 -0.034340262 0.03274369
000360 ce fd 99 bd 4f 93 6e 3e c4 68 63 bd 80 c1 96 3b
       -0.075191125 0.23298381 -0.055519834 0.0046007037
000370 19 f5 6e be 9b 92 bc 3d 5a e7 8e bb 2f 8c 22 be
       -0.23335685 0.0920765 -0.0043610753 -0.15873788
000380 6c fb d8 3d c7 64 c0 3d 72 47 27 be e4 de 13 bc
       0.1059483 0.09394222 -0.16335848 -0.009025309
000390 7d aa b9 3d 2b 54 9e be 35 b5 2f be d8 5a b4 bb
       0.09065721 -0.3092359 -0.17158969 -0.0055039935
0003a0 61 08 9a be 2a 04 36 3e 41 13 60 be 89 a2 39 3d
       -0.30084518 0.17775026 -0.21882345 0.04532102
0003b0 f5 91 89 bd f9 e6 f9 bd e8 fa 2d 3c a4 bc 74 3d
       -0.06717292 -0.12202258 0.010618903 0.059750214
0003c0 d3 92 6a ba 70 ef 42 3d f0 0a 42 3e db ec a3 bd
       -0.000894827 0.047591627 0.18949485 -0.08004161
0003d0 d1 83 a7 be fc 18 e6 bc f8 59 f3 bd e5 91 5e 3c
       -0.32717755 -0.028088085 -0.118823946 0.013584589
0003e0 f2 56 6c be 20 a5 57 3e 05 44 86 bd c7 63 85 3d
       -0.23080042 0.21059084 -0.065559424 0.06513172
0003f0 4a 19 ab bd 3b fd d4 bd 49 fa e2 3a ea e9 a1 3e
       -0.08354433 -0.103998624 0.0017317022 0.31623775
