Assets/TFModels/Other models trained in the process/Striker3_ppo_8M.onnx (onnx, 981831 bytes, 9 tensors)

action_model._discrete_distribution.branches.0.bias f4 [5]
00000000: b552 493d 2d73 29bd 482a 0a3e a4b6 38bd
00000010: 6d0e 99bd
0.04915114 -0.041369606 0.13492692 -0.045096055 -0.074734546

action_model._discrete_distribution.branches.0.weight f4 [5, 256]
00000000: b20c 2a3d 1de1 bcbc 1dd4 263e e492 c03d
00000010: aece 5c3d 1afd bebd 6e45 a33d 65f8 2bbd
00000020: c244 c6bd 1eea c1bd c845 8d3e 3d63 5cbd
00000030: 6898 543e 63d8 b2bd 6721 0cbe 7357 b8bd
00000040: 0c07 24be 0a57 343e 7ee5 1abe 194d 9cbd
00000050: ca4f 05be a76d e03d 52ff 6f3e b183 c83d
00000060: 7110 e83c db02 403e 5b8d ea3c 1744 6fbb
00000070: bceb c83e d974 0bbe 5112 b3be 749e 553d
00000080: 8739 893b 21ba b53a 5575 0e3e 539f 00bd
00000090: d23f 29be 8b5a 723e e399 b4bc 5128 4dbd
000000a0: 7f12 bf3c 29be d33d bd9a eb3d aab9 863d
000000b0: 7dd9 bb3d f4ab 383d aeb8 283c 2007 b23e
000000c0: bf0c f1bd af53 7dbc d0c6 403e 23a8 00be
000000d0: 14fd 6ebe 0b0a 1a3e 348e 85be 623d 0d3e
000000e0: c861 26bc a2f2 a13c 5831 5c3c 5dbe b5bd
000000f0: 68c6 e93d 0be6 b4bd c58b bdbe 5004 963d
00000100: 2b10 8abe 8b66 953e 9b17 e4bd 47f9 063d
00000110: af14 923d 88ac 5f3c 2ed8 a2bd f57c b5bd
00000120: da01 1cbe 9ae2 9f3e 088b 673e dbce 7bbe
00000130: 5486 963d 29a7 3cbe 378e bb3d c2d0 223d
00000140: 53ce a13d f78d c23d a5f2 1a3e e80c 91bb
00000150: 61f9 5abd 8b9b 35be a844 133e 710d d73c
00000160: bded 1c3e 4fe0 b83c 15a9 9a3e fe23 2cbd
00000170: 2f74 d43d dc9f f43c 15f2 2ebc a383 46bd
00000180: 6761 143d a9d5 59bd 804b 1f3e 1bc5 45be
00000190: 51f8 d83d 9313 f4bd 7138 6cbd 61d2 853d
000001a0: 29f8 31be b865 d3bd cdc1 1e3b 486a 2cbd
000001b0: 2fef 103c f2ba 8e3d 145b 5d3d 43bd a4bc
000001c0: f9b9 9abc 1488 5c3e 0875 5abd 135a 213d
000001d0: 3ee5 65bc 800a b53d d800 a9be 8bc1 553d
000001e0: debb 0dbd e234 3bbe 1429 d5bc 976b 533e
000001f0: ca7b bfbe 3db1 37bd 54cd bfbd 4a87 71be
00000200: 4760 553e 21c0 7bbd a8f9 ae3d c3bc 6cbd
00000210: f51c 303e c674 a0bd 91e1 483c 9e49 533c
00000220: b42d 2a3e 076e 0dbe 8cae fabd 3a65 2fbb
00000230: 2dde cebd 63cf 0ebe d53d 7cbe 4764 873e
00000240: 4681 3cbe 20ee 413e 8b13 133d 131f cd3b
00000250: 8a30 8abe 8275 53bd 8c53 0b3e 8f26 88be
00000260: 2ebd 943d aa98 8bbd 282a c4bd ea58 6dbd
00000270: fe37 10be eff0 30be 2321 4bbc 257d b2bd
00000280: 1bda 4dbe 4a00 bfbe a2c2 a6bd 5e45 cb3d
00000290: 88aa bc3d 06d4 dd3d 0e67 fb3b b379 1c3e
000002a0: 500d 8bbd b3dc 683e 9f97 ca3d 6c1c fd3d
000002b0: 953e 06be f67e 103d b2ce 9dbd 0ef8 4a3e
000002c0: 1d15 313d 913f 3b3e 8045 d7bc 6347 b1bb
000002d0: 8ddf e3bd 4f85 843e c076 093e 08ea cabd
000002e0: 990e 1dbd 94ac cf3c af60 8c3c 6929 f43d
000002f0: 5282 c7bd bfd7 7dbd eb49 e5bc bea2 6abd
00000300: 475f 573e 11c9 2bbe d3fe 0b3e 4d4c 4e3d
00000310: 93e2 babd ba7b cf3d 3b37 303d 378c e93d
00000320: 3e73 72be 6b1d fabd 80ce ed3c 8c81 26be
00000330: 3a14 05bd e581 c5bd 8d1f 713e 56ee 54be
00000340: ecde f63c 56af 9abc 903d 433b 9465 14be
00000350: b153 8d3d 82d3 bcbe 7b84 0c3e 930f 8f3c
00000360: 426c 403e 41dd 82bd aced 893e 30aa 723d
00000370: e69b 5c3d e16d 1bbe 062c 1f37 6219 3ebc
00000380: e3a9 093e d1e6 823c 4d31 f3bc d42d e8bd
00000390: 8330 48be 0572 9abd 0ccd a53d f74a c63c
000003a0: 1754 16be f8a2 22be b4d3 22be 0e60 8dbd
000003b0: 68a0 4bbe 18d0 9cbe 2672 983d 526f 9f3d
000003c0: 5160 03be cdf0 1d3e 972d 463e fdbd 66be
000003d0: 3ef4 bbbc e1c3 a43d be0d 583d 28d6 163e
000003e0: a501 653d f044 c8bd 3735 813d 0f1a 00bf
000003f0: 4cca 5fbd 934e 1d3d f4c8 a53d 4b1b dbbc
0.041516013 -0.023056561 0.16291852 0.09403017 0.053908043 -0.09325619 0.07972227 -0.041984934
-0.09681083 -0.094684824 0.275923 -0.05380558 0.20761263 -0.08732679 -0.13684617 -0.090010546
-0.16018313 0.17611328 -0.15126607 -0.07631893 -0.13018718 0.109584145 0.2343724 0.09790743
0.028328152 0.1875109 0.028631857 -0.003650909 0.3924235 -0.13618793 -0.34974912 0.052153066
0.004187766 0.0013864675 0.13911946 -0.031401943 -0.16528252 0.23667352 -0.022046035 -0.050087277
0.02332425 0.103390045 0.11504123 0.06578381 0.09172342 0.045085862 0.010297937 0.3477106
-0.11770009 -0.015461846 0.18825841 -0.12564139 -0.23338729 0.15042894 -0.26085055 0.13792947
-0.010155149 0.019769017 0.013439499 -0.088741995 0.11414796 -0.0883294 -0.37020698 0.07325041
-0.2696546 0.29179797 -0.11137315 0.032952573 0.07132851 0.0136519745 -0.07951389 -0.08861724
-0.15235081 0.3122757 0.2261163 -0.24590628 0.0734984 -0.18423142 0.09157985 0.03974987
0.07900681 0.09499734 0.15131624 -0.0044265874 -0.053460483 -0.17735116 0.14381659 0.026251527
0.15325065 0.022567896 0.30207124 -0.042026512 0.10373723 0.029861383 -0.010677834 -0.048465382
0.036225703 -0.053182278 0.15556145 -0.19313471 0.105942376 -0.11917796 -0.057671014 0.06534267
-0.17379822 -0.10322136 0.00242244 -0.042093545 0.008846088 0.06969251 0.054041937 -0.020109778
-0.018887507 0.21536285 -0.053334266 0.039392542 -0.014031706 0.08839893 -0.33008456 0.05218653
-0.034602992 -0.18281892 -0.026020564 0.20646511 -0.3739913 -0.044846762 -0.09365335 -0.23586765
0.20837508 -0.061462525 0.08543712 -0.057797205 0.17198546 -0.07834773 0.0122608105 0.01289597
0.16618997 -0.13811503 -0.122403234 -0.0026763217 -0.101009704 -0.13946299 -0.24632962 0.26443693
-0.18408689 0.18938494 0.03590731 0.006259808 -0.26990157 -0.051625736 0.1360609 -0.26591918
0.07262646 -0.06816228 -0.09578353 -0.057946123 -0.1408386 -0.17279409 -0.012398037 -0.08715276
-0.20102732 -0.37304908 -0.08142592 0.0992534 0.09212214 0.10831456 0.007672197 0.152808
-0.067896485 0.2274044 0.09892201 0.12358937 -0.1310981 0.03527733 -0.077054396 0.19821188
0.043233026 0.18285967 -0.026278257 -0.0054101213 -0.11126623 0.25882956 0.13424206 -0.09907919
-0.038344 0.025350846 0.017135946 0.11921961 -0.097416535 -0.06197333 -0.027989348 -0.05728411
0.21032439 -0.1677592 0.13671426 0.050365735 -0.09125247 0.10131021 0.043021422 0.11403697
-0.23676774 -0.12212642 0.029029131 -0.16260356 -0.032489993 -0.09643916 0.23547192 -0.20794043
0.030135594 -0.018882435 0.0029791333 -0.14491874 0.069007285 -0.36880118 0.13722412 0.017463481
0.18791297 -0.06389857 0.26939142 0.059244335 0.053859614 -0.15178634 9.4873885e-06 -0.011602731
0.13443713 0.015979202 -0.029686594 -0.11336866 -0.19549756 -0.07541279 0.0809575 0.024205668
-0.14680515 -0.1588248 -0.15901071 -0.069030866 -0.19885409 -0.30627513 0.07443647 0.077849045
-0.1282971 0.1542389 0.19353329 -0.22533412 -0.022943612 0.080451734 0.05274748 0.14730132
0.05590977 -0.09778774 0.06308978 -0.5003976 -0.054636285 0.038405012 0.080949694 -0.026746413

action_model._discrete_distribution.branches.1.bias f4 [3]
00000000: 2e8c fdbc 733b b4bd 456b fd3d
-0.030950632 -0.088004015 0.12373976

action_model._discrete_distribution.branches.1.weight f4 [3, 256]
00000000: cc6e 203c c540 53be 0bc4 f6bc a735 a1bd
00000010: 3203 573e 21dc 41be 2405 113e 4c4b 9dbe
00000020: 6cfe 243e 77f4 16be ceea 44be 409a 20be
00000030: 77f3 243e 4dc9 f33b 70c8 94bc 8099 1ebd
00000040: b274 523e 77e1 533e 6366 923d 7a9a 403e
00000050: a422 07be 0921 a93d 50fb 43bc 3270 b73b
00000060: 94bd b9bc 20b3 163d f5ef c53c 1efb 80be
00000070: 4dcd 96bd 4339 023e a21e 8cbd 808a 95bd
00000080: d7c2 6ebe 6294 173d 1d2e 47bd 4e51 473e
00000090: d465 c93c bfba 2e3e 3aa5 9a38 1c4f 163e
000000a0: 8584 e53c 128c 7a3d 5f39 8dbd 998f 9abe
000000b0: 0938 fa3d 52e6 57bd a7ed 31be 742a 743d
000000c0: cf97 aa3d e55c 9e3d 81ec 2cbe 3747 223e
000000d0: b9b8 a73e 762c da3d 272c 6e3d 49b8 1d3d
000000e0: ee1c 0d3e 8c23 323e 2d8b 173e afde 243e
000000f0: 3b71 d83c 1630 7e3d 5bc0 d53d 614f b73d
00000100: 8f2c 163e e3bb d33d 7ad3 4cbe 105a 4fbd
00000110: c204 8c3e 423a 8fbe 4b50 e9bd 4348 95be
00000120: ece0 e83b 3b91 893d d503 9a3e 4833 ccbd
00000130: 742a 973d 2402 e73d 0a28 acbe c5d0 333c
00000140: fa98 16bd 3409 9f3c 502c a1bc 87e4 eb3b
00000150: ee5c 893d aa6c 1b3e 4fc6 1d3e 740d 8b3b
00000160: 3bc3 923d 5b74 f83c ae85 37bd 52a9 813d
00000170: cad8 79bd aae0 8dbe 7362 38be c93e 2b3d
00000180: 791a 353d fe57 8a3e ff1a 33bd 45d2 d0bd
00000190: 73f5 0ebc 5838 0cbd 826b ce3d bd88 77be
000001a0: 8a52 35be fe74 afbd c152 a03d cdb1 123e
000001b0: 4185 80be cfea e13d c24f a3bd bd8c b03d
000001c0: a365 4dbd 03cc cc3d 50cf dc3d 4aaf 333e
000001d0: 317d 8abe d64e c4bd 5692 f33d 274c 483e
000001e0: 99ac 603d 29f8 21bd 27c2 383e 4678 63bd
000001f0: 3824 453e 86b6 1ebe dfdf 55be c6a2 bcbd
00000200: 73fc 3cbd 6ea0 5c3d 699c 003d 799f edbd
00000210: 9d7e 2abc 4e0d 06bd baeb a53d a421 093d
00000220: 2567 e33d cf15 923c f7fb dc3d de65 03be
00000230: 42bc c53d 99a4 86bd 45e9 dabd f35e e53d
00000240: 4363 c8bd f7c8 0abc fa86 cc3c a7f4 29bd
00000250: c75d 28be 45a5 82bd 57df e4bc 38d9 383d
00000260: 0807 cd3d ae1d 94bc 1065 8dbe a0a2 15be
00000270: ca16 573d dbe3 023e 8695 223e 674c 723c
00000280: 45a1 563e 4bab 9cbb 1c7f e2bc 7eb1 b53d
00000290: f3a1 3abe 3df2 1d3e 2317 04be fe7a e7bd
000002a0: 29a0 92be be77 1e3e 8432 32bd ebfa adbe
000002b0: 96f1 22ba 3daa 753d bc4e 123d 800c 863d
000002c0: 9e30 f1bd 138b a8ba 14cd 573e 1f5f 383d
000002d0: d6c8 1dbc 099f 28be 7e14 47be c23b 11be
000002e0: fec4 763c d978 f93d c201 a63e 39b8 a83e
000002f0: 9ddf 47be 4fe9 f43c 697f 9fbe a362 11bc
00000300: c8f9 4dbe ac47 ccbd 3174 523d c2c5 ebbd
00000310: 0864 d73c 68f9 1ebd 1611 2dbd 4f70 333d
00000320: 61c7 0e3e 6cf7 b03c eaa7 e2be a6c8 0dbe
00000330: 8b1f 36be 3a48 bbbc bd69 53bd d6d4 1dbe
00000340: 93a9 a9bd 1ca3 8cbd dc45 e43c 8f15 a1bd
00000350: 406f 673d 2515 e13d 2794 453e e9c9 a03e
00000360: 5d0f 62bd a962 083e 3b09 1ebe 0dcf 293e
00000370: 198c c93d 7379 6bbc df4b ab3d e962 38be
00000380: c8c6 20be 01cd 89be 4333 b23d 5c45 a2be
00000390: 2119 0c3e 3e60 04be 3070 acbe 06e1 ebba
000003a0: 9afd 6f3d 845b 573e ce29 2cbb 0944 c1bc
000003b0: b379 603e 24a3 2c3e 36de b43c 4fca 35bd
000003c0: a9b4 493d fab7 773d 726f 043e 9b6a 3b3d
000003d0: 1e10 003d 9013 d53d 8cca b639 b581 98bd
000003e0: 7fb7 573e 3e15 32be a657 de3d accb 55be
000003f0: a353 d23d ff1b 923d 471f c2bc 7126 183e
0.009792041 -0.20630176 -0.030122777 -0.078715615 0.20997313 -0.18931629 0.14162117 -0.3072151
0.16112679 -0.14741693 -0.19230196 -0.15683842 0.161085 0.0074397684 -0.018161982 -0.038720608
0.20552328 0.20691477 0.07148435 0.18808928 -0.13196808 0.08258254 -0.011961773 0.0055980915
-0.022673406 0.03679192 0.024162272 -0.25191587 -0.07363377 0.12717156 -0.0684178 -0.073018074
-0.23316513 0.037006743 -0.04862796 0.19464609 0.024584688 0.17063425 7.374068e-05 0.14678615
0.028017292 0.061168738 -0.06895708 -0.3018768 0.12217719 -0.052709885 -0.17375813 0.0596108
0.083297364 0.07732562 -0.16887094 0.15847479 0.3275812 0.106530115 0.058147576 0.038505826
0.13780567 0.17396373 0.14799185 0.16100572 0.02642118 0.062057577 0.104370795 0.08950687
0.14665435 0.10338571 -0.20002547 -0.050623 0.2734738 -0.27974135 -0.11392268 -0.29156694
0.007106891 0.06717154 0.3008105 -0.099707186 0.07381144 0.11279705 -0.33624297 0.0109750675
-0.036766984 0.019413568 -0.01967445 0.0071988734 0.06707178 0.15178171 0.1540768 0.004243547
0.071661435 0.03032892 -0.04480522 0.063311234 -0.06099776 -0.27710468 -0.18006305 0.041807923
0.0442147 0.27020258 -0.043726917 -0.10196356 -0.008725512 -0.03423342 0.10079099 -0.24173255
-0.17707267 -0.08567236 0.07828284 0.14325638 -0.25101665 0.11031114 -0.07974197 0.08620594
-0.050145756 0.0999985 0.10781729 0.17547336 -0.27048638 -0.09585349 0.11893146 0.195603
0.054852102 -0.039543305 0.18042813 -0.055534624 0.19252098 -0.15499315 -0.20886181 -0.09210734
-0.04613919 0.053863935 0.031399164 -0.116026826 -0.0104061635 -0.032727532 0.08101602 0.033479348
0.11103658 0.017832665 0.10790246 -0.12831828 0.09655048 -0.06574363 -0.10689024 0.11199751
-0.09784558 -0.008470765 0.024966706 -0.041493084 -0.16442023 -0.06379179 -0.027938528 0.04512903
0.10011107 -0.018080559 -0.27616167 -0.14612818 0.052511968 0.12782232 0.15877351 0.014788724
0.20959957 -0.004781162 -0.027648501 0.088717446 -0.18225841 0.15424438 -0.12899451 -0.11302756
-0.28637818 0.15475366 -0.043505207 -0.33980498 -0.00062158087 0.059976805 0.03571962 0.06545353
-0.11776851 -0.001285883 0.21074325 0.04501259 -0.009630403 -0.16466917 -0.19441411 -0.14182952
0.015061615 0.12181253 0.32423216 0.3295305 -0.19518895 0.029896406 -0.31151894 -0.0088736145
-0.20114815 -0.09974608 0.05138034 -0.11512329 0.026292816 -0.03881207 -0.042252623 0.043808278
0.13943245 0.021602355 -0.44268733 -0.13846073 -0.1778547 -0.022861589 -0.05161451 -0.15413222
-0.08284297 -0.06867048 0.027865343 -0.0786544 0.05650258 0.10990361 0.19294797 0.31404045
-0.055190433 0.13318886 -0.15433209 0.1658289 0.09841175 -0.0143722175 0.08364081 -0.18006481
-0.15700829 -0.26914218 0.08701184 -0.31693542 0.13681461 -0.12927338 -0.33679342 -0.0017996139
0.058591463 0.21031004 -0.0026270035 -0.023592012 0.21921425 0.16859108 0.022078615 -0.04438239
0.049244557 0.060478188 0.12933138 0.045755964 0.03126537 0.10404122 0.00034864654 -0.07446615
0.21066092 -0.17390916 0.10856561 -0.20878476 0.10269859 0.07134246 -0.023696555 0.14858414

discrete_action_output_shape f4 [1, 2]
00000000: 0000 a040 0000 4040
5.0 3.0

network_body._body_endoder.seq_layers.0.bias f4 [256]
00000000: a033 d53d e423 5fbd 687f 60bd 4a0f 6ebd
00000010: 8b77 c6bb 2abc 99bd 590b d3bc dfdb 083d
00000020: bc6e 1dbb 8f5d 083d c1fc 00be 492f 893d
00000030: b13f 06be 6e0e a1bc a105 f93d b84a c63c
00000040: 5fce 98bd a304 14bc 8f56 8f3d 0777 a8ba
00000050: 86e1 57bd 6224 08bd 66a6 d9bd 81da 11be
00000060: 808a 213d 87e3 26be 9ac9 ecbd 7830 07bc
00000070: d84e 903c c61a 493d 2aec d03d 5333 b0bc
00000080: 2516 c53c 036c 9dbd d155 983d 82e1 553d
00000090: 3ad7 5abd b29a 2bbd 8fa9 803d f882 b6bd
000000a0: 62cc f13b 288d d6bc 5c05 02bd b41d bdbc
000000b0: 1a05 3cbd ce63 23bd 8b18 ad3b a9f5 32bc
000000c0: c3bd e2bc 1f82 b03b 9a0d 54bd a038 493d
000000d0: bdba c6ba 82ff fbbd 9191 0cbd 1708 e5ba
000000e0: f7c8 d83c 6d44 523d 7bc3 933c 1bbe 35bc
000000f0: cef5 45be 18c9 d3bd 49e7 40bc 9510 e9bb
00000100: 024c febd 0105 24bd 6bad 10bd cb79 24bd
00000110: ed37 14bd f6eb edbd 4aa2 43bd adb5 e73c
00000120: f60c 213c 9c05 adbc 6d64 61bc d510 bbbd
00000130: 9aa3 49bd 1cd4 ca3d 7cca 4b3c 1190 dfbb
00000140: f1eb a2bd 0f7c 0f3c 45c7 313d 13a7 383d
00000150: 91dd 70bd 82c5 253d 3d10 b3bd 4651 f13c
00000160: 8b42 043b 273c 813d 108a cd3c 1e86 363d
00000170: af60 bc3b 7b7e 10bd 799b 553b a5ef c83d
00000180: 5499 dcbd 4822 4bbd e3db 46bc 8588 92bd
00000190: 1663 f3bc 66cc 76bc d26c 513d 92ae 91bd
000001a0: 5e74 51bc 1e32 b7bd d4d0 883b 3fa1 953b
000001b0: 5062 c6bc 598b 38bd 6a7b 14bd 138b 4abe
000001c0: 54c2 5cbd f696 99bc 7d2d fabd 29d0 c6bd
000001d0: b304 933d 80e2 94bd 8842 dcbb c8d0 f03c
000001e0: 946d 303e a512 5cbc 7e92 90bd deb0 85bc
000001f0: 24d2 84bc fc12 d9bd 192e 9a3d 639b a7bd
00000200: 76fc 1d3d 7ee1 fdbb 4245 dfbd 0b90 04bd
00000210: 9f58 86bd 46d2 94bc c1c2 cebc ba26 0abe
00000220: 1d2a c1bd 6f3c 883c 511d 02be 9713 933d
00000230: 4597 33bc 1daf f3bd 05a4 66bc c81a 0d3d
00000240: 8401 2fbd ff46 943d dd6e be3c 2c05 77bd
00000250: f7ef 003b 224f 67bd c671 443c a3a0 f33c
00000260: b4db 873d 57f5 593b 4307 24be b99c a7bd
00000270: c147 313b b995 9e3c c0ab 59bc 6309 413d
00000280: af90 0dbd 13e4 38bd 8a3c 2b3b 5dcb 88bd
00000290: 9bd7 3ebb 17c9 2a3c aaa8 b73c 218c d03b
000002a0: fda5 54bd bbef 57be c757 8bbd 03f1 413d
000002b0: 159d bbbd a90a 073d 3e1d b1bc 73f7 a5bc
000002c0: 1fa7 b5bc d399 51bd 5f17 6dbd 970a 513d
000002d0: dba2 5c3c 5f22 133e 2ec8 3cbd 70a9 75bd
000002e0: 89c4 f8bd 6bba 29bd 1746 ed3d 21a8 b6bd
000002f0: f6e3 e13c a7b9 47bd 3f45 5ebc bf54 913c
00000300: 02d3 f8bd 8b7c a83d ab0e 2bbd 8f4e 86ba
00000310: 6f8c b83c cf58 bcbb 770f 95bb b744 b0bc
00000320: 983d 5dbe 4570 3dbd e4a8 c5bd 2c22 30bc
00000330: f664 11bd 952b 34bd 802d 1ebb 26f3 9d3d
00000340: 1cf7 d6bb fe7a 4a3c 0c34 18bd d3de 753d
00000350: f27d 433d fc8d 0cbd 9f7a d1bd 8a2a 0c3d
00000360: bcdc 0fbd f50f 75bc ddcd f5bc 255a 963d
00000370: 330e 01bd 4497 223c c6fe adbb 43a3 e23c
00000380: 562a b8bd 2c59 06be ca79 8abd 37d1 02bd
00000390: 181a aa3a f506 ad3d caef f93b cdb8 083e
000003a0: bf28 2d3d 9e62 8a3d 6558 ab3c 1387 c7bc
000003b0: 6b36 ebbc 9208 0dbd b3f9 163e 0101 fcbc
000003c0: 8443 68bd ab8c fabd eb53 79bc 4f37 54bc
000003d0: 1cc2 533d a461 09be bd21 82bc a88d 11be
000003e0: 4f34 353d 9350 3cbd 60e5 b13c 5529 72bd
000003f0: b007 febb 3f2e 42be b689 f3bb b4d8 383c
0.10410237 -0.054477587 -0.054809004 -0.05812005 -0.006056731 -0.075065926 -0.025762247 0.03341281
-0.0024022302 0.03329235 -0.12596418 0.06698472 -0.13110234 -0.0196602 0.12159277 0.02420555
-0.07461237 -0.009034309 0.069989316 -0.0012852856 -0.05270531 -0.033237822 -0.10627441 -0.14243509
0.039438725 -0.16297732 -0.1156189 -0.008251302 0.01761572 0.0490978 0.10201295 -0.021508848
0.02405841 -0.07686617 0.07438243 0.052217014 -0.053427912 -0.041895576 0.06282341 -0.08911699
0.0073791007 -0.026190355 -0.031743392 -0.023085453 -0.045903303 -0.039890103 0.0052824668 -0.010922828
-0.027678376 0.0053866054 -0.051770784 0.049126267 -0.0015161854 -0.123045936 -0.03431851 -0.0017473724
0.026463015 0.051334787 0.018037548 -0.011092688 -0.19332048 -0.1034109 -0.011773893 -0.0071125724
-0.12416841 -0.040043835 -0.035321634 -0.040155213 -0.036186147 -0.116172716 -0.047762193 0.028284872
0.00982975 -0.021120839 -0.0137568535 -0.0913407 -0.04922829 0.09903738 0.012438413 -0.006822594
-0.079551585 0.008757605 0.04340293 0.04508121 -0.058805052 0.04047156 -0.087433316 0.0294577
0.0020181264 0.06310301 0.025090247 0.044561498 0.0057488303 -0.03527687 0.003259389 0.098113336
-0.107714325 -0.04959324 -0.012137386 -0.07154945 -0.029710334 -0.015063381 0.05112917 -0.07113375
-0.012784092 -0.08945106 0.004175285 0.004566341 -0.0242168 -0.045054767 -0.03625051 -0.19779615
-0.053896263 -0.018748742 -0.122157075 -0.09707672 0.07178631 -0.07269764 -0.0067217983 0.02939643
0.172293 -0.01343218 -0.07059191 -0.016319688 -0.016213484 -0.10599324 0.07528324 -0.081839345
0.038570844 -0.007747828 -0.10901882 -0.032363933 -0.06559872 -0.018166672 -0.02523935 -0.13491336
-0.094318606 0.01663038 -0.12706496 0.07181471 -0.010961358 -0.118986346 -0.014077191 0.03444937
-0.042726055 0.07240104 0.023246223 -0.060307667 0.001967428 -0.05647195 0.011990016 0.029739683
0.06633702 0.0033257806 -0.16018395 -0.08184189 0.0027050825 0.019358503 -0.013285577 0.047128092
-0.03456181 -0.045139384 0.0026128613 -0.066794135 -0.002912021 0.01042392 0.022419292 0.006364361
-0.05191611 -0.21087544 -0.068038516 0.047348987 -0.091608204 0.03296915 -0.02162039 -0.020259595
-0.022174416 -0.05117209 -0.057883617 0.05103549 0.013466562 0.1436858 -0.046089344 -0.05997604
-0.12146861 -0.041437548 0.11585634 -0.08918787 0.02757452 -0.048761036 -0.013566314 0.017740605
-0.121496215 0.0822688 -0.041762035 -0.0010246801 0.022527901 -0.0057478915 -0.0045489627 -0.02151714
-0.21605527 -0.046249647 -0.09651354 -0.010750335 -0.035496674 -0.043986876 -0.0024136007 0.077123925
-0.0065602195 0.012358425 -0.03715901 0.060026955 0.047727533 -0.034315094 -0.10228466 0.034220256
-0.035122618 -0.014957418 -0.03000539 0.073414125 -0.031507682 0.00992376 -0.0053099124 0.02766574
-0.0899245 -0.13119954 -0.06761511 -0.031937804 0.0012977747 0.084485926 0.007627462 0.13351746
0.042275187 0.06757091 0.020916173 -0.0243564 -0.028712472 -0.034432 0.1474369 -0.030762197
-0.056705013 -0.122338615 -0.0152177615 -0.01295264 0.05169879 -0.13416153 -0.015885228 -0.14214194
0.04423934 -0.04597528 0.02171582 -0.05912145 -0.0077523813 -0.18962954 -0.007432188 0.011282135

network_body._body_endoder.seq_layers.0.weight f4 [256, 690]
00000000: 5305 65be 78f5 fa3d 0de8 983d c125 b7be
00000010: 5086 e43d 5c86 123e f8a5 b63d 8160 3f3e
00000020: b3e1 0cbe b6f0 683c 1b88 283c a4dc 713d
00000030: c828 0c3e 050e b2bd 5343 09bd c5d9 4d3d
00000040: 7663 1f3c c5e4 54be ea9b 4ebe 4833 6dbd
00000050: 8a46 a63e b4b2 093e 95e1 203f 64d4 57be
00000060: 19c6 b6bb 42e6 3abe e106 323d c198 24be
00000070: 8851 92bd 17b2 6b3d d9ca 333d 3ee1 a2be
00000080: 709b cdbd 1538 f6bd 3acc 9fbc 853f 6dbe
00000090: a02c a33c 5c12 c0bc 39ad 62bd 4ccd a93d
000000a0: 0302 1c3d de40 d2be 26df db3e 0fe2 75bd
000000b0: bdd3 9b3c 4be7 c3bd ef2b a6be 964d 2c3e
000000c0: 7a5e 3ebe 8a9b 0ebd db5f e03d 3f04 4a3e
000000d0: 118e 8c3e 1340 193d a3a2 853c cd90 5d3d
000000e0: d908 76be 60ef 403e 89d0 eabd 4e85 c23d
000000f0: ca94 823e 0b85 62be 9c9f d9be 9f08 793d
00000100: 03a2 b33d 5fe4 03bf 386a 44bd 5410 643e
00000110: 0d18 82be 0b09 4dbd 53fb fa3c 453b 0ebd
00000120: 2bf7 8d3e 7b4a 193e 5702 7f3d c188 c8be
00000130: eb13 b3bd f7c0 58be 8603 5ebe 3e5b 353d
00000140: d686 3ebd f617 c8bc 16e7 c33e b4fa 19be
00000150: 0d85 c83e 229d 1e3d c46f 03be d8ef 103e
00000160: dcef 79bd 18c6 073d d09c 13bd 7b71 2c3d
00000170: bd5b 53bd 6850 52be 8395 20be 1330 fabc
00000180: a611 293e 3e55 5e3e c90a f4bd 9dfd 7fbd
00000190: 356f 94bd 033f 103e f2a6 7fbe 157d 89be
000001a0: 2de7 81be b241 5c3d 03fe 87bd 0153 d93e
000001b0: 5768 87bd 2ecf 353d 01f7 b13d 3d7e 8e3e
000001c0: d598 b6bc e8c6 3d3c 28a6 2ebe 000a dabd
000001d0: 2433 663d 3860 81bd e57b b2bd 8803 24bd
000001e0: d510 3d3e 854a 35bd b632 92be 041b babc
000001f0: 6630 6dbe 02d9 d93d 4251 61bd 1d84 a03e
00000200: 171b 163d eb87 55bd 5c45 22bc e6a5 a63e
00000210: 7bba a0be 6d87 743d 186f 35be fefd a03c
00000220: 24bb 183e 840c 48be 1cc4 0cbe a26b 98bd
00000230: 1243 7a3e 5524 9c3d 5138 24be dc08 babc
00000240: 2069 17be 7a50 40be 9617 15be 5007 0dbe
00000250: 338d 30bd bc8d b8bd 7c15 2abe 5078 813d
00000260: b492 0fbe 1c56 cb3d 3957 0bbe 8995 a0be
00000270: d8d6 953d eac2 66bd 3d18 bdbd 743f b6bc
00000280: b778 523c 7e00 8ebd a4e3 283e fb2e 183e
00000290: e885 08be 75a6 0bbe e09c 26bd b744 953d
000002a0: 129a edbd c531 10be 5074 4abd 69f5 00be
000002b0: 98ea 13be 7d7a 0e3c 5234 0abe 001b 6ebe
000002c0: 4230 a53d ee1e d6bd 7281 03bd 6837 c93c
000002d0: f291 07be 562d c53c 2bc8 bebc ff17 ce3d
000002e0: 9a75 6fbe f08a 373d 9b80 fbbd 5502 423e
000002f0: 9eed 973b 27ba dfbd ff56 b83c 77a2 2c3e
00000300: fc59 fabd d516 a23d 1103 303d 8d24 0ebd
00000310: 3873 723e 6ad2 bbbd f0f1 e4bc 627a 47be
00000320: 660b 583c 1c52 6a3d 12f3 273d d472 e53d
00000330: 8f84 183c 1017 1d3e a455 fc3d b960 9fbe
00000340: 246e 00bc 8033 26be 77db 953d 15da 9d3d
00000350: 0c73 0ebe 5874 8c3c 08ce eebc 150b e03d
00000360: 20e1 d0bc 46ff 83be 9e9e 33bc 6ba7 11be
00000370: a056 193e ef7b eebd 1674 033e 3bb6 89bb
00000380: 42d5 0fbe 99e2 833e 5aad 903c c207 b1be
00000390: 5841 8cbd 6656 e6bd 992d 8d3e bec7 7fbd
000003a0: 2a10 c73e ddfd 7c3d 19b2 a93d 2e46 a23d
000003b0: fd6c 143d a7db f0bc f89d 0d3d c9db 16be
000003c0: 9ef9 a1bd 3300 0f3e 949e bcbd add4 64be
000003d0: f510 0bbe 27f5 1ebd 1b54 193e 8e78 373a
000003e0: 26e8 b0bd 78bb dcbd 9d6d 9a3d 0d23 19bd
000003f0: 4d82 89be 4c76 56bd 7758 9ebe d2ba 44be
-0.22365312 0.12253851 0.07466135 -0.3577099 0.111584306 0.14309067 0.08918375 0.18689157
-0.13757972 0.014217546 0.010286356 0.05904831 0.13687432 -0.0869408 -0.03351147 0.05025651
0.009728303 -0.20790394 -0.20176664 -0.057910234 0.32475692 0.13447076 0.6284421 -0.21077114
-0.0055778143 -0.18251899 0.04346359 -0.16073896 -0.07144457 0.057542887 0.043894622 -0.3181247
-0.10039413 -0.120224155 -0.019506563 -0.23168762 0.01991874 -0.023446254 -0.05534098 0.082911104
0.038087856 -0.41065115 0.42943686 -0.06003004 0.019021863 -0.095656 -0.32455394 0.16826472
-0.18590727 -0.034816302 0.10955783 0.19728182 0.27452138 0.03741462 0.016312903 0.05409317
-0.24026813 0.18841314 -0.11465556 0.09498082 0.25504142 -0.22121064 -0.42504585 0.060799237
0.08771136 -0.5152034 -0.04795286 0.22271854 -0.25408974 -0.050057452 0.030637419 -0.034724493
0.27727637 0.14969818 0.06225809 -0.39166835 -0.087440334 -0.2116736 -0.21681032 0.04427647
-0.04651531 -0.024425488 0.38262242 -0.15037042 0.3916401 0.038724072 -0.12835604 0.14153993
-0.061019763 0.0331479 -0.03603822 0.04210041 -0.05160116 -0.20538485 -0.15682034 -0.030540502
0.16510639 0.21712205 -0.119161196 -0.062497724 -0.072477736 0.14086537 -0.24966028 -0.26853243
-0.25371686 0.05377359 -0.06640246 0.4244614 -0.06611698 0.044387035 0.086896904 0.27830687
-0.022289673 0.0115830675 -0.17055571 -0.106464386 0.056201115 -0.063171804 -0.08715037 -0.04004243
0.18463452 -0.04426052 -0.28554314 -0.02271796 -0.23162994 0.10637094 -0.055009134 0.31350794
0.03664693 -0.052131575 -0.009904232 0.32548445 -0.31392273 0.059699465 -0.1771816 0.019652363
0.14915138 -0.19536024 -0.13746685 -0.07442404 0.24439648 0.07624117 -0.16037108 -0.022709303
-0.14786196 -0.187807 -0.14559779 -0.13772321 -0.043103408 -0.09011409 -0.16609758 0.06321776
-0.14020807 0.099285334 -0.13607492 -0.31364086 0.07316369 -0.05633823 -0.09233139 -0.022247054
0.0128461635 -0.069336876 0.16493088 0.14861672 -0.13332331 -0.13637717 -0.04067695 0.07288497
-0.11601652 -0.14081486 -0.04942733 -0.12593617 -0.14444959 0.008696196 -0.13496521 -0.23252487
0.08065845 -0.10455118 -0.03210587 0.024562553 -0.13239267 0.02406947 -0.023288807 0.10063171
-0.23384705 0.044810236 -0.12280389 0.18946202 0.0046364805 -0.109241776 0.02250242 0.1685885
-0.122241944 0.07914511 0.042971674 -0.034702826 0.23676765 -0.09170993 -0.027947396 -0.19480279
0.013186311 0.05720721 0.041003294 0.11203542 0.009308948 0.15340829 0.12321022 -0.3112848
-0.00783876 -0.16230583 0.0731725 0.077076115 -0.13911074 0.01714532 -0.029150978 0.10939614
-0.025497973 -0.25780696 -0.01096311 -0.14224021 0.14974451 -0.11644732 0.12837252 -0.004202632
-0.14046195 0.25758818 0.017660785 -0.3457623 -0.06848401 -0.11246948 0.2757385 -0.06244635
0.3887952 0.06176554 0.082859226 0.07923542 0.03623675 -0.029401613 0.03457448 -0.14732279
-0.07908939 0.1396492 -0.09209934 -0.22346754 -0.13580687 -0.038808014 0.1497349 0.000699886
-0.08638029 -0.10777944 0.07540438 -0.037386943 -0.26857224 -0.05235891 -0.30926868 -0.19211891

network_body._body_endoder.seq_layers.2.bias f4 [256]
00000000: 077b 6fbd dbd0 22be e5c9 debd 9905 cd3c
00000010: 0a33 d93d 949a 71be 61dd d3bd 662a a8bc
00000020: 745f ecbd ef75 53be a510 7ebd c096 74be
00000030: 8f41 37bc 188f 1bbd df75 b5bd 92bb cbbd
00000040: 27a9 33be 574a 04bc a157 87bd bd5f 7bbd
00000050: 2050 3dbe 9725 72bd bdfb 35bd 03d4 acbd
00000060: aaa0 d83c 8254 b5bd 1f57 6dbe c128 84be
00000070: 6206 cfbd 1bef 8d3c 0809 62bb 3cfe 70be
00000080: 8b8c bbbd 9d02 84bd 9c58 b8bd 1701 62bc
00000090: ba3c 01be 7c48 503c 2d7f fcbd a2d0 6fbd
000000a0: 1e8a 07be f96f eebc 9cb8 2cbd ffd2 82be
000000b0: 8e85 a0bb ffb6 a8bd 48fe 86be ce38 1ebc
000000c0: d4a9 3bbd e41d 21be c1fd 22be c773 2ebe
000000d0: e977 16bd 56c1 593b e3a6 96bd ffe9 963d
000000e0: 3899 ddbd 331e b2bd 333d 14be 6f47 dfbd
000000f0: 3334 a5bd aa8f 10be a425 66bd 5e2f 5cbd
00000100: 0ae7 8fbc 0eca 8ebd 74e9 f5bd 2455 76be
00000110: e0c2 dabd 8fa8 85be 0927 9abc 92a7 90be
00000120: 771d a9be f6b4 c7bd ad44 633d 68b5 3bbe
00000130: 1bec 23be 9af6 b6bd ade1 aabd e5a5 15be
00000140: 3485 c7bc 07c4 3bbd 3c70 203b 49a8 80bd
00000150: 0074 de3b 1aef f5bd ea0f 05bd b202 56be
00000160: f1ae 5ebd 1c7f 2dbe a4a6 d63b a048 8cbd
00000170: d445 3cbe bef6 92bd dbf6 0dbe 4501 8ebe
00000180: c7c0 abbc 2b50 dcbd e66a e5bc 1c51 23be
00000190: 302b c8bd 2829 37be 8d27 30be 2446 66be
000001a0: 4153 c3bc a549 3abe d967 933d d4c7 d7bd
000001b0: f1a4 bcbe 4507 ffbd 745f 21bb 8878 e2bc
000001c0: 838e 0ebe 8601 3abd c78c debd 00cc 32be
000001d0: a19a b7bc 71ab b13d 73a4 9cbd 953a 58be
000001e0: 6356 473d be6e 86be 6580 823c aab1 3ebe
000001f0: 4134 a3bd 31a0 1cbe f792 3cbe b47f 4cbe
00000200: e79c 04b6 1951 29be e2de 09bd 1e32 69be
00000210: a4da 31bd ec40 83bd 1f77 a2bd f2e6 11be
00000220: 59b8 f9bc 79ea 743d d30d 0dbe ca1f 32be
00000230: 4c3c 2abe 7949 45be 673e bebc 56aa c3bd
00000240: 3ac5 8ebd aa7a d6bd f2d2 41bc 772c 14bd
00000250: b2b0 9dbe f724 d5bd f5a9 51be e0fd 39be
00000260: 79c3 343d 5d8f 68bd 395c 11be b321 49bc
00000270: 4446 2bbe 9525 f0bd 02f1 13be 6d68 42bd
00000280: 1069 9cbc f624 18be b401 4cbe 427c 6f3d
00000290: d98e 61bd 03c6 8f3c cc69 8abe 43f0 4e3d
000002a0: 0461 c1bd 1869 2abb 4bf3 52be bced 3abd
000002b0: e7f7 16be 9998 88bd d7b0 37bd 5359 8c3c
000002c0: 5019 05be 8208 3abd 04de 913d 73e1 bdbd
000002d0: 9ce3 21be bb66 04bd 508e 2dbe 925f 8c3c
000002e0: aa7c e5bd ab9e e6bc 0ecc c53c 1c6d 7d3d
000002f0: de4c 873d 4a05 6cbd b03f 09be 01d7 a93c
00000300: 0fa4 97bd 3c73 ebbd 9cd6 cfbd c20c 89bd
00000310: 646b 4bbd 8949 67be a0cd a8bd de97 c3bc
00000320: 761a 43bc ff98 60be 91de 14be 2d0f 85bd
00000330: 7a94 4abe 82ff 06be 4e56 efbd c44e 46be
00000340: b137 84be 9ed7 2bbe 5aff 92bd 3794 32be
00000350: 3ce8 a1bd 3cbe f83c 6235 89bd a78a 35bc
00000360: 98b9 0cbe 9b64 09be 14e1 f5bd e74d fcbd
00000370: e0b5 6b3d ed37 11be 658f 493c 4614 1bbe
00000380: a279 c7bd 6e9a b4bd 5f4d 15bd 7ed4 09be
00000390: 7688 29bd d50f 03be 209c 0dbe 2e7e e0bd
000003a0: 25d8 94bd 0dbc 5d3d 7337 30be bf2e 9ebd
000003b0: dfdd 68bc 94f8 d5bd 9179 70bd d945 f9bd
000003c0: b17d 7dbe 4d78 98bd 0f7a b2bc 99aa 74be
000003d0: 63c7 b6bc e314 a03b 9338 d8bd 0b5d 39be
000003e0: 69cb 813b 5858 37be de23 6fbd a9e7 033d
000003f0: b7f5 45bd a60d b4bd ed67 57be 2801 87bc
-0.058466937 -0.15899985 -0.10878352 0.025027083 0.10605438 -0.23594123 -0.10344959 -0.02052803
-0.11541644 -0.20650457 -0.062027592 -0.23885632 -0.011185064 -0.03797826 -0.08860373 -0.099478856
-0.17544995 -0.008074365 -0.06608511 -0.0613706 -0.18487597 -0.05911788 -0.04442953 -0.084388755
0.026443798 -0.08854009 -0.23177765 -0.25812343 -0.10108639 0.017325928 -0.0034490246 -0.23534483
-0.09157666 -0.06445811 -0.09001276 -0.013794205 -0.12620822 0.012712594 -0.12328944 -0.058548577
-0.13236281 -0.029106127 -0.042168245 -0.25551602 -0.0048987335 -0.08238029 -0.26365876 -0.009657098
-0.045816258 -0.15734059 -0.15917112 -0.17036353 -0.03673545 0.003322681 -0.0735605 0.0736885
-0.1082024 -0.08697166 -0.1447647 -0.10902297 -0.08066597 -0.14117303 -0.05618824 -0.05375611
-0.017566223 -0.069721326 -0.12007418 -0.24055916 -0.10681701 -0.26105163 -0.018817442 -0.28252846
-0.33030292 -0.097513124 0.055485416 -0.1833092 -0.16008036 -0.08933754 -0.083438255 -0.14614065
-0.024355508 -0.045841243 0.002448096 -0.06282098 0.0067887306 -0.12008496 -0.03248588 -0.20899466
-0.054366056 -0.1694302 0.006550627 -0.068497896 -0.18386012 -0.071759686 -0.13863699 -0.27735344
-0.020965947 -0.10757478 -0.028005075 -0.1594891 -0.09773862 -0.17886794 -0.17202587 -0.22487694
-0.02384341 -0.18192156 0.07197542 -0.10536161 -0.3684459 -0.124525584 -0.0024623545 -0.027645364
-0.13921551 -0.04541161 -0.10866695 -0.17460632 -0.0224126 0.08675278 -0.07648554 -0.21116097
0.04866637 -0.26256365 0.015930364 -0.18622461 -0.07968951 -0.15295483 -0.18415438 -0.1997059
-1.9760862e-06 -0.16534843 -0.033659823 -0.22773024 -0.043421403 -0.06408867 -0.07932877 -0.14248255
-0.030483412 0.059793923 -0.13774805 -0.17394939 -0.16624564 -0.19266309 -0.023223115 -0.095539734
-0.06971212 -0.10472615 -0.011830078 -0.036175217 -0.3079887 -0.10407441 -0.2047499 -0.18163252
0.04413173 -0.056777347 -0.14195336 -0.012276101 -0.16726023 -0.11725918 -0.14447406 -0.04746287
-0.019093066 -0.1485785 -0.19922525 0.05846811 -0.05506787 0.017550474 -0.27033842 0.0505221
-0.094423324 -0.0026002582 -0.20600621 -0.045636877 -0.14743005 -0.06669731 -0.044846382 0.017132437
-0.12997937 -0.04541827 0.07122424 -0.09271517 -0.15809482 -0.032324534 -0.16948819 0.017135415
-0.112054184 -0.02815183 0.024145152 0.061871633 0.06606458 -0.05762223 -0.13403201 0.020732405
-0.074043386 -0.114965886 -0.10148355 -0.066918865 -0.049662963 -0.22586645 -0.08242345 -0.023876127
-0.011908164 -0.21933363 -0.14538027 -0.06497035 -0.19783202 -0.13183406 -0.11686383 -0.19365984
-0.2582374 -0.1678147 -0.07177611 -0.17439352 -0.07905623 0.030364148 -0.06699635 -0.011080421
-0.13742673 -0.13417284 -0.12005821 -0.12319546 0.057546496 -0.1418149 0.012302254 -0.15144452
-0.097399965 -0.088185176 -0.03645074 -0.13459966 -0.041389905 -0.12799008 -0.13829088 -0.10961567
-0.07267789 0.054134417 -0.17208652 -0.0772376 -0.014213054 -0.10447803 -0.058709685 -0.121715255
-0.24754979 -0.074448206 -0.021786718 -0.23893203 -0.022311872 0.0048853024 -0.10557666 -0.181019
0.003961016 -0.17904794 -0.058383815 0.03220335 -0.048330035 -0.08791666 -0.21035738 -0.016480044

network_body._body_endoder.seq_layers.2.weight f4 [256, 256]
00000000: 47bf a33c 121e e2bc 4b8c 4d3e 098b 9e3e
00000010: f40e 9abd 7190 e0bd 5e1c 873d 3bd0 3a3e
00000020: dffa cc3d 9576 27be 172a b1bd 683c 2fbe
00000030: 83e3 b7be 5c11 a0bd 479c c8bd 4a0d 393e
00000040: d1ae 80be 8657 883d 67f5 65bd d4cc ecbd
00000050: a157 59be 7b60 c03e 6f6c a03c b3af e3bc
00000060: 2e77 9dbd 6158 d9bd 04bf 843d 1d6d 023e
00000070: ef82 09be 8c28 d43b 236b 4f3d 83e2 b13b
00000080: 3473 923e ee76 0bbe 0a8e 6fbe 95fe a8bc
00000090: 5e10 813d 34b7 77be c3b2 5c3d e1d1 60be
000000a0: 2c4c 19bc 6062 0dbd 41ea 85bd d80c 703e
000000b0: a3ff e8bc 4c70 c43d 1fab debd acff ed3d
000000c0: f459 36be 2571 f9bd d152 8cbe 6171 46be
000000d0: 4821 133e 5b41 5d3c b8d1 3e3e b690 503e
000000e0: 9e44 a6bc 026f a43d f81c 94bd 1c73 1dbc
000000f0: 37d2 58be 439f 5cbe c458 17be 5ef2 263c
00000100: 2b1a 173e f0ae d23d 8dbc 5b3e 9907 e93d
00000110: a79e 533e 5140 dc3d bc64 4d3d c308 07be
00000120: 2583 933d 3138 833e 2b38 e8bd 2e2c 1fbe
00000130: d78d 6ebd e5dd 84be 19b8 f7bc 559e b93d
00000140: 77c5 dcbe 1977 0cbe a75a adbd 2acf 1f3b
00000150: 7788 94bd 10fd 683e 7da7 a13c ec48 3a3c
00000160: 078d b43e f941 83bb 6390 78be d80e 66be
00000170: 1bbe f93d 77ac 06be b388 7d3d 508f 033d
00000180: 7097 bc3e 6725 62be c59f 823e b57b 013d
00000190: 433c acbd 2f4b 563e a00b 8abe 7754 57be
000001a0: 09e3 a73e 7ac4 4ebe e355 e1bd fc8a 9b3c
000001b0: 56a6 f9bd fb9b 893d 89d0 9a3d 1004 393c
000001c0: ddaf 783c a43f 513e 166a b8bd c03e d73e
000001d0: df85 a83e d3fa c23d 5e69 0a3e 6925 2e3d
000001e0: 9cac 193c 9574 54be bc9d ea3c d415 003d
000001f0: d8f8 26be c913 5f3e 68c5 3f3d 15b8 9ebd
00000200: 6914 ec3d 2b94 2e3e 8a22 98bd c2b4 80be
00000210: b16a 94be bc18 093e 8e81 63bb a0e4 3ebe
00000220: f5e9 aa3d 23e8 563d 7aed 91be bc54 4ebe
00000230: 4c9c 2fbe 349d 2abe e372 04bd 40cf 983d
00000240: 2c7f a5be b781 a43c e32c 223e b70a 213e
00000250: 1397 5fbe 7670 b1bd dc41 933e 9a8e 02bc
00000260: 4065 adbd c4b5 03bc e8ff 2c3e 2dab 9ebe
00000270: 94f9 91bc a4c7 6f3d 279c fe3d c9e3 d53d
00000280: 23d3 0b3e fc8e 353e 3f7c 59be c4b9 95be
00000290: 1e00 a3be dd2d 33be 996a 01be bf12 0e3e
000002a0: 16ce 08be b496 c2be dca1 23be 90bc 34be
000002b0: d3e0 d6bd df8c 383e d20f 9e3e 887d 093e
000002c0: 4c63 f2bd e34a 43bb ffb7 91bd f14e 47be
000002d0: be8a 5a3e 3e71 933e 4869 7dbd a55f 14bd
000002e0: c8a6 81bc f667 10be 4d49 95be af2a 0e3e
000002f0: 0d0e f53d dced 52be 2b1d 74bd 44b3 abbe
00000300: 9e2f 9dbd 07ae 5ebe 6818 653d 4688 93bd
00000310: 36d8 e6bd 3c54 29be 4033 c63e 80ac 26be
00000320: ad00 823e de90 2abd 9dc2 c03d c1d3 963c
00000330: 7b46 4cbd 0ab5 cdbe 97ac 6ebe a39a 06be
00000340: 381e aa3c 37fa c0bd d1a1 00bd dd3d e13d
00000350: 54de a63d 77e6 65bc 9db1 e6bd b171 9b3d
00000360: 0f01 803e 5160 133e db69 90bc d942 06be
00000370: 5bec b6be 64df 033d 4e41 943e b537 17bc
00000380: 46c7 453e 1939 5bbe beb8 003e 6493 29be
00000390: 8e7a c2bd bfde 0fbe ca8e fbbd a492 07be
000003a0: 1d03 96bc f53d e63d 416e fc3c 62e7 0abe
000003b0: d20e 5c3c 9b69 7a3e 8f49 c03c 103d 4a3d
000003c0: 03a9 fdbd 3c6f c03d 5d10 213d 901d 7b3e
000003d0: dcf3 75be 3b01 9cbd bf28 e5bd 9ea5 683e
000003e0: 2b2f a43d adaa 46be c882 9c3d 811a 17be
000003f0: 82f8 633e cae5 813d 99b7 033d fbb6 60be
0.01998867 -0.02760223 0.20073049 0.3096545 -0.07522383 -0.1096505 0.065972075 0.18243496
0.10008787 -0.16353829 -0.08650606 -0.17112887 -0.35915765 -0.07815811 -0.097954325 0.18071476
-0.25133374 0.06657319 -0.056142237 -0.11562505 -0.21224834 0.3757361 0.019582955 -0.02779374
-0.07688747 -0.1061256 0.06481746 0.12736936 -0.13428853 0.00647456 0.050639283 0.0054286136
0.28603518 -0.13619587 -0.23394027 -0.020629207 0.0630195 -0.2419098 0.053881418 -0.21955062
-0.00935654 -0.034517646 -0.06538821 0.234424 -0.02844221 0.095917314 -0.108724825 0.11621031
-0.17807752 -0.12179784 -0.27406934 -0.19379188 0.14368165 0.0135043515 0.18634689 0.20367703
-0.020296391 0.080289856 -0.07232088 -0.009609964 -0.2117394 -0.21545129 -0.14779955 0.010189621
0.14756076 0.10287273 0.21458645 0.11378402 0.2066599 0.10754455 0.050144896 -0.13186936
0.07202748 0.25628808 -0.11338838 -0.15544197 -0.058240738 -0.25950542 -0.030239152 0.090634026
-0.43119404 -0.13717307 -0.08464556 0.0024384954 -0.07252591 0.22752786 0.019733185 0.011369925
0.35263845 -0.0040056673 -0.24273829 -0.224666 0.12194463 -0.13151728 0.061897945 0.032119095
0.36834288 -0.2208458 0.2551252 0.031612117 -0.084099315 0.20927118 -0.26961994 -0.21028315
0.32790402 -0.20192137 -0.1100271 0.018987171 -0.12189929 0.06719204 0.07559306 0.0112924725
0.015178648 0.20434433 -0.09004609 0.42040062 0.32914636 0.09520497 0.13516757 0.042516146
0.009379532 -0.20747598 0.028639667 0.031270817 -0.16305864 0.21784891 0.04681912 -0.077499546
0.115273304 0.17048709 -0.07428463 -0.25137907 -0.2898765 0.13388342 -0.0034714672 -0.18641901
0.08345405 0.052467477 -0.28501493 -0.20149511 -0.17149466 -0.1666153 -0.032336127 0.07461405
-0.32323587 0.020081384 0.15837435 0.15726744 -0.21834974 -0.08664028 0.28761184 -0.007968569
-0.084665775 -0.008038942 0.16894495 -0.30989972 -0.017819203 0.05854 0.124321274 0.10443837
0.13654761 0.17730325 -0.21238802 -0.2924329 -0.31836027 -0.17497964 -0.1263832 0.13874339
-0.13359866 -0.38005602 -0.15979713 -0.17650056 -0.104921006 0.18022488 0.30871445 0.13426793
-0.118353456 -0.0029799275 -0.071151726 -0.19463708 0.21341988 0.28797334 -0.061867982 -0.036224026
-0.015826598 -0.14102158 -0.29157487 0.1388347 0.119655706 -0.20598549 -0.05959813 -0.33535206
-0.07675098 -0.21746074 0.05593148 -0.072037265 -0.11271708 -0.16536039 0.38710976 -0.16276741
0.2539114 -0.041642062 0.094121195 0.018411519 -0.049871903 -0.40177184 -0.23308025 -0.13144927
0.020766363 -0.09422725 -0.03140432 0.109981276 0.081478745 -0.014031998 -0.11264346 0.07590044
0.25000808 0.1439221 -0.0176286 -0.13111438 -0.357272 0.032195464 0.28956074 -0.00922959
0.19314298 -0.214085 0.12570474 -0.16560131 -0.09496032 -0.14049815 -0.12283094 -0.13239533
-0.018312031 0.11242286 0.030814292 -0.13564828 0.013431268 0.24454348 0.023472575 0.04937464
-0.12385752 0.09396216 0.039322246 0.24522996 -0.24018806 -0.07617422 -0.11189412 0.22719428
0.08016809 -0.19401045 0.07642132 -0.14756204 0.22262767 0.06342657 0.032157514 -0.21944802
