Assets/TFModels/Other models trained in the process/Striker2-lessrewcut_selfplay3_3M_1.onnx (onnx, 911175 bytes, 9 tensors)

action_model._discrete_distribution.branches.0.bias f4 [5]
-0.021451293 -0.044610016 0.046340983 -0.021016043 0.03014502
00000000: 9fba afbc feb8 36bd 0bd0 3d3d d629 acbc
00000010: b0f2 f63c

action_model._discrete_distribution.branches.0.weight f4 [5, 256]
-0.09525406 -0.15264156 0.0062115383 0.08303428 -0.035082553 0.15129358 0.15537085 0.033458963
-0.12802972 0.15002245 0.15421142 0.0024720258 0.02178236 -0.020323386 -0.02869205 0.055969622
0.11537969 0.006829576 0.039288875 0.0022811955 -0.024070963 0.13296568 -0.0657769 0.14058286
0.1357144 -0.08455167 -0.011656211 0.016737543 0.04042663 0.13171229 0.02282401 0.021050796
-0.03153185 0.035810642 0.13150826 -0.004897577 0.18429197 -0.093550354 -0.04286814 0.18213397
0.046016484 0.007908209 0.047971256 -0.011477242 0.04134335 0.11985446 0.002894978 0.0075270403
0.15734938 0.013554013 0.078259304 0.04580213 -0.023963261 -0.06822591 -0.04656459 0.015621074
-0.081002004 -0.08304654 0.10283757 -0.089133866 -0.10206335 -0.11234581 -0.045498554 -0.051854737
0.07982447 0.076428495 -0.02764535 0.11144938 0.046931207 0.002247084 0.12909907 0.026890999
-0.1499497 0.07714743 0.02197374 0.013867058 0.011873243 -0.12014484 -0.04252648 -0.04909186
0.0032545673 0.077486485 -0.028715717 -0.044022087 -0.078767665 -0.10517058 0.011271142 0.105285265
0.050288793 0.012357499 0.023106046 0.006611694 -0.10221632 -0.020103319 0.06300984 0.026658893
0.116507806 -0.10675847 0.01356744 0.05746336 -0.16204779 0.010153355 -0.047111474 0.1640314
0.111848295 0.0027248596 -0.01842985 -0.0056908177 0.12306851 0.059478853 0.025216121 -0.050478682
0.10038319 0.006396419 0.078788266 -0.13682687 0.123565175 -0.13528666 0.11137011 0.12403068
0.123154454 0.09379077 -0.1360189 0.04083171 -0.11020155 0.041027147 0.1830223 0.019205239
0.045762315 -0.03614654 0.038406234 0.10990191 -0.02249686 0.09822262 -0.073080376 0.050255306
0.024761334 0.011343906 -0.016322188 0.107660174 0.06738932 0.11161843 -0.016857198 -0.11652775
-0.0035867996 -0.09397551 -0.008702727 0.010940206 0.037262704 -0.06241711 -0.01293979 -0.19122963
-0.123969086 -0.016815258 -0.014431854 -0.0113679385 0.08029904 0.04949952 0.012323082 0.055288564
0.070786916 0.047536973 0.007965249 -0.0434873 0.11874768 0.048794035 0.09047187 0.053812448
0.08018254 0.062014498 0.057705417 0.0056795888 0.016966576 -0.047044408 0.049167417 -0.062090136
0.03285878 -0.036541034 0.07989302 0.035926092 -0.09637773 0.059199236 0.067155115 -0.007342708
0.12070345 0.13094094 0.071591504 0.03309554 -0.04456756 -0.034045473 0.027813934 0.050586503
0.0005308223 0.06887194 0.036888756 0.18141533 0.06840297 -0.027373357 0.029447945 -0.027333882
-0.15714161 0.15207879 -0.1370494 0.10963704 0.1441095 0.007979113 0.040023997 -0.101652645
0.047536615 -0.051560763 -0.06658138 0.062121484 0.12551823 0.058570318 0.035166174 -0.15566127
-0.04025962 -0.09119712 -0.13048577 -0.084304884 0.047657687 0.14167474 0.055562858 -0.1035657
-0.015276051 0.043068726 -0.022964263 0.034285016 -0.08470374 0.12011469 -0.08707107 0.097057596
-0.029977482 0.005619209 0.015432524 -0.091830514 -0.05104933 -0.12740736 0.048973486 -0.02237093
-0.035051107 0.0037042168 -0.05217655 -0.03574143 0.08371458 0.008221716 0.05868568 0.0681463
-0.019552788 0.054026436 0.1277398 0.06865271 -0.008671151 0.13201785 -0.056427374 -0.046642132
00000000: 9014 c3bd 124e 1cbe 298a cb3b e00d aa3d
00000010: b9b2 0fbd b4ec 1a3e 8919 1f3e 440c 093d
00000020: 391a 03be 7c9f 193e 99e9 1d3e b601 223b
00000030: eb70 b23c 3b7d a6bc 970b ebbc 6740 653d
00000040: 304c ec3d a3ca df3b 5fed 203d 1c80 153b
00000050: 7830 c5bc 2828 083e 0ab6 86bd f4f4 0f3e
00000060: b7f8 0a3e 6d29 adbd b1f9 3ebc 2c1d 893c
00000070: 6596 253d 96df 063e 6bf9 ba3c b872 ac3c
00000080: 8b27 01bd 2eae 123d 1aaa 063e db7b a0bb
00000090: 09b7 3c3e 5497 bfbd 8196 2fbd 5481 3a3e
000000a0: c87b 3c3d 6f91 013c 827d 443d 0b0b 3cbc
000000b0: a557 293d 4176 f53d acb9 3d3b 64a5 f63b
000000c0: 3220 213e a711 5e3c 6a46 a03d 049b 3b3d
000000d0: 9a4e c4bc 07ba 8bbd 83ba 3ebd 88ef 7f3c
000000e0: 61e4 a5bd 4e14 aabd 819c d23d d18b b6bd
000000f0: 9706 d1bd 8f15 e6bd b15c 3abd a265 54bd
00000100: 037b a33d 8b86 9c3d 8078 e2bc 933f e43d
00000110: f03a 403d d043 133b 8c32 043e 834a dc3c
00000120: 6a8c 19be 79ff 9d3d 4602 b43c a832 633c
00000130: fe87 423c 7f0e f6bd 3f30 2ebd 8c14 49bd
00000140: 944a 553b 3cb1 9e3d 393d ebbc 8150 34bd
00000150: f150 a1bd ac63 d7bd 99aa 383c cd9f d73d
00000160: 9ffb 4d3d 1c77 4a3c e448 bd3c e9a6 d83b
00000170: ca56 d1bd b7af a4bc 4e0b 813d c063 da3c
00000180: a59b ee3d 2fa4 dabd f849 5e3c b35e 6b3d
00000190: dbef 25be 425a 263c f6f7 40bd d9f7 273e
000001a0: b810 e53d 8f93 323b 32fa 96bc 0a7a babb
000001b0: 580b fc3d 19a0 733d 0a92 ce3c bcc2 4ebd
000001c0: b495 cd3d 0d99 d13b be5b a13d 581c 0cbe
000001d0: bd0f fd3d 9688 0abe 0316 e43d cc03 fe3d
000001e0: 6738 fc3d 6015 c03d 8a48 0bbe 273f 273d
000001f0: 5ab1 e1bd 150c 283d 336a 3b3e 4e54 9d3c
00000200: 4471 3b3d 650e 14bd db4f 1d3d 4114 e13d
00000210: 564b b8bc f128 c93d 2aab 95bd 82d8 4d3d
00000220: 48d8 ca3c cadb 393c 1cb6 85bc f07c dc3d
00000230: 6903 8a3d 3498 e43d 1b18 8abc 1aa6 eebd
00000240: 8310 6bbb 3b76 c0bd e295 0ebc 8d3e 333c
00000250: c7a0 183d 15a9 7fbd 6a01 54bc b3d1 43be
00000260: 81e3 fdbd 27c0 89bc 9573 6cbc 9740 3abc
00000270: d373 a43d 02c0 4a3d c1e6 493c 4376 623d
00000280: bbf8 903d 21b6 423d ad80 023c bd1f 32bd
00000290: fc31 f33d 41dc 473d 5149 b93d 716a 5c3d
000002a0: be36 a43d ea02 7e3d 845c 6c3d d81b ba3b
000002b0: 7dfd 8a3c a3b1 40bd c663 493d 3a52 7ebd
000002c0: ee96 063d 0dac 15bd f49e a33d 3d27 133d
000002d0: b061 c5bd e67a 723d 9f88 893d 199b f0bb
000002e0: 5f33 f73d 6215 063e 919e 923d 308f 073d
000002f0: 798c 36bd 4473 0bbd 0cda e33c cb33 4f3d
00000300: e226 0b3a bb0c 8d3d aa18 173d f1c4 393e
00000310: db16 8c3d 173e e0bc d13c f13c 4eeb dfbc
00000320: bbe9 20be 8bba 1b3e ae56 0cbe 6289 e03d
00000330: 7191 133e d3ba 023c 34f0 233d 432f d0bd
00000340: c1b5 423d 6131 53bd d25b 88bd 1973 7e3d
00000350: da87 003e 6ee7 6f3d 680a 103d ab65 1fbe
00000360: 45e7 24bd 8ec5 babd 109e 05be 0aa8 acbd
00000370: b534 433d 2f13 113e e195 633d 411a d4bd
00000380: 6748 7abc d568 303d 8d1f bcbc 726e 0c3d
00000390: 2879 adbd b1fe f53d 5152 b2bd 22c6 c63d
000003a0: 5693 f5bc 5721 b83b b2d8 7c3c a311 bcbd
000003b0: 1a19 51bd 1377 02be 6c98 483d 3e43 b7bc
000003c0: c091 0fbd 72c2 723b 14b7 55bd 9b65 12bd
000003d0: 8d72 ab3d 60b4 063c 6560 703d 4a90 8b3d
000003e0: 2b2d a0bc d34a 5d3d 39ce 023e cb99 8c3d
000003f0: 7111 0ebc b02f 073e 6420 67bd d20b 3fbd

action_model._discrete_distribution.branches.1.bias f4 [3]
0.01082958 -0.043092776 0.03150793
00000000: 8d6e 313c 0d82 30bd 760e 013d

action_model._discrete_distribution.branches.1.weight f4 [3, 256]
-0.093977116 -0.1795161 -0.07903918 0.03387304 0.04694535 -0.112949945 0.0777462 -0.054569952
0.19494666 0.083158806 0.08050314 0.014081665 0.0053567826 -0.071345754 -0.005644193 -0.07987767
-0.092661984 0.048836034 0.06467495 0.074474715 0.14596875 -0.00068337383 0.0075376015 -0.047878686
-0.120727696 -0.078085184 0.067380235 -0.0017409702 0.14064337 -0.046103068 -0.087889835 -0.22981629
-0.015342222 -0.008375252 0.070437975 0.064789355 -0.057068046 -0.013248565 -0.08246681 0.18195285
0.044655133 -0.060641747 0.08138476 0.013077833 0.14908433 0.098461345 -0.010250864 -0.05154904
0.0684108 0.09798886 -0.1173398 -0.18343277 -0.003306208 -0.10902855 0.18251379 -0.14856866
-0.055313904 0.06332325 -0.050213598 0.02941656 -0.07141325 0.08570804 -0.16587855 0.10649342
0.041048314 -0.0035489788 -0.043527756 0.07317392 -0.01996878 0.08028587 0.060929168 -0.1403797
-0.23178881 0.10051379 -0.09887835 0.07473228 -0.0009799452 0.07381239 -0.1929284 0.05692302
-0.14394511 -0.0747526 -0.069416136 0.08596253 0.071342774 0.005999976 -0.018169533 -0.1647824
0.0736174 -0.06651218 0.045655895 0.018503672 0.058958758 -0.01110315 -0.00567199 -0.05609139
-0.0046019913 0.044588316 0.13468523 -0.028801024 0.013135146 0.0035520603 0.053709757 0.03457249
0.051149566 0.057067003 -0.076906726 0.029904993 0.04123455 0.010588546 0.03518678 0.07082733
-0.01794667 0.021896927 0.016086062 -0.024085151 0.042300683 -0.03269022 -0.08839049 0.0044062487
-0.046546116 0.11889253 -0.0055126203 0.061531533 -0.08025771 0.018802002 0.016540643 0.08170643
0.14963391 0.019645683 0.04519259 -0.033533987 -0.1476511 -0.014624019 -0.07344742 -0.09574307
-0.039396156 -0.045205932 0.03899183 0.012312734 0.0024006667 -0.031142037 0.014004163 0.11246009
-0.18694977 -0.04632438 -0.0069587515 -0.038313627 -0.17388846 0.104885325 -0.053500224 0.020490382
0.058871824 -0.038548276 -0.108960286 -0.010905721 0.03454325 -0.11720648 -0.050927475 0.13612422
-0.01106799 -0.16710973 0.11756591 0.05473318 -0.038811054 -0.12740675 -0.07725151 -0.060155243
0.050749652 -0.02852124 0.031010624 0.0711674 0.12482385 0.012714039 -0.04766843 -0.081906274
0.13974129 -0.09482979 0.009947098 0.06814961 -0.02525922 0.07443408 0.06945546 -0.0016043955
0.18866292 0.03286375 0.072876394 -0.05277941 0.12852745 0.034954563 0.025653362 0.054546382
-0.028896417 -0.020991156 0.021622382 -0.050020587 0.01295572 -0.041923374 0.13308638 -0.057445727
-0.034267794 -0.13599987 -0.03587166 -0.09426451 -0.19514869 -0.15373378 0.00622884 -0.044360977
-0.040791254 -0.061011907 -0.073605575 -0.11913306 -0.20360456 -0.16923627 -0.119094156 0.18366091
-0.046436477 -0.093021035 0.02458967 0.06283289 -0.16314188 0.072763 -0.065616325 0.018260388
-0.01792968 0.024301196 -0.027584897 0.008041417 0.15811299 -0.04860491 0.064458594 -0.074300006
0.0620425 -0.08025091 0.16642694 -0.0012731542 0.0057789683 -0.15351667 0.07713481 0.10182487
-0.15415518 -0.015994921 -0.00074126734 -0.10782602 0.009905837 0.006086578 -0.07472624 0.08208541
-0.056095954 -0.09677315 -0.084156364 0.05505024 0.027550055 -0.047398183 -0.10406059 0.030153751
00000000: 1377 c0bd 12d3 37be 4bdf a1bd 75be 0a3d
00000010: c449 403d 4d52 e7bd 6639 9f3d be84 5fbd
00000020: 19a0 473e 2a4f aa3d d5de a43d c9b6 663c
00000030: f387 af3b b91d 92bd ecf2 b8bb e796 a3bd
00000040: 91c5 bdbd 4b08 483d 4d74 843d 3386 983d
00000050: d578 153e 7124 33ba fcfd f63b 711c 44bd
00000060: 1540 f7bd 20eb 9fbd a6fe 893d 4431 e4ba
00000070: d104 103e 92d6 3cbd 96ff b3bd f654 6bbe
00000080: f15d 7bbc 5a38 09bc c941 903d 48b0 843d
00000090: 2fc0 69bd 8210 59bc 5ce4 a8bd d951 3a3e
000000a0: 4de8 363d 7b63 78bd 0ead a63d 6844 563c
000000b0: 90a9 183e 1aa6 c93d 3df3 27bc 1625 53bd
000000c0: f61a 8c3d 62ae c83d d94f f0bd cdd5 3bbe
000000d0: f7ac 58bb 5c4a dfbd e5e4 3a3e 6222 18be
000000e0: d590 62bd 9faf 813d c6ac 4dbd fffa f03c
000000f0: 1c41 92bd b287 af3d 11dc 29be 3919 da3d
00000100: 4722 283d fc95 68bb 294a 32bd 35dc 953d
00000110: 9195 a3bc eb6c a43d dd90 793d b2bf 0fbe
00000120: 0c5a 6dbe 2dda cd3d bb80 cabd 3d0d 993d
00000130: 8171 80ba f32a 973d 068f 45be 1d28 693d
00000140: 5966 13be e417 99bd 0c2a 8ebd 1f0d b03d
00000150: 291c 923d 729b c43b 46d8 94bc b8bc 28be
00000160: b8c4 963d 8a37 88bd ad01 3b3d 0395 973c
00000170: bd7e 713d fde9 35bc 1adc b9bb 16c0 65bd
00000180: 4dcc 96bb 3da2 363d edea 093e 20f0 ebbc
00000190: cc34 573c afc9 683b c3fe 5b3d e29b 0d3d
000001a0: 3582 513d 17bf 693d 4681 9dbd 51fb f43c
000001b0: 8fe5 283d 957b 2d3c 0320 103d eb0d 913d
000001c0: e504 93bc 2f61 b33c ebc6 833c 394e c5bc
000001d0: 7b43 2d3d 2ee6 05bd 1306 b5bd 4b62 903b
000001e0: 24a7 3ebd ed7d f33d 36a3 b4bb 7d08 7c3d
000001f0: 275e a4bd a806 9a3c 3e80 873c b355 a73d
00000200: a239 193e fcef a03c de1b 393d ef5a 09bd
00000210: da31 17be 9599 6fbc 9a6b 96bd f114 c4bd
00000220: dd5d 21bd db29 39bd e6b5 1f3d 59bb 493c
00000230: 8154 1d3b 961d ffbc b871 653c 7a51 e63d
00000240: c36f 3fbe a2be 3dbd 3d06 e4bb c0ee 1cbd
00000250: d10f 32be 1ece d63d 0d23 5bbd 72db a73c
00000260: 9523 713d cce4 1dbd 9226 dfbd e9ad 32bc
00000270: 397d 0d3d f309 f0bd 5499 50bd 2664 0b3e
00000280: 8456 35bc d01e 2bbe 65c6 f03d e62f 603d
00000290: 57f8 1ebd ea76 02be 0a36 9ebd 5865 76bd
000002a0: dede 4f3d 60a5 e9bc fe09 fe3c 37c0 913d
000002b0: a6a3 ff3d 8b4e 503c f93f 43bd 7abe a7bd
000002c0: 5718 0f3e 1f36 c2bd 27f9 223c 0692 8b3d
000002d0: 6cec cebc e570 983d aa3e 8e3d 944a d2ba
000002e0: da30 413e 249c 063d 3840 953d 392f 58bd
000002f0: b39c 033e 842c 0f3d 0027 d23c 076c 5f3d
00000300: 2eb8 ecbc a5f5 abbc 6c21 b13c 63e2 4cbd
00000310: 3a44 543c d8b7 2bbd cc47 083e 364c 6bbd
00000320: 635c 0cbd 8d43 0bbe 29ee 12bd c00d c1bd
00000330: 0fd5 47be 636c 1dbe 4c1b cc3b dbb3 35bd
00000340: bb14 27bd 9fe7 79bd 85be 96bd 09fc f3bd
00000350: b77d 50be 464c 2dbe a3e7 f3bd 9b11 3c3e
00000360: 2d34 3ebd d081 bebd 4770 c93c 88ae 803d
00000370: aa0e 27be c504 953d da61 86bd cf96 953c
00000380: 44e1 92bc 4d13 c73c b9f9 e1bc 26c0 033c
00000390: 5fe8 213e f115 47bd de02 843d 9a2a 98bd
000003a0: 4720 7e3d 975a a4bd d36b 2a3e f7df a6ba
000003b0: 805d bd3b 7933 1dbe dbf8 9d3d 8f89 d03d
000003c0: dbda 1dbe c807 83bc 9c51 42ba e3d3 dcbd
000003d0: 174c 223c eb71 c73b 120a 99bd 651c a83d
000003e0: dfc4 65bd 0031 c6bd 2c5a acbd 5c7c 613d
000003f0: a7b0 e13c 9924 42bd b81d d5bd 0005 f73c

discrete_action_output_shape f4 [1, 2]
5.0 3.0
00000000: 0000 a040 0000 4040

network_body._body_endoder.seq_layers.0.bias f4 [256]
-0.10177348 0.035141215 -0.009412528 -0.0581723 -0.015572852 -0.049717814 -0.010817151 0.032215662
-0.10543837 0.13450785 -0.0661422 -0.03728165 -0.05840293 -0.03805265 0.014233476 -0.15799958
0.027458902 -0.084780775 -0.022847077 -0.22296432 -0.04296265 -0.050090294 -0.06958819 -0.04967532
-0.05717772 -0.0863459 0.0075920294 -0.059560865 0.08044979 0.0066887597 0.06428313 -0.10394935
0.06412903 0.034672342 -0.044693753 0.010304884 0.01414753 -0.069491714 0.07085559 -0.10667801
-0.037635546 0.014693978 -0.08447569 -0.03485233 -0.11255288 0.07433238 0.007145465 -0.049157128
0.06366692 -0.025228694 0.004089741 0.03160153 0.032284774 -0.08222983 -0.0010011301 -0.06900564
-0.037356295 -0.016556643 0.092986956 -0.0030017586 0.038753103 0.0043300586 -0.11312995 0.08895883
0.04569527 -0.096410066 0.03372677 -0.07257309 -0.1271277 0.03241789 0.06019129 0.009466128
0.100307465 -0.063403666 -0.12752552 -0.015556591 0.1144752 0.02999486 -0.063229345 -0.050267626
0.07886765 -0.10657642 -0.0195502 -0.04367023 -0.021800281 0.034613065 -0.10769173 -0.025690446
0.044935085 -0.0061476207 0.07413937 -0.08012655 -0.037553065 -0.022545071 -0.027390838 0.07038172
-0.090057805 0.071683116 0.030141909 -0.039203856 -0.055190925 0.06324651 0.0017220816 0.014203797
0.015502423 0.01808571 -0.053183082 0.06255363 -0.029284129 0.017054588 0.019567797 0.03157349
0.02971133 0.050765198 0.07265909 -0.0043505016 0.04393628 -0.008628158 0.033353757 -0.018831342
0.017167456 -0.0120968325 -0.002681724 -0.11893539 -0.04796532 -0.025559884 -0.07940107 -0.19401893
-0.0063922717 -0.003335856 -0.1122879 0.025174351 0.008367371 -0.050244108 -0.06128018 0.05134396
-0.14304033 0.0060518244 -0.094982184 0.033228286 -0.065754585 0.042032897 -0.0012325774 -0.10349092
-0.061798558 0.031045215 0.018999131 0.044364933 0.10016864 -0.13650195 -0.13557008 0.014036281
0.071076296 0.08180206 0.11771007 -0.03754015 -0.046634056 -0.027857218 0.057478733 -0.022357063
0.062350888 0.011600076 -0.06093851 0.043620262 -0.026224863 0.07404697 -0.11859661 0.053607635
0.00028718443 -0.082473695 -0.023968998 -0.14198518 0.04573552 0.12305817 -0.14970382 0.09483139
0.086858265 -0.044087965 -0.006418251 0.07021129 -0.037654694 -0.059172217 0.07003511 -0.07448959
0.057377964 -0.012131492 -0.014204646 0.12048355 0.116425894 0.10405584 -0.1838647 0.041641865
0.05809442 0.045404397 0.0752234 0.08495523 0.03553974 0.057607286 -0.0627964 0.022172906
-0.040470567 -0.061921116 -0.07230491 -0.11040915 0.0065911617 0.07218526 -0.020200035 0.13099177
-0.0058350107 0.03139407 0.0012317306 0.010451668 -0.075075895 -0.10973816 -0.097715065 -0.11241636
0.00304322 -0.08308062 0.015141731 -0.14067471 -0.076024406 0.083191566 -0.042019017 0.034136117
0.045276355 0.08387744 -0.06775233 -0.017232515 0.08825021 0.0052367114 0.05410832 -0.03201574
-0.006272859 -0.06734 -0.04996445 0.022698307 0.082719766 0.042435817 0.043601815 0.00064249965
-0.08204492 0.05592886 -0.020944256 0.045824554 0.048697002 -0.12525095 -0.07872822 0.023207875
0.018740127 0.08533951 0.056169365 0.07458028 -0.004975213 -0.017059026 0.13748872 -0.032930676
00000000: 9d6e d0bd 3cf0 0f3d 0137 1abc 1446 6ebd
00000010: 4725 7fbc e8a4 4bbd 6b3a 31bc 92f4 033d
00000020: 12f0 d7bd 6dbc 093e 9075 87bd a5b4 18bd
00000030: e937 6fbd 18dd 1bbd 8633 693c a4ca 21be
00000040: 7ef1 e03c 8ba1 adbd cb29 bbbc c250 64be
00000050: 9bf9 2fbd 7b2b 4dbd 4184 8ebd 5978 4bbd
00000060: 2f33 6abd 1fd6 b0bd 8fc6 f83b 18f6 73bd
00000070: dcc2 a43d 622d db3b e0a6 833d 66e3 d4bd
00000080: 1556 833d 9604 0e3d cc10 37bd d1d5 283c
00000090: 0bcb 673c ac51 8ebd bc1c 913d 007a dabd
000000a0: bb27 1abd 03bf 703c 9701 adbd 51c1 0ebd
000000b0: 2082 e6bd 933b 983d 8124 ea3b fc58 49bd
000000c0: cd63 823d 68ac cebc 3c03 863b 9b70 013d
000000d0: 0a3d 043d 1d68 a8bd 5a38 83ba d452 8dbd
000000e0: ea02 19bd cca1 87bc f26f be3d 27b9 44bb
000000f0: 93bb 1e3d 2ae3 8d3b adb0 e7bd 0c30 b63d
00000100: f72a 3b3d a472 c5bd 1525 0a3d 33a1 94bd
00000110: c42d 02be 9fc8 043d 248b 763d d217 1b3c
00000120: 006e cd3d c8d9 81bd 0d96 02be 12e1 7ebc
00000130: f971 ea3d c8b7 f53c 637e 81bd 6de5 4dbd
00000140: 5d85 a13d bd44 dabd be27 a0bc 8edf 32bd
00000150: 8196 b2bc 6ec6 0d3d 7b8d dcbd c574 d2bc
00000160: da0d 383d fb71 c9bb 62d6 973d 6319 a4bd
00000170: 3ed1 19bd 71b0 b8bc c062 e0bc 4b24 903d
00000180: 3a70 b8bd 99ce 923d 2aec f63c 3994 20bd
00000190: e10f 62bd 6387 813d 78b7 e13a 0bb7 683c
000001a0: e0fd 7d3c 7c28 943c 81d6 59bd 1e1c 803d
000001b0: 45e5 efbc 10b6 8b3c a54c a03c 3453 013d
000001c0: 2d65 f33c 2bef 4f3d 4ace 943d a78e 8ebb
000001d0: 87f6 333d 1e5d 0dbc f39d 083d 3044 9abc
000001e0: c4a2 8c3c cb31 46bc ddbf 2fbb 6694 f3bd
000001f0: 4977 44bd f662 d1bc 079d a2bd e6ac 46be
00000200: 4376 d1bb 609e 5abb 33f7 e5bd 713a ce3c
00000210: 4c17 093c c4cc 4dbd ed00 7bbd 0b4e 523d
00000220: 2a79 12be 624e c63b 0586 c2bd 621a 083d
00000230: 57aa 86bd b02a 2c3d 6f8e a1ba 0cf3 d3bd
00000240: 7c20 7dbd 8952 fe3c 11a4 9b3c 01b8 353d
00000250: 3725 cd3d 2bc7 0bbe e2d2 0abe 6ef8 653c
00000260: 7390 913d d787 a73d fa11 f13d b3c3 19bd
00000270: 5a03 3fbd d234 e4bc d26e 6b3d 2926 b7bc
00000280: a563 7f3d 3f0e 3e3c a99a 79bd 29ab 323d
00000290: 86d5 d6bc f0a5 973d c8e2 f2bd ae93 5b3d
000002a0: 3e91 9639 f8e7 a8bd a25a c4bc 9064 11be
000002b0: 2b55 3b3d ec05 fc3d f54b 19be f636 c23d
000002c0: bfe2 b13d 9595 34bd 3150 d2bb f0ca 8f3d
000002d0: cf3b 1abd 915e 72bd 916e 8f3d 008e 98bd
000002e0: 2805 6b3d 2ac3 46bc 9bba 68bc 14c0 f63d
000002f0: b370 ee3d 3a1b d53d 0747 3cbe a990 2a3d
00000300: 6af4 6d3d f6f9 393d ba0e 9a3d 02fd ad3d
00000310: 1e92 113d 9ef5 6b3d 669b 80bd f4a3 b53c
00000320: 77c4 25bd ffa0 7dbd 9914 94bd 311e e2bd
00000330: acfa d73b ded5 933d 8b7a a5bc b522 063e
00000340: 9e33 bfbb 1197 003d 0572 a13a 793d 2b3c
00000350: 64c1 99bd 67be e0bd d61e c8bd 8c3a e6bd
00000360: c270 473b 2c26 aabd 0615 783c 080d 10be
00000370: afb2 9bbd 5760 aa3d 221c 2cbd 50d2 0b3d
00000380: b373 393d efc7 ab3d bcc1 8abd 342b 8dbc
00000390: 87bc b43d b898 ab3b b0a0 5d3d f022 03bd
000003a0: 8e8c cdbb 8ee9 89bd 86a7 4cbd cdf1 b93c
000003b0: fb68 a93d 2ed1 2d3d d197 323d 6c6d 283a
000003c0: 2b07 a8bd a915 653d 4a93 abbc 87b2 3b3d
000003d0: 8276 473d c941 00be 433c a1bd 711e be3c
000003e0: e584 993c 7bc6 ae3d d911 663d 8cbd 983d
000003f0: 1d07 a3bb 5fbf 8bbc d8c9 0c3e 51e2 06bd

network_body._body_endoder.seq_layers.0.weight f4 [256, 621]
0.13558246 -0.16078874 -0.11550876 -0.06509564 -0.2622613 -0.25381315 0.013507758 -0.098821625
-0.004485616 -0.050836097 -0.1928173 -0.0057101026 -0.22629952 -0.09609524 -0.08198143 0.086934045
-0.21957105 -0.06794937 -0.18324347 -0.06134416 -0.09946668 -0.18268445 0.11183692 0.31965417
0.17229186 0.0038205818 0.005865783 0.026048219 -0.022171186 -0.08288407 0.084957235 -0.007818109
-0.014140295 0.020437729 -0.027350513 -0.057717405 -0.15406129 -0.10176429 -0.09107303 -0.21159141
-0.108332835 -0.13932008 -0.017870536 -0.056857295 0.052656367 -0.16623577 0.03651673 -0.19639316
0.12436179 0.19681115 0.26568422 0.19098566 -0.002417076 0.056033686 -0.020934343 0.085347034
-0.18867235 -0.07891441 -0.22288285 -0.14939608 0.22998135 -0.18673357 0.020390075 0.12998918
-0.06983229 0.025815979 0.009733304 -0.10694002 0.010740178 -0.04231974 -0.07195452 -0.0519188
-0.44331813 0.0028840944 -0.16545217 0.27046433 0.36312237 0.0072711552 0.056598492 -0.079324916
0.18627208 0.11923269 -0.13836612 0.2175512 -0.11884277 0.09091996 4.7032183e-05 0.028722022
0.03063943 0.038027108 -0.094725356 0.18808685 0.14888518 0.009104418 0.034923784 0.042718492
-0.1514962 -0.09048587 -0.10005393 0.013945002 -0.043406915 0.21987978 0.0050862515 -0.02482555
0.06696364 -0.009590236 -0.13106644 -0.02949801 -0.14018203 0.053413 0.019557664 -0.19990186
-0.033651836 0.206076 -0.24815537 -0.122638635 -0.08720563 0.14804532 0.09615396 0.06149625
0.024046283 -0.04805522 0.1363173 -0.074916035 -0.07333089 -0.04378161 0.070622474 -0.000572567
-0.0068633705 -0.0147383865 0.08427009 -0.0837016 -0.19309182 0.026254483 0.01875885 0.05358611
-0.010565846 0.006095256 -0.10382192 0.04827598 -0.0034275625 -0.16648917 0.034191664 0.011567546
-0.021457082 -0.019164784 -0.023392865 -0.14014606 0.06875946 0.10309794 -0.076538764 -0.017170804
0.034965537 -0.02840698 -0.11871418 -0.017966036 -0.10584317 0.064585045 0.13296863 0.16099833
0.03486722 0.021325292 0.14583306 -0.07299842 -0.06703232 0.035903297 0.1611584 0.11145684
-0.17812108 0.06946001 0.032979157 0.006353884 0.06544121 0.01803917 0.07632275 -0.014602601
0.29468417 -0.27227423 -0.114295974 0.042228017 0.2110685 -0.26394182 0.17742735 -0.0012046841
-0.09303051 0.033363916 -0.21397977 -0.1777089 0.042311385 0.117570594 -0.23333764 0.056552928
0.05277489 0.23605111 -0.064742826 -0.49681255 -0.039001778 0.026566926 -0.009284955 -0.12014822
-0.10212793 0.018257866 -0.10194226 -0.11973795 -0.042330362 -0.07035258 0.065831065 0.15438184
-0.32151926 0.12568268 0.08181087 0.08473501 -0.21128604 -0.10930807 -0.057731383 0.07604954
0.12923354 -0.1542037 0.17007852 0.049761355 -0.004414542 0.02040602 0.006267808 -0.07799438
-0.08073046 -0.13639972 -0.014230338 0.23695818 0.00275196 -0.06819123 0.04651018 -0.34806475
-0.084413566 -0.14337148 -0.054562476 0.080282934 0.052027237 -0.023412345 0.022231499 0.14185536
0.16494451 -0.15062043 -0.03672522 0.09779517 -0.114987455 0.20410208 -0.14636458 -0.20331873
-0.0015236997 -0.14309186 -0.10500297 -0.15059468 0.042824544 -0.042433698 0.03068619 0.15175453
00000000: 21d6 0a3e cea5 24be db8f ecbd dd50 85bd
00000010: 1d47 86be ccf3 81be a54f 5d3c fe62 cabd
00000020: 13fc 92bb 8339 50bd e671 45be d01b bbbb
00000030: 10bb 67be 95cd c4bd e1e5 a7bd 7a0a b23d
00000040: 3cd7 60be 0a29 8bbd 2da4 3bbe 0444 7bbd
00000050: 30b5 cbbd a211 3bbe c10a e53d b6a9 a33e
00000060: 476d 303e ba62 7a3b c135 c03b 1363 d53c
00000070: 59a0 b5bc 20bf a9bd 0ffe ad3d 8717 00bc
00000080: b2ac 67bc 066d a73c 2f0e e0bc 1669 6cbd
00000090: 3ec2 1dbe cc69 d0bd 7f84 babd 6bab 58be
000000a0: 9bdd ddbd eca9 0ebe 3b65 92bc 32e3 68bd
000000b0: 34ae 573d b639 2abe 9192 153d 4a1b 49be
000000c0: 65b1 fe3d dd88 493e c307 883e bf91 433e
000000d0: ce67 1ebb 9483 653d 807e abbc 6dca ae3d
000000e0: 5333 41be e19d a1bd 673b 64be 49fb 18be
000000f0: 3b80 6b3e 1637 3fbe 1609 a73c e21b 053e
00000100: 3b04 8fbd 087c d33c 7078 1f3c 5f03 dbbd
00000110: 92f7 2f3c 7757 2dbd e45c 93bd cfa8 54bd
00000120: 98fa e2be 1303 3d3b 4b6c 29be 4d7a 8a3e
00000130: 2deb b93e df42 ee3b d2d3 673d 1a75 a2bd
00000140: 1cbe 3e3e 4530 f43d d9af 0dbe bec5 5e3e
00000150: d763 f3bd 3e34 ba3d 6c44 4538 724a eb3c
00000160: 8bff fa3c 50c2 1b3d 5eff c1bd d799 403e
00000170: 5b75 183e b22a 153c 3e0c 0f3d 96f9 2e3d
00000180: d221 1bbe a850 b9bd 13e9 ccbd 9479 643c
00000190: 73cb 31bd 2a28 613e 92aa a63b f45e cbbc
000001a0: 3c24 893d 5d20 1dbc 4836 06be d0a5 f1bc
000001b0: e18b 0fbe 97c7 5a3d 6537 a03c 13b3 4cbe
000001c0: 82d6 09bd 9605 533e 711c 7ebe f729 fbbd
000001d0: de98 b2bd 3199 173e 5eec c43d 7ee3 7b3d
000001e0: b6fc c43c 8dd5 44bd c396 0b3e 946d 99bd
000001f0: 812e 96bd 5854 33bd 84a2 903d 5218 16ba
00000200: 20e6 e0bb 4679 71bc cc95 ac3d bf6b abbd
00000210: ddb9 45be a413 d73c 29ac 993c 1c7d 5b3d
00000220: 5f1c 2dbc b7ba c73b 96a0 d4bd 09bd 453d
00000230: f5a0 60bb 237c 2abe 8f0c 0c3d ce85 3d3c
00000240: c3c6 afbc 77ff 9cbc 65a2 bfbc 7382 0fbe
00000250: c2d1 8c3d 0325 d33d 5bc0 9cbd c9a9 8cbc
00000260: 0638 0f3d c1b5 e8bc 6c20 f3bd 822d 93bc
00000270: 4ec4 d8bd 2a45 843d ee28 083e bfdc 243e
00000280: eed0 0e3d 61b2 ae3c 4355 153e 3280 95bd
00000290: 3e48 89bd 560f 133d b506 253e 7c43 e43d
000002a0: 5f65 36be 0d41 8e3d 2715 073d 3e34 d03b
000002b0: 0b06 863d e2c6 933c 1a4f 9c3d bf3f 6fbc
000002c0: d8e0 963e 8767 8bbe 0214 eabd 49f7 2c3d
000002d0: 5722 583e 6223 87be 84af 353e 7ee6 9dba
000002e0: c886 bebd 9aa8 083d 831d 5bbe 52f9 35be
000002f0: b44e 2d3d dac8 f03d 10f0 6ebe 0ba4 673d
00000300: 7c2a 583d 62b7 713e e397 84bd 375e febe
00000310: 54c0 1fbd e2a2 d93c ed1f 18bc 4510 f6bd
00000320: 7328 d1bd 8591 953c 1bc7 d0bd 2c39 f5bd
00000330: 9a62 2dbd 0315 90bd 70d2 863d 4616 1e3e
00000340: 2c9e a4be f6b2 003e 758c a73d 8d89 ad3d
00000350: 5e5b 58be e9dc dfbd be77 6cbd dcbf 9b3d
00000360: cc55 043e 93e7 1dbe 1029 2e3e 90d2 4b3d
00000370: dda7 90bb 872a a73c 2f62 cd3b 84bb 9fbd
00000380: 0356 a5bd 5eac 0bbe 5d26 69bc 2aa5 723e
00000390: 3a5a 343b d8a7 8bbd 7581 3e3d 8b35 b2be
000003a0: 05e1 acbd f9cf 12be e77c 5fbd 616b a43d
000003b0: 831a 553d 3fcb bfbc d51e b63c 8842 113e
000003c0: 37e7 283e 3e3c 1abe 2f6d 16bd d648 c83d
000003d0: 8b7e ebbd 2300 513e 99e0 15be c932 50be
000003e0: e1b6 c7ba ac86 12be cc0b d7bd 7e35 1abe
000003f0: ca68 2f3d f5ce 2dbd 9b61 fb3c 8a65 1b3e

network_body._body_endoder.seq_layers.2.bias f4 [256]
-0.07418481 -0.18294008 -0.1260995 -0.03563517 -0.06288647 -0.085402526 -0.018176608 -0.2549672
0.029484218 0.018548362 0.066566706 -0.11268158 -0.017979318 -0.08036413 -0.102994874 -0.04486341
-0.028961118 -0.11541291 0.009682625 -0.1060324 0.0065614344 -0.08012114 -0.15014407 -0.09429238
-0.1065989 -0.06351954 0.031555694 -0.06454569 0.12234856 -0.110230654 -0.05170462 -0.07281256
-0.23193048 -0.04856698 -0.036698338 -0.09520876 -0.118606314 -0.033658326 0.08563836 -0.03207186
-0.03180903 -0.10466449 -0.07229152 -0.053703908 -0.04987623 0.05260112 -0.14549349 -0.081743166
-0.054941658 0.025151405 -0.11663041 -0.20717931 -0.17218761 -0.16351108 0.022006232 -0.27983156
-0.036666397 -0.11271896 -0.1262025 0.026179 -0.07686168 0.00069597084 0.021493543 -0.045869198
-0.040703367 -0.05007838 -0.15205975 0.019346943 -0.14817524 -0.058604866 -0.06094514 -0.03652861
-0.1409523 -0.16421588 -0.13240486 -0.011960992 -0.047763854 -0.137206 -0.20261464 -0.029167728
-0.15679666 -0.016150875 -0.24621958 0.04216961 -0.025470711 -0.06354695 -0.18591055 -0.12917219
-0.05286478 -0.15641662 -0.077086985 -0.10425737 -0.03536561 -0.052098576 -0.095799066 -0.16131477
-0.10537514 -0.05620608 -0.013022341 -0.008222186 -0.11259089 -0.1818158 -0.12511252 -0.1212582
-0.20908022 -0.069202535 -0.17165855 -0.19087724 0.06746571 -0.09099705 -0.06915759 0.04601967
-0.15186293 -0.08202511 -0.038143266 -0.07713039 -0.05465679 -0.12573062 -0.26138505 -0.07249529
-0.13491641 -0.09691108 -0.06720154 -0.0075069685 -0.07238297 -0.0933928 -0.06726026 0.10263575
0.0013332953 -0.033484034 -0.007833832 -0.108665116 -0.27260515 -0.10149833 -0.11862279 -0.21275356
-0.14842854 -0.16182284 -0.01954451 -0.06389349 -0.027676428 -0.10160106 -0.087322555 0.04812691
-0.083941266 0.056078803 0.057515427 -0.106865436 -0.043922458 -0.029175606 -0.23617664 0.006804101
-0.00995112 -0.14188904 -0.21562782 0.049094055 0.025417872 -0.14844076 -0.032548737 -0.086831935
-0.11828132 -0.23989359 0.06483729 -0.11548811 0.039432634 -0.1233362 -0.15364395 -0.06555555
-0.05936548 -0.0559164 -0.052722 0.045059063 -0.14678699 0.0015803216 -0.113571234 -0.27698255
-0.020348938 -0.03318551 0.041223284 0.009873521 -0.030492436 -0.068777025 -0.017182097 -0.016280588
0.021862598 -0.037709206 0.023785172 -0.08232881 0.054088477 -0.06294355 -0.03093157 0.073648274
-0.04397583 -0.11627589 -0.045172203 -0.13159859 -0.080972604 -0.0714126 0.064791285 -0.105866514
-0.04884219 -0.091747746 -0.113394566 -0.080564156 -0.17255552 -0.11013726 -0.045369938 -0.18367197
-0.004738491 -0.20712586 -0.28195873 -0.11724113 -0.012924713 -0.09823736 -0.2893074 0.107024394
-0.12785713 -0.023963034 -0.03968374 0.014091024 -0.09342209 -0.036819447 -0.030320704 -0.058545027
-0.060055237 -0.1271361 -0.17011352 -0.05644828 -0.011133584 -0.16759755 -0.046769224 -0.10074455
0.008930453 -0.035444804 -0.061944813 -0.15334335 0.029297357 -0.20278062 -0.02174183 -0.057498686
-0.09995406 -0.11882262 -0.18099229 -0.23517373 -0.1236948 -0.01811759 -0.16609623 0.023395676
-0.0957105 -0.19166386 -0.16720857 -0.049104605 -0.054611634 -0.13228743 -0.0040115872 -0.011864666
00000000: 35ee 97bd a554 3bbe 3a20 01be 2ff6 11bd
00000010: 9fca 80bd 85e7 aebd 1ce7 94bc 108b 82be
00000020: e388 f13c bcf2 973c 2054 883d 9ac5 e6bd
00000030: 5d49 93bc f395 a4bd faee d2bd b2c2 37bd
00000040: de3f edbc 9b5d ecbd dfa3 1e3c 8427 d9bd
00000050: 4d01 d73b 8d16 a4bd 5ebf 19be 5d1c c1bd
00000060: 8650 dabd 8816 82bd 8b40 013d 8830 84bd
00000070: e291 fa3d 9cc0 e1bd 39c8 53bd c01e 95bd
00000080: 2f7f 6dbe 2bee 46bd ff50 16bd cffc c2bd
00000090: dee7 f2bd 50dd 09bd 2a63 af3d c85d 03bd
000000a0: 2f4a 02bd 565a d6bd 940d 94bd a1f8 5bbd
000000b0: 054b 4cbd 4674 573d 3ffc 14be f668 a7bd
000000c0: 810a 61bd 520a ce3c eddb eebd d026 54be
000000d0: f351 30be 736f 27be 6a46 b43c 1546 8fbe
000000e0: 812f 16bd 33d9 e6bd 3a3b 01be 5875 d63c
000000f0: a869 9dbd d071 363a 3a13 b03c 57e1 3bbd
00000100: 93b8 26bd fd1e 4dbd 8db5 1bbe 7b7d 9e3c
00000110: 40bb 17be a80b 70bd 9ca1 79bd 069f 15bd
00000120: cd55 10be 3528 28be 2495 07be 09f8 43bc
00000130: 08a4 43bd bb7f 0cbe 367a 4fbe 29f1 eebc
00000140: 4e8f 20be d74e 84bc fc20 7cbe 0aba 2c3d
00000150: f4a7 d0bc e724 82bd 565f 3ebe b745 04be
00000160: bd88 58bd ae2b 20be c8df 9dbd e384 d5bd
00000170: 88db 10bd 5165 55bd 4d32 c4bd b32f 25be
00000180: ecce d7bd 5938 66bd a85b 55bc 59b6 06bc
00000190: 0d96 e6bd ec2d 3abe 7f1d 00be 3856 f8bd
000001a0: 2019 56be 0fba 8dbd 42c7 2fbe 5375 43be
000001b0: 762b 8a3d a95c babd 7fa2 8dbd 1f7f 3c3d
000001c0: f581 1bbe c8fc a7bd 1d3c 1cbd 8af6 9dbd
000001d0: ccdf 5fbd 87bf 00be 43d4 85be 6978 94bd
000001e0: 8727 0abe 5179 c6bd f6a0 89bd 04fd f5bb
000001f0: 863d 94bd b944 bfbd bfbf 89bd b132 d23d
00000200: f7c1 ae3a 8e26 09bd 7959 00bc d18b debd
00000210: e792 8bbe 5bde cfbd 81f0 f2bd 12dc 59be
00000220: a7fd 17be e3b4 25be cf1b a0bc 97da 82bd
00000230: adb9 e2bc 3714 d0bd 2bd6 b2bd b920 453d
00000240: 66e9 abbd e3b2 653d 4c95 6b3d 44dc dabd
00000250: 09e8 33bd ae01 efbc 4ad8 71be f0f4 de3b
00000260: 060a 23bc 5c4b 11be 8acd 5cbe d916 493d
00000270: 2439 d03c db00 18be d351 05bd f1d4 b1bd
00000280: 7a3d f2bd aaa6 75be 6ac9 843d 0885 ecbd
00000290: 1d84 213d b197 fcbd d754 1dbe fd41 86bd
000002a0: 3829 73bd 9808 65bd 06f3 57bd da8f 383d
000002b0: 544f 16be cb22 cf3a 0998 e8bd a8d0 8dbe
000002c0: d1b2 a6bc 88ed 07bd bfd9 283d 8cc4 213c
000002d0: 46cb f9bc f8da 8cbd 78c1 8cbc de5e 85bc
000002e0: 3119 b33c f874 1abd 1fd9 c23c 029c a8bd
000002f0: e18b 5d3d 8ce8 80bd 3464 fdbc e8d4 963d
00000300: 0020 34bd 0e22 eebd 7d06 39bd c8c1 06be
00000310: f7d4 a5bd c540 92bd 4bb1 843d 8bd0 d8bd
00000320: c00e 48bd 3ee6 bbbd 693b e8bd d2fe a4bd
00000330: 65b2 30be a58f e1bd d4d5 39bd 8114 3cbe
00000340: 5845 9bbb cd18 54be e55c 90be 1e1c f0bd
00000350: 2dc2 53bc ab30 c9bd 1920 94be 9b2f db3d
00000360: fbec 02be 204e c4bc 6b8b 22bd 0ade 663c
00000370: 1554 bfbd fdcf 16bd 2063 f8bc e9cc 6fbd
00000380: 7bfc 75bd f72f 02be 3d32 2ebe 5036 67bd
00000390: a369 36bc b19e 2bbe 1691 3fbd 2953 cebd
000003a0: 0951 123c 922e 11bd d8b9 7dbd 0a06 1dbe
000003b0: 0301 f03c b9a5 4fbe ec1b b2bc be83 6bbd
000003c0: b7b4 ccbd 4659 f3bd 0b56 39be 62d1 70be
000003d0: b353 fdbd 576b 94bc 2115 2abe 4aa8 bf3c
000003e0: de03 c4bd 8843 44be b938 2bbe e921 49bd
000003f0: 73b0 5fbd 5b76 07be a273 83bb 0464 42bc

network_body._body_endoder.seq_layers.2.weight f4 [256, 256]
0.11093834 -0.10241986 0.002404052 -0.034709256 -0.16105005 -0.0153545905 -0.016073028 -0.16076347
0.018045329 -0.10436976 0.09888237 -0.31853384 -0.10744579 -0.12784028 -0.19323765 0.16442654
0.0066887853 0.21573073 -0.11129316 0.06904468 -0.026814599 0.01552514 -0.14647199 -0.03794688
0.09400377 -0.22833014 -0.0035555055 -0.0015795388 -0.30739892 0.22162059 -0.033029266 -0.117878
-0.21880895 0.035020042 -0.057410035 0.056150097 0.09244997 0.14436214 -0.027225526 -0.028304674
0.15106982 -0.17405984 -0.06846149 -0.14409474 -0.17535758 -0.12131715 0.13518298 0.12335911
-0.082126506 -0.20406017 -0.11705377 0.0617851 0.026707724 -0.040624678 -0.042561043 -0.17206313
-0.0897249 -0.15714812 0.013664147 0.1709632 -0.06264396 0.09051013 0.064577125 -0.16940391
0.023158727 0.089490466 -0.038969245 0.15504123 0.22939163 -0.28018638 -0.091519035 -0.07196655
-0.10119128 -0.21343417 0.04450338 -0.024921851 -0.05751937 -0.007492493 0.02116438 -0.11216647
-0.25832176 -0.110704094 -0.17334162 -0.13539675 -0.18625703 -0.23908193 -0.20994921 0.05547972
-0.22967514 0.054407958 0.05476625 -0.03687393 -0.15808743 -0.35311165 -0.17876159 0.058394182
-0.024720954 -0.0453965 0.0043783565 -0.17354685 0.03428322 0.08515677 -0.05607756 0.09710652
0.16743062 -0.3147742 -0.15459998 0.18471313 0.34460407 -0.1548387 -0.07538493 -0.02799754
-0.09558512 0.06916146 -0.08736069 0.24848947 -0.24518386 -0.23810084 0.03655716 0.18164311
-0.07329255 -0.20460284 0.13980007 -0.058086943 -0.379398 -0.13409284 -0.11244178 -0.13919136
0.2796983 -0.0453473 0.07159523 -0.117762305 -0.08324095 0.04859258 0.00042135786 0.019545816
-0.010713737 -0.09018599 -0.063298635 -0.19882157 0.07417046 -0.28218344 -0.12739618 -0.15833771
-0.10084945 -0.25405267 0.0041899993 -0.08097187 -0.15389667 0.042000398 0.060812004 -0.16113508
0.11560535 -0.026274769 -0.09007157 -0.06820206 -0.15371989 -0.15825437 0.035263423 -0.15590404
0.18853663 -0.025638605 0.0049913633 -0.043407816 -0.21848905 0.0046936027 0.036963377 0.16941412
-0.313811 -0.12372493 -0.011822775 0.06894779 -0.01913002 -0.007615714 0.07566421 -0.08520363
-0.08865978 -0.11730108 0.04973222 -0.112040155 0.118339874 -0.09225017 -0.32658988 0.027377255
-0.09637432 0.06160126 0.110732846 -0.10422346 -0.044650353 -0.26105705 -0.25221425 0.080411986
0.16738546 -0.06382568 -0.19831634 -0.060437147 -0.04225108 -0.03618435 0.0284267 -0.07840125
0.07467966 -0.1215888 -0.17078869 0.066664025 0.20927158 -0.08731616 0.030585332 0.00089017715
-0.0042835944 0.047263514 0.037132904 -0.20831811 -0.15768526 0.12178516 0.11958687 -0.081562735
-0.24167216 -0.16350721 -0.13290472 0.050276306 -0.085819826 -0.067119054 -0.23788492 -0.4734941
0.060168233 -0.027464539 -0.12888373 -0.1953412 -0.2480607 -0.19900137 0.16861835 0.022183163
-0.014261881 0.09269564 -0.18264194 -0.24139252 0.28602934 0.024916431 0.10378689 -0.25589824
0.20266947 -0.004218405 -0.053837866 -0.30797037 0.13170193 -0.12677634 0.17138392 -0.19038185
-0.26124787 0.19132511 -0.10035133 0.12569982 -0.12145928 -0.024282908 -0.23825471 0.053584572
00000000: a433 e33d 81c1 d1bd 4d8d 1d3b 4b2b 0ebd
00000010: 4eea 24be d291 7bbc 95ab 83bc 2e9f 24be
00000020: ccd3 933c d0bf d5bd d782 ca3d de16 a3be
00000030: 8a0c dcbd 90e8 02be 17e0 45be 6e5f 283e
00000040: 992d db3b 84e8 5c3e abed e3bd 4c67 8d3d
00000050: 4aaa dbbc 285d 7e3c c1fc 15be 306e 1bbd
00000060: 0c85 c03d 60cf 69be 7c03 69bb 8708 cfba
00000070: 6463 9dbe 82f0 623e b249 07bd 056a f1bd
00000080: 740f 60be 2d71 0f3d c926 6bbd a5fd 653d
00000090: 6956 bd3d abd3 133e 1108 dfbc 34df e7bc
000000a0: 0cb2 1a3e be3c 32be 8a35 8cbd 928d 13be
000000b0: f090 33be 2075 f8bd 686d 0a3e b3a3 fc3d
000000c0: f131 a8bd 26f5 50be e3b9 efbd 5f12 7d3d
000000d0: 28ca da3c 1066 26bd 7d54 2ebd 5131 30be
000000e0: b0c1 b7bd 70eb 20be 96df 5f3c fa10 2f3e
000000f0: 7a4b 80bd 605d b93d 0341 843d 3878 2dbe
00000100: 5fb7 bd3c c746 b73d 379e 1fbd 21c3 1e3e
00000110: a4e5 6a3e 9774 8fbe 556e bbbd 3363 93bd
00000120: 603d cfbd 7d8e 5abe 2d49 363d e928 ccbc
00000130: 6e99 6bbd 9683 f5bb ec60 ad3c 89b7 e5bd
00000140: c042 84be d4b8 e2bd 7780 31be 72a5 0abe
00000150: 2aba 3ebe e5d1 74be edfc 56be b43e 633d
00000160: f62f 6bbe e1da 5e3d 9352 603d 1e09 17bd
00000170: ace1 21be 0dcb b4be 470d 37be bd2e 6f3d
00000180: 9983 cabc aef1 39bd 5178 8f3b 44b6 31be
00000190: 906c 0c3d ac66 ae3d 95b1 65bd c8df c63d
000001a0: ef72 2b3e 152a a1be 754f 1ebe 7025 3d3e
000001b0: f26f b03e 098e 1ebe 6a63 9abd 195b e5bc
000001c0: 22c2 c3bd 86a4 8d3d 29ea b2bd 0674 7e3e
000001d0: 7a11 7bbe b5d0 73be f6bc 153d a700 3a3e
000001e0: 681a 96bd 6883 51be c027 0f3e 93ec 6dbd
000001f0: 7440 c2be a24f 09be e047 e6bd 2e88 0ebe
00000200: 9e34 8f3e 17be 39bd 85a0 923d 5d2d f1bd
00000210: 3b7a aabd 0309 473d b2e9 dc39 8c1e a03c
00000220: ac88 2fbc 6fb3 b8bd b7a2 81bd e297 4bbe
00000230: afe6 973d 597a 90be 2574 02be 4823 22be
00000240: 288a cebd 3113 82be 434c 893b 94d4 a5bd
00000250: 1797 1dbe 9c08 2c3d 0216 793d 9800 25be
00000260: 7fc2 ec3d 2f3e d7bc 7177 b8bd 86ad 8bbd
00000270: bf68 1dbe 6f0d 22be 6170 103d 4fa5 1fbe
00000280: bf0f 413e 0d08 d2bc 978e a33b 65cc 31bd
00000290: 98bb 5fbe cbcc 993b e966 173d e57a 2d3e
000002a0: d6ab a0be 7f63 fdbd 50b4 41bc 8034 8d3d
000002b0: 8fb6 9cbc 3d8d f9bb d6f5 9a3d 3e7f aebd
000002c0: 4293 b5bd 8c3b f0bd 03b4 4b3d 4f75 e5bd
000002d0: 2d5c f23d a8ed bcbd ca36 a7be 4446 e03c
000002e0: e65f c5bd 9a51 7c3d e7c7 e23d 1c73 d5bd
000002f0: 4ae3 36bd 45a9 85be 3a22 81be 0aaf a43d
00000300: 1867 2b3e 0ab7 82bd 7013 4bbe f18c 77bd
00000310: 780f 2dbd 0a36 14bd 1cdf e83c d690 a0bd
00000320: a6f1 983d 8c03 f9bd 3be3 2ebe 2687 883d
00000330: 4a4b 563e d1d2 b2bd 178e fa3c c75a 693a
00000340: 655d 8cbb 6397 413d ac18 183d 5851 55be
00000350: 3f78 21be 7f6a f93d f6e9 f43d 5d0a a7bd
00000360: e878 77be 6f6e 27be 2d18 08be 87ee 4d3d
00000370: 4ec2 afbd b775 89bd 1b98 73be d26d f2be
00000380: f772 763d 50fd e0bc 19fa 03be 8607 48be
00000390: a003 7ebe 04c7 4bbe 4aaa 2c3e 77b9 b53c
000003a0: aaaa 69bc 36d7 bd3d 7d06 3bbe 9a2f 77be
000003b0: 7072 923e 8b1d cc3c 398e d43d 1805 83be
000003c0: 9688 4f3e 8c3a 8abb 1885 5cbd 4bae 9dbe
000003d0: dfdc 063e a8d1 01be 447f 2f3e 76f3 42be
000003e0: 48c2 85be bbea 433e 0085 cdbd 74b7 003e
000003f0: a5bf f8bd f3ec c6bc 0bf9 73be 7f7b 5b3d
