Assets/TFModels/Other models trained in the process/Striker3_poca_4M.onnx (onnx, 981831 bytes, 9 tensors)

action_model._discrete_distribution.branches.0.bias f4 [5]
000000 b1 13 14 3d 1b 25 d9 3c 77 ad 91 bd a1 50 05 bd
       0.03615159 0.026506951 -0.07113164 -0.032547597
000010 83 fa 13 3d
       0.03612758

action_model._discrete_distribution.branches.0.weight f4 [5, 256]
000000 ec 2c 32 be 8a 54 d3 bd 81 d2 51 bd e3 2a 40 bd
       -0.17399949 -0.10318859 -0.051226143 -0.0469159
000010 f8 a9 3e 3e 0f 4d ad 3d 72 62 55 3d 4f b6 cb 3c
       0.18619525 0.084619634 0.052095838 0.024867205
000020 5f c6 f0 bd 06 0d 08 be db 01 23 be f9 4b c4 bd
       -0.11756586 -0.13286218 -0.15918677 -0.09584803
000030 08 69 af 3d 2a 38 5d be 7e 57 14 bd 59 b2 fe bd
       0.08564955 -0.21603456 -0.03621625 -0.12436361
000040 99 7d ac bc 50 0b 03 be 35 e1 63 3c 59 d1 69 3d
       -0.021055983 -0.12797284 0.013908674 0.057084415
000050 11 b7 0e bd 8b 1e 01 be 16 e3 35 bd 65 20 c8 3d
       -0.034842554 -0.12609307 -0.04440602 0.09771804
000060 0c 3b ed bd fa 5b a3 3c 50 08 1f bd 15 51 5d bb
       -0.11583528 0.019941319 -0.038826287 -0.0033770252
000070 38 87 03 be 67 6e 45 be 25 30 85 3d 01 ce 14 be
       -0.1284455 -0.19280396 0.065033235 -0.14531709
000080 61 78 bb 3d 2b 22 7f bb 63 55 cf bd c6 b4 9c bd
       0.0915382 -0.0038930278 -0.10123708 -0.07651667
000090 eb e1 e2 3d 5b 8a 7b bd 2b 87 81 3d 6e 62 23 bd
       0.11078247 -0.061411243 0.06324609 -0.03988879
0000a0 d2 3b 7d 3d 76 67 37 bc 44 ac f8 bd e0 42 a7 3c
       0.061824627 -0.011194101 -0.12142232 0.02041763
0000b0 32 6f 56 be f0 74 d2 bb b6 02 03 3e 51 6c 41 be
       -0.20940855 -0.0064226314 0.12794003 -0.18888976
0000c0 81 01 ca 3b 15 47 43 3c 97 0b 6c 3d c3 03 8e bd
       0.00616473 0.011918803 0.05762824 -0.06934311
0000d0 44 2d eb 39 4d 36 5a 3d 20 2a 03 be 33 3e 79 3d
       0.00044856418 0.05327444 -0.12809038 0.060850333
0000e0 1f 4d 16 be 51 95 54 bd 84 79 59 3d d2 ac b5 bc
       -0.14677857 -0.05190021 0.053094402 -0.022177134
0000f0 f4 ba ba bd 3e 38 c8 bd fb 0b 47 ba 76 b8 3e bd
       -0.0911769 -0.09776352 -0.0007593033 -0.046562634
000100 09 a2 51 3d 1f 15 6d 3a 5f 1e 85 bc 8d 95 bc bd
       0.05117992 0.000904398 -0.016249834 -0.09208212
000110 ec c4 4d bc 9d 7b 5f bd a4 41 8b bd e8 52 62 3b
       -0.012559157 -0.054561246 -0.06799629 0.003453428
000120 35 02 db bd 36 9b bd bd e5 39 40 bd f3 49 07 3e
       -0.1069378 -0.0925812 -0.046930213 0.13211803
000130 f4 85 57 3d 49 46 86 bd 5d db 39 be 99 45 71 3c
       0.052617982 -0.065563746 -0.18150087 0.014726066
000140 6e 98 91 bd 62 5e aa bd eb 85 f8 3c 18 dd 38 be
       -0.07109152 -0.08318783 0.030337295 -0.1805309
000150 5e ee 7a 3d 67 60 26 3d 36 5d 53 bb d3 09 ea bd
       0.06126248 0.04061928 -0.0032251603 -0.11427655
000160 91 7e 54 3d f3 4c 26 bd 31 84 b6 3d 32 78 98 bd
       0.051878516 -0.04060073 0.08911932 -0.074448004
000170 88 27 c8 bd a4 c3 01 3d 4f 87 cc 3d a0 69 47 3c
       -0.09773165 0.031680718 0.099867456 0.012171179
000180 8f 8d eb bd b4 7b 12 be ae 62 05 bc 70 62 a7 3c
       -0.115016095 -0.14305001 -0.008141203 0.02043268
000190 35 94 6a be ff 6b cf bd 59 af 91 bc 48 75 f9 3a
       -0.22908099 -0.101280205 -0.017783808 0.0019032145
0001a0 e8 b7 5d bc a1 78 4f 3d 1b ba 74 3d 76 48 5a 3c
       -0.013532616 0.05065215 0.059747797 0.01332294
0001b0 d5 65 08 3b 84 6d 5f bd f6 dc 1e 3d f2 6f df 3d
       0.002081265 -0.0545478 0.038784944 0.10910024
0001c0 55 bc 04 be e0 10 28 be 7e 8f 36 3b ff f2 06 3e
       -0.12962468 -0.16412687 0.0027856524 0.13178633
0001d0 28 6e ff 3d f1 7f 5f be 00 b6 ef 3c af f3 4b be
       0.124721825 -0.2182615 0.029261589 -0.19917177
0001e0 fc c8 71 bb 76 6c 15 3e f3 32 b3 3d 04 44 d3 bd
       -0.0036893478 0.14592156 0.08749952 -0.10315707
0001f0 fe 4b 36 3e e9 5a 1a be d0 be 01 be 3d df 2a bd
       0.17802426 -0.15073742 -0.12670445 -0.041716803
000200 71 a6 37 3d 30 47 dc bd 29 a4 a1 bd 3a 02 e9 3c
       0.044836465 -0.107557654 -0.07892639 0.028443445
000210 7c 9e 2b 3e d1 f7 63 3e 73 f5 f6 bd 11 5f 21 3b
       0.16759676 0.22262503 -0.120585345 0.0024623314
000220 75 51 15 bd 2b b6 d2 3d 56 cd 18 3e f7 fe 26 be
       -0.036454637 0.10288652 0.1492208 -0.16308199
000230 10 82 da 3d 33 b0 13 be 69 65 1f 3a 8a c2 cc bd
       0.10669339 -0.14422683 0.000608048 -0.09998043
000240 94 7d ce 3d de a8 97 3d 35 89 f0 3d c7 88 a6 bc
       0.10082546 0.07405256 0.1174492 -0.020328892
000250 a9 7d 03 3c b0 3e be 3d e9 f5 8f be 0b 52 81 3d
       0.008025565 0.092893004 -0.28117302 0.063144766
000260 87 07 20 be 05 ed a5 3c 28 34 ba 3d 2a 27 5e 3d
       -0.15627871 0.020254621 0.09091979 0.05423657
000270 16 cf a4 3d f5 64 23 be 4b 18 b2 bd 35 69 a6 3d
       0.08047311 -0.15956481 -0.0869604 0.081255354
000280 3b 73 3a 3c 95 72 23 be 11 b3 cf bc a3 9e c5 3b
       0.011380012 -0.15961678 -0.02535394 0.006030874
000290 b7 86 1a bd d7 f7 1a bc 46 c7 73 bc 9c db e4 bc
       -0.03772613 -0.009458504 -0.014879053 -0.02793675
0002a0 34 87 0e b9 ff 9d d7 3d 10 15 00 bd 8c 1d e8 bd
       -0.00013592542 0.10528182 -0.031270087 -0.113337606
0002b0 6e 2f bc 3d 49 31 03 3d e6 45 32 be 6c 66 ee bd
       0.09188734 0.032029424 -0.17409477 -0.11640629
0002c0 18 aa b3 3d f3 b0 62 bc 88 90 f1 3c 40 bc 88 bd
       0.08772677 -0.013836133 0.029487863 -0.06676531
0002d0 de 0c aa bd dc d4 44 3d 1b 6e 05 3e 40 d3 66 3d
       -0.083032355 0.04805456 0.13030283 0.056353807
0002e0 0b c2 01 be 5e 02 1b 3c f7 56 84 3b 0f a3 8c be
       -0.12671678 0.009461014 0.0040386873 -0.27468154
0002f0 6b 89 f2 3d 6e 55 ee bc 5d a3 8d bc a4 54 da bd
       0.11842617 -0.02909347 -0.017289812 -0.10660675
000300 cf 2c 5a 3d 80 9e 4a be 6e 8e 2e 3e c6 1b 7b be
       0.05326539 -0.19787025 0.1704652 -0.24522313
000310 7d 38 43 3e eb a6 26 bd 1f aa c3 bc cb 86 d6 3d
       0.19064517 -0.04068653 -0.023884831 0.104749285
000320 bc 8d 91 3d 15 5f 77 bd 43 6b 22 be a0 dd 3c 3d
       0.07107112 -0.06039341 -0.1586123 0.046109796
000330 20 d4 43 be 6b c4 87 bd 39 2d 91 bc 67 8c e5 3c
       -0.19123888 -0.06629261 -0.01772176 0.02802105
000340 ef 73 24 be d0 b5 76 3c 6a 6b 92 3d 89 fc aa 3d
       -0.1605985 0.015057996 0.07149394 0.083489485
000350 e2 09 b1 bc 12 a6 08 be a3 6b 40 3c f6 3b ce 3d
       -0.021611158 -0.13344601 0.011744413 0.100700304
000360 73 e4 8f bd 15 ec 55 3b 1d a8 bd 3d c1 5f 2a 3d
       -0.07025995 0.0032641937 0.09260581 0.041595224
000370 63 e3 c1 bc 6e 7d 64 bd 7a 2c 7d 3d 1e 2d 09 be
       -0.023667997 -0.05578368 0.061809994 -0.13396117
000380 ae 20 8e bd 93 d3 28 3e 72 6a 88 bd 61 75 6f bd
       -0.06939827 0.16486959 -0.06660928 -0.05846155
000390 12 96 29 3e 43 6d 86 be 0c 6a 21 be 0f 09 b9 3d
       0.16561154 -0.26255235 -0.1576311 0.09034931
0003a0 4c 96 68 bd b9 3d 45 3e 06 94 b5 bb ad a3 23 be
       -0.05678396 0.19261827 -0.0055413274 -0.15980406
0003b0 ef cb 15 bc 43 8f 9b bd a0 4d 4e bd 22 d9 50 3d
       -0.00914286 -0.075956844 -0.050366998 0.050988324
0003c0 d1 94 0b 3e 4c 64 15 be 66 67 0f 3e bf 68 05 3d
       0.13630988 -0.14589041 0.14004287 0.032570597
0003d0 fa a2 34 bd cf 75 19 3c 5f d1 c6 bd 0d 69 5f 3e
       -0.04410074 0.009366467 -0.09707903 0.21817417
0003e0 79 cf 31 3e a4 86 f3 3d f9 f5 20 be 72 7f be bd
       0.17364301 0.11890915 -0.15718831 -0.09301652
0003f0 e8 87 73 bd 8f 6b 42 be d6 e5 48 3e fc ca fa bd
       -0.059455782 -0.18986343 0.19618925 -0.122457474

action_model._discrete_distribution.branches.1.bias f4 [3]
000000 cd 65 0b 3d 18 b9 55 bd c6 9c 42 3c
       0.03403263 -0.052178472 0.011878198

action_model._discrete_distribution.branches.1.weight f4 [3, 256]
000000 98 81 26 3c 36 30 85 bc 6a a6 8d 3d e0 da fe bd
       0.0101627335 -0.01625834 0.069165066 -0.12444091
000010 e1 c9 aa 3d 4c df 1e bd f8 74 26 3d fd 5c 5a bd
       0.083392866 -0.03878717 0.040638894 -0.053311337
000020 7c a6 1d bd c2 f4 f2 bd 6a 6a 5b 3d a7 39 b3 3c
       -0.03848885 -0.1186309 0.05356828 0.021878077
000030 32 8c 15 bc ee 3e 3a bd d6 7a 03 bb b0 fa 26 bc
       -0.009127663 -0.04547017 -0.002006223 -0.0101916045
000040 a5 0d 3e be d9 3d c8 3c f3 d5 76 be e6 8b 32 3e
       -0.18559892 0.024443554 -0.24105053 0.1743618
000050 d1 52 18 be 8b d4 a6 3d 4d 7c f2 bc 8e 78 99 ba
       -0.14875342 0.08146008 -0.029600287 -0.0011708902
000060 97 27 84 3d 52 5d 90 3d ff 87 3c bc 29 1d 02 3e
       0.06452864 0.070490494 -0.011507033 0.12706436
000070 3b 22 f9 3d eb 29 a7 3d 10 6c 0f 3e be 0c ee 3d
       0.12164732 0.08162292 0.14006066 0.11623524
000080 01 18 74 bd 6a a4 76 3d c9 c0 28 3d df e9 e2 bd
       -0.059593204 0.06021539 0.04119948 -0.110797636
000090 85 3d 81 bd 7e c1 af 3d e2 71 64 3d 9a 0b 17 3d
       -0.06310562 0.085818276 0.05577267 0.0368763
0000a0 10 99 cf 3d 26 f8 71 3c 38 5c f5 3d 0f 51 9e bd
       0.10136616 0.014768636 0.1198048 -0.077303044
0000b0 16 cd a5 bc 5c 52 30 3e 4c 88 0f 3d 32 fb d9 3d
       -0.020239394 0.17218918 0.035042092 0.10643615
0000c0 98 7d 87 bd fe c7 c8 bc 3a 90 e5 3c 08 ef 4a be
       -0.06615752 -0.024509426 0.028022874 -0.19817746
0000d0 ee 65 b3 bb 72 f7 e3 3b f0 73 28 3e 90 41 ef 3c
       -0.0054747975 0.006956988 0.16450477 0.029206067
0000e0 8d 65 2a be 30 f2 e2 bd 19 c3 f4 bc 33 1e 87 bd
       -0.16640301 -0.1108135 -0.029878186 -0.06597557
0000f0 50 e1 4b 3e 7c 49 23 3e b2 b5 ca bc 89 bc 3b 39
       0.19910169 0.15946001 -0.024744842 0.00017903945
000100 cf 2d 24 3c 98 2d 8e bd 7a 9b 20 bd 92 ef 3c 3e
       0.010020687 -0.0694229 -0.039210774 0.18450764
000110 38 10 73 3b a1 c8 3a 3c 67 d9 21 3d cd 3d 28 3c
       0.0037088525 0.011400373 0.03951397 0.010268641
000120 8b f8 c5 3c 23 ea 24 bc ac 64 df 3d ec f9 39 bd
       0.024166366 -0.010065588 0.109078735 -0.04540436
000130 96 47 fd bc f8 4f cc 3d a2 6d a3 bd 5a 48 c3 3d
       -0.030917924 0.0997619 -0.07979895 0.09535284
000140 f9 87 1f 3e d8 4c 21 bc 3f 43 f5 bd 59 e6 81 3c
       0.15579213 -0.009844981 -0.11975717 0.015856909
000150 99 e1 3b 3d d3 ab bc bd 1f 6d d5 3a 3c f7 86 3b
       0.045869444 -0.0921246 0.0016283131 0.004118828
000160 ac e6 dc bd 45 a5 27 3e 51 f4 0f bc 94 b4 81 3d
       -0.10786185 0.16371639 -0.008786277 0.06333271
000170 49 7e 28 3e cc 6b 18 bd fc 6f 20 bd f6 07 c5 3d
       0.16454424 -0.037212178 -0.039169297 0.09620659
000180 57 bf 8e 3c cb 4d ba bc c7 e0 2b be d7 58 06 3e
       0.017425222 -0.022742173 -0.16784965 0.13119827
000190 f6 98 d9 3d 90 b1 36 3d e9 c1 bc bc 62 42 f1 3d
       0.10624878 0.04460293 -0.023041682 0.1178024
0001a0 ca 8e 8c 3d 37 72 2c bd 1c 36 e8 3d 41 e7 59 bc
       0.06863172 -0.04210111 0.113384455 -0.013299764
0001b0 72 a4 89 bd cf 6e 32 3c d7 09 3c bd 6b 5a 57 bd
       -0.067208186 0.010890677 -0.04590782 -0.052576464
0001c0 6d e0 4b be 82 b6 c7 3d 7b c9 07 3d bd ba 94 3d
       -0.1990983 0.097516075 0.03315113 0.0726218
0001d0 9f dc 09 be 30 a4 ea 3c 10 a3 46 bd cc 52 7e 3d
       -0.13463067 0.028642744 -0.048495352 0.06209068
0001e0 ec 70 1e be be a2 8c 3c 00 c9 1d be 6a 6c 8a bd
       -0.15472764 0.017167445 -0.15408707 -0.067589596
0001f0 a7 32 41 3d 48 0a b1 bc 52 16 32 3e e8 1f 85 3b
       0.047167446 -0.021611348 0.17391327 0.0040626414
000200 89 8e 12 3e 01 c6 8e 3d e6 17 cd bb 21 9f 2b be
       0.14312185 0.0697136 -0.0062589524 -0.16759922
000210 3a ae e2 3d 28 5f a9 bc eb 74 2e bd 9f fb 94 bd
       0.11068387 -0.020675257 -0.04259197 -0.072745554
000220 a4 76 27 3e 8b b9 ec 3d e9 5c 1f bd 8f ae d8 3c
       0.16353852 0.11558827 -0.038906965 0.026450424
000230 ee f6 97 bd 47 6e 6e bc b5 67 28 bd c1 05 50 3e
       -0.07420145 -0.014552659 -0.041114528 0.20314695
000240 52 dd a6 bd ae b9 08 be a5 43 17 3c fe f0 15 be
       -0.08147682 -0.13352081 0.009232436 -0.14642712
000250 e3 8e 87 bc 13 94 da 3d ad da e0 3c 00 d4 4e bc
       -0.016547626 0.10672774 0.027448023 -0.012623787
000260 c0 5e 13 3e 9a 05 f5 bc db 70 36 be 60 ef 34 bd
       0.14391613 -0.029909898 -0.17816488 -0.0441736
000270 b5 d6 22 3e 02 7b 50 bc e3 fe 0a bd 5c d5 d0 3c
       0.15902217 -0.01272464 -0.033934485 0.025492363
000280 d2 5e be bd 7f cb 4b 3e 3d 27 e4 bc c6 42 e9 bc
       -0.09295429 0.19901846 -0.027850742 -0.028474223
000290 6d fb 53 3e 93 cc 27 3c 89 c7 37 3e af 30 8e bd
       0.2070138 0.010241645 0.1794721 -0.069428794
0002a0 91 33 b2 bd 0f d0 1b bc a0 fc c5 3d 73 d5 1c bd
       -0.08701242 -0.009510054 0.09667325 -0.0382895
0002b0 b0 30 17 be 72 5d 03 3e 51 a5 fb 3c 54 47 e7 3c
       -0.14764667 0.12828615 0.030718477 0.028232254
0002c0 27 4a b2 bd 5b ba d8 3c 3e 96 80 3d b5 eb ef 3d
       -0.0870555 0.026456049 0.062786564 0.117148794
0002d0 9f 7d 84 3c 07 26 06 3e 42 3a 05 3d f5 8d d3 3d
       0.016173182 0.13100444 0.032526262 0.103298105
0002e0 17 d7 aa 3d 82 34 f9 3b bf 05 a9 bc e2 27 da bc
       0.083418064 0.0076051364 -0.020632623 -0.026630346
0002f0 22 cd e5 3c 32 ae 28 3a bc 3c e6 bc 48 bd d9 bd
       0.028051917 0.00064346485 -0.028105132 -0.10631806
000300 c9 70 25 3d d8 7f 2d 3d e3 37 29 3d d9 c8 81 3d
       0.040390763 0.04235825 0.041313063 0.06337137
000310 6f c1 af bc b5 2a 00 3d 2e a6 bc 3d 44 f2 95 3d
       -0.021454541 0.03129073 0.09211384 0.07321599
000320 2f 90 cc 3d f1 4b 60 3e 9f d1 0c be 51 16 1c bd
       0.09988438 0.2190397 -0.13751839 -0.03810722
000330 1c 87 cc 3c b2 8c 46 be 88 fe 2e 3e ea 96 88 3d
       0.024966769 -0.19389609 0.17089283 0.066694096
000340 08 e1 22 be 74 55 40 bd fa 4d 39 3d 6a e1 c1 3d
       -0.15906155 -0.046956494 0.04524038 0.094668224
000350 aa 4a bb bd ee 97 ee bd b3 af 1b 3d 15 21 9b bc
       -0.091451004 -0.11650072 0.038009357 -0.018936673
000360 3e c4 6c 3e 8e 42 8a 3c fb 8e c0 bd 1f 5f 0a 3d
       0.23121735 0.016877439 -0.09402271 0.03378212
000370 34 b7 55 bc 86 4b 69 be 3a 37 1d 3e 0a 74 79 be
       -0.013044167 -0.22782716 0.15353099 -0.24360672
000380 86 79 09 3e 40 50 03 bd 50 1d 7e bd 46 b7 d8 bb
       0.13425264 -0.032058954 -0.062039673 -0.006613645
000390 ae 6e 68 3d 4c 1b 08 3d 04 97 11 3d 19 70 4c 3e
       0.056746177 0.033229157 0.03554441 0.19964637
0003a0 31 40 5b bd d3 30 f3 bc 78 53 69 3d e7 38 08 be
       -0.053528015 -0.029686367 0.056964368 -0.13302957
0003b0 2d 06 e2 3d b3 e8 fe 3d f7 3b 3c be 78 f3 92 bd
       0.11036334 0.124467276 -0.1838225 -0.07175344
0003c0 73 ec 18 bd 23 f3 45 3d 56 34 e3 3d 50 81 fe 3c
       -0.03733487 0.048327576 0.11093967 0.03106752
0003d0 ff ad cc bc 4f 8d 83 bd d6 00 0d 3e ee da ad bd
       -0.024985312 -0.06423437 0.1376985 -0.08489023
0003e0 a7 d3 64 ba 1f d6 8c 3c e6 24 de 3d b7 fc 19 3e
       -0.00087290484 0.017191945 0.108468816 0.1503781
0003f0 aa 84 a1 3d 38 21 07 3d 26 ff e0 3d 50 d0 f4 3d
       0.07886632 0.032990664 0.10986166 0.11953795

discrete_action_output_shape f4 [1, 2]
000000 00 00 a0 40 00 00 40 40
       5.0 3.0

network_body._body_endoder.seq_layers.0.bias f4 [256]
000000 1f d6 e7 bc 93 b9 f6 3c 8a 21 13 bc 71 80 42 bb
       -0.028300343 0.030117786 -0.008980164 -0.0029678608
000010 48 44 fb bd ad 3a b7 bd 18 91 87 3c 77 cf af bc
       -0.12268883 -0.089467384 0.016548678 -0.021461232
000020 4a ac 23 3d c7 90 da 3c 52 50 99 3c dd 8e 80 bd
       0.03995923 0.026680363 0.018715058 -0.06277249
000030 61 30 80 ba 8d 33 e3 3c 1e 52 b4 3c 8b 68 0b bd
       -0.0009780043 0.027734542 0.022011813 -0.034035247
000040 2b a6 1c bd 18 52 28 bd bd f4 31 3c a7 24 87 bc
       -0.038244408 -0.041093916 0.010861573 -0.01649697
000050 f9 6d 9e bc 62 da ff bc bc 4e 2d 3c ba ff 14 bc
       -0.019339548 -0.031232063 0.010577854 -0.009094173
000060 7c 02 09 3d eb dd d9 3c d8 d2 09 3d 1d 07 52 bd
       0.033449635 0.026595077 0.033648342 -0.051276315
000070 e8 e0 fb bc bd f9 d0 bc fb 4f d0 bc 88 70 f9 bc
       -0.030746892 -0.02550971 -0.025428763 -0.030449167
000080 8b 75 be bb 39 a0 2c bc 38 01 09 3d 7f 3f a9 3a
       -0.005812352 -0.010536247 0.033448428 0.00129126
000090 0b 77 e7 bc 1a da ae 3c c2 1d 6b bd 6b ee ed b9
       -0.028255006 0.021344233 -0.057401426 -0.00045381798
0000a0 c2 7c 4e 3c 32 e7 2c 3b 78 3a 35 3d 04 62 d4 bc
       0.012602987 0.002638292 0.044245213 -0.025925644
0000b0 b5 de 1d bb e8 29 00 bd f9 85 01 3d 2e 08 ef bb
       -0.0024089043 -0.031289965 0.031621907 -0.0072946763
0000c0 d7 ea da bb 36 bc 0f 3d fe 60 e1 bd 92 48 b9 bc
       -0.006680827 0.0350916 -0.11004828 -0.022617612
0000d0 09 a9 8b bb 76 a8 e6 bd 55 f7 11 3a 04 6f 16 3d
       -0.004262094 -0.112626 0.00055681664 0.036726967
0000e0 5e 70 5e bc 19 fd 2b 3d dc 69 31 bd 5f d5 4d bd
       -0.013576595 0.04198942 -0.043313846 -0.050252315
0000f0 1e b7 9e 3c 10 42 2e 3c ad 7c 35 3d d8 bf 0b bd
       0.019374426 0.010635868 0.044308353 -0.034118503
000100 61 40 29 3d 82 77 0c bc 21 41 14 3c 03 3b b7 3d
       0.041321162 -0.008573415 0.009048731 0.089468025
000110 cf 1b c9 bd 52 33 a8 3b 7b e8 1c 3c 74 18 9a 3c
       -0.09819757 0.005133071 0.009576912 0.018810488
000120 4a 9b e5 bd e1 1c 8d 3c 6c 03 14 3c a6 66 13 bb
       -0.1121126 0.017225685 0.009034019 -0.0022491603
000130 d3 b6 97 3d 0a 3a 83 bd f4 2e ee 39 7c 43 3e bc
       0.07407918 -0.064075544 0.0004542988 -0.011612769
000140 71 0f bc 3c 99 e3 09 3d 63 09 e5 bc 85 33 b9 bd
       0.022956582 0.03366432 -0.027958577 -0.0904303
000150 23 fe a5 bc 70 ea 4d bd 7c 28 30 3c 5a 80 cd 3b
       -0.020262783 -0.050272405 0.01075184 0.006271404
000160 f3 d8 2f bc c1 8a cd bc e1 30 d9 bb 67 05 b3 bc
       -0.010732877 -0.025090577 -0.0066281413 -0.021853162
000170 38 d2 a6 bc b7 17 54 bc 2c bd 8b 3c 9a 0d 1a bd
       -0.020363912 -0.012945107 0.017057978 -0.037610628
000180 25 15 d1 bb e7 bd 17 3d 86 1b a3 bc e1 5b cf bd
       -0.0063806945 0.03704634 -0.019910585 -0.101249464
000190 d4 8c 64 bd ce a4 69 3a 94 06 1c bd ec 94 b3 3b
       -0.055798367 0.00089128024 -0.03809221 0.0054803994
0001a0 17 36 e3 bb 06 0e 42 bb da b7 48 3c db b5 b7 bc
       -0.0069339382 -0.002961041 0.012250865 -0.022425583
0001b0 8a 71 02 3d 60 d2 c5 3c fb 57 80 bd d6 b3 33 3c
       0.03184656 0.024148166 -0.06266781 0.010968169
0001c0 18 18 99 3c 6a eb 1e bc 56 04 2c bd 77 1c 5b bd
       0.018688247 -0.009699682 -0.041996323 -0.053493943
0001d0 b0 45 52 bd e5 5f 94 3c 1e 01 36 bd 42 09 80 bc
       -0.05133599 0.018112132 -0.04443466 -0.015629414
0001e0 91 cb 30 bb fa 11 6b bc 42 cf 80 3d c8 2f 85 bd
       -0.0026976804 -0.014347548 0.06289531 -0.06503254
0001f0 12 d6 db bd cb 86 12 3d be 53 ac bc 87 f2 1b bd
       -0.1073419 0.03577308 -0.021036025 -0.03807309
000200 a1 00 ab 3c 44 59 1a bd c7 3a ee 3c 61 2c be bc
       0.020874323 -0.037682787 0.029080762 -0.02321452
000210 04 e7 a5 3c a9 68 86 bd 1c 05 0a 3c 28 73 06 bb
       0.020251758 -0.06562931 0.00842407 -0.0020515416
000220 d3 77 86 bd 1b 1c 90 bd d2 e1 90 3d 7c 05 74 3d
       -0.065658234 -0.07036611 0.07074322 0.059575543
000230 3f 79 11 bc 18 3a a1 3c 56 e4 a1 bb da cb dd 3a
       -0.008879005 0.019681022 -0.00494055 0.0016921714
000240 18 bc b2 3c a9 a6 cb 3c 53 71 8e bd 44 16 75 bd
       0.021818206 0.024859743 -0.06955209 -0.059835687
000250 34 34 37 bc 38 d3 58 bc c4 94 c1 3c c1 f5 c7 3c
       -0.01118188 -0.013233952 0.023630507 0.024409177
000260 7e 00 b0 bd eb bb 9f 3c 8a 01 06 3d 47 01 00 bd
       -0.08593844 0.019498786 0.03271631 -0.03125122
000270 6c 5d d7 bc 04 92 10 b9 f7 67 4c bd 14 b1 fd 3c
       -0.026289664 -0.00013787305 -0.049903836 0.030968226
000280 b6 f0 dc bc de a3 4e 3d 6a 7e 3d bd 16 e5 1c bd
       -0.026970249 0.050449245 -0.046263136 -0.03830441
000290 3c ec 49 3c d7 e0 8e bc 0d 85 54 3d d4 59 b0 3c
       0.012324389 -0.017441196 0.0518847 0.021527208
0002a0 59 f6 a0 bc a6 c8 50 bc b4 2a 90 bb ff cb 1a bb
       -0.019648718 -0.012743151 -0.004399622 -0.0023620126
0002b0 15 7e 25 bd ec fe 96 3c 62 b1 79 3d b1 9a af ba
       -0.040403444 0.018432103 0.06096018 -0.0013397542
0002c0 73 d4 c3 3c 8a e0 1c 3d e7 77 4c bc 1b 58 8d 3c
       0.023905015 0.038300075 -0.012479759 0.017253926
0002d0 84 4a 0b 3d f3 d6 90 bc 8f 83 8f 3c 51 51 9d bc
       0.03400661 -0.01768062 0.017518787 -0.019203814
0002e0 f7 ce c4 bb 7a 5b 53 bb 4a 19 8d bd 87 8d 89 ba
       -0.0060061174 -0.003225057 -0.06889589 -0.0010494449
0002f0 fd 6f 29 bd ff 32 2d 3b d5 5c 78 bc 47 d5 f4 3c
       -0.041366566 0.00264281 -0.015158852 0.029886855
000300 7f a0 91 bd e5 e0 6b bc 73 a7 68 bd bf e3 fd bc
       -0.0711069 -0.014396881 -0.056800317 -0.030992387
000310 53 50 86 3c 32 a3 83 3d 89 e1 a8 bd 3a 06 8a bd
       0.016395723 0.064276114 -0.082461424 -0.06739469
000320 2c 5c 42 3d 89 c1 08 3c cd 25 69 bd 22 c6 8c bd
       0.047451183 0.008346924 -0.056920815 -0.06873728
000330 90 11 ce 3c c0 52 c7 3c 6e e3 f9 3c 6c 05 81 3d
       0.025154859 0.02433145 0.030503955 0.06299862
000340 7c 42 2f bc 0b a0 0c bd 6e 08 98 3b 16 a1 e6 bd
       -0.010697003 -0.034332316 0.004639677 -0.112611935
000350 b7 6d e3 bc 47 23 16 bd 9f 3c 01 bd 37 87 75 3d
       -0.027762277 -0.036654737 -0.031551953 0.059943404
000360 42 f7 37 3d d0 41 4d bd b6 8a cf bc 41 14 35 3d
       0.044913538 -0.05011159 -0.025334697 0.04420877
000370 51 ba 87 bc 9f 76 e6 3b ee 32 4b 3d f1 08 2a 3d
       -0.016568335 0.0070331837 0.049609117 0.041512433
000380 75 89 a6 3d 46 1f 06 bd 75 e5 7b bb da 26 1e 3d
       0.081316866 -0.03274467 -0.0038436328 0.03861127
000390 77 df 0f bd 55 c8 80 3c 5e 73 13 3c 7b fe 9b bb
       -0.035125222 0.015720526 0.008999674 -0.004760561
0003a0 9b f0 8b bd 9a 11 34 bd 12 fd 18 3c 3e 54 2d bd
       -0.06833001 -0.0439621 0.00933768 -0.042316668
0003b0 89 10 ea 3c 9e d9 33 3d 51 d8 ab 3d 01 6d 7d 3a
       0.028572338 0.043908708 0.083908685 0.0009667427
0003c0 f9 d8 0d 3b 4c 11 ca bc 8b 50 8a 3c ed 76 28 bd
       0.0021644218 -0.02466645 0.016884109 -0.04112904
0003d0 23 ab 44 bc 88 b1 7b bd be 83 5d bd 3f 16 18 b7
       -0.012003693 -0.061448604 -0.054080717 -9.065086e-06
0003e0 2e 49 64 bd 70 66 64 bd 5d 5f 0f 3c 90 de 89 3b
       -0.055733852 -0.055761755 0.008750764 0.0042074397
0003f0 f8 a9 e2 bc 6c 81 6d bd 62 05 f7 3c 58 61 8f bd
       -0.027668938 -0.057984754 0.030153934 -0.07000989

network_body._body_endoder.seq_layers.0.weight f4 [256, 690]
000000 5e b1 29 3d 00 41 0e 3d 85 54 97 bb af b9 2e 3e
       0.041428916 0.034729958 -0.00461823 0.1706302
000010 a6 ff 8e 3d bf 04 75 3d 6b 51 82 be de 96 92 b9
       0.06982355 0.05981898 -0.25452742 -0.00027959695
000020 e5 40 30 bd 7b 3e 27 bb d0 63 98 3d c2 61 0a bc
       -0.04303064 -0.002551942 0.07440913 -0.008446159
000030 da 6e 86 bd 28 66 70 3e 60 44 a0 3d 03 49 3e be
       -0.06564112 0.2347647 0.078255415 -0.1858254
000040 05 c3 e9 3d 6b 3c 71 3d 4f 7e 2b bb 13 04 53 3c
       0.1141415 0.05889551 -0.0026167815 0.012879389
000050 5a 5f f6 3c 24 4e ef 3d f9 97 19 be f9 73 15 bc
       0.030074764 0.11684826 -0.14999379 -0.009121888
000060 37 3c 1e 3d c3 65 2b 3e 2c 05 27 3e 07 76 28 3e
       0.038631644 0.16738038 0.16310567 0.16451274
000070 46 68 12 bd 0c 2e 77 be b8 46 d4 bc e0 79 3d be
       -0.035743974 -0.24138659 -0.025912628 -0.18503523
000080 ac ef b1 3d 3d 55 33 3e 63 45 72 be a2 69 d2 3c
       0.08688292 0.17512985 -0.23659281 0.025685135
000090 3a 25 56 3d e5 8b 85 3c 82 37 30 3c ce 41 a1 3b
       0.052281596 0.016302058 0.010755422 0.0049211746
0000a0 a2 2d 2e bd b9 e3 61 3e 9b ce 52 bd db b7 2c 3e
       -0.042523988 0.22059526 -0.051466566 0.1686701
0000b0 47 14 8f 3d c2 b2 1f bd b2 cd b8 3d 86 47 b5 bc
       0.069862895 -0.038988836 0.09023608 -0.022128832
0000c0 2b f6 c8 3d 1f b4 81 3c da 89 6b 3e de cc ad 3c
       0.09812578 0.015832959 0.23001805 0.021215852
0000d0 2b 1b 02 3c e9 59 a4 bd 9c 51 2e 3e 06 1e 8b bd
       0.007941048 -0.080249615 0.17023319 -0.06792836
0000e0 b5 4e 08 3d ec 1f c7 bc d3 0c 8e bd 79 bc 2c be
       0.033278186 -0.024307214 -0.0693604 -0.16868772
0000f0 df 46 e1 bb b6 ba a9 bd 15 1f 3d be 1f 76 7a 3d
       -0.0068749036 -0.082875654 -0.18468888 0.061147805
000100 5b a9 05 be 7e 00 fa bd 0d 60 29 be 6a 37 b6 be
       -0.13052885 -0.12207125 -0.16540547 -0.35589153
000110 fc 63 ff bd 3d 9c 42 bc cb c7 ab bd 37 1b 9b bd
       -0.124702424 -0.01187807 -0.08387717 -0.0757355
000120 30 49 ef bd ae 78 06 3e f3 a4 c8 bd d0 6a a1 be
       -0.11683881 0.13131973 -0.097970866 -0.31526804
000130 dd 2a 28 3d 80 6a 75 3d 19 be fe b9 6d 8f 2f 3d
       0.041056503 0.05991602 -0.0004858829 0.04286139
000140 c0 bb 46 bd 65 db 06 3e 5e 58 27 3d a6 7a bd bd
       -0.048518896 0.1316963 0.040855758 -0.09251909
000150 0f 52 d4 3d 73 5c 5e bd a8 77 4a bd 6b 69 8c bb
       0.10367214 -0.054287385 -0.04943052 -0.0042850277
000160 31 e8 51 bd b5 34 26 be c5 46 db bd 89 81 43 bd
       -0.051246826 -0.16231044 -0.107068576 -0.047730956
000170 e3 4a 80 3c 24 ca b4 ba 6f a2 d3 bc ef 9d e8 bd
       0.015660709 -0.0013793153 -0.02583429 -0.113582484
000180 2f fd bd bc 5e 9b 16 be 55 83 49 bd aa 12 21 3d
       -0.023192016 -0.14707705 -0.049197514 0.03932444
000190 0e 9d b5 bd 4a 20 b6 bd a3 a8 18 bd 14 2e 6c bd
       -0.088678464 -0.088928774 -0.0372702 -0.05766113
0001a0 32 a4 25 be c6 03 0e 3d b8 fc af 3d 7a 77 fc bd
       -0.16175917 0.034671567 0.08593124 -0.12327476
0001b0 54 32 be bb ee 24 c0 3d 45 55 3f be 81 85 51 3c
       -0.0058043394 0.09382044 -0.18684871 0.0127881775
0001c0 8e 00 91 3d 13 b7 90 3c 8f 8d 99 3c 6c 7e 06 be
       0.07080184 0.017665422 0.018744258 -0.13134164
0001d0 9c 9e 61 3c 74 88 d3 bc 03 c3 cf bc 50 9c 95 3c
       0.013770726 -0.025821902 -0.025361544 0.018263012
0001e0 58 ce 30 bd 96 c8 e9 3d a0 b8 fe bd 25 6d 5f bd
       -0.043165535 0.11415212 -0.12437558 -0.054547448
0001f0 a3 cb 7f be 6f f7 04 bd 3b 33 5d 3d ac fd 5b be
       -0.24980025 -0.032462534 0.054003935 -0.21483487
000200 1e 15 36 bd 4f c7 cc 3d 17 80 66 bd b5 21 1f 3e
       -0.044453733 0.099989526 -0.0562745 0.15540202
000210 52 80 42 3e 51 ac e1 bd aa 97 06 3c ea 67 0a 3e
       0.18994263 -0.11019195 0.0082148705 0.13516203
000220 17 30 48 bd d8 91 0b 3e a6 4e 73 bd 8d b9 f4 bc
       -0.048873987 0.13629854 -0.059401177 -0.029873634
000230 0e f9 30 be b8 15 5f be a5 c3 8f bd e3 2d a2 bd
       -0.17282507 -0.21785629 -0.07019738 -0.079189084
000240 9d 3f 90 bd ad 20 e9 3d 17 53 42 3e f4 5f 16 bd
       -0.07043383 0.113831855 0.18977009 -0.0367126
000250 8a 9b 88 bd 4e ad 4c bd c6 fd 45 be b0 2c 16 bd
       -0.06670292 -0.049969964 -0.19335088 -0.03666371
000260 e7 25 19 bc e4 3e de 3c 4b 82 62 3c c1 42 68 be
       -0.0093474155 0.027129598 0.01382501 -0.22681715
000270 cd 80 8b 3e 39 ae cb bd 65 a9 a1 bb 0a 1d bf 3c
       0.27246705 -0.0994534 -0.0049335235 0.023329277
000280 1c e6 4b be 56 93 9c bd a8 25 83 3d da 0e 65 3c
       -0.19911999 -0.076452896 0.06403667 0.013980592
000290 e9 76 83 3d e1 e8 90 bd ae 07 59 3e f1 f6 c3 bd
       0.06419165 -0.07075668 0.21194336 -0.09568585
0002a0 f8 44 04 bd 1e 40 a3 3c 67 75 ef bd 97 32 91 3e
       -0.032292336 0.019928034 -0.116923146 0.2835891
0002b0 61 62 37 bd 73 0c 24 3d ad 11 c5 bc 44 b0 df bd
       -0.044771556 0.040050935 -0.02405628 -0.10922292
0002c0 50 2f c5 3c d6 fb 33 bc 7f 2b d0 bd 01 42 a2 3d
       0.024070412 -0.010985335 -0.10164546 0.079227455
0002d0 10 ae 29 bd e2 12 c1 bd 49 cf 44 3d 68 ad 86 3d
       -0.041425765 -0.0942743 0.048049245 0.06576043
0002e0 1e d0 b0 3d eb 5e 41 3d cb 86 d8 3d db cf e9 3c
       0.08633445 0.04720966 0.10572585 0.028541496
0002f0 dd e5 01 be a5 67 46 bd 77 e5 5e be 88 8b d2 bc
       -0.12685342 -0.048438687 -0.21767221 -0.0257013
000300 99 8c d7 bd e0 01 a8 bb 11 a7 96 3e bf 6e f5 bc
       -0.10524864 -0.0051271766 0.29424337 -0.029960034
000310 3d 3b 95 be 3c 54 ed bd 87 41 2d bd 6c f4 1d 3e
       -0.29146758 -0.11588332 -0.04229882 0.15425271
000320 66 f2 86 be 56 83 01 3d 70 b4 91 be ab 6c 61 bd
       -0.2635681 0.031619392 -0.28457975 -0.055035274
000330 7c 53 95 3d ed 21 eb bc 20 be 21 3c c9 57 e7 bd
       0.07291314 -0.0287027 0.0098719895 -0.112960406
000340 3c 25 a1 bd 7f 95 0b 3e d8 a0 0f be f7 c2 13 be
       -0.0786843 0.13631247 -0.14026201 -0.14429842
000350 99 7a 1e bd 6c 04 a1 bd da eb 04 3e bd 46 4b bb
       -0.038691137 -0.078621715 0.12980595 -0.0031017505
000360 9e 6d 0f 3d 72 13 44 be 89 96 a0 bd 4b 0b 8f 3d
       0.03501665 -0.19148043 -0.07841212 0.06984576
000370 77 bb 79 be ca c6 50 3d a6 6f cd be c0 36 80 bd
       -0.24387918 0.05097083 -0.40124243 -0.06260443
000380 21 6e cc 3d f2 d1 65 bd 65 af 03 3e 3b c6 eb bd
       0.09981943 -0.056108423 0.12859876 -0.11512419
000390 9b fc 96 bd 3c de 94 3b b5 46 1f be 90 e2 89 3d
       -0.073723994 0.004543094 -0.15554316 0.067326665
0003a0 72 21 18 be 7a ee 84 3d 4e c1 01 3e fe 05 55 3d
       -0.14856508 0.06490798 0.12671396 0.052007668
0003b0 29 ed 9a bd f9 4e a8 bd d9 bd 42 bd 68 2a 7a 3d
       -0.07564766 -0.08218188 -0.047544334 0.061075598
0003c0 f3 36 89 bd 80 28 d9 bc 88 bc 49 bd b3 50 64 3d
       -0.06699934 -0.02650857 -0.049252063 0.055741023
0003d0 0f f5 49 3c f8 5d 12 be d7 f9 af bd 3f 4e 91 be
       0.012326493 -0.14293659 -0.08592575 -0.2838001
0003e0 b3 04 46 bd b0 ad 07 3e 90 e6 be 3c 31 3a db 3d
       -0.048344325 0.1324985 0.0233033 0.107044585
0003f0 cc bf fc bd 9b e0 1c be 27 86 7a be 0f 6f d2 3d
       -0.1234127 -0.15320055 -0.24465238 0.10275089

network_body._body_endoder.seq_layers.2.bias f4 [256]
000000 c9 c3 35 bd 63 92 26 3d 1e e3 49 bd d2 7a 12 be
       -0.04437617 0.04066695 -0.04928886 -0.14304665
000010 35 f4 c3 3d 66 a8 c0 bc 95 e1 b8 3c ef 01 7e bd
       0.09568063 -0.023517799 0.022568503 -0.062013563
000020 53 98 96 bd 6f 58 3a bc 0a ca ed bd 36 73 7d bc
       -0.07353272 -0.011373623 -0.116108015 -0.015469363
000030 c8 ac 87 bc b6 a0 86 bd 81 cf 80 bd f9 9b c7 bd
       -0.01656188 -0.06573622 -0.06289578 -0.09746546
000040 94 6d 56 3d 18 b4 8b bd c1 2f f4 3b 59 99 40 bd
       0.052350596 -0.068214595 0.007451982 -0.047021244
000050 1c 29 9a bd f5 9b be bd fc f5 28 be db 03 4f bd
       -0.07527372 -0.0930709 -0.16500086 -0.050540786
000060 4f ff c2 bd 73 a9 c8 bc 1d f4 cb bc 0f ed e5 bc
       -0.095213525 -0.024494862 -0.024896676 -0.02806714
000070 1b b0 a6 3c 7c 9f 05 3d 53 71 67 bd ec 9f 3a bd
       0.020347646 0.0326228 -0.05650456 -0.04556267
000080 9c 4b eb 3c 07 61 cb bc 85 a2 12 bd 23 c5 f7 bd
       0.028722577 -0.02482654 -0.035799522 -0.12098148
000090 c2 5a bd 39 8e a2 b5 bb 77 aa d7 bc 2d bd 9e 3c
       0.0003611651 -0.0055430597 -0.026326401 0.019377315
0000a0 2a 2f 10 bd 04 8d 7c bd 0d d9 ea bd 76 48 42 bc
       -0.03520123 -0.06165792 -0.114671804 -0.011858096
0000b0 4e 28 76 bd 89 f7 94 bd ad 37 05 be e5 36 e6 bd
       -0.06009703 -0.07273776 -0.1300952 -0.11240939
0000c0 b4 27 96 bd f9 c0 64 bd 0e 86 80 bc 67 11 b9 bd
       -0.073317915 -0.055848096 -0.015688922 -0.09036522
0000d0 fe aa 9d bd 3d 02 85 bd 96 3e 68 bc 99 25 88 bd
       -0.0769863 -0.064945675 -0.014175078 -0.06647796
0000e0 fb a5 0c be f3 eb fd bd 56 63 6c 3d 22 d5 9b bd
       -0.13735192 -0.12398519 0.05771192 -0.07609011
0000f0 62 ee 26 3d 65 2c 39 bd 9c ac 31 3d 4d ad d3 bd
       0.040754683 -0.045208354 0.043377504 -0.10335789
000100 6b f4 80 3d df 33 81 bd da 28 54 bd c6 48 4b bd
       0.06296619 -0.06308722 -0.05179677 -0.04962995
000110 9e e0 1f be e1 ef b1 bd c9 c5 58 bd 9d 07 03 be
       -0.15613028 -0.086883314 -0.052922998 -0.12795873
000120 8d 8a 86 bd d0 e7 2c bb 94 7e fa bc 98 76 ca bd
       -0.06569395 -0.0026383288 -0.030577935 -0.09885901
000130 47 61 e2 bd 0b 84 61 bd 9c 75 c5 bc 51 c9 7b bd
       -0.110537104 -0.055057567 -0.024103932 -0.061471287
000140 c2 b0 58 bd 71 a9 0e bd 9e 2c 28 be 43 70 db bc
       -0.052902944 -0.03482956 -0.1642327 -0.026786929
000150 61 2c 14 bd 2a 9e 99 bd 49 cf 75 bd 5f c3 11 be
       -0.036175136 -0.075008705 -0.060012136 -0.14234684
000160 16 1d ef bd 63 2d 80 bd 6f 04 31 bd b5 bd 3b bc
       -0.116754696 -0.06258657 -0.04321712 -0.011458804
000170 a9 d2 c8 bd 1a 91 68 bd 5b 0f bf bd 67 33 15 bc
       -0.09805805 -0.056779005 -0.09329101 -0.009106494
000180 7c 9a 4d 3d 05 c8 51 bc b7 ce c8 bd 19 23 86 3d
       0.050196156 -0.012804036 -0.09805053 0.06549663
000190 f8 bb 6a bd 11 1b a0 bd c2 06 2d be aa 92 55 bd
       -0.057308167 -0.078176625 -0.16897109 -0.052141823
0001a0 76 59 e2 bd 5c af bb 3d c7 1c 45 3d 11 2d 8e bd
       -0.110522196 0.091643065 0.048123147 -0.069421895
0001b0 e2 08 96 bd 9a da 93 bc 07 2a 58 bd 8b 2a de bc
       -0.07325913 -0.018048573 -0.052774455 -0.027119895
0001c0 c0 7f bd bd 6e 85 ec bc 01 52 57 bd db 2f 95 bd
       -0.09252882 -0.028872218 -0.05256844 -0.07284518
0001d0 8f 3b c6 bd 47 dd 0f bd 53 c2 24 be 19 3f 15 bd
       -0.09679329 -0.035123136 -0.16089754 -0.036437128
0001e0 5a e7 7a bd a7 0c b0 3c 18 8e d0 bd 9b c0 22 bd
       -0.06125579 0.021490408 -0.10183352 -0.039734464
0001f0 1d 1d ec bc d9 68 47 bd f9 c2 f7 bc 80 5d b9 bd
       -0.028822476 -0.048683975 -0.030244337 -0.09051037
000200 b2 38 fa 3c 77 8a 88 bc da c3 ea bd 7a ec 96 bd
       0.030544613 -0.016667588 -0.11463137 -0.07369323
000210 9a e8 de 3c 4a 9f 29 bd c6 bb a7 bd 3b 7f 18 3d
       0.027210522 -0.041411676 -0.08190112 0.03723071
000220 96 f4 2c 3d 60 5c 2d bd 42 c3 ff 3b e9 94 9b bd
       0.042225443 -0.042324424 0.007805259 -0.07596762
000230 5a 2b 01 bd ea bf 07 be 5d 46 f6 bd 88 ef 8c bc
       -0.031535484 -0.13256803 -0.120251395 -0.017204061
000240 71 c6 34 be 9f 0f 86 bd 64 6f 9b bd f5 94 be bd
       -0.17653824 -0.06545948 -0.075896055 -0.09305755
000250 4e 0d e2 3c 2a ef 23 3c 21 00 c0 bc 58 08 68 bd
       0.027594235 0.010005752 -0.023437561 -0.056648582
000260 0e 77 54 3a b5 7c 53 3d 7b e8 9a 3c b6 ba 0b be
       0.0008104899 0.0516326 0.018909683 -0.13645443
000270 b4 e2 71 3b f0 07 c0 bd c5 05 eb bd 80 84 6a bd
       0.0036908807 -0.09376514 -0.1147571 -0.057255268
000280 28 a9 bf bd e6 76 2d 3c ac 1a 26 bd 6f 22 03 bd
       -0.09358436 0.01058743 -0.04055278 -0.03201526
000290 9f 4a cd bc b3 8c 83 3c e8 24 6e bc d4 4d 26 bd
       -0.025059996 0.016058302 -0.014535166 -0.040601566
0002a0 48 c8 30 be d5 80 96 3c 33 13 e7 3c ad 2f b0 bd
       -0.17263901 0.018371979 0.028207397 -0.086028434
0002b0 0f 47 24 be a7 97 45 3d 53 b7 8a bd 9d 9e c6 bd
       -0.16042732 0.04824033 -0.067732476 -0.09698222
0002c0 66 87 10 bd 86 a0 f6 bc dd 05 04 bd 5d 60 3d bb
       -0.035285376 -0.03010584 -0.032232154 -0.0028896548
0002d0 12 b7 56 be 92 bb 35 bd 40 10 2c be 98 b1 54 3c
       -0.20968273 -0.044368334 -0.16803074 0.012981795
0002e0 b1 4b d0 bd b8 74 dc bd c4 3e 0b bd 17 9c 57 bc
       -0.10170687 -0.1076445 -0.033995405 -0.013159773
0002f0 6a 8c a0 39 de f1 68 bd 70 89 72 bd c5 48 30 bc
       0.00030622195 -0.056871288 -0.059213102 -0.010759537
000300 40 30 dd bb 9e 93 88 bd a5 14 14 bc cf 57 da bd
       -0.0067501366 -0.06668781 -0.009038125 -0.106612794
000310 65 2a c9 3b 06 60 40 bd 47 5e b0 bc 04 95 ad 3b
       0.006139087 -0.046966575 -0.02152933 0.005297305
000320 bb ab 72 3d cd f8 d3 bd 71 11 cb bc 0d 47 83 bd
       0.059245806 -0.10350189 -0.02478859 -0.06410036
000330 e8 a3 0e bd fb 90 da bd d6 3b a9 bd b4 b8 dd bd
       -0.034824282 -0.10672184 -0.08263366 -0.10826245
000340 e3 86 9b bd 30 52 e2 bd dd 31 5d bd 71 6d c3 bd
       -0.07594087 -0.11050832 -0.05400263 -0.09542359
000350 f4 85 e9 bc e1 79 db bd 63 85 a0 3c 3b 8d bb bd
       -0.028506257 -0.10716606 0.019594854 -0.09157797
000360 a9 c0 7f bc 9c bb 22 3b ed 41 82 bd bc 9c 26 be
       -0.015609899 0.0024831062 -0.063602306 -0.16270727
000370 45 0f bd bb 79 66 9b bd 8d 52 47 bd de 2f 24 be
       -0.0057696425 -0.075879045 -0.04866271 -0.16033885
000380 19 09 1f bc 9a 96 2c bc 1a a8 84 3b 8f f2 5e bc
       -0.009706759 -0.010533953 0.0040483596 -0.013607635
000390 60 1a ec 3a 3c 4a 65 bd f0 ea 01 3d bc 5a b8 ba
       0.0018013231 -0.055979 0.031718194 -0.0014065127
0003a0 04 8c 17 bd 59 4b b3 3c 45 04 ed bd f3 e8 8b bd
       -0.036998764 0.021886514 -0.1157308 -0.06831541
0003b0 54 5a 49 3d 50 c2 bf bd 9d d4 af bd ad 92 7a bd
       0.04915841 -0.09363234 -0.08585475 -0.061175037
0003c0 10 78 92 bd f7 6e 1c be d1 71 8b 3c a6 39 ee bd
       -0.07151806 -0.15276705 0.017022045 -0.11632089
0003d0 2b 79 fa bd e9 80 82 bd e5 5b e0 bd 40 ad 43 3d
       -0.12230142 -0.06372244 -0.109550275 0.047772646
0003e0 c8 be ea bc a4 8f a4 bc 4a f5 3d bd cd cb 27 bd
       -0.028655425 -0.020088024 -0.046376504 -0.040965844
0003f0 03 de 9e 3d 7b c6 d6 bd 1c 23 0a 3d 57 f3 8a 3d
       0.07757189 -0.10487076 0.03372489 0.06784695

network_body._body_endoder.seq_layers.2.weight f4 [256, 256]
000000 80 a2 d9 3d 3c 15 07 be 3e d7 53 bd fa db 8a bd
       0.106266975 -0.13191694 -0.051718943 -0.067802384
000010 33 71 9d 3c a1 f7 bb 3d 6a 65 8d 3d 08 c1 58 be
       0.019219017 0.09178091 0.06904109 -0.21167386
000020 00 c6 67 bd 57 27 85 3d 44 bd 81 3d 33 dd d2 3a
       -0.056585312 0.06501644 0.06334928 0.0016087651
000030 e1 a6 b9 3d bc 95 0a be b8 99 61 3d c6 9e 03 3d
       0.09065033 -0.13533682 0.05507824 0.03213384
000040 12 a3 e6 3c 51 33 14 be 13 c7 72 bc 7a 98 0b bd
       0.02815393 -0.144727 -0.014817971 -0.03408096
000050 25 ed b0 bd 64 ed d4 bd 13 9a 85 3d f9 3b 2e bd
       -0.08638982 -0.10396841 0.06523528 -0.042537663
000060 50 88 40 bd d3 d1 51 3e 37 e9 43 3e cb c6 7e 3d
       -0.047004998 0.20490198 0.19131933 0.062201302
000070 67 e8 56 3e 70 df 0a 3d 24 99 e7 3b 8d fc 14 3c
       0.20987092 0.033904493 0.0070678163 0.009093416
000080 a4 61 03 bd 81 52 20 be ea f2 ac bc 53 2f 2e 3e
       -0.03207554 -0.15656473 -0.021111924 0.1701024
000090 dc d3 29 3e 51 1c 16 3e 4d 1f ef bc 9d 28 a6 ba
       0.16584724 0.1465924 -0.02918973 -0.0012676899
0000a0 87 05 12 be 77 41 9d 3e 4f b6 5d 3e 70 b8 49 be
       -0.14259921 0.30714008 0.21651576 -0.19699264
0000b0 36 6e f2 bd ba da ac 3c bd db 93 bc 9c f5 2c be
       -0.11837427 0.02110039 -0.018049115 -0.16890568
0000c0 15 b0 3c 3d a8 f7 74 3e 47 09 11 be ef 48 02 3d
       0.046066362 0.23922598 -0.14163695 0.031807836
0000d0 3c 27 ea 3d 0f b2 0b be e4 75 a1 3d 08 bd 99 3d
       0.114332646 -0.13642143 0.07883814 0.07506758
0000e0 4b bb cc bd ee b8 24 be d5 46 1e 3e f0 21 3b be
       -0.09996661 -0.1608617 0.15456708 -0.18274665
0000f0 a6 78 fb 3d e0 77 35 bd c5 8b f4 bd 66 2c f1 bd
       0.12278871 -0.044303775 -0.119407214 -0.117760465
000100 3c 3d 03 bc 3e f0 da 3d 40 b5 93 be c6 a8 01 3e
       -0.008010205 0.10690354 -0.2884922 0.12662038
000110 90 d7 ff bc 0a 5b 88 3c e0 2f c6 3d 46 ac 1e 3d
       -0.031230718 0.016644973 0.096771 0.03873851
000120 6c 67 07 3e cb f6 38 3d 76 18 e5 3c 51 ad 25 3d
       0.13223046 0.045157235 0.027965765 0.04044849
000130 70 74 1d be b6 a1 4e bc e6 fd 33 bc df 1a 3a 3e
       -0.15376449 -0.012611797 -0.010985827 0.18174313
000140 f6 f8 f1 bd df 86 0d be 93 5d a9 bd 63 b5 aa bb
       -0.11815064 -0.1382098 -0.08269801 -0.0052096113
000150 0c 09 42 3e a5 23 8e bd 34 c0 97 bd 9b 66 08 3e
       0.18948764 -0.069403924 -0.07409707 0.13320391
000160 a3 78 4d 3e d4 e4 70 be 21 11 20 3d 57 ae f0 3b
       0.2006555 -0.23524791 0.039078835 0.0073450017
000170 11 6c 75 bc c7 9d 0d bd 61 64 25 be 40 b1 df bd
       -0.014979378 -0.034574296 -0.16151573 -0.1092248
000180 a5 dd de bd f2 60 b2 bd 77 1f 26 be 76 4e 05 be
       -0.10882119 -0.08709897 -0.1622294 -0.13018212
000190 77 43 72 3c a7 3d f6 3d 00 de 20 bd 52 83 be 3c
       0.014786593 0.12023478 -0.039274216 0.023255978
0001a0 3a 8b 00 3e e1 e9 80 bd ce 2f 9c be 07 ec 8d 3e
       0.1255311 -0.06294609 -0.30505222 0.27719137
0001b0 d2 b3 28 3e b8 84 97 bd f2 a0 8a 3d 1b e1 81 be
       0.16474846 -0.07398361 0.06768979 -0.25367054
0001c0 bf ab 1a be b5 fc d4 bd e7 2b 96 3e bd 8d 71 bd
       -0.15104578 -0.103997625 0.2933037 -0.058973063
0001d0 16 86 0b bd 55 84 ee 3d b7 11 52 be 94 65 4f 3e
       -0.03406342 0.11646334 -0.2051457 0.20253593
0001e0 38 69 cd bd 4a 18 5b bc 19 e9 b0 bd 1f 35 63 bb
       -0.100298345 -0.01337249 -0.0863821 -0.0034669114
0001f0 94 0f 09 3e 87 e3 11 3e 04 c8 07 be 1a 68 83 3c
       0.13384849 0.14246951 -0.13259894 0.01604085
000200 f8 e9 d4 3d 49 e0 48 3e 7f 25 4a be 79 6c 86 3d
       0.103961885 0.19616808 -0.19740866 0.06563658
000210 f0 30 1b be 7c 7a 1f be 5b 63 d9 bc a0 e0 39 be
       -0.15155387 -0.15574068 -0.026536634 -0.18152094
000220 d6 8b eb bd 7f 17 e8 bd 47 77 94 bd 66 22 06 be
       -0.11501281 -0.113326065 -0.07249313 -0.1309906
000230 65 18 07 be ee 70 7e 3d 70 00 1e be 83 64 9d bc
       -0.131929 0.062119417 -0.15429854 -0.019212967
000240 ba 58 00 be c2 dc a4 be f8 8b 9e bd 04 a7 07 bd
       -0.12533846 -0.32199675 -0.07741541 -0.033118263
000250 61 9c fd 3d cc 0f b4 3c 4f 83 5f 3d aa 58 be 3d
       0.123833425 0.021980189 0.054568585 0.09294255
000260 19 d9 c1 bd b9 c5 b0 be f3 b6 16 3d 6d a3 39 3c
       -0.09465236 -0.3452585 0.036795568 0.011330468
000270 56 d3 b9 3b 60 db d3 bd 59 e5 24 be a2 73 15 bd
       0.005670945 -0.10344577 -0.16103114 -0.03648723
000280 c4 0f 2c 3e a9 db da 3c 55 3f 47 3e cb e9 29 be
       0.16802889 0.02671607 0.19457753 -0.16593091
000290 20 0f 6c 3b 90 2f d7 3c c5 61 f0 3d bc 27 b5 3d
       0.0036019757 0.026267797 0.11737398 0.08845469
0002a0 09 1a 45 3e be b2 47 bd c1 37 15 3d 5a 53 ea bb
       0.19248213 -0.048754446 0.036430124 -0.0071510496
0002b0 5e 97 ec 3d 55 63 de bd c9 23 a0 bc 64 76 d5 bd
       0.115523085 -0.1085879 -0.019548314 -0.10422972
0002c0 fa ae ff ba e8 a1 a4 3c 08 99 41 be 93 90 85 be
       -0.0019507103 0.020096734 -0.18906033 -0.26086864
0002d0 65 76 51 bd 50 63 08 be 25 93 3d be 16 56 b5 bd
       -0.0511383 -0.13319135 -0.18513162 -0.0885431
0002e0 55 85 eb 3d 6f 6a 9e 3e 36 23 9f bc 55 bb 95 3d
       0.115000404 0.30940577 -0.01942597 0.073111214
0002f0 69 91 55 b7 6f 8b 74 3d 4b fe df bd 6e 8e d5 bc
       -1.2729645e-05 0.059703287 -0.109371744 -0.026068892
000300 8f 43 88 bc 8f 68 9f be e4 58 8b bd 6f a0 2e 3e
       -0.016633777 -0.3113446 -0.06804064 0.17053388
000310 8b 06 64 3c 14 d7 a2 3d 9b 83 75 be 2d e2 c3 3d
       0.013917576 0.07951179 -0.23975985 0.09564624
000320 a3 6f c6 3d 1d 59 78 be 10 f3 d8 bd ed ad e0 bc
       0.09689262 -0.24252744 -0.105932355 -0.027426684
000330 f2 2e a7 bd 7b b3 0f 3e b5 3a 02 bd 23 fc 9c bd
       -0.08163251 0.1403331 -0.03179427 -0.07665279
000340 91 e7 ea 3d 4d 02 6f be a0 13 92 3d 98 a8 30 bd
       0.11469949 -0.23340721 0.071326494 -0.043129534
000350 9a 01 24 bd c1 b9 08 be 05 bb e6 bd d5 fb 83 3b
       -0.04004059 -0.1335211 -0.1126614 0.0040278235
000360 f6 93 4f be 29 c8 bd bd 9c 9d 83 3d c4 39 78 be
       -0.20271286 -0.09266693 0.06426546 -0.24240786
000370 d9 83 af bd 48 cc 85 3d b2 7d 7c be 65 5d 62 3e
       -0.0857007 0.06533104 -0.24657324 0.2210594
000380 1a be 98 3b 09 ea 30 3d e2 50 3e be 42 c3 3a be
       0.0046613337 0.043191943 -0.18585542 -0.18238547
000390 61 f3 a8 3d 85 45 8b 3e 2d 0d 12 3e b5 39 a7 3d
       0.08249546 0.27201477 0.14262839 0.081653036
0003a0 96 b3 83 be de 58 63 be a7 c6 fd bc 7a 06 29 3e
       -0.2572295 -0.22201869 -0.030978514 0.16506377
0003b0 7b 65 9b bc 98 ad 05 bd de e8 93 3d b7 eb ed bc
       -0.018969288 -0.032636255 0.0722215 -0.029043062
0003c0 e1 e3 d2 3d 3e 9f 0e 3d 1e b9 49 be d5 27 d2 bd
       0.10297371 0.034819834 -0.19699523 -0.102615036
0003d0 a1 fa ba 3d d0 26 cb 3d 0c 60 d4 3b 03 96 25 bd
       0.09129835 0.09919512 0.0064811762 -0.040426265
0003e0 c7 6f b4 be 7d 81 8f 3d b3 30 16 bd 13 07 16 3e
       -0.3524153 0.0700712 -0.036667537 0.14651136
0003f0 e9 6f 06 be b9 95 36 3d 96 66 fd 3d f2 c0 71 be
       -0.13128628 0.04457638 0.12373082 -0.23608759
