Assets/TFModels/Other models trained in the process/Striker2_selfplay3_curious_1M.onnx (onnx, 911175 bytes, 9 tensors)

action_model._discrete_distribution.branches.0.bias f4 [5]
000000 9c b1 01 bd 59 05 90 3d f1 28 a3 bc cb 48 e8 bc
       -0.031663522 0.0703227 -0.019916983 -0.028355023
000010 9a 07 5b 3a
       0.000835532

action_model._discrete_distribution.branches.0.weight f4 [5, 256]
000000 05 6d 8a bd cb a2 b1 bb 85 3a a3 bc 30 db 41 bd
       -0.06759075 -0.0054210178 -0.019925365 -0.047328174
000010 77 41 de 3d 75 13 29 3e e2 0b 19 bc d2 4d c7 bd
       0.1085233 0.16511329 -0.009341212 -0.0973164
000020 92 f5 9e 3d 62 c2 a0 3b bb 52 9b bd 4b de 97 3b
       0.077616826 0.0049059847 -0.07584139 0.0046346537
000030 91 c0 bc 3d f4 fe ad bd 5f d4 5f 3c 85 14 20 3d
       0.092164166 -0.08495894 0.013661473 0.03908207
000040 f2 1f 17 bd 8b 87 ed 3d e2 1b 8b bb a9 b9 50 3d
       -0.0368957 0.115981184 -0.0042452672 0.05095831
000050 8d 74 15 be 7b dc a8 bc 65 2e 24 bb e2 23 ca 3c
       -0.14595242 -0.020612946 -0.0025052067 0.024675313
000060 9a 89 ed 3c 7b a4 42 3c 80 b3 a3 bc 6b 08 02 be
       0.028996278 0.0118800355 -0.019983053 -0.12698524
000070 e1 fe 10 3c 52 9d 59 bc b6 18 4e 3c 32 f9 98 bd
       0.00884983 -0.013282137 0.012579134 -0.07469405
000080 90 6f 90 bd cd 24 02 3d e2 d8 04 3e e7 48 a3 3d
       -0.07052529 0.031773377 0.12973359 0.079728894
000090 f0 bb dd 3d c5 7e b7 3c 77 10 96 bd e0 b0 62 3d
       0.10826862 0.022399316 -0.07327359 0.055344462
0000a0 1b 64 fa bc 2b fc 3d 3d 1a ea 7d 3d 07 6f c0 3d
       -0.030565312 0.046383064 0.061990835 0.09396177
0000b0 fc 2a 30 3d c4 5e 98 3d 21 8a bf 3d 7a 2c 02 bd
       0.043009743 0.0743995 0.09352518 -0.031780697
0000c0 e1 85 6c bd d6 6e 74 3d 19 b1 03 be ad 8b 0e 3e
       -0.057744864 0.059676014 -0.12860526 0.1392047
0000d0 a0 8a 96 bd 90 9d 85 bc cd 87 09 bd a9 2f ea 3c
       -0.07350659 -0.016310483 -0.033576775 0.02858718
0000e0 4f da 9d bc 56 ab 3a bd 70 fd d8 bd e7 18 14 be
       -0.019269137 -0.045573555 -0.10595214 -0.14462624
0000f0 1f 51 3e 3d 62 9d 8f bc 9a 95 50 3d d8 ac 0d bd
       0.04646408 -0.0175311 0.05092392 -0.034588665
000100 3a 64 10 bd 38 c1 77 3c 07 8d 84 3d b6 1a 16 be
       -0.035251833 0.0151217505 0.06472211 -0.14658627
000110 0a 41 6b bd 30 61 21 bd 62 8b 0b 3e 5b 4d 7b 3d
       -0.057435073 -0.039399326 0.13627389 0.06135307
000120 43 ee c2 3c 79 30 69 bd b5 d8 57 bd 39 33 84 bd
       0.023795253 -0.056930993 -0.052696902 -0.064550824
000130 c7 41 00 bd de ab c2 3d ad 99 e7 b9 19 a8 18 3d
       -0.03131273 0.09505437 -0.0004417425 0.037269685
000140 b1 23 a7 3d b1 a6 b0 b8 f9 dd a8 3c 55 ba 68 be
       0.081611045 -8.423383e-05 0.020613657 -0.2272733
000150 51 b1 b8 bd a0 fb f4 3d 01 bf 52 bb dd 17 a8 bd
       -0.090181954 0.11962056 -0.0032157304 -0.082076766
000160 75 8d 13 3d 7c 86 33 3e 6c fd 0f 3c ba 19 b3 3c
       0.036023576 0.1753177 0.008788448 0.021862853
000170 4c 08 92 3c 79 d3 a0 bd d9 08 2f bd 90 b9 7b bd
       0.017826222 -0.07852835 -0.042733047 -0.061456263
000180 3d 2d 94 3c 89 11 f9 bd fe 90 2b 3d bb 77 2e 3d
       0.018087978 -0.12161548 0.041886322 0.042594653
000190 03 e1 16 3e 72 b7 85 3c c7 c6 a8 bd 85 09 55 3b
       0.14734273 0.016322825 -0.08241039 0.0032506895
0001a0 27 40 a8 bd ee bc 91 bc 9c 89 d1 bd 64 24 27 bd
       -0.08215361 -0.017790284 -0.10231325 -0.04080619
0001b0 76 3f 7a bd 38 f6 0c 3d aa 25 34 bd 0b 3c 29 bd
       -0.061095677 0.0344145 -0.04398123 -0.041317027
0001c0 77 41 05 be a2 69 fc 3c c0 6d 9c bd 78 82 a1 3a
       -0.13013254 0.030812088 -0.07638121 0.0012322208
0001d0 9c d6 37 3c 35 45 c3 bd 6c 0d c3 3d a8 df 89 bc
       0.0112206 -0.095346846 0.095240444 -0.01683028
0001e0 59 20 5a 3c 4b 0b 62 3d c3 87 9f bd 92 66 31 bc
       0.013313376 0.05518655 -0.07789566 -0.010827677
0001f0 2f f3 b3 bc cb fe d0 3c b8 8f d4 bc ce c0 68 3c
       -0.021966545 0.02551212 -0.025947437 0.0142061245
000200 dc a6 28 bc 08 d6 59 bb 89 69 a3 3b 6a 90 9a bc
       -0.010293689 -0.0033239145 0.004986946 -0.01886769
000210 8f c4 a3 3c cd f2 cf 3d 46 d0 d5 bd 5e 13 00 3d
       0.019991187 0.101537324 -0.10440116 0.03126847
000220 77 f7 f3 bd 2a 2a ce bd 00 bf 5a bd d8 2a 62 3c
       -0.119124345 -0.10066636 -0.053404808 0.01380416
000230 09 e5 5a be 30 c6 e2 3c ec 18 19 3d 76 e7 f7 bb
       -0.21376432 0.027682394 0.037377283 -0.007565434
000240 1a d0 01 3e dc a0 6f 3c 07 bd 9e bd 86 f7 40 bd
       0.1267704 0.014625754 -0.07750898 -0.047111057
000250 e7 d1 13 be 01 1a 1f 3d c2 1b e4 bc 2e 84 4b bb
       -0.1443554 0.03884316 -0.027845267 -0.0031054127
000260 42 1d 80 3d ed 2a 27 bc c7 76 fd bb 3b 90 ae 3d
       0.062555805 -0.010203105 -0.0077351066 0.085236035
000270 40 d3 02 bd 96 93 5f bd f6 38 fe bd ca 00 55 3d
       -0.031939745 -0.05458411 -0.12413208 0.052002706
000280 bb e8 97 bc 5d f8 75 3c 78 0c 0d be 9c 08 e5 39
       -0.018543592 0.015012828 -0.13774288 0.00043684698
000290 e0 4d 7c bc 79 0b 05 bc 2b 89 bd bd 41 06 92 3d
       -0.015399426 -0.008120411 -0.09254678 0.07130099
0002a0 97 46 ff 3d fb 06 d9 bc 7e 18 c3 3d bb 06 d6 3d
       0.12464636 -0.026492586 0.09526156 0.104505025
0002b0 de 9b 81 3d 49 bd 95 bb f6 f1 2e bc cb 55 bf 3a
       0.063285574 -0.0045696837 -0.010677805 0.0014597712
0002c0 6d 2c e0 bd 3e 5b 12 be 4a 3a 3b bb 03 54 8b 3d
       -0.109459735 -0.14292619 -0.0028568679 0.06803133
0002d0 93 a8 96 3d 60 26 c3 bc 66 46 df bd 0b 4e 1b 3d
       0.07356372 -0.02382201 -0.10902099 0.037916224
0002e0 c8 59 45 3d 2b 71 0c bd 18 de 59 bd aa c8 be bc
       0.048181325 -0.034287613 -0.05319032 -0.023289043
0002f0 91 f2 a7 3d 50 58 71 3d 81 f8 19 3d 88 69 09 bd
       0.08200563 0.058922112 0.037590507 -0.033547908
000300 c2 66 36 3a f8 32 1f 3d c2 a5 50 bc ae 98 4c 3d
       0.0006958061 0.038866967 -0.012734832 0.049950294
000310 48 46 cd 3d 76 d3 90 bd d8 8d 23 3d 69 e4 a4 3d
       0.10023171 -0.07071583 0.039930195 0.08051378
000320 da 8c 23 bd 11 c0 96 bd 7a d6 4f 3c b1 02 53 bc
       -0.03992925 -0.073608525 0.012685413 -0.01287906
000330 4b 6c 6f 3d 7c 76 9b bc 1f ea 04 39 94 5b 25 3c
       0.058452886 -0.018977396 0.00012675718 0.010092635
000340 54 79 23 bb 50 0a 0f 3e fe 7c c1 3c e5 c8 7f 3c
       -0.0024944143 0.13968778 0.023619171 0.015611862
000350 91 a0 37 3d 49 69 01 bd 01 34 b1 bc 8d ec 15 3d
       0.044830862 -0.03159455 -0.021631243 0.036602546
000360 ce 00 02 be 9b f5 00 3d da 3e e9 3c dd fb 44 bd
       -0.1269562 0.031484228 0.028472353 -0.048091758
000370 3d b4 61 3d c8 4a 91 bc f1 4e 58 ba 5e 62 32 3c
       0.05510353 -0.017735854 -0.0008251509 0.01088771
000380 f3 b1 d5 bd d9 45 aa 3c 78 8e 47 bd c6 26 03 3d
       -0.10434332 0.02078526 -0.048719853 0.0320194
000390 ea b3 2f 3c e1 40 be bc 8f ef 65 bc fa dc 9a bd
       0.010724047 -0.023224296 -0.014034166 -0.07561679
0003a0 1d cd 6d 3c 24 c9 0c bd e3 44 bf bc 14 b1 d1 bd
       0.014514235 -0.03437151 -0.023348277 -0.10238853
0003b0 55 bb fa bc a6 32 8c 3b 7a 36 99 bd 06 5d 31 3d
       -0.030606905 0.0042784987 -0.07481094 0.043301605
0003c0 8a 62 0c 3c f7 ca b8 bd 23 02 9b 3d f9 86 80 bd
       0.008568415 -0.090230875 0.07568767 -0.06275744
0003d0 29 27 f2 3d 2f dc 91 bb be fb c5 bd c0 6f 81 bd
       0.118238755 -0.0044512968 -0.09667157 -0.06320143
0003e0 e5 1b 8c bd 24 89 7e b9 e0 1c 70 bd 0d 4f 48 bd
       -0.06841258 -0.00024274417 -0.058621287 -0.048903514
0003f0 b4 0c 1b bc 2a 3b ae bd 0e 15 a2 bc 12 df 70 bd
       -0.009463478 -0.085073784 -0.01978543 -0.058806486

action_model._discrete_distribution.branches.1.bias f4 [3]
000000 cf 6b 0a 3d ee c2 42 bd f0 a5 d9 3b
       0.03379422 -0.04754918 0.0066420957

action_model._discrete_distribution.branches.1.weight f4 [3, 256]
000000 bb 4e 87 3d 7a 8f ab 3d fb 44 a5 3c 68 94 16 be
       0.066068135 0.08376975 0.020174494 -0.1470505
000010 77 20 8f bd d5 8d 91 bd e7 3a 5b 3d c9 f4 dd bd
       -0.06988614 -0.071071304 0.05352297 -0.10837705
000020 43 a8 29 bd 5f c3 9e bd 5c 49 19 3d 37 ef 77 bd
       -0.041420233 -0.07752108 0.037423477 -0.060530867
000030 1d 31 ed bd 99 57 17 bd 13 d4 68 bc 62 4a 6b 3d
       -0.11581633 -0.036948774 -0.014210719 0.057443984
000040 eb 70 ad 3c da 20 4d be f2 68 b8 3d ec 20 05 3d
       0.021172008 -0.20032063 0.09004392 0.0325021
000050 f9 d6 54 bd 14 09 9b bd 03 ae 46 3d 27 d4 cb 3d
       -0.051962826 -0.07570091 0.048505794 0.09952574
000060 c9 f2 68 3d c6 8c 02 bd 0f 1a b7 3d 14 f5 1e bb
       0.056872163 -0.031872533 0.08940517 -0.0024254965
000070 be db 9b 3b c6 2e 23 3d 55 b0 8e 3d c9 59 29 3d
       0.00475642 0.03983953 0.069672264 0.04134539
000080 df da b5 3c 9f 02 76 3d 32 57 ea 3d d3 73 55 bd
       0.022199092 0.060061093 0.114424124 -0.05211241
000090 ad fb 9f 3d de 49 2d bd ec 95 91 3c 54 43 1f 3e
       0.07811675 -0.042306773 0.017771684 0.15553027
0000a0 3c 5f e4 bc 45 9d 1c 3d cb f5 8e bd 5f 1d d0 3d
       -0.027877443 0.03823592 -0.06980475 0.10161852
0000b0 52 7f 9b bd 94 b6 88 bd b8 30 05 3c f0 9b 83 bc
       -0.07592644 -0.06675449 0.008129291 -0.016065568
0000c0 fd ca 62 bd d9 1d 1c 3e 16 0a 84 3c f0 fc ba bd
       -0.055369366 0.15245761 0.01611809 -0.09130275
0000d0 d6 cc bb bd f2 94 e1 3c 76 e4 47 3d 95 a3 0b bc
       -0.09169929 0.027536843 0.04880186 -0.008522888
0000e0 f6 eb bc 3b 31 5b c7 bd ad b9 70 3d 05 f9 c7 3c
       0.0057654334 -0.0973419 0.058770824 0.024410734
0000f0 3c ed e3 3d 97 38 bd 3d 8c fb 71 3d af 55 44 3d
       0.11129233 0.09239309 0.059077784 0.047933277
000100 32 b5 cc bc 0e 6d d0 3d 3c ac fe bc ac 2e af bc
       -0.024988744 0.101770505 -0.031087987 -0.02138456
000110 ce 41 1b 3d 56 e3 73 bd eb 71 cf bb e9 55 2c bd
       0.037904553 -0.059542976 -0.0063307188 -0.042074118
000120 27 98 be bd 95 a9 d3 3d 6e f0 15 bd 95 f3 75 bc
       -0.093063645 0.103350796 -0.036606245 -0.015011688
000130 79 0d 9c bd d7 c4 ca 3d 0a fd 89 bd 46 92 9b bd
       -0.07619757 0.099008255 -0.067377165 -0.07596259
000140 0f be 0e be 3e c9 ae bc 1c 30 c5 bd 61 a8 10 3d
       -0.13939689 -0.021336194 -0.09628317 0.03531683
000150 31 ca 22 3d da 08 bd bc 91 88 e2 3d 37 48 ee 3c
       0.039743606 -0.02307551 0.11061204 0.02908717
000160 2d 2c f3 bd 22 79 93 3c 1e f4 7e bd 31 ba 9f 3d
       -0.1187366 0.018002097 -0.062244527 0.07799185
000170 f8 15 03 be c7 a4 69 bd 92 31 c1 3d 3d 79 62 3d
       -0.12801349 -0.05704191 0.09433283 0.055291403
000180 fc b5 80 bb 97 df 12 be f1 5d f4 bc 07 cc 65 3c
       -0.003927944 -0.14343105 -0.029829951 0.014025695
000190 64 6a 6f bd 3f 98 b1 bd a2 15 c4 bc b5 fe b9 bc
       -0.05845107 -0.08671617 -0.023936097 -0.022704462
0001a0 67 fc 9d 3d dc 31 61 bd b6 93 f4 3b df 7d 8c 3d
       0.077141576 -0.05497919 0.0074638976 0.068599455
0001b0 3f 66 d9 bd 11 90 0a 3c 1e a8 ee bc 61 fb 06 bd
       -0.10615205 0.0084572 -0.029132899 -0.032954577
0001c0 6b 1e 65 3d ee 38 01 be 05 d6 09 bc 60 81 4f 3e
       0.055937212 -0.12619373 -0.008412843 0.20264196
0001d0 d6 11 34 be 5e f3 15 3c f8 17 2c bd a2 f2 d4 ba
       -0.17584929 0.009152262 -0.042015046 -0.0016246627
0001e0 a8 77 05 3d 8d 95 01 be 63 37 84 bc c7 4c 40 3d
       0.032584816 -0.12654705 -0.016139692 0.04694822
0001f0 f0 35 df 3c 3e b5 14 3d a5 5a 4e bd 51 b9 f2 3d
       0.0272474 0.03630566 -0.050379414 0.118517525
000200 18 1f 4e bd 40 69 2a bd 60 1a 70 bc f0 ee 6e bb
       -0.050322622 -0.04160428 -0.014654726 -0.0036458336
000210 f0 54 3e bd 88 8f b8 bc 54 fc 25 3d 3f 36 93 3d
       -0.04646772 -0.022529379 0.040523842 0.07188081
000220 17 90 c1 3c 94 3f 82 bd 14 3c e9 bc 82 1f bb 3c
       0.023628278 -0.06359783 -0.02847103 0.022842173
000230 b2 ec e7 3c 07 e3 05 3e a0 78 06 3d c6 c2 0a be
       0.028311107 0.13074885 0.03282988 -0.13550863
000240 b2 ce b4 bc 53 b3 5d bd 28 f8 0d bd eb ce 35 bd
       -0.022071216 -0.054126095 -0.03466049 -0.044386785
000250 fe f5 1a bd a4 f1 d7 3d 10 b1 96 bd 4d a9 c5 bd
       -0.037832253 0.10544136 -0.07357991 -0.09651432
000260 7d 71 e9 3d 66 48 f3 3a 60 47 ea bc cd 60 f9 3c
       0.11398599 0.0018561005 -0.028598487 0.030441666
000270 3f 74 0a bd ee c6 5f bd 47 74 d3 3a cc 37 a3 bc
       -0.033802267 -0.054633074 0.0016132676 -0.019924067
000280 1a ee b8 3d 1f 75 6a bd 0d b0 83 bd c9 46 73 3c
       0.09029789 -0.0572406 -0.064300634 0.014848419
000290 c8 51 ee bd 39 74 87 bd 74 50 9d 3c 98 b6 7a bd
       -0.11636692 -0.066139646 0.019203402 -0.06120929
0002a0 a5 b0 d3 bc 17 d8 78 3d c3 69 86 3d 05 d9 08 3e
       -0.025841067 0.060752954 0.06563141 0.13364036
0002b0 ef 52 cc bc 53 f9 02 3d 84 5f c8 bc df 9d b3 bd
       -0.02494189 0.031976055 -0.024459608 -0.08770346
0002c0 9c d4 81 3d 77 8b f9 bb 68 b8 a4 3d fd 0a 14 3d
       0.0633938 -0.0076155025 0.08042985 0.03614329
0002d0 42 bf 35 bc 56 e1 46 bc df 5a d0 bc 90 68 45 3d
       -0.011092963 -0.012138685 -0.025433956 0.04819542
0002e0 c6 d4 a8 3c d3 28 58 3c c7 ee 81 3d c1 49 cc bc
       0.02060927 0.013193327 0.06344371 -0.024937512
0002f0 9b 58 c6 3d f9 0d 98 3d c4 85 16 bd a6 de df 3c
       0.09684869 0.0742454 -0.036748663 0.027327847
000300 b4 9c d0 bd 77 1e c0 3d 22 91 3e 3a 95 63 69 3d
       -0.10186139 0.09380811 0.0007269551 0.056979734
000310 44 46 da bd 2b d4 7a 3c 2c 83 cf 3a 5f 07 ff 3c
       -0.10657933 0.015309374 0.0015831939 0.031131444
000320 4e f2 cc bd a8 46 5f bc f1 bb da bd 7f 30 00 3d
       -0.100071535 -0.013627686 -0.10680378 0.03129625
000330 0d 65 8e bd be dd cd bc 63 57 9f bd cd 5e 13 3d
       -0.06952868 -0.025130149 -0.077803396 0.03597908
000340 ea 58 ae 3d 57 d0 7d bd 98 15 43 bc 72 df 9a bc
       0.08513053 -0.061966266 -0.011907004 -0.018905375
000350 bd b1 ac 3d 39 61 17 bd ad 11 46 bd 31 8e 68 3d
       0.084323384 -0.036957953 -0.0483567 0.05677623
000360 7e a3 84 bd fe 76 1c bd 58 a4 a5 bc c9 b3 e4 3c
       -0.06476496 -0.038199417 -0.020219967 0.02791776
000370 72 ef f4 bd a8 b2 00 bd a4 d6 6f bb a9 fd 0f 3c
       -0.11959733 -0.03142038 -0.0036596442 0.008788505
000380 f6 1d c9 bc 2a ff 1a 3c a7 fb 3e be 5d 38 1c 3d
       -0.02455042 0.00946025 -0.18650685 0.03813969
000390 a0 75 d0 3d 11 37 2b bc 8f ac 71 bb 3f 0f 8f 3d
       0.10178685 -0.010450141 -0.0036876535 0.0698533
0003a0 b5 ea 1a 3e 2d 03 bb 3c e5 ae 9b 3b 02 27 4e 3c
       0.15128596 0.022828663 0.0047510737 0.012582542
0003b0 0c fd b9 3d e2 38 95 3d fc 5b bb bd 7c 1f fd bc
       0.09081468 0.0728624 -0.09148404 -0.030898802
0003c0 cb 57 b5 3d bd 72 bf bc 58 95 ee bc c5 99 8c bd
       0.08854636 -0.023370141 -0.029123947 -0.06865267
0003d0 63 e5 04 3e 6e 72 65 3d 1b 15 2f be 05 a6 90 bd
       0.12978129 0.05601733 -0.17097895 -0.07062916
0003e0 1d 0a 99 3c d1 b8 d1 bd b1 bc 86 3b 79 46 e4 bc
       0.01868158 -0.10240329 0.0041118492 -0.027865635
0003f0 2e 02 35 3d 50 af 2a bd 37 16 55 3c 95 25 8f bd
       0.04419153 -0.041671097 0.013005785 -0.0698959

discrete_action_output_shape f4 [1, 2]
000000 00 00 a0 40 00 00 40 40
       5.0 3.0

network_body._body_endoder.seq_layers.0.bias f4 [256]
000000 68 f9 b7 3c 62 ac 9c 3d b0 ba b4 3d fb 01 61 b9
       0.022457793 0.07650067 0.0882467 -0.0002145841
000010 18 b5 bb bd 7c ec aa 3d 92 52 bf bc 9a 50 b7 bd
       -0.091654 0.08345887 -0.023354802 -0.089509204
000020 f6 c5 66 3d d3 44 95 3c 5c 50 7b bb 5f 75 c6 39
       0.056341134 0.018221295 -0.0038347458 0.0003785295
000030 c2 df 04 3c fe f3 3f 3d 77 ff 9b 3d a0 2c 93 bc
       0.008109989 0.04686355 0.076170854 -0.017965615
000040 ac 76 20 bb 07 6d 95 bc ae 7c 21 bc a5 f3 27 3d
       -0.0024484796 -0.018240465 -0.009856386 0.041003842
000050 87 c4 71 bd 41 6a 33 3d 2d b8 b9 bc ff 94 73 bd
       -0.059025314 0.043802503 -0.02267083 -0.059468266
000060 31 b4 fa bd 04 d9 07 be 6a 0f ad bd f2 7c b4 bc
       -0.122414 -0.13266379 -0.084502056 -0.022032235
000070 79 3b 88 bc 41 b9 d2 bb 1f 17 ff 3d 6f ec 20 3c
       -0.016629921 -0.0064307754 0.12455582 0.009821995
000080 53 22 ae bd 63 1e ee bc bc a7 c2 3d 25 80 1b bc
       -0.085026406 -0.029067224 0.09504649 -0.009491001
000090 70 7c ae bd 4e d8 08 3d 3e 39 fc bc 72 61 98 bd
       -0.08519828 0.03340941 -0.030789014 -0.07440461
0000a0 3d 03 2e bd 9f 3d ad 3d c8 5d ff bc c1 76 fa bc
       -0.042483557 0.08459019 -0.031172648 -0.030574204
0000b0 7b 77 7b bd 55 17 d5 bd 12 ce 3b 3c a5 24 c3 bd
       -0.061393242 -0.10404841 0.011462705 -0.09528474
0000c0 78 58 ab 3d d3 57 56 ba d4 e2 00 3c 4f 49 17 3d
       0.083664834 -0.0008176539 0.00786658 0.036935147
0000d0 80 7a e7 3c 65 96 aa bd d4 92 89 bd 65 c1 88 bd
       0.028256655 -0.08329467 -0.06717458 -0.06677512
0000e0 a7 57 a9 bc 6d 83 b5 bc 3c 00 85 3d 99 e1 b7 bd
       -0.020671679 -0.022157395 0.06494185 -0.08978576
0000f0 3c 88 24 bd 3a 20 8f 3d 4b b7 11 3d ac 08 5f bd
       -0.040168986 0.069885686 0.035575192 -0.05445163
000100 71 78 aa bd fc d2 da bc 1f 1f 6e 3d e7 10 aa bc
       -0.083237536 -0.026711933 0.05813515 -0.020760013
000110 65 ae ee bc 09 e5 6d 3d fc f0 93 bb 3b 21 d6 3c
       -0.029135892 0.058079753 -0.0045148116 0.026138892
000120 fe 4d 5c bb 96 99 b7 3d c9 b5 84 3d 19 77 de 3c
       -0.0033615823 0.08964841 0.06479985 0.0271564
000130 ca f7 04 3e 1f 10 71 bd 02 1b 96 bd da 19 4a bc
       0.12985149 -0.058853265 -0.0732937 -0.012335265
000140 e3 f4 60 3c 1d 09 9c 3c 60 50 38 3c f6 1a 61 bc
       0.013730261 0.019047314 0.011249632 -0.013739338
000150 de 03 24 3d 5a cd 99 bc b3 ff 49 bc 6d 08 57 bd
       0.04004275 -0.018774677 -0.01232903 -0.05249827
000160 d3 5f b4 3c 5b 41 23 3d ae 0c 70 bc 91 e9 b0 3d
       0.022018349 0.03985725 -0.014651461 0.08638299
000170 7f d0 19 3d e9 94 de 3c 50 d7 e7 bc 3c e5 70 3d
       0.037552353 0.027170615 -0.028300911 0.058812365
000180 d4 74 66 3d ce 19 ce bb 7b 1f 26 bd 8f 39 7c 3d
       0.05626376 -0.0062896973 -0.040557366 0.06157833
000190 d5 e7 2c 3d 8c 69 c7 3c d6 04 87 3d 73 ea 19 3d
       0.04221328 0.02434232 0.06592719 0.037577104
0001a0 e1 28 67 3b 70 25 6b 3d 39 6d 8a bd a5 f1 9b 3b
       0.0035272168 0.05740875 -0.06759114 0.004759031
0001b0 d5 79 4c 3d dc 99 2a 3c e1 c6 52 bc 88 eb 18 bd
       0.049920876 0.0104126595 -0.012864799 -0.037333995
0001c0 da 6c a2 bc 28 12 f1 ba 8e d1 32 3c 68 4c 28 3a
       -0.019827295 -0.0018392252 0.01091422 0.0006420077
0001d0 78 05 0e 3d ce 31 45 bd 2f 72 69 bd 04 d3 fc 3c
       0.034673184 -0.0481432 -0.05699366 0.030862339
0001e0 12 da 9f bd f1 b2 4a bd c1 fa a6 3c e6 f2 65 bc
       -0.078052655 -0.049487058 0.02038324 -0.014034962
0001f0 2e 16 8d 3d 21 6c 9d bd 02 9d 53 bc c0 1c ba bd
       0.06888996 -0.076866396 -0.012915852 -0.09087515
000200 42 63 d0 3b 60 47 76 bd 58 85 8e 3c 15 40 75 bd
       0.0063594887 -0.060126662 0.017397568 -0.059875567
000210 0c f6 43 3d 35 71 4f 3d f9 6f 60 bd 58 de da bd
       0.04784207 0.050645072 -0.054794285 -0.1068694
000220 cb d9 d5 3d 25 ed 95 bd 24 03 a2 3c 13 bc de 3d
       0.10441931 -0.07320622 0.019776888 0.10875716
000230 53 93 fd 3c 9c c7 b3 bc b5 27 57 3d dc d2 fb 3c
       0.030954039 -0.021945767 0.052528102 0.030740194
000240 b0 4f 07 3d f7 99 5a bc a0 e0 8f bd e2 67 9b 3d
       0.03303498 -0.013342372 -0.07025266 0.075881734
000250 5b 6f 64 3d a9 0f 2f bc 3d 1c 9b bd 91 99 ae b9
       0.05577026 -0.010684886 -0.075737454 -0.00033302282
000260 ec e5 36 3d ec 3f d7 bc 6e f8 3e bd b7 31 1b bd
       0.044652864 -0.026275598 -0.04662364 -0.03788921
000270 89 e2 14 3e 7c da cd 3d c5 d8 66 bc 09 4f 58 bd
       0.14539541 0.10051438 -0.014089768 -0.05280975
000280 c6 13 e2 3c c1 7a 83 bc a8 87 c4 3d b3 0b 20 bb
       0.02759732 -0.016049745 0.09596187 -0.0024421036
000290 29 e8 de 3d 34 da 57 3d aa 4c 03 bd 51 1a 6c 3c
       0.10884125 0.05269833 -0.032055534 0.014410571
0002a0 22 5b ae bb bd e4 9c bd 67 af e4 bb a5 fb 67 bc
       -0.0053209225 -0.07660816 -0.0069789174 -0.014159118
0002b0 41 dc 85 3c 7e a6 b9 bd 99 a4 a7 3d f1 82 66 bd
       0.016340377 -0.09064959 0.081856914 -0.05627722
0002c0 37 81 0c bd a4 8f 78 bc e9 fd ba 3d 73 cb 20 bd
       -0.034302916 -0.015170965 0.09130461 -0.039256524
0002d0 42 53 e6 bd e0 3d 90 bd 50 1a 41 bd b1 e3 23 bd
       -0.11246349 -0.07043052 -0.047144234 -0.040012065
0002e0 c2 5b 27 bc bc 57 04 ba 93 f2 4d bd f5 98 d3 38
       -0.010214748 -0.0005048474 -0.050280165 0.000100897545
0002f0 81 5a a5 bb ea be cd bd 06 81 89 3c be 96 86 3d
       -0.0050461893 -0.100461796 0.016785156 0.065717205
000300 02 61 06 3e 62 59 06 bd 13 ea 97 bc 43 c4 45 3b
       0.13122943 -0.032800086 -0.018544232 0.0030176796
000310 8a 26 05 3d 5b f9 c0 bd 2b e4 60 bd ed 5e 9a 3d
       0.032507457 -0.09422561 -0.054905098 0.07537637
000320 95 f7 02 bd d8 a0 56 bb 58 00 93 bd f9 ff 3e bc
       -0.031974394 -0.003274968 -0.071778 -0.011657708
000330 17 a6 8b bd f7 4b f9 3c f5 5e e6 3b c7 fe bd 3b
       -0.068187885 0.03043173 0.0070303627 0.005798194
000340 3d 6d 4d 3d 0b 64 a2 3d ca c9 b2 3d 14 52 39 3a
       0.050153006 0.07929238 0.087298945 0.00070694205
000350 5f a6 90 bd 13 28 ae 3d 3a 05 08 3d 40 71 00 3e
       -0.07062983 0.08503737 0.03320811 0.12543201
000360 b1 9a fe bb a7 1b 45 3d a3 82 ad bd cf a1 cf 3c
       -0.0077699055 0.048122074 -0.084721826 0.025345711
000370 e5 2e cd bd 14 85 5a 3c 67 be b7 ba 54 a2 a4 3c
       -0.1001871 0.013337392 -0.0014018536 0.020096935
000380 c8 33 29 3d 35 73 db 3d 79 97 29 bd 54 82 56 3c
       0.041309148 0.10715333 -0.04140422 0.013092596
000390 3c 56 61 3b 08 55 6c 3d 00 af fb bd 3d b5 06 3d
       0.0034383675 0.05769828 -0.12289238 0.032887686
0003a0 d5 93 40 bd 6f 0f a8 bb c6 b1 89 3d 11 aa 37 bd
       -0.047015984 -0.005128793 0.06723361 -0.044839922
0003b0 9e 3d dc bc eb 44 1a bc 7d 2b 0b bd e0 38 ca 3d
       -0.02688485 -0.009415845 -0.03397702 0.09874129
0003c0 cc 4b 08 3d 4a 1b 2f 3d 30 78 84 bd 51 b4 f8 3c
       0.03327541 0.042750634 -0.064682364 0.030359419
0003d0 3e fd 8e bd 52 d7 ca bd 02 a3 9d bd b7 ce ac 3c
       -0.06981896 -0.0990435 -0.07697107 0.021094663
0003e0 56 8c b1 3c 63 2c 95 bc 34 02 91 3d e2 9b 82 3c
       0.021673363 -0.018209642 0.07080498 0.015943471
0003f0 de 0f 10 bd cb b4 87 bc a4 a3 c5 bc 63 d7 ec bb
       -0.035171382 -0.016565701 -0.024125881 -0.0072278245

network_body._body_endoder.seq_layers.0.weight f4 [256, 621]
000000 f4 a7 19 ba 25 26 50 bd 01 4b 0f 3d 63 7b 65 3d
       -0.0005861514 -0.050817627 0.03498364 0.056025874
000010 88 60 2a 3e ee 18 f9 3d a0 59 30 be cf de be 3d
       0.16638386 0.12162958 -0.17221689 0.09319841
000020 90 48 41 3d bb a1 f0 bd 64 d8 fa bd 0d 7b 30 be
       0.04718834 -0.11749598 -0.122483045 -0.1723444
000030 74 1d 8a 3c 24 2d ec bc b8 30 f2 bd 79 c4 50 bd
       0.016859747 -0.028830118 -0.118256986 -0.05096862
000040 28 5f c4 bd 61 87 ed bb b5 8d 09 3e 04 60 d9 3b
       -0.09588462 -0.0072488044 0.13432963 0.0066337604
000050 97 19 33 bb ad 1f 1a bd be 1a bf 3d 8d e9 6a 3e
       -0.0027328485 -0.037627865 0.093312725 0.22940655
000060 84 ad 3a bd 56 31 4c 3e 23 4e 12 bd 07 87 bc 3d
       -0.045575634 0.19940695 -0.03571905 0.09205442
000070 d2 c0 26 3d a2 92 7d 3e 7e 51 d7 3d d4 76 0b 3e
       0.04071123 0.24762967 0.1051359 0.13619548
000080 93 5c 75 3d f7 43 90 3c 66 c7 9c 3d 6f 74 8d 3d
       0.05990274 0.017610533 0.0765522 0.069069736
000090 57 11 44 bd 2e b7 7b be f6 fa aa bd eb e4 e5 3c
       -0.0478681 -0.24581596 -0.08348648 0.028063258
0000a0 88 76 f9 3d c9 1a 39 be 46 32 dc bd e0 03 5f bc
       0.12180811 -0.18076624 -0.107517764 -0.013611764
0000b0 59 c1 49 3d cb 45 45 3e 38 7b f6 3c 26 a5 dd bd
       0.049256656 0.19264905 0.030088052 -0.10822515
0000c0 64 39 f2 3c 7f 0f a6 3d dc 51 11 be 6c f0 2d 3e
       0.029568382 0.081084244 -0.14191383 0.16986245
0000d0 49 84 e1 3d a7 fe 89 bc 2f 3c 13 be 1c b6 43 3e
       0.110115595 -0.01684506 -0.14378427 0.19112438
0000e0 79 80 f3 bd 75 13 77 bb e5 75 77 3c ae 3d 46 3b
       -0.118897386 -0.0037700806 0.015103792 0.0030249166
0000f0 57 a7 67 3d f8 b0 97 3d 3f 39 30 3d 4d 43 3c be
       0.056556072 0.07406801 0.043023344 -0.18385048
000100 10 b7 8e 3d 26 6d 5c 3e c6 0d af bd c4 88 59 3d
       0.0696851 0.21526012 -0.08547549 0.053108945
000110 1f c7 93 3e ad 57 0a be 2a f5 fd bc d9 88 b1 3d
       0.28862855 -0.13510008 -0.031000692 0.0866868
000120 90 38 58 3d 1f 00 50 be 2e cd 07 be c2 0f 8e bd
       0.052788317 -0.20312546 -0.13261864 -0.06936599
000130 af 98 06 3e b0 8c 9e 3d 4e f1 f4 3d df f1 c7 3c
       0.13144182 0.07741678 0.11960088 0.024407325
000140 50 6a 87 3d 83 02 81 3d a9 7c 3c bd d0 f7 05 bd
       0.066120744 0.06299307 -0.046017323 -0.032707036
000150 1f 1b ac 3d 2c 09 83 3d 5d d1 cb 3d 25 91 30 bd
       0.084036104 0.06398234 0.09952042 -0.04310717
000160 e6 6d 51 bd 44 b8 30 3d db 99 b0 bc 26 5c 09 3d
       -0.051130198 0.04314448 -0.021557739 0.033535145
000170 4f 2f 8b 3c a6 6e ff 3d 65 82 94 3d 88 3d b4 3c
       0.016990332 0.124722764 0.07251433 0.022001997
000180 ce 4f b6 bd 91 ba 26 bc 6c 3b 73 3d d3 77 c8 3d
       -0.0890194 -0.010176317 0.05938284 0.0978848
000190 d5 a7 0e 3e 38 74 8c bd f4 3a b9 bd 2d d4 2c bd
       0.1393121 -0.068581045 -0.090444475 -0.042194534
0001a0 11 53 15 bd b9 f4 bf bd f8 b4 80 bc e7 16 e4 3d
       -0.03645617 -0.09372849 -0.015711293 0.11137181
0001b0 71 6f 0b bd 2d 0b 2b 3d a1 b0 a4 3d 89 2b 43 bd
       -0.034041826 0.041758705 0.08041502 -0.04764894
0001c0 1c 75 cf 3d 70 63 60 3c 76 6a e5 bd e2 69 1e ba
       0.10129759 0.013695583 -0.112019464 -0.00060429994
0001d0 84 f4 36 3d 9e 78 c2 3d ca 78 65 bd 6b 2a cc 3d
       0.044666782 0.09495662 -0.056023397 0.09969028
0001e0 43 40 3c be 99 55 6b bc 73 f1 dc bc 21 a3 86 bb
       -0.18383889 -0.01436367 -0.0269706 -0.004108802
0001f0 cd 20 22 3c 89 83 dd 3d 73 52 75 bd 05 9e c7 3c
       0.009895516 0.10816104 -0.059893083 0.024367342
000200 03 29 ac 3c ca a5 77 3c b9 cb 3a bc ef 0d 77 3e
       0.02101565 0.015115211 -0.01140111 0.24126409
000210 1a 23 9c bc f6 d4 10 be 36 3a 30 3d d1 58 77 bb
       -0.019059706 -0.14143738 0.043024264 -0.0037742148
000220 19 8e 6b 3e f3 86 18 be 5f 30 c3 bc 4a 6e ff bc
       0.23003425 -0.14895229 -0.023826776 -0.03118052
000230 67 3f 1e bd 06 e2 c0 bd d4 45 01 3d 03 6d 75 3d
       -0.038634684 -0.094181105 0.031560734 0.059918415
000240 90 10 07 3d f0 92 e7 bd d1 c5 e2 3d 81 cd 80 bd
       0.03297478 -0.11307323 0.11072887 -0.06289197
000250 e1 16 30 3d b6 3b 1d 3e 38 6a 94 3c 41 3d 3f 3c
       0.04299057 0.15354809 0.018117055 0.011672319
000260 60 94 ba bc 5b e0 8a bd f1 79 ca 3d d6 46 64 be
       -0.022775829 -0.06781074 0.0988654 -0.22292647
000270 ab a7 0b bd 99 6b 68 bd e5 ff d0 bc 4b 22 de 3c
       -0.034095448 -0.056743238 -0.025512645 0.027115962
000280 c6 7b d0 bc 7c 9a 1f 3d ce b1 56 bd ee 55 11 3d
       -0.025449645 0.038965687 -0.05241566 0.03548234
000290 85 17 b2 3d b5 7e c3 ba 38 af 08 3e 8b c4 f6 3d
       0.08695892 -0.0014915081 0.1334809 0.12049206
0002a0 ca 2b d7 3a 92 2c fc bc 38 8d 16 bd 3b f2 0a 3e
       0.0016416248 -0.030782972 -0.03675577 0.13568966
0002b0 3e 7a 1d 3d 7b c1 36 be 72 7b 5a bb 8c 03 11 bd
       0.038446657 -0.17847244 -0.003333774 -0.035403773
0002c0 12 70 82 3e ff 8c 8a bc 44 c2 11 3e ab 84 79 3c
       0.25476128 -0.016912935 0.14234263 0.015229384
0002d0 9a fd 06 bc 50 14 16 3e 6a fe c5 bd 4a 82 d1 bd
       -0.008239174 0.14656186 -0.09667666 -0.10229929
0002e0 d3 c2 67 bd 80 d1 18 ba 94 df ca bc da af e6 3c
       -0.056582283 -0.0005829558 -0.024764813 0.028160024
0002f0 8e 2e 69 3d 5d 25 f0 3d 8a 6a 3d 3e 9d fc 94 3d
       0.056929164 0.117258765 0.18497673 0.07274745
000300 d6 65 26 be 09 c2 60 bb 35 33 5c 3d 4a 02 f5 bc
       -0.16249785 -0.0034295341 0.053759772 -0.029908318
000310 24 0a e2 3d 91 c4 3c bd 8d f4 84 bc 28 cb 47 bd
       0.110370904 -0.046085898 -0.016229892 -0.04877773
000320 64 d4 05 bc 25 b4 c9 bd 5a 0c bc bd f4 90 eb 3b
       -0.008168314 -0.09848813 -0.091820434 0.0071889106
000330 31 4b 13 bd 28 9f 96 3c 13 64 91 3d b6 22 25 3e
       -0.03596038 0.018386438 0.07099166 0.16126522
000340 c7 f1 13 be 51 bd 09 3e 96 aa c0 bd 83 28 c5 3d
       -0.144477 0.13451125 -0.09407537 0.096268676
000350 85 c8 4d bb a2 17 62 3c 33 d4 46 3d 2a 8c 8e bd
       -0.0031400037 0.01379958 0.048542213 -0.06960328
000360 4f 02 09 3e a3 46 05 3e 91 d5 9b bd e2 26 5a bd
       0.13379787 0.13015227 -0.07609094 -0.053259738
000370 1a f3 4f 3c d1 2a 68 3d 66 c3 17 3d 55 3a 7a bb
       0.012692237 0.056681458 0.03705158 -0.0038181741
000380 d1 d7 c2 3d f9 f5 13 3e 25 aa 2b 3d 14 ac 8d bd
       0.0951382 0.144493 0.04191031 -0.06917587
000390 eb 0a db bd 88 bf 27 3d 86 67 08 3a 16 e6 c4 3c
       -0.10695442 0.040954143 0.00052034145 0.024035495
0003a0 77 7c 6f bd 2f 78 c7 3d 74 e4 26 3e 1c 1a 4e 3c
       -0.05846831 0.0973972 0.16298085 0.012579467
0003b0 1c 93 79 be cb 42 ac bd 37 5d 39 be 5f 0a c0 3d
       -0.24372524 -0.08411177 -0.18101965 0.09376978
0003c0 5c 4f 41 3e 07 dd 33 bd 21 33 be 3d 84 fc 5c 3d
       0.1887793 -0.04391196 0.09287096 0.053951755
0003d0 49 fd 1e 3e 2a 2c 05 be 41 89 90 bc e4 5f 33 3e
       0.15526308 -0.13005129 -0.017643573 0.17517048
0003e0 df ba 0f 3c 22 fb f6 3c c5 d1 14 3c f0 21 21 3c
       0.008772581 0.030149046 0.009083216 0.0098347515
0003f0 f5 ac f5 3d d5 3c fd 3c fc 3c df bc a4 6d eb bd
       0.119958796 0.030912796 -0.02725076 -0.11495522

network_body._body_endoder.seq_layers.2.bias f4 [256]
000000 2c eb 9a 3c 6a 23 8f 3c a0 f3 01 bd 20 82 f3 bd
       0.018910967 0.017472941 -0.03172648 -0.11890054
000010 af e1 b6 3a 2e 0d 1b bd 17 86 fa 39 d1 98 b7 bd
       0.0013952757 -0.037854366 0.0004778362 -0.08964694
000020 93 9e b8 bd ea 73 f0 3c 16 10 d2 3c 41 15 61 bd
       -0.09014621 0.029352147 0.025642436 -0.05495191
000030 48 dd 96 bd 60 b8 d5 bd c8 99 89 bd 2c 31 f2 bc
       -0.07366425 -0.10435557 -0.067187846 -0.029564463
000040 3c 55 47 bd b0 67 04 be c0 29 96 bc fb aa 86 bd
       -0.04866527 -0.12930179 -0.018330455 -0.06575581
000050 27 12 4f bd 64 41 d8 bd bc 05 ab bc a8 d0 2a bc
       -0.05055442 -0.10559347 -0.020876758 -0.010425724
000060 b9 db d0 bc 6c dc f5 bd 11 bb 60 3d 87 37 f6 3c
       -0.025495397 -0.12004933 0.0548659 0.030055774
000070 5a 6b 7f 3b b5 b2 01 bd c4 0e 50 3d 1f 42 38 3b
       0.0038973899 -0.03166457 0.05079533 0.0028115583
000080 94 a3 ea bc 22 44 8b bb 87 b6 05 3d b2 6a 70 bd
       -0.028642453 -0.0042500654 0.032644775 -0.058695503
000090 00 00 e5 3c 21 03 b1 bd a2 f0 14 bd ea 79 61 3d
       0.027954102 -0.08643175 -0.036362298 0.055047907
0000a0 bd b1 15 bd 43 f2 d6 3c 4e a3 85 bd 10 23 93 3b
       -0.036546458 0.026238566 -0.065252885 0.0044902638
0000b0 3a 13 b4 bd 36 a6 6e bd ba 1a 31 bd fd 72 ab bd
       -0.0879273 -0.05826398 -0.04323838 -0.08371542
0000c0 04 57 9e bd e2 fc 34 3d b1 fb de bb 52 f0 67 bc
       -0.07731441 0.04418648 -0.0068049063 -0.014156418
0000d0 35 b8 3e bd a8 73 57 bd 57 22 3a 3d f0 19 d0 bc
       -0.046562392 -0.052600533 0.045442905 -0.025402993
0000e0 2f ee 57 bd 5c ce c5 bd d6 67 0a 3d f9 13 44 bd
       -0.052717384 -0.096585006 0.033790432 -0.04787061
0000f0 80 dd 0b 3d 55 cd e2 3c e0 ff 1f 3c fc 5e 6b bc
       0.034146786 0.0276858 0.009765595 -0.014365908
000100 94 2e c3 bd 17 51 54 3d 9a 69 c4 bd 2b a5 17 3b
       -0.095303684 0.051835146 -0.095904544 0.002313922
000110 17 0f 40 bd 3d 13 32 bd a2 e1 45 3c 22 6f 32 bd
       -0.04688939 -0.04347538 0.012077721 -0.043563016
000120 86 1e 5b bd 6d 3b bc 3c 77 b9 f0 bd 57 46 17 bc
       -0.053495906 0.022977555 -0.117541246 -0.009233079
000130 55 d3 cc bd fb 68 b5 3c b4 7c cf 3b 0d ac 71 bd
       -0.10001246 0.022144785 0.0063320044 -0.05900197
000140 2f 7f 30 bd bf c6 1e bc 94 a6 9d bd 54 72 1c 3d
       -0.04309004 -0.009690939 -0.07697788 0.03819497
000150 dd dc d9 3c c9 a6 22 bd ab e8 9d bb 3b 3b c4 3c
       0.026594574 -0.03970984 -0.004818996 0.023954025
000160 54 c3 8b bd 12 c1 27 bd c4 05 db bd 2f 0d a3 3b
       -0.06824365 -0.04095561 -0.10694459 0.004975937
000170 63 4b e6 bd 08 d6 65 bd 76 2d ab 3c 0e 3d 2f 3c
       -0.112448476 -0.05611232 0.0208957 0.010695709
000180 65 11 a0 bd 92 fe 92 bd a7 67 ba bd 43 cc 66 bd
       -0.07815818 -0.07177462 -0.09101801 -0.056347143
000190 27 d7 91 3c 9a 59 a5 bd dd dd fc 39 64 5b e5 bd
       0.017802788 -0.08073731 0.00048230487 -0.11199072
0001a0 a2 a2 d6 3c 72 cc 9b bd 25 2c 9f bd 65 78 00 bd
       0.026200596 -0.07607354 -0.07772092 -0.031364817
0001b0 95 f4 d4 bd da 2f a2 3b 09 2c 99 bd 97 4e d3 bd
       -0.10398213 0.004949552 -0.07479102 -0.10317724
0001c0 51 db 11 bd 9a 04 8b bd a9 08 18 bd ba d3 11 3d
       -0.035609547 -0.06787987 -0.037117634 0.03560231
0001d0 a1 ba b7 bd a2 54 a5 bd e3 59 d5 3c 3e 14 72 bd
       -0.089711435 -0.08072783 0.026043838 -0.059101336
0001e0 f9 a1 0a bd b0 5d 0d bd 2b 98 11 3b 91 38 da bc
       -0.033845875 -0.034513175 0.0022215943 -0.026638301
0001f0 4a 17 01 bd b1 07 05 bc b0 95 f1 bc a2 0b 6a 3d
       -0.03151635 -0.00811951 -0.029490322 0.05714
000200 6c 1a a3 bd 3c 66 15 be ff 98 1e bd fa 14 cd bd
       -0.07964024 -0.1458978 -0.038720127 -0.100137666
000210 6d 84 ef bd 41 78 93 bd 5a c0 37 bc c3 70 b9 bc
       -0.1169518 -0.07200671 -0.011215294 -0.022636777
000220 a2 bb 31 3c f6 0a 47 3c cb 6f 56 bd 1b b4 ad 3a
       0.010847958 0.012148609 -0.052352708 0.0013252528
000230 d7 31 59 3d e7 f5 6c 3d 60 71 d8 bc cc 3b 8c bd
       0.053026047 0.0578517 -0.026421249 -0.06847343
000240 89 1c 1c bd 38 bd c4 bc be bc 46 bc 75 f4 b9 bd
       -0.03811315 -0.024016008 -0.012129961 -0.090798296
000250 d0 e4 66 3b 8b f0 7b 3d c3 35 54 bd cf 7b b1 bd
       0.0035231598 0.061508697 -0.051809084 -0.08666193
000260 b1 aa 25 3d 74 38 20 be 30 3c a0 3a cb e8 a5 bc
       0.040445987 -0.15646535 0.0012224969 -0.020252606
000270 45 e1 4f bd b8 09 18 be f0 fa db 3b b8 81 8b bd
       -0.050751943 -0.14847457 0.0067132637 -0.06811851
000280 1b e9 ce 3c 10 0f 88 3c df be b1 bd f5 ce ca 3c
       0.025257638 0.016608745 -0.08678984 0.024756888
000290 86 6c c0 bd b3 44 09 be c1 51 85 bd 99 bb f5 bc
       -0.09395699 -0.13405113 -0.06509734 -0.02999668
0002a0 fc 9d 2f bd ef 2f 93 bd 82 8c 09 bc fb ed 48 3d
       -0.042875275 -0.07186877 -0.008395316 0.04905508
0002b0 6e 39 8b bc 6d f4 fb 3c 62 3d 8a bd d8 00 5c bd
       -0.016995158 0.0307562 -0.06749989 -0.053711742
0002c0 de f1 15 3d c3 33 45 3c b1 bc 0b 3d d5 53 4b 3d
       0.036607616 0.012036267 0.034115497 0.049640495
0002d0 4a e3 a7 bd c6 d2 54 bd ab 1d c4 bd 37 73 12 bc
       -0.08197649 -0.05195882 -0.09575971 -0.008938602
0002e0 2f c2 54 bd 14 67 91 bc 6e 01 d0 3c cd c0 34 bd
       -0.051943 -0.017749347 0.025391307 -0.04412918
0002f0 af 63 ad 3c 45 ae a2 bd 98 2f d9 bd 20 e6 58 bd
       0.021165697 -0.079433955 -0.10604781 -0.05295384
000300 3f 45 59 bd f8 db fe 3c f8 36 d6 bd 79 31 d2 3c
       -0.053044554 0.031110749 -0.10459703 0.025658356
000310 cd 8e a5 bd 9f ef bc bd db 98 2c bd d3 ea 13 bd
       -0.08083878 -0.092253916 -0.04213796 -0.036112618
000320 8a 47 9b bd 70 16 a4 3c 9f d7 c5 bd e9 9b e7 bc
       -0.07582004 0.02003023 -0.09660267 -0.028272586
000330 a4 9c 6c bd 2c 45 65 bd 77 7a c4 bd f6 a5 fa 3b
       -0.05776657 -0.05597417 -0.09593671 0.0076491786
000340 6d 13 94 3d 54 91 a0 3b b7 d0 88 bc f0 53 12 bc
       0.07230268 0.004900137 -0.016701085 -0.008931145
000350 52 95 1d 3c 9c c2 91 bc ce 7e 93 bd cd a0 4b bd
       0.00961812 -0.017792992 -0.072019204 -0.0497139
000360 7f db 8f bd 0e 52 06 be f0 01 95 bd 0b 39 8b bd
       -0.070242874 -0.13117239 -0.0727576 -0.067979895
000370 e8 4f ab bd ab 97 4c bd 60 fc 39 bd ce b8 02 3c
       -0.0836485 -0.04994933 -0.0454067 0.007978631
000380 2f 65 84 bd 30 c0 0c bd bf 89 12 be 5e 13 80 bd
       -0.06464612 -0.03436297 -0.14310358 -0.06253694
000390 ec 68 9c bb 7e 43 17 be 7d fc 99 3a fc 3f 85 3d
       -0.00477325 -0.1477184 0.0011748221 0.06506345
0003a0 2b 15 6f 3d 18 ba 5e 3c e9 a4 b2 bc b6 8c 1b 3a
       0.058369797 0.013594173 -0.02180715 0.00059337483
0003b0 ce 0f 89 3d b5 18 5b bd 8b f2 48 bd fc 22 bb bd
       0.06692468 -0.05349036 -0.049059432 -0.09137532
0003c0 b7 5e e6 3d cd fa 52 ba 17 8b 85 bd d2 f6 12 be
       0.11248534 -0.00080482365 -0.0652067 -0.14351967
0003d0 87 50 a7 3c 60 1a 39 3c 16 b9 d1 bd 63 62 72 bd
       0.02042414 0.011297792 -0.102403805 -0.05917586
0003e0 44 cb 05 3b 42 56 5a bd c6 de 89 bd 9d 40 07 3c
       0.0020415345 -0.053304918 -0.06731944 0.008255151
0003f0 ad ee 7b bd 60 cb 70 bd 6d f1 ae bc 47 32 d4 bd
       -0.061506916 -0.058787704 -0.021355355 -0.10361152

network_body._body_endoder.seq_layers.2.weight f4 [256, 256]
000000 72 24 b3 3d c6 37 70 bd be 23 bd 3d eb d2 0f be
       0.08747186 -0.05864694 0.09235333 -0.14045303
000010 ac 28 50 bd 71 a3 ab bd 17 28 3b be 2f ba 7e bd
       -0.050820038 -0.08380783 -0.18277012 -0.062189277
000020 2f 4c 7e bd 1b ba 53 be 12 85 ed bc 63 56 ef bd
       -0.062084373 -0.20676462 -0.028994117 -0.11686399
000030 f5 43 3f be 48 33 3e bd b9 3f 97 bd b0 38 80 be
       -0.18678267 -0.046435624 -0.07385201 -0.2504325
000040 c7 fd b3 3d d3 30 f5 bd f5 2d 1c 3e 98 d7 4a bd
       0.087886386 -0.11972203 0.15251906 -0.049522012
000050 2c 9e b0 bd ba 70 02 be cb a8 0b be 3c b9 51 bd
       -0.08623919 -0.12738314 -0.13638608 -0.051202044
000060 67 4a 20 bd b6 12 ad 3d 5a 64 62 bd b3 c2 07 3e
       -0.039133456 0.084508345 -0.055271484 0.13257866
000070 4d 68 06 be b9 43 4e be 32 55 c3 3c b3 d1 11 3d
       -0.13125725 -0.20143022 0.023844335 0.035600375
000080 19 2f 82 bd 6e d4 46 be 17 a4 95 be ec 1a 03 3e
       -0.063566394 -0.19416973 -0.29226753 0.12803239
000090 ec 97 fd ba 29 9a f6 3d 04 73 4e bc 3e 6b 21 bd
       -0.0019347644 0.120411225 -0.012600664 -0.039408915
0000a0 d6 74 61 bd f6 98 7c 3d b6 1b 85 bd 08 6f b6 3d
       -0.055043064 0.061669312 -0.06499426 0.08907896
0000b0 1e 73 6b bd 5d 6f 0f be ab 5a a2 bd 53 81 92 3d
       -0.05748283 -0.14007325 -0.0792745 0.07153573
0000c0 a1 df 89 be 38 2b 8b bd 2b 6c a0 bd 26 6f 92 3d
       -0.26928428 -0.06795353 -0.078331314 0.07150106
0000d0 03 7b 84 3b a3 a5 54 3d a0 e0 9a 3d 41 f4 8e bd
       0.0040429845 0.051915776 0.07562375 -0.069801815
0000e0 e3 31 84 3d b2 62 af 3d 6b e7 b9 bd 83 f1 7e bc
       0.06454828 0.085637465 -0.090773426 -0.015560511
0000f0 99 dc 8f be 2f 8a c7 3d 1d 69 0b 3d 63 eb 9b bd
       -0.2809799 0.09743153 0.03403579 -0.07613256
000100 e5 19 81 bd b9 f0 21 be ca a5 59 bd 88 cb 5c 3d
       -0.06303767 -0.15814485 -0.053136624 0.05390504
000110 f0 ba b6 3d 10 ec 58 3d c7 e4 1f be d6 fb 73 bd
       0.08922374 0.0529595 -0.15614615 -0.05956634
000120 bf 14 55 3d ca 45 87 be 7e b2 00 bd 54 3e 24 be
       0.05202174 -0.26420432 -0.031420223 -0.16039401
000130 c2 61 8f bc 46 4e 7e 3c 4c f2 2d bc eb 20 1e be
       -0.01750267 0.0155215915 -0.01061685 -0.15442245
000140 16 0f 08 be 68 9c 0b 3e 9f 50 dd bd 4e 0c 31 be
       -0.13287005 0.13633883 -0.10806393 -0.1728985
000150 54 a2 c9 3c e0 87 3e be d1 f7 9f bb 10 8b 07 bc
       0.024613537 -0.1860652 -0.004881837 -0.008272901
000160 76 4c 8f bd a7 38 3a bd f5 87 dd 3d 34 c6 57 bd
       -0.06997006 -0.045464184 0.10816947 -0.052679256
000170 ec 77 b1 bc 6c 05 f0 bd 44 63 91 bc 47 bc 7e bc
       -0.021663629 -0.11719784 -0.017747529 -0.0155478185
000180 46 aa 86 be 15 9c 54 3e 21 0c 83 bd 80 da 9d bd
       -0.26301783 0.20762666 -0.06398798 -0.07707691
000190 ab 38 71 3e c1 88 e7 bc 30 7a 0c be f8 ab 59 bd
       0.23556773 -0.028263452 -0.13718486 -0.053142518
0001a0 61 fc 36 bd 1d fc 55 3d e1 22 18 be a5 e0 d9 bd
       -0.04467428 0.052242387 -0.14857055 -0.10638551
0001b0 8d 3f 8e 3d 19 16 9b 3c 12 27 28 be c2 01 ea bc
       0.06945715 0.018931435 -0.16421154 -0.028565291
0001c0 1e 3c 06 be a8 ee 29 be 36 fa dd bc d7 e1 19 bd
       -0.1310887 -0.16594946 -0.027096849 -0.037568893
0001d0 69 fe 17 3d b1 99 eb bd 26 f5 e4 3d dd 9a 17 be
       0.03710786 -0.11503924 0.11179571 -0.1480517
0001e0 54 7e 87 be b1 cc 3b 3d 33 88 c1 3c b3 0c 39 3e
       -0.26463568 0.045849506 0.023624515 0.1807125
0001f0 dc d0 38 3d d7 e5 9c 3b dc e0 5a 3d 71 9b b4 bb
       0.04512106 0.004788141 0.0534371 -0.005511694
000200 c5 4c 11 3e f2 76 83 bd 35 31 0b be f0 43 54 bd
       0.14189442 -0.064191714 -0.1359299 -0.051822603
000210 c0 e0 45 3d be c2 5d be 31 c9 bd bd de 65 12 be
       0.04831004 -0.2165632 -0.0926689 -0.14296672
000220 ff e9 10 be 2c 45 7c 3d 07 47 d3 bd 75 6c 4a bd
       -0.14151762 0.061589405 -0.10316282 -0.04941984
000230 07 87 26 bd 5d 79 51 bd b6 85 2a be 6f 13 0c be
       -0.040656116 -0.05114113 -0.16652569 -0.13679288
000240 fe cd ac bd d5 4f 95 bd 2c a1 2e 3e 65 21 41 bd
       -0.084377274 -0.072906174 0.1705367 -0.047150988
000250 22 d9 e5 bd 22 ed 5b bd b4 f0 73 bd 33 f1 e9 bc
       -0.112230554 -0.053692944 -0.059555724 -0.028557396
000260 e5 a0 2f 39 de e0 16 be 76 a4 90 3d 31 1b e9 bc
       0.00016749238 -0.14734218 0.070626184 -0.028455349
000270 60 dd 31 be 35 3d b5 3d 29 07 f9 bd 53 f9 8f 3b
       -0.17369604 0.08849565 -0.12159569 0.0043937354
000280 d7 9d cd 3d 3e 14 68 be e9 64 82 bd 6b a9 df bc
       0.10039871 -0.22663972 -0.06366903 -0.027302464
000290 7d d8 fc bc 76 ce 46 3d a6 e6 cc bc 2a 46 2c bb
       -0.030864948 0.04853674 -0.025012325 -0.0026286938
0002a0 a0 50 3f be 74 d4 70 be af ba b5 3c 58 03 42 3e
       -0.186831 -0.23518544 0.022183744 0.18946588
0002b0 06 1f 4d bc 82 00 5f 3d 2d 7b 24 bd 99 32 29 be
       -0.012519604 0.054443844 -0.040156532 -0.16523208
0002c0 75 cd 0d bd 6f 2b 52 be 51 d6 75 bd ca c7 03 bd
       -0.034619767 -0.20524381 -0.06001884 -0.032172956
0002d0 f8 dd 14 3c fe 06 d0 bd 74 77 3f bd c2 4f 12 be
       0.009086125 -0.10157584 -0.04674478 -0.14288238
0002e0 c1 ac bb bd 24 18 f7 3d 9d b4 bd bd 7d 1d 86 be
       -0.091638096 0.12065151 -0.09262965 -0.26194373
0002f0 42 28 3c be ea 99 2b bd 4f 43 14 be e0 6b ea bd
       -0.18374732 -0.04189483 -0.14478801 -0.11446357
000300 7a 36 d1 3a 9e e9 81 bd 3f 46 3a 3e 23 09 eb bd
       0.001596167 -0.06343387 0.1819086 -0.11476352
000310 81 89 fe bd 2e f2 e6 3d f7 59 34 bd e9 7e 6c bd
       -0.124285705 0.11276661 -0.04403111 -0.05773822
000320 5f 17 3d bc 9c ed 92 bd 38 66 0e be d4 38 fc bd
       -0.011541217 -0.07174227 -0.13906181 -0.123155266
000330 c1 db 2b be ac 4f a1 bd 56 a4 86 3d 87 04 00 3d
       -0.16783048 -0.07876524 0.06574313 0.031254318
000340 64 65 00 3d 79 87 4c 3e 69 df 77 3e d9 49 d9 bd
       0.031346694 0.19973554 0.24206318 -0.106097884
000350 d2 2a e4 bc aa d0 ce 3d 1d 9e db bd 8d 56 23 3c
       -0.02785245 0.10098393 -0.10723517 0.009969366
000360 1b d0 f9 3d 00 ec fa bd 30 0e cb 3a 69 5e b2 bd
       0.12197896 -0.12252045 0.0015491899 -0.087094136
000370 b6 f9 48 be 40 e2 65 be 9c 90 20 be e3 ea e6 3d
       -0.19626507 -0.22449589 -0.15680164 0.1127527
000380 1d b0 7f bc de 0b 42 be b6 5b 17 bd 92 26 f7 bd
       -0.0156059535 -0.1894984 -0.036952697 -0.120679036
000390 f1 5c 32 be 7b 56 d6 bd 87 8e bf bd 44 66 10 be
       -0.17418267 -0.104657136 -0.09353357 -0.14101511
0003a0 93 98 e3 bd 77 a0 be 3d 87 9f 8c 3d 60 72 3a bc
       -0.111130856 0.0930795 0.06866365 -0.011379808
0003b0 a3 a3 23 be 45 e5 11 3d 66 06 c2 bc fa a8 b5 bd
       -0.15980391 0.03561904 -0.023684692 -0.0887012
0003c0 79 36 13 be 06 bd e5 3d 02 4d 4e 3e 9b fa c7 bd
       -0.14376248 0.11217694 0.20146564 -0.09764596
0003d0 26 0b 0c be 2d e6 cf 3c 02 4f 62 3e 3b 85 61 bc
       -0.13676128 0.025378311 0.22100452 -0.013764675
0003e0 9f 51 4b 3b db 18 b2 3d 6d 22 90 3d 04 e8 41 bd
       0.0031023992 0.08696147 0.07037816 -0.047340408
0003f0 93 d3 d6 3c 94 3e 44 be ed 3f f5 bd 41 05 fd 3d
       0.026223933 -0.19164497 -0.119750835 0.12354518
