Assets/TFModels/Other models trained in the process/Striker2-NOselfplay.onnx (onnx, 660452 bytes, 6 tensors)

action_model._discrete_distribution.branches.0.bias f4 [7]
000000 df 11 a2 3b 2e 50 81 3d 36 6d ba bc ff bc 17 3d
       0.004945978 0.06314121 -0.022757154 0.037045475
000010 de 30 05 3c 5a f2 d4 bd 4f da 1e bc
       0.008129327 -0.103977874 -0.0096956035

action_model._discrete_distribution.branches.0.weight f4 [7, 256]
000000 53 bc b7 3c aa 2d 04 3c 41 52 ff bd 84 23 6f bd
       0.022428667 0.008067528 -0.124668606 -0.05838348
000010 41 43 a3 bc 18 9f b7 3b cc f6 8e bc 54 31 ea bc
       -0.01992953 0.0056036822 -0.017451666 -0.028587975
000020 c7 6c f0 bb f4 fd 31 bb 36 a8 43 bc 8f 61 73 b9
       -0.007337186 -0.0027159424 -0.01194196 -0.0002321063
000030 ff 47 81 bc ad c1 c1 bd 97 be c9 3b ed 5a 00 bb
       -0.0157814 -0.09460769 0.0061567533 -0.0019585446
000040 fc 83 cc 3c 8f 79 e8 bc bc 40 71 3d da e5 73 3d
       0.024965279 -0.028378276 0.058899626 0.059545375
000050 5b a5 de 3b 73 2a 50 3d ee 13 fa ba c1 df bb 3c
       0.0067946143 0.050821733 -0.0019079426 0.022933843
000060 b0 67 0c bd 5b 4c ee bc d4 e0 29 bc 44 2a 21 3d
       -0.03427857 -0.029089143 -0.010368545 0.03934695
000070 42 08 a1 bd 08 bf ad bc aa 50 9d 3d 74 62 0e 3d
       -0.07862903 -0.021209255 0.07681401 0.03476186
000080 9d 20 53 be fc e6 a0 bc 4c 2c 06 bc 4b 6a c4 3c
       -0.2061791 -0.019641392 -0.008189272 0.023976466
000090 91 50 3b 3d 49 0f 4b 3d f6 1b 5d 3d 0e fe 2a bc
       0.04573113 0.049575124 0.053981744 -0.010436548
0000a0 18 7d c6 3c 0b 1e 16 3c ce 08 98 bd a9 7d 1e bc
       0.024229571 0.009162436 -0.07423554 -0.009673514
0000b0 aa d9 5b bd 38 c9 54 3b e3 da 85 3b 50 61 a6 bd
       -0.053674378 0.0032468569 0.004084931 -0.0812403
0000c0 5c 90 46 bb b3 bd a7 bc 3d 88 b7 bd 9b 4f 99 3c
       -0.0030298447 -0.020476198 -0.08961532 0.018714717
0000d0 5d 60 16 3d 05 95 0f bd a5 45 9e 3c e9 cf ad 3c
       0.036712993 -0.035054225 0.019320318 0.021217303
0000e0 b3 1a 99 bd 5c 2c 0e 3c 9a d3 07 bd a0 71 d5 3c
       -0.074757956 0.008677568 -0.033160783 0.026055157
0000f0 82 dd 2e 3c b7 d9 0a bd 24 1a a1 bc 16 5f 4a bd
       0.010672929 -0.033899035 -0.019665785 -0.049407087
000100 37 02 75 3c 04 47 b8 3c 9d 1d a4 3d de 8e 27 3d
       0.014954141 0.0224948 0.08013461 0.040907733
000110 e9 35 df 3c 2e c5 e5 bd a8 58 31 bd 34 d2 1d bb
       0.027247386 -0.1121925 -0.04329744 -0.002408159
000120 53 d3 60 3c f9 e7 d3 bc b8 97 be 3d c2 06 a4 bd
       0.013722259 -0.02586745 0.09306282 -0.080091015
000130 af ca 0e 3c 31 1e 8d 3c 34 0b 82 bc b6 d2 7a 3d
       0.008715316 0.01722631 -0.015874483 0.061236106
000140 db 81 88 bd 6c 8b cc b9 1e 72 97 bd 33 f8 8f bd
       -0.06665393 -0.0003901379 -0.07394813 -0.07029762
000150 4e 7c 44 bd 3c b7 96 bc ea cd 6e 3a 30 06 86 ba
       -0.04797011 -0.01839792 0.0009109663 -0.0010225233
000160 09 b5 78 3b 2d ee 0e bd c9 a5 5a 3c 3f d7 ef 3d
       0.0037949702 -0.03489511 0.01334519 0.11710977
000170 e2 a1 fb 3c 07 3f de bc 53 3f 5b 3c 47 32 46 bd
       0.03071684 -0.027129663 0.013381797 -0.048387792
000180 85 45 4f 3c 8a 07 8c bd 2c 14 e9 3b 9e 78 bb 3c
       0.012650852 -0.068373755 0.0071130004 0.022884663
000190 b1 ea ec bb fa 78 f3 bc 30 7d a4 3b 02 70 8b 3c
       -0.007230126 -0.029720772 0.0050198063 0.017021183
0001a0 95 5a b3 3c 36 d9 f7 bb 6d 25 9b bd 61 72 e6 3b
       0.021893779 -0.0075637354 -0.07575498 0.007032678
0001b0 c1 60 00 3d 27 99 08 3d a5 92 26 bd 71 e3 b0 bc
       0.03134227 0.033349182 -0.040667195 -0.021592828
0001c0 05 a1 22 3d 94 1a ee bd e4 2a c0 bc 3a 17 a0 3b
       0.03970434 -0.11626163 -0.023457952 0.0048855813
0001d0 5e 5e 02 3d 28 9e ea bb 15 09 93 bd b1 3c 27 3d
       0.031828277 -0.007159967 -0.07179467 0.040829364
0001e0 0c e3 1b bd 6f 3e 80 3c a1 3d 8c bd 4a 3d a1 bd
       -0.038058326 0.01565477 -0.06847692 -0.07873018
0001f0 e0 1b dd 3c 8e fb 21 3d 70 4f ff 3c eb cd 3c bd
       0.02699083 0.039546542 0.031165808 -0.046094816
000200 18 8e 69 3d 7a 3f 2d bb aa 78 30 3d ee 3a 82 bd
       0.057020277 -0.002643554 0.043083824 -0.06358896
000210 f6 4a dc 3a 83 bb 56 bd 7e a1 a0 bd d3 21 0e 3d
       0.0016807008 -0.05242492 -0.07843302 0.034700226
000220 a8 0b a8 bc 61 76 45 bd 5d 93 8f 3c 03 ca d7 bc
       -0.02051337 -0.048208598 0.017526323 -0.026341444
000230 9e 96 0f 3d e6 9d 76 bd f5 7c 0c bd 86 13 97 bd
       0.03505575 -0.060209177 -0.034298856 -0.07376771
000240 d3 1c a7 3c 61 58 57 3d 73 48 ff bd 6e 0b e1 3b
       0.020399487 0.05257452 -0.124649905 0.0068678176
000250 94 5a 9a 3c b5 16 e9 bc e1 06 4f 3d 0d 5e 1d 3d
       0.01884202 -0.02845321 0.05054367 0.038419772
000260 2a 38 ad ba 07 ab 23 3d 23 31 22 3d 99 21 4f bc
       -0.0013215591 0.039958026 0.03959764 -0.012642288
000270 7f 2a 3d bd ac 34 b4 bc a8 33 6f 3c bd 96 9d bb
       -0.046183106 -0.021997772 0.014599718 -0.004809229
000280 16 e3 4b 3c b7 26 c7 3c d0 1d 43 bd 9a d7 18 bd
       0.012444278 0.024310453 -0.047635853 -0.03731499
000290 d3 b4 81 3c e7 7a 5b 3c ca da 9a 3c c1 d4 fd bc
       0.015833294 0.013396001 0.018903155 -0.030985238
0002a0 89 a6 8e 3c 99 51 dd bb 70 0a 51 3d 08 94 2f bc
       0.017413395 -0.006754112 0.051035345 -0.010716446
0002b0 66 93 2c 3c 37 1d 1d 3d 89 03 59 bd 2f 03 38 bc
       0.010533189 0.03835794 -0.052981887 -0.011231228
0002c0 4a 9b 76 3c 55 2e 71 bc 43 93 9c 3c 81 2d 15 bd
       0.015051672 -0.014720519 0.019113189 -0.03642035
0002d0 f3 ef c3 bd 68 20 6f 3d 5c 71 bd 3c 33 f1 80 bd
       -0.09567251 0.058380514 0.023125343 -0.06296005
0002e0 98 06 9e bc b7 a0 4a 3d 0d 04 df bc 63 fb 40 3c
       -0.019290254 0.049469676 -0.027223611 0.011778685
0002f0 b5 82 32 bc 61 c3 50 3d bc a7 73 bb ee 34 8b 3d
       -0.010895421 0.050967578 -0.0037178835 0.06797205
000300 e8 da df bd cc 41 8d bd 4c ae c6 3b 9b 34 7a bb
       -0.10930425 -0.068973154 0.0060632583 -0.0038178328
000310 c6 08 35 3d 4a 99 f6 bc 2c 56 4c 3c 0a 18 18 3d
       0.04419782 -0.03010239 0.012471717 0.0371323
000320 07 cb 7b bd 49 da 5a 3d d5 d3 66 3b bb 04 41 3b
       -0.06147292 0.05343083 0.0035221477 0.0029452282
000330 74 a0 1b 3d 43 94 2c bd 1c 03 bf 3c 13 d4 63 bc
       0.037994817 -0.04213358 0.023316912 -0.013905543
000340 33 dc 11 3d 63 7c 0b bc c9 d6 51 3d 4f 0e d6 3c
       0.03561039 -0.008513543 0.051230226 0.02612987
000350 91 5a d4 bb 1e 00 3a bb 85 d7 c4 3c 4c 58 3e 3c
       -0.006480523 -0.0028381418 0.024028549 0.011617731
000360 5a 95 d9 bb 8a 72 c9 bd 4a fb 43 3d 94 92 a2 3c
       -0.0066401185 -0.098363 0.04784707 0.019845285
000370 01 90 15 3d d0 08 85 3d 16 4d 3b bc 78 b3 34 bd
       0.036514286 0.064958215 -0.011431953 -0.044116467
000380 6a 15 1b 3c 62 ce 8a 3d f3 e4 34 bc 6d dc 04 3d
       0.009465555 0.06777646 -0.011040914 0.032436777
000390 e2 16 04 be 9e 7e fa bc 9c a5 a3 bc 5c 85 93 bb
       -0.12899354 -0.030577954 -0.01997643 -0.0045019817
0003a0 aa 68 e5 bc fb ca 39 3d 02 73 00 3c 2f e3 a3 3b
       -0.02800401 0.045359593 0.00783992 0.0050014476
0003b0 a6 a8 54 bd a1 43 0d bd 04 f3 a6 bd 09 51 85 bc
       -0.05191865 -0.034488324 -0.0815182 -0.016273992
0003c0 7e 00 4b 3c e2 3c af 3c 60 54 12 3c 6f fd d2 3c
       0.012390254 0.021391336 0.008931249 0.025755612
0003d0 b1 1f f7 3b 0d 4a 83 bd 60 0a 55 3d 18 a3 88 3b
       0.0075416197 -0.064106084 0.052011847 0.004169833
0003e0 14 14 4a bd f7 01 bb 3c b9 b4 43 3d d2 4c 00 bd
       -0.049335554 0.022828085 0.047779772 -0.03132326
0003f0 68 a3 1a 3d 9f 96 1b bd 1b c0 98 3b 73 b8 72 bb
       0.037753493 -0.03798544 0.0046615726 -0.003703621

network_body._body_endoder.seq_layers.0.bias f4 [256]
000000 cc 4a 89 bb 74 23 1a bc ca 0a 86 bb 89 1c 02 3d
       -0.0041898247 -0.009407867 -0.0040906416 0.031765494
000010 a6 3e 01 bd 31 1c 49 bc af 43 b0 bc 93 b2 d6 3a
       -0.031553887 -0.012274788 -0.021516649 0.0016380124
000020 f2 09 93 3a 98 98 60 bb 4d 31 5c 3c 8d 25 37 3c
       0.0011218174 -0.003427064 0.013439489 0.011178386
000030 0d 3b a9 b9 0e a5 bc bc a3 4b f9 3a 0c e0 92 bc
       -0.00032278188 -0.023027923 0.0019019734 -0.0179291
000040 1f 12 94 bb 41 7a 82 bc 0f a9 44 3c fe f8 64 3c
       -0.0045187618 -0.015927436 0.012003197 0.01397538
000050 d6 05 80 bc 05 82 97 bb 4b a1 b1 bc fb d8 db 3c
       -0.015627783 -0.004623654 -0.021683356 0.026836863
000060 4f 0f fe ba b0 12 c9 bc c7 c7 dd bc 50 9e a0 bc
       -0.0019383224 -0.024545044 -0.0270728 -0.01960674
000070 37 87 6a bc 53 2d 80 bc a5 28 02 bd 3a 0d 57 bd
       -0.014314464 -0.015646612 -0.031777043 -0.05250285
000080 37 1d d3 3c 98 00 6b bc b0 0c bd 3b cc 70 a5 bc
       0.025770767 -0.014343403 0.0057693347 -0.020195387
000090 d8 37 c1 bb 20 da 0f bd 3b 3a 8c 3c fd f3 0e 3d
       -0.0058965497 -0.03512013 0.01711761 0.034900654
0000a0 ae 0e ae bb 19 44 07 bd 47 33 db 3b 64 ab 70 bc
       -0.0053118085 -0.033023927 0.0066894623 -0.0146893
0000b0 58 6c 2a 3d e5 d3 46 bd fb ab 45 bc d5 9e e3 bc
       0.04160723 -0.048541922 -0.012064929 -0.027785698
0000c0 0f 89 e1 bc 18 a5 0f bb 18 77 15 bd 4f 66 e0 bc
       -0.027531175 -0.0021918472 -0.03649053 -0.027392535
0000d0 41 47 b2 3c 55 7a 57 bd 05 fe 60 3c b2 f2 02 bd
       0.021762492 -0.0526069 0.013732438 -0.031969734
0000e0 f4 9c 81 3c 76 b4 b9 3b da 81 37 b9 11 7a 24 bd
       0.015821911 0.0056672646 -0.00017500613 -0.040155474
0000f0 af 3b c7 bc cd 20 c5 bc a9 a4 19 bc c1 5b 4f 3c
       -0.024320452 -0.024063492 -0.009377637 0.012656153
000100 91 10 fe 3c 3d b3 b9 3c 4d 69 96 bc f4 2f cf 3c
       0.031013759 0.022668475 -0.018360758 0.02529142
000110 9d 25 9c bc ec c4 46 3c d9 0e f9 3c 3c 9e 73 ba
       -0.019060904 0.012131911 0.030402588 -0.0009293293
000120 5c 6a d8 3b 03 97 91 3c c5 5a 99 bc 0a 35 aa bc
       0.006604476 0.017772203 -0.01872004 -0.020777244
000130 b9 6e 51 bb b1 8a b3 bc 74 7a 09 bd 3c d9 01 bd
       -0.0031956865 -0.02191672 -0.033564046 -0.03170131
000140 7d f8 32 bc 17 c5 b4 3c 9d 34 54 bc c8 26 cc 3b
       -0.010923502 0.022066636 -0.012951997 0.006230209
000150 c6 7d 6e bc 04 06 4c 3c ae 7b 29 bd 1c b2 69 3c
       -0.014556354 0.012452606 -0.041377716 0.014263656
000160 74 38 ac 3c f3 03 09 bd 04 6b 02 bc 31 0d e4 bc
       0.021023013 -0.033451032 -0.007960085 -0.027838321
000170 fb 7f f2 bc ac 16 a2 bd 77 f8 83 bc 85 47 a6 3c
       -0.029602041 -0.079144806 -0.016109688 0.020297775
000180 be d6 7a ba 40 ab c9 bb 82 2f 03 bd c9 77 c8 3c
       -0.0009568742 -0.006154448 -0.03202773 0.02447118
000190 1a 41 04 3d c3 b0 2a bd 74 d2 f3 bc 1c 7f f8 bc
       0.03228865 -0.04167248 -0.029763438 -0.030334048
0001a0 97 25 0e bc 70 80 2a 3c 6a 08 ba ba f7 f4 90 bc
       -0.008675954 0.010406598 -0.0014193181 -0.017694933
0001b0 7b bb 3f bc 02 8f 95 bc fe e8 e7 3b 65 47 88 bc
       -0.011702414 -0.018256668 0.0070773354 -0.016635606
0001c0 96 a6 dc bc cc 65 e4 bc 7a a5 fd 3c 30 ca 15 3d
       -0.026934903 -0.027880572 0.030962694 0.036569774
0001d0 34 ca d2 bc 28 7b 98 3c c1 c2 ab bc 2a 68 88 bc
       -0.025731184 0.018613413 -0.02096689 -0.016651232
0001e0 40 73 12 3d d7 59 b3 bc c3 6a 95 bc 7e 94 59 bd
       0.035754442 -0.021893425 -0.018239385 -0.05312013
0001f0 c5 6c 12 ba a2 12 3b 3b bc 1f fa 3c 70 dc fe 3b
       -0.0005585666 0.0028545042 0.03053271 0.007777743
000200 a7 12 8a ba 6a 6c fc bc 2a 94 c7 3c e8 87 4e bc
       -0.0010534123 -0.030813415 0.024362642 -0.012605645
000210 cc 26 55 bd 2a 19 56 bc 4b da bc 3a f4 76 9f 3c
       -0.052038953 -0.013067523 0.0014408318 0.019465901
000220 33 6b 8e 3c 83 7c 8a bb c2 48 95 bc a0 ad 8d bc
       0.017385101 -0.0042262687 -0.01822317 -0.017294705
000230 40 a8 73 3c 12 fb 47 bc a0 d9 5a 3d a0 31 58 3b
       0.014871657 -0.012205856 0.0534302 0.0032988563
000240 62 bb 64 3b e7 fb bc b8 90 71 6d bd ec 0d d4 3c
       0.0034901728 -9.011459e-05 -0.05796963 0.025885545
000250 18 3c 6d 3c e1 e0 fe bb 39 10 b6 3c 99 ec cd bb
       0.0144796595 -0.0077782725 0.022224532 -0.006284308
000260 6c cf af 3c f3 ce 38 3d 56 94 e0 3c ef f8 7b 37
       0.021461211 0.045119237 0.027414482 1.5018725e-05
000270 31 9a 33 bc 76 be be bc ee 36 fc 3b 0c 70 8f 3a
       -0.010962055 -0.023284178 0.007696978 0.0010943427
000280 c4 25 5f bc 2e 34 1f 3a 48 2a 39 3c b6 68 0d bc
       -0.013619844 0.0006073144 0.011301585 -0.008630922
000290 fd 8f 2b 3b e5 93 77 3a 17 12 84 bc 1c 51 d5 bc
       0.0026178353 0.000944434 -0.016121907 -0.026039653
0002a0 8b 54 21 bc c6 dd 1a 3c 7a 6b f8 bc 53 fe 1b 3d
       -0.009846817 0.009452289 -0.030324686 0.03808434
0002b0 0a a3 f2 3a 7c d2 c5 bc 30 0b 12 bd 27 61 12 3c
       0.0018511724 -0.024148218 -0.0356552 0.008934296
0002c0 05 c6 67 bd e7 cb 20 bc 31 8c 41 3c 9d 4c 88 bc
       -0.05658533 -0.009814239 0.011813209 -0.016638095
0002d0 d7 f2 0d bb ce 5d 83 3c f9 88 8b bb 83 e9 3a 3c
       -0.0021659636 0.01603594 -0.004258272 0.011408213
0002e0 87 0e 5b bd 26 c7 48 3c 14 87 a0 ba 32 be 90 bc
       -0.05348065 0.012254512 -0.0012247288 -0.017668817
0002f0 6f 98 d5 3c f8 af ad bd c7 72 a1 3b de 6f 0d bd
       0.026073663 -0.08480829 0.0049270126 -0.034530513
000300 c7 a2 69 bd ee 40 93 bc 64 45 8c 3b 5f 3e b4 3b
       -0.057040002 -0.017975297 0.004280733 0.0055005993
000310 eb 03 58 3b 65 17 cd bb 33 51 6a bc ef 0d 3c bb
       0.003296132 -0.0062588924 -0.014301586 -0.0028694829
000320 a5 92 e7 bc 13 91 82 bd dc 78 dc bc 58 11 20 bc
       -0.028268168 -0.06375327 -0.026913099 -0.00976976
000330 15 be 40 3c 0f 53 83 3c da c5 b5 bc 9c 2e 86 bc
       0.011764069 0.016030816 -0.02218907 -0.016379647
000340 4c fe 13 bc 14 97 2f 3c 5d 26 d7 3c 91 b1 3c 3c
       -0.009032797 0.010717172 0.02626341 0.0115169445
000350 18 7c 12 bd 8f b2 b2 bc ff 2c 1e 3c 20 9a ee bc
       -0.035762876 -0.021813659 0.009654283 -0.029126227
000360 99 4e b3 bd 4d fb f6 bb b9 26 a7 ba 48 a5 42 3c
       -0.08755226 -0.0075372816 -0.0012752629 0.011880226
000370 5d f5 dc bc b7 42 96 bc 78 d4 0a bc f5 3d 3b bc
       -0.026972467 -0.018342359 -0.008473508 -0.011428346
000380 d1 5e 0d bd 02 f0 d6 3c ea 81 38 bd c9 fa 30 bd
       -0.034514252 0.026237492 -0.04504577 -0.043207917
000390 eb 77 96 bb d5 ae c7 3c 94 ff 81 bd 58 8e b7 3c
       -0.004591932 0.024375359 -0.06347576 0.022406742
0003a0 64 65 c6 bc bc f5 89 3c 35 e7 cc bc 9a c4 aa 3b
       -0.024218269 0.016840808 -0.025012592 0.005211425
0003b0 0a e6 bb 3b d7 2a 31 3b 04 86 31 bd 6d f8 10 bd
       0.00573421 0.0027033591 -0.043340698 -0.035393167
0003c0 ed 8f 9e 3c 49 ee 82 bb fe ee ff 3b fd f9 80 3c
       0.019355739 -0.003995691 0.0078104725 0.015744204
0003d0 28 21 3d bb ef 58 38 3c 4a 19 8c 3c 4f 56 68 bb
       -0.0028858874 0.011251672 0.017101903 -0.0035451835
0003e0 8c 43 d1 bb 72 9b 4e 3c f8 af 45 b9 74 44 3a 3c
       -0.006386226 0.012610303 -0.00018852938 0.01136886
0003f0 aa cd 77 3c 01 af 38 bc 64 95 f9 bb 36 03 e7 ba
       0.015124718 -0.011272193 -0.0076166857 -0.0017624858

network_body._body_endoder.seq_layers.0.weight f4 [256, 378]
000000 5b c1 18 be 95 22 11 3e 3f 22 88 bd 49 0a d9 3d
       -0.1491751 0.14173348 -0.06647157 0.10597665
000010 17 6c ed bc d3 1d 8f 3d a1 15 81 be 5b d7 18 3e
       -0.028982205 0.069881104 -0.25211814 0.14925902
000020 3c 68 36 3e 1e 37 b5 bd ae 47 3d 3e 78 0e d4 bc
       0.178132 -0.088484034 0.18484375 -0.025885805
000030 fe 43 a3 3d b9 44 05 be 8f 9c bb 3d 63 72 31 be
       0.07971953 -0.13014497 0.091607206 -0.17328791
000040 0d 8f 44 3d 4a ab ba 3c 3d 91 6b bd 80 83 83 3d
       0.047987986 0.022786755 -0.057511557 0.06421566
000050 8a b9 b8 3d 24 f0 a3 bd 03 96 18 3d 45 de e3 3d
       0.09019764 -0.080047876 0.037252437 0.11126379
000060 f3 a7 f2 bd e3 c8 00 3e 7b d5 a1 bd a0 0c 14 3e
       -0.1184844 0.12576632 -0.07902046 0.14457941
000070 5b 4f 0d 3e 26 dc 23 be 27 c2 1b bd bb db 11 3d
       0.13799803 -0.16001949 -0.038026955 0.035609942
000080 39 8e a7 3d ed 79 c4 bd 98 3e 03 bc 76 13 42 3d
       0.08181424 -0.09593568 -0.008010529 0.04738184
000090 6b 4a 29 be a8 27 03 3e a3 85 d0 bd f7 1c b9 3d
       -0.16532294 0.12808096 -0.10181739 0.09038728
0000a0 6e 43 27 3d 55 1d 00 3d 5e 3f 1d be 0f 39 f5 3d
       0.04083579 0.031277973 -0.15356204 0.11973774
0000b0 eb 70 2e 3d 0b 17 58 3c e3 de 49 3e 09 4c 0d bd
       0.042588156 0.013189088 0.19713931 -0.03449634
0000c0 1b c0 c9 3b 45 dc 63 bd 5b 13 0e 3c 50 73 1f be
       0.006156934 -0.055629987 0.008671607 -0.15571332
0000d0 0e 2d 03 bd 3a a5 06 be 0c 47 fa 3c 5e 31 1a 3e
       -0.03202539 -0.13148966 0.030551456 0.15057895
0000e0 e2 18 52 bd 39 8c 42 be 1e 13 15 bb de 27 ec 3d
       -0.05129326 -0.18998803 -0.002274699 0.115310416
0000f0 53 03 04 bd 6f a0 c2 3c 00 1b b9 3d 9e 1c 59 bd
       -0.032229733 0.023758141 0.09038353 -0.053005807
000100 7c 9e 78 3d bf 60 32 bd 82 62 c2 3d 81 2f c8 3d
       0.060698017 -0.043549296 0.09491445 0.09774686
000110 af 04 b7 bc 33 a0 1a bd 52 de 0d bd c8 66 86 3c
       -0.0223411 -0.037750434 -0.03463585 0.016406432
000120 e7 2a 07 bc 79 75 2c 3e d0 c3 46 bd ff 25 95 3d
       -0.008249975 0.16841687 -0.048526585 0.07282638
000130 9e 97 c7 3b d3 81 6e 3c ef 70 11 3e a6 c6 9f 3d
       0.006091072 0.01455732 0.14203237 0.07801561
000140 c3 48 98 3c da 53 38 bd 10 cb 46 3e 49 90 94 3d
       0.018589383 -0.045001842 0.194134 0.07254083
000150 97 b2 5d bc 7d bd bb 3d 93 14 90 3b ac 09 2e 3d
       -0.013531349 0.091670014 0.004396984 0.042489693
000160 71 cc 67 bc a4 26 bf 3c 9b 7c 36 3e 2a 10 7b 3c
       -0.014147864 0.023333855 0.1782097 0.015323678
000170 0b ef 82 bd d2 06 84 bd 94 36 b2 3d 9d b2 17 3c
       -0.0639325 -0.06446613 0.08701816 0.009258893
000180 04 92 42 3d 0f 33 21 3c e2 7a 90 bc 74 c3 b1 3d
       0.047502533 0.0098388335 -0.01763672 0.08679858
000190 41 7f 69 bd 8b 7a 8d be 22 cb 59 3b 51 7e 3a 3d
       -0.057006124 -0.27632555 0.003323265 0.04553062
0001a0 d5 bd 66 3d 79 33 b1 bd e2 fe 81 3c 85 f4 b9 3d
       0.05633338 -0.08652396 0.015868608 0.090798415
0001b0 f9 c3 be 3d e4 20 37 bc 80 9a 17 3e fd 60 a4 3d
       0.093147226 -0.011177275 0.14805031 0.080263115
0001c0 d8 ba 79 bd 2e 5c 36 3e 8c 3a 5a bc aa 63 d7 3c
       -0.060969204 0.17808601 -0.013319623 0.02629264
0001d0 c4 19 43 bd 5b 63 8e 3d 90 8e b1 bc d5 c6 5c 3d
       -0.047631994 0.06952544 -0.021674424 0.05390056
0001e0 bc 71 55 3d b7 f7 6e bd da f7 c5 3d ce 0b 70 bd
       0.05211042 -0.058341708 0.096664146 -0.058605008
0001f0 03 03 81 3b 43 ae 6d 3d 35 21 ff bc 60 ac 85 bd
       0.0039371266 0.058027517 -0.031143764 -0.065270185
000200 a3 e8 9f bd e4 8d d2 3c 16 89 c6 bd e3 e5 4b 3d
       -0.07808044 0.025702424 -0.09694116 0.049779784
000210 da cc a3 3d a1 57 fe 3c fb e2 42 bd 5b b0 75 bd
       0.07998057 0.031047644 -0.047579747 -0.05998264
000220 6d d0 42 3e 6a 5e 79 3d 22 eb c2 bb b4 ed 2c bd
       0.1902482 0.060881056 -0.00594844 -0.04221888
000230 a9 62 56 3e 83 bd aa be 81 3e 41 3d f5 f5 6e 3c
       0.20936073 -0.3334771 0.04717875 0.014585008
000240 31 d1 3a be b1 be 5e 3d 9c 72 84 bd 69 24 75 3b
       -0.18243863 0.054381076 -0.064671725 0.0037405735
000250 6f eb 3c 3d d2 ec 79 3d db 06 32 3e ff a4 90 bc
       0.046122964 0.061016865 0.17385428 -0.017656801
000260 b2 8c 07 bd 92 25 94 bd 5e a9 fd 3b 7c 25 97 bc
       -0.033093162 -0.072337285 0.0077411374 -0.018450491
000270 c8 93 f3 3d 74 9a f1 bd 15 37 f7 3c a4 c6 1e be
       0.118934214 -0.11797038 0.030177632 -0.15505463
000280 3b 0d 8b bc 28 70 37 3c a5 19 72 be 3f 10 c9 3c
       -0.016974082 0.011196174 -0.23642595 0.02454388
000290 a1 2b 5c 3d 13 1e cc bb 92 c2 07 3e a5 08 59 bd
       0.053752545 -0.006229171 0.13257816 -0.05298676
0002a0 bf 07 51 3c e0 0c ca 3c 43 07 89 3d 7c de a3 bd
       0.0127581945 0.024664342 0.06690838 -0.0800142
0002b0 2d d8 7a bd 88 78 79 3d fd fb 20 bc e2 68 df bc
       -0.061241318 0.060905963 -0.009825704 -0.027271692
0002c0 70 ea 30 be fe ec 95 bc f1 21 4e 3c e2 6c bf 3c
       -0.17276931 -0.018301483 0.012581334 0.023367349
0002d0 c2 13 19 ba df b1 bf 39 f0 fa 03 3d 86 58 c4 bd
       -0.0005839431 0.00036562883 0.032221735 -0.09587197
0002e0 29 3b 50 bc 05 07 98 3d 29 80 ef 3c 42 5b 6c bd
       -0.012709417 0.07423214 0.029235916 -0.057704218
0002f0 84 1a e8 3d a1 23 9c 3d 43 ac 35 3e 06 52 8f bd
       0.113331825 0.07623983 0.17741494 -0.069980666
000300 54 bd ff bc 22 11 71 3d b0 ff 15 bd 2a 9e 3b be
       -0.031218208 0.05885423 -0.036620796 -0.18322054
000310 dc 2a c3 bd 16 bc 4a 3d cd 5e 84 3c 29 79 e7 3d
       -0.09529659 0.04949578 0.016158486 0.11302406
000320 e7 48 8f 3d dc 7c b3 bd dc ad 41 bd db 65 f0 bd
       0.06996327 -0.087640494 -0.047284946 -0.117381774
000330 4d 12 82 bd 62 ec f1 3c 2b e0 5b 3d f6 73 9a 3b
       -0.06351147 0.029531661 0.05368058 0.0047135307
000340 fe 58 46 bd a3 9e 24 3e 22 93 22 3d 1d cf 3e 3d
       -0.048424713 0.1607614 0.039691098 0.046584237
000350 59 d5 c5 bc 4e 27 bf 3c 08 91 70 3d 43 df 97 bc
       -0.024149584 0.023334172 0.058732063 -0.018539077
000360 73 7a 79 3c 6e 32 02 be 1a d6 1e 3e b9 32 ec bd
       0.015226948 -0.1271455 0.15511361 -0.11533112
000370 02 de 01 bd 0b a0 c7 3d da c9 8a 3b 24 e6 a8 3c
       -0.031705864 0.09747323 0.0042354884 0.020617552
000380 34 f2 85 ba 19 44 e0 bc 97 71 ea 3c 6c f7 2d 3d
       -0.0010219277 -0.027376221 0.028618617 0.042472288
000390 1a a4 48 3d 43 81 80 bc ac c2 3b 3e 00 8d ce 3c
       0.048984624 -0.015686637 0.1833598 0.025213718
0003a0 fc ac ba 3c be 97 d7 bd a9 37 06 bd 58 31 82 bb
       0.022787564 -0.105269894 -0.032767925 -0.0039731674
0003b0 6e 9b 9a 3e 06 da 84 bc 49 d9 52 3d 67 99 25 3d
       0.30196708 -0.016217243 0.05147675 0.0404295
0003c0 fe 08 4a bd f7 d1 f9 3b 13 6f ed bc 1a d7 bd bc
       -0.049324982 0.0076239067 -0.028983628 -0.023173857
0003d0 9d 55 48 3c 2a 01 a8 bd c3 bd ba 3d e7 5c 22 3d
       0.012227443 -0.08203347 0.091182254 0.03963938
0003e0 40 ca ea 3c df 85 81 bd 78 a1 38 bc e7 3c a7 bd
       0.028660893 -0.06324362 -0.011268966 -0.08165913
0003f0 fb de 6b bc 1b 59 b1 3d b2 a0 e7 3d 14 43 40 bd
       -0.014396424 0.08659574 0.11309947 -0.04693897

network_body._body_endoder.seq_layers.2.bias f4 [256]
000000 21 37 5f bd 92 20 e8 bc ab 8b 56 bd 71 7f a6 bd
       -0.054495934 -0.028335843 -0.05237929 -0.08129776
000010 11 77 ad bc bc 6e 9c bd 81 e1 0b bd a9 2f dd bc
       -0.02117494 -0.076383084 -0.034150604 -0.027000265
000020 87 d3 2a bc 79 d5 01 bd 16 13 2a bd 54 5a 52 bd
       -0.010426409 -0.031697724 -0.041522108 -0.051355675
000030 f6 c8 ca bd 15 0f fd bc 4b 8a cd bd 8b 60 87 bd
       -0.099016115 -0.03089098 -0.10036143 -0.06610211
000040 11 fb 80 bd d4 24 d0 bc 5a 06 81 bd 07 4c 59 bd
       -0.06297887 -0.025408186 -0.063000396 -0.05305102
000050 7a eb 94 bd 62 d0 d3 bc ec 0d 67 bd 9d 63 6a bd
       -0.07271476 -0.0258562 -0.05640976 -0.057223905
000060 a2 5a 0c bd 8e 25 66 bd d2 8d 4e bd 6b 04 13 bd
       -0.03426612 -0.05618816 -0.05042822 -0.035892885
000070 7e 75 66 bd cc a6 c7 bc d2 06 07 bd fc 23 8d bc
       -0.056264393 -0.024371527 -0.03296549 -0.017229073
000080 f0 cf 32 bd 91 7c 44 3b 5b eb a8 bc 53 21 c2 bd
       -0.043655336 0.0029981474 -0.020620039 -0.09479012
000090 a6 60 a5 3c 5a da 39 3c ef bb 7d bc 47 c6 a7 3a
       0.020187687 0.011343563 -0.015486701 0.001280018
0000a0 97 6a 73 bd da a9 6e ba f7 04 51 bd 8e 10 0c bd
       -0.059427824 -0.00091042893 -0.051030125 -0.034195475
0000b0 e6 15 a3 bd 9d b3 83 bd 6e 57 1b bd 6d 8d 90 bc
       -0.07963161 -0.06430743 -0.037925176 -0.017645562
0000c0 fd fa 0f bc 6c 98 1c bd 60 a8 c9 bc 05 54 55 bd
       -0.008787868 -0.0382313 -0.02461642 -0.05208208
0000d0 1f d9 0e 3d ac 8a b7 bd d6 4a 07 bc 6f b7 bd bc
       0.03487503 -0.089619964 -0.008257588 -0.023158757
0000e0 ee 22 41 bd 0d 11 a5 3c f8 fb 03 bd 57 c3 16 3d
       -0.047152452 0.020149732 -0.032222718 0.036807384
0000f0 61 54 74 bd 16 af 2d bd 16 c6 6b bd ea 0a 78 bd
       -0.059650782 -0.042403303 -0.057561956 -0.060557283
000100 20 71 2d bc 60 a8 29 3c 09 4a e7 bc 32 07 05 3d
       -0.010586053 0.010355085 -0.028233545 0.032477565
000110 81 3f 34 bd 9e b9 59 bd 44 f0 b3 bd be 37 b2 bd
       -0.044005875 -0.053155534 -0.087860614 -0.08702038
000120 12 81 a1 bb c9 40 1a bd 8f cf 4e bd d0 f0 94 bd
       -0.0049287165 -0.03765944 -0.050490912 -0.07272494
000130 8b 09 bf bd 1f 41 a2 bb b9 a8 d1 bd c9 01 68 bd
       -0.09327992 -0.0049516107 -0.102372594 -0.056642327
000140 46 5a 7d bd a9 3d a6 bc f1 09 bd bd 5b e9 99 bd
       -0.06185367 -0.020293074 -0.09230412 -0.07515212
000150 a1 c0 8a bc 82 75 ed bc ce 1c c3 bd 64 a5 bd bd
       -0.016937556 -0.028986696 -0.095269784 -0.092600614
000160 d8 75 4a bd e1 fd 2f bd 5f 4d da 3c 6b 17 78 bc
       -0.04942879 -0.042966727 0.026648222 -0.015142302
000170 19 c8 2a bd b1 df ec ba 0d 37 24 bd aa 8e b4 bd
       -0.041694734 -0.0018072036 -0.040091563 -0.088162735
000180 44 91 0a bd 89 41 47 bc 58 90 8d bd c1 0d 24 bd
       -0.033829942 -0.012161621 -0.06912297 -0.04005218
000190 76 31 a7 bd f7 99 85 bd 9f 28 91 bd f7 39 42 3c
       -0.08163731 -0.06523507 -0.07087826 0.01185464
0001a0 11 95 71 bd 20 6f 94 bd 96 2f d7 bc 0b 0b 4e bd
       -0.05898005 -0.07247758 -0.026267808 -0.0503035
0001b0 13 66 12 bc e9 58 97 bd 5e f9 89 bd cd 38 5b bd
       -0.008935469 -0.07390005 -0.06737016 -0.053520966
0001c0 5c ff 37 bd a7 1d 8f bd 36 21 56 bd 83 e2 b2 bb
       -0.044921264 -0.069880776 -0.052277766 -0.005459131
0001d0 b9 fa 47 3d c9 43 d8 bc b8 72 68 bd b5 7d 2c 3d
       0.048823092 -0.02639951 -0.05675003 0.04211207
0001e0 bb f4 ff bc c2 54 e1 bc 0b 8e a4 bd 8c c2 b1 bc
       -0.031244626 -0.027506236 -0.08034905 -0.021699212
0001f0 42 ce 26 bd 88 ee 0e 3d da c6 02 bc e9 c4 88 bd
       -0.040724047 0.03489545 -0.00798198 -0.06678183
000200 82 6c 9d bc 9b ba 4b bc 17 b4 e7 bc 41 eb 3b bd
       -0.01921678 -0.012434627 -0.028284116 -0.045878652
000210 cb 90 9e bc b5 6e 8d 3c 6f 75 03 bd 97 17 ea bc
       -0.019356152 0.017264703 -0.032094415 -0.028575702
000220 be 9e 41 bb e9 6f 82 bd 30 e6 c7 bc 2b 92 c9 bd
       -0.002954408 -0.063690014 -0.024401754 -0.098423325
000230 3c 57 79 3c 29 e1 9c 3c a1 99 8a bd d2 f0 4a 3c
       0.015218552 0.019150333 -0.06767584 0.012386518
000240 31 e3 e3 bc 6e 80 8d bc ac 3d 71 bd 4b 68 43 bd
       -0.027818294 -0.017273154 -0.058896706 -0.047706883
000250 52 a6 69 3d 94 fa c2 bc 99 80 89 bd c7 4a 34 bc
       0.05704338 -0.023801126 -0.06713981 -0.011004156
000260 1c d7 4e bc 4d 0a 85 bd 28 a2 89 bd 9e 20 78 bd
       -0.012624528 -0.06496105 -0.06720382 -0.06057798
000270 52 19 de bc d6 31 8c 3c 7f 78 84 bc 15 22 3a bd
       -0.027111683 0.017113607 -0.016170738 -0.04544266
000280 32 8f 91 bd 20 6e 19 bd 99 a3 99 bc 57 65 23 bc
       -0.071073905 -0.03745854 -0.018754767 -0.009972892
000290 80 fe b5 bd 98 7a 03 bd 37 68 10 bc c3 e5 34 bd
       -0.08886433 -0.032099336 -0.008813909 -0.04416443
0002a0 56 87 74 bd d0 31 9d ba 01 24 ac bd 65 cd 9f bc
       -0.05969938 -0.0011992995 -0.08405305 -0.01950712
0002b0 82 e0 ab bd 06 41 1d bd fc 5b 82 bd 4e d6 ad bc
       -0.08392431 -0.03839209 -0.06365201 -0.021220353
0002c0 de e7 71 bd 8b f4 2e bd 12 bd 34 39 ae 5c e2 bc
       -0.059059016 -0.042713683 0.00017236572 -0.027632084
0002d0 3f 5c a7 bd 5f 62 3a 3d 9c 40 7a bc 13 7a 40 bd
       -0.081718914 0.04550397 -0.015274193 -0.04699142
0002e0 c6 44 cf 3b 74 af d6 3c ae d1 29 bd 3d 49 83 3d
       0.006325337 0.02620671 -0.04145973 0.064104535
0002f0 fe 0f 40 3c d4 3e f7 3c 61 90 4c bd 88 f1 49 bd
       0.011722563 0.030181326 -0.049942378 -0.049302608
000300 04 ba 14 bd 7f e5 a6 bd 36 32 a1 3b dc eb 34 bd
       -0.03631021 -0.08149242 0.0049193157 -0.044170246
000310 5d e7 61 bd 07 45 34 bd 34 54 55 bd f7 16 82 bd
       -0.055152286 -0.044011142 -0.052082255 -0.063520364
000320 00 4f 61 bd 2b 89 75 bd 62 4e 79 3b ef 3e 77 bd
       -0.05500698 -0.059945267 0.0038041105 -0.060362753
000330 d1 f1 df bd 29 6b 84 bd 69 2e 1e bd b0 e6 9d bd
       -0.10934795 -0.06465752 -0.03861848 -0.07710016
000340 26 31 a9 bb dc 9c 0f bd 5f 2d 7a bd 42 a7 13 bd
       -0.0051633297 -0.035061702 -0.061078425 -0.03604818
000350 5e 5b 8f bd 7f 89 99 bc 9e 93 8c bd db c6 c1 bd
       -0.06999849 -0.018742321 -0.06864093 -0.09461757
000360 c2 82 03 bc b7 cc 91 bd 8b 7a 42 3c 0f c8 8f bc
       -0.008026781 -0.071191244 0.011870037 -0.01755145
000370 95 5c 24 bd d5 0a 26 bd bc 62 f3 bc 1c 43 36 bd
       -0.040127356 -0.040537674 -0.029710166 -0.044497594
000380 4a e6 65 3d 18 b0 02 bd b7 64 84 bd 79 84 08 bd
       0.056127824 -0.031906217 -0.06464522 -0.03332946
000390 06 d8 8c bd 12 9f 9a bc 95 e1 85 3d f5 32 86 bd
       -0.06877141 -0.018874679 0.06537167 -0.06552688
0003a0 0d fe 73 bd 49 b9 62 bd ef 7b 29 bd bd 50 11 bd
       -0.059568454 -0.055352483 -0.041377958 -0.03547739
0003b0 69 e7 b2 bc e6 d1 5e bd 9c b9 1f bd 5c 31 8e bd
       -0.02183886 -0.054399393 -0.03899537 -0.06943008
0003c0 d2 39 39 3c 20 b6 10 ba ff d0 cd 3c 6e bc 62 bd
       0.011305289 -0.0005520303 0.025124071 -0.05535548
0003d0 41 bc 24 bc bd 2b fd bc 2d fa 6e bd d5 25 82 bd
       -0.010054649 -0.030904645 -0.058344055 -0.06354872
0003e0 e9 49 86 bd a5 16 2a 3c ed 09 90 3b 4f 2b ff bc
       -0.06557066 0.010381375 0.0043957145 -0.03114858
0003f0 db 97 06 3d 3c 7d f5 bd 0f db 48 bd eb 4d 80 3d
       0.032859664 -0.11986777 -0.049037036 0.06264862

network_body._body_endoder.seq_layers.2.weight f4 [256, 256]
000000 02 98 41 bd a8 4e 28 3e f5 01 60 bb 43 31 f5 3c
       -0.047264107 0.16436255 -0.0034180854 0.029930716
000010 dc d4 94 3d d5 f8 d6 bc 0e c9 13 3e b3 d7 2b 3d
       0.07267162 -0.0262417 0.14432165 0.041953754
000020 be 21 3c bb 4f 5b 9d bd cb 62 4f 3d 58 c5 58 bc
       -0.0028706635 -0.07683431 0.050631326 -0.013230644
000030 1e d8 cf bd 36 79 5c bd 69 6e 25 bd 77 5f 81 3d
       -0.10148643 -0.053826533 -0.0403885 0.063170366
000040 56 f0 f5 3b 19 c5 77 bd 27 4f 05 3e 28 3f 0c be
       0.007505457 -0.0604907 0.13018475 -0.13695967
000050 c0 cf e4 bd b9 e3 37 3d 43 6c 50 3c 0a 76 1b bd
       -0.11172438 0.044894908 0.012721124 -0.037954368
000060 10 b3 ad ba fe 6b b8 3d 2d 4a 60 3c 1c 99 d2 bd
       -0.0013252217 0.09004973 0.01368956 -0.102831095
000070 ca 38 1d 3c 7d bc bc bd ca 70 98 3d 87 5b 2e 3d
       0.009596059 -0.09215639 0.07443388 0.042567756
000080 9f 33 91 3d 0e ee f4 bd 10 c3 af bd 95 9c c7 bd
       0.07089924 -0.11959468 -0.08582127 -0.097466625
000090 7f f4 28 3d e4 06 d0 3d 03 4e f4 3d 8a 28 d1 bd
       0.041248795 0.10157564 0.11928942 -0.1021281
0000a0 07 4a 8b bd f6 af 44 be 2f 42 df bc 25 5f cb bd
       -0.06801229 -0.19207749 -0.027253238 -0.09930257
0000b0 ce 60 cd 3b 70 49 b6 bc 95 8d 5f 3d 16 cf 06 bd
       0.0062676435 -0.022251815 0.054578383 -0.032912336
0000c0 a8 f4 d6 3c b6 de ec bd 5b fe a3 3d f1 bd b4 3d
       0.026239708 -0.11565916 0.08007499 0.08825291
0000d0 66 36 13 be bf 3d 7e 3d c6 5f be 3d 41 94 a5 bd
       -0.1437622 0.062070604 0.09295611 -0.08084918
0000e0 50 7e fb bd 7b f3 1c bd 40 de db 3d 54 0b a7 3c
       -0.122799516 -0.03831814 0.1073575 0.020391144
0000f0 e9 72 02 3d 7a 8e a9 bd b3 bf 01 bd 24 73 54 3c
       0.031847868 -0.082791284 -0.03167696 0.012966905
000100 e1 23 ae 3d 85 24 d1 bd 16 38 ea 3d ab ce 19 be
       0.08502937 -0.10212044 0.11436479 -0.15020244
000110 97 de e8 3d 81 f4 9a 3d 5f fd 0e bd db 99 9d bc
       0.11370581 0.07566167 -0.034909602 -0.019238403
000120 6b a0 18 bd 75 1e 63 bd a6 fe a3 bd d3 32 8e 3c
       -0.03726236 -0.055448968 -0.08007555 0.01735822
000130 cd ee ab bc a6 14 20 3e 9e 7a 34 3d 08 d6 e8 3d
       -0.020987893 0.15632877 0.04406225 0.11368948
000140 e8 02 2f 3d 15 bf d1 bd d3 73 00 3e a5 01 8b bd
       0.04272738 -0.10241524 0.12544183 -0.06787423
000150 0c 09 9d 3b 0d 89 36 be fa 3d 17 3e 3b 04 b2 3c
       0.0047923382 -0.17825718 0.14769736 0.021730533
000160 6a f1 77 bd f8 17 aa 3d 94 e0 3c 3d 3c d4 ab 3d
       -0.060532965 0.08305353 0.046112612 0.0839009
000170 63 12 01 bc 25 23 4e 3e f8 8d c6 3d 88 52 3c 39
       -0.007877919 0.20130594 0.09695047 0.00017959822
000180 3b e2 07 3e 6c 69 6e 3c b8 23 e4 3c 0c 4f 63 be
       0.13269894 0.014551502 0.027849063 -0.22198123
000190 3f b2 c0 bd ee 0d 9b 3d ea de 37 3d 1e 55 cb 3d
       -0.09408998 0.07571016 0.04489032 0.09928344
0001a0 9e 84 ca 3b 0d 23 3a bc 0d 98 48 3d 4f a9 59 bb
       0.00618036 -0.011360896 0.048973132 -0.0033212488
0001b0 76 0d 23 3d 7a 11 24 be d6 1a 9b 3d 7e 5a c6 3c
       0.03980776 -0.16022292 0.07573478 0.024213072
0001c0 45 ac d5 bb ed 30 24 3d 33 7d c9 3c 7b 09 60 be
       -0.0065207803 0.04008572 0.024595832 -0.21878617
0001d0 df 78 19 3e 82 08 93 3d 31 4e ff 3d f9 ff 22 3d
       0.14987515 0.07179357 0.12466086 0.039794896
0001e0 62 18 2e be f3 a6 a4 bd 09 90 1e be 4b 63 39 bd
       -0.17001489 -0.080396555 -0.15484633 -0.04526071
0001f0 11 86 cb bb d0 de 7a bd 4b 8c 0f be b4 dd a7 bd
       -0.0062110503 -0.061247647 -0.14018361 -0.081965834
000200 9d ef a9 3d 7e 11 68 3d 36 1f 9d bd 55 9b 81 3c
       0.08297656 0.056657307 -0.07671969 0.015821138
000210 6c 47 a8 3d e0 a3 d6 3d 70 0a 1a 3c 5e 66 d0 3d
       0.08216748 0.104804754 0.009401903 0.10175775
000220 f5 18 04 be 41 92 0f be 60 2f d5 3d 54 45 fc 3d
       -0.12900145 -0.14020635 0.10409427 0.12317911
000230 1b bf 06 3e 1b 68 c7 3d 72 a0 07 be 46 e6 aa bc
       0.13158838 0.097366534 -0.13244799 -0.020861756
000240 8b 87 47 3d b6 a9 60 3d 64 8c a3 b9 32 07 8d be
       0.04871325 0.05484935 -0.00031194382 -0.27544552
000250 a8 53 f0 3c 66 4d bb bd 99 0f 94 3d 61 e6 96 3c
       0.029336765 -0.09145622 0.072295375 0.0184204
000260 dc 46 f5 bd c3 41 0a be af 95 6e 3c a6 6d 0e bd
       -0.11976406 -0.13501649 0.014562055 -0.034772538
000270 14 e5 f1 3d 70 55 3d 3d 65 0d 8f 3d 8d 5e d6 3c
       0.11811271 0.046224058 0.06984977 0.026168132
000280 69 55 c9 3c cf 6d 35 3d 93 07 9f 3d 0e e1 e8 bc
       0.02457686 0.044294175 0.077651165 -0.028427627
000290 33 53 c4 3d 24 8f 9b bd b4 07 a9 3a 76 2a 40 3c
       0.095861815 -0.07595661 0.0012895972 0.0117288735
0002a0 d5 d0 1a be e0 5e 9d 3d 37 c7 ea 3c 1e 8f 41 bd
       -0.15118726 0.076841116 0.028659446 -0.047255628
0002b0 c9 c2 a5 bc 36 b8 1d 3e 99 83 7e 3d 2c ca d7 3b
       -0.020234482 0.15402302 0.06213722 0.00658538
0002c0 de e7 b0 bc 2b ee 71 bd d7 e2 df bd a2 61 db 3c
       -0.021594938 -0.059065025 -0.10931938 0.026779953
0002d0 83 cf 45 bb c8 be c7 bd 27 b6 0b bd 33 33 6d be
       -0.00301835 -0.097531855 -0.03410926 -0.23164062
0002e0 13 03 7a 3d b3 8b f5 3d 9a 9c 6e 3d 36 a0 b0 3d
       0.061038088 0.11989536 0.058254816 0.08624308
0002f0 c4 ea a7 bc 4c 18 92 3e 67 34 33 3d 14 f9 f5 3d
       -0.020497687 0.28534162 0.043751147 0.120103985
000300 e5 86 48 bd 88 12 82 bd 9b ff b1 bd d9 b2 ee 3d
       -0.04895677 -0.06351191 -0.08691331 0.11655206
000310 28 30 9d bd f5 26 cb 3c ac aa 0f 3e af de 8d 3d
       -0.07675201 0.02479885 0.1402995 0.06927239
000320 13 3f 77 3d 01 7e 2d 3e 12 ec ed bd 01 1b e1 bd
       0.060362887 0.16942598 -0.116172925 -0.10991479
000330 dc 46 31 bd d2 47 ad bd 4a d8 05 be db f9 0c 3c
       -0.043280467 -0.08460964 -0.13070789 0.008604492
000340 a9 54 ee 3b a0 9a aa 3d e3 1c 76 bd 3c 28 42 bd
       0.007273276 0.08330274 -0.060086142 -0.04740165
000350 e7 e9 29 3e 34 c4 f9 3d 1e b5 72 bd d5 02 58 3e
       0.16593133 0.12195626 -0.059254758 0.2109483
000360 c2 e2 18 3e 91 fd a4 bd 4b e1 b9 bd 4e 0a c0 3d
       0.14930251 -0.080561765 -0.09076174 0.093769655
000370 55 ba 3c 3c 5d ff 14 be b8 ce 93 3d 3a 07 86 3d
       0.011519034 -0.14550538 0.07217163 0.06544347
000380 5c ee c0 bc 76 cf 0f be 03 ba d1 3c 4e df 9a bd
       -0.023551159 -0.14043984 0.025601393 -0.07562123
000390 83 38 e3 bd e4 8b 14 3d fc 15 31 3e 96 99 08 be
       -0.11094763 0.036266223 0.17293543 -0.13339838
0003a0 7a 8c eb bd d8 69 66 bd 2c 93 97 bc 70 37 95 bd
       -0.11501403 -0.056253284 -0.018502794 -0.072859645
0003b0 14 75 66 bd 57 f3 91 3d 30 fe 3f 3e c7 46 5c 3c
       -0.056264 0.071264915 0.18749309 0.013444609
0003c0 de 24 fa 3c 3e 1f 3b be b7 94 0f be 61 d7 00 be
       0.030535158 -0.18273637 -0.14021574 -0.1258216
0003d0 8a 5d da 3d 5d 0f 72 bd 58 2e 47 bc 80 c9 1b 3d
       0.106623724 -0.059096683 -0.012157045 0.038033962
0003e0 19 ef 20 bc c4 dd c2 bd 85 75 e1 bb f7 fb 00 be
       -0.00982263 -0.09514955 -0.0068804645 -0.12596117
0003f0 65 c3 49 bd 6e 64 23 3b 5e f8 5d 3c 21 5d f7 3d
       -0.04925861 0.0024931687 0.013547985 0.1207831
