Assets/TFModels/Other models trained in the process/Striker2-lessrewcut_selfplay3_3M.onnx (onnx, 911175 bytes, 9 tensors)

action_model._discrete_distribution.branches.0.bias f4 [5]
00000000: 7a27 b33c c3dc 36bc 75b0 fb3b 6747 44bd
00000010: e55c 263d
0.02186941 -0.011161032 0.0076809474 -0.047919657 0.040615935

action_model._discrete_distribution.branches.0.weight f4 [5, 256]
00000000: bbbb c9bc 11fb a2bb 4ee8 bcbd fb9d eabd
00000010: a33b 133d 5f15 233d 783d b43d 2d15 d33d
00000020: ebb1 773d cc33 3dbd ef41 c33c 3946 0dbd
00000030: 61df 65bd 3d67 d3bc 5070 3bbb 6865 68bc
00000040: 9665 76bc 6ad0 d43d 719a 06bd 0bda 95bd
00000050: a910 d03a c4c3 d6bb f085 a5bd 16d4 df3c
00000060: 97fa 58bd ce24 8fbd bf89 b93d a9fb 343e
00000070: b997 b43b 3a6a 7ebc b12a 2bbc 4a0f fa3c
00000080: 0e3a 4fbd 043a a3bd 38dc 433d 0e05 b33d
00000090: 8650 cb3d da84 3d3d 6503 ebbc 216e 043d
000000a0: 0d16 203d df86 343d ece9 afbd c011 50bd
000000b0: a37b f0bd 0da4 5cbd 3ba9 503d dfa8 25bc
000000c0: 79d5 2a3d 9ac3 843d 37db a83c f8eb d1bd
000000d0: 7231 bd3d f1b1 0f3e 48c9 9abd 3eda 113d
000000e0: 63ee 8f3d 3b9a 82bd a242 00bd 653b abbd
000000f0: 36de 4fbd 5a54 82bd fbd3 653d 34ca 103d
00000100: d3b3 a0bc 00b2 803d a396 efbd b1d4 803c
00000110: d30f 5f3b ff2b d7bd 0df0 df3d 62b9 96bd
00000120: c8a3 723c 9d47 7d3b 9f5a c33c 4649 ecbd
00000130: 01e4 a63d 40cb 00be 1f88 823d e468 f1bc
00000140: afc9 9abd 69f2 fd3d 58d8 b43c 752d ef3d
00000150: c067 ff3c 47db 3fbc 8e2d 00be 2d69 9b3d
00000160: 25ad babd 98b2 023e 9e3c 593d 2288 86bd
00000170: c95a 0d3d f0d2 21bd 06fe 28be a521 223e
00000180: 9e1e 743d dd3b 223d 7cfe eabd 282a 63bc
00000190: 3fb9 14bc a920 083c d333 8fbc e06d 4e3c
000001a0: 1c1a 5a3d 90df d6bc 536c 823b ffc4 d93a
000001b0: b0a6 453d e5ae 2ebd 7427 0a3d 1caa 15bd
000001c0: bf94 133d 8b45 563d e6b0 ab3d efd2 56bd
000001d0: d862 d03b aab8 a23d 8009 bcbc f33e 6d3d
000001e0: 4f64 a83d e1e3 183c 27da 553d 6297 823d
000001f0: ca01 e83d 37a3 073e 3c1a 423d 31bf fe3d
00000200: 4187 0a3e ab6e a4bc 34f6 e13d e79b 4dbc
00000210: 7479 e3bd 642d 51bd 5908 b13d 8b6d f03c
00000220: 0df6 36bd d4dc 913d 4114 a5bc b996 84bd
00000230: dba1 aabc e25f cebd 71e2 b23b 13ad 5ebd
00000240: 1c43 fbbd bf28 63bd d08c 4c3d 8c66 46be
00000250: 0cbd 74bd 2b2f b73c 3d9d 33bc 2771 9f3d
00000260: a6c9 eebd f0f8 1dbc b7c2 96bc a9df 6b3d
00000270: 517e 393d 3f6f a73d eb90 793d 7e54 e23d
00000280: a9ea 2ebd 7f16 123d d845 5e3c 0946 1d3d
00000290: c39b 133d 82e1 0ebd 6efc 6f3d 24c9 ce3d
000002a0: 04c9 debc 3d4e c1bd dea9 a8bc a26e 05be
000002b0: 242a b2bd 7ce9 39be c5b6 a23d 38d9 2f3c
000002c0: 99c4 893d bce4 74bc e17c 56be 4fc8 833d
000002d0: 65f2 0cbd 2f64 083e ab98 91bd 451e f2bc
000002e0: 01f4 45bd 24ab aa3c ce2b 10bd e6ef e53d
000002f0: 802c 133d af55 d33d 41ae 2e3b ae56 4e3c
00000300: f80c 253d bf9f b3ba 9a67 bc3d 7e1b 023e
00000310: f3e1 d5bd a362 133e d2d5 ee3d a7c0 953c
00000320: fce5 003d 21a5 1abd eb16 c4bc 001c 6b3d
00000330: f60c 88bb 065b 21bc 7b21 2a3d 878e b3bc
00000340: dc0f 3b3d 606c 6d3d 8b2b 38be 5448 13ba
00000350: 6e43 36bd 729d 873d 123e f0bd c4dc 62be
00000360: 3d9b 58bd 2a94 b43d c0e9 3f3d 4d41 1ebc
00000370: 0c16 8c3c 126a cbbc 253e 6b3d a558 e2bc
00000380: ba7d e7bb a10b 0dbe 2672 953c 1a43 2abd
00000390: 59ba c03c b3d4 b73c 5f05 09be a2dc 50be
000003a0: 9993 93bc 2352 6b3c 9f22 303d a581 423d
000003b0: c776 1abd 1ae6 d23d f30b 01bd c40c c53d
000003c0: 5598 4e3d 88e2 f03c 0c9f ac3d ac4a 20bd
000003d0: ebc2 9a3c b119 743d 2be3 a53d 8919 10bc
000003e0: cb00 1d3d 44c7 fdbc 6bb2 4bbd 77ca 2c3e
000003f0: a828 10be e823 06be e5f1 253e 10c0 54bd
-0.02462565 -0.004973777 -0.09223996 -0.11455914 0.035945546 0.039815303 0.08800787 0.10306773
0.06047241 -0.046191975 0.02383515 -0.034490798 -0.056121234 -0.025806064 -0.002860088 -0.014184333
-0.015038868 0.10391314 -0.03286213 -0.07316979 0.0015874106 -0.006554099 -0.08082187 0.02732281
-0.052973356 -0.06989442 0.09059476 0.17674126 0.005511251 -0.015528256 -0.01044719 0.030524869
-0.050592475 -0.0797005 0.04781744 0.087411985 0.09927468 0.046269275 -0.028688142 0.03233159
0.03908353 0.044073936 -0.08589539 -0.050798178 -0.11742332 -0.05386739 0.05094264 -0.010111063
0.04170749 0.064826205 0.020612342 -0.102500856 0.092379466 0.14032723 -0.075579226 0.035608523
0.070278905 -0.063770734 -0.031313546 -0.08360938 -0.050749026 -0.06363745 0.056110363 0.035349086
-0.019616997 0.06283951 -0.116986535 0.01572642 0.0034036532 -0.105064385 0.10934458 -0.07359578
0.014809556 0.0038647421 0.023846922 -0.11537413 0.08148957 -0.12577534 0.06373619 -0.029468961
-0.07557999 0.12399752 0.022075817 0.11678592 0.031177402 -0.011709995 -0.12517378 0.0758842
-0.09115056 0.1276344 0.053036325 -0.06568934 0.034510408 -0.039507806 -0.16503152 0.15833147
0.05959951 0.03960787 -0.1147432 -0.013865031 -0.009077369 0.008308568 -0.017480766 0.012599438
0.053247556 -0.02622965 0.0039801984 0.0016614496 0.04825467 -0.04264726 0.03372903 -0.036539182
0.036030527 0.052312415 0.0838335 -0.052447256 0.0063594393 0.07945378 -0.022953749 0.05792136
0.08222257 0.009331674 0.05221 0.0637653 0.11328466 0.13245855 0.0473883 0.124388106
0.13528158 -0.020072302 0.11033288 -0.012549377 -0.1110715 -0.05106868 0.0864417 0.02934911
-0.044668246 0.07122198 -0.02015126 -0.064740606 -0.020829132 -0.10076882 0.005459123 -0.054364275
-0.122686595 -0.05545878 0.049938977 -0.19375056 -0.0597506 0.022361359 -0.0109627815 0.07785254
-0.11659555 -0.009641871 -0.018403394 0.057586346 0.04528648 0.081755154 0.06092922 0.11051272
-0.042704258 0.035665985 0.013566457 0.03839687 0.036037218 -0.03488303 0.058590345 0.10096958
-0.027195461 -0.09438751 -0.020588811 -0.13030484 -0.08699444 -0.18155473 0.07945017 0.010732941
0.06726951 -0.014947113 -0.20946075 0.0643469 -0.034410853 0.13319467 -0.07109197 -0.02955545
-0.048328403 0.02083356 -0.035198025 0.112273976 0.03593111 0.10319077 0.0026654156 0.012593908
0.04029557 -0.0013704224 0.09199448 0.127058 -0.10443487 0.14393096 0.11661877 0.01828034
0.03146933 -0.037755135 -0.02393671 0.05739975 -0.0041519357 -0.009848362 0.041535836 -0.021918548
0.04566942 0.057964683 -0.1798536 -0.0005618383 -0.0444979 0.06621827 -0.11730589 -0.22154528
-0.05288242 0.088173226 0.04685378 -0.009659124 0.017100357 -0.024830852 0.057432313 -0.02763016
-0.0070645483 -0.13773967 0.018242907 -0.0415679 0.023526357 0.02244029 -0.13380955 -0.20396665
-0.018014716 0.014362845 0.043001767 0.04748692 -0.03771093 0.10297795 -0.031505536 0.096215755
0.050438244 0.029404894 0.08428773 -0.039133713 0.018891772 0.059594814 0.080999695 -0.008795151
0.038330834 -0.030978806 -0.0497307 0.16874109 -0.14078009 -0.13099635 0.16205557 -0.051940978

action_model._discrete_distribution.branches.1.bias f4 [3]
00000000: 9590 3a3d bc87 7dbd 7183 893c
0.04554804 -0.061897025 0.016786309

action_model._discrete_distribution.branches.1.weight f4 [3, 256]
00000000: 82f3 cfbd 41a0 e23d 0dec a5bd 9e27 09bd
00000010: 5ce0 093d a6c6 eb3d c194 0f3d be6b e63c
00000020: 9472 e23d 1302 29be 30ab eebd 4759 5abe
00000030: c497 973c a0d6 043d 924e b33d b7d2 e0bd
00000040: 1c01 d5bd dcc7 04be 8403 56bd 949f 57bd
00000050: f899 37be 61e1 3cbe 0aca 243d 4f20 963c
00000060: ffea 2e3d b01b 553d 845a 243d f23b fdbd
00000070: 2a55 17be 0eba ad3d 9973 c23d d299 aabd
00000080: 0042 053d 9af1 c93d 3a05 e83b b809 803c
00000090: d182 9a3d 2371 a1bd 6509 84bd 4850 d23c
000000a0: b6bf f6bd b21b c8bc 40bb 8a3c c969 cabd
000000b0: c903 eabd d639 233d 3419 8d3d 925c 3c3d
000000c0: df67 b9bc eecf e53d 54f2 3e3d e869 073d
000000d0: 2c07 ec3b 8a43 b03d 1bb2 193b d8c8 75bc
000000e0: 71dd 713d 11ad f23d 2581 35bd d2f2 e2bc
000000f0: 4857 f7bc ea86 433d 1b4a be3d 3e7b d93d
00000100: f4df 2f3d ccaa e63c feba d0bd 4f99 5c3d
00000110: 5e02 05bd e3b6 2dbc d551 b2bd a53d c5bc
00000120: ebdc bfbd a2a4 1e3d fa77 5fbd 522b 73bd
00000130: fb1c 773c 5f7a 21be a1c7 8ebd 0252 45bb
00000140: d092 853d 9874 7bbd 0cd3 ff3d 0d32 223c
00000150: 6e1e abbd 9152 e9bd 6b74 10bd a258 25be
00000160: ca76 453d 7ec9 ba3d f5cd 043e 69cf 913c
00000170: 30b9 113d 77cb 72bc a314 27bd f1fa 253c
00000180: ecfc 20be 771d 4a3d e8d8 d63d 5e32 683d
00000190: 2014 d23d 39ca d93d 6f85 2f3c 2e8d 823d
000001a0: aef3 313d fb34 d5bd ed58 8bbc 3dab 2bbe
000001b0: 9a35 34bd 1c0d ce3d 6db7 273e e852 36bd
000001c0: 7c03 e33d a9ea 773b c447 2cbc 2f16 16be
000001d0: bfb0 f93d 09cc 843d b560 6fbd be29 24be
000001e0: 1652 c23c e88d 02bd 26a3 f93d b945 60bd
000001f0: 1d26 33bb ad56 9a3c f721 863c a4ed b8bd
00000200: a396 1abd 3abd 9d3c 8f87 0bbe 2985 acbd
00000210: 1793 e1bb f322 4abd 77c9 a9bd 01b3 143e
00000220: 42a2 2ebd 47ff 2fbe bd6f d83d 9b1f 8abd
00000230: 0d11 093e 4ab5 b43d ebc4 ca3b 4687 eb3d
00000240: 9862 6f3d 7216 7fbd 881c d237 a87a 983d
00000250: e5f6 a5bd e5c9 b4bb fbd2 40bd b57a 4fbd
00000260: 0df4 ffbb dea0 b6bd 3624 29be aea1 dc3c
00000270: 211d 31bd a9ba f5bc 44c5 4fba 3246 24bd
00000280: 2a91 2cbe ef9d 59bd 0b65 78bd d8e2 efbd
00000290: ab1e 213e 4ffb 2ebd 7e9a 5bbd b13f 3bbc
000002a0: 8912 c3bd 5672 72bd 5b33 1dbe e4c6 5fbd
000002b0: 2a23 69bd 7828 07be 12d7 0c3b f776 973d
000002c0: bfee bcbc 7d39 75be 44a1 53bc 0df8 4dbe
000002d0: 4594 27bd b6b8 2f3c 8016 9cbd 418f 973d
000002e0: 33af d83d 751d 6f3c 07d7 89bd 85d3 96bc
000002f0: b13e 32bd 5870 053e 99a0 22bd 45dc 873d
00000300: 532a 92bd db37 cebd 154a 5cbe ebf2 7f39
00000310: c83d 11be 6908 b53d 4aed 173d 8852 57bc
00000320: e818 753d 0d24 733d d0e8 e2bc e8d7 38bc
00000330: 5968 b83d 20ae edbb 2b45 4cbe 4616 98bd
00000340: b7b5 f73b 0e72 5dbe f25e 983b 6f5a 14bc
00000350: 4747 913d 59de b4bd 5251 c7bd 523f 9a3d
00000360: 485e e43c c9f5 ef3c 3a22 063e c30a 36be
00000370: f991 27be a915 d7bc e370 ef3d 9d99 b8bd
00000380: 96d6 5c3b ae44 9e3c 9485 34be 5955 05be
00000390: 4eca f8bd 26f0 31be 1f0b dabc be60 f3bd
000003a0: d8ed e0bd 1fef 01be 8bf3 4239 74ce d93d
000003b0: 9750 2fbe ff50 7cbc 500d 583d 4a0f 0dbc
000003c0: 5701 2fbe 1993 723d 06bb 923d 85d7 0abe
000003d0: cb94 973a e259 83bc 6db8 233c 4689 d5bd
000003e0: 7c91 e03d 6a34 86bd 2891 3b3e bc19 463d
000003f0: b375 ffbd 3527 813d 0c65 523d 981f b83c
-0.10153867 0.11065722 -0.08101664 -0.033485048 0.03366123 0.115124986 0.035053972 0.028127547
0.1105701 -0.16504698 -0.11653745 -0.21323119 0.018504985 0.032431245 0.087552205 -0.10977691
-0.10400602 -0.12966865 -0.052249447 -0.05264242 -0.17929828 -0.1844535 0.040231742 0.018325953
0.04270458 0.052028358 0.040125385 -0.12364949 -0.14778581 0.08482753 0.09494705 -0.0833012
0.032533646 0.09860535 0.007080701 0.015629634 0.075444825 -0.07882907 -0.06447104 0.025673047
-0.12048285 -0.024427269 0.01693499 -0.09883458 -0.11426503 0.03985008 0.06889573 0.04598672
-0.022632537 0.112213 0.04661782 0.033059984 0.0072030034 0.08606632 0.0023452106 -0.015001498
0.059049074 0.11849416 -0.044312615 -0.027703676 -0.030192986 0.047736086 0.09291478 0.1061921
0.042938188 0.028157614 -0.10191916 0.053857144 -0.03247296 -0.010602686 -0.087070145 -0.024077246
-0.09368309 0.038731225 -0.054557778 -0.059367485 0.015082593 -0.15769337 -0.0697167 -0.0030108695
0.06522143 -0.06139049 0.12491426 0.009899628 -0.083554134 -0.113927014 -0.035267275 -0.16147092
0.04820899 0.09120463 0.12969191 0.017799096 0.035577 -0.014819018 -0.040791165 0.01013063
-0.15721482 0.049344506 0.1049059 0.05668866 0.10257745 0.10634274 0.010712965 0.06374584
0.04344528 -0.10410496 -0.017010177 -0.16764541 -0.04399643 0.10061094 0.16378565 -0.04451266
0.11084649 0.0037829077 -0.010515157 -0.146569 0.12191915 0.06484229 -0.058441836 -0.16031548
0.023720782 -0.031873614 0.12189321 -0.054753993 -0.002733595 0.018840158 0.016373618 -0.09029701
-0.037741315 0.01925527 -0.1362593 -0.08423836 -0.0068839896 -0.049349736 -0.082903795 0.1452141
-0.04263521 -0.17187224 0.105681874 -0.067443095 0.1338541 0.08823641 0.006188025 0.11500411
0.058443636 -0.062277265 2.5047237e-05 0.0744527 -0.08103732 -0.0055172318 -0.047076207 -0.050654132
-0.0078110755 -0.08917402 -0.1651772 0.026932564 -0.04324067 -0.029996233 -0.0007925818 -0.040106006
-0.1685225 -0.053129133 -0.060643237 -0.11713189 0.15734355 -0.042720135 -0.053614132 -0.011428759
-0.0952502 -0.05919107 -0.15351622 -0.054633036 -0.0569183 -0.13199031 0.0021490497 0.073957376
-0.023063062 -0.23947711 -0.012916867 -0.20114155 -0.040912885 0.010725191 -0.07621479 0.074003704
0.105802916 0.014594425 -0.06730466 -0.018411407 -0.04351682 0.13031137 -0.03970394 0.0663381
-0.07136979 -0.10069247 -0.21512635 0.00024409189 -0.14183724 0.08839495 0.03709153 -0.013142236
0.059838206 0.059360553 -0.027698904 -0.011281945 0.09004278 -0.0072534233 -0.1994826 -0.07426123
0.007559504 -0.2162554 0.0046499902 -0.009054764 0.07093673 -0.08831472 -0.097323075 0.07531609
0.027876988 0.029292004 0.13098994 -0.17777543 -0.16364278 -0.026255446 0.11691453 -0.090136744
0.003369724 0.019319858 -0.17629081 -0.13020839 -0.121479616 -0.17376766 -0.026616631 -0.118836865
-0.10982865 -0.12688874 0.00018592009 0.10635081 -0.17120586 -0.01540017 0.05274707 -0.008609602
-0.17090355 0.059222315 0.07164578 -0.13558777 0.001156473 -0.01603407 0.009992701 -0.104265735
0.10965249 -0.06552966 0.18317091 0.048364386 -0.12473621 0.06306306 0.051365897 0.022476003

discrete_action_output_shape f4 [1, 2]
00000000: 0000 a040 0000 4040
5.0 3.0

network_body._body_endoder.seq_layers.0.bias f4 [256]
00000000: 1aa9 b03c 23e8 3abd 6281 673d 66d9 bebc
00000010: b3a4 debc ecc6 a5bd bdd1 903d a328 f5bc
00000020: 00cb cdbc 5ae9 16bd 1700 a4bd 9b2b e23d
00000030: 687f 413d d865 4c3d ac03 aabd 1297 843d
00000040: f645 4f3d c4de 693c 5272 aa3c a10f 4ebc
00000050: c1bb a1bc 344e a93d 32b8 9cbd 7797 3bbb
00000060: 9f5c 7fbd 1b6e 06bc 8ffc 853d c9a0 60bd
00000070: 3416 613d b62f cd3d 8935 bb3c 5a37 45bc
00000080: 8a1c deba 5084 80bd 7c76 36bd 45cb e53c
00000090: 266a 463d 7a2b 0f3d 97b9 323d e79c b43d
000000a0: 71f4 4c3b 18f3 95bc 3fd5 a63c 054c 4cbd
000000b0: 47a4 2a3d 6156 83bd e55a 963d 8dea 693c
000000c0: 02b4 3a3b 973a e2bc d7b5 39bd 13cd 11bb
000000d0: 05ba fcbc 970e 8dbb 420a 5dbd bb88 2c3d
000000e0: 8691 11bd 1bce 58bc c463 023d 41b5 8cbc
000000f0: d12a 8dbd db1f 403c ba87 25bd b0ff 84bc
00000100: 7939 1cbc 7bc2 6b3d 7871 1cbd a3c4 f33c
00000110: 4897 903d 6c5d 673d 6f1b e0bd 4836 25bd
00000120: fefa a8bc c579 893a fd5a 043d 1fcc 66bb
00000130: 241e 313d f698 503c 6aba 94bd b18c 493d
00000140: 4610 033b bdf3 443d 615e d73c 9afe 86bc
00000150: 83f0 693c 60be a9bc ecb5 69bd 2f46 33bc
00000160: 8013 683c abdb 7c3c a8cb 10bd 8b83 aa3c
00000170: 8541 753d 5079 52bc 65c8 e3bc 2352 e83b
00000180: d131 073d cd6a b63c 5bf6 6d3d 53a3 cfbc
00000190: 4608 8bbd 9152 173b ba3c 02be 3905 793c
000001a0: 712c 8c3d 50ea dcbb 0674 143d 4d7c e33c
000001b0: 4639 953c 5a01 713d 8740 ddbc 8d40 b53b
000001c0: ca31 673d 61c9 aebc f052 133d 05fd d53c
000001d0: e76a 673d 3d6e bb39 0dce 013b 3026 42bc
000001e0: eb4d c53c 2c7d 21bc 2dd6 78bd f58f 3a3c
000001f0: 3271 fc3c 9593 603d 76c0 4abd 8666 813d
00000200: e896 5abd a4d8 67bd 8e36 0fbc da09 61bd
00000210: 1d6b 683d 3f5d 69bd f5a3 183d ae7b 89bd
00000220: 99c4 4fbd 928c 093d 6683 9c3c d72c b73c
00000230: b7a1 5c3b d7c6 fc3c 70e5 013d eb29 29bd
00000240: fed2 2c3d f1d7 15bd 6ef9 b03c d4e2 8c3d
00000250: a03a 82bd f645 e43d a5d2 973d 634e 92bc
00000260: 5020 923d 26d0 b03b fd7b 74bd a0d7 2c3a
00000270: dad1 583d a845 b93d c52a 573d 9b8a f0bb
00000280: 5668 fa3c f7e9 c7b7 edd0 8abd cb8e 1bbd
00000290: ffd0 08be c95d 60bc 58cd 213c ce5a d5bc
000002a0: ee47 e33c 6745 803d 46e7 3bbd cf62 663d
000002b0: 141d 103d 5af7 5b3d ce2a 943c 155f 183d
000002c0: f30b a93d b5f3 19bd 9a57 22bc 784a 7b3d
000002d0: 912a d1bc 83f3 613d f232 eebc d0bc 043c
000002e0: a21e c83a f32e abbd eea3 c9bc 9ce0 bf3b
000002f0: f8f3 a8bd 7f79 3dbd 8cfd e73a ca78 073d
00000300: f8a6 a03d c5c0 6cbd 38ae 84bd ee22 793d
00000310: c410 873b f312 01bb f2bd 45bd fb8e 733d
00000320: 7eed 463d f9a5 023d cc77 c33d 4bd4 d63c
00000330: 280a 7bbc cf24 0cbd b0b3 0a3d 8a4c 0bbd
00000340: f19f 91bd 9797 8dbb 2694 0ebd 33b3 7d3d
00000350: d92d 2cbc 0f8e 2abc 5714 8b3c 9747 f9bc
00000360: fb66 43bd b744 60bd 93da e83c c0c1 8ebc
00000370: 754b 8fbd 1c4d a83c c256 dcbd ea28 b13d
00000380: 41af 69bd 1940 9bbd 8f38 ec3c 68d6 a13b
00000390: 4cd4 e7bc 7a75 5d3c 7a71 58bd 352c febc
000003a0: 7c61 adbc de73 2f3c 4357 223b 996a 803c
000003b0: 6cdf db3c 862a a13d 932d 9b3d 187e 863d
000003c0: 29cb 53bc 5418 7bbd 6231 863b e3d7 013d
000003d0: fd55 07bc 0e96 0cbd c04e 14bb dcf5 36bc
000003e0: f73d e1bd e4e1 6f3d 73bc e33c aba7 d93c
000003f0: 4a9a 443b 09ac 84bc e94e bc3c 27ea 2c3d
0.021565009 -0.04563154 0.056519873 -0.023297023 -0.027178144 -0.08094582 0.070712544 -0.029926604
-0.025121212 -0.036843635 -0.0800783 0.11043473 0.047240645 0.049901813 -0.083014816 0.06474127
0.05060383 0.014274303 0.020806465 -0.012576968 -0.019742848 0.08266869 -0.0765232 -0.0028624216
-0.06234419 -0.008204962 0.06542312 -0.054840837 0.054952815 0.10018866 0.022852676 -0.012037123
-0.0016945761 -0.062752366 -0.04454659 0.028051028 0.048441075 0.03495357 0.043634024 0.08818989
0.0031273628 -0.018304393 0.020365356 -0.049877185 0.041660573 -0.0641296 0.073415555 0.014277113
0.002848864 -0.027615828 -0.04533943 -0.0022247478 -0.03085042 -0.0043047178 -0.05396486 0.042122584
-0.035539173 -0.013232733 0.031833425 -0.017176272 -0.06892932 0.011726345 -0.040412642 -0.016235203
-0.009535187 0.057558518 -0.03819415 0.02975685 0.070601046 0.05648558 -0.109427325 -0.04033497
-0.020627495 0.0010488561 0.032313336 -0.003521688 0.043241635 0.012731781 -0.07262118 0.04920644
0.0019998713 0.04808401 0.02629012 -0.016478825 0.014278534 -0.02072066 -0.05705826 -0.010942026
0.014164805 0.015433232 -0.03535047 0.020814678 0.059876937 -0.012846306 -0.027805516 0.0070898696
0.033006493 0.022267723 0.05809627 -0.025346434 -0.067886874 0.0023089985 -0.12718478 0.015198999
0.06844414 -0.0067417994 0.03624346 0.027769232 0.018215787 0.05883918 -0.027008308 0.0055313767
0.056443967 -0.02133626 0.035967767 0.026121626 0.056498434 0.00035749553 0.0019806654 -0.011849925
0.024085006 -0.009856503 -0.06075113 0.011386861 0.030815694 0.054828245 -0.04949995 0.06318383
-0.05336657 -0.05660309 -0.008741034 -0.054941036 0.056742776 -0.056973692 0.037265737 -0.06713043
-0.0507246 0.033581324 0.019105624 0.022360248 0.0033665725 0.030856533 0.03171295 -0.04129974
0.042193405 -0.03658289 0.021603312 0.068792015 -0.06358838 0.111461565 0.07413224 -0.017859643
0.07135069 0.005395907 -0.059688557 0.000659341 0.052934505 0.09046489 0.052531023 -0.007340742
0.03056733 -2.3831597e-05 -0.06778131 -0.037977975 -0.13360976 -0.013694235 0.009875618 -0.026044276
0.02774426 0.062632374 -0.045874856 0.056246575 0.03518398 0.05370269 0.018086817 0.037200052
0.08254232 -0.037585933 -0.009908581 0.061350316 -0.025532993 0.05516387 -0.029077027 0.008101657
0.0015267918 -0.08358564 -0.0246143 0.005855633 -0.08249658 -0.046258446 0.0017699464 0.033074178
0.07844347 -0.057801027 -0.06478542 0.060824327 0.0041218717 -0.0019695133 -0.04827685 0.05946253
0.048566334 0.031896565 0.09544334 0.026224276 -0.015322246 -0.03421479 0.03386277 -0.03400854
-0.071105845 -0.0043210494 -0.034809254 0.061938476 -0.010508978 -0.010409846 0.016977472 -0.030429645
-0.04770563 -0.05475303 0.028424537 -0.017426372 -0.06996814 0.020544581 -0.10758735 0.08650382
-0.0570519 -0.07580585 0.028835563 0.0049388893 -0.028299473 0.013516778 -0.052842595 -0.031026939
-0.021164648 0.010708777 0.002477125 0.01567583 0.026839934 0.07869439 0.07577052 0.06567019
-0.012926855 -0.061302498 0.0040952424 0.031700026 -0.008260247 -0.03432279 -0.0022629946 -0.011167016
-0.10998147 0.058565035 0.02779982 0.026569208 0.002999919 -0.016195314 0.022986846 0.042215493

network_body._body_endoder.seq_layers.0.weight f4 [256, 621]
00000000: 655c 88bd 6ebc a53d be99 81be 2458 f7bd
00000010: 27bf f33d d603 943d 596d c53d a216 dbbd
00000020: 3d68 223d 2636 13bc 6700 143e 6708 9cbd
00000030: c588 b43c c3ee 31be 4567 0dbc 6181 3bbd
00000040: 3eb5 a7bc a892 3e3d 340f 0cbe 92c4 ec3d
00000050: 2d72 fb3d 9f95 6d3d 7dba 303d b468 933d
00000060: 1a76 fe3c 6b01 1f3d 5df3 9d3d da88 1cbd
00000070: ef71 1fbe 5c59 83be e6ac 63bd 2bd8 863d
00000080: 52c3 853e c09b 4b3d a385 85bd 3b18 2d3d
00000090: 5b9f 1c3e 995d 25bd 50d4 66bd 56f7 babc
000000a0: 7d89 28bd 2da1 e0bd 8cc3 5f3c 34a8 2abe
000000b0: 24a3 f7bc 2904 52bd d319 e63d fda7 d33d
000000c0: 9b30 e43d 6e2f a63d 3109 493e a80c 41be
000000d0: f797 28bd 8bca 7d3d 7a04 d5bb ddd5 653d
000000e0: 9d82 54bd 5b77 b4bd 8f1e 9e3d d70d d23d
000000f0: 4031 c3bb f46d 15bd db38 27bc 0c1f aabc
00000100: e945 a43d c198 fa3c 012d d8bd 3b9e 7d3d
00000110: 31c6 883c 7e77 fdbd 73d2 cdbd 9bc9 09bd
00000120: 222d 8d3b adbb e3bd 853b 5b3e b8e2 19be
00000130: 4db5 6e3e 6b25 b9bd 7192 2c3d 4df9 333d
00000140: 3938 3a3d a76e 2b3e 4d2b 4cbd d03f 09be
00000150: a5b5 763d 4737 253d 3a64 ef3d f7da bbbc
00000160: d6c0 a0bd f8f5 98bb 8da7 0f3d 03be 173d
00000170: 6fa3 82be 48da 8cbd 7fad 323e 83ff 01be
00000180: e535 7cbd 2e12 0a3d bbba c03c 3af7 aa3d
00000190: 285b 493e 9eaf f23d 6c1d 6cbd a147 e43d
000001a0: 2361 ab3d 7d6c d4bc 712a 97bc eb3d 2bbb
000001b0: 29cb 363d c54c 083e 12f5 4bbc 7649 9c3b
000001c0: c443 313e 84d9 03be 4ac1 5d3d f9bf 83bc
000001d0: 72e0 003e 8891 333d fc34 003d e494 5b3b
000001e0: 83c4 d6bc e875 cf3c 7c68 c63d edc6 48bc
000001f0: c617 2cbd f2e9 30bd 9fb7 febb 2f5a b9bd
00000200: 575c 5fbd a945 8fbd 04d2 bb3b f64e d53c
00000210: cad0 c83d 5d65 d3bd d8ed 38bd 2237 093d
00000220: 7906 1bbd ef1a eabd b573 51bc cd5c 1d3d
00000230: 967f b7bc 9c29 673d 8ceb c7bd e8d0 e1bd
00000240: 6326 46bd 541f e03b 07c5 bf3c b8ee 1cbd
00000250: a236 42bc c2be 13bd 1358 52bd f251 56bd
00000260: 802c f2bc 618e bfbc d4b2 94bc 5844 213e
00000270: d7a3 98bc 9ff2 cd3d 6ec9 06be 2078 2c3d
00000280: d56d 74bd 49e4 ca3b 6b01 9f3a 3001 ce3c
00000290: 2135 173d 2601 6ebb e5fb e83c fcda 403c
000002a0: a369 253d 7b28 a5bd 60db d5bc a9c4 ae3d
000002b0: e17d 533d a7bc 133e 9c86 bdbd 0578 42bc
000002c0: 1deb 683d ca42 13bc c02d 7cbd 4972 93bd
000002d0: cdb3 3a3e 317c 433d 3df0 1fbe b433 14bd
000002e0: b16c 84bb edfc 04be 009b a13d 1c45 08bd
000002f0: a6a6 a1bd d616 d7bc c64d 8b3d 15d7 31bd
00000300: 7a24 d9bc 010a 32be 04c7 4a3d c552 b0bd
00000310: 405c bbbc 6f83 1c3d 46a7 603e 7f76 073e
00000320: 6714 873d 690e 2bbe 64b5 38bd a9d4 653d
00000330: b3ac 853d a6f4 84bc e160 dfbd a203 83bd
00000340: d0c6 493d d0be 8cbd 19bc 93bd 05b6 f4bd
00000350: b48f 9abd 3ea0 c8bd 2327 be3d 78af 193d
00000360: 3851 813e d8ca cebd 86f9 4d3d 1311 6a3e
00000370: 089e 03be 1709 fbbd 6392 6dbc ffd0 b6bc
00000380: f15e ffbb e6fa be3b 7254 c73d cb90 bfbd
00000390: 5a04 e73d 3d0c 863d a2d3 ad3c f876 b73c
000003a0: 0227 74bd a037 d33d 9f0d a53d 2fa4 aa3c
000003b0: 02e6 3e3e 4dfe 733e 851e 183e e0d5 3c3c
000003c0: 1134 cb3d 2825 2abd d240 05be 1b9c 173e
000003d0: 9c26 1dbe ca07 49bd 8ea7 213e d084 09bd
000003e0: 450e a83d 9132 403d 4768 38bd e474 4a3a
000003f0: 2923 7b3c 8a61 233d 2ffa 5b3d c4e1 9f3e
-0.06658248 0.08092581 -0.25312608 -0.12077358 0.11901694 0.07227294 0.09639997 -0.10697676
0.03965019 -0.008985078 0.14453278 -0.0761879 0.022037873 -0.17376237 -0.008630578 -0.045777682
-0.020472165 0.04652658 -0.13677675 0.1156093 0.12277637 0.058004018 0.0431466 0.07197705
0.031062175 0.03881971 0.077124335 -0.03821645 -0.15570806 -0.25654113 -0.05558481 0.065841995
0.2612558 0.04970908 -0.0651963 0.042259436 0.15295164 -0.040372465 -0.05635482 -0.022823017
-0.041146744 -0.10968242 0.013657462 -0.16665727 -0.030229159 -0.0512735 0.11235394 0.103347756
0.11142083 0.08114515 0.19632412 -0.18852484 -0.04116055 0.06196074 -0.006500778 0.05611216
-0.051882375 -0.08811828 0.07720672 0.10256546 -0.005956799 -0.036481813 -0.0102064265 -0.020766757
0.08021147 0.030590417 -0.10555459 0.06191848 0.016696068 -0.12376307 -0.10049906 -0.03363953
0.0043083588 -0.11119781 0.21409424 -0.15027893 0.23311348 -0.0904034 0.042131845 0.043938924
0.045463774 0.1674143 -0.049845982 -0.13403249 0.060231823 0.04033592 0.116890386 -0.022931559
-0.078492805 -0.0046679936 0.0350719 0.037046444 -0.25515315 -0.06877571 0.17448996 -0.12695126
-0.061574835 0.033708744 0.02352654 0.08347936 0.1966368 0.118499026 -0.057645246 0.11146475
0.08368137 -0.025930637 -0.018452855 -0.0026129435 0.044627342 0.13310535 -0.012448566 0.0047694994
0.17311007 -0.12875944 0.054139413 -0.01608275 0.12585619 0.04383996 0.03130053 0.0033505494
-0.026216751 0.025324777 0.096878976 -0.012254459 -0.04201486 -0.043191858 -0.007773354 -0.09050404
-0.05453142 -0.069957085 0.005731823 0.026038628 0.09805448 -0.10322068 -0.0451487 0.033499844
-0.03784797 -0.114309184 -0.012783934 0.03841858 -0.022399705 0.056436166 -0.09761724 -0.11026174
-0.048376452 0.006839672 0.02340938 -0.038313597 -0.011853846 -0.036070593 -0.051353525 -0.052324243
-0.029562235 -0.023383321 -0.018151678 0.15748727 -0.018632812 0.10056042 -0.13162777 0.042106748
-0.059675056 0.0061917645 0.001213116 0.02514705 0.036915902 -0.0036316602 0.028440425 0.01177096
0.040383946 -0.08064362 -0.026105583 0.08533604 0.05163372 0.14427434 -0.0925419 -0.011869435
0.056864846 -0.008988092 -0.061567068 -0.071995325 0.18232651 0.04772586 -0.15618987 -0.03618212
-0.0040412773 -0.12987109 0.07890892 -0.033269033 -0.07893114 -0.026256006 0.068019435 -0.04341801
-0.026506651 -0.17386629 0.049506202 -0.08609537 -0.022871137 0.038211282 0.2193881 0.13228796
0.06595688 -0.16704716 -0.045094863 0.05611101 0.065270804 -0.016229939 -0.1090715 -0.06397177
0.049261868 -0.06872332 -0.07213611 -0.1194878 -0.075469404 -0.09796189 0.092848085 0.037520856
0.25257277 -0.10097283 0.050286792 0.22858076 -0.12853253 -0.12257593 -0.014500233 -0.022316454
-0.0077933003 0.0058282493 0.097329035 -0.09353789 0.11280127 0.06545303 0.021219078 0.022395596
-0.059607513 0.10313344 0.08059239 0.020830242 0.18642429 0.23827477 0.14855392 0.011525601
0.0992204 -0.04153934 -0.13013008 0.14805643 -0.1534676 -0.049079694 0.15786573 -0.033573925
0.08205847 0.046923224 -0.04502132 0.00077231065 0.015328207 0.039887942 0.05370539 0.31226933

network_body._body_endoder.seq_layers.2.bias f4 [256]
00000000: 48f9 d7bd 2ca5 d63c 0a3c a7bd 7673 00be
00000010: 65f1 023d 8cb1 9c3d 6e5d fdbc 06d6 9b3b
00000020: 7571 5c3d 678b 07bd 5516 0dbd d773 f93c
00000030: 5c33 dbbd 3b59 fa3c 233b 4f3b a14b 70bd
00000040: ba9a e5bd 0050 86bd afca 0b3d 316b 45be
00000050: 34e1 9ebd 91f5 13be 2ae7 4cbd 1abe 023c
00000060: a166 8ebc df4c b83c 5c00 dabc b052 97bc
00000070: 4e20 18bb ef93 b1bc fb58 aebc 1f3b f0bc
00000080: b217 2a3d 9f8a 0e3d 7eec 6c3d 5dc3 563a
00000090: 2d24 a33d 3a12 43be d940 54bd 1ef3 d6bd
000000a0: 5d4d 08be 85f5 c0bd f726 28bd 1360 ebbd
000000b0: 5a9d 67be 7e84 99bd 9c35 e3bc 22d3 1abd
000000c0: 8095 f5bc 5c34 5c3d 9eed 0abd b0a1 79bc
000000d0: f3df c9bd 39fc 89bd 4ec3 2dbc 65c1 95bc
000000e0: 301a 5d3b 1a68 e43b 74ed 743d 8989 3dbe
000000f0: 5c44 b53a 7973 e73c 3f97 1e3b fcb4 b6bc
00000100: 62bf 1b3d 4848 c8bc 87bc 59be 0152 abba
00000110: 9e49 76bd afdc 1abe 30ec d9bb 63a6 ad3b
00000120: 284d d0bd b01f 033d 3b29 64bd fb8a 70bd
00000130: 548d 11bd d96f 27be 7360 27be 3808 26bd
00000140: 3676 56bd 112d ffbc 4feb 2a3d a995 81bc
00000150: 72ac bcbc 3ae2 a0bd b93b d8bc 779b 00be
00000160: 8c9b 913d 0224 35bb 3cad 153d 3039 fbbd
00000170: 501c 54bd 7789 a6bd 1f5d e7bc dfa2 c8bd
00000180: fcb8 90bd 10e2 72bd 374c f03b bb95 81bd
00000190: 0907 5e3d e898 0b3d 1b29 f1bb 5dc9 95bc
000001a0: 293b fd3c 0013 43be 6aaf 343c 59ea 5bbb
000001b0: 89ff 4fbd 4a96 3abc cc20 073e 9be6 1ebd
000001c0: b687 16bd 0dfd a7bc ce75 a8bb 6ae7 39be
000001d0: 07d5 3d3d 7634 98bd 7e62 e3bd 2993 26be
000001e0: c00e 863b 5d32 2cbd 172d 8b3d 7208 2cbd
000001f0: 1394 94bd d9f9 8abd 7dda 2cbe 4638 42be
00000200: 6b34 3e3d 2001 8dbd ee48 c8bc 0a0f 3dbe
00000210: ca96 fabd 3885 97bd 0553 58bc ad93 37bc
00000220: b27b 293d 6094 f4bd e229 743d 1f22 52be
00000230: c13e 183d 5cd1 b1bd d404 f0bb afd2 3f3c
00000240: 41fc febc 3dd2 e4bc b2f0 3fba 9866 c9bc
00000250: d4a1 08be ade4 49be 6a58 1fbe 7b7a 19bd
00000260: 6cc8 aabd 8f23 c4bc dede 05be e879 04ba
00000270: c447 433d 4ce0 09bd 1960 693c ede9 c7bd
00000280: fc27 d5bd b9ab 05be 5d03 36be 4b91 4cbd
00000290: 4bf6 113b 9d71 f3bd d53a 33bd 1ccd cfbd
000002a0: 9655 1cbe b1b0 cfbd b9f5 a9bc 786d fabd
000002b0: b357 5b3c 7190 e73c af57 a1bc 984b 7c3d
000002c0: 4868 2ebd 9db8 03bd 5f16 83bc ed5e 25bd
000002d0: e170 d4bd 337c b0bc d57b 0abe afa6 343c
000002e0: a2ee 6d3d e680 a43c 3968 efbc c9d4 203d
000002f0: 8ed4 b53c 2f9c d0bb 59e3 74bb d53d 98bd
00000300: 1e82 0abd ac11 75bd 1600 8db9 6f84 ebbd
00000310: a50d 54be 9d31 97bc 5eca 483c cd56 a0bc
00000320: 9ff3 8fbc 1e8b 2a3d c44b 6ebd 6188 b4bc
00000330: 5bb5 0fbc 842a 82bd c547 f6bd 3751 70bb
00000340: 5396 7cbd 003f 01be 30fb 293c 1608 94ba
00000350: 8201 26bd cae4 e6bc 194b 96bd 3906 753d
00000360: dd33 88bd feab 7e3d f568 a53d 6d41 e03b
00000370: f3d1 373d c531 b5bd da4c fa3c 156f c7bd
00000380: c5f1 9cbc 6964 21bc 2e7b 67bd e2b8 30be
00000390: 0ce7 7bbd 4045 18be bd40 5abd b8d1 47bc
000003a0: 238e 21bd c61c 1bbd a544 613d b8d6 11bd
000003b0: dd1f 08be 4134 00bd 717c ccbd f9fb 9bbc
000003c0: 07ad 02bc e611 8bbc dbcf 34bd 5d1d 14be
000003d0: bf24 87bd f2e6 62bd 8842 0bbd 572a 863d
000003e0: 3b2b 1cbd 78b8 00be 5708 b03d a5d4 993d
000003f0: ace8 54be 54b5 49bd ce40 f6bd 6a61 5ebd
-0.105455935 0.026201807 -0.081657484 -0.12544045 0.031968493 0.07651052 -0.03092834 0.004755738
0.05381914 -0.03309193 -0.034445126 0.030450745 -0.107031554 0.030560127 0.0031620942 -0.058665875
-0.112111524 -0.065582275 0.03412884 -0.19279172 -0.07757798 -0.14449145 -0.050025143 0.007979894
-0.017382922 0.022497592 -0.0266115 -0.018472046 -0.0023212614 -0.021676986 -0.021282664 -0.029325066
0.041526504 0.034800168 0.057842724 0.00081925635 0.07965884 -0.19049922 -0.051819656 -0.1049559
-0.13310762 -0.09421829 -0.041052785 -0.11492934 -0.22618619 -0.07495974 -0.027735524 -0.03779901
-0.029978514 0.05376087 -0.033918016 -0.015236303 -0.09857168 -0.06737561 -0.010605646 -0.018280694
0.0033737533 0.0069704177 0.059796765 -0.18509497 0.0013829577 0.028253304 0.0024199036 -0.022303097
0.038024314 -0.024448529 -0.21263324 -0.0013070704 -0.0601288 -0.15123247 -0.00665047 0.005299376
-0.101709664 0.03201264 -0.055703383 -0.058726292 -0.03553517 -0.1635126 -0.16345386 -0.04053518
-0.05235883 -0.031149419 0.041728314 -0.015818434 -0.023031447 -0.07855649 -0.026395665 -0.12559305
0.07109746 -0.002763987 0.036542162 -0.12266767 -0.051784813 -0.08131688 -0.028242646 -0.0979669
-0.07066533 -0.05929762 0.0073333043 -0.06327387 0.054205928 0.03408137 -0.0073596365 -0.018284494
0.030911999 -0.19050217 0.01102815 -0.003355643 -0.050780807 -0.011388371 0.13196105 -0.03879414
-0.036750518 -0.020506406 -0.0051409965 -0.18154684 0.046345737 -0.07431881 -0.1110277 -0.16267075
0.004091114 -0.042040218 0.067957096 -0.04200024 -0.072548054 -0.06785936 -0.16880222 -0.18966779
0.04643671 -0.0688498 -0.024448838 -0.18462768 -0.12235792 -0.07398456 -0.013203387 -0.011204642
0.04137773 -0.11942363 0.059610255 -0.20520829 0.03716922 -0.0868251 -0.0073247943 0.011707946
-0.031126143 -0.02793228 -0.0007321938 -0.024585053 -0.13342983 -0.19716139 -0.15561071 -0.037470322
-0.08339009 -0.023942737 -0.13073298 -0.0005053566 0.047675863 -0.03366117 0.014244103 -0.09761415
-0.10408017 -0.13053788 -0.1777472 -0.04994325 0.0022272046 -0.118869044 -0.04375728 -0.101465434
-0.15267023 -0.10141123 -0.020747053 -0.12227911 0.013387608 0.028267117 -0.019695131 0.06159553
-0.04257992 -0.032158483 -0.016001878 -0.04037373 -0.103730924 -0.021543598 -0.135238 0.011026069
0.058088906 0.020080995 -0.029224502 0.039265428 0.02219608 -0.006366275 -0.0037366955 -0.074336685
-0.033815496 -0.059831306 -0.0002689368 -0.11499869 -0.2070833 -0.018456275 0.012255279 -0.01957264
-0.017572222 0.04163658 -0.058177724 -0.022037687 -0.008771266 -0.063557655 -0.12025408 -0.0036669502
-0.061666798 -0.12621689 0.010374829 -0.0011293914 -0.04052878 -0.028185267 -0.073385425 0.059820388
-0.06650517 0.062175743 0.080766596 0.006843737 0.044877958 -0.088473834 0.030554224 -0.09737984
-0.019158253 -0.0098506 -0.056513958 -0.17258027 -0.06149964 -0.14870167 -0.053284395 -0.012195997
-0.039442193 -0.037869237 0.054997105 -0.035605162 -0.13293405 -0.031299833 -0.09984673 -0.019041048
-0.007975823 -0.016976308 -0.04414354 -0.14464326 -0.06598806 -0.055396028 -0.033998996 0.065510444
-0.038127165 -0.12570369 0.08595341 0.07511262 -0.20791882 -0.049245194 -0.12024079 -0.05429212

network_body._body_endoder.seq_layers.2.weight f4 [256, 256]
00000000: 9eb7 b63d 36c4 c53d 5d46 bebc ce0b cb3d
00000010: 9f43 a43d 197c 473e 2a2e 53bd e20c a63d
00000020: 5e71 853d 6419 12be 5147 943d 79c6 92bd
00000030: 0f5f 5cbe 7f0a f4bd 57ec 593e 1955 a13d
00000040: ddd9 303b 0e62 68bd 01a3 15be d9cf 643e
00000050: 939b e4bd 51c6 28be 2ef8 08bd a192 31be
00000060: 4612 6abd 002b 883d 80fb 6d3e 1ef8 cd3c
00000070: 9633 a6bb 350a 5ebe 822a 8c3d 30bc 49be
00000080: a9e9 83bd e130 18bd 0358 5e3e ff71 c3bd
00000090: e71b 94bc 165f bd3d 0ca4 a63d 59fc 883d
000000a0: 261b 3b3e 4dd1 e8bb cb6c 4a3d dd5d eabd
000000b0: 8d65 c43a 0fd8 9abd 5b7e ae3c 45e9 5d3e
000000c0: 064b 8f3d 53de 8b3d d784 f9bc bde1 a03b
000000d0: c031 c3bc 176b 3fbe 94e2 79bc 5558 4abd
000000e0: 0722 713d b386 1ebe 0dab 093e 2f34 f639
000000f0: 9b28 143d 3fa6 cc3c 3efd 393e e527 8f3d
00000100: 384b 1dbd 20fa b5bd 836b 0cbe ff91 10be
00000110: c97a 5dbe 6d43 19bd 847e 4d3e 5692 803e
00000120: b2f9 40be bad8 1cb7 d2e1 cebd d4f3 46be
00000130: cf91 c3bd eec5 7ebd bd3e 1d3e 21d8 813d
00000140: ac21 9abd c29d 39bd e7d7 95bd b51d 9c3d
00000150: dfe5 e23d 9775 c13d e2fa 3f3d b529 adba
00000160: 705e 803d 2c9a 7f3d d07e f73d 10b6 a9be
00000170: 6966 04be 3286 3f3d bac5 1d3d acfa 873e
00000180: c580 e8bc 44f7 c83d 64e0 cd3d 763a b43d
00000190: 2230 efbd 5b84 9fb9 e866 103e df03 10be
000001a0: 49a6 11bd e5e7 b3be bc54 85bd 5e78 b0bd
000001b0: 34c7 423e 2109 1d3d 19dc 063e 28ef 1abd
000001c0: b3ea 5b3b 6274 63be 8925 82bd 870e 35be
000001d0: 32f2 45be 1405 82bd e786 f7bc 2b90 273d
000001e0: eb9d 623d c1f7 453e e88c 2abe 2137 cf3d
000001f0: be88 e73c d123 e1bc 79ea 97bd a69d 523e
00000200: 4f7c 773c cc85 b13c 19c4 a4be 2322 27be
00000210: 40c1 4c3d a2d8 253e 36b9 873d 9aa3 c43b
00000220: 5834 f43d 2349 7f3b 4582 de3d 8011 813e
00000230: d19a d83c dbc5 4d3e ac7b 813d 76e3 81bd
00000240: 085e e3bc dd33 2e3e aa44 25bd 7047 e2bd
00000250: a05b 05be 916c 3cbb 9166 c0bd a34f a9be
00000260: db6f 38be 0460 0f3e ebe4 f1bd 2a39 983d
00000270: 32a9 bc3c 7754 a63d 5c68 08be b5e0 5f3e
00000280: 2658 3c3e 8652 67bd eaea 1e3d 885a c9bb
00000290: 7982 373e e064 1d3e dbfa 99be ce0f b33d
000002a0: 3355 763e 8ab0 f73c edcc a9bd a0e2 113e
000002b0: f4e6 5fbe 27ef 1fbd 8d9d 543e 9987 113e
000002c0: d181 6bbe c600 713d a7b4 023e 3957 243d
000002d0: dbf2 5f3c 7bc7 3d3e a577 08be d08d e2bd
000002e0: 5b48 c43d fe34 be3d 43c7 01be 3e36 b2bc
000002f0: 486d 253e b100 263e 0f10 d7bc a53f febc
00000300: e379 c0bc 5c73 2dbe 3772 babd 2fee 7bbc
00000310: 0ac6 94bc c4cf e23d afa3 d13d 4e6b 033d
00000320: a768 40bd fef2 74bd 3893 87bd 1cc1 96bc
00000330: 1a22 0dbd c518 5e3e 6fb8 31be ef7f 173d
00000340: 4370 d83d 4265 70bc d132 1cbd ca9a 9ebd
00000350: 3b36 8d3d a5bd 8fbd 22bd 643d 84e1 033d
00000360: 965e 54bd ac44 ed3d 6b91 793e d19a 92bd
00000370: da5c 3d3c db4d 713d 1fb6 0b3d d22f 0cbe
00000380: 3167 0b3e 4cc0 e53d c15a 653e bf7b b5be
00000390: 1be0 0c3e 1674 6dbe eef4 323e 72a3 f2bd
000003a0: 8a7f eabc e6c4 223d 9ffe 48bd 9799 283e
000003b0: 269c e9ba 9cd8 8fbd d3f3 e83b 1ed5 0fbd
000003c0: a64c 83bd c2c2 813d 9c2b 15be fd7f 493c
000003d0: 706e 263d 2fb6 36be 9e21 b13d 4885 f43c
000003e0: bde8 533e 7e32 ef3d 8b37 04be 6f3f d63d
000003f0: e8dc 9bbd 3bff 76bc 0ca4 e2bc 729b b73d
0.08921741 0.09656565 -0.023226911 0.09914361 0.0802071 0.19480933 -0.051557697 0.08107926
0.06515764 -0.14267498 0.07240165 -0.07166762 -0.21520637 -0.119160645 0.21281563 0.07877559
0.0026985325 -0.056734137 -0.14612962 0.22344913 -0.11162486 -0.16481902 -0.033439808 -0.1734109
-0.057146333 0.066488266 0.23240471 0.025142726 -0.0050720675 -0.21683581 0.06844045 -0.19700694
-0.064410515 -0.03715599 0.21713261 -0.095432274 -0.018079711 0.09246652 0.08136758 0.066887565
0.18272075 -0.0071050287 0.04942016 -0.11443684 0.0014983878 -0.07560741 0.021300485 0.21671017
0.069967315 0.06829514 -0.03045885 0.0049097226 -0.023827434 -0.18693195 -0.015251774 -0.049400646
0.05887034 -0.15481071 0.13444157 0.00046959656 0.036171537 0.024981616 0.1816301 0.06990031
-0.038401812 -0.08885598 -0.13712887 -0.14118193 -0.2162887 -0.037417818 0.20067793 0.25111645
-0.18845251 -9.348785e-06 -0.101016656 -0.1942895 -0.09549295 -0.06220048 0.15355964 0.063400514
-0.07525954 -0.045316465 -0.07316571 0.07622854 0.11079001 0.094462566 0.04687012 -0.0013211282
0.062680125 0.06240289 0.120847344 -0.33146715 -0.12929691 0.046758838 0.038518645 0.26558435
-0.028381715 0.09812787 0.10052565 0.08800213 -0.116791025 -0.00030425456 0.14101756 -0.14063977
-0.035558973 -0.3513786 -0.065103024 -0.08616708 0.19021302 0.038338784 0.13169898 -0.037825733
0.003355664 -0.22212365 -0.063548155 -0.17681323 -0.19330671 -0.06348625 -0.030215694 0.040908974
0.055326384 0.19332792 -0.16655314 0.10117937 0.028263446 -0.027482899 -0.07417769 0.2056795
0.015105321 0.021670245 -0.3218086 -0.16321616 0.049988985 0.1619592 0.06627123 0.006000948
0.11924046 0.0038953505 0.10864691 0.25208664 0.02644101 0.20095007 0.06322417 -0.06342213
-0.027754799 0.17011972 -0.040348686 -0.11048782 -0.13023233 -0.0028751234 -0.09394563 -0.3306857
-0.1801142 0.14001471 -0.11811241 0.07432778 0.023029897 0.08121579 -0.1332106 0.21863063
0.18393001 -0.056475185 0.03879825 -0.0061448254 0.17920865 0.15370512 -0.300742 0.08743249
0.24055938 0.030235548 -0.082910396 0.14246607 -0.21865445 -0.039046433 0.20763226 0.14211883
-0.2299874 0.05883863 0.12764226 0.040122245 0.013668741 0.18533127 -0.13326891 -0.11062205
0.09584113 0.09287451 -0.12673669 -0.02175438 0.16154969 0.16211201 -0.026252775 -0.031036207
-0.02349562 -0.16938537 -0.09103816 -0.015376612 -0.018160839 0.110747844 0.10236298 0.032084756
-0.046974804 -0.059802048 -0.066198766 -0.018402629 -0.03445635 0.21689136 -0.17355512 0.03698724
0.10568287 -0.014672579 -0.0381344 -0.077443674 0.06895109 -0.07018594 0.055844434 0.03219749
-0.051848017 0.11585364 0.24371879 -0.07158435 0.011557782 0.05891214 0.03410923 -0.13690117
0.13613583 0.11218318 0.22397901 -0.35445973 0.13757364 -0.23188815 0.17476246 -0.11847581
-0.028625268 0.03973856 -0.04907095 0.1646484 -0.0017823025 -0.07023737 0.0071091442 -0.035115354
-0.06411104 0.06335975 -0.14567417 0.012298581 0.040632665 -0.17842935 0.0864899 0.02984871
0.20694251 0.116795525 -0.12911813 0.10461318 -0.07610494 -0.0150755 -0.027666114 0.08965196
