Assets/TFModels/Other models trained in the process/Striker2-lessrewcut_selfplay3_6M.onnx (onnx, 911175 bytes, 9 tensors)

action_model._discrete_distribution.branches.0.bias f4 [5]
000000 b8 31 2c 3c a5 d2 94 3c fa f2 24 3c 90 e2 a4 bd
       0.010509901 0.01816685 0.010067696 -0.08051026
000010 28 a6 4e 3d
       0.050451428

action_model._discrete_distribution.branches.0.weight f4 [5, 256]
000000 41 ca b2 bd 61 e8 cf bd 89 80 b5 bd 22 e0 1c be
       -0.08729983 -0.10151745 -0.08862407 -0.15319875
000010 88 7c cb 3a 53 a2 7a 3d a4 d1 2e 3e 08 61 0f 3e
       0.0015524784 0.06118996 0.17072159 0.14001858
000020 16 cb 01 bc bd 40 be bd 77 cf 2e 3b d4 97 16 bd
       -0.007921955 -0.092896916 0.0026673952 -0.03676589
000030 86 ec 52 bd 65 e9 df bd 77 3e ac 3d e1 e1 f1 bc
       -0.051495098 -0.10933188 0.08410352 -0.029526653
000040 5d 2c 09 3d 17 a8 8f 3d 3f 4b b7 3c 76 af f1 bd
       0.033489574 0.070144825 0.022374747 -0.11801045
000050 f4 d7 17 3d 9f 63 2c bd c2 e5 1c be 9a d8 3f 3d
       0.037071183 -0.042087194 -0.1532202 0.046837427
000060 8f 00 82 3c f9 3a b5 bc d0 6e 97 3d e9 2b 33 3e
       0.015869407 -0.022122847 0.07394183 0.17497219
000070 e5 91 3e 3d 1c a6 3f bc 69 1e e7 3c b2 41 86 3d
       0.046525855 -0.011697318 0.028212743 0.06555499
000080 5c 0d a6 bd 1b 50 ba 3b 81 eb 41 3d 9a a5 6f 3d
       -0.08108017 0.005685819 0.047343735 0.05850754
000090 60 90 a0 3d d1 66 59 3d 72 eb 24 3d 2f ae 48 bc
       0.07840037 0.05307657 0.0402636 -0.01224856
0000a0 ea d6 aa bb e8 1c 54 3d 95 39 f4 bc 88 e5 66 bd
       -0.005213608 0.05178538 -0.029812614 -0.05637124
0000b0 28 53 89 bd 15 1a d6 bd cc dc 8d 3d 3a a3 eb bc
       -0.06705314 -0.104541935 0.06926879 -0.028764356
0000c0 a4 50 ab 3c 47 c7 a5 3d b3 df 16 bd 1f 3b 20 be
       0.020912476 0.0809465 -0.03683443 -0.15647553
0000d0 82 c6 aa 3d 16 9c 93 3d 67 94 be bd cd 86 5a 3d
       0.083386436 0.072075054 -0.09305649 0.053351212
0000e0 06 06 fd 3d 01 25 d2 3c 70 57 c9 ba ba e9 02 be
       0.123546645 0.02565241 -0.0015361141 -0.12784472
0000f0 88 db b6 bc 21 8d da bc ec 78 08 3d a1 b2 0a 3b
       -0.022321478 -0.026678624 0.033318445 0.00211636
000100 be 14 e8 3c 90 a9 e1 3c 3b ab fe bd 06 ad 92 3c
       0.028330203 0.027546674 -0.12435003 0.01790477
000110 91 95 b3 3d 2a dd 95 bd 82 02 33 3e fd 90 c0 bd
       0.08768762 -0.07317574 0.17481425 -0.09402654
000120 02 90 d0 bc c6 51 7f bc e7 31 78 bc 63 ff 1c be
       -0.025459293 -0.015583461 -0.015148616 -0.15331797
000130 90 65 d7 3d d1 6d cf bd fb e7 f5 3d 72 44 80 bd
       0.105174184 -0.10128368 0.120071374 -0.06263055
000140 89 8d 5f bd 15 34 de 3d 0b 6f 74 3d 8f 79 03 3e
       -0.054578338 0.108497776 0.05967621 0.1283934
000150 9b d8 b2 3d 10 6d f6 bc 93 52 31 be 06 aa fc 3d
       0.087327205 -0.030081302 -0.17316656 0.12337117
000160 48 a8 0d be ba b7 21 3e a6 32 bc 3d 94 26 47 bd
       -0.13833725 0.15792742 0.09189348 -0.048620775
000170 99 b9 dd 3c 88 f4 6c bc 0b e3 9b be d7 ef 3f 3e
       0.027066039 -0.014462598 -0.30446658 0.18743835
000180 d5 f9 25 3d f2 f7 8f 3d 72 00 1b 3c 02 50 86 bd
       0.04052146 0.07029714 0.009460555 -0.06558229
000190 6d 29 76 bd 47 f1 6e bd 84 35 0e bd 16 9b d7 3c
       -0.0600981 -0.05833557 -0.034719005 0.026319068
0001a0 e1 e5 a1 ba 4f 0c 23 bd 05 76 19 bd ce 92 54 3c
       -0.0012351834 -0.03980666 -0.037466068 0.012974454
0001b0 6a ce e9 3c 36 e3 00 3a 31 69 34 bc ce 84 66 bc
       0.028540809 0.00049166696 -0.011011408 -0.014069749
0001c0 e6 df 61 3d f0 dd d8 3d 49 12 c0 3d 4f 19 a4 bd
       0.055145167 0.10589206 0.093784876 -0.0801264
0001d0 7b 8e 83 bd 1c a0 c7 bc e4 d2 b2 bd c8 88 b5 3d
       -0.0642366 -0.024368338 -0.087316304 0.088639796
0001e0 c6 59 e0 3d a1 b4 5d 3d e4 71 9b 3d 03 de d8 3d
       0.10954623 0.05412734 0.07590082 0.105892204
0001f0 e4 09 1b 3e f0 03 26 3e 58 a5 86 3d b2 a5 d8 3d
       0.15140492 0.1621244 0.065745056 0.10578479
000200 82 05 10 3e db 47 98 bd ef 13 da 3d cd e1 25 3d
       0.14064601 -0.0743558 0.10648333 0.040498544
000210 c0 34 82 bd 6f 45 24 bd 50 e6 30 3e df ed 8c 3d
       -0.063577175 -0.04010528 0.17275357 0.06881308
000220 50 f8 7b bc 6d 88 fb 3c 94 92 af bc f3 49 8b bd
       -0.0153790265 0.030704701 -0.021432199 -0.06801214
000230 0d df b6 bd 6c a9 45 bd 67 c7 2f 3d db 18 e3 bc
       -0.08929262 -0.048257276 0.042914774 -0.027721813
000240 3e 13 02 be 5e 06 4b bd f6 53 e9 3c 04 bc 74 be
       -0.12702653 -0.04956662 0.028482419 -0.23899847
000250 18 3a e2 bd 4f e8 91 3d 58 79 89 3d d1 8c 0e 3e
       -0.11046237 0.071243875 0.067125976 0.13920905
000260 35 6d 3e bd c3 96 a7 3b 50 db a1 bd 04 95 35 3d
       -0.046490867 0.0051144077 -0.07903159 0.044331565
000270 38 06 45 3d af 27 ee 3d ad ef b2 3d b7 cd c9 3d
       0.048101634 0.11628663 0.08737121 0.0985369
000280 0b d1 8a bd 93 75 72 3d b5 2e cd 3c d4 73 03 3e
       -0.06778153 0.05919416 0.025046686 0.12837154
000290 e1 c6 2d 3d 5d fd 15 3c d9 f7 8c 3c a5 ba 10 3e
       0.042425994 0.009154645 0.017208027 0.14133699
0002a0 fd 41 99 bd b9 7b 0f bd e4 0b 0e bd 2e 44 40 be
       -0.074832894 -0.0350301 -0.03467931 -0.18776008
0002b0 96 8b 17 be 9e d8 34 be f7 54 ad 3d ac b3 df 3b
       -0.14799342 -0.17660758 0.084634714 0.0068268385
0002c0 93 4d e0 3d 00 40 d8 3b 13 84 1b be c1 c0 a7 3d
       0.10952296 0.0065994263 -0.15187101 0.08191062
0002d0 a5 2c 07 be fb 86 24 3e 5f b6 be bd b5 49 94 bd
       -0.13200624 0.16067116 -0.09312128 -0.07240621
0002e0 1b 46 1e bd 1e af 3d 3d b3 f5 30 bd 4b c3 f9 3d
       -0.038641077 0.046309583 -0.043203067 0.12195452
0002f0 9e 18 20 bc 64 8a b4 3d 9a 5d 05 3a ed 30 95 3c
       -0.009771494 0.088154584 0.0005087495 0.018211806
000300 ea 9e ea 3c c4 a8 8b 3d ec 6d 2b bc 9d 0b 1c 3e
       0.02864023 0.06819299 -0.010463219 0.15238805
000310 19 2e df bd 94 d1 73 3d 3b 7b f7 3d fd c9 29 bb
       -0.10897464 0.05952604 0.12084051 -0.0025907748
000320 2e cc 52 bd aa 4d 9c bd 28 20 8c bc 6c de 54 3d
       -0.051464252 -0.07632001 -0.017105177 0.05196993
000330 76 66 71 bb 03 73 87 3c 3e 72 f9 3c d9 eb f9 bc
       -0.0036834753 0.016534334 0.030449983 -0.030507969
000340 a7 53 f6 bb 32 c0 4a bc aa a2 46 be 15 b1 1e 3c
       -0.0075172964 -0.0123749245 -0.19397989 0.009685774
000350 31 34 5a bc bf ca fb 3d 82 cc 17 be 0a a3 50 be
       -0.013318107 0.1229453 -0.14824107 -0.20374694
000360 48 18 d0 bb d9 46 17 3e ff aa 83 3c 78 20 33 bd
       -0.006350551 0.1477312 0.016072748 -0.043732136
000370 0a 1f 46 3c b0 77 7f 3c 09 24 2a 3e 51 1e e6 bc
       0.012092361 0.015592501 0.16615309 -0.028090628
000380 25 e0 1e 3d ca 06 11 be 2e 9b cb 3c bf 40 8f 3c
       0.03878798 -0.14162746 0.024854269 0.017486928
000390 2f 05 5b bc 76 4b f8 3c 84 2a 08 be 7a 84 33 be
       -0.013367935 0.03030942 -0.13297468 -0.17531005
0003a0 c7 22 8c 3b 58 d7 26 bc 42 6a 74 bc 6b 22 c1 3d
       0.0042766067 -0.010183178 -0.014917912 0.09430393
0003b0 59 36 e3 bc 14 65 c1 3d d1 06 91 bd e6 57 b4 3d
       -0.027735876 0.09443107 -0.07081378 0.08805828
0003c0 f0 68 c5 3d ed 84 e5 3c 6a 8e d9 3d d4 e3 9a bd
       0.09639156 0.028017486 0.106228665 -0.07562986
0003d0 d5 30 2b 3d 20 e0 c4 3d 5c 78 98 3d ff f3 13 bc
       0.041794617 0.09613061 0.07444832 -0.009030341
0003e0 a7 ba 5d bc 76 d8 65 bc 40 e4 76 bc 8b 1f 35 3e
       -0.013533271 -0.014028659 -0.0150690675 0.17687814
0003f0 9d 39 f7 bd 99 1c e0 bd 8e 5d 17 3e 80 4f 65 bd
       -0.12071536 -0.109429546 0.14781782 -0.05598402

action_model._discrete_distribution.branches.1.bias f4 [3]
000000 e1 48 ad 3d 00 36 d9 bd 93 5b 85 3c
       0.08461166 -0.10606003 0.016279018

action_model._discrete_distribution.branches.1.weight f4 [3, 256]
000000 e8 39 49 be ea 25 06 3e 52 6f 14 be d1 08 99 bb
       -0.19650996 0.131004 -0.1449559 -0.0046702405
000010 d4 da e1 3c 0f 21 16 3e 84 f0 fd bc 47 17 17 bd
       0.027570166 0.14661048 -0.030998476 -0.036887433
000020 9c de 21 3e 3e 44 ba bd 35 44 65 be a5 90 95 be
       0.15807575 -0.090950474 -0.223893 -0.29211918
000030 d3 4d 28 3d bf c2 8c 3d f2 fc 88 3d 45 9e 2d be
       0.041089844 0.06873082 0.066888705 -0.16954906
000040 e2 85 9a bd a5 98 83 be 28 b1 84 bd 9d 6e be bd
       -0.07545067 -0.25702396 -0.064791024 -0.092984416
000050 0e 2d 3c be 82 34 66 be c8 0f c2 3c e4 48 a4 3d
       -0.18376562 -0.22480968 0.023689166 0.08021715
000060 b5 66 01 bd bf 73 1f 3e c6 9e d6 3c b3 e0 af bd
       -0.03159209 0.15571497 0.026198756 -0.0858778
000070 ee ce 27 be aa c9 fc 3c db fb 98 3d c9 35 54 be
       -0.16387531 0.03085788 0.074699126 -0.20723642
000080 3b c8 f3 3b 72 01 7a 3d 5f b6 67 3a 89 14 82 bc
       0.007439641 0.061036535 0.0008839126 -0.015878933
000090 30 a0 c3 3d f4 65 2f be 39 d3 07 be 7f f1 a5 3c
       0.09552038 -0.17128736 -0.13264169 0.020256756
0000a0 20 6a 46 be 3b f3 0f 3c 33 59 b9 3c a1 4a e2 bd
       -0.19376421 0.008786018 0.022625541 -0.110493906
0000b0 3f cd 39 be a5 ad 56 3c 0c 4c 7c 3d d5 7d 86 3d
       -0.18144701 0.0131029235 0.06159596 0.06566969
0000c0 f8 6e 18 bc 85 62 7a bb 4b 68 cb 3c df f1 29 3d
       -0.009303801 -0.0038205695 0.024830004 0.041490432
0000d0 94 02 0d 3c 9a 4d 9c 3b fc f5 1b 3d 2f 79 26 bd
       0.008606572 0.004769993 0.038076386 -0.040642913
0000e0 1a ca dc 3c 36 c9 1b 3e 55 20 7e bd 04 d2 4f bd
       0.026951838 0.15213475 -0.062042553 -0.050737396
0000f0 a5 c3 02 bd e3 8f 4e 3d 56 a8 97 3d 45 08 b2 3d
       -0.031924862 0.05043019 0.074051544 0.086929835
000100 ae 9e 08 3d ee c8 9a 3c b9 d6 c9 bd dc 2a 65 3d
       0.033354454 0.018894639 -0.09855408 0.055949077
000110 09 5f ab bd 8a c9 4a bc b3 dd 19 be b6 4f ed bb
       -0.08367736 -0.012377152 -0.15025978 -0.0072421683
000120 f3 4d 14 be 8d 0c 0f 3e 2d 6d 28 bd ca 9b 09 be
       -0.1448286 0.13969631 -0.041119743 -0.13438335
000130 b9 86 0f bc 07 a4 1c be ea 77 cc bd 44 52 34 3c
       -0.008760148 -0.15296946 -0.09983809 0.011005942
000140 52 68 25 3e 3b 42 02 bd db e5 10 3e 49 81 d5 3b
       0.16153076 -0.031801444 0.14150183 0.006515656
000150 b5 a7 bf bd 6a 40 57 be f2 ca 6f bd ce 8e 43 be
       -0.093581595 -0.21020666 -0.058543153 -0.19097444
000160 93 45 de 3d 71 58 ab 3d 2e 63 e0 3d 96 dd b2 3c
       0.10853114 0.08366478 0.10956417 0.021834176
000170 d2 dd 45 bc 0b d8 2c 3b d1 be b9 bd 95 2a 84 3c
       -0.012076812 0.0026373889 -0.090695985 0.016133586
000180 fa e4 2e be 1d b9 d1 3d a7 d4 c3 3d 73 af 0a 3e
       -0.17079535 0.10240386 0.095620446 0.13543491
000190 09 68 01 3e 06 a4 93 3d 99 79 60 3c 03 e4 4f 3c
       0.12637343 0.07209019 0.013700866 0.01268864
0001a0 3f 85 4a 3d e3 8e 0b be 00 d0 e8 bd 44 55 4e be
       0.04944348 -0.13628726 -0.11367798 -0.20149714
0001b0 5d fc 77 bd 32 6e e2 3d 92 f3 80 3e 62 98 ac bd
       -0.060543407 0.11056174 0.2518583 -0.08427502
0001c0 a3 58 48 3d 73 56 a4 bc 19 a0 f4 3c cf ac 44 be
       0.048912656 -0.020060753 0.029861497 -0.19206546
0001d0 51 73 59 3e d8 3b 4f 3d ca 67 00 be 1c fe 47 be
       0.21235396 0.05059418 -0.12539592 -0.19530529
0001e0 bd dc fe 3b b2 62 e1 bd a4 c4 ed 3d 9e 8a 31 bd
       0.007777779 -0.11005153 0.11609772 -0.043345086
0001f0 d0 d2 2e bd 65 9d 85 bd 73 09 7c 3d c1 6e 86 bd
       -0.042681515 -0.06524161 0.06153245 -0.065640934
000200 b2 0a f2 bc 86 6c 38 3d 1d 4d f6 bd 80 65 1d be
       -0.029546116 0.04502537 -0.12026427 -0.1537075
000210 f4 1d 6a 3c 70 0c 32 be 54 43 16 be 42 8e 19 3e
       0.014289368 -0.17387557 -0.14674121 0.14995673
000220 75 37 1a bd 5a 11 62 be 04 3d f2 3d 8f 87 ec bd
       -0.037650544 -0.22076932 0.11828044 -0.11549293
000230 7e 28 fa 3d 96 22 01 3e 1f 10 09 bb 68 dc 1f 3e
       0.122147545 0.1261085 -0.002091415 0.15611422
000240 e0 51 c1 3d 45 66 6c bd fc 36 16 bd 66 a8 5e 3d
       0.094394445 -0.05771472 -0.03667353 0.054359816
000250 95 6c 44 be 91 e6 1e bc 5d 4c d7 bd 44 e8 ce bd
       -0.19182046 -0.009698526 -0.10512612 -0.10102895
000260 70 50 5c bd 13 eb e8 bd 99 8b 89 be 0c 12 b9 3c
       -0.05378765 -0.11372962 -0.26864317 0.022591613
000270 a4 1d 36 bd c6 66 b1 bc 72 47 01 bd f2 71 07 bd
       -0.04446186 -0.021655452 -0.031562276 -0.03306765
000280 63 08 41 be dd bd 0c be e0 8a b5 bd df 50 cb bd
       -0.18850856 -0.13744302 -0.08864379 -0.09927534
000290 56 eb 2a 3e 99 3a 05 be af 6a 09 be af 59 41 3d
       0.16691336 -0.13010634 -0.13419603 0.04720467
0002a0 69 19 37 be d0 d3 b5 bd b1 14 21 be cd 58 48 be
       -0.17880787 -0.08878291 -0.1573055 -0.19565125
0002b0 42 3e 88 bc 34 46 11 be af 00 e8 bc 49 ab b4 3d
       -0.01663125 -0.14186937 -0.028320638 0.088217326
0002c0 68 71 79 bc 51 ae be be fa 4d 52 bd 96 8c 84 be
       -0.015224792 -0.37242368 -0.051343895 -0.2588851
0002d0 02 ea ab bd af 5b b0 3d 3f 0a 05 be 25 1a e1 3d
       -0.08394243 0.08611237 -0.1299219 0.10991315
0002e0 67 5a ad 3d 0e 44 c2 3c c4 7f 17 be 74 ca 2d bd
       0.084645085 0.023714092 -0.14794832 -0.042429402
0002f0 27 e4 5b 3c c9 21 04 3e 68 00 67 bd 7b 74 b3 3c
       0.013421095 0.12903513 -0.05639687 0.021906128
000300 35 5b df bd 1a 3b c1 bd 20 37 7e be b0 b4 15 bd
       -0.10906068 -0.09435101 -0.24825716 -0.03654927
000310 1c 93 08 be 6a 2d 86 3d 70 d6 88 3c af 2a 37 bd
       -0.13337368 0.06551631 0.016703814 -0.04471844
000320 91 67 95 3c 7b aa 8e 3d d1 a9 d0 bc 88 41 90 bd
       0.01823786 0.0696611 -0.0254716 -0.07043749
000330 72 fb c6 3d 8f 94 24 bd 14 b3 8b be a6 71 61 bd
       0.09715928 -0.04018074 -0.27285063 -0.055040024
000340 f2 52 fe 3b fd 80 9b be 2b 73 f8 3b 2e cd 9f bc
       0.0077613527 -0.30371848 0.0075820885 -0.019507017
000350 7e e0 50 3d a3 a9 1a be 54 7d e2 bd af 0d 21 3e
       0.050995342 -0.15103774 -0.11059061 0.15727876
000360 24 20 ec bc 54 76 4a 3d f1 72 56 3e bd 1d 5c be
       -0.02882392 0.049429253 0.20942284 -0.21495719
000370 40 0b 51 be 81 76 ff 3c a7 4e cc 3d 55 96 38 be
       -0.20414448 0.031184437 0.09975939 -0.18026097
000380 5c 4c 83 bd cb 19 4d bd 59 7e 59 be 59 3a 13 be
       -0.06411049 -0.050073426 -0.21239604 -0.14377727
000390 28 18 09 be fa d0 7b be 25 f0 84 bb 06 57 4c bd
       -0.13388121 -0.24591437 -0.004056948 -0.04988768
0003a0 41 06 e4 bd 3f 18 12 be 73 f1 64 bc cc 50 ad 3d
       -0.11134005 -0.14267062 -0.013973582 0.084626764
0003b0 5a 3d 49 be c6 47 d3 bd ea 2f d0 3c 10 fb ae ba
       -0.1965231 -0.10316424 0.025413472 -0.0013349969
0003c0 ad 87 48 be 52 9d 86 3d 0c 39 cc 3b 84 a2 7a be
       -0.19583006 0.06572975 0.0062323865 -0.24476057
0003d0 01 c0 07 3d fb be a7 bd e1 f6 a0 3d 47 b3 f3 bd
       0.033142094 -0.081907235 0.078595884 -0.11899429
0003e0 23 4c ea 3d eb 24 c6 bd aa 5b 86 3e a3 ec 70 3b
       0.11440303 -0.0967501 0.2624181 0.003676214
0003f0 24 ca 45 be 7b d9 18 3d 05 c2 82 bd 21 0c d3 3c
       -0.19315392 0.03731678 -0.063846625 0.02576262

discrete_action_output_shape f4 [1, 2]
000000 00 00 a0 40 00 00 40 40
       5.0 3.0

network_body._body_endoder.seq_layers.0.bias f4 [256]
000000 65 5f d1 bc 30 76 79 bd 62 0e 09 3c 22 29 9d bd
       -0.025558183 -0.060903728 0.008365246 -0.07673861
000010 01 4c db bc 2e 30 cd bd d9 0d 0b 3d c2 7d fb bc
       -0.02676964 -0.10018955 0.033948753 -0.030699614
000020 67 ed c7 bb 1c ed 29 bd e8 64 b9 bd 20 98 db 3d
       -0.0061012986 -0.04148589 -0.090524495 0.10722375
000030 6b 5c 59 3d 55 aa a5 ba 38 20 b1 bd 6a 03 49 3d
       0.053066652 -0.0012639264 -0.08648723 0.04907552
000040 71 53 92 3d e9 6e 72 3d fd 0b f5 3c 49 51 c4 bd
       0.071448214 0.059187803 0.029912943 -0.095858164
000050 cb 79 7d bd f8 66 b4 3d 57 63 c9 bd c9 f5 0d 3b
       -0.06188373 0.08808702 -0.09833401 0.0021661392
000060 4b ac 6d bd 59 15 9a b9 50 8a 31 3d e8 08 5e bd
       -0.05802564 -0.00029389074 0.043344796 -0.054207712
000070 48 cf 90 3d 16 d2 d3 3d fe 0d 32 bd 2e da c9 bb
       0.07070786 0.10342805 -0.043470375 -0.0061600422
000080 5c 8a d2 bc 9f cf 97 bd aa 8e 69 bd cd a9 a1 3b
       -0.02570074 -0.074126475 -0.05702082 0.004933572
000090 1a fc 5f 3d db af c6 39 21 32 75 3d ac 7b 92 3d
       0.054683782 0.00037896525 0.05986226 0.07152495
0000a0 7b 89 d4 bb e5 09 48 3b af ed 3d 3d 9b 0f bc bd
       -0.0064861155 0.0030523476 0.04636925 -0.09182664
0000b0 14 12 9d 3d 98 37 cd bd 0a 87 6d 3d 9e f1 ef 3c
       0.07669464 -0.10020369 0.05799011 0.029290017
0000c0 14 b2 09 3c 19 d4 df bc 1e e2 0e bd 14 73 57 bc
       0.008404274 -0.027322816 -0.03488361 -0.013149995
0000d0 64 d7 1a bd 5b d0 93 bc dc 42 af bc 56 87 0e 3d
       -0.03780307 -0.018043688 -0.021394186 0.034797035
0000e0 75 f1 84 bd 77 1e 08 bd 30 5b 6a 3c b3 3c 14 bd
       -0.06491367 -0.03323218 0.014303967 -0.0361907
0000f0 43 00 c1 bd a2 29 b7 3b ec a8 72 bc f9 6a 5b 3c
       -0.09423878 0.00558968 -0.014810782 0.0133922035
000100 42 66 11 bc b2 ec 02 bc 2c 69 3e bd 16 a9 9d 3c
       -0.008874478 -0.007991003 -0.04648702 0.019245666
000110 dd c3 ae 3d e5 d1 7f 3d cb c5 13 be 74 84 f2 3b
       0.08533452 0.06245603 -0.14430921 0.0074010435
000120 62 ad 88 3a ce e1 69 3b 5c fb 54 bb 94 b7 d0 bc
       0.0010427649 0.0035687569 -0.0032498455 -0.025478162
000130 84 78 68 3c 33 8a e8 bc 92 eb 02 be 39 51 17 3d
       0.014188889 -0.028386211 -0.12785175 0.036942694
000140 22 be 67 3c 63 94 8f 3c 2d 90 ed 3c 5d e2 8e bc
       0.014144452 0.017526811 0.028999412 -0.017441923
000150 1c 29 0d 3d 2d b6 b0 bc 9c 59 b5 bd 71 a7 61 bb
       0.034463033 -0.021571243 -0.08854982 -0.0034432078
000160 6e cb 3b 3c 32 d3 3b 3c 90 7d 4e bc 90 e0 d7 bc
       0.011462076 0.011463927 -0.012603179 -0.026352197
000170 23 61 30 3d 5e 2d cf bc cb cb 10 bd 36 3d 00 bb
       0.043061387 -0.025290187 -0.035350602 -0.0019567735
000180 c1 97 7a 3d 69 03 69 3c 25 e1 88 3d 47 f5 29 bd
       0.06117988 0.014222004 0.06683568 -0.04149368
000190 79 77 a0 bd a1 11 78 3d 30 17 29 be 04 9d a8 ba
       -0.078352876 0.060563687 -0.16512752 -0.0012864177
0001a0 e1 5a 88 3d ff cd 0f bd fb 4e 86 ba 43 5f ab 3c
       0.06657959 -0.035108563 -0.0010246927 0.020919448
0001b0 4d f5 be 3c e6 82 1c 3d ed 85 36 bd 48 c2 ba 3c
       0.023310328 0.038210772 -0.044561315 0.022797719
0001c0 7c 38 a4 3d 27 dd 35 bd 85 bc 3d 3d 5c 21 b3 3b
       0.08018586 -0.04440036 0.046322364 0.005466623
0001d0 2c f7 46 3c b5 25 ff bb cc 16 27 3c 99 32 20 3b
       0.012143891 -0.0077864775 0.010198306 0.002444422
0001e0 df e7 f0 3b c6 4c 4e bd 65 e0 9c bd dc ef 86 3d
       0.00735186 -0.050366186 -0.07659987 0.06588718
0001f0 4c 93 89 3d 9f 90 86 3d 93 00 2a bd fd 6f b3 3d
       0.06717548 0.06570553 -0.041504454 0.087615944
000200 7f 31 9b bd 5b 9d 8b bd 56 5c 3a bc ed a8 db bc
       -0.075778 -0.068171225 -0.011374554 -0.026813949
000210 d6 99 15 3d 45 9f 40 bd 39 dd d7 3c 28 a6 30 bd
       0.036523663 -0.04702689 0.026350604 -0.04312721
000220 bd 87 7a bc b9 d5 74 3d 3d 7e ae 3c 17 a9 91 3d
       -0.015291152 0.059774134 0.02130043 0.071123295
000230 39 8f a9 bb fe da 05 3c eb 5d 80 3c 4a 2e 0e bd
       -0.005174544 0.008169888 0.015669784 -0.034712113
000240 0f bd 49 3c 04 ff a3 bd 9d ed 9e 3d 46 53 bf 3d
       0.0123131415 -0.08007625 0.07760165 0.09342055
000250 4d fa 84 bc 02 f4 ad 3d 07 1c 76 3d bd 74 a9 bd
       -0.016232634 0.084938064 0.060085323 -0.08274219
000260 98 e0 9c 3c 09 52 9f 3d 98 ce ad bd 6d 10 c4 3b
       0.019150063 0.07779319 -0.0848667 0.0059834034
000270 9d 9a 71 3d c0 bd cb 3d a8 6c f4 3b cf 96 e4 bc
       0.05898534 0.09948301 0.007459242 -0.027903942
000280 e8 fb 22 3d 0a 71 e9 3c a4 49 9f bd 9a e7 c2 bd
       0.039791018 0.028496284 -0.07777718 -0.09516831
000290 6d 77 17 be bd d1 2f bc 3b b6 2c 3a 9d d9 64 bc
       -0.14791651 -0.010731158 0.0006588434 -0.013967899
0002a0 05 66 17 3d 83 a1 21 3d 2e d2 bf bd a4 98 93 3d
       0.036962528 0.03946067 -0.093662605 0.07206848
0002b0 f7 c1 50 3d 43 a9 0f 3d bd 29 3e 3c 83 f7 e5 3c
       0.05096623 0.03507353 0.011606631 0.028072124
0002c0 d8 f6 9f 3d ea 60 34 bd a9 cf db 3c 31 c8 0c 3d
       0.078107536 -0.044037737 0.026832419 0.034370605
0002d0 61 0a 23 bd a2 c6 ab 3d 8b 8a 21 bd df cf a9 bc
       -0.03980482 0.083874956 -0.039438765 -0.020729003
0002e0 91 fa dc 3c e0 85 aa bd 75 19 48 bc 56 66 8d 3c
       0.026974948 -0.08326316 -0.012213101 0.017260712
0002f0 e7 0a 19 be 54 f8 ca bc 96 8a 21 bb 33 70 81 3d
       -0.14945565 -0.024776615 -0.0024649254 0.063202284
000300 5d b5 81 3d 1a fd 47 bd ae dd 8d bd 73 d3 af 3b
       0.063334204 -0.04882536 -0.06927048 0.005365783
000310 0b 85 00 3c 36 46 2c bc f1 16 84 bd 9f 67 47 3d
       0.00784422 -0.0105147865 -0.06449688 0.048682805
000320 50 69 18 3d 6a bc 83 3c 7e 5f 8c 3d 97 b5 00 3c
       0.03720981 0.016081054 0.06854151 0.007855794
000330 82 e9 1b 3d 79 74 97 bc 0d 4f 3c 3d 78 dd 05 bd
       0.038064487 -0.018488156 0.045973826 -0.032681912
000340 3a 3e d3 bb b7 f0 f3 bc 59 e7 10 bb 25 3f 1b 3d
       -0.006446627 -0.029777868 -0.002211055 0.037902016
000350 ca bd e7 ba cc 22 25 bb bb c3 9a bc 4e 20 b8 bd
       -0.0017680463 -0.0025197743 -0.01889216 -0.08990537
000360 68 b3 5f bd 1c cc df 3c d8 8e ad bc 93 2a 7a bc
       -0.054614455 0.027319007 -0.021186277 -0.01526894
000370 93 c5 ea bd 49 9a de 3d fa a5 ee bd 2e d1 b7 3d
       -0.114634655 0.10869271 -0.11652751 0.08975445
000380 5c 5d 49 bd 18 c9 c9 bd c1 6a e8 3c cf 1f 0f bd
       -0.0491613 -0.09852809 0.028371217 -0.034942444
000390 e4 7e 24 bd 14 d0 e9 3b d5 43 9f bc 30 15 41 bd
       -0.040160075 0.0071354005 -0.019441525 -0.047139347
0003a0 d0 38 a0 bd 12 98 9b bb 4a fa b0 ba 1c d6 01 3d
       -0.07823336 -0.004748353 -0.0013502326 0.03169833
0003b0 27 42 4d 3b 8b 79 52 3d 82 99 68 3d 2a da 89 3d
       0.0031319947 0.051385444 0.05678702 0.067310646
0003c0 9d c2 14 3c 55 19 a3 bd c0 c8 32 bd 7c 9d 3b bb
       0.009079603 -0.07963816 -0.04364848 -0.0028627804
0003d0 0e e3 3a bd 6c ae 67 bd b6 19 fe bc 3c e6 28 bc
       -0.045626692 -0.056562826 -0.03101812 -0.010308798
0003e0 24 69 34 be ac da 32 3d 02 0a 4d 3d 67 b0 32 3d
       -0.17618233 0.043665573 0.050058372 0.04362526
0003f0 fa 5e 65 bd 13 25 e7 bc ad b6 e7 3c e7 48 06 3d
       -0.05599878 -0.02821592 0.028285349 0.03278437

network_body._body_endoder.seq_layers.0.weight f4 [256, 621]
000000 b2 a6 c3 bd d8 7a 94 3d 3d cc 94 be 07 17 eb bd
       -0.09553279 0.07249993 -0.2906207 -0.114790015
000010 85 b6 23 3e 6e 49 ba bb 1f e7 be 3d 14 cf b6 bd
       0.15987594 -0.005685023 0.093214266 -0.08926216
000020 e5 d8 92 bc cb cc 69 bd 28 5c 36 3e d9 8d c1 bd
       -0.017925689 -0.05708007 0.17808592 -0.094508834
000030 db ac 1c bd 1e 28 47 be e3 de c9 bd d3 14 50 3b
       -0.038250785 -0.19448897 -0.098569654 0.0031750693
000040 91 65 6b bc 5a b2 24 be e0 27 c1 bc 18 dd 03 3e
       -0.014367477 -0.1608366 -0.023578584 0.1287731
000050 66 0d 22 3e a5 84 ad 3d 8d 7b e7 3d dd 67 9a bc
       0.15825424 0.084725656 0.11302862 -0.018848354
000060 b6 cc 7f 3d d5 b2 7e 3d 0b 5d ec 3d 24 7a e6 bd
       0.062451087 0.062182266 0.11541184 -0.11253765
000070 c2 d0 13 be db c9 1a be c2 af b7 bd 51 b4 41 3d
       -0.14435104 -0.15116064 -0.0896907 0.047291104
000080 95 01 6d 3e 86 21 81 3d 4c 64 55 bd fc 47 fc bc
       0.23145135 0.06305222 -0.052097604 -0.030796044
000090 ac 1c 8f 3d 86 8e a7 bd ce 05 12 be b5 9d 27 bd
       0.069878906 -0.08181481 -0.14260027 -0.040921886
0000a0 5d 6a 8c be aa 94 56 3c a7 c8 cb 3d 42 3f 1b be
       -0.274249 0.013096968 0.09950381 -0.1516085
0000b0 c8 0a 81 be b2 68 f3 3a e4 4a b2 3d 31 fc 88 3e
       -0.25203538 0.001857063 0.087056905 0.26754907
0000c0 df 82 5f 3d 41 4c 35 3d 37 ab 92 3e 8d 33 e0 bc
       0.054568168 0.044262175 0.28646252 -0.027368331
0000d0 79 09 21 bc 00 77 80 3d 53 3b 92 bd 5b f1 d4 3d
       -0.009828919 0.062726974 -0.071402214 0.103975974
0000e0 68 42 45 bd 9e a2 0c be ed 87 92 3d b3 65 1d 3e
       -0.048159033 -0.13733909 0.07154832 0.15370826
0000f0 71 2a 65 3d 40 44 6a bd 57 95 d3 bd 26 c3 e8 bd
       0.05594868 -0.057193995 -0.10331219 -0.113653466
000100 17 e0 6f bc 44 44 92 bd 68 69 3e be ab 3a 26 bb
       -0.0146408295 -0.07141927 -0.18594897 -0.0025364559
000110 9e 54 a5 bd d0 0c 20 be 6f 8f 20 be c6 da 6b be
       -0.0807278 -0.15629888 -0.15679716 -0.23032674
000120 78 1d 3a 3d 43 9d b1 3b ae 58 94 3e 9f 0d 30 be
       0.04543826 0.0054203584 0.28973907 -0.17192696
000130 b9 8f 88 3e 76 d8 1b bd 87 71 0a 3e 63 4f 85 3c
       0.26672152 -0.03804823 0.1351987 0.016273206
000140 37 b6 7d 3d 0a fd 2e 3e b3 66 49 bd 37 a8 ae bd
       0.06194135 0.17088714 -0.049170207 -0.08528178
000150 81 b2 18 3d 4d 51 71 3d b0 b9 1d 3e 43 71 8f bd
       0.03727961 0.058915425 0.15402865 -0.07004025
000160 f1 a3 43 bd e9 8c 02 bd e5 cc 3b 3d 5e 97 a5 bc
       -0.04776377 -0.031872664 0.0458497 -0.020213779
000170 5e 33 4f be 8a 27 a6 bd b2 bd 3d 3e 92 29 a9 bd
       -0.20234439 -0.0811301 0.18529394 -0.08259882
000180 5e 52 8b bd 41 a9 88 3d 71 2e b2 bc 4e 80 a3 3d
       -0.0680282 0.066729076 -0.02175066 0.079834566
000190 22 c4 96 3e 77 e9 21 3e 89 05 b1 bd ad 15 c5 3d
       0.29446512 0.15811716 -0.08643634 0.09623275
0001a0 7b 2f 38 3d b8 75 66 bd 3c ff f5 3c 71 7f 38 bd
       0.044967156 -0.05626461 0.030028932 -0.045043413
0001b0 f1 01 9a 3d 67 52 eb 3d 0c 05 11 bd 7b e1 e4 bc
       0.075199015 0.114903264 -0.035405204 -0.027939549
0001c0 37 8c 57 3e 9b 1c 10 be 72 b3 8e bc cf 21 93 3c
       0.21049581 -0.14073412 -0.01741955 0.017960457
0001d0 c1 29 0f 3e 23 29 c3 3c a0 37 03 3d e0 45 7d 3c
       0.13980772 0.023823326 0.03203547 0.015458554
0001e0 ba 6b 6d bd 2b 2e 64 bd 37 f4 fa 3d 34 10 1f bc
       -0.057964064 -0.05570809 0.122536115 -0.009708453
0001f0 6e 12 16 3c c8 d7 aa bd c7 a8 85 bc 11 97 a2 bd
       0.009159667 -0.08341938 -0.01631583 -0.0793897
000200 24 ef c2 bd ea a0 86 bd f6 26 8d 3c ea 71 bb 3c
       -0.09518269 -0.06573661 0.017230492 0.022881467
000210 33 58 9f 3d 36 ba 82 bd f4 0e 86 bd 79 49 96 3d
       0.077804945 -0.06383173 -0.06545821 0.073382325
000220 dc 57 47 bd 4e d3 16 be 83 05 7d bc 72 82 33 3d
       -0.048667774 -0.14729044 -0.015443209 0.043825574
000230 2e 92 5e bb 10 43 82 3c 8b 63 7c bd 37 37 f2 bd
       -0.0033961642 0.015901119 -0.06161837 -0.11826938
000240 90 af 71 bd dd 3a 6c bb 9f 05 90 bc 88 c1 86 bd
       -0.05900532 -0.0036045827 -0.017580805 -0.06579882
000250 45 d7 3f bd 16 7e d7 bc d5 c9 0d bd e8 c0 40 bc
       -0.046836156 -0.02630524 -0.03461631 -0.011764742
000260 80 a6 ab bd d5 47 85 3d 8d c3 ad 3c 0b 8d e3 3d
       -0.08381367 0.065078415 0.02121141 0.11110886
000270 76 29 1c 3c 04 97 2d 3e 50 83 3e be a4 23 4b bc
       0.009531369 0.16952139 -0.18604779 -0.012398634
000280 95 79 fa bc a7 f7 2c 3c ee ee 32 3d 41 c4 97 bd
       -0.030575553 0.010557092 0.043684892 -0.07410479
000290 b3 53 f8 3c c2 38 dc bc 13 6f 9a 3c 4a c9 8e bc
       0.030313348 -0.026882533 0.018851792 -0.017429966
0002a0 1c d0 4c 3d 97 fc 29 bd 7f 54 a1 bd 25 ab 0c 3e
       0.050003156 -0.041500654 -0.078774445 0.13737161
0002b0 43 b1 73 3d dc a0 13 3e 98 66 39 bd bb 71 3d bc
       0.05949522 0.14416832 -0.045263857 -0.01156276
0002c0 d9 ba af 3c 22 a9 14 3c 7e 10 1d bd e8 92 00 be
       0.0214514 0.0090735275 -0.038345806 -0.1255604
0002d0 81 8e 63 3e d2 c8 c0 bc 36 f1 40 be db 12 0e 3c
       0.2222233 -0.023533259 -0.18842015 0.008671488
0002e0 0c b0 6a 3c f1 eb 11 be 11 13 d6 3d 53 0d fc bc
       0.014324199 -0.14250161 0.104528554 -0.030768072
0002f0 6a 47 fe bd c0 e0 6f bc db c2 1b 3e f1 21 38 bd
       -0.12415965 -0.014640987 0.1521105 -0.044954244
000300 6a 65 b8 3c 2d f9 47 be b9 c9 a1 3c 7b 9d b8 bd
       0.022509295 -0.19528647 0.01974951 -0.09014412
000310 b4 0e 63 bc 15 00 fd bb 50 98 72 3e e1 30 cd 3d
       -0.013858486 -0.007720957 0.23690915 0.100190885
000320 95 f0 7f 3d 38 41 0f be ec 0b 0c bc 0e 42 83 bd
       0.062485296 -0.13989723 -0.008547764 -0.06409083
000330 bb 4c c6 3d d6 11 8f bc 5c e8 33 be 72 7b cd bd
       0.09682604 -0.01746456 -0.17569107 -0.10033311
000340 e0 41 1d 3e d7 31 8a bd 0b bd 80 bd ca 4b 35 be
       0.1535716 -0.067477874 -0.06286057 -0.17704692
000350 59 cc 1a be ea 18 d7 bd f8 91 ce 3d 5c 6b 2f bc
       -0.15117015 -0.10502799 0.10086435 -0.010706749
000360 64 49 36 3e da e5 a7 bd 1d d9 9c 3d 0a db 36 3e
       0.17801434 -0.081981376 0.076585986 0.17856994
000370 bd 6a ba bd 46 60 20 be 03 63 19 bd dd 55 79 bd
       -0.0910239 -0.15661725 -0.03744794 -0.0608729
000380 7f d5 7a bd a6 6c e2 bc c3 f6 59 ba 1d 66 35 bd
       -0.061238762 -0.027639698 -0.00083146634 -0.044286836
000390 8b b7 ac 3d 9f c4 c0 3d 52 60 9d bc 26 c3 d3 bc
       0.084334455 0.094125025 -0.019210968 -0.02584989
0003a0 6b 53 e0 bd 11 8c 35 3d 24 55 95 3d c0 65 0c bd
       -0.10953411 0.04432303 0.0729163 -0.034276724
0003b0 d7 2e 56 3e 34 ec 54 3e fd ce b0 3d 10 69 0f 3e
       0.20916305 0.2079323 0.0863323 0.14004922
0003c0 a7 15 a7 3c 10 d7 92 bc 29 c1 13 be a8 92 8a 3d
       0.020396067 -0.017924815 -0.14429154 0.06766254
0003d0 6f 7b 0b be 1b 47 e1 bc cf 14 06 3e 7d 79 2c 3a
       -0.13621305 -0.027499726 0.13093875 0.00065793825
0003e0 6a 95 8e 3d bb 32 46 3b 83 cc 58 bd e3 d0 6d bb
       0.06962092 0.003024264 -0.052929413 -0.0036287836
0003f0 9a b6 a4 bc 76 13 8c 3b 31 91 da 3d fc e8 8b 3e
       -0.020106602 0.004274781 0.10672224 0.2732619

network_body._body_endoder.seq_layers.2.bias f4 [256]
000000 6a d9 b0 bd 56 23 95 3d 8c 2d ed bd 2c ad da bd
       -0.086352184 0.072821304 -0.11580953 -0.10677561
000010 80 2b 0f 3d b1 46 cc 3d 4d fc ee bc 3c 9a d3 3b
       0.034953594 0.09974421 -0.02917304 0.006457595
000020 e2 4b a6 3d 1b 5f 82 bd 7a 09 1d 3b 66 ad 02 bd
       0.08119942 -0.06365796 0.0023961947 -0.031903647
000030 34 0b 1a bd 85 e2 45 3d fb 88 5b 3a 84 8f ee bd
       -0.03760834 0.04831173 0.00083745987 -0.11648467
000040 2d 46 c6 bd 7e 87 53 bd 70 19 af 3c 9f a3 1f be
       -0.09681354 -0.051642887 0.021374434 -0.1558976
000050 db 20 41 bd e2 51 3b be fb b4 03 3c 4a a5 18 3c
       -0.047150474 -0.18292955 0.008038755 0.009316752
000060 88 3b b7 bd 1e 6b 91 3c 1e 84 93 bd e3 80 13 bd
       -0.089469016 0.017751273 -0.07202934 -0.036011588
000070 9e 1a 13 bd 7b 9f e6 bc c3 18 c6 3c fa 88 db bc
       -0.035914056 -0.028152218 0.02418173 -0.026798714
000080 ae 67 52 3d 3a 2e d4 bc 16 2c 7d 3d 26 f1 a6 38
       0.051368408 -0.025900949 0.06180962 7.960414e-05
000090 d9 44 c0 3d 49 39 52 be 00 f7 d7 bd 93 1a 17 bd
       0.09388132 -0.20529665 -0.105451584 -0.036890578
0000a0 29 9b ed bd 1a d3 b5 bd 7f 9b 23 bd 49 45 44 be
       -0.1160186 -0.08878155 -0.039943215 -0.19167055
0000b0 5c 8d 47 be 9b c7 95 bd c6 67 89 bd a0 0d 7a bc
       -0.19487518 -0.07313462 -0.06709246 -0.0152620375
0000c0 ec df c8 3a 2c 28 81 bb 99 1a 43 bd e0 c2 89 3c
       0.0015325523 -0.0039415564 -0.047632787 0.016816556
0000d0 ce 56 a1 bd 18 44 d5 bd 00 cf b8 bb fc e6 e7 bc
       -0.07877885 -0.104133785 -0.0056399107 -0.028308384
0000e0 8a 79 08 bd 4d 7a 57 3d 90 92 66 3d 6b 20 52 be
       -0.033319034 0.05260687 0.056292117 -0.20520179
0000f0 a7 ce 83 3c b4 84 3a 3d f4 be 08 3d 19 73 f3 3b
       0.01608975 0.04553671 0.033385232 0.007429492
000100 34 5a 73 3d f7 70 0f bd 58 9c 7e be 0a 8e 05 3d
       0.059412196 -0.03501984 -0.24864328 0.032606162
000110 b0 3f 42 bd ad 1e 43 be ff f4 af bc e4 4b ac 3c
       -0.04742402 -0.1905467 -0.021479128 0.021032281
000120 46 61 22 be c0 43 98 3d 5f af 77 bd 50 65 88 bd
       -0.1585742 0.07434797 -0.06046998 -0.06659949
000130 65 c4 80 bd 41 f1 5d be 55 92 18 be 17 77 6d bb
       -0.06287459 -0.21674062 -0.14899571 -0.0036234313
000140 f8 99 51 bd af 13 c8 bd a4 c0 04 3d 95 0d 9d bd
       -0.051172227 -0.09769379 0.03241028 -0.07668606
000150 25 38 40 bd 32 7d 9b bd f8 e1 2c bd bc ad 44 be
       -0.046928544 -0.075922385 -0.042207688 -0.192069
000160 5c cf 08 3e 2c c9 2e 3d 0e 48 a0 3d 87 d5 e6 bd
       0.13360351 0.04267232 0.07826243 -0.11271196
000170 58 e5 28 3c 44 e0 c1 bd 02 a0 ee 3c 10 af a7 bd
       0.010308586 -0.094666034 0.029129032 -0.081876874
000180 9c 1e d4 bd c0 ac 29 bd 8f b7 ad ba f0 0f 5d 3c
       -0.10357401 -0.041424513 -0.0013253557 0.013492569
000190 06 52 e7 3d 8e 45 47 3d 93 4d 27 3d 1d f7 67 bd
       0.112949416 0.048650317 0.040845465 -0.05663215
0001a0 a8 f2 45 3d ea 92 2d be f9 95 f1 3c 98 ce 23 bd
       0.04832712 -0.16950575 0.029490458 -0.039991945
0001b0 ab 3a 16 bd 67 49 a6 bb 4a c7 76 3e b3 76 c7 bd
       -0.036677044 -0.005074668 0.2409946 -0.09739437
0001c0 2a c2 e0 bc 5e ba 8a bd 24 1c 15 bd 42 54 5f be
       -0.027436335 -0.06773828 -0.03640379 -0.21809486
0001d0 b6 cd 09 3e 03 73 30 bd 90 df e2 bd ef 25 70 be
       0.13457379 -0.043078434 -0.110777974 -0.2345197
0001e0 ca bb 15 ba 91 22 62 3b 96 49 a1 3d 5a 81 8e bd
       -0.00057118817 0.0034505466 0.078753635 -0.069582656
0001f0 2c bc 57 bd 4c 0a d3 bd 33 78 29 be 00 02 82 be
       -0.05266969 -0.10304698 -0.16549759 -0.2539215
000200 29 1d 69 3d 9b 8e 73 bd 0c d2 cf bd 9f 67 3b be
       0.056912575 -0.05946217 -0.10147485 -0.18301247
000210 3a 9a f0 bd 01 6f bf bd 01 54 6a bc 36 2b d1 bb
       -0.117481664 -0.09347344 -0.014302255 -0.006383325
000220 28 99 7a 3d 08 7f 0d be 38 c6 88 3d ed 20 65 be
       0.061181217 -0.1381799 0.06678432 -0.22375841
000230 ce 89 95 3d e4 f0 c5 bc 1f 05 56 bb 06 25 10 3d
       0.07301675 -0.024162717 -0.003265686 0.03519156
000240 71 c2 d0 bb e4 96 ee bc 8e 45 92 bb e5 6f 3a bc
       -0.0063708355 -0.029124685 -0.004463858 -0.011379217
000250 f3 cd 32 be e6 b9 6d be 7c 70 0f be 6a 95 88 bd
       -0.17461376 -0.23215446 -0.14007753 -0.066691235
000260 9f 7b 49 bd c5 73 3f bd e1 61 48 bd e4 22 4a bd
       -0.04919016 -0.046741266 -0.04892147 -0.04934968
000270 8a 79 8c 3c ad 2f 12 bd f3 ca 22 bc 9f 36 de bd
       0.017147798 -0.03569 -0.009936082 -0.10850262
000280 41 8c c9 bd 3b 18 a4 bd da e3 82 be 71 86 f3 bd
       -0.098412044 -0.08012434 -0.25564462 -0.11890877
000290 06 fb 5f 3d 92 5d 08 be d0 d3 a5 bd e3 08 d4 bd
       0.054682754 -0.13316944 -0.08097041 -0.103532575
0002a0 32 62 1a be 3d b2 c3 bd a8 9c 3c bd 2a e0 11 be
       -0.15076521 -0.09555481 -0.046047837 -0.14245668
0002b0 3e af 0a bb 4a 3e 8e 3c fb 52 ed bc ab 34 a2 3d
       -0.0021161581 0.017363686 -0.028970232 0.07920202
0002c0 0c 00 49 bd d2 15 3f bd 76 c4 a3 bd f7 47 8d bd
       -0.04907231 -0.04665167 -0.07996456 -0.06898492
0002d0 80 07 ca bd d1 2d 40 bd 26 1c 0a be d0 98 78 3d
       -0.09864712 -0.046918694 -0.134873 0.06069261
0002e0 10 59 30 3d 66 17 c4 3c 71 a7 a9 bd bb 88 9f bb
       0.043053687 0.023936938 -0.0828389 -0.0048685945
0002f0 ed 6a 12 3c 94 aa d3 3b 57 63 c2 bb e1 f9 43 3c
       0.008936626 0.0064595435 -0.0059322524 0.011961431
000300 8b fd 82 bd 11 7b 50 bd 93 2e 05 bd 58 f1 e0 bd
       -0.06396016 -0.050898615 -0.03251512 -0.10983533
000310 8f 5f 71 be f7 48 32 3b 52 46 32 3d 71 35 e0 bc
       -0.23571609 0.0027204135 0.043524094 -0.027369233
000320 ac 7c 03 3c 08 68 95 3d e4 ba 89 bd a5 50 b9 bd
       0.00802533 0.07295233 -0.067251 -0.09048585
000330 e3 a7 c1 bc 3b 8e 88 bd de 1d a5 bd 50 d4 55 bd
       -0.023639625 -0.06667753 -0.08062337 -0.05220443
000340 dd b9 db bd 2d 52 20 be 6e 5c 73 3c 7d ea 26 bd
       -0.1072881 -0.15656348 0.01485358 -0.04075097
000350 88 9d 45 bd ec ca ae bd b7 e1 c3 bd f5 f5 58 3d
       -0.048245937 -0.08534798 -0.09564536 0.052968938
000360 4a a4 4d bd f5 54 87 3d ed 95 34 3e 6d 82 6c bd
       -0.050205506 0.06608001 0.17635317 -0.05774157
000370 43 f9 66 3d 5a 6f d1 bd a7 d1 0d 3d 04 1b c4 bd
       0.05639006 -0.10226317 0.03462377 -0.09575465
000380 78 a6 82 bd 0c 80 9a bd 3b 59 01 be 01 30 35 be
       -0.06379408 -0.07543954 -0.12631695 -0.17694093
000390 17 f7 45 bd 21 49 0a be 44 d0 c9 bd 2c 13 1c bd
       -0.048331346 -0.13504459 -0.09854177 -0.03810422
0003a0 53 ee 36 bd 16 f2 9f bd fe 57 90 3d ec 70 8e bc
       -0.044660877 -0.07809846 0.07048033 -0.01738783
0003b0 30 2f e9 bd 1b 13 17 bc 84 2d e4 bd 45 ad 2e bd
       -0.113859534 -0.009220864 -0.11141494 -0.04264571
0003c0 68 6c a5 bb 1f 7b 68 3a 99 df a3 bd 1d a9 3a be
       -0.0050483234 0.0008868444 -0.08001632 -0.18228574
0003d0 0f 91 82 bd 9d 0d 9e bd 55 87 2d bd 8c 51 4e 3d
       -0.06375324 -0.0771744 -0.04236539 0.050370738
0003e0 41 8b 19 bc 6d 33 12 be 1d 01 16 3e 57 7c cf 3c
       -0.00937158 -0.1427743 0.14648862 0.025327845
0003f0 09 5a 88 be e9 86 93 bd 1a ea fa bd 0a 52 2a bd
       -0.2663119 -0.072034664 -0.122516826 -0.041582145

network_body._body_endoder.seq_layers.2.weight f4 [256, 256]
000000 83 62 0a 3e ba be 8d 3e 63 84 a6 3d 68 e0 34 3d
       0.13514142 0.27684575 0.081307195 0.044159323
000010 d6 1b 88 3d f6 be 41 3e 77 23 5d bd 86 20 43 3d
       0.06645934 0.18920502 -0.0539889 0.04763844
000020 c0 e6 c6 3c 7f 9d af bd 42 c5 65 3d 34 7e be bc
       0.024279952 -0.08574962 0.056096323 -0.023253538
000030 18 20 1d be b1 da 4a bd 62 e4 5c 3e 4b 67 1d 3e
       -0.15344274 -0.049524967 0.21571496 0.15371434
000040 78 2d 29 3e 59 8c 82 bd 40 51 29 be 4b d8 6f 3e
       0.16521251 -0.063744254 -0.165349 0.23422353
000050 d7 5c 1d be 23 f5 e3 bd 5b f3 5a bd 74 95 04 be
       -0.15367447 -0.111307405 -0.053454738 -0.12947637
000060 8f 22 88 bd 25 a9 12 3e d8 40 52 3e f0 06 1f bd
       -0.066472165 0.14322336 0.20532548 -0.038824975
000070 f6 b2 59 bd 2b 8b 4f be e7 74 cd 3d de ab 0e be
       -0.053149186 -0.20267932 0.10032063 -0.1393275
000080 01 0e 9f bd a9 ad 6b 3d 05 ac 3b 3e 40 3a b0 3c
       -0.07766343 0.057538662 0.18327339 0.02151215
000090 10 0b fb bc 67 07 d1 3c 47 b8 0e 3e 06 03 fc 3d
       -0.030644923 0.025516225 0.13937484 0.12305264
0000a0 0c 08 2c 3e 5a 1d 5e bc 84 d8 dc bc fe 60 96 bd
       0.16799945 -0.013556803 -0.026958711 -0.073427185
0000b0 dc 1d cc 3d 1a fb f2 bd fd 2d 94 bc bc a9 8b 3e
       0.09966633 -0.118643 -0.018088335 0.27277935
0000c0 2b e0 1b 3e 78 ce d1 3b 30 2a c8 bc b0 8b ef bc
       0.15222232 0.006402787 -0.024434179 -0.029241413
0000d0 47 12 43 3d 7f 94 00 be d8 01 86 3d 8c fb 9c bd
       0.047624853 -0.12556647 0.065433204 -0.07665166
0000e0 f3 4d cf 3d da 28 52 bd 06 46 d4 3d 9e 07 1e bd
       0.101222895 -0.05130849 0.103649184 -0.038581483
0000f0 d3 a5 a2 3d 74 39 35 3d 2c f3 49 3e 89 7b f4 3d
       0.07941785 0.044244245 0.19721669 0.11937625
000100 7a f3 29 3d 24 44 a3 bd 41 6e 38 be e6 e4 68 bd
       0.041491963 -0.07971981 -0.18010809 -0.05685892
000110 fd c1 59 be ce b7 81 3d 39 07 81 3e 7a f5 94 3e
       -0.21265407 0.06333886 0.25200823 0.29093534
000120 53 ed 2a be 53 49 66 bc 9b 13 19 bc 79 e0 41 be
       -0.16692095 -0.014055568 -0.009343053 -0.18933286
000130 77 2e 1c bd 41 06 7c 3b 38 99 da 3d 1c d9 0b 3d
       -0.03813025 0.0038455876 0.106737554 0.0341426
000140 3e 01 12 be 13 03 61 bd 2e 76 48 be 61 85 36 3e
       -0.14258286 -0.054934572 -0.19576332 0.17824318
000150 2c 67 de 3d 67 c2 2b 3d ca 45 2b 3e 25 30 60 bd
       0.10859522 0.041933443 0.16725841 -0.054733414
000160 92 cb a0 3d 97 35 a7 3d 19 4d 22 3e 2b d1 c5 be
       0.07851328 0.08164518 0.15849723 -0.38636145
000170 27 c2 67 bd c3 4d 9f 3c 15 8a 16 3e ac da b6 3e
       -0.056581642 0.01944626 0.14701112 0.35713708
000180 92 b5 06 bd 4c 0e cf 3d 6c b0 4f 3d 6f e8 17 3d
       -0.032888003 0.10110149 0.05070536 0.0370869
000190 f6 69 f5 bd 43 7e ed bd 15 31 07 3e 82 be 04 be
       -0.11983101 -0.11596348 0.13202317 -0.12963298
0001a0 fa e6 b7 3d eb 34 81 be 30 8f 56 bd d7 f4 ac bc
       0.08979602 -0.25235686 -0.052382648 -0.021112842
0001b0 82 98 83 3e 89 30 b1 3d f3 0f 73 3e 67 c5 aa 3d
       0.25702292 0.086518355 0.23736553 0.08338433
0001c0 27 6a 54 3d a8 ed 94 be ac 45 d5 bd a1 a7 03 be
       0.051859047 -0.29087567 -0.104136795 -0.12856914
0001d0 c5 ca 18 be 84 8a ad 3b bd c1 87 3d 85 bc 11 3d
       -0.149211 0.0052960534 0.066287495 0.035580177
0001e0 a6 80 23 3d 8a 16 46 3e ef a5 86 be f3 c4 44 3e
       0.03991761 0.19344535 -0.26298472 0.19215755
0001f0 bc 20 a0 3c e7 0c c2 3d 55 e5 9a bd 0d 4c b3 3e
       0.019546859 0.09475117 -0.07563273 0.3501896
000200 20 fe ca 3c cb 65 e2 3d bd 07 a4 be 5c 08 e4 bd
       0.02477938 0.11054572 -0.32037154 -0.11134407
000210 80 8e 8c 3d 72 de 25 3e 8b 60 a7 3c 6c ee d2 bd
       0.06863117 0.16198137 0.020431777 -0.102993816
000220 b5 19 23 3e 59 d0 54 bc 2d 56 42 3e 4d 0d c9 3e
       0.15927775 -0.012989127 0.18978186 0.3926796
000230 e1 7f b8 3c 4c ce 36 3e 2b b4 f1 3c 0f 5d 89 3d
       0.022521915 0.17852134 0.029504856 0.06707203
000240 74 4e 92 3c b5 8e 67 3e a1 44 3b 3d ce 05 05 bd
       0.017859675 0.22613032 0.045719747 -0.03247624
000250 10 90 a5 bd d4 f3 f1 3d d7 b2 4b bd f9 0b 99 be
       -0.08084118 0.11814085 -0.0497311 -0.29891947
000260 f9 13 5e be 40 88 4b 3e 23 58 2e be a3 33 47 3e
       -0.21687306 0.19876194 -0.17025809 0.19453292
000270 be 76 c7 3d 51 f9 1e 3e 8a 8d 2c be 84 3b 5b 3e
       0.09739445 0.15524794 -0.16850868 0.21409422
000280 f2 9e c5 3d 28 40 0b bc 25 51 ac 3d 9a f1 8e bd
       0.09649457 -0.008499183 0.084139146 -0.069796756
000290 18 9e 4f 3e b6 72 05 3e 58 00 74 be 4c 36 63 3d
       0.20275152 0.1303204 -0.23828256 0.055471703
0002a0 a7 44 4c 3e dd 4a 3d 3e c9 c8 d6 bd b3 59 09 3e
       0.19948064 0.1848559 -0.104875155 0.13413124
0002b0 9e bd 0e be 65 39 e0 bc aa ae 81 3e 3b e6 cd 3d
       -0.1393952 -0.027371118 0.2532857 0.100536786
0002c0 49 b2 36 be 4e 22 a1 3d b8 de d1 3d 78 4a 7f 3d
       -0.17841448 0.07867871 0.10247558 0.06232688
0002d0 f4 d3 36 3d bd df 8d 3e 21 8b 9d 3c a9 85 59 be
       0.044635728 0.2770976 0.01923138 -0.21242394
0002e0 8b 65 0a 3e ef d5 00 3e 8f 21 ec bd ba 9e 81 bd
       0.13515298 0.12581609 -0.11529838 -0.06329103
0002f0 67 81 51 3e e0 b0 4f 3e 37 85 9c bb af a4 c3 3d
       0.2045952 0.20282316 -0.0047766226 0.09552895
000300 64 73 59 bc d8 93 11 be 63 d9 04 be cc 1d 19 3c
       -0.01327214 -0.14216554 -0.12973551 0.009345483
000310 e1 4b 80 3d 8e 26 55 3d 67 fc 25 3e ee 7e 25 3d
       0.06264473 0.05203872 0.16209565 0.040404253
000320 16 48 bc bd 6f 4a c4 bd b7 7c 37 bd d4 d6 b4 bb
       -0.09193437 -0.095845096 -0.04479667 -0.0055187736
000330 5a dc f1 bd 5d 74 aa 3e 43 8c 05 be 48 74 78 3d
       -0.11809607 0.33291903 -0.13041787 0.06065777
000340 9e b7 7f 3d 06 55 9a bd 33 7f 95 bd 96 74 49 3d
       0.06243097 -0.07535748 -0.07299652 0.04918345
000350 4d a9 ee 3d 72 c0 0d be c7 a3 a9 3d b4 0a 9f ba
       0.11653385 -0.13842943 0.08283191 -0.0012133927
000360 65 c3 cd bc db ab 84 3d bb d1 68 3e 03 bd 34 bd
       -0.025117585 0.06478091 0.22736256 -0.044125568
000370 e6 61 39 bc 5d dc 68 bc 40 d8 0c bd ec 9c 15 be
       -0.011314845 -0.014212695 -0.03438592 -0.14610642
000380 01 95 eb 3d 19 af c2 3d 69 dc 92 3e 1d 4f db be
       0.115030296 0.095060535 0.28683785 -0.42833796
000390 53 9d 35 3e b2 12 2d be 85 91 44 3e fb f3 b8 bd
       0.17735796 -0.16901663 0.19196136 -0.090309106
0003a0 0f c3 ea bd 6c 62 83 bc 59 eb 61 bd a5 48 8d 3e
       -0.11462986 -0.016038142 -0.055156086 0.27594486
0003b0 62 6e 38 bd 62 52 f8 bc 44 4c de 3b e4 27 86 bc
       -0.045027144 -0.03031272 0.006783994 -0.016376443
0003c0 bd e3 53 3d bb 70 6c bd e4 37 89 be 10 d0 3b 3d
       0.05173086 -0.057724696 -0.26800454 0.04585272
0003d0 41 a3 32 3d f2 64 8c be 91 31 d7 3d db 2b fb 3d
       0.043612722 -0.27420765 0.10507501 0.12264224
0003e0 dd 38 35 3e d3 2f 71 3e 49 c3 38 be 56 46 92 3d
       0.17697473 0.235534 -0.18043245 0.07142322
0003f0 33 80 f0 3c a0 03 2e bd 15 1b 1e ba fe f7 e1 3d
       0.029358005 -0.042483926 -0.0006031257 0.11033629
