Assets/TFModels/Other models trained in the process/Striker2_10_sp.onnx (onnx, 911175 bytes, 9 tensors)

action_model._discrete_distribution.branches.0.bias f4 [5]
00000000: 729a 4d3d 1742 6e3d 055e 7abd 08ba 4fbd
00000010: 39a0 a6bb
0.05019612 0.058168497 -0.06112482 -0.050714523 -0.005085018

action_model._discrete_distribution.branches.0.weight f4 [5, 256]
00000000: 33ef 19be 756a 8bbc 708c 883d 0840 d8bc
00000010: eb8f f0bb 0487 29bd 9777 653d c9fc 133c
00000020: 9c76 e9bb 49d6 0e3c c838 3f3d 2ebe e4bc
00000030: 6abc 133e c086 67bd bb7b 71bc 66b4 923d
00000040: 27d6 c1bb 114f 1c3d c910 3bbd 1fb2 8c3a
00000050: bae8 a7bd a37b bbbd ac78 523d ac19 75bd
00000060: eeff 9839 3cdc 9b3d f7d8 c1bc 42c3 9e3d
00000070: 0b9c 04be 43ab 13be d738 b2bd 58a5 b13d
00000080: 063d df3a 01ae 433d 7a67 1abd 9f2d d23c
00000090: 5d25 b739 6d0b 313c 7e4e 6bbd 262b b5bc
000000a0: fddd a6bd d372 ba3c 7828 443d 034c 10bd
000000b0: 56ad 58bc af0c 23bc cb0d 683d 44c2 bcbc
000000c0: f9a8 debc db0e eebc 00c9 4abc 1a95 143b
000000d0: 353b 63bd 254a 33bd 6ee5 53bb 33b8 0d3e
000000e0: 7e84 2d3b c949 873d 83bd 0cbd e349 ce3d
000000f0: b5a1 4b3c 5197 2bbb f2ff 6f3d a2b3 aa3c
00000100: d041 613c c18d 8f3c eeb3 20bd ff4f 1d3c
00000110: 6baa c5bc 64c8 5dbd ecc9 f1bc 1699 e13b
00000120: 3216 123d 3e04 58bd 7a7d e4bd e778 2c3d
00000130: 9f96 6f3d f66f 1c3c d933 00bd 0d98 9a3d
00000140: 4080 4d3d ed9b e0bd 2e44 00bc 4ab6 96bc
00000150: 6940 f238 5184 5d3c b966 81bd 2ef5 963d
00000160: 267e 34bd 4863 543d 85a9 e33d a3de 0cbd
00000170: a710 bc3c b493 2e3d 0b6e 353d 7f4c afbc
00000180: 9b0e b33d 6ddf b23d 4972 033d d856 a1bd
00000190: 5b75 87bc 7e90 d53c 1459 423d bcf5 c1bd
000001a0: a8e7 edbc 6ca0 ac3c fc59 1cba 937b af3c
000001b0: c9e0 b13d adee 00bd 009a 32bd 3c6a 5e3c
000001c0: 9f81 403b ef01 5abd d79f 8c3d 444e e4bd
000001d0: 0b80 c43b 019f 5dbc 5421 7c3c 4b5b d4bd
000001e0: 270f 6a3d 69ca 22be cd4b abbb 0dbb 633c
000001f0: c3c7 a13d 3b83 5fbd fb88 e83c 244c 853c
00000200: c2c9 94bd 5800 913d 0709 673d fbe6 e43c
00000210: 9ff4 5b3c 7bd8 a6bd d8b1 21bd a6b5 07bd
00000220: 1c66 aa3c c3c5 9ebd dc25 9f3c c361 413c
00000230: 2724 afbd e0aa 0f3d b6ff 833d b2fd 89bc
00000240: 1077 14bc b82b 723d 35c9 c2bd 81be 95bd
00000250: e85a 30bd 16e4 d13c 72f0 93bb 3a66 973c
00000260: 957d 4539 7b51 26bd 5719 22ba a561 cabd
00000270: 6e21 3639 4ea7 82bd 6bc6 3abd 2924 f7bd
00000280: ca7e a43d ad33 643c 2eff 163d 284e b53d
00000290: 6174 d5bd 971d b5bd f623 11bc 2661 b83d
000002a0: 3eb6 bebc 20dc 95bd 7396 583d 7892 0d3d
000002b0: f6b4 1c3d 5124 b73c 2cf8 14bd 0306 d53c
000002c0: 8862 6b3d 1f4f a1bc 991c 98bc a86d a13d
000002d0: 3afb 143d a898 433b 5c7b 5eba 9f3c 293d
000002e0: 9557 f93c a9d3 ac3d a481 ba3d 3014 47bc
000002f0: 401a 973c a549 2e3d 418a 49bc c656 9dbd
00000300: 27f4 6abc f0ae ae3c 0f23 aa38 c56c 703c
00000310: de55 b13b c299 bebd c061 f53d d670 6b3d
00000320: 4c1f 883d c0c7 92bc 91e6 e5bd 272a 723c
00000330: 2748 5a3d 7f34 f0bc 8fcd 09be 9154 28bd
00000340: d605 2b3d 8818 293d 65af 153d 64ba abbc
00000350: 6b56 213b 465f 693c 1359 b9bc 8023 9e3c
00000360: 89eb 4a3c a5b6 1bbc 55aa 043e 9007 38bd
00000370: 2166 82bb 548e 44bd 7829 1dbb 282d 20be
00000380: b212 eebd c102 1e3d 3fd3 79bc d515 81bc
00000390: db78 333d d0c7 573d 8258 96bd d2dc 923d
000003a0: e9a2 d0bd f244 853c 1928 a53d ece6 4e3c
000003b0: a7a6 06bc 4f54 86bd 5a25 e53c a37e 2bbd
000003c0: 4317 97bd 4e4f 45bd 85a4 3b3d 99a6 9cbd
000003d0: 7345 edbc 50c7 e2bb 8b1b 8ebd 72a0 b33c
000003e0: 6609 463d 6899 5c3d f966 b9bd 8659 b33c
000003f0: a22c 8f3c 4c37 af3c d7c2 aa3d ab99 443d
-0.15032654 -0.017018536 0.06667411 -0.02639772 -0.007341375 -0.041388527 0.056022253 0.009032437
-0.007124735 0.008718082 0.04668501 -0.027922716 0.14427343 -0.056524992 -0.014738972 0.071633145
-0.0059154215 0.03816134 -0.045670304 0.0010734237 -0.08198686 -0.09154441 0.051384613 -0.059838936
0.00029182382 0.07610366 -0.023663027 0.07752086 -0.1295015 -0.144208 -0.087022476 0.08674115
0.0017031736 0.047773365 -0.03769634 0.02565652 0.00034932318 0.010805947 -0.057447903 -0.022115301
-0.0814781 0.02275983 0.047890157 -0.03522874 -0.01322492 -0.0099517545 0.05665378 -0.023041852
-0.027180182 -0.029059818 -0.012377024 0.002267188 -0.055476386 -0.04377188 -0.0032332796 0.13839798
0.0026476677 0.0660587 -0.03436042 0.100726865 0.012428691 -0.002618272 0.058593698 0.020837609
0.013748601 0.017523648 -0.039234094 0.009601592 -0.024129113 -0.054146186 -0.02951523 0.0068847043
0.0356657 -0.05273842 -0.11156745 0.04210749 0.058493253 0.009548178 -0.031299446 0.07548533
0.050171137 -0.109672405 -0.007828755 -0.01839747 0.000115514566 0.013520316 -0.06318421 0.07370983
-0.044065617 0.051852494 0.11116318 -0.03439201 0.02295716 0.04262133 0.0442944 -0.02139878
0.0874302 0.08734021 0.032091413 -0.07877892 -0.016535452 0.026069876 0.047448233 -0.09470698
-0.029041126 0.021072589 -0.00059643365 0.02142123 0.086854525 -0.03147762 -0.043603897 0.013575133
0.0029374135 -0.0532245 0.068664245 -0.111477405 0.005996709 -0.013526679 0.015388805 -0.10368975
0.057143357 -0.15897526 -0.005227542 0.013899577 0.0789943 -0.05456851 0.02838563 0.016271658
-0.07265045 0.07080144 0.056405094 0.027942171 0.013425021 -0.08146759 -0.039476246 -0.033132218
0.020800643 -0.07752564 0.019427232 0.011803093 -0.085518174 0.03507507 0.06445257 -0.016844604
-0.00906159 0.059123725 -0.095110334 -0.07311726 -0.043055445 0.025621455 -0.0045147473 0.018481363
0.00018834167 -0.04060505 -0.00061835855 -0.098819055 0.00017369326 -0.06379567 -0.045599382 -0.12067444
0.080319956 0.013928336 0.036864452 0.08852798 -0.10422588 -0.088435344 -0.008858671 0.090029046
-0.02328026 -0.07317376 0.052877855 0.03456351 0.038258515 0.022356184 -0.036369488 0.026003843
0.057467014 -0.019691048 -0.018568324 0.078822434 0.0363724 0.002984563 -0.000848701 0.04131758
0.03043727 0.084388085 0.09106758 -0.012150809 0.018445134 0.0425507 -0.012301029 -0.07682566
-0.014340437 0.021323651 8.112762e-05 0.01467437 0.0054118475 -0.09306671 0.11981535 0.057480656
0.066465944 -0.017917514 -0.11225618 0.014780558 0.053291466 -0.029321907 -0.1345732 -0.041096274
0.041753612 0.04128316 0.036544222 -0.020962901 0.002461816 0.014243906 -0.022625482 0.019304037
0.0123852575 -0.009503995 0.12955602 -0.044929087 -0.00397946 -0.047987297 -0.0023981016 -0.15642226
-0.116246596 0.038576845 -0.015248119 -0.01575748 0.04381643 0.05268079 -0.073411 0.071710244
-0.10187323 0.016268227 0.08064289 0.012628298 -0.008218444 -0.06559049 0.027971912 -0.041868817
-0.07377484 -0.048171334 0.045811195 -0.076489635 -0.02896378 -0.0069207326 -0.06938847 0.021927092
0.048348807 0.053857237 -0.090528436 0.021893274 0.017477337 0.021388672 0.08337944 0.04799811

action_model._discrete_distribution.branches.1.bias f4 [3]
00000000: e5a2 ef3d 2616 38bd f0e6 b1bd
0.117009915 -0.044942997 -0.08686626

action_model._discrete_distribution.branches.1.weight f4 [3, 256]
00000000: 6fe4 70bd 1755 b5bd f0b7 333d 4afe d5bd
00000010: 1dd6 52bd d407 763c 0b21 2b3d c77f 093d
00000020: ad62 213b 2568 56bd f721 7cbd 39aa 6b3d
00000030: 305b 8fbd 21f3 ae3c 9b3e 9ebc f4fe 4d3d
00000040: 49b1 a0bd 0cfa 78bd 493c 123d bc99 89bd
00000050: 6d42 b2bb 257e 6fbd cddd bc3b 7d1e 323d
00000060: 15ac a73a cb83 3b3d 6bbd bf3d ab5a f0bd
00000070: 9d50 69bd a557 a2bc 7fd5 c2bd b3ba 8ebc
00000080: 3ec4 103c f0a3 003d 1876 5f3d d3dd 7dbd
00000090: c5d5 1ebe 4759 c5bb 2ad4 1ebd f188 723d
000000a0: 03f0 50bc d139 4cbd 6ad1 26bc 06f3 f13b
000000b0: 7632 bb3b b91c b73d 7cd6 4a3d 8d45 9ebc
000000c0: d680 64bd bbcd a1bb 53d2 0b3d bca5 9dbd
000000d0: 6bc5 903d fe98 503d bbb1 fb3c ee01 26bd
000000e0: bbed bcbd 8be1 d1bd 280d 1fbd 3c4a efbd
000000f0: 6734 79bc 38e8 933d 08bb 5c3d 557b 013d
00000100: 6d3f 843d cd10 d63a 555a e53d 8896 933c
00000110: 4f19 3b3d d5af bf3c fdb7 773c 35c0 a83d
00000120: 0cc4 e1bc 2394 203d 7326 31bd 1811 1b3e
00000130: 1e38 08bd 1df0 9dbb 8d86 1bbd 5337 e6bc
00000140: ecfc 55bd 49c5 d7bc 4519 11bd bafc 423d
00000150: 6a5d 673d c21a 88bd d161 a53b b811 e4bc
00000160: 5326 4fbd 1a65 8cbd 2b6a 91bd 5ed5 eb3d
00000170: 1921 b1bd 6596 e8bd 154a 47bc 398a 05bd
00000180: a25c d8bd 196e bc3d 4460 363d 4b51 26bd
00000190: 83dc ebbc ce85 c43a 804b 89bc 1f2c 56bc
000001a0: ba08 a5bd 23e8 d43c 2c22 0dbd 22ad a3bc
000001b0: e171 8abd 0d2c 713d b3dc 953d 5a73 b53d
000001c0: 8a4a 103d 849b 413d 3e9d dcba e40f 663c
000001d0: 5d58 8ebc 716b 443c 1132 cebd 05c5 7039
000001e0: e723 dfbd 0dd6 d73a cfac eeba cdcf 2f3c
000001f0: 64af a2bd 8ab8 d83c 19fb 9abd 9225 ba3c
00000200: 2fd2 37bd b0ae e03d 1897 803d fdfc 883d
00000210: afc0 963d c62e 113d 7987 0f3d c67b 263c
00000220: c28f e43c 0b3e 8d3d 45c8 863d 91ad 0c3d
00000230: 049a 8f3d 74de 60bc 63c9 21bc b7c1 733d
00000240: d00d 8bbd 7911 4fbc 6c8b 653d 2190 a03c
00000250: 29fa ba39 2406 f23d 13ec 60bd b3cb 8cbd
00000260: 0512 e0bd f61f 433c 0f69 0bbd 6ce5 0b3c
00000270: 4729 d93c 64d6 203d f57b 97bb 6138 0d3b
00000280: cddf 1e3c 5613 1d3d 9dfc a9bd 33ce 1ebd
00000290: 90d4 58bc cca8 50bd 8487 7bbd 09d2 23bd
000002a0: 56d9 91bd 03f6 303d 41f2 663d 4d7a 4abd
000002b0: 3f5d cd3d a1f3 1c3a 2452 16bd d476 e23c
000002c0: a5f6 f6bd a769 1ebc 89b8 93bd 8a39 bfbd
000002d0: 7b3a 67bd e1dc 3cbd 1332 963d 2a15 f13c
000002e0: b5bf c0bd ecff 363c f87a ba3c 2dff 073d
000002f0: 01f1 f3bd dbb3 0cbd bd51 073d 2aea 81ba
00000300: fae0 023c dfae b5bd 1994 893d dd8c b73c
00000310: 790b 353c 3e42 0cbd 44ec 3ebd 076d d63d
00000320: 94a5 d5bd f438 003d 1622 15bd d472 013d
00000330: d80b 013c 72aa 5c3d ca5b 94bd aa8a 15be
00000340: 0a1b 663d 03ef e6bd fd24 e23d beda a0bd
00000350: b3c4 0e3d b916 e7bc f77f 003c c114 52bc
00000360: 63d3 9f3c e118 16bd eb46 5f3b f065 4fbd
00000370: d267 e33c d538 cd3d ae06 943c 410e 08bd
00000380: 32aa 7a3a a6f4 c5bd 56f9 483d 17bc 403d
00000390: d4d7 21bc 3ff2 e6bd fc6c 45bc cda4 54bc
000003a0: 253d bdbb 0ef5 dfbc 3901 a0bd 6a25 a73c
000003b0: a613 36bc c751 6ebd 1002 e5bd bebf 8ebc
000003c0: 47e9 e8bc f893 4abc d5d7 193d bfb1 883d
000003d0: babd 38bd b047 9fbd 986f 46bd f178 a83c
000003e0: ebc1 113e 61c1 6b3d dc46 76bd 2045 bdbc
000003f0: 7e4f c63c bbfc b13c a1bd bbbc 1561 75bd
-0.0588116 -0.0885412 0.04387659 -0.104488924 -0.051473726 0.015016515 0.04177956 0.033569124
0.0024625466 -0.052345414 -0.06155583 0.057535384 -0.069998145 0.021356167 -0.019316962 0.05029197
-0.078463145 -0.06078534 0.035702024 -0.06718776 -0.0054400475 -0.05846991 0.0057637454 0.043486107
0.0012792373 0.045779984 0.093623005 -0.117360435 -0.056961644 -0.019817183 -0.095133774 -0.01742301
0.00883585 0.031406343 0.054555982 -0.061979126 -0.15511234 -0.0060226056 -0.038776554 0.05921263
-0.012752536 -0.049859826 -0.010181764 0.007383707 0.0057128025 0.08941025 0.049520954 -0.019320274
-0.05578693 -0.004937855 0.034136128 -0.07697627 0.070689045 0.050927155 0.030724397 -0.040529184
-0.09225031 -0.10248097 -0.038830906 -0.11684081 -0.015210248 0.072220266 0.053889304 0.03161176
0.0645741 0.0016331911 0.1119887 0.018016115 0.045678433 0.023399273 0.01511955 0.082397856
-0.027559303 0.039203774 -0.04324956 0.1514324 -0.033256643 -0.0048198835 -0.037970114 -0.028102553
-0.05224316 -0.02633919 -0.03542449 0.0476043 0.05648557 -0.06645729 0.005047061 -0.02784048
-0.05057366 -0.06855221 -0.07100328 0.11515306 -0.08648891 -0.113568105 -0.012163659 -0.032602523
-0.10564543 0.09200687 0.0445254 -0.04060487 -0.028791672 0.001499349 -0.016759634 -0.013072043
-0.08058305 0.025989598 -0.034456417 -0.019980017 -0.06760002 0.0588799 0.07317486 0.08859892
0.035227336 0.047267452 -0.001683153 0.014041875 -0.01737612 0.011988507 -0.10068143 0.00022961579
-0.1089552 0.001646699 -0.001820946 0.010730696 -0.07943609 0.026455183 -0.07567424 0.022722993
-0.04487818 0.10970819 0.06278819 0.06688879 0.0736097 0.035444997 0.035041306 0.010161346
0.02790058 0.068965994 0.06581167 0.034345213 0.07011798 -0.013724912 -0.0098746745 0.059510913
-0.06789744 -0.012638443 0.056041166 0.019599976 0.00035663068 0.118175775 -0.054912638 -0.0687479
-0.10940937 0.011909476 -0.03403574 0.008538585 0.02650894 0.03926696 -0.004622931 0.0021548497
0.009696913 0.03834852 -0.08300135 -0.038770866 -0.013234273 -0.050942227 -0.061408535 -0.039995227
-0.07121532 0.043203365 0.056383375 -0.04943304 0.10027551 0.0005987231 -0.03669943 0.027644552
-0.120587625 -0.009668744 -0.07212932 -0.093371466 -0.056452256 -0.046109084 0.0733377 0.029429037
-0.09411565 0.011169415 0.022763714 0.03320234 -0.11911202 -0.03435121 0.033036936 -0.0009911705
0.007988209 -0.08871245 0.067177005 0.022406036 0.011050099 -0.03424286 -0.04661204 0.10470014
-0.10431972 0.031304315 -0.03640946 0.03160365 0.007876359 0.053873487 -0.0724407 -0.14603677
0.05617813 -0.112760566 0.11042211 -0.07854222 0.034855556 -0.028209077 0.007843009 -0.012822331
0.019509977 -0.03664482 0.003406937 -0.050634325 0.027759466 0.100206055 0.018069591 -0.03321672
0.0009562104 -0.096658036 0.04906591 0.047054376 -0.009878118 -0.112766735 -0.01204991 -0.012978745
-0.0057751113 -0.02733853 -0.07812733 0.020403583 -0.011113083 -0.058183458 -0.11182034 -0.017425414
-0.028431548 -0.01236438 0.03755935 0.066745274 -0.045102812 -0.07777345 -0.048446268 0.020565482
0.1423413 0.057557467 -0.06012617 -0.02310425 0.024207827 0.021726957 -0.02291757 -0.059907038

discrete_action_output_shape f4 [1, 2]
00000000: 0000 a040 0000 4040
5.0 3.0

network_body._body_endoder.seq_layers.0.bias f4 [256]
00000000: ff18 b53c b6c5 babd db54 b23b 16ee ad3c
00000010: c82f f93a 21f7 d8bb 1490 e6bb 5756 973d
00000020: ec56 7ebc 65cd 8a3d cebf 903d c0a8 b33c
00000030: 8156 f13c 4de2 5dbc 4eb6 8abd 575e 01bd
00000040: 4748 64bd 0902 febc a990 91bc fc88 d73d
00000050: ec4a 55bc 7c5b e5bc d1a1 423b 7d60 323c
00000060: 0d47 be3c e73f 4dbd c02b b93c 2b4c a43d
00000070: 7bd5 403b e83c 34bd 448c ba3c 5d15 7a3c
00000080: 1fff 08bd 5e1c 533d 85f4 55bb 7e1f 473a
00000090: 1e73 003d 9e10 a33b a15d 213d 8802 813b
000000a0: 6884 69bc 2a4f 753c a23a 9cbc 89a4 65bd
000000b0: 89a7 30bd 460a 033d 9cd0 f2bc 07f8 f03b
000000c0: 25b4 28bd 6ab8 c9bb 6190 233c 86b6 a8bd
000000d0: 8ded 79bc 09c6 4e3d f80f 46bb 9b6d bb3c
000000e0: 93b8 d4bc 96a2 223c 8687 263d 3e51 91bc
000000f0: b667 303c ca31 983d 480d 8b3c ed7d 8cbb
00000100: f929 ddb7 96d3 d3bb 3eea 9e3c 2379 14bc
00000110: 7b3f c9bb 0655 16bd 9fdf 873c 92b7 58bc
00000120: 79be 193b fd06 b7bd 01e7 483c 3e93 1fbd
00000130: 89c1 a4bd 335a 8d3d fea4 29bd ea50 cfbc
00000140: 4cf1 233d 58d3 693d 5236 aa3c d665 a93c
00000150: 4ba0 283d 88fb 5abb eec8 d1bc fc9c 683c
00000160: d10f 75bc 9849 073c 9954 91bd aa71 0f3c
00000170: c130 4a3d 5fa0 793d a0b1 d33c 1064 303d
00000180: 4633 2e3d 87f1 d13b 1874 143d 59c6 a93c
00000190: 9cec 533c ca3b 0abd a918 24bc 7cc2 1fbc
000001a0: 50a6 883d 873d 0c3d c1ed 87bd 3e50 44bc
000001b0: 1821 623d 28fd 943d b456 d1bc 76c4 e0bd
000001c0: 5a7d 293d be32 fdbb 1ab8 71bb 6e70 cdbd
000001d0: 0f6e cc3c 5f82 cabc 3800 0ebd ef1b 75bc
000001e0: 4658 febc b7ff 8b3c 0005 62bd 181b fabc
000001f0: 139e 40bd 339d 573d 27cb 8d3d 756e 103b
00000200: f853 32bd 9e7e e83c 3400 663d be22 d2bd
00000210: 0c60 2d3d a096 b9bb 98ab 503d 7340 af3c
00000220: 549b 4e38 044b 073d ec40 4bbb 519b 523d
00000230: 8192 1fbd 0187 a5ba a48c 843d ca1d 36bd
00000240: d387 533d c99f 553d 2a4b 0d3d 39b9 c9bc
00000250: f389 9a3b 1354 1c3d 7052 69bd 8bed d13b
00000260: ebcb b1bc cd1a 883c 8714 e3bc d805 6f3c
00000270: 79a7 21bd 1c56 8abc 5b62 8f3d e574 b3ba
00000280: 7724 363a 8f0f 153d dd48 5c3d a546 2cbd
00000290: 9be2 ef3c fcde 6e3c affb 333b eddd 45bd
000002a0: afba 113c 025e 033d bf59 133d 0b9a 6bbc
000002b0: 51ea 8dbd ccf4 773d 3884 0bbd 7faf 883c
000002c0: 72b5 013c 213e 82bc b679 273d 3f45 5b3c
000002d0: 33c0 18bb 1cde 54bc f6d1 483c d271 913c
000002e0: 9e7d 643d 5911 2abc a9d6 4f3c a6d8 4d3c
000002f0: 52ce 1dbd 6f77 283c fed1 e53b 5ed4 90bc
00000300: e339 073d 702d 1cbd 3160 b2bc 5410 00bc
00000310: 18aa 513d 7a3f 6bbb e858 f4bb 9330 34bd
00000320: 0926 f6bc 5e40 5dbb 00d8 083d 96f6 ee3a
00000330: f3f7 573d 99ea bebc 55dc 5e3c f714 ee3c
00000340: 92ff 6c3c e1e3 5e3b 8630 7bbd c9c1 d93c
00000350: 51b4 03bd b44c 25ba 4202 2f3c f70b 993c
00000360: 6ba3 72bd 61bf 303c e19f ab3b 0248 a3bd
00000370: 0894 a63c 6e04 0bbd b094 9cbc af68 403d
00000380: 1240 e63c fe8d c1bc f5a1 c23b 7b43 c8bc
00000390: 635c d93c 0c7b 013d 4a3a a13c fa15 9c3c
000003a0: 07c5 2bbd fee5 91bd 9087 833d cf15 9a3c
000003b0: 7ff3 db3b 0f9d 49bd 71d8 fcbb 347a 10bd
000003c0: 9f1d ae3d baa5 b3bc 215f 623c 0533 fcbd
000003d0: 74d6 28bd c681 01bc 7133 d3bd 7c00 61bc
000003e0: 4287 cbbc 564f 8abd 96fe 71bd 0210 dfbc
000003f0: 3113 f73b c9fb 8fbc c0df 583c f773 a13c
0.022106646 -0.091197416 0.0054422445 0.021231692 0.0019011432 -0.006621257 -0.0070362184 0.07389515
-0.0155236535 0.06777457 0.07067834 0.021931052 0.029460194 -0.013542724 -0.06773053 -0.03158411
-0.05573299 -0.03100683 -0.017769175 0.105241746 -0.013018351 -0.027997725 0.00296985 0.010887262
0.023227239 -0.05010977 0.02260387 0.080223404 0.002942412 -0.044003397 0.022771962 0.015263882
-0.033446427 0.051540725 -0.0032646966 0.000759594 0.031359784 0.004976346 0.039395932 0.0039370693
-0.0142527595 0.014972487 -0.019070927 -0.056065116 -0.043128524 0.03199222 -0.029640488 0.007353786
-0.041187424 -0.006156017 0.009983153 -0.082379386 -0.01525439 0.05048183 -0.003022192 0.022879412
-0.025966918 0.009926459 0.04065659 -0.017738935 0.010766914 0.074313715 0.016974106 -0.0042874725
-2.6364798e-05 -0.006464432 0.019398805 -0.009062084 -0.0061416007 -0.03670218 0.016586123 -0.01322736
0.0023459478 -0.0893688 0.012262107 -0.03895878 -0.080447264 0.0690197 -0.041417114 -0.025307138
0.04002504 0.05708632 0.020777855 0.020678442 0.041168492 -0.0033414084 -0.025608506 0.014197584
-0.014957384 0.008257292 -0.07096214 0.008755127 0.0493629 0.060943957 0.025841534 0.043064177
0.042529367 0.006406966 0.036243528 0.020724462 0.01293483 -0.033748426 -0.010015645 -0.0097509585
0.066723466 0.034238365 -0.06637145 -0.011982022 0.055207342 0.07274848 -0.025554039 -0.10974972
0.04137931 -0.007726996 -0.0036883415 -0.1003121 0.024954824 -0.024720369 -0.034668177 -0.014960273
-0.031047951 0.017089708 -0.05518055 -0.030530497 -0.04702575 0.05264015 0.06923514 0.0022038494
-0.04353711 0.028380688 0.056152537 -0.10260533 0.042327926 -0.005663708 0.050944895 0.021393036
4.9258888e-05 0.033030525 -0.0031014038 0.051417653 -0.038958076 -0.0012628735 0.064721376 -0.044462003
0.051643204 0.052154336 0.03449551 -0.024624454 0.004716152 0.038166117 -0.056963384 0.006406491
-0.021703681 0.016614342 -0.02771975 0.014588796 -0.039466355 -0.016886763 0.07001182 -0.0013691453
0.00069481827 0.03639179 0.053780425 -0.04205956 0.029282859 0.014579531 0.0027463248 -0.048307348
0.0088946065 0.032072075 0.03597426 -0.014379988 -0.06929458 0.06053619 -0.03406164 0.016685246
0.007916795 -0.015898766 0.040887557 0.013383209 -0.002330792 -0.012992408 0.01225709 0.017754469
0.05578386 -0.010380113 0.012685456 0.01256386 -0.03852684 0.010282381 0.0070135584 -0.01767939
0.03301419 -0.03812927 -0.021774383 -0.007816393 0.051187605 -0.003589599 -0.0074568875 -0.043991636
-0.030047433 -0.003376029 0.03340912 0.0018231447 0.052726697 -0.023305224 0.013602336 0.029062731
0.01446523 0.0034010338 -0.061325572 0.026581662 -0.032154385 -0.000630568 0.010681691 0.018682463
-0.05923788 0.010787816 0.005237565 -0.07972719 0.020334259 -0.03393977 -0.019113868 0.046974834
0.028106723 -0.023627277 0.005939717 -0.02444624 0.026533311 0.031611487 0.019681115 0.019053448
-0.041935947 -0.07123946 0.06422341 0.018809227 0.0067123766 -0.04922205 -0.0077162315 -0.035272792
0.085017435 -0.02192961 0.013816626 -0.12314419 -0.041220143 -0.007904476 -0.10312546 -0.013733026
-0.02484477 -0.067534134 -0.059080683 -0.027229313 0.0075401296 -0.017576115 0.01323694 0.019708617

network_body._body_endoder.seq_layers.0.weight f4 [256, 621]
00000000: f9ce 21be dc0b d23c cd01 873c d4d5 b8bc
00000010: 55f4 b03c bdcf a03d 94bc dcbc 4647 2ebd
00000020: f785 0fbe 7957 25be 57cf b0bd 5563 a53d
00000030: 066c 903d 629d fabd eab1 523c 3d58 213e
00000040: d6f7 7f39 5085 acbd b0c2 1f3d a03f 3b3d
00000050: 6a75 013e 8f54 cb3d 2d2b 443c 5bfb 673c
00000060: 20d5 003d 7557 83bd 2b4c e3bc 7196 39be
00000070: 8985 133c d93a acbd 9931 f63d 70bb aabd
00000080: 6f11 113e 6202 563d 35e1 51ba 710e efbd
00000090: 0a03 e6bd 5694 1cbe e400 eebd d65a 863e
000000a0: bc8c 0fbd 2b03 19bc 4765 a93d 3a6c a1bd
000000b0: be6e bfbd 1fdb 643d 2bc6 24be 67b3 213e
000000c0: f738 b23d b593 733d 3ca2 873d 8825 94bc
000000d0: 6f2b 223d fadb 09bd f675 18bd 20b2 00bc
000000e0: 0787 a2bd 670f 333e d886 a73b 8295 02bd
000000f0: b85e 0abb 7b29 6bbd a204 843c 35a2 a1bd
00000100: ee32 cb3d 2f33 043e 2bed b83d af3b abbd
00000110: a4ef e9bc 0da7 9a3d 7d1f 47bd 8ef0 79bd
00000120: 105a b03d 460c 61bd c3b3 b63d 643f 8b3d
00000130: 0be6 e03d 58f5 143e 40cc 123e 49e0 9c3b
00000140: 9465 cebc d9df 683c 1222 81bd 5490 97bd
00000150: 2a69 923d 620f d13d 90fd 01be 5c47 163e
00000160: 5087 523c af6d abbd 9acb 83bd ed3e 613d
00000170: d553 893d cf90 9c3d 608d fdbc 8c2f 1c3e
00000180: 7c6f ea3b 4d57 903c f522 263c 1b56 cb3c
00000190: accb a13d 31da 6e3c e342 683c 523c 603e
000001a0: 9dd2 d1bd c0d4 453e 6002 f23c c211 413b
000001b0: 497f c5bd 609b be3d 8062 e4bd 482e 163e
000001c0: 3be6 2e3d d056 92bd c510 0e3e 2879 b2bc
000001d0: c1fb 283d 6801 393d 9e0b 313d b1ed c2bc
000001e0: 83e1 303e 75b1 033e 2aa9 1c3e 9074 e13a
000001f0: efaf 173c ce9c d33d f0eb 4d3d c656 babd
00000200: 5274 e0bd d35d 543d 2ccc f03d e01b 883c
00000210: f557 083e 6c41 3d3c e7e1 c83c cae6 43bd
00000220: 9a04 2f3d 64bd 4f3b 264a c73d 6637 c03d
00000230: 3bc5 f23c c221 ad3c 1e30 8d3c 2f06 ac3d
00000240: a5cb 533d a164 2c3e dd6e e9bd 0647 b93d
00000250: 1b68 2d3d da41 333d d414 a5bc a868 75bc
00000260: 4a93 c73d 820f 7abc 34e1 ba3c 2ad8 1e3d
00000270: 83a8 243d 8091 0fbd 8ba0 083d 9748 53bd
00000280: faee 703d 7095 363d 7ba3 67bc c3a1 8e3d
00000290: c36d 46bd fb30 aa3d 4da9 5bbd 7a90 ad3c
000002a0: b86e 8cbc a577 cbbc d238 1f3d afda 073d
000002b0: a4ce 84bd 78ad 563d 0f35 133c 5d7b 113e
000002c0: 70ae 8c3d 551b e5bd d0b0 03bd 2589 da3d
000002d0: 44e1 eebd 2ccb 0d3e a750 0a3e 7330 a1bd
000002e0: 00b4 4b3c 538c 703e b2cd 08be e612 e7bc
000002f0: b527 213e 085f 053e e7fb 2f3d 48f2 da3d
00000300: 6e43 e83c bf12 e23d e0b8 d9bd 6121 2dbe
00000310: 2aaa 30bd 658e 563e e210 8b3c 9b8a 1fbe
00000320: 8e44 983d 7a6a 943b ef54 11be 6ddc da3d
00000330: 5781 d4bd 2b91 45bd fb27 f73d 3fcd 3d3c
00000340: 565b 273e 2b33 333e 8c72 463d 7c6a b53d
00000350: 85c4 a53d 2d6b abba c1d0 adbc eeaa 2d3e
00000360: b7dd 053c 68d1 29be eb95 a83d 36c6 b5bc
00000370: e61f a33d 857f 02bb 24e3 21be 89cf 733d
00000380: 3cbe c13a 7e86 e1bd a033 f0bb 7299 f7bd
00000390: 8123 593d 387e aebd cfb0 013e 8b28 e43c
000003a0: 8394 b23d dab9 02bc 54bf 0cbe 7024 183c
000003b0: 1656 e93d 639b 183d fac2 6d3b 1527 fe3d
000003c0: 7fd5 683d 281e c43d f250 8bbc ce8d 8ebd
000003d0: c8de 06bc 4909 45bb 8360 c2bc 0406 b7bd
000003e0: b1d2 0fbe 07f7 013d dbdc d83d 5264 30bd
000003f0: 0014 1c3e 952b 12be 827d 963d 89c7 5b3d
-0.1580161 0.02564042 0.01648035 -0.022562899 0.021600882 0.07852123 -0.02694539 -0.04254844
-0.14015947 -0.1614665 -0.08633297 0.08075587 0.07051854 -0.1223705 0.012859801 0.15756316
0.00024411021 -0.08423865 0.039004028 0.045714974 0.12642446 0.09928238 0.0119731845 0.014159049
0.03145325 -0.064131655 -0.02774628 -0.18123795 0.009004005 -0.08409662 0.12021179 -0.08336532
0.14166807 0.052248366 -0.0008006276 -0.11672676 -0.112310484 -0.1529096 -0.116212636 0.26241177
-0.035046324 -0.009339134 0.0827127 -0.07881971 -0.09347294 0.055873033 -0.1609122 0.15791093
0.087022714 0.059467036 0.066227406 -0.018084303 0.039592203 -0.03365705 -0.03722187 -0.007854968
-0.07935911 0.17486344 0.00511251 -0.031880863 -0.0021113586 -0.057412606 0.01611549 -0.07892267
0.099218234 0.1291015 0.09029611 -0.08360993 -0.028556652 0.07551394 -0.048614014 -0.061020426
0.08610928 -0.054943345 0.089210056 0.067992 0.10981377 0.14546716 0.14335728 0.004787479
-0.02519492 0.014213526 -0.063053265 -0.07400575 0.07148965 0.10208012 -0.12694383 0.14675659
0.012849644 -0.0837053 -0.06435318 0.05499165 0.06705443 0.076448075 -0.030951202 0.15252513
0.0071544033 0.017619753 0.01014017 0.024821332 0.079001755 0.014578388 0.014176103 0.2189801
-0.102452494 0.19319439 0.029542148 0.0029460047 -0.09643418 0.09306979 -0.111516 0.14666092
0.042700034 -0.071454644 0.13873585 -0.021786287 0.041255716 0.045167357 0.04322397 -0.02379498
0.17273526 0.12860663 0.15298906 0.0017200876 0.009258254 0.103326425 0.050273836 -0.09098582
-0.10959686 0.05184729 0.11757693 0.016614854 0.13314803 0.011551242 0.024521781 -0.04782752
0.042728998 0.003169858 0.097309396 0.093855664 0.029635062 0.021134261 0.017234858 0.08399617
0.051707882 0.16835262 -0.113980986 0.0904675 0.04233561 0.043763973 -0.020151533 -0.014978565
0.0974489 -0.015262486 0.022812463 0.03878037 0.040199768 -0.03505087 0.03335623 -0.0515829
0.058821656 0.04457611 -0.014138098 0.06964447 -0.04844452 0.083101235 -0.053628255 0.021187056
-0.017142639 -0.024837324 0.038872547 0.033167537 -0.06484726 0.052411526 0.008984818 0.14207216
0.06869209 -0.11186854 -0.032151043 0.106706895 -0.1166406 0.13847035 0.13507329 -0.07870569
0.012433052 0.2349103 -0.13359717 -0.028207254 0.15737803 0.13024533 0.042964842 0.10690743
0.028352465 0.11038732 -0.10630965 -0.16907264 -0.04313103 0.20952757 0.016975824 -0.15580218
0.07434951 0.0045292946 -0.14192556 0.10686574 -0.10376232 -0.048234146 0.120681725 0.011584579
0.16343436 0.17499988 0.048449084 0.08858201 0.08094124 -0.0013078206 -0.021217706 0.16959736
0.008170537 -0.16583788 0.082317196 -0.02218924 0.079650685 -0.0019912433 -0.15809304 0.059524093
0.0014781426 -0.110119805 -0.007330373 -0.12089814 0.053012375 -0.08520168 0.12665103 0.027851364
0.087197326 -0.007978881 -0.13744861 0.009286031 0.11393373 0.037257563 0.0036279545 0.12409798
0.05684423 0.09576064 -0.017006371 -0.06960641 -0.008231826 -0.003006535 -0.023727661 -0.08936694
-0.14045216 0.031729724 0.10589 -0.043064423 0.15242004 -0.14274438 0.073481575 0.05365709

network_body._body_endoder.seq_layers.2.bias f4 [256]
00000000: 6716 bbbd f778 cebd e527 413c 7efa bebd
00000010: fc01 29bd f093 8fbd 27f1 503d ae02 26bd
00000020: 385e 6abc 1ba0 c5bc 2488 23bd abca 94bd
00000030: 6b35 dfbc 9589 02be e0cf e7bb d10a 063c
00000040: 5b0e 81bd 94d9 bcbd b981 3a3c 9efd bfbd
00000050: 25bf 173d 71a3 a4bd 2803 e03d 6e64 a8bc
00000060: ce6e f73c 2191 9f3d 3471 853c 944f 8ebd
00000070: a0e3 17be aac1 8fbd 0282 13be b140 50bd
00000080: 16a2 fb3c 3e22 09bc d01f 0bbd fb2d 51bd
00000090: 3933 b1bd 8095 2bbd 1068 babd c49c 0f3d
000000a0: 7331 c2bd 54fc 15bc 87d5 aabd ae2f bebd
000000b0: 2e0f b33d 08d1 0d3c 4f66 a23d 54e6 20bd
000000c0: 1b3c aabc 742b dabd 4f71 103d 2cc2 9ebd
000000d0: c537 3cbd 2a08 81bd 24af 98bc 7283 483c
000000e0: fea1 cebd a8fa 79bd 4c1c b1bd 81c4 55bd
000000f0: a2d3 86bd 6a6b 7a3b 0057 02bd 963d a9bb
00000100: ca66 f1b9 6cc8 583c 9012 2e3b acff 08bd
00000110: 75cf 6fbd d72d 59bc fd63 b2bd 0e59 ff3c
00000120: 5306 de3b 4558 eebc f8ec d33c 1a99 773d
00000130: ee7b 0fbd d37e 1f3c 7c97 69bd f26d ac3a
00000140: f5c0 f9bd 3765 82bd 3d31 73bd f6bc 8f3d
00000150: d445 8c3c a093 f0bc 5293 45bd dddf 5d3d
00000160: 16db dbbd 4baf 1cbd cfe5 79bd 9047 2c3d
00000170: 527b e9bc ff98 f4bd 665f c1bc 4816 6fbd
00000180: 99ce 8bbd 7e0d be3d 2a4b fa3c dda9 65bd
00000190: 4868 c7bb e09d 773c d62c 5c3c fa09 96bd
000001a0: 00a0 43bd b865 a63a 740c 12bd 13c8 dcbc
000001b0: 3f12 35bc e71a febc 9f0a d2ba 64d5 833d
000001c0: 54e9 5cbc 7df6 66bd 77ab 9d3c fcca 9bbd
000001d0: 3792 a6bc 4727 9e3b 140c 13be 29f2 e2bc
000001e0: ab66 d1ba 7ef1 54bd 4fab 8bbc d6fc 1cbd
000001f0: 14a8 eebd 29ad 46bd a18a a4bb 177a 39bc
00000200: 3821 dcbd 58d8 0f3d 6cf9 893d 5169 0dbb
00000210: 21e3 06bd 3a3e 19bd 9f38 33bd 05f9 e9bd
00000220: 14fa 0ebc b556 99bd 9f7a 383d 3271 dcbb
00000230: e87d b0bc 5f76 15bd 15c2 a83d 3ee8 2ebb
00000240: a01e aabd 4799 1ebc dc15 c73c fafa e7bd
00000250: 1704 b23d 2c76 693d a4f6 cbbd 7084 c9bd
00000260: dc7e b4bd 3878 87bd dd50 743c b4c8 ddbc
00000270: 97da 963d 54b2 31bc 6d5b dcbd db1a 12bd
00000280: 698a b8bc 22ba 8ebd d8b1 8fbd 391c 81bc
00000290: beb4 48bd 05ba 0ebe 7317 2cbd 1b70 0abd
000002a0: 9303 18be e904 133c 4ea0 983d b07c c5bc
000002b0: 1525 c13d d9e3 73bc 9aa1 f3bd c0ea a73d
000002c0: c82a 01bd cd24 6abc 2e52 853a 62d9 59bd
000002d0: 8a08 90bd 7bf2 30bd 40c8 b43c 48af cb3b
000002e0: 5318 f3bd d454 cd3d 55ec 4cbc 4dc6 1a3c
000002f0: 8b96 99bd 3b35 a5bd bfba ed3c 9ea5 6ebd
00000300: 08e8 b3bc 43ba f3bd 952d 803d ffc2 cd3b
00000310: 11d2 dfbc 6b61 edbd f061 2abd e3ff 53bc
00000320: 5b01 f9bd 551e 06bc a8b2 babd b5c1 ed3b
00000330: b4a0 b13b 5717 ea3b a8c6 1fbd 428a 5abd
00000340: 6a6c 1e3c 49d0 2dbd f9b6 4c3d 7c0c 3cbd
00000350: 74b2 3f3c c509 7abd b531 cfbd ab27 c33c
00000360: 629a ae3c 9064 75bd e45d 093d 07e2 97bd
00000370: 013a 00ba 898f 233c 614a 7cbd 8134 b9bd
00000380: d16f 4abd 35bd 98bd 4456 dcbc 36f8 653c
00000390: 7761 6abd f8d4 aebd fd98 c4bd f790 0abd
000003a0: f1ba 5bbd a0f6 b0bd 7e4d 3cbd 8a4b 36bc
000003b0: e6f8 45bd e63c 95bd 4ae5 e9bd b5ee 9bbd
000003c0: 3184 c3bd 6af4 213d 4852 443d 0d56 e5bc
000003d0: adfe 82bd 4e4f b3bd 3627 32be c027 d53b
000003e0: c259 843d ae99 033d 532f f9bc 2c8e 30bc
000003f0: 3025 7abd d160 1cbc 2bd7 5f3c 4b1d 07bd
-0.09135132 -0.10081666 0.011789297 -0.09325121 -0.041261658 -0.07010639 0.05101123 -0.0405299
-0.01430469 -0.024124196 -0.039924756 -0.07265218 -0.027247151 -0.12747796 -0.007074341 0.00818129
-0.06301566 -0.09221187 0.011383467 -0.093745455 0.037047524 -0.080389865 0.10938102 -0.020555701
0.030204203 0.07791353 0.016289331 -0.06948772 -0.14832926 -0.0701936 -0.14405063 -0.050842945
0.030716937 -0.00836998 -0.033965886 -0.05106924 -0.08652348 -0.04189062 -0.091018796 0.035061613
-0.09482088 -0.009154398 -0.08341508 -0.09286438 0.0874313 0.008655794 0.0792967 -0.039282158
-0.020780614 -0.10652819 0.03526431 -0.07751879 -0.045951623 -0.06300385 -0.018638201 0.01223837
-0.10089491 -0.06103006 -0.08647975 -0.052189354 -0.065833345 0.0038210996 -0.03182125 -0.0051648123
-0.00046043686 0.013231378 0.0026561357 -0.033446953 -0.058547456 -0.013255558 -0.087104775 0.031170394
0.0067756562 -0.029094825 0.025869831 0.060448743 -0.035030298 0.009734827 -0.057029232 0.0013155325
-0.12195007 -0.063669614 -0.05937313 0.07018463 0.01712314 -0.029367268 -0.0482362 0.05416857
-0.10735147 -0.03825311 -0.06101018 0.042060435 -0.028501187 -0.11943244 -0.02360506 -0.05837086
-0.06826515 0.09279917 0.03055342 -0.056070197 -0.0060854293 0.015113324 0.013438424 -0.07326122
-0.04776001 0.001269511 -0.035656407 -0.026950872 -0.0110517135 -0.031018687 -0.0016024894 0.064371854
-0.013483364 -0.056387413 0.0192468 -0.076070756 -0.020333393 0.0048264596 -0.14360076 -0.027703362
-0.0015976032 -0.051988117 -0.01704946 -0.03832706 -0.11653152 -0.048504982 -0.0050214087 -0.011320612
-0.107485235 0.03511843 0.067370266 -0.0021577666 -0.03293145 -0.03741286 -0.04375517 -0.1142445
-0.008726615 -0.07487241 0.045038816 -0.006727361 -0.021544412 -0.03648984 0.08240143 -0.002668872
-0.083066225 -0.009680099 0.024302416 -0.11327167 0.08692186 0.056997463 -0.09959152 -0.098397136
-0.08813259 -0.06614727 0.014911857 -0.027073242 0.073659115 -0.010845739 -0.107596256 -0.035670143
-0.022526937 -0.06969096 -0.07016343 -0.015760528 -0.049000494 -0.13938148 -0.04201455 -0.03379832
-0.14845113 0.008973339 0.07452451 -0.024107307 0.09430901 -0.014885866 -0.118960574 0.08199072
-0.03153494 -0.014291001 0.0010171586 -0.053185828 -0.07032879 -0.043199997 0.022068143 0.0062159635
-0.11869874 0.10025945 -0.012507518 0.009446693 -0.07499417 -0.080667935 0.029019712 -0.058263414
-0.021961227 -0.11900761 0.06258694 0.006279349 -0.027321847 -0.11590847 -0.041597307 -0.012939426
-0.12158462 -0.008185943 -0.09116107 0.0072557577 0.0054207686 0.0071438956 -0.039007813 -0.05335451
0.009669403 -0.042434964 0.049979184 -0.045910344 0.011700261 -0.061044473 -0.10116903 0.023822626
0.02131385 -0.059910357 0.033536807 -0.07416158 -0.0004891456 0.009982952 -0.06159437 -0.090432175
-0.049423043 -0.074579634 -0.026896603 0.014036229 -0.057221856 -0.08536714 -0.09599493 -0.033829655
-0.053645078 -0.0864079 -0.04597234 -0.011126408 -0.04833307 -0.07287006 -0.114206865 -0.07613889
-0.09546698 0.039539732 0.047930032 -0.027995134 -0.06396232 -0.087553605 -0.1739777 0.0065049827
0.064624324 0.032128982 -0.030418074 -0.010776084 -0.06107062 -0.009544567 0.01366214 -0.03298692

network_body._body_endoder.seq_layers.2.weight f4 [256, 256]
00000000: 5058 0f3e 9fce 1dbd c4da 29bd 42cc 053e
00000010: dac8 1dbe 83bf 3f3e c720 03be 3c68 e8bd
00000020: 2a3c 99bd 0658 efbd ea56 aabd 13a7 62bd
00000030: 86bc 1c3e e44e c13d dcef d43d 36ac e13d
00000040: 33bd 403e cd2e cabc c5d2 2f3e ca6d 81bd
00000050: 866d e7bd e2b5 fc3c c3af d03d 3424 a03d
00000060: 960d 6a3d a7f7 1f3c 1acf 88be 3c67 8ebd
00000070: 0e80 8f3d 20e7 223e eab5 c1bd dcbb 06be
00000080: 4218 b13d dcef 53be f622 3b3e 8748 e13d
00000090: ee0f 55be a81b d93d 406e 3fbc 5df9 bdbb
000000a0: f8a9 723d 07ae b13d 042d dbbb 7be1 153e
000000b0: 0a42 a9bc 0520 a6bd cd96 7bbc ec76 d1bd
000000c0: ad43 c23c bbf6 5cbb 8497 05bc 918d d83d
000000d0: a34f 1c3c 2124 a93d 52fe b13d 7d72 103d
000000e0: 544e 143e 6b46 49bd f901 28be 9f7e 6c3e
000000f0: 36e1 3d3d 2c86 72be 20aa 7fbe db33 35be
00000100: 6f69 9fbd 3813 213d 00d5 49bd 49b3 a33d
00000110: 6fee 173e 9b56 573d dedf d53c 0ee1 153c
00000120: ca00 aebd f99f ed3d f044 01bd db1e bd3e
00000130: 6e03 3d3e 2109 f6bd 7abb b73d acc6 5a3e
00000140: 145b 1d3c c954 39be fe9a 08be e6b1 60bd
00000150: a59c f7bd 0153 38bc b071 7bbc 3013 703d
00000160: c6a2 383e 9b00 8c3d 05f6 503c f871 25bd
00000170: b614 aabc cf29 80bd 3e9e 32be 4d9b b4bd
00000180: a930 fcbc 063f c23d 86ac babd 1e09 8f3d
00000190: 67fe 9a3c 6581 003d 77cd 93bd 36dd 9f3c
000001a0: c50e ce3d 8301 1dbe a24b 0f3d eb96 b33d
000001b0: bcd5 b13c 68bf 37be 16e9 01bd 2cb4 003e
000001c0: 6b5e 71bd fe4f 65bd e17f 8dbd c22f 323e
000001d0: 2099 b43d f0cf f03d 8262 073d 88fa 9cbd
000001e0: 1b21 093e f5cd 25bc afc2 4d3e 751b d2bd
000001f0: 86eb 5c3e adc4 9abe 8119 cbbd e178 c1bc
00000200: d777 5d3e 139a ffbd d49c 46be 0962 fc3b
00000210: abea 46bd e33a 0b3d defc edbc 89ca bb3d
00000220: b58e 26bd 2f42 03bc f81c 54be 3c79 bbbd
00000230: 0d03 dd3c a7bb ca3b 1fae 2abd 1f6a 233e
00000240: 1c6e a3bd 0122 66be b4c8 503d 0e02 a33d
00000250: 478f 0dbd ccfc 20bd adc3 09bd bda5 d9bd
00000260: fa34 4d3e a892 98bd e2d6 ac3d 4027 54bd
00000270: 4aa6 4cbd efa7 bc3d d680 6fbd 6758 003e
00000280: b332 b03c 0998 60bd 4f35 2fbe ff9f 643d
00000290: daef 423d 5c11 363d 0d5c bfbc df49 783d
000002a0: ad1c 8d3c 93a0 cdbd 6f6c 3ebd af01 183d
000002b0: 64f9 7e3d eca2 b6bd 466b 6fbd ed38 733d
000002c0: 2e04 32be 94d4 603d 0578 5d3c acd1 af3d
000002d0: fdde 96bd 1a01 2cbd 89d3 0dbd bd5b b63b
000002e0: 2ead fbbd 1aff 2bbd a467 f93c c773 4fbd
000002f0: 2c07 d43b 6c63 903c 578b be3d da30 133d
00000300: 2c00 733c 885a fb3d afeb 68bd 0848 993e
00000310: 6e16 48be f05a 77bc a5ee 62bd b548 1fbd
00000320: dd1a f33d c714 063c fb5c 26be a467 373d
00000330: 146f 69be 6bab 18be 137f d7bd 1ce5 24bd
00000340: 5d73 943d e6c2 12be 97f3 bf3d 81fc c6bc
00000350: 791e 003e a9e8 1ebe 23b4 463c c35a 83bd
00000360: 0d17 503e 1685 1d3d b776 833d b3f8 c73d
00000370: 14ac 2d3d 7fe3 883d 0308 6b3d bbe6 7ebe
00000380: c17f ca3d 545e 9ebd 6826 123c e5e0 7a3d
00000390: 5695 dd3d 06fb 5fbe 768a e4bc ef6a 3ebe
000003a0: 1714 153e b5f1 9dbc 16c1 a2bd ea48 2d3d
000003b0: ab86 3f3c a982 223e 4ed1 74be de58 a2bc
000003c0: 9d04 6bbe 7b1c 733e 1bdd d23c 21c0 1e3e
000003d0: 8aaf c03d ef02 ba3b 831e b83d 9fce a03e
000003e0: 5cbe 323e 2295 b13d 81e4 463e e84e 19bc
000003f0: 1374 d63d 5fc6 223e 6510 24bd fb20 d3bc
0.13998532 -0.038527127 -0.041468397 0.130662 -0.1540865 0.187254 -0.12805472 -0.11348006
-0.074821785 -0.11686711 -0.08317359 -0.055335116 0.15306291 0.09438875 0.10397312 0.11019175
0.18822174 -0.02468052 0.17170246 -0.06319769 -0.11300187 0.030848447 0.10189774 0.07819405
0.057141863 0.009763635 -0.26720506 -0.06953284 0.07006846 0.1590848 -0.094585255 -0.131576
0.08647205 -0.20696968 0.18275055 0.110001616 -0.20806858 0.10600978 -0.0116840005 -0.0057975487
0.059244126 0.08675771 -0.006688716 0.14636795 -0.020661373 -0.08111576 -0.015355778 -0.10227761
0.023713911 -0.0033716399 -0.0081538 0.10573877 0.009540471 0.08258844 0.08691086 0.035265435
0.14483005 -0.04913942 -0.16407003 0.23095177 0.046357356 -0.23683995 -0.24967241 -0.17695563
-0.07783782 0.03932497 -0.0492754 0.0799318 0.14837049 0.052572828 0.026107725 0.0091478955
-0.08496244 0.11602778 -0.031559885 0.36937603 0.1845834 -0.1201346 0.08971305 0.2136485
0.009604234 -0.18098749 -0.13340375 -0.054857157 -0.120904244 -0.011250258 -0.015346929 0.05861205
0.18030843 0.06836053 0.012753968 -0.040391892 -0.020761829 -0.06257974 -0.17443177 -0.08818684
-0.030784922 0.09484677 -0.091149375 0.06984161 0.018920137 0.0313734 -0.07216924 0.019514661
0.10061411 -0.15332608 0.03498424 0.0876902 0.021708362 -0.1794411 -0.03171643 0.1256873
-0.058927935 -0.05598449 -0.069091566 0.1740103 0.08818269 0.11758411 0.03305293 -0.076649725
0.13391535 -0.010119905 0.20093797 -0.10259143 0.2157422 -0.30228177 -0.09916974 -0.02361721
0.21627747 -0.12480559 -0.19395763 0.0077021164 -0.04856364 0.033991706 -0.02905124 0.0916949
-0.04066344 -0.008011385 -0.20714176 -0.09153983 0.026978994 0.0061869207 -0.04166996 0.1595845
-0.07979986 -0.22473909 0.050972655 0.07959376 -0.034560468 -0.039303586 -0.033633877 -0.10627315
0.2003974 -0.074498475 0.08439423 -0.051795244 -0.049963273 0.09211718 -0.058472477 0.12533723
0.02150855 -0.054832492 -0.1711018 0.055816647 0.04759202 0.04445015 -0.023359323 0.060617324
0.017225588 -0.10040393 -0.04649013 0.03711098 0.062249556 -0.08917794 -0.058451913 0.05938046
-0.17384407 0.05489023 0.013517384 0.085849136 -0.073667504 -0.041993238 -0.034625564 0.0055651353
-0.12288891 -0.04199133 0.030444928 -0.050647523 0.0064705815 0.017625533 0.09303921 0.03593526
0.014831584 0.12273127 -0.05686539 0.29937768 -0.19539806 -0.015097365 -0.05540337 -0.0388877
0.11870358 0.008183665 -0.16246407 0.044776574 -0.22796279 -0.14909141 -0.10522284 -0.04025756
0.07248566 -0.1433216 0.09372633 -0.024290325 0.12511624 -0.1551844 0.012127909 -0.06413796
0.20321293 0.038457 0.064191274 0.097642325 0.042400435 0.066840164 0.057380687 -0.24892704
0.098876484 -0.077328354 0.00892029 0.061249632 0.10819499 -0.21873102 -0.027898055 -0.1859548
0.14558445 -0.019280294 -0.079469845 0.042305864 0.011689822 0.15870155 -0.23907968 -0.019817766
-0.22950979 0.23741333 0.025740197 0.15502979 0.094084814 0.0056766192 0.08990195 0.3140764
0.17455429 0.08671023 0.19423105 -0.009357192 0.10471358 0.15895985 -0.040054698 -0.025772562
