Assets/TFModels/Other models trained in the process/Striker2_10_NOSELFPLAY.onnx (onnx, 911175 bytes, 9 tensors)

action_model._discrete_distribution.branches.0.bias f4 [5]
0	0x3c1b19c5	0.009466593
1	0x3d72578c	0.059165522
2	0xbd1ba36d	-0.03799765
3	0xbbf0f9a3	-0.0073539778
4	0xbcd2e1b8	-0.025742397

action_model._discrete_distribution.branches.0.weight f4 [5, 256]
0	0x3cbfc738	0.023410425
1	0xbd28d403	-0.041217815
2	0xb9d1e851	-0.00040036676
3	0xbb6535ce	-0.0034974697
4	0xbbbbab09	-0.005727176
5	0x3d18c588	0.037297755
6	0x3d29e9c3	0.0414827
7	0x3c8f6f83	0.017509228
8	0x3dc177ce	0.09446679
9	0xbd91911d	-0.07107756
10	0x3ca79ca8	0.020460442
11	0xbd260dff	-0.04054069
12	0xbdabaa88	-0.08382136
13	0xbd5532ff	-0.052050587
14	0xbcfd6d81	-0.030936005
15	0x3d863407	0.06552892
16	0x3d5c8d01	0.05384541
17	0x3b980b6e	0.0046400344
18	0x3cf3cfc2	0.029762153
19	0xbc95f776	-0.018306475
20	0x3c97abab	0.018514475
21	0x3c8e17ba	0.017345298
22	0x3b94538e	0.004526562
23	0x3d4b5e4d	0.04965048
24	0xbd901f24	-0.070371896
25	0x3c43f0ac	0.011959236
26	0x3d47ae0e	0.048749976
27	0xbd79d95d	-0.06099831
28	0xbdb578c5	-0.088609256
29	0x3db72021	0.08941675
30	0x3966ae2c	0.00021999393
31	0xbb994358	-0.0046772175
32	0xbd1fa546	-0.038975976
33	0x3d070232	0.032961078
34	0xbd4090fb	-0.047013264
35	0xbd8f409f	-0.06994747
36	0xbaa0d93b	-0.0012271771
37	0xbd72b1a5	-0.059251446
38	0xbd968987	-0.0735045
39	0x3ba76215	0.005108128
40	0x3d6a885a	0.05725894
41	0x3d7bbdb9	0.06146023
42	0xbae4075a	-0.001739721
43	0x3d9aeff9	0.075653024
44	0x3c9534d2	0.018213663
45	0x3d8cfda2	0.06884314
46	0x3dd9c522	0.10633303
47	0xbd306c71	-0.043072168
48	0xbcc7bf1d	-0.024383122
49	0x3d69d71e	0.057089917
50	0x3d72f957	0.05931982
51	0x3cab3061	0.020897092
52	0xbd87aa6b	-0.066243015
53	0x3d3172cc	0.04332237
54	0xbc4695c0	-0.012120664
55	0x3d20726a	0.039171614
56	0x3cbc47a2	0.022983376
57	0xbd5f0130	-0.054444492
58	0x3c08df28	0.008353986
59	0xbd70db7e	-0.058803074
60	0x3d091db7	0.033475604
61	0xbd4daf2d	-0.05021589
62	0x3c818f10	0.015815288
63	0x3d9e6baa	0.07735379
64	0x3da2178d	0.07914648
65	0x3d379201	0.044816975
66	0x3d18c41f	0.03729641
67	0xbc0e0dfd	-0.008670327
68	0x3d50170c	0.05080323
69	0x3cc5b1fa	0.024132717
70	0x3d915971	0.07097138
71	0x3c4d926d	0.012547118
72	0x3db5c991	0.08876336
73	0xbbc8b38f	-0.0061249207
74	0xbcfbaa3b	-0.03072082
75	0xbc8f7b16	-0.017514747
76	0xbce3f406	-0.02782632
77	0x3a771744	0.0009425769
78	0xbc962cc7	-0.018331898
79	0x3c87af73	0.016563153
80	0x3d7d6f15	0.061873514
81	0xbba8bb33	-0.005149269
82	0xbc058958	-0.008150421
83	0xbc8bfd7f	-0.01708865
84	0xbc2878f7	-0.0102827465
85	0xbce04f99	-0.027381705
86	0x3caf5ccd	0.021406556
87	0x3a985f28	0.0011625038
88	0x3da84c56	0.08217685
89	0x3bd8d2ad	0.0066169114
90	0xbc1dfa50	-0.009642199
91	0x3b961601	0.00458026
92	0x3daf133a	0.08548589
93	0xbcfc7d95	-0.0308216
94	0x3d42a0fc	0.047516808
95	0x3d49c32d	0.0492584
96	0xbbdc74d1	-0.006727793
97	0xbc996f23	-0.018729752
98	0x3c99528c	0.01871612
99	0x3ce092ff	0.027413843
100	0xbd977a5e	-0.073963866
101	0x3c15592b	0.009115498
102	0xbbdbf154	-0.006712118
103	0xbd513a0e	-0.051080756
104	0xbbfb2c87	-0.00766522
105	0xbd4eed7f	-0.050519463
106	0x3b995733	0.0046795844
107	0x3d0860c1	0.033295397
108	0xbd5c4319	-0.053774927
109	0x3c2c94cf	0.010533526
110	0xbd2433c6	-0.040088437
111	0x3d842e12	0.064541
112	0x3d96f48d	0.07370863
113	0xbc8ef452	-0.017450485
114	0x3c490d3a	0.01227122
115	0xbd4840cd	-0.048889924
116	0x3cece1f0	0.02891633
117	0x3d0c017c	0.034181103
118	0xbc03fa01	-0.008055211
119	0xbd8e5f2f	-0.069517486
120	0x3c2f0599	0.010682487
121	0x3d0f1987	0.034936454
122	0x3ccc0422	0.024904314
123	0x3bd4a7f9	0.0064897505
124	0x3d8a7a9e	0.067616686
125	0x3d5e47bc	0.05426763
126	0xbcb918aa	-0.022594769
127	0xbcfad480	-0.030618906
128	0x3dd4b057	0.10385197
129	0xbd0cb343	-0.034350645
130	0x3d31eb7a	0.04343746
131	0xbbe8efb5	-0.0071086534
132	0xbd333d2f	-0.04375952
133	0x3d2b668b	0.04184584
134	0x3d75d641	0.06001878
135	0x3d53229b	0.051546674
136	0xbcb8c631	-0.022555443
137	0x3c9fc113	0.019501245
138	0x3df68087	0.120362334
139	0xba3ffe99	-0.000732401
140	0xbc69e3ab	-0.014275472
141	0x3dad0817	0.08448809
142	0x3cd27b61	0.025693597
143	0x3d07e18b	0.03317408
144	0x3de794c7	0.11307674
145	0x3b773b2a	0.0037724474
146	0x3d69e6cc	0.05710487
147	0xbc69915f	-0.014255851
148	0xbde275a1	-0.11057592
149	0xbbc342a2	-0.005958871
150	0xbcdcba91	-0.02694443
151	0xbc0a93de	-0.008458106
152	0xbc2f8c47	-0.010714597
153	0xbdda4b79	-0.106589265
154	0xbd745b02	-0.059657104
155	0x3d88bf8d	0.066771604
156	0xbd39bc9c	-0.045345888
157	0xbd740a0c	-0.059579894
158	0xbd51a7eb	-0.05118553
159	0xbdcd2d98	-0.10018462
160	0xbd46ceaa	-0.048536934
161	0x3d93e20c	0.072208494
162	0x3bdfc1a7	0.006828505
163	0x3da0e597	0.07856291
164	0x3d1cd4d6	0.038288914
165	0x3d2f769f	0.042837735
166	0x3c975253	0.018471872
167	0x3d112150	0.03543216
168	0xbab31d93	-0.001366543
169	0xbcc8633a	-0.024461377
170	0xbbb3d26a	-0.00548773
171	0x3c3e375c	0.011609878
172	0x3d7e6d06	0.06211569
173	0x3bb63562	0.005560563
174	0x3d969edd	0.073545195
175	0xbc4ffd65	-0.012694691
176	0xbb734ec7	-0.0037125812
177	0x3b6f0e07	0.0036476867
178	0xbc4b9abf	-0.012427031
179	0x3c03405c	0.00801095
180	0x3d1553c2	0.03645683
181	0x3d25adc4	0.04044892
182	0xbde3a69d	-0.11115763
183	0x3c324c33	0.010882425
184	0x3da844c9	0.08216245
185	0x3d921bac	0.07134184
186	0xbc7fa068	-0.015602209
187	0x3cd38ace	0.025823023
188	0xbd82dbb8	-0.06389564
189	0x3b97ddec	0.0046346094
190	0xbc2dfd00	-0.010619402
191	0xbd27ffa0	-0.041015267
192	0x3c998662	0.018740837
193	0x3d580d41	0.052747015
194	0xbdb179e1	-0.08665825
195	0xbd09b9cd	-0.03362446
196	0xb9c7c18e	-0.00038100447
197	0x3d752279	0.05984733
198	0xbcade09c	-0.021225266
199	0x3d264be0	0.040599704
200	0x3b3cf3b2	0.0028831777
201	0x3d15b8a2	0.036553033
202	0x3d883224	0.066501886
203	0x3b141951	0.0022598098
204	0xbc184332	-0.009293364
205	0xbd1b2a2f	-0.037882026
206	0xbd6e42de	-0.05816924
207	0xbd38746c	-0.045032904
208	0x3ca82667	0.020526124
209	0x3d07313c	0.033005938
210	0xbdc331c3	-0.09530976
211	0xbd4509a3	-0.048104893
212	0x3cf19112	0.02948812
213	0x3db9e283	0.09076407
214	0xbc896df5	-0.016776064
215	0x3d1b4b5c	0.037913665
216	0x3d0eab2b	0.034831207
217	0x3bcb7003	0.006208421
218	0x3ce5e942	0.028065328
219	0xbc006a08	-0.00783778
220	0xbc8ad183	-0.016945606
221	0xbc191314	-0.0093429275
222	0xbc260fd5	-0.010135611
223	0x3d839e87	0.06426721
224	0xbd889642	-0.066692844
225	0x3d80e5d1	0.06293834
226	0x3d92f2e1	0.07175232
227	0x3c44782a	0.01199154
228	0xbcbab7f1	-0.022792788
229	0xbcfe6513	-0.031054055
230	0x3dbc9074	0.0920724
231	0xbc121a97	-0.008917472
232	0x3cdfe408	0.027330413
233	0x3d422a48	0.047403604
234	0x3cd22756	0.025653522
235	0xbdb5321d	-0.08847449
236	0x3daa9bab	0.083304726
237	0x3d525624	0.05135168
238	0xbd108aec	-0.035288736
239	0x3cb38efb	0.021918764
240	0xbd6e57ed	-0.05818932
241	0x3d95f25b	0.07321616
242	0xbc8e072a	-0.0173374
243	0x3c910ee9	0.017707305
244	0x3d63eec3	0.055647623
245	0x3d991a8d	0.07475767
246	0x3c9a93e4	0.018869348
247	0x3cbcb9bb	0.023037782
248	0x3c160e58	0.009158693
249	0xbd0bbeea	-0.034117617
250	0x3ce7f246	0.028313767
251	0xbd31f403	-0.0434456
252	0x3dd43386	0.1036139
253	0xbd392a40	-0.04520631
254	0x3d8fff40	0.07031107
255	0xbd9e1250	-0.077183366

action_model._discrete_distribution.branches.1.bias f4 [3]
0	0x3d4ec020	0.050476193
1	0xbd019fff	-0.031646725
2	0xbcbaf384	-0.022821195

action_model._discrete_distribution.branches.1.weight f4 [3, 256]
0	0x3d60c113	0.05487163
1	0x3dc31f9f	0.095275156
2	0x3d3f72d9	0.046740387
3	0x3c02fd05	0.007994895
4	0x3c7670c1	0.015041531
5	0x3c5d3d8b	0.0135034425
6	0xbd2ada8d	-0.041712333
7	0x3d79835b	0.060916286
8	0xbca207ac	-0.019779049
9	0x3da3a5cc	0.079906076
10	0xbdb6cb5b	-0.08925506
11	0x3dd44897	0.10365408
12	0x3da61310	0.08109105
13	0xbc697daa	-0.014251152
14	0xbd04437b	-0.032290917
15	0xbdb8e69c	-0.0902836
16	0xbd906070	-0.07049644
17	0x3d9cedda	0.07662554
18	0xbd823fb2	-0.06359805
19	0x3a079dd2	0.00051733584
20	0xbd5bbffb	-0.053649884
21	0xbcc94f2a	-0.024573881
22	0xbc2528bd	-0.010080514
23	0xbd41851e	-0.04724609
24	0xbc15e693	-0.009149211
25	0x3da03394	0.07822338
26	0xbc51cce4	-0.012805197
27	0x3d787766	0.060660742
28	0xba60f487	-0.0008581359
29	0x3d3ecea9	0.046583805
30	0xbdf180f4	-0.11792174
31	0xbde3e42b	-0.11127504
32	0x3ce85fea	0.028366048
33	0x3d20731f	0.039172288
34	0x3dc85752	0.0978228
35	0xbdabbc91	-0.083855756
36	0xbd9be291	-0.076115735
37	0xbc4fe8ea	-0.012689808
38	0x3bf5618d	0.0074884356
39	0xbc2d09ff	-0.010561465
40	0xbb7225c0	-0.003694877
41	0xbc1f027f	-0.009705185
42	0x3d4671b4	0.04844828
43	0xbd23c4fd	-0.039982785
44	0x3ddf0cc2	0.10891105
45	0x3d6c3660	0.057669044
46	0x3dd8a30e	0.10577975
47	0xba85e4c9	-0.0010215278
48	0x3aff83e3	0.0019494261
49	0xbcf0b337	-0.029382331
50	0xbd139c0b	-0.036037486
51	0x3d883214	0.06650177
52	0x3ce7d830	0.028301328
53	0x3d7b99dd	0.061426032
54	0xbd7be850	-0.061500847
55	0x3da53939	0.08067555
56	0x3cb863d1	0.022508534
57	0xbd410465	-0.04712333
58	0xbdbc7a4e	-0.09203015
59	0x3c7202bc	0.01477116
60	0xbd75dfd6	-0.06002792
61	0x3a23d5de	0.0006249825
62	0xbdc74af5	-0.09731094
63	0x3cb781f3	0.022400832
64	0x3dacc059	0.08435125
65	0x3c85293d	0.016255016
66	0xbdc490b7	-0.09597915
67	0xbd98bae7	-0.07457524
68	0x3d37dbc2	0.04488731
69	0x3d0a539d	0.033771146
70	0x3ccda584	0.025103338
71	0x3c9bfaed	0.01904055
72	0xbd07bb24	-0.033137456
73	0x3be68f5a	0.007036132
74	0x3d9152ee	0.07095896
75	0xbab4bf05	-0.0013789838
76	0xbcc8988e	-0.024486806
77	0xbc86f007	-0.016471876
78	0x3c8b9ca9	0.017042475
79	0xbc094049	-0.008377143
80	0x3d1ee0f4	0.03878875
81	0xbca77bbd	-0.020444745
82	0x3c5b3e5e	0.013381569
83	0x3d833280	0.064061165
84	0x3d05d015	0.032669146
85	0xbc2cb1c0	-0.010540426
86	0xbb0ee24c	-0.0021802364
87	0x3c898aad	0.016789759
88	0x3df97721	0.12180925
89	0xbda7177e	-0.08158778
90	0xbe14129a	-0.14460221
91	0x3d82721c	0.06369421
92	0x3c376077	0.011192433
93	0x3d8bca4f	0.06825697
94	0x3cb1fd0e	0.021727111
95	0xbb848d1e	-0.004045143
96	0xbd84050c	-0.06446275
97	0x3c3d86a7	0.011567748
98	0x3dae3879	0.08506865
99	0x3d621d1e	0.05520355
100	0xbd85ac5a	-0.06527014
101	0xbc38811b	-0.01126125
102	0xbd15b002	-0.036544807
103	0xbcb9665a	-0.022631813
104	0x3dce9c37	0.10088389
105	0xbcbbf901	-0.022945883
106	0x3c4c8975	0.012483944
107	0x3c4d1167	0.012516356
108	0xbd0281ec	-0.031862184
109	0xbba96817	-0.005169879
110	0xbd53c351	-0.05169994
111	0xbc9698ef	-0.018383471
112	0xbbde71c6	-0.006788465
113	0x3a93f6f0	0.0011288803
114	0x3d5e2e71	0.05424351
115	0x3d249d6c	0.04018919
116	0x3d379b4b	0.044825833
117	0x3da64d66	0.08120231
118	0x3d51112c	0.051041767
119	0x3d99d2b5	0.07510892
120	0xbc857520	-0.016291201
121	0xbc820e50	-0.015875965
122	0xbd66f94b	-0.056390088
123	0xba15e96c	-0.00057186815
124	0xbd094563	-0.033513438
125	0xbde942fc	-0.113897294
126	0xbd873a87	-0.0660296
127	0x3d54eab2	0.051981635
128	0xbd12eeea	-0.035872377
129	0x3a51348c	0.00079805474
130	0xbc574b2b	-0.01314048
131	0xbdd59839	-0.10429425
132	0xbcc15771	-0.023601266
133	0x3dbd2356	0.092352554
134	0x3bb692d8	0.0055717044
135	0xbc1aea3d	-0.009455261
136	0x3c909732	0.01765022
137	0x3d31e880	0.04343462
138	0xbcb45b72	-0.02201626
139	0xbd678301	-0.05652142
140	0x3cfc3138	0.030785188
141	0xbc646c0c	-0.013941776
142	0x3dafacef	0.08577906
143	0x3d05378f	0.032523688
144	0xbcd8799e	-0.02642518
145	0x3d1e43b6	0.038638793
146	0x3c96fa11	0.018429788
147	0x3d206e3d	0.03916763
148	0x3d60f81d	0.05492412
149	0xbd11ffd3	-0.035644364
150	0xbd181ef7	-0.037138905
151	0xbca2ecfd	-0.019888395
152	0x3cb66530	0.022265047
153	0x3c1d6c49	0.009608337
154	0xbc1f46e4	-0.0097214915
155	0xbca2e88b	-0.019886276
156	0xbd90bb93	-0.07067027
157	0xbc4d7367	-0.012539721
158	0xbd33aacc	-0.043864056
159	0x3d8dd4af	0.06925332
160	0x3d9dd6c7	0.07706981
161	0x3d3828fd	0.044960964
162	0x3cd4da09	0.025982874
163	0x3d542824	0.051796094
164	0x3de934fa	0.113870576
165	0xbd670bcc	-0.056407735
166	0x3dbccc87	0.09218698
167	0x3d3f27e2	0.046668895
168	0x3d0201f0	0.03174013
169	0x3d9da02d	0.07696567
170	0xbcf55c80	-0.029951334
171	0xbd89e654	-0.06733385
172	0x3d25c131	0.040467445
173	0xbc083fbd	-0.008315978
174	0x3d11c898	0.03559169
175	0xbd2db91b	-0.04241286
176	0xbd7b57ca	-0.06136302
177	0x3c427cd5	0.011870583
178	0x3d97c8a4	0.07411316
179	0xbb3e3a6a	-0.0029026517
180	0x3dcc6bc3	0.099814914
181	0xbd2959b0	-0.0413453
182	0x3c27df5c	0.010246124
183	0xbc7b8bbf	-0.015353142
184	0x3c8aee00	0.01695919
185	0xbdfa6669	-0.122265644
186	0x3cffdf12	0.031234298
187	0x3c9e8d11	0.019354375
188	0xbd1a5216	-0.03767594
189	0xbd6ab936	-0.057305537
190	0xbcc5821a	-0.024109889
191	0xbd5f90bf	-0.0545814
192	0x3b3ccc8c	0.0028808443
193	0xbd32a113	-0.043610644
194	0x3b5e3dd2	0.003391136
195	0x3cfcb96a	0.030850131
196	0x3d0c93e2	0.03432072
197	0x3cc00a30	0.023442358
198	0xbcb456cf	-0.02201405
199	0xbc190bda	-0.009341205
200	0xbc6af7c0	-0.014341295
201	0xbd9af735	-0.07566682
202	0xbd8bcc9a	-0.06826134
203	0x3e0f6126	0.14001903
204	0x3d729315	0.0592223
205	0x3d0974a0	0.033558488
206	0x3d5a9451	0.0533641
207	0xbcbc865c	-0.023013286
208	0x3d77a1e1	0.060457114
209	0x3dce3420	0.10068536
210	0xbb623985	-0.0034519148
211	0x3d6e1689	0.05812696
212	0x3db28c6e	0.08718191
213	0x3d502cdf	0.050824042
214	0x3d9c6c6a	0.07637866
215	0xbc82c25b	-0.015961817
216	0xbdb02c5f	-0.08602213
217	0x3d27f225	0.04100241
218	0xbce03f67	-0.027373983
219	0x3cf54615	0.029940644
220	0x396738ed	0.00022051083
221	0xbc3c0836	-0.011476567
222	0xbbd94d70	-0.0066315457
223	0xbd74a373	-0.05972619
224	0xbe16b728	-0.14718306
225	0x3c995f21	0.018722119
226	0x3de96607	0.11396413
227	0x3bf81a3d	0.007571487
228	0x3c9736db	0.018458774
229	0x3d9b570f	0.075849645
230	0x3d559df8	0.052152604
231	0xbd0d364d	-0.034475613
232	0xbd9b4f39	-0.0758347
233	0xbca23aac	-0.019803368
234	0xbd1be9b4	-0.038064674
235	0xbd2a76f5	-0.041617353
236	0x3d6c0a84	0.057627216
237	0xbd44b21a	-0.048021413
238	0x3ce9ed99	0.028555678
239	0xbd41e37f	-0.047336098
240	0xbc555e0e	-0.013022913
241	0x3d90dd0f	0.070734136
242	0xbd958590	-0.07300866
243	0x3d160215	0.03662308
244	0xbd995e49	-0.074886866
245	0x3d9a5414	0.07535568
246	0x3c25450c	0.010087263
247	0x3d3443d5	0.044010002
248	0xbd427697	-0.047476377
249	0x3d183207	0.037157085
250	0xbc9a00ba	-0.018799175
251	0x3c1e1ce9	0.009650447
252	0x3c2731de	0.01020476
253	0xbce2f227	-0.027703358
254	0x3d2aa71f	0.041663285
255	0xbd0c2a69	-0.034220133

discrete_action_output_shape f4 [1, 2]
0	0x40a00000	5.0
1	0x40400000	3.0

network_body._body_endoder.seq_layers.0.bias f4 [256]
0	0x3d0792bf	0.033098932
1	0xbd6d204f	-0.05789214
2	0x3cae94fc	0.021311276
3	0xbb17822e	-0.0023118365
4	0xbd3dcd7c	-0.046338543
5	0x3c0cec33	0.008601236
6	0x3c096636	0.008386185
7	0xbcd6ef0e	-0.026237037
8	0x3b391ff2	0.00282478
9	0x3c55b764	0.013044212
10	0xbd8a6ab5	-0.06758634
11	0xbbc45051	-0.00599102
12	0xbd525a4e	-0.051355653
13	0xbd14a778	-0.036292523
14	0x3d840541	0.064463146
15	0xbd89c349	-0.06726701
16	0x3cda3b4f	0.026639609
17	0xbd397677	-0.045278993
18	0x3c0b0f3a	0.008487517
19	0xbbf74509	-0.0075460714
20	0xbd314e86	-0.043287776
21	0x3cd64e09	0.026160257
22	0xbd63884d	-0.05554991
23	0xbd940557	-0.07227581
24	0x3c91581a	0.017742205
25	0x3d528f59	0.05140624
26	0xbd1db775	-0.038505036
27	0x3b0f8dd5	0.0021904607
28	0xbacac5bc	-0.0015470306
29	0xbd6ba8ae	-0.057533912
30	0xbb8a3635	-0.0042178878
31	0xbcae0acb	-0.02124538
32	0xbd0a3eb0	-0.03375119
33	0x3cabec9f	0.020986853
34	0x3b2558e9	0.0025229997
35	0x3cda1f35	0.026626209
36	0x3cbbdc17	0.022932095
37	0xbcfb1933	-0.030651664
38	0x3d25cc41	0.040477995
39	0xbc486d1e	-0.012233047
40	0x3c88e9e9	0.0167131
41	0x3b4927b4	0.003069383
42	0xbd237983	-0.039910804
43	0x3d6f89a6	0.05848088
44	0xbb3c09bd	-0.0028692328
45	0xbc6992d8	-0.014256202
46	0x3c8eb80f	0.01742175
47	0x3a806009	0.0009794246
48	0x3d14aa67	0.03629532
49	0x3bcf3e15	0.0063245394
50	0x3d453c50	0.04815322
51	0xbd8163b2	-0.063178435
52	0x3d058cbd	0.03260492
53	0x3ccc9419	0.024972962
54	0x3ad86278	0.0016508838
55	0xbd62718c	-0.055284068
56	0xbd0359f9	-0.032068226
57	0xbbc3d1fc	-0.00597596
58	0x3bd314c7	0.006441686
59	0x3bbee57a	0.0058256956
60	0xbbe95702	-0.007120968
61	0x3c967721	0.018367352
62	0xbd349015	-0.04408272
63	0x3bb4edd4	0.0055215154
64	0x3d593b1a	0.05303488
65	0xbc8f9089	-0.017524974
66	0xbc6be396	-0.014397522
67	0x3c8c1b06	0.01710273
68	0xbd5fc8b0	-0.05463475
69	0x3bd23c11	0.006415852
70	0xbbbbf5e3	-0.005736099
71	0xbd4a7029	-0.04942337
72	0xbc82c8aa	-0.015964825
73	0xbc1c9e37	-0.009559206
74	0xbd6ac4ba	-0.05731652
75	0xbce6a6aa	-0.028155643
76	0x3d2ee240	0.042696238
77	0xbc842141	-0.016129138
78	0x3ca112be	0.019662257
79	0x3aedb2b1	0.0018134919
80	0x3d0bc847	0.034126546
81	0x3d2c0e2c	0.042005703
82	0x3bc059e6	0.0058700917
83	0xbd117250	-0.035509408
84	0x3cbb78e8	0.022884801
85	0x3cc319a2	0.023815934
86	0xbc291aa2	-0.010321291
87	0x3ce1a051	0.027542265
88	0xbbae03bf	-0.005310505
89	0xbd23b86c	-0.0399708
90	0xbd85b590	-0.06528771
91	0x3d35d4ca	0.044392385
92	0xbcab5cbb	-0.02091824
93	0x3b083d11	0.0020788352
94	0xbd4c911c	-0.049943075
95	0xbd28d781	-0.041221146
96	0x3c423d11	0.01185538
97	0x39d5f062	0.00040805625
98	0xbc832177	-0.016007168
99	0xbc0ef966	-0.008726453
100	0xbda0a40f	-0.07843792
101	0x3d81f531	0.06345595
102	0xbcec46ef	-0.028842418
103	0xbcf80dc7	-0.030280007
104	0x3c8be15e	0.017075237
105	0xbc1105b8	-0.008851461
106	0xbd477768	-0.04869786
107	0xbdb4d142	-0.08828975
108	0x3d148db6	0.03626796
109	0xbccf7b41	-0.025327327
110	0x3cb59134	0.022163965
111	0xba2514f6	-0.0006297374
112	0xba845c57	-0.001009832
113	0xbdc8a394	-0.09796825
114	0x3c9c2066	0.019058418
115	0x3cbb73de	0.022882398
116	0xbd824a5f	-0.063618414
117	0xbd559521	-0.052144174
118	0x3ceb3b30	0.028714746
119	0x3d1306fc	0.035895333
120	0xbd01fbb7	-0.031734195
121	0x3bea9fda	0.007160169
122	0x3bb224db	0.0054365224
123	0xbcff89ed	-0.031193698
124	0xbd75ef5e	-0.06004273
125	0x3cc13edc	0.023589544
126	0xbda089a7	-0.07838755
127	0x3bb537eb	0.0055303476
128	0xbd8d59bd	-0.06901882
129	0xbb9916da	-0.0046719136
130	0xbd8fc507	-0.07020002
131	0xbca306d5	-0.019900719
132	0x3c725e33	0.014792967
133	0xbc3f2696	-0.011666914
134	0xbc74a8a6	-0.014932787
135	0xbb9bfc5c	-0.004760308
136	0xbcaff1c7	-0.021477593
137	0x3d294e1a	0.04133425
138	0xba1133c3	-0.0005539024
139	0x3d62dfd6	0.055389248
140	0x3b1367c0	0.002249226
141	0x3d59a8e2	0.053139575
142	0xbcfbc474	-0.030733325
143	0xbdb7a30b	-0.08966645
144	0xbb9abb00	-0.004721999
145	0x3c5e9821	0.013586075
146	0xbd1ddb76	-0.038539372
147	0x3d0e8165	0.03479137
148	0xbcb9798d	-0.022640968
149	0xbcd7b238	-0.026330099
150	0x3c19c4a9	0.009385266
151	0x3d1bd3b7	0.038043704
152	0x3c744f23	0.014911446
153	0xbc11843c	-0.008881625
154	0x3bf97489	0.007612769
155	0xbd5c0f6b	-0.05372564
156	0x3b1b7266	0.002371931
157	0xbc41846e	-0.011811359
158	0xbcdb58af	-0.026775686
159	0xbcda9d1d	-0.026686246
160	0xbc4ae7d1	-0.012384371
161	0xbd0eac41	-0.034832243
162	0x3ca7d39b	0.020486644
163	0xbd0b7324	-0.034045354
164	0xbc2ec7ff	-0.0106678
165	0xbc2ddc5b	-0.010611619
166	0xbce5e9a0	-0.028065503
167	0xbd12bcfe	-0.03582477
168	0xbc743537	-0.0149052655
169	0x3bd31f29	0.0064429236
170	0xbcaa8ddf	-0.020819603
171	0xbd69d890	-0.057091296
172	0x3c21c49e	0.009873537
173	0x3c6f81d3	0.014618355
174	0x3d159127	0.03651538
175	0x3c9ae388	0.018907323
176	0xbd506265	-0.050875086
177	0x3c0d9f5c	0.008643951
178	0xbd06ffda	-0.032958843
179	0xbd1b1fe6	-0.037872218
180	0x39a9d974	0.00032396207
181	0xbceea580	-0.02913165
182	0xbd0bb71e	-0.03411018
183	0x3d733ca6	0.05938401
184	0x3c8279d1	0.015927227
185	0xbd4f74fc	-0.050648674
186	0xbd83abe4	-0.0642927
187	0xbc8f219a	-0.017472077
188	0x3902e684	0.0001248364
189	0xbcd191ae	-0.02558216
190	0xbac33c67	-0.0014895321
191	0x3c6e7264	0.01455364
192	0x3d69387d	0.056938637
193	0xbd7de3af	-0.061984714
194	0xbd155e2d	-0.036466766
195	0x3cd5f219	0.026116418
196	0xbb779698	-0.003777897
197	0xbcbc1705	-0.022960195
198	0xbbd07ced	-0.0063625486
199	0x3d0ec78e	0.03485828
200	0x3a3de8e6	0.00072444824
201	0xbd82aaa5	-0.06380204
202	0xbd106743	-0.035254728
203	0xbbe8418b	-0.0070878915
204	0xbd221953	-0.039574932
205	0xbd1789e8	-0.036996752
206	0x3b7d82dd	0.0038682737
207	0xb9441409	-0.0001869948
208	0xbd9d4a65	-0.07680205
209	0xbc371e39	-0.011176639
210	0xbd9c1a0c	-0.076221555
211	0xbdaf9c93	-0.08574786
212	0x3ca75914	0.020428218
213	0x3c4a6641	0.012353481
214	0x3ca9aaa1	0.020711245
215	0xbd0a09e8	-0.033700854
216	0xba7c490a	-0.0009623921
217	0x3d2076a1	0.039175633
218	0xbd0e4a64	-0.034738913
219	0x3c9b6d89	0.018973129
220	0xbc35f759	-0.011106336
221	0xbb671e9b	-0.0035266045
222	0xbd173371	-0.036914293
223	0xbc6ffc20	-0.014647514
224	0x3a310e8f	0.00067541836
225	0x3cefc6d5	0.029269615
226	0xbae49794	-0.0017440193
227	0xbd7182bf	-0.05896258
228	0x3cbe4ccf	0.023229985
229	0x3d68fed9	0.056883667
230	0x3d0bd9ff	0.034143444
231	0x3d07f960	0.033196807
232	0xbce03aa6	-0.027371716
233	0xbd3f3e9c	-0.04669057
234	0x3d672680	0.0564332
235	0x3d615cb5	0.055020053
236	0x3d0106af	0.031500515
237	0xbcbc2cff	-0.022970675
238	0x3c08ad69	0.008342125
239	0xbd0b3871	-0.033989374
240	0xbc902515	-0.017595807
241	0xbd8ecedd	-0.0697305
242	0xbcc9c0cf	-0.024628071
243	0x3d1b1889	0.037865195
244	0xbd7231ad	-0.059129406
245	0x3d217caf	0.03942555
246	0xbcc459d7	-0.02396862
247	0xbd8aac13	-0.06771102
248	0x3c1f40f6	0.009720078
249	0x3bcdc9d9	0.0062801656
250	0xbcc4e2de	-0.02403396
251	0x3d1f8517	0.038945284
252	0xbc24100d	-0.010013592
253	0x3c9198d2	0.017773066
254	0x3d0434a1	0.032276753
255	0xbbdc9df3	-0.006732696

network_body._body_endoder.seq_layers.0.weight f4 [256, 621]
0	0x3d580d47	0.052747037
1	0xbdc39f0b	-0.095518194
2	0xbcbf989d	-0.023388201
3	0x3df1f6d9	0.118146606
4	0x3df08821	0.117447145
5	0xbdf1c01c	-0.1180422
6	0x3df63b13	0.12022986
7	0x3ce8553e	0.02836096
8	0x3e64dc59	0.22349681
9	0xbd3ce12d	-0.04611318
10	0xbd280996	-0.041024767
11	0x3a8def46	0.0010828755
12	0xbd4b5feb	-0.04965202
13	0x3ca05dac	0.019575916
14	0xbe414c3a	-0.18876734
15	0xbd0b5599	-0.03401718
16	0x3daaefa8	0.08346492
17	0x3de612c4	0.11234048
18	0x3c11624c	0.008873533
19	0x3db2a5ca	0.08723028
20	0xbdd1db60	-0.102469206
21	0xbdb95880	-0.09050083
22	0x3cc15415	0.023599664
23	0x3cf3ef6a	0.029777247
24	0xbc492df9	-0.012279027
25	0x3daf6ed1	0.085660584
26	0x3dbf883b	0.09352156
27	0x3e3f7404	0.186966
28	0xbe336b20	-0.17521334
29	0x3e2c0d74	0.16802007
30	0xbd4f811a	-0.05066023
31	0x3d798a7b	0.06092308
32	0x3ccc86fd	0.024966711
33	0xbd9d08e2	-0.0766771
34	0xbd3497d8	-0.044090122
35	0x3dd9942f	0.10623967
36	0xbdfa2cbc	-0.12215564
37	0x3d9e70bf	0.07736348
38	0x3d5fb83d	0.054619063
39	0x3d223d7a	0.03960941
40	0xbdef8cca	-0.11696775
41	0xbdec2aab	-0.11531576
42	0xbd21850d	-0.039433528
43	0x3d6a5fdb	0.05722032
44	0x3dc85d43	0.09783413
45	0x3cd71880	0.0262568
46	0xbd5f7191	-0.054551665
47	0x3c71170c	0.014714967
48	0x3b7c2cfc	0.0038478961
49	0x3cc193f5	0.023630122
50	0x3dc39e02	0.09551622
51	0x3d378b3e	0.044810526
52	0xbd9a66ae	-0.07539116
53	0x3e05b2c7	0.1305648
54	0x3d885661	0.066571005
55	0xbdd451e2	-0.103671804
56	0xbc657593	-0.014005083
57	0xbd9f96a2	-0.07792403
58	0x3e055c36	0.13023457
59	0xbe0e7039	-0.13909997
60	0xbdad3554	-0.08457437
61	0x3d5c5fa1	0.053802136
62	0x3dd8857b	0.105723344
63	0x3e5e9d23	0.2173963
64	0xbe36b04a	-0.17840686
65	0x3cd05e77	0.02543567
66	0xbe1372ed	-0.1439931
67	0xbcb1a610	-0.02168563
68	0xbdd270a3	-0.1027539
69	0xbc024faf	-0.007953568
70	0x3db16069	0.08660967
71	0x3d501375	0.050799806
72	0xba841d21	-0.0010079482
73	0xbdd0995b	-0.101855
74	0x3d617e1b	0.055051904
75	0xbb036734	-0.0020050528
76	0x3ce0dfed	0.027450526
77	0x3de27f49	0.11059434
78	0x3e104b5c	0.14091247
79	0xbc6b0de9	-0.014346578
80	0x3d4e632a	0.05038754
81	0x3cc66f5f	0.024223028
82	0x3c997e13	0.018736875
83	0xbd3644a0	-0.04449904
84	0x3d509177	0.050919976
85	0xbda0b2df	-0.07846617
86	0xbdb96c9b	-0.09053918
87	0xbd165385	-0.036700744
88	0x3c47bf33	0.012191582
89	0x3d820495	0.0634853
90	0x3dcf888c	0.10133466
91	0xbcaf9e58	-0.021437809
92	0x39c7992b	0.00038070357
93	0x3d8e3d8f	0.06945335
94	0xbdb0c65b	-0.08631583
95	0x3d8bd729	0.06828148
96	0xbc45f435	-0.012082149
97	0xbd28f051	-0.04124481
98	0x3d7ecbc5	0.06220605
99	0xbd91f6ee	-0.07127176
100	0xbdf20dc1	-0.118190296
101	0xbd83a530	-0.064279914
102	0x3dc867ad	0.097853996
103	0xbda98710	-0.08277714
104	0xbdf66112	-0.120302334
105	0x3d0ab67b	0.033865433
106	0x3d788569	0.060674105
107	0x3d0a57c9	0.033775125
108	0x3b7698e4	0.003762775
109	0xbd9c4850	-0.0763098
110	0x3d8c0c9b	0.06838342
111	0xbc8ff199	-0.017571257
112	0xbdb5632a	-0.08856805
113	0xbe0df7f0	-0.13864112
114	0x3d7f29ba	0.062295653
115	0x3cc8d163	0.024513906
116	0x3d1f0b32	0.038829036
117	0xbdca1a38	-0.09868282
118	0x3bf84416	0.007576476
119	0xbdd0321d	-0.10165808
120	0x3cc7123c	0.024300687
121	0xbdd829fc	-0.10554883
122	0xbdf25c04	-0.11833957
123	0x3dc5bda3	0.09655311
124	0x3dd96744	0.106153995
125	0x3d67b4f4	0.056569055
126	0xbdfe9ea2	-0.124326006
127	0xba962bbf	-0.0011457129
128	0xbda9d292	-0.08292116
129	0x3dda80e9	0.10669119
130	0xbcbd69d6	-0.023121756
131	0xbdce163b	-0.10062834
132	0xbc380bad	-0.0112332525
133	0x3da734e7	0.08164387
134	0xbbd070cb	-0.006361102
135	0xbdbfe052	-0.093689576
136	0xbd0fa59f	-0.035070058
137	0xbc06851c	-0.008210447
138	0x3c67a107	0.014137513
139	0xbd85045a	-0.064949706
140	0xbe089987	-0.13339816
141	0x3d0098cd	0.031395722
142	0xbcc69504	-0.024240978
143	0xbcc0c66f	-0.02353212
144	0x3d57abc6	0.05265405
145	0xbe22323b	-0.15839474
146	0x3c48961d	0.012242821
147	0x3d1b46e2	0.037909396
148	0xbd97d2ae	-0.07413231
149	0xbc980aba	-0.018559802
150	0x3e128017	0.14306675
151	0x3a393199	0.00070645806
152	0x3d1cc141	0.03827024
153	0xbca4d2ce	-0.02012005
154	0xbe15e9a8	-0.14639914
155	0xbd66ea26	-0.056375645
156	0xbbe5d616	-0.0070140464
157	0x3da38414	0.07984176
158	0x3d3377b7	0.04381534
159	0x3e51ad16	0.20476183
160	0xbcf9d34b	-0.03049626
161	0x3caf4e30	0.021399587
162	0x3d2a186e	0.041527204
163	0xbcc0422d	-0.023469055
164	0x3e31c5ce	0.17360613
165	0x3d365198	0.044511408
166	0x3b0657d6	0.0020499132
167	0xbd0c4257	-0.034242954
168	0x3db280ae	0.0871595
169	0x3dabf82b	0.08396944
170	0xbd386e79	-0.04502723
171	0xbd2d87c1	-0.042365793
172	0x3dd9f047	0.106415324
173	0xbd9becbd	-0.076135136
174	0xbcb54754	-0.022128738
175	0x3cba4edf	0.022742687
176	0x3d488cbf	0.04896235
177	0xbba1f2c8	-0.004942272
178	0xbd92d4dd	-0.07169507
179	0x3c80f80a	0.015743274
180	0xbdb5488e	-0.08851729
181	0x3c3751d1	0.01118894
182	0xbe69c2a0	-0.2282815
183	0xbdb26856	-0.08711307
184	0x3c395030	0.011310622
185	0xbdf32e9d	-0.11874125
186	0x3dce3045	0.100678004
187	0xbdc06603	-0.09394457
188	0xbccf0c76	-0.025274497
189	0xbbd02f69	-0.006353308
190	0xbe0437e6	-0.12911949
191	0x3e05839a	0.13038483
192	0xbdda3bb3	-0.10655918
193	0x3ca7ad4e	0.02046838
194	0x3dfe7e73	0.12426462
195	0xbd244bfe	-0.040111534
196	0x3beff7a4	0.0073232222
197	0xbd363282	-0.04448176
198	0xbd76fa16	-0.060297094
199	0xbde39738	-0.11112827
200	0xbe3fcf8d	-0.18731518
201	0xbd87909a	-0.066193774
202	0xbdc32c4a	-0.09529932
203	0x3d5a752d	0.053334404
204	0x3e28d4ff	0.16487502
205	0xbd9bab17	-0.07600992
206	0xbd8d73f8	-0.06906885
207	0xbd5b2ab5	-0.053507525
208	0xbe628f13	-0.22124891
209	0x3d3a058f	0.045415457
210	0xbd32c652	-0.043646164
211	0xbc933c54	-0.017973103
212	0x3ccd6452	0.02507225
213	0xbcaac0da	-0.020843912
214	0xbbfb7f95	-0.007675121
215	0xbd81f0ac	-0.06344733
216	0x3e03d8db	0.12875693
217	0xbca9726f	-0.020684449
218	0xbcb60113	-0.02221731
219	0x39dbaf08	0.00041901344
220	0xbd2d9faf	-0.042388614
221	0x3bcbd92c	0.0062209573
222	0xbe158591	-0.14601733
223	0x3d1c0bc4	0.038097158
224	0xbbc316f1	-0.0059536626
225	0x3c16a0a4	0.009193573
226	0xbb15f2c9	-0.0022880307
227	0xbc209ccc	-0.009803008
228	0xbc6d76c5	-0.014493649
229	0xbb0e4a82	-0.002171189
230	0xbdef7f94	-0.116942555
231	0x3dc2f642	0.09519626
232	0x3c8dc6ef	0.017306773
233	0x3d3880af	0.045044597
234	0x3c6496a8	0.013951935
235	0xbd3dcee5	-0.046339888
236	0xbe42c313	-0.19019727
237	0xbde47ccb	-0.11156615
238	0x3dc818bd	0.097703435
239	0xbe102de6	-0.14080009
240	0x3a3de57e	0.0007243975
241	0x3d8f1e24	0.06988171
242	0x3cd2b1cb	0.025719544
243	0x3e35b5b3	0.17745094
244	0x3d1f56b8	0.03890106
245	0x3cc4f51b	0.024042657
246	0x3da06fa0	0.07833791
247	0x3d06e8a4	0.032936707
248	0x3d8f5167	0.06997948
249	0xbd90bc50	-0.07067168
250	0xbcdcf373	-0.026971554
251	0xbda9113c	-0.0825524
252	0xbcee899d	-0.029118354
253	0x3a8207d7	0.0009920549
254	0xbca5f997	-0.020260615
255	0xbc6e6bcb	-0.014552067

network_body._body_endoder.seq_layers.2.bias f4 [256]
0	0xbc156196	-0.009117505
1	0x3c489c26	0.01224426
2	0x3c9a9c34	0.018873312
3	0xbc00a4c7	-0.007851786
4	0xbd459a77	-0.048243012
5	0xbc7bc2e8	-0.0153662935
6	0xbcc596ca	-0.024119753
7	0x3ba1e6c2	0.0049408386
8	0xbcea78ef	-0.028622119
9	0x3c579f65	0.013160561
10	0xbd26da9a	-0.04073582
11	0x3c471077	0.012149922
12	0xbbec7761	-0.0072163795
13	0xbd0c9b59	-0.03432784
14	0x3ba86c5f	0.005139872
15	0xbd8ff9f5	-0.070300974
16	0xbc9594e1	-0.018259468
17	0xbc7710ce	-0.01507969
18	0xbdd2e851	-0.10298217
19	0xbd09de6c	-0.033659384
20	0xbdb57b8c	-0.08861455
21	0xbd30313c	-0.043015704
22	0xbd69ea1b	-0.057108026
23	0xbd81bc55	-0.063347496
24	0xbd80a43b	-0.062813245
25	0xbc3d6678	-0.011560075
26	0xbca1692f	-0.019703476
27	0x3c3bb948	0.011457749
28	0x39a84b6d	0.00032099654
29	0x3ba052d5	0.004892687
30	0x3bf5f0bd	0.007505505
31	0xbda80f2d	-0.082060196
32	0x3ce6c527	0.028170181
33	0xbc85af91	-0.016319068
34	0x3c24ac27	0.01005081
35	0xbdaef910	-0.08543599
36	0xbc2dbea3	-0.010604533
37	0xbdc1f76d	-0.09471021
38	0xbba692b7	-0.0050834077
39	0xbd1ce1cf	-0.038301285
40	0xbc727090	-0.014797345
41	0xbd338792	-0.04383046
42	0xbb957579	-0.004561123
43	0xbce12be4	-0.027486749
44	0xbb277b54	-0.0025555687
45	0xbb86f6ea	-0.00411879
46	0x3d0647c8	0.0327833
47	0xbd91aaaf	-0.071126334
48	0xbd58f6d6	-0.052969776
49	0xbd9c0557	-0.07618206
50	0x3c9d3b1d	0.019193226
51	0x3ca49bad	0.020093763
52	0xbd659636	-0.056051455
53	0x3cdcaeea	0.026938874
54	0xbd64b592	-0.05583722
55	0xbd1c8c0c	-0.038219497
56	0xbd4ecae0	-0.050486445
57	0xbdaad219	-0.08340854
58	0xbd734289	-0.059389625
59	0xbc0c6e8b	-0.008571277
60	0xbd1dce3c	-0.03852676
61	0xbd45f4a8	-0.048329026
62	0x3c41215b	0.011787738
63	0xbdaeb8b9	-0.08531327
64	0xbd21e095	-0.03952082
65	0x3b8fa50f	0.00438369
66	0xbdb6438c	-0.08899602
67	0xbd040deb	-0.032239836
68	0x3d5e3e62	0.05425871
69	0xbd30a8f4	-0.043129876
70	0x3bb44fd1	0.005502679
71	0x3c67a26c	0.0141378455
72	0xbd14b03f	-0.036300894
73	0x3c6b2c9b	0.0143538965
74	0x3ccd22d5	0.025041023
75	0x3cebc4b9	0.028780328
76	0xbd24659d	-0.04013597
77	0xbd2b7b5f	-0.041865703
78	0xbcb4dcbe	-0.022077914
79	0xbc912c2b	-0.017721256
80	0x3b941d8b	0.0045201234
81	0xbba3a510	-0.004994042
82	0xbd18a896	-0.03727015
83	0xbcb13e19	-0.021636056
84	0xbd6c4682	-0.05768443
85	0xbd84b6d5	-0.06480185
86	0xbd1fb190	-0.038987696
87	0xbce6a0b6	-0.028152805
88	0xbce094b9	-0.027414666
89	0xbdc88d06	-0.09792523
90	0xbdb0f448	-0.08640343
91	0x3d067c48	0.032833368
92	0xbc674fef	-0.014118179
93	0x3c3dd055	0.011585315
94	0xbcac5f33	-0.021041488
95	0x3d61d939	0.0551388
96	0xbd1fd6d4	-0.039023235
97	0xbd02301e	-0.03178417
98	0xbbdea341	-0.0067943637
99	0xbce3279b	-0.027728846
100	0xbc49f4e6	-0.012326455
101	0xbd2784cf	-0.04089814
102	0xbdd76a06	-0.10518269
103	0xbd8266e6	-0.063672826
104	0xbb159ad4	-0.002282788
105	0xbd16e28f	-0.036837157
106	0x3d434f8b	0.04768328
107	0xbd8dee9f	-0.06930279
108	0xbd445e91	-0.047941748
109	0xbd8118e9	-0.06303579
110	0xbda21208	-0.079135954
111	0xbd3f8309	-0.046755824
112	0xbd0372a6	-0.03209176
113	0xbd19d54e	-0.03755694
114	0xbc9850a8	-0.018593147
115	0xbc63be47	-0.013900346
116	0x3d13fad1	0.03612787
117	0xba6f01de	-0.00091174047
118	0x3c0befee	0.00854109
119	0x3c293724	0.010328088
120	0x3cf24e54	0.029578365
121	0xbcc106ce	-0.023562815
122	0xbd1c3470	-0.038135946
123	0x3d14cd85	0.03632881
124	0xbcce5df5	-0.025191287
125	0xbdcf0648	-0.1010862
126	0xbd4f7750	-0.050650895
127	0x3d27f589	0.041005645
128	0xbcdde933	-0.027088737
129	0xbb1b6ac6	-0.0023714765
130	0xbd3f0933	-0.046639632
131	0xbd22352b	-0.039601486
132	0xb9f9d3a8	-0.00047650677
133	0x3d333618	0.04375276
134	0x3bd17d48	0.0063931085
135	0xbc6f0ebf	-0.014590918
136	0xbdb71fa6	-0.08941583
137	0x3c2a59d8	0.010397397
138	0xbd5714b0	-0.052509964
139	0xbcd433fc	-0.025903694
140	0x3c291048	0.010318823
141	0xbd311a73	-0.043238115
142	0xbc8aae41	-0.016928794
143	0xbc8449b3	-0.016148424
144	0x3c2b829a	0.01046815
145	0x3c0212c5	0.007939045
146	0xbb2b20a4	-0.0026111985
147	0xbc386f75	-0.011257042
148	0x3d4c54b6	0.049885474
149	0xbc98df27	-0.018661095
150	0xbdde31f5	-0.10849372
151	0xbd387dd5	-0.045041878
152	0x3a46ae86	0.00075791066
153	0xbd089822	-0.03334821
154	0xbd02f59d	-0.031972516
155	0xbd84dc91	-0.06487382
156	0xbd2b477c	-0.04181622
157	0x3cba2b47	0.022725714
158	0xbd485395	-0.048907835
159	0xbc97297d	-0.0184524
160	0x3c407919	0.011747622
161	0xbcbd589e	-0.023113545
162	0x3c236393	0.009972471
163	0xbd32c83f	-0.043648
164	0xbcad1660	-0.021128833
165	0xbd947bf1	-0.072502024
166	0x3b28b2a5	0.0025741246
167	0xbb2209e8	-0.0024725143
168	0xbd849149	-0.064730234
169	0x3bdb72d6	0.006697039
170	0xbdaa58e0	-0.08317733
171	0xbd8ba467	-0.06818467
172	0x3b7a177f	0.0038160977
173	0xbb90c7f5	-0.004418368
174	0x3c4dec17	0.012568495
175	0x3bba73db	0.0056900806
176	0xbd87610c	-0.06610307
177	0xbc509831	-0.012731598
178	0xbcb9dc0e	-0.022687938
179	0xbd650758	-0.055915207
180	0x3cc67294	0.024224557
181	0xbda13bb3	-0.07872715
182	0xbd8bd1dc	-0.06827137
183	0x3d0b5399	0.03401527
184	0x3c5bb924	0.01341084
185	0xbd8614d4	-0.065469414
186	0xbcffcc10	-0.031225234
187	0xbc5f4fb1	-0.01362984
188	0xbda8c850	-0.082413316
189	0xbc229301	-0.009922744
190	0x3be553da	0.0069985213
191	0xbd29be49	-0.041441236
192	0xbc71ecbb	-0.014765914
193	0xbd5e25f9	-0.054235432
194	0xbd4b5c36	-0.049648486
195	0x3c5cc9b0	0.01347582
196	0x3c3e64eb	0.01162074
197	0xbaefea66	-0.0018304109
198	0xbcd6a153	-0.026199972
199	0xbd156996	-0.036477648
200	0xbc5187c1	-0.012788714
201	0xbdbdcd4e	-0.092676744
202	0xbabca1c7	-0.0014391475
203	0x3d66071e	0.05615913
204	0x3cf93fa5	0.030425856
205	0xbcff31d5	-0.031151691
206	0xbd171abc	-0.03689073
207	0xbd05a4c1	-0.032627825
208	0xbd500566	-0.0507864
209	0x3b5b7841	0.0033488425
210	0xbd2b9eb8	-0.041899413
211	0xbd6a99bf	-0.05727553
212	0x3d6a7487	0.057240035
213	0xbd439726	-0.04775157
214	0xbc284c37	-0.010272077
215	0xbd2b7c25	-0.04186644
216	0xbdccc2db	-0.09998103
217	0xbc885d4e	-0.016646054
218	0x3ce865d8	0.028368875
219	0xbd28ca38	-0.041208476
220	0xbc29ebac	-0.01037113
221	0xbd0c9dff	-0.034330364
222	0xbcc06e45	-0.02349008
223	0xbdabc4d6	-0.08387153
224	0xbd92a91b	-0.071611606
225	0xbcf67ed6	-0.030089777
226	0x3b722f41	0.0036954435
227	0xbd2af877	-0.04174086
228	0x399b6691	0.00029640322
229	0xbd880057	-0.0664069
230	0x3cf87dbb	0.03033339
231	0xbd69c985	-0.05707695
232	0xbde6644f	-0.11249601
233	0xbd5990f5	-0.053116757
234	0xbca40d75	-0.020025948
235	0xbc9de098	-0.019272134
236	0x3daea7a9	0.085280724
237	0xbc2566f5	-0.010095348
238	0x3cbe3680	0.023219347
239	0xbd1fc8c2	-0.039009817
240	0xbd3e6775	-0.046485383
241	0x3c4a535b	0.012348975
242	0xbd0cfaca	-0.03441886
243	0xbd444f4c	-0.047927186
244	0xb993763d	-0.0002812612
245	0xbc19bd27	-0.009383476
246	0xbd4c2394	-0.049838617
247	0xbbb3f7f8	-0.0054922067
248	0x3c908f8f	0.01764658
249	0xbd0191d4	-0.031633213
250	0xbd4b396a	-0.0496153
251	0xbb866fdf	-0.0041026915
252	0xbd4e5a77	-0.050379243
253	0xbd9406ef	-0.07227885
254	0x3caa632b	0.02079924
255	0xbd00a7d7	-0.031410065

network_body._body_endoder.seq_layers.2.weight f4 [256, 256]
0	0x3d69e061	0.05709875
1	0xbe241406	-0.16023263
2	0x3c6a8323	0.014313492
3	0x3dcbdfcd	0.09954796
4	0x3cf0fdbb	0.029417863
5	0x3d042973	0.03226609
6	0xbde9ceb4	-0.114163786
7	0xbe119d9a	-0.14220276
8	0xbd66d243	-0.056352865
9	0x3d85a3a0	0.065253496
10	0xbd938128	-0.07202369
11	0xbd4c64a5	-0.04990067
12	0xbdb845a3	-0.08997657
13	0xbdf21eb5	-0.11822263
14	0xbe061fc5	-0.13098057
15	0xbd736810	-0.059425414
16	0xbe0733fd	-0.13203426
17	0xbb2c13d8	-0.0026256945
18	0x3ca7f801	0.020504
19	0xbdd754e3	-0.10514238
20	0xbd13f517	-0.036122408
21	0x3de1b0cb	0.11020049
22	0xbe44e60c	-0.19228381
23	0xbdf0b546	-0.11753325
24	0xbe1acc90	-0.15117097
25	0xbdf63159	-0.12021131
26	0xbe19f419	-0.15034522
27	0x3cc5fd69	0.024168687
28	0xbc2993be	-0.010350166
29	0x3e28f563	0.16499858
30	0x3d50139e	0.05079996
31	0x3da22ddd	0.07918904
32	0x3d90991d	0.07060454
33	0xbc6036e4	-0.013684962
34	0xbe003509	-0.12520231
35	0xbdd3d67d	-0.10343645
36	0xbc432fe7	-0.011913276
37	0x3d2bd9b0	0.04195565
38	0xbd51d035	-0.051223952
39	0x3dd29c33	0.10283699
40	0x3c1b000c	0.00946046
41	0x3d0115e1	0.031515006
42	0x3c4e2f81	0.012584568
43	0xbcc8e133	-0.024521446
44	0x3d1127dd	0.035438407
45	0xbd6593d8	-0.056049198
46	0x3db44708	0.08802611
47	0xbe64dc59	-0.22349681
48	0xbdc85a46	-0.09782843
49	0xbe5b9275	-0.21442588
50	0xbd536858	-0.05161318
51	0xbd23e224	-0.040010586
52	0xbd3245c2	-0.043523557
53	0xbc9d8962	-0.019230548
54	0xbe18232d	-0.14857168
55	0x3e18f3c3	0.14936738
56	0xbde4bbf7	-0.11168664
57	0xbc8b594a	-0.01701035
58	0xbd90cf10	-0.07070744
59	0x3ca7d95a	0.020489383
60	0x3c2d2b0d	0.010569346
61	0xbd90cb35	-0.07070009
62	0xbd65e43a	-0.056125857
63	0xbde8ebc6	-0.11373095
64	0x3d2916a9	0.041281376
65	0x3dd09d78	0.10186285
66	0xbd09fd12	-0.033688612
67	0x3dc9c236	0.09851496
68	0xbd496ca2	-0.049175866
69	0x3d889740	0.06669474
70	0x3c297c54	0.010344584
71	0xbbaeab9e	-0.005330517
72	0xbd24164d	-0.04006033
73	0x3c94dd5b	0.018171957
74	0xbbdfc9f6	-0.0068294955
75	0xbd8b7c10	-0.068107724
76	0xbdd006a9	-0.1015752
77	0xbde804c9	-0.11329038
78	0x3d537ab8	0.051630706
79	0x3e1f19ea	0.15537229
80	0xbd0653d9	-0.032794807
81	0xbda5532b	-0.08072504
82	0x3db30f4d	0.08743153
83	0x3e5ed867	0.21762238
84	0xbdb7f1bd	-0.08981655
85	0xbcbbb2f1	-0.022912474
86	0xbd446d20	-0.047955632
87	0xbdefb18b	-0.117037855
88	0x3c8ea930	0.01741466
89	0xbd055a14	-0.03255661
90	0x3d40aa12	0.04703719
91	0x3d1b296f	0.03788131
92	0xbdcab3c9	-0.098975725
93	0xbd22628f	-0.039644774
94	0xbcc06404	-0.023485191
95	0xbd34793a	-0.044060923
96	0x3d7a12a9	0.061052952
97	0x3d8e716e	0.06955229
98	0xbe421142	-0.18951896
99	0xbe06e833	-0.13174514
100	0x3d18f27f	0.037340637
101	0x3d0cdcf0	0.03439039
102	0xbcc078d5	-0.023495117
103	0x3d65fe5c	0.05615078
104	0xbd1de51e	-0.03854858
105	0xbd3bbc15	-0.045833666
106	0xbd78ca02	-0.060739525
107	0x3cf9054f	0.03039804
108	0x3dee30f3	0.1163043
109	0xbe41ad49	-0.1891376
110	0xbdeb1d29	-0.11480171
111	0x3bc6a18b	0.006061738
112	0xbdeba5af	-0.11506211
113	0x3dc6c94d	0.09706364
114	0x3ca5b8a2	0.020229641
115	0x3d29e394	0.0414768
116	0xbd8e2e18	-0.069423854
117	0xbdfca4e4	-0.12336138
118	0x3e0d5323	0.13801245
119	0x3e84cc7f	0.25937268
120	0xbdbf16bc	-0.09330508
121	0x3c40fcbc	0.011779007
122	0x3d7c797a	0.061639287
123	0x3d5ceb8e	0.05393558
124	0xbd8d1f36	-0.06890719
125	0x3d328789	0.043586288
126	0xbb0bb1b4	-0.0021315636
127	0xbdaa7794	-0.08323589
128	0xbd9b9c79	-0.07598204
129	0xbcea7e93	-0.028624808
130	0x3d349421	0.04408658
131	0x3de24a2e	0.11049305
132	0x3d804913	0.06263938
133	0xbe6c8cba	-0.23100558
134	0x3deaf9be	0.11473416
135	0x3d24e6ed	0.04025929
136	0xbd3c8cd6	-0.04603275
137	0xbdfef26e	-0.124485835
138	0xbde69f2c	-0.112608284
139	0x3dc14190	0.09436333
140	0xbd106d0e	-0.035260253
141	0xbdf75c24	-0.12078121
142	0x3dc381a8	0.09546214
143	0xbcfe0c87	-0.031011833
144	0xbe312820	-0.17300463
145	0xbd7ad93c	-0.061242327
146	0xbd9bb3da	-0.07602663
147	0x3988e8b8	0.0002611333
148	0x3da0946a	0.07840808
149	0x3e2a82cb	0.16651456
150	0xbdf6aaf5	-0.12044326
151	0x3d419fb6	0.047271453
152	0xbcb3aad8	-0.02193205
153	0x3d244583	0.040105354
154	0xbd5f45c8	-0.054509908
155	0xbd74e3c6	-0.059787534
156	0xbd707649	-0.058706556
157	0xbdac0903	-0.08400156
158	0x3d8d3a9b	0.06895944
159	0x3dd64453	0.104622506
160	0xbe5adad7	-0.21372543
161	0xbd98868e	-0.07447539
162	0x3aefcdf5	0.0018295633
163	0x3e05ff59	0.13085689
164	0xbdb12302	-0.08649255
165	0xbdf855ef	-0.121257655
166	0x3ca15622	0.019694392
167	0xbe06693c	-0.13126081
168	0x3d9f59e9	0.07780821
169	0xbdd3320c	-0.1031228
170	0xbe03d4e4	-0.1287418
171	0xbd3230fe	-0.043503754
172	0xbdc997c3	-0.098433994
173	0x3d92d561	0.07169605
174	0xbbc92c27	-0.0061392966
175	0x3d99f3cc	0.07517204
176	0xbd4370c0	-0.04771495
177	0x3d6cced9	0.057814453
178	0xbd7e28ff	-0.062050816
179	0x3c0a6d57	0.00844892
180	0xbe27de29	-0.16393341
181	0xbe058977	-0.1304072
182	0xbe49c137	-0.19702612
183	0xbda08413	-0.07837691
184	0xbd9d782e	-0.07688938
185	0xbd916cd9	-0.07100839
186	0xbe2fccfe	-0.17168042
187	0xbb98e51e	-0.004665985
188	0x3e008881	0.12552072
189	0xbdae100a	-0.08499153
190	0xbd0e8443	-0.034794103
191	0x3d7ea029	0.06216446
192	0xbdea240e	-0.11432658
193	0xbd4b03cf	-0.04956418
194	0xbded5ff1	-0.11590565
195	0xbd7926a1	-0.060827855
196	0x3db40cb8	0.087914884
197	0xbdc014fe	-0.09379004
198	0x3d436ab7	0.047709193
199	0x3d7c0460	0.06152761
200	0xbe109d50	-0.1412251
201	0xbe0398ec	-0.12851304
202	0xbd8bda65	-0.06828765
203	0x3d687da4	0.056760445
204	0xbd38d157	-0.045121517
205	0x3c8fe391	0.017564567
206	0x3d96c638	0.07362026
207	0xbd43a18a	-0.047761478
208	0x3cf609d2	0.03003398
209	0x3dcc23af	0.099677436
210	0xbccb919e	-0.02484971
211	0xbe0be2c9	-0.1366073
212	0x3c421a1b	0.011847044
213	0xbce3765a	-0.027766395
214	0xbda01819	-0.07817096
215	0x3dbaa5d8	0.091136634
216	0xbd2a60b1	-0.04159612
217	0x3d8d2748	0.06892258
218	0x3d96f568	0.07371026
219	0xbd8080c3	-0.06274559
220	0xbd4ae565	-0.049535174
221	0x3e2bfa86	0.16794786
222	0xbbd47ac0	-0.0064843595
223	0xbc802bbb	-0.015645852
224	0x3d081699	0.033224676
225	0xbdeb4e7e	-0.114895806
226	0xbd641e17	-0.05569276
227	0xbe5fbc1d	-0.21849103
228	0xbd3d7b7a	-0.046260335
229	0xbdf75ed8	-0.12078637
230	0x3c90c022	0.017669741
231	0x3aac5677	0.0013148327
232	0xbd83d620	-0.064373255
233	0x3dd4ad68	0.10384637
234	0xbe01a5bb	-0.12660877
235	0xbd68c7ef	-0.056831297
236	0x3d4b1cc0	0.049587965
237	0x3dcecdda	0.10097857
238	0xbd8f9932	-0.070116416
239	0xbd0967d3	-0.03354628
240	0xbe29dbda	-0.16587773
241	0xbd93499e	-0.07191776
242	0xbd372d9f	-0.044721242
243	0xbd2d7aa4	-0.042353287
244	0xbcd19f0a	-0.025588531
245	0xbd383a7f	-0.04497766
246	0xbd527fe0	-0.051391482
247	0x3c31fc40	0.010863364
248	0x3db03319	0.08603496
249	0xbaba5013	-0.0014214538
250	0xbe222185	-0.15833099
251	0x3e4ce074	0.20007497
252	0xbd9d8315	-0.076910175
253	0x3e50b6fb	0.20382302
254	0x3dca1e4c	0.0986906
255	0x3dfc4725	0.12318257
