Assets/TFModels/Other models trained in the process/Striker2_selfplay3_3M.onnx (onnx, 911175 bytes, 9 tensors)

action_model._discrete_distribution.branches.0.bias f4 [5]
000000 48 c4 4f bb c5 6c 9c 3d a5 9b 9e bc 5a 77 cd 3c
       -0.0031702686 0.07637934 -0.019361326 0.025081325
000010 f7 38 a7 bd
       -0.08165162

action_model._discrete_distribution.branches.0.weight f4 [5, 256]
000000 57 68 e9 3c 35 8a bc bd 65 c6 7e 3d 69 cd b6 3d
       0.028492136 -0.092060484 0.062200923 0.08925898
000010 8e 3b 59 3d f0 23 86 3c 83 13 a8 3b a8 8c 84 3c
       0.05303531 0.016374558 0.005129279 0.016180351
000020 98 f7 da bd aa 17 42 bd 22 43 2e 3d 88 ed 26 bb
       -0.10691756 -0.04738585 0.04254449 -0.002547117
000030 ba cb e5 bc d9 ba be bc 63 f7 c4 bb f6 c7 aa 3d
       -0.028051246 -0.023282455 -0.006010936 0.08338921
000040 b5 6c 8a bd 56 ad dd 3c c0 0e fe bb 11 48 8b bd
       -0.067590155 0.027060192 -0.007753223 -0.06800855
000050 23 ab ad bd d4 ca 0a 3c b6 47 42 3d 20 3d 42 3d
       -0.08479907 0.00847121 0.04743167 0.047421575
000060 d9 79 1f 3e 49 5e ae 3d c5 0d c3 bd 06 82 a4 3d
       0.15573825 0.08514077 -0.09524111 0.080326125
000070 9f a2 71 3d ef 59 7f 3d ec 46 d6 3c 59 57 54 3d
       0.05899298 0.062341627 0.026156865 0.051841114
000080 d9 b7 f4 bc c6 12 be bd f8 78 c9 bc 92 07 c6 bd
       -0.029872822 -0.092809245 -0.024593815 -0.09669413
000090 4e 5c 7c 3d 5e 34 3d 3c 28 b6 49 3d 07 05 57 3d
       0.061611466 0.01154813 0.049245983 0.05249503
0000a0 83 ef af bc d1 bf 9e 3d ac 98 94 bc c3 c6 1c bd
       -0.021476513 0.0775143 -0.018139206 -0.03827549
0000b0 0f 39 99 bd 86 80 eb bd 6d bd aa bc f6 95 29 bc
       -0.07481586 -0.11499123 -0.020842278 -0.010350695
0000c0 78 0b d0 bb 5b 4f f9 3d 7f 1e 4e 3d 26 4b 8b bd
       -0.0063490234 0.12173339 0.050322052 -0.06801443
0000d0 fa 29 29 bd 31 9b 39 3d db c6 18 3d 0a 11 29 3d
       -0.041299798 0.045314018 0.03729902 0.041276015
0000e0 14 ed e2 3c cc cf 43 bd f2 ca 9f 3c fc 84 b8 3c
       0.027700938 -0.047805592 0.019505952 0.02252435
0000f0 4d 45 9b bd 23 0c 57 3c 64 52 7d 3d 29 64 3b bb
       -0.075815775 0.013125452 0.061846152 -0.0028593636
000100 2d 61 79 bb f4 a3 b4 bd 01 67 c3 bc 74 97 23 bd
       -0.0038052306 -0.08820334 -0.023852827 -0.03993936
000110 c0 2f d3 bd 22 96 b6 ba eb d6 ad 3d c2 a9 79 bd
       -0.10311842 -0.0013930241 0.08488258 -0.06095291
000120 47 9d 5f 3d 38 2c d5 3c 12 0a cc 3d 47 85 1f 3d
       0.05459335 0.026022062 0.09962858 0.038945463
000130 7e 3a a3 3d 95 05 47 bd 41 18 bb bb 66 d7 85 bd
       0.07970141 -0.048589308 -0.0057096784 -0.065352246
000140 d0 97 44 3d e1 94 28 3d ff 10 6e bd cb a5 2f bd
       0.047996342 0.041157607 -0.058121677 -0.042882722
000150 30 1f 65 bd 9e 1b 5f 3d 59 1b a3 3c 6c 85 7d 3d
       -0.055937946 0.054469697 0.019910501 0.06189482
000160 af 52 4d 3d 6f 6c 71 3d 7c bc 96 bd 6e e3 be bd
       0.05012768 0.0589413 -0.07360169 -0.093207225
000170 63 bf cd 3c 3f 29 14 be d3 47 3a 3d e6 d9 20 3d
       0.025115674 -0.14468859 0.045478653 0.039270304
000180 56 f3 ca bd 45 18 af 3c 44 64 b6 3d 06 38 81 bc
       -0.09909694 0.021373877 0.08905843 -0.015773784
000190 02 e4 28 be 92 09 a3 bc 43 a6 3d 3c 92 d7 28 3d
       -0.16493228 -0.019902024 0.011575284 0.04122121
0001a0 e5 d6 8e 3c c2 2d 3a bd 05 d2 34 bc 06 28 22 bd
       0.017436454 -0.045453794 -0.011036401 -0.03958895
0001b0 a6 49 75 bc c4 a3 df bc fd 2a a3 3b 33 76 10 bd
       -0.014971172 -0.02729977 0.00497949 -0.035268974
0001c0 43 c7 ac bb 1a a4 a1 3c d5 e2 6b bd 2f 7a 69 3c
       -0.0052727773 0.01973157 -0.05758937 0.014250322
0001d0 4a 76 cd 3d ca 65 2a be 0f f7 94 bd 4f b9 82 3d
       0.100323275 -0.16640392 -0.07273685 0.06383001
0001e0 c3 cc 8f bd 3c 1b 2e 3d 90 27 df 3c a5 6b 5c 3c
       -0.07021477 0.04250644 0.027240545 0.013453399
0001f0 5d d9 84 bd b5 8b d2 bd d1 85 3b be ce d9 5d bb
       -0.06486771 -0.10280553 -0.18312766 -0.0033851746
000200 80 7c 91 3d d7 57 e7 bd 80 fe 10 3a 55 9d 22 3d
       0.071038246 -0.11296051 0.00055310875 0.039700825
000210 ec 30 2d 3d 05 df c8 bd 5b 7f 92 bc c7 04 ce bd
       0.042282984 -0.098081626 -0.017882993 -0.10059505
000220 4b 02 fc bb 89 e7 30 3d c4 a5 9b 3c 02 d8 eb 3c
       -0.007690703 0.04318956 0.018999942 0.028789524
000230 69 92 bb bd 41 4e 09 3c 2a f4 aa 3d 19 0b 62 bd
       -0.09158785 0.008380474 0.08347352 -0.055186365
000240 68 7d f9 bd 6b 95 59 3d 72 1d 98 bd 6d 16 ad bd
       -0.121821225 0.05312101 -0.07427491 -0.08451543
000250 89 65 47 3d 72 0f bf bd 25 d2 25 bd 24 0c 4a bd
       0.048680816 -0.09329118 -0.040483613 -0.049327984
000260 dd cf bd 3b 75 66 76 bd 50 53 35 bd 41 e9 84 3b
       0.0057926015 -0.060156304 -0.044268906 0.0040561263
000270 f4 51 8a 3c d8 cb 91 3d 9b 4b 8a 3c 06 c0 20 be
       0.016884781 0.07118958 0.016881755 -0.15698251
000280 b2 8f be 3b 69 9e b3 bc 71 96 89 3c f5 94 a3 bd
       0.0058154697 -0.021926122 0.016795369 -0.07987396
000290 ec 34 84 3d 56 f1 ab 3d cb 9a e8 bd f1 33 48 3c
       0.064554065 0.083956406 -0.113576494 0.012219415
0002a0 ba 17 d2 3d 90 8b c3 3d 42 30 54 bd f7 00 57 3d
       0.10258432 0.09548104 -0.051803835 0.052491155
0002b0 1c c8 e2 bd 5a d0 3e 3d cd 13 76 bd 90 ef c0 ba
       -0.11073324 0.04658542 -0.060077477 -0.0014719833
0002c0 26 8d 93 bd fc 2a 42 3b 71 6a 4a be 9b 32 a3 bc
       -0.07204656 0.0029627671 -0.19767167 -0.019921592
0002d0 ec 05 8e bb b5 e5 7c 3c 2f 90 d1 3d 06 e5 ad 3d
       -0.004334202 0.015435626 0.10232579 0.084909484
0002e0 46 c8 20 3d 31 e5 07 bd f9 f1 a4 3c 8f 37 c9 bc
       0.039253496 -0.03317756 0.020134913 -0.024562625
0002f0 b1 6d e8 3a d1 9e b8 3d c7 8c c6 3c 62 90 a2 3c
       0.0017732886 0.09014667 0.02423705 0.019844238
000300 2c db 98 bd e8 67 c0 3d 44 a5 ba 3d 30 90 e9 3d
       -0.07463679 0.093948185 0.09113553 0.11404455
000310 ea 7b 34 bd 4d 04 ed 3c 36 d6 2c 3d 29 1b 79 3d
       -0.044063486 0.028932715 0.042196475 0.060816918
000320 75 11 c0 3d 96 0e ee bc 84 a1 57 bc 41 7f 95 bc
       0.0937833 -0.02905969 -0.013161067 -0.018249156
000330 69 8b 49 3d 2b e4 ae bd f4 56 8f bc f5 8d ca bc
       0.049205218 -0.08539613 -0.017497517 -0.024725894
000340 fd 0c c4 bd 86 7a b6 bd 92 0d 25 bd dc 43 45 bd
       -0.0957279 -0.08910088 -0.040296145 -0.04816042
000350 69 29 b3 bc 76 46 8a bd b8 53 fe bd 0e 62 92 3d
       -0.021870332 -0.067517206 -0.12418312 0.07147609
000360 eb 21 fd 3c 15 4c 43 3e ee bb 28 be ef a6 3c 3b
       0.030899962 0.19071992 -0.1647794 0.0028786024
000370 13 f4 17 bd 19 2a 35 bd 2c 72 e4 bc af 3c 23 bd
       -0.037098 -0.0442296 -0.027886473 -0.039852794
000380 01 fa 65 3d 40 2e 8f 3c 67 66 75 bd 15 3d 6f bb
       0.056146625 0.017478108 -0.05991211 -0.0036504914
000390 4b b3 04 bd 27 e2 63 3d 3d 3e a9 ba 7c c5 40 bc
       -0.03239755 0.055635598 -0.0012912225 -0.011765834
0003a0 38 a1 b4 bb f4 ff 07 3d 45 9f 86 bd c9 1f 0a bd
       -0.005512383 0.03320308 -0.06573347 -0.03372172
0003b0 40 85 ec 3d ad 68 c4 bd 9c 75 c0 3d de 7d e6 3d
       0.11548853 -0.09590278 0.09397432 0.11254476
0003c0 26 30 94 3d 5b 0b 44 bd c6 b9 81 bd 30 db 9e 3d
       0.07235746 -0.047862392 -0.063342616 0.077566504
0003d0 f2 61 3e bb 6a f1 fa bc 8f b9 bb 3d 59 d4 28 bc
       -0.002905008 -0.030632693 0.09166252 -0.010304534
0003e0 32 b1 1f 3d ab 41 bb 3d 1b 6f ab bd fc a7 f7 3b
       0.038987346 0.091433845 -0.08370801 0.007557867
0003f0 28 26 19 3b 85 12 a2 3c 5d 92 a1 bb 0b 57 7f bd
       0.002336869 0.019784221 -0.004930778 -0.06233887

action_model._discrete_distribution.branches.1.bias f4 [3]
000000 78 42 3b 3d c1 ce 97 bb 8d 10 4b bd
       0.045717686 -0.0046328013 -0.04957633

action_model._discrete_distribution.branches.1.weight f4 [3, 256]
000000 c2 04 95 bd 4e 98 ee ba 4b 9e 16 be 3d b3 3f 3d
       -0.07276298 -0.0018203349 -0.14708821 0.046801794
000010 5e 0c e1 3b 39 26 dd ba 7f 58 fa bc cc bd be 3d
       0.0068679294 -0.0016872353 -0.030559776 0.09313545
000020 54 c7 a2 3c 0c 0f a1 3c 52 38 71 3c 46 da 9a 3d
       0.019870438 0.019660495 0.0147229 0.075611636
000030 ad f1 8f 3c 76 7a 3a be b9 cc c1 3c 00 1f df 3c
       0.017571295 -0.18210778 0.02365719 0.027236462
000040 fb 02 1f 3c df 75 d9 bd cc a3 ad bd 2a 5f 65 3d
       0.0097053 -0.10618185 -0.084785074 0.05599896
000050 57 5f 7b 3d ae 6f ed bd e2 cc e2 3d 52 fd 94 bd
       0.06137022 -0.11593567 0.110742345 -0.072748795
000060 01 25 e4 bc 86 09 ab bd 38 88 39 bd 4f 27 2d 3c
       -0.027849676 -0.08351426 -0.045295924 0.010568454
000070 d4 60 c4 bc 86 91 d8 bd 05 7b 77 bd 4e a2 3f 3b
       -0.023971952 -0.105746314 -0.060420055 0.0029241028
000080 2a 3a 20 bd 4a b0 32 3e d8 a4 89 bd f7 04 c3 3c
       -0.03911797 0.17450061 -0.067208946 0.023806078
000090 6e 3f 18 be eb fd 95 bc 97 3a 39 3b af 92 8d bd
       -0.14867947 -0.018309554 0.0028263682 -0.06912743
0000a0 f3 ca b0 3b 9c 47 cc bc 42 b1 7f bc 1f c6 2e bc
       0.005395287 -0.02493649 -0.015606226 -0.010667353
0000b0 e4 a6 63 3d 22 55 6f bd a6 c2 2d bd 86 24 9b 3d
       0.05557908 -0.0584308 -0.04242196 0.07575326
0000c0 41 88 08 3d 56 31 b3 bd 21 ba 9e 3d c7 21 17 be
       0.033333067 -0.087496445 0.07750345 -0.14758979
0000d0 5c 4d 1d 3d 10 e1 42 bb 26 aa 17 3c a3 d6 0b 3d
       0.038403854 -0.0029736198 0.009256875 0.03414024
0000e0 81 e4 7c 3b b8 19 02 3e 87 55 c9 3c eb c8 51 bd
       0.0038588347 0.12705123 0.024576915 -0.051217
0000f0 a3 19 8c 3c a3 db 38 3d 77 f2 0f 3e ec cd 1f be
       0.017102068 0.045131337 0.14057337 -0.15605897
000100 77 13 f5 3c ca 58 63 3d 8b be 84 bc 97 87 ba 3d
       0.029916508 0.055504598 -0.01620414 0.09107893
000110 36 fd b9 3d 55 b1 c9 bd 82 bd 1f bc 16 ad 90 3d
       0.09081499 -0.098482765 -0.009749772 0.070642635
000120 12 c2 a0 bc 35 27 0c 3e 75 5b 7d bd b4 37 2c bd
       -0.01962379 0.13686831 -0.0618548 -0.04204531
000130 4f b3 32 bd b2 aa 2c 3d 70 3e a9 3d ac a9 01 bd
       -0.043628033 0.042154975 0.08263862 -0.031655952
000140 17 90 ef bd 31 64 2b 3d 19 5e d0 bd c4 9c 13 be
       -0.11697405 0.041843597 -0.10174198 -0.1441527
000150 3c 32 81 bd 8c 26 01 bd 5b f1 d0 3d d2 c7 be bd
       -0.063084096 -0.0315309 0.10202285 -0.093154564
000160 00 d7 49 3a bc bd 14 be c7 41 63 3d 9a bd 92 bc
       0.0007699579 -0.14525503 0.055482652 -0.017912675
000170 59 88 fe bd 90 c8 fb 3b a4 0f 61 bb 16 f0 9e bc
       -0.1242835 0.007683821 -0.0034341598 -0.019401591
000180 00 c4 56 3d 72 bd 3b bd a8 05 9c bd de e9 3d 3c
       0.052433014 -0.045834966 -0.07618266 0.011591403
000190 12 8c 0c 3d 5b 93 06 bd ac 5b ac bc e5 70 48 bd
       0.03431327 -0.032855373 -0.021039806 -0.04893579
0001a0 fe 0b 55 3b 7d 5b 92 3c 3a ab 14 3c de f7 9b bd
       0.0032508369 0.01786589 0.009074027 -0.07615636
0001b0 ee ba 53 bd df 26 d3 3d fe 8d 51 3d c2 6d 37 bd
       -0.051691942 0.103101484 0.051160805 -0.044782408
0001c0 46 9c 85 3c 42 41 ec 3a cf e4 ac bd 0c 27 12 be
       0.016309869 0.001802482 -0.08442079 -0.14272708
0001d0 e8 95 8e 3c 7b 46 98 bd 02 98 b4 bd 95 e2 81 3d
       0.017405465 -0.07435318 -0.08818056 0.06342045
0001e0 ab 49 c8 3d 8d 95 52 3c 32 b9 29 bd 6e 95 b0 bd
       0.09779676 0.0128530385 -0.04143638 -0.086222515
0001f0 cd f4 96 bd ab 18 87 3d 29 7a 30 3d 7a c1 6d 3d
       -0.07370911 0.06596502 0.04308525 0.05804584
000200 6c 5e 06 bd 0b 62 c5 3d 07 3a 25 be 38 a7 f3 3c
       -0.03280489 0.09637841 -0.16135417 0.029742822
000210 f2 46 81 3d b1 f5 2f 3d e9 ee 7d bd cf 01 26 3c
       0.0631236 0.04295892 -0.06199542 0.010132267
000220 ac ca 01 3d 5a e7 9c bd 0d 6e 31 3d a0 ad 09 3b
       0.031687424 -0.07661314 0.043317843 0.002100803
000230 e4 2b 93 3d 8b f2 d1 3d 98 de 1c 3d 34 bd c0 3d
       0.07186106 0.102513395 0.03829822 0.09411088
000240 11 13 87 3c fb 8e c5 bc 2e 32 26 3a b9 72 ba bd
       0.016488584 -0.02411603 0.0006339875 -0.09103913
000250 d4 ce 15 3c 1f b5 3c 3b 3b cc 12 bd d1 ab 70 bd
       0.00914355 0.002879448 -0.0358393 -0.058757607
000260 6b f9 9f bd 2d e1 5e 3d fb 08 d4 3d 53 dd 7d bc
       -0.078112446 0.054413963 0.103532754 -0.015494662
000270 dd f2 25 3d d9 21 0b 3c 07 96 b5 bd 94 73 0d 3e
       0.040514816 0.008491957 -0.08866506 0.13813621
000280 b7 cc 57 bd f9 77 eb 3d 6f d7 83 bd 29 46 dc 3c
       -0.052685466 0.11497492 -0.06437575 0.026888924
000290 ee e7 16 3d c6 e5 18 bd c7 a9 70 3d 40 cc 5d bd
       0.03684228 -0.037328504 0.058755662 -0.054149866
0002a0 81 76 8e bc bd c7 f5 3c 76 9e ca bd 5f 50 26 3c
       -0.017390491 0.03000247 -0.09893505 0.010150998
0002b0 8f 16 a4 3d 6c 6e 56 bc d5 ae 91 3c 87 71 8f bd
       0.08012115 -0.01308785 0.017783562 -0.070040755
0002c0 f5 0d c7 bd a7 04 da bd 10 8c ca 3c cb ab 3a 3d
       -0.09719459 -0.106454186 0.02472499 0.04557399
0002d0 b3 f3 cc 3c c6 14 0f be 98 a4 03 be 5b 8c 13 3b
       0.025018549 -0.13972768 -0.12855756 0.0022514078
0002e0 79 35 fb bd 1a ea d3 bc fd ce 88 bd 04 da 03 3e
       -0.122660585 -0.025868464 -0.06680105 0.12876135
0002f0 7f 7f 60 3d d7 f4 09 be d4 87 b0 3d 9c 59 8e bd
       0.05480909 -0.13472305 0.08619657 -0.069506854
000300 2c e1 f5 3b e3 50 e2 3c a6 96 94 3d 8a 3d 21 be
       0.007503649 0.02762646 0.072552964 -0.15746132
000310 e2 af 71 bd 1d 8e fe bc b8 78 ae 3c ef f0 10 be
       -0.059005626 -0.031073624 0.021297798 -0.14154409
000320 18 68 e7 bc 90 49 e7 bc 95 a7 7b 3d 5c 0e 97 3c
       -0.028247878 -0.02823332 0.061439116 0.018439464
000330 e1 be 8d bc 37 24 83 3c 90 d4 22 ba c4 36 69 bd
       -0.017302932 0.01600848 -0.0006211484 -0.056936994
000340 8e c9 b2 3c af 60 bc bd cd 7c ba bd f0 4f f3 3c
       0.021824624 -0.091981284 -0.09105835 0.029701203
000350 56 5a 9f 3d 5a 2d 2b 3e 66 04 03 be f5 b2 a6 3c
       0.07780902 0.16716519 -0.12794647 0.020349005
000360 d8 be cb 3c 9f 8b 4c be 05 4a 1f bc d9 5e fa bd
       0.024871275 -0.19975136 -0.0097222375 -0.12225122
000370 93 cf 58 bd 12 0b bd bd 60 47 16 bc d7 ea 90 bd
       -0.052932333 -0.09230627 -0.009172291 -0.07076042
000380 41 87 fb bc 44 1b 9b bc 73 56 cd bd 85 0b dd bd
       -0.030704143 -0.0189339 -0.100262545 -0.10793213
000390 47 cf c1 bc e4 5c 92 bd 0a ab 11 3d 3a 99 4e 3d
       -0.023658408 -0.07146624 0.035563506 0.050439097
0003a0 aa 31 19 be db f5 d8 bc 06 92 57 3d eb bb e9 3d
       -0.14960352 -0.02648442 0.052629493 0.11412796
0003b0 e9 1a e1 bd 46 05 e9 3d c8 c0 c2 bc 06 a6 1c bd
       -0.10991461 0.11377959 -0.023773566 -0.03824427
0003c0 3e a5 1a be 5d 1a 88 bd f9 b9 d6 3b fa 2d 8e 3c
       -0.15102097 -0.066456534 0.0065529314 0.017355908
0003d0 6a 1f 77 bd e8 7b d2 bd 9a 0e 80 bd de 4e e1 bd
       -0.060332693 -0.102775395 -0.06252785 -0.11001371
0003e0 98 4e d0 bc 1f fc 06 3c 41 5d 28 3d 19 b9 a0 3d
       -0.025428101 0.008238821 0.04110456 0.078478046
0003f0 67 65 c0 3d d7 1a 4d bc 27 79 3d bd a6 07 7f 3c
       0.09394341 -0.012518606 -0.046258118 0.015565788

discrete_action_output_shape f4 [1, 2]
000000 00 00 a0 40 00 00 40 40
       5.0 3.0

network_body._body_endoder.seq_layers.0.bias f4 [256]
000000 85 e7 57 bd 01 a9 8a bd c3 90 1c bd 0f 57 26 bd
       -0.05271103 -0.06770516 -0.038223993 -0.04061037
000010 7c 09 46 3d 59 d5 83 3d 13 b3 31 3d c8 93 16 bd
       0.04834889 0.06437177 0.04338367 -0.03676203
000020 14 8a 69 3d d9 e1 bf bc e7 9d 01 bd 14 73 0f bd
       0.057016447 -0.023423122 -0.031644728 -0.035021856
000030 e0 f6 a8 3d e2 76 b2 3d b7 24 88 3c c0 75 aa 3d
       0.08250213 0.08714081 0.01661907 0.0832324
000040 57 cd 14 bd 60 25 29 bd 5f 77 e6 bc b6 d4 b0 bc
       -0.03632864 -0.04129541 -0.028133092 -0.021585803
000050 96 f5 c8 b9 d0 f7 ca 3c 59 8c 27 3d 9b 6e 96 3d
       -0.00038329948 0.02477637 0.04090533 0.07345315
000060 bc d0 40 bd 5b 4a 8f 3c 4f b4 17 3c bf dc b2 bd
       -0.047074065 0.01749151 0.0092592975 -0.0873351
000070 3d 52 86 3c 3a d0 96 bb 1f fa 4a 3c 6c ea db bd
       0.016396636 -0.0046024593 0.012388735 -0.10738072
000080 bf 1b 0b 3c 75 a4 0c bc 2b fd 65 3d c8 31 13 bd
       0.008490502 -0.0085841315 0.056149643 -0.035936147
000090 c9 5a 11 bd 25 2b 66 3d bc ba b5 3d 98 ab 15 3d
       -0.03548697 0.05619349 0.088735074 0.036540598
0000a0 b0 97 92 bc 5c b4 9d 3d 7e 70 5f bd a7 af 68 3a
       -0.017894596 0.077004164 -0.05455064 0.0008876272
0000b0 66 49 85 bc a8 04 e9 bd 99 02 b5 3d f2 08 aa bc
       -0.01627035 -0.11377841 0.08838386 -0.020756219
0000c0 3a 96 a5 3c f4 a8 57 bd 78 2d dc bd 5d 97 df bc
       0.020213235 -0.05265136 -0.1075086 -0.027293855
0000d0 75 27 9c bd d4 9d 0d 3c a5 28 b9 bc ad e1 63 bd
       -0.07624713 0.008643586 -0.022602389 -0.055635143
0000e0 ba 75 2e bd 4b 4d ab bd fd 0f 3a bd 92 b6 ae bc
       -0.04259274 -0.08364352 -0.045425404 -0.02132729
0000f0 f2 79 41 bd 0e d4 85 3c 1f 6e 0a 3e c6 f4 2b bd
       -0.047235437 0.016336467 0.1351857 -0.04198148
000100 c5 a8 81 bd c7 6d 12 be 4e 61 61 bd 67 8b ba bc
       -0.06331018 -0.14299689 -0.055024438 -0.02277155
000110 70 65 80 3d b6 da 41 3c 5b 84 27 bd 2b d8 b9 bd
       0.06269348 0.01183193 -0.04089771 -0.09074434
000120 44 49 13 bd d8 c6 9e 3d cb 77 ce 3b 29 86 ae bc
       -0.035958543 0.0775277 0.0063009015 -0.021304207
000130 24 1c 8e bc b2 a3 5e bd 6e 15 85 bd 17 6e 39 ba
       -0.017347403 -0.05435533 -0.06498228 -0.00070735946
000140 94 18 58 bd e2 e2 2c 3c f7 14 b7 3c bf 7e 36 3d
       -0.052757815 0.01055214 0.022348864 0.04455447
000150 bd 90 00 3d 45 35 5b bc 4e 25 ad bc f6 17 b5 ba
       0.031388033 -0.0133794 -0.021135952 -0.0013816345
000160 97 5d df 3b 2a 00 19 3d dd a1 bb bd d2 93 16 bd
       0.0068165767 0.037353672 -0.09161732 -0.036762066
000170 94 e6 ca bd 17 a5 5a bd 83 ef a9 3c 40 fe 95 bc
       -0.099072605 -0.0533801 0.02074409 -0.018309712
000180 b0 dc ae 3d 1d 4c 19 bd fb 2a 46 bd fa 77 9e 3d
       0.085381866 -0.037426103 -0.048380833 0.077377275
000190 6e 56 59 bc 43 b5 01 3c 86 ea 48 bc 2f e3 e6 3c
       -0.013265235 0.007916751 -0.012262946 0.028184501
0001a0 6f ef 31 bd a9 cf 25 3c 33 04 29 bc 01 4a 39 bd
       -0.043441232 0.010120311 -0.010315943 -0.04523659
0001b0 de 74 3d bd d9 e1 48 3c 94 1a b4 bb 6d 69 41 3c
       -0.04625403 0.0122608775 -0.0054963324 0.011804921
0001c0 df 6c 09 bb 6f 5e 90 bd a3 18 12 bd 25 a0 26 bd
       -0.0020969433 -0.07049262 -0.035668027 -0.04068007
0001d0 34 31 d2 bd 27 04 82 bd 95 26 ed bc 55 53 84 3d
       -0.10263291 -0.06348448 -0.028949061 0.06461207
0001e0 39 cc c3 3d d3 6c ec bc 80 f3 98 bd 33 f7 2d bc
       0.09560437 -0.028860485 -0.07468319 -0.010618019
0001f0 c0 d7 d5 3d 80 c1 d5 bc 72 93 e7 3c da 9d 41 3c
       0.10441542 -0.026093245 0.02826855 0.01181742
000200 86 78 80 ba 54 eb b7 3c 1e bb b2 bc b8 d4 65 bd
       -0.0009801544 0.02245108 -0.02181774 -0.056111068
000210 77 11 6f bc bf 98 a4 bc ea 61 df bb ec 5d 92 3b
       -0.014591566 -0.020092366 -0.006817092 0.0044667628
000220 f6 ef 24 bd 05 b9 2d 3d 9f 96 d4 bc d0 61 87 3c
       -0.040267907 0.042412776 -0.025950728 0.016526133
000230 1a 30 2e 3d 23 bb 28 bd 3c bd c9 bc 32 50 14 bc
       0.042526342 -0.041194092 -0.024626367 -0.009052323
000240 62 58 cd 3c 16 ce 83 bc df 39 9c 3a bf a7 dc bc
       0.025066558 -0.01608948 0.0011919102 -0.026935456
000250 d5 45 c7 bc 7c 8c 8e bb dc 85 0e bd ed 65 9a bd
       -0.02432529 -0.004350243 -0.034795627 -0.07538972
000260 d1 f5 e2 bd 72 cf 72 bd 1f 1d cb bc a6 5d 0d 3d
       -0.11082042 -0.059279867 -0.02479416 0.03451314
000270 4b 83 e4 3c 01 99 5b 3a a6 b0 02 bd 04 21 21 3a
       0.027894637 0.00083769864 -0.031906746 0.00061465823
000280 39 8a 7f 3d 90 48 82 bd 63 e9 e0 bc 02 fb 99 bd
       0.06238768 -0.063614964 -0.027455037 -0.07518579
000290 b2 e5 ac bc c9 47 2a 3c 68 37 4c 3c d3 cb 2b bd
       -0.021105621 0.0103930915 0.012464382 -0.04194243
0002a0 63 9c 08 3d 72 61 80 3c 05 63 88 3b 9a 38 61 bd
       0.033352267 0.015671466 0.0041621947 -0.05498562
0002b0 5a c7 06 bb 87 89 76 3d 8a dc 8f bd e2 62 d5 bc
       -0.00205656 0.06018975 -0.07024486 -0.026048128
0002c0 9c 63 ca bc 8a 3e 9b 3d dd 9c cf 3c fd eb a8 3c
       -0.0247057 0.07580288 0.025343353 0.02062034
0002d0 d3 1c 52 bd 3b 47 61 bc a8 b3 bc bd 20 00 2c bd
       -0.05129702 -0.013749893 -0.09213954 -0.041992307
0002e0 f5 3e 20 bd ef 2e 63 bd 5f 26 bf bd fc e2 37 bd
       -0.03912254 -0.05546468 -0.093334906 -0.044894204
0002f0 7c 40 7c 3a fd a7 d0 3b 0a 45 5a bd af dc 0d 3d
       0.0009622646 0.006367682 -0.053288497 0.03463429
000300 be d2 36 bd 2f da 29 bd f6 2a 95 3d f7 9b bd bd
       -0.044634573 -0.04146784 0.07283585 -0.092582636
000310 00 db eb bc 6f e4 93 bc cf dd 24 3d 4f ea 0b 3c
       -0.02879095 -0.018053262 0.040250596 0.00853975
000320 56 55 4c 3a 25 e2 65 bc 70 01 db 3c 4a 02 b2 3d
       0.00077946985 -0.014030968 0.026734084 0.08691843
000330 7a 2f d6 3c 87 e3 31 bd f5 54 00 be bd ef 66 bc
       0.026145685 -0.043429878 -0.12532409 -0.014095244
000340 ec 0c 8c bd e5 88 fb 3d c3 51 93 3b e7 3e e7 bc
       -0.06838402 0.1228197 0.0044958307 -0.028228236
000350 7d 45 a4 3c 68 7c c1 3d 31 37 7d 3d c4 11 e8 3c
       0.020052666 0.09447557 0.061820213 0.028328784
000360 7f 53 31 3c 0e 2e 2f 3d 72 3d df bd a7 05 de bd
       0.01082313 0.04276853 -0.10900392 -0.10840922
000370 b8 1a ae bd 37 a7 26 bd e0 c3 39 3d 56 6e aa 3c
       -0.0850119 -0.040686812 0.045352817 0.020804565
000380 96 82 b2 bc a9 45 54 bc a0 61 05 bd c4 ec 1b 3c
       -0.021790784 -0.012956061 -0.032563806 0.009516899
000390 bf ca 1f 3d 93 79 4d 3b ae 62 96 3d 90 f4 7d bb
       0.039011713 0.0031352981 0.073430404 -0.0038750507
0003a0 46 3f c9 bc cd 3f af 3d 3c e1 e8 bd ce b4 bc bc
       -0.024566304 0.08557091 -0.11371085 -0.023035433
0003b0 09 1d 11 bd 89 36 e3 3c 2c 24 65 3a ea e0 9e 3b
       -0.03542808 0.027735965 0.0008741047 0.004848589
0003c0 b3 81 ca bc 8e b1 ba bc 87 7f 1e 3d 5c df 17 bd
       -0.024720049 -0.022789743 0.03869584 -0.037078246
0003d0 9a 29 b0 3c 2a f5 c5 bc dc 1e 1a bd 4f 83 b2 bc
       0.021504212 -0.024164755 -0.037627086 -0.021791128
0003e0 48 c8 6d bd db 3c 6f 3d 66 ad 81 bd cd 95 5b bd
       -0.05805233 0.058407646 -0.06331901 -0.053609658
0003f0 e6 b3 37 bd 5e ed 22 3c c7 62 45 bd 17 b6 8b bd
       -0.0448493 0.009944288 -0.048189905 -0.0682184

network_body._body_endoder.seq_layers.0.weight f4 [256, 621]
000000 d5 09 f8 3d 3f 45 82 3c ff 25 e7 3d 44 5b 10 be
       0.1211125 0.01590216 0.11286544 -0.14097315
000010 c5 38 20 3e 1c bb a8 3c 2a 79 5b bd 18 aa 2c 3d
       0.15646656 0.020597033 -0.053582348 0.0421544
000020 e9 94 87 3d 3a a6 2c 3d b5 00 a3 3d b7 20 d5 bc
       0.06620199 0.042150714 0.07959119 -0.026016576
000030 0e 82 cc bd 07 66 e2 bc e8 31 6b 3d 15 c8 1d be
       -0.099857435 -0.027636541 0.05742064 -0.15408356
000040 ed e6 3d ba 54 18 3d bd 4a 7d a8 3c 6a 24 56 bd
       -0.00072441885 -0.04616578 0.020567555 -0.05228082
000050 ed 1d 79 3d a3 ea 25 be 2c 8b 26 3e 79 1c c2 3d
       0.060819555 -0.16202788 0.16264027 0.09478087
000060 eb af 83 bc 27 29 8a 3c 71 0c 7b 3d a6 ff f5 3d
       -0.016075095 0.016865326 0.061291162 0.12011652
000070 b5 43 23 bc 86 aa 36 3e 9c 5d 70 bd ed 88 16 3e
       -0.009964873 0.17838487 -0.058683023 0.1470067
000080 a2 de 09 be 47 3f 30 be 8a 4c 31 bd 7a 56 86 3d
       -0.13463834 -0.17211638 -0.043285884 0.06559463
000090 3e 8b b5 3d 14 1f 09 be 1c 16 2a be bf e4 71 bd
       0.08864449 -0.13390762 -0.16609997 -0.05905604
0000a0 6c 31 ac bc 4a 15 8c bb a1 19 a1 3d 5a 4d f7 3c
       -0.02101966 -0.004274999 0.078662165 0.030188251
0000b0 bb 1c 49 bd 2c 74 47 3d 57 7e 32 3b c1 7d ae bd
       -0.049099665 0.048694775 0.002723595 -0.085200794
0000c0 2a 59 9c bd b1 48 c0 3d 1e f7 3b 3d bc fb a4 3c
       -0.07634194 0.09388865 0.045889966 0.020139568
0000d0 a7 fb 55 bd bd 8e de 3d 03 a9 48 3c bc 6d 02 be
       -0.052241948 0.10867069 0.012247327 -0.12737173
0000e0 94 4a 66 3c c6 12 77 bd 24 8b 66 bc 7f d7 28 be
       0.014055867 -0.060320638 -0.01407126 -0.16488455
0000f0 b9 25 19 bd 17 1c cb bd fc ea a7 bd b4 11 16 bd
       -0.03738949 -0.09917467 -0.081991166 -0.036637977
000100 36 18 df bc c3 80 0b bd 53 51 3b bd 9d da e7 bc
       -0.027233224 -0.034058344 -0.045731854 -0.028302485
000110 20 62 a5 3b 57 bc b6 3d 26 07 ed bc b1 ab ef bd
       0.005047098 0.08922642 -0.028934073 -0.117026694
000120 23 6a 2b 3d 27 52 57 3d c5 70 23 3c 8f 37 a0 bd
       0.041849267 0.05256858 0.009975617 -0.07823097
000130 e0 4b 04 3d 5b 70 8b be 56 94 46 3d a0 e9 a0 bd
       0.032298923 -0.27234158 0.048481308 -0.078570604
000140 5d 4c 8d bc 33 4b 10 bc 66 78 0e bd 47 a7 73 be
       -0.017248327 -0.008806991 -0.03478279 -0.2379428
000150 d1 09 81 3d 45 a6 b7 3d 81 64 f3 3c 90 16 12 be
       0.063007005 0.0896726 0.02971101 -0.1426642
000160 50 68 e3 3c ff 6f 08 3d 2c a8 23 be 51 2d 0c 3e
       0.027759701 0.033309933 -0.15982121 0.13689162
000170 9e 05 32 be 77 53 f9 3b a4 39 b7 3d 67 91 31 3d
       -0.17384955 0.0076088267 0.08946541 0.043351557
000180 a0 6d e1 3d 33 9f 94 3d cd 91 ac 3d 46 5e a0 bd
       0.110072374 0.07256927 0.08426247 -0.07830481
000190 ef cf ce 3d c2 c3 03 be 2f 8b 4a 3b 94 82 83 3d
       0.10098254 -0.12867644 0.0030905714 0.0642139
0001a0 a1 ac db bd 79 4a 72 bd 9d 4d 14 bc d0 36 1d 3c
       -0.10726286 -0.059153054 -0.009051708 0.009595588
0001b0 5c 24 00 be 92 31 d6 3d 95 20 02 3d 0b 61 03 be
       -0.1251387 0.104586735 0.031769354 -0.12829988
0001c0 bd cb b6 3d e5 a9 1d 3e 7e 05 9c 3d e6 8e 4f 3d
       0.08925579 0.15396841 0.07618235 0.050673388
0001d0 0a c5 60 bd ca 91 b1 bd e2 22 1b 3d 6f 9e 99 ba
       -0.05487541 -0.08670385 0.037875064 -0.001172019
0001e0 02 80 49 bc 91 55 07 3d 81 c2 45 bd db 7c 14 bd
       -0.012298586 0.033040587 -0.048281197 -0.036251884
0001f0 52 c2 a0 3c 2a 6b a6 3d a8 fb 99 3d 23 8c 8f 3d
       0.01962391 0.08125909 0.07518703 0.07009151
000200 6b e7 7e bd 30 f7 48 be 26 ac 03 3c cd d4 21 bc
       -0.062232416 -0.19625545 0.008036649 -0.009877396
000210 f0 6a 82 bd 66 a7 66 3d 8f 4f 90 3d c9 89 05 3e
       -0.06368053 0.056311987 0.070464246 0.13040842
000220 18 e6 4d be bd 7e 2a be ee 14 3c bd 9e 4c a2 bc
       -0.20107305 -0.1664991 -0.045918398 -0.019811925
000230 4c 38 a2 bd e5 26 ba 3c d3 e1 f4 3a b2 a0 94 3d
       -0.07920894 0.022723624 0.0018683024 0.07257213
000240 b8 a8 58 3d b3 74 a3 3d 0a 87 38 be 5c 1a c8 bd
       0.052895278 0.07981243 -0.18020263 -0.09770653
000250 4a 76 9e 3d c6 46 02 3e 0e a1 c7 bd 81 a6 3e bc
       0.077374056 0.1272231 -0.097475156 -0.011636377
000260 ad 63 83 3d 9c 6c a7 3b 87 63 2a bd e3 ad 4e be
       0.06415496 0.005109383 -0.041598823 -0.2018352
000270 20 76 13 be 55 d6 eb 3a bf 01 6d 3c 6c 89 7d 3d
       -0.1440053 0.0017992953 0.014465748 0.061898634
000280 92 fc cd bc 95 b0 2e 3d 4c 19 d7 bd 97 17 de bc
       -0.025144849 0.04264887 -0.10502872 -0.027110858
000290 d6 7c 81 bd 26 f6 eb bd 6b 42 b5 3c e9 f8 e7 3c
       -0.06322639 -0.115215585 0.022126397 0.028316932
0002a0 a5 35 2e bc b5 08 b7 bd 23 42 b3 3d 44 04 95 3b
       -0.010632907 -0.089372076 0.08752849 0.0045476276
0002b0 01 79 f0 3d 5b 59 a4 bd 93 00 9f bd f4 e0 a7 bc
       0.1174183 -0.08024856 -0.077637814 -0.020493008
0002c0 26 eb c9 bc 68 84 9b 3d 88 b4 38 3d 44 ca 8b 3b
       -0.02464826 0.07593614 0.045094043 0.0042660553
0002d0 e5 63 09 bd bc 18 28 3d 87 97 37 be ef f6 6a 3d
       -0.033542532 0.041039214 -0.17928897 0.0573644
0002e0 5c 7b ce ba fb f6 11 be 1a 3d a9 3d e9 4d 73 3c
       -0.0015753317 -0.14254372 0.08263607 0.014850118
0002f0 1b b3 38 3d 41 ba 3b bd fe 8f 1e 3e ef 26 ae be
       0.045092683 -0.045831922 0.15484616 -0.3401408
000300 0f 56 f1 3d e2 3a 23 be 87 3a 2b 3e 02 b9 b7 bc
       0.117839925 -0.15940431 0.16721545 -0.022427086
000310 92 20 b2 bc a4 76 93 3d f8 e0 de 3d ce c1 aa bd
       -0.021744046 0.07200363 0.10882753 -0.083377466
000320 b1 ca 00 bd 2e 03 e6 3c 7a 21 23 3c f7 b2 21 be
       -0.0314433 0.028077688 0.009956712 -0.15790926
000330 a3 b2 98 bd 00 13 11 bc 14 30 46 3d 96 54 f2 3d
       -0.07455947 -0.008854628 0.048385695 0.1183254
000340 b6 48 4c 3b e6 6b 69 be db 71 ac 3d e4 82 0a bd
       0.0031171269 -0.22795066 0.08420154 -0.033816233
000350 19 ec 03 bd 7f bf 22 be f1 a9 e4 3c aa a6 e0 3d
       -0.032207582 -0.15893362 0.027913066 0.10969289
000360 4f 2b 36 bd 08 44 a2 3c d9 05 82 be 7d 65 95 3d
       -0.044474896 0.01980783 -0.25395086 0.07294748
000370 03 79 9f 3d 98 ac 83 bd 46 1e c2 3d 48 c9 1e 3d
       0.07786753 -0.06429404 0.094784304 0.038766176
000380 0a 77 6e 3d 22 6f 48 bd 98 6b 4f 3d b2 6c bf bd
       0.058218993 -0.04893411 0.05063972 -0.09346904
000390 e4 03 36 3e 50 4f 2c 3e f1 29 1c 3d 8b b8 a0 bd
       0.17774922 0.1682713 0.038125936 -0.07847699
0003a0 08 00 d8 3c 81 c3 7b 3c 6f 87 e4 3d f1 fc fa bc
       0.026367202 0.015366436 0.111586444 -0.03063819
0003b0 6c 43 13 be 7d 42 3d 3d de d5 af 3d 1e f7 4f 3e
       -0.14381188 0.046205986 0.08585714 0.20309111
0003c0 34 e8 31 3d 90 06 04 bd 5d fb 36 3e b3 96 a4 3d
       0.043434337 -0.03223282 0.17869325 0.08036556
0003d0 35 be ef bc 58 ad 25 be 18 39 74 3d bf b5 5a bd
       -0.029265502 -0.16179407 0.05962476 -0.053395983
0003e0 b2 10 40 bd 19 1d a1 3c 18 b9 6a 3d c2 98 4c 3d
       -0.046890922 0.019667195 0.057305425 0.04995037
0003f0 45 63 b3 3c 9f f2 87 3a 69 8b cb 3d a1 7d 6b 3d
       0.021897921 0.0010371989 0.099387 0.057492856

network_body._body_endoder.seq_layers.2.bias f4 [256]
000000 6b 9b 90 bd 2b 37 c4 bc 8d d8 98 bd b7 02 05 bd
       -0.070608936 -0.023952087 -0.07463179 -0.032473292
000010 0f e8 20 bd de ec 74 bd d1 b1 b2 bd 74 2d 72 3c
       -0.03928381 -0.059796207 -0.08725322 0.014781345
000020 83 55 46 3d 7e 57 70 bc 14 ac 26 3c ab ff 74 bd
       0.048421394 -0.014669297 0.010172863 -0.059814136
000030 43 f0 e7 ba f5 50 05 be f0 b3 a7 bd 62 6a e0 bc
       -0.0017695505 -0.13019164 -0.08188617 -0.027394477
000040 3b 7e 2a bd f2 33 23 be 02 57 ca bd 1b 57 ad 3c
       -0.04162429 -0.15937784 -0.09879877 0.0211597
000050 b4 b3 07 bd 94 67 24 be 16 b0 d9 3c 0d ef 85 bd
       -0.033130363 -0.16055137 0.026573222 -0.06539736
000060 bb b8 51 bc 1c 46 bf bd 8f 8a 94 bd 98 aa 42 bd
       -0.012800391 -0.09339544 -0.072529905 -0.047525972
000070 aa d4 ee bc 9d 3c 08 3d b2 a4 e8 bd 20 fd 22 bd
       -0.02915414 0.03326093 -0.11359538 -0.03979218
000080 20 88 a1 bd 70 72 81 3d a2 a5 38 bd 77 20 e6 bc
       -0.07887292 0.06320655 -0.045079835 -0.028091652
000090 89 b9 92 bd f6 d8 96 bd 84 42 48 bd 9d 9f ec bc
       -0.07164294 -0.07365601 -0.04889156 -0.028884703
0000a0 82 62 c7 bd 1f 6a 03 3b 56 d5 be bc 58 2f 89 bd
       -0.09735586 0.0020052267 -0.023295086 -0.06698483
0000b0 6c 9e bf 39 22 27 85 bc d2 ef bf bd 03 36 47 bd
       0.00036548392 -0.016254012 -0.09371914 -0.048635494
0000c0 6d 92 30 bd 9f c8 c5 bd 05 e6 aa 3c 1f 93 e7 bd
       -0.043108393 -0.09657406 0.020861635 -0.11307358
0000d0 15 bd bd bc 37 d1 94 3c ab 9b 92 3c 18 9b 8a 3c
       -0.02316145 0.018166168 0.017896494 0.016919658
0000e0 cd 36 f7 bc 05 08 e2 3c f0 69 10 bd 93 1e 84 bd
       -0.030177498 0.027591715 -0.03525728 -0.06451144
0000f0 22 c3 a1 bc dd ad 8b bd 09 e2 bd 3c 88 73 89 bb
       -0.019746367 -0.06820271 0.023179071 -0.0041946806
000100 7d a9 e1 bc c8 19 b5 3c dd 8d 6d bd 91 43 b8 3c
       -0.027546639 0.02210702 -0.05799662 0.022493156
000110 30 5a a2 3c 88 11 8f 3c 73 44 3d bc 0a 4a b0 3c
       0.019818395 0.017464414 -0.011551964 0.02151968
000120 c1 65 cd bc 92 b9 a1 3c 2e 0c a0 bd 6d c0 67 bc
       -0.025072934 0.019741807 -0.07814823 -0.014144999
000130 1a 44 08 3d d1 eb 3c bd 33 3f 75 bd 6b 7d ce bd
       0.03326807 -0.04612333 -0.059874725 -0.10082515
000140 b9 7b a0 bc 19 30 10 bd 34 95 b4 bd 41 0f 0e be
       -0.019590246 -0.03520212 -0.08817521 -0.13873006
000150 aa a4 de bd f9 e7 b5 3c c6 66 3e 3d 3a 07 b0 bd
       -0.10871251 0.02220534 0.04648473 -0.08595128
000160 ec 85 79 bd d9 3e 88 bd cd c3 e2 3c de 11 ea 3c
       -0.060918733 -0.06652612 0.027681256 0.028572973
000170 61 65 6e bd d1 d6 32 bb 64 88 88 bc 95 3d 61 3c
       -0.05820215 -0.0027288685 -0.016666599 0.013747592
000180 f1 f5 87 3c 3a 7b 74 bd d2 82 0f 3d 30 ad 59 bd
       0.016596766 -0.05968783 0.03503687 -0.05314368
000190 8e 9c 88 3d 42 8f c9 bd e4 ac 1b bd 0c d6 0c bd
       0.066704854 -0.098417774 -0.03800668 -0.03438382
0001a0 fd 22 9c bc bf ad 06 bd db fa 83 bd e2 b5 44 bc
       -0.019059652 -0.03288054 -0.06444331 -0.012006255
0001b0 dd 9e d1 bd f0 52 5b 3d cf e3 6b bb 74 8a 8a bd
       -0.10235379 0.053545892 -0.0035993939 -0.06764689
0001c0 91 e1 a7 bc 29 ae be bd 2a be af bd 63 4a e6 bd
       -0.0204933 -0.09310562 -0.08581193 -0.11244657
0001d0 4b 7f 17 3d 22 a3 73 bd 58 62 b9 bd a0 f1 38 3d
       0.03698663 -0.059481747 -0.09051961 0.045152307
0001e0 cd 7c 27 3d b5 a3 13 bd 98 84 9c bd 19 f1 a0 bd
       0.040890504 -0.036044795 -0.07642478 -0.07858486
0001f0 e7 af 14 be b1 08 e8 bc 68 17 62 3d 84 25 b1 bc
       -0.14520226 -0.028324457 0.055198103 -0.021624334
000200 26 b6 06 bd 3f f4 d1 3c 05 f4 48 3a 2a c9 6c bd
       -0.032888554 0.02562916 0.0007665756 -0.057809032
000210 28 1c ff bc 3d b1 90 3b 87 33 9c bd d5 32 a7 bd
       -0.031141356 0.0044156597 -0.076270156 -0.08163992
000220 5c 6d bd 3c 50 26 be bd ff d4 af 3b 83 6f 64 bd
       0.023123436 -0.09284651 0.0053659673 -0.05577041
000230 60 ff c0 bc 59 1c 42 ba d4 c9 48 bd a6 30 0b 3d
       -0.023559272 -0.0007404737 -0.049020603 0.03398194
000240 b7 56 94 bb 4b 41 54 bd 49 51 d6 bc b1 4c 3e bd
       -0.004526939 -0.05182008 -0.026161807 -0.046459857
000250 5b c0 5a 3c 05 28 d8 bd 13 10 18 bd 36 17 87 bd
       0.013351525 -0.10554508 -0.037124705 -0.06596224
000260 e8 8c e8 bc ab e0 8c 3d 5a 50 52 3c e2 c9 20 bd
       -0.028387502 0.068787895 0.01283654 -0.03925503
000270 65 a5 f4 bc 12 43 f6 bc b8 5e b9 bd c8 bc 67 3d
       -0.029864023 -0.030061278 -0.09051269 0.05657652
000280 86 57 b2 bc 81 d6 20 3d 4e e4 d7 bd 8b 95 af bb
       -0.02177025 0.039267067 -0.105415925 -0.005358403
000290 2a b9 1e 3d b9 8f 31 3d 23 4f 71 3c 33 89 23 bd
       0.038750805 0.043349955 0.01472834 -0.039925765
0002a0 bb 27 71 bd 79 c8 ba 3c 63 56 f0 bd ef 66 9e bc
       -0.05887578 0.022800671 -0.11735227 -0.019336192
0002b0 b6 1a ec bb d4 ac c7 bd f6 fe 89 bd 97 81 ef bd
       -0.0072053326 -0.09749761 -0.06738083 -0.11694639
0002c0 df d2 7a ba dd 3d e0 bd 4f 36 9e 3d bb 30 03 ba
       -0.00095681654 -0.109492995 0.07725202 -0.0005004515
0002d0 a0 f3 0d 3b 2e 32 0a be 2d 84 f6 bd 32 02 ce bc
       0.0021660104 -0.13495705 -0.12036929 -0.025147531
0002e0 b6 6d 34 be 09 04 d6 bd cf 8e 3a be 4f f5 35 3d
       -0.17619976 -0.104499884 -0.1821854 0.044423398
0002f0 76 ac b1 bc a7 ad 5c bd 23 51 03 3c 7f 71 4c bd
       -0.021688681 -0.053876545 0.00801495 -0.049912926
000300 83 dd 96 bd b6 3d 22 bd 20 77 7d bb 4c 3f d3 bc
       -0.07366469 -0.039609633 -0.003867574 -0.025787018
000310 31 bd 0a be 89 d3 a1 bd 6b 51 c7 bd a6 1f 9d 3c
       -0.13548733 -0.07901675 -0.09732326 0.01918013
000320 48 36 36 3c 1d c5 f0 bc ca 7f 2d 3c 6e fc 9f bd
       0.01112134 -0.029390866 0.010589549 -0.07811819
000330 4d 68 a2 bd 99 d6 7a bd 39 f1 93 bd 93 af 65 bb
       -0.0793005 -0.061239813 -0.07223744 -0.0035047277
000340 d3 2c 1d bd 9b fd 94 bd ba 59 9c bd 1c c1 8a bc
       -0.038372826 -0.07274934 -0.076343015 -0.016937785
000350 4a ce a9 bb ce e9 83 3d a7 5a e6 bd bb fa e0 bc
       -0.0051820623 0.06441079 -0.11247759 -0.027463308
000360 c1 cb af bb 45 80 3f 3a 08 37 a2 bc d2 c2 f4 bd
       -0.0053648655 0.00073051854 -0.019801632 -0.119512215
000370 96 0a bb bd 1a c3 04 be a6 f4 05 be b9 5a a0 bd
       -0.091328785 -0.1296505 -0.13081607 -0.07829804
000380 a1 47 b6 bd 84 67 f3 bd a6 9d 2c bd 55 7b 50 bd
       -0.08900381 -0.118849784 -0.042142533 -0.05089887
000390 04 75 8a bd 28 f9 23 be ce 5d aa bc 72 c3 40 3b
       -0.067606 -0.16013014 -0.020796683 0.002941337
0003a0 6d 3b b1 bd 05 95 a3 bc 86 3b e8 3c 80 db 4b 3d
       -0.08653913 -0.019968519 0.028348695 0.04976988
0003b0 53 a8 d8 bc 7f 4b 7c 3d 73 a5 45 bd 8f f7 9a bd
       -0.02644745 0.061595436 -0.048253488 -0.07566749
0003c0 8d 59 84 bd bc bb 78 bd 71 6a 4c 3c be 1c 16 bc
       -0.06462393 -0.060725912 0.0124765495 -0.009162126
0003d0 fe db 90 bd 74 ad 8e bd 2f e2 31 3c ab a2 8f bd
       -0.0707321 -0.06966677 0.010857149 -0.07013448
0003e0 9c 45 6a 3b 41 85 c2 bc 1a 6d a6 3c 90 16 28 3c
       0.0035747057 -0.023745181 0.020315696 0.010259286
0003f0 a4 b3 3f 3c 78 be 9e bd ed 57 83 bd 20 9c 16 bd
       0.0117005445 -0.07751173 -0.06413255 -0.036769986

network_body._body_endoder.seq_layers.2.weight f4 [256, 256]
000000 70 b9 fa bd 45 ea ca bd cc 9d 67 3e fb 47 9e 3d
       -0.12242401 -0.099079646 0.22618788 0.07728573
000010 55 c8 84 bd 30 71 74 3b 1f 87 65 bd a9 58 0d be
       -0.06483523 0.003729891 -0.056037065 -0.13803352
000020 4f d1 86 bd ef a9 0d be 06 d5 4f bc 15 00 d2 bd
       -0.06582891 -0.13834356 -0.012685066 -0.10253922
000030 33 e2 7a be ad 87 03 be b4 04 3b be 5d 0f 42 bc
       -0.2450035 -0.12844725 -0.18263513 -0.011844483
000040 1f 4a 0c be 68 70 da 3c 48 f4 ae 3c 60 57 83 bd
       -0.1370015 0.026664928 0.021356717 -0.0641315
000050 01 f2 4d 3d 37 5d a7 3d 08 78 2b be de 33 9e bd
       0.05027962 0.08172076 -0.16745007 -0.07724737
000060 ac 0c 35 bd 9b 47 b4 bd a3 76 1e be 1f 48 1a 3e
       -0.044201538 -0.0880272 -0.15474944 0.15066575
000070 8f 01 d9 bd b2 6c 17 bc d1 dc 98 bd c1 33 43 bd
       -0.105960004 -0.009242224 -0.074639924 -0.04765678
000080 6a 42 05 bd 47 4c ec 3d da dc 37 bd 0e 5a a2 bd
       -0.03253404 0.11537986 -0.044888355 -0.07927333
000090 8d 24 6c bc 75 aa 5d bd 9a dd bc 3d da 50 43 bd
       -0.014413011 -0.05411764 0.09221955 -0.047684528
0000a0 18 c0 43 bc fe e3 5d bd 14 cc b5 bd 44 4e 86 3c
       -0.011947654 -0.05417251 -0.088768154 0.016394742
0000b0 7e 16 0b 3e ae 73 be 3c 19 5c f0 bc 87 cd 9b 3d
       0.13582799 0.02324852 -0.02934079 0.076075606
0000c0 20 2a 48 bd 96 18 a3 bc 5c 44 e6 3d fc 98 5c bd
       -0.0488683 -0.019909184 0.11243507 -0.053856835
0000d0 f6 1d 86 bd 37 c5 c6 bd 50 4b 5b bd 30 f7 81 3b
       -0.06548683 -0.097055845 -0.05353862 0.0039662346
0000e0 6b 2c 6c 3d c6 40 1f 3d 21 35 51 3e 7b cf 73 3d
       0.057659548 0.038880132 0.20430423 0.05952404
0000f0 eb 74 35 be ba c8 74 3c 31 4c 2f 3d e5 3e 37 bd
       -0.17720382 0.014940435 0.04279727 -0.044737715
000100 c4 75 bb 3d 43 8b 38 be 74 4c 99 3d 8c 2d b5 3d
       0.091533214 -0.18021874 0.074852854 0.08846578
000110 be 50 9f 3d a5 6e 80 bc 8b 85 62 bd 50 9b 00 be
       0.07779072 -0.01567776 -0.055303138 -0.12559247
000120 20 40 79 bc 63 db 45 bd a8 b2 b5 bc 62 04 b2 bc
       -0.0152130425 -0.048304927 -0.022179917 -0.021730606
000130 ff dc c7 3d 88 65 18 3e 6b b2 15 be 6e 6e fc bd
       0.097589485 0.14882481 -0.14618842 -0.1232575
000140 87 6b d6 bd 24 bd 09 bc f9 55 25 bd 5d 1c ab bd
       -0.10469728 -0.008406911 -0.040365193 -0.08355019
000150 e5 3f 15 3e 4c 82 4b bd f4 6e 7d 3c 51 a0 a8 3d
       0.14575155 -0.049684808 0.015468348 0.08233703
000160 ae f3 01 bd 18 7d 40 be ef 47 92 3c a8 b6 47 bc
       -0.03172653 -0.1879772 0.017856566 -0.012189545
000170 ca 7c 78 3d 07 b3 89 3d a1 40 a3 bd be 53 74 bc
       0.060665883 0.067236 -0.07971311 -0.014912544
000180 99 9e cf bc a2 c7 bb 3d 55 87 81 bc 22 eb f0 bd
       -0.02534418 0.09168936 -0.015811602 -0.11763598
000190 b6 26 1c bd aa 8e cf bd 32 d8 6c 3e 2d de d1 3c
       -0.038122855 -0.10134633 0.23129347 0.025618637
0001a0 02 26 0c 3c 67 38 03 3e c2 08 a9 3d bc 29 29 3e
       0.008553984 0.12814485 0.082536235 0.16519827
0001b0 23 42 99 bb 0d 53 82 bd 0d 4a c3 bd 2f 8f 02 3e
       -0.0046770736 -0.06363497 -0.095356084 0.12749933
0001c0 59 17 0c bd ae 31 19 bd 85 b6 3d 3e ff 17 1b bd
       -0.034201954 -0.037400894 0.18526657 -0.03786468
0001d0 60 6b 7f 3d fa d9 88 bd 9f ad 37 3d a3 f3 04 3d
       0.06235826 -0.06682201 0.044843312 0.032458913
0001e0 0f c8 46 be 3c 6d 6e bd 05 5a 33 bd 8a 26 08 be
       -0.19412254 -0.058209643 -0.04378702 -0.13295951
0001f0 d0 db 44 bc 48 68 f7 3d 73 eb 50 bd 69 83 e0 bd
       -0.012015298 0.12080437 -0.051005792 -0.109625645
000200 5f 5b 1e be 7f f3 1a be 38 e3 67 3d b7 5b 13 3d
       -0.15464543 -0.15131949 0.056613177 0.035976138
000210 22 bc 49 be f2 41 af bb 90 0e 27 bd 7f 50 73 bd
       -0.19700673 -0.0053484375 -0.040785372 -0.05940294
000220 af c2 2a bd 82 00 fb 3c 1e ef a0 bd 8f 92 86 bb
       -0.04168957 0.03063989 -0.07858108 -0.0041068266
000230 5d f3 42 be ac fb eb bd d4 ad 03 bc 3d b0 37 3d
       -0.19038148 -0.11522612 -0.008037049 0.04484581
000240 dc dc 15 3d 71 df 97 3d 0e 76 bc bd 7f 0a f2 bc
       0.03658758 0.07415665 -0.09202205 -0.02954602
000250 bd 1e 33 3e 50 d8 0a be 19 e4 3d bd 2f 50 ca bd
       0.17492194 -0.13559079 -0.04636011 -0.09878575
000260 53 8d d5 3d 4f 11 55 3d a8 b5 1d 3b 9e 1b c8 3c
       0.10427346 0.05201846 0.0024064574 0.024427231
000270 94 d2 38 bd dd e6 ec bd 94 3e ce bc c8 d7 98 3d
       -0.045122698 -0.11567471 -0.025176324 0.07463032
000280 16 d0 d4 3c ae c1 fa bd 16 4c c2 3d a6 79 8f 3d
       0.02597813 -0.12243973 0.094871685 0.070056245
000290 7f 82 34 be 92 bc 3f 3c c3 1f e5 bc e4 30 7a bd
       -0.17627905 0.0117026735 -0.027969247 -0.061081782
0002a0 a3 52 0c bd 32 f8 8a bd 84 2e 10 bd cf cf 88 bd
       -0.034258496 -0.06785621 -0.03520061 -0.06680261
0002b0 c5 94 2d bd 36 d7 0b 3b f9 61 ce 3d df f3 3d 3d
       -0.042378206 0.0021337993 0.100772806 0.04637515
0002c0 38 b2 f2 bc 5b d8 e0 bb 38 1a b7 bd eb a6 b1 bd
       -0.029625997 -0.006861729 -0.08940548 -0.08674415
0002d0 f6 5d 26 bc b0 df 71 bc 09 89 e7 3d a0 17 d1 bd
       -0.010154238 -0.014762804 0.11305434 -0.10209584
0002e0 c6 eb 7a 3e 91 f9 cb bd 4c a9 f9 3d 19 22 de 3d
       0.24504003 -0.099597104 0.12190494 0.10846347
0002f0 df 00 7f 3e 18 91 91 bd 7c 35 28 bd 40 3a af bd
       0.24902676 -0.071077526 -0.04106663 -0.08556032
000300 ab 25 22 3e 23 80 5b bd 17 c5 8e be 1e 2d 09 3b
       0.15834682 -0.053588998 -0.27884743 0.0020931433
000310 d9 f1 49 3d 69 86 90 bc 9c c5 25 be 99 2c 8d bd
       0.04930291 -0.017642217 -0.16188663 -0.06893272
000320 70 0b 52 3d f0 d2 14 3e 11 e6 f7 3d 9f 73 28 3e
       0.05128044 0.14533591 0.121044286 0.16450356
000330 32 52 55 3d ad a1 f3 3c e7 02 54 be e6 62 3d bd
       0.05208034 0.029740179 -0.20704232 -0.046236895
000340 fb 84 51 bd b5 da 96 bd c7 3a c8 bb 62 c1 85 3d
       -0.05115221 -0.07365934 -0.0061105224 0.065310255
000350 f2 82 e7 bd 54 7d af 3c 7a 5c c5 bd 3f a8 26 be
       -0.11304273 0.021422066 -0.09636779 -0.16275118
000360 74 86 05 3e ad ed 1a 3d 30 9b d1 3d 48 05 9d 3d
       0.13039571 0.03782432 0.10234678 0.07667023
000370 ec 50 3d bd 5a 4a 1f 3e 41 08 cc 3c 4b eb 6d be
       -0.04621975 0.15555707 0.02490628 -0.23234288
000380 f6 d6 5b be d4 0f 90 bd 76 91 49 bb 03 71 d2 3d
       -0.2146872 -0.07034269 -0.0030756867 0.102754615
000390 2d 4d 5d 3d 6b d5 d1 3b 19 3f 73 bc 12 65 49 3d
       0.05402868 0.006403615 -0.014846587 0.049168654
0003a0 31 ef 82 bd 8d 73 77 be 45 88 9b 3d c8 94 6b 3d
       -0.063932784 -0.24165173 0.07594351 0.057514936
0003b0 bc 5a 2d 3e 3f fa 58 3e b5 3b 07 3e 97 25 d7 bd
       0.16929144 0.21189211 0.1320637 -0.105052166
0003c0 85 05 ef bd df f6 70 3d e3 d6 d4 bd d0 b4 2d bd
       -0.11670975 0.058829185 -0.10392549 -0.042408764
0003d0 51 ab 85 be a7 67 a7 bd 0d 65 cc bd b1 f1 15 3e
       -0.26107267 -0.08174067 -0.099802114 0.14642979
0003e0 78 a6 9a bc 68 f4 cd bd 64 d8 0d 3d da 72 a9 bc
       -0.018878207 -0.100563824 0.034630194 -0.020684648
0003f0 32 b9 08 be 54 c5 45 bb 63 96 cb 3c ce e7 0e 3e
       -0.13351896 -0.0030177431 0.024851983 0.13955614
