Assets/TFModels/Other models trained in the process/Striker1_9_2.onnx (onnx, 531428 bytes, 6 tensors)

action_model._discrete_distribution.branches.0.bias f4 [7]
00000000: 54f2 babb c0f5 563b 84c1 473d 7a73 4d3c
00000010: 6465 89bc 456b 50bd 5692 bfbc
-0.0057051573 0.0032800287 0.048768535 0.012539739 -0.01677198 -0.05088355 -0.023385208

action_model._discrete_distribution.branches.0.weight f4 [7, 256]
00000000: bd32 6bbd b180 4b3d 8ab3 2cbd 00a7 e63c
00000010: 164e d43a fbc0 ab3c fca1 10bc 5112 9abc
00000020: 282e d33c 224f cebc 6f14 49bc 78e8 f0bc
00000030: a883 89bd 3e77 b1bc 176f 1e3d 12e5 ca3c
00000040: 3c77 e93d 6725 dd3c d764 83bc 5fd5 0cbd
00000050: 4a8f b83d a4a2 a8bd b95e 133c 26aa ae3c
00000060: ebea 273d d15a 3b3d 0b90 bb3c 2224 34bc
00000070: b876 a63d dde2 8c3d 6a8b a03d 9a78 38bd
00000080: 4956 b73d 634c 743d a896 753d 0a03 423d
00000090: 68e3 4ebd 23d2 173d 0df7 fcbc 73e2 1b3d
000000a0: 8c95 833d dfac 61bd c086 2c3d 3931 36ba
000000b0: 824a 713d a6ef a03d e88f a2ba f5f2 ce3c
000000c0: 01b6 ea3a 8a0e 863d 2cbe 62bd 27e4 393d
000000d0: efed 8ebb 4c08 133e bd49 b13d b11e 113d
000000e0: 2301 303d 6a30 bd3b a51f 853c ecf2 6f3d
000000f0: f9e7 8a3b df15 673d 774b 37bb 0c75 ca3d
00000100: 3513 f73b 834b a13d 9d44 95bb f4e6 41bd
00000110: 6c69 803d b4e1 e33c e402 c43d bcd3 0f3d
00000120: 55e5 41bc 5265 95bc 2b70 323d 4bf1 413d
00000130: 005f 1bbc 0d3f 123d e77e e0bd 5730 1ebd
00000140: 5cc9 d73d 3a35 e5bb d9ed 033d 8b0b 723d
00000150: e47e 39bd 71a2 2b3c aed3 3fbd 2149 193d
00000160: fc44 04bc dab9 fa3b 0e51 bbbb 3943 763d
00000170: 41da f93d c09b d63c 2526 803c 77e8 63bd
00000180: a47b 4a3d 1ce5 b13c 4f85 673d 661c 25bc
00000190: ba2e b83d 6012 743d 57f7 013d 17e7 403d
000001a0: f46a 2f39 35e4 6cbd c1cf fabc d6d0 75bd
000001b0: d5a7 b83d c3aa b2ba fa95 f63b e573 923d
000001c0: 18fc fabc 25ac 6bbc 31ac 33bd ffb4 a03c
000001d0: 26ac a3bd ed25 34bd 33a5 9b3c 9e1c 92bd
000001e0: 4e08 f23b b49b 88bc 6abd 06be bb1f db3c
000001f0: fdbc 853d 86a0 003d ef9d 833d 8535 23bd
00000200: 83a3 dfbb b328 27bd 55c4 753c 1a89 133d
00000210: dae2 c8bc d044 563d 7a89 6bbd 98f9 653d
00000220: f0a1 debc f2d3 c93d 15c6 60bd bc78 133c
00000230: 1cb1 cbbb 8c97 0abd 66b6 9b3a 022d dc3d
00000240: 1ca8 783c 6a13 ca3c 0730 bdbc 667a 1ebd
00000250: d9db bd3c 49fc 32bc e773 99bd 2684 ebbd
00000260: 6973 ba3d c36d bc3d 1479 a63b fbc5 943d
00000270: 7c66 403d 6d82 c63c 88f1 b63c 82e3 7cbd
00000280: d8cf 283c ba1a 4aba 1b90 99bc 6864 04bd
00000290: 977c 943c 55cf a93c eb7d 533d 23d0 db3d
000002a0: 313e cebc 9559 29bd 661a 493c ab4f b03b
000002b0: aafa aebd 8892 3c3d db69 173d d093 ccbc
000002c0: 989c 62bd 9585 d53c af70 523c 8968 963d
000002d0: b43c 8e3d f1c0 553b 2409 663d 67a3 22bb
000002e0: c7cd 6a3d 236d 4c3d f257 adba ef91 713d
000002f0: f723 8bbd 4f9e e5bd 08d3 afb9 eafd a3bc
00000300: 9944 343d ac8d b3bc 6885 723d 194b f6bc
00000310: c38d 67bc bdb7 3dbd 036e 763c 4e93 dd3c
00000320: b688 5d3d 9364 94bd 234a dbbd d9d6 b43d
00000330: 7dca 20bd be8e 033d d12d 313c aab4 6a3d
00000340: 0063 c4bc 8f34 12bd ee23 a7bc 33c0 f13c
00000350: 3f1d a13d ba66 173c 036f cfbc 4c45 713c
00000360: c02a 4d3c 0c7e f9bc d707 ab3c f273 b5bd
00000370: 17f0 63bd a514 00bb 2a6c c53c cca9 393d
00000380: 7e06 ca3d fb2d 24bc 59d3 c0bd c73f 823d
00000390: 80eb 85bd 02ee babb dd03 d8bc d673 72bd
000003a0: 2d33 803d 3b0a 4d3d c985 1a3d bb3a c3bd
000003b0: 30f2 f9bd ed05 d43c 85f0 c73c 9e04 dabc
000003c0: b4fa 573d d4f0 4fbd 819f a23c cee4 023d
000003d0: 554f 483d de16 95bc 276c 653d fd02 003d
000003e0: 637c a8bd b740 9abb 9c76 babc 3ad7 49bd
000003f0: da42 24bd 60b3 39bd 9544 993d 9d6d 353c
-0.057421435 0.049683277 -0.04216341 0.028155804 0.0016197588 0.020966044 -0.008827683 -0.018807562
0.025778845 -0.025184218 -0.012272938 -0.029407725 -0.067145646 -0.021663304 0.038680162 0.024767432
0.11399695 0.026995374 -0.016039295 -0.034383174 0.09011705 -0.08234146 0.008994752 0.021321367
0.04099552 0.045740906 0.022895833 -0.010994943 0.081281126 0.06879208 0.07839091 -0.04503689
0.089520045 0.05964316 0.05995813 0.04736618 -0.05050984 0.037065636 -0.030879522 0.038057756
0.06425008 -0.055096503 0.042120695 -0.0006950084 0.058908947 0.07858209 -0.0012402507 0.025262335
0.0017907025 0.06545742 -0.055357143 0.0453836 -0.00436186 0.14358634 0.086566426 0.03542966
0.042969834 0.0057735937 0.01625044 0.058581278 0.004239079 0.056417342 -0.0027968565 0.09885606
0.0075401315 0.07875731 -0.0045552985 -0.047339395 0.062701076 0.027817585 0.09570864 0.035114035
-0.011834462 -0.01823679 0.043564003 0.047349256 -0.009483099 0.03570466 -0.10961705 -0.03862032
0.10536453 -0.0069948705 0.03220925 0.05909304 -0.045287028 0.010475741 -0.046832733 0.037423257
-0.008073088 0.0076515498 -0.0057164496 0.060122702 0.12199832 0.026197314 0.015643189 -0.055641618
0.04943432 0.021715693 0.056523617 -0.0100775715 0.089932874 0.059587836 0.031730022 0.047095384
0.00016729144 -0.057834823 -0.030616643 -0.060013615 0.090163864 -0.0013631213 0.007525203 0.071510114
-0.030637786 -0.014384304 -0.043865386 0.019617556 -0.07991819 -0.04398148 0.018999672 -0.071343645
0.007386244 -0.016675808 -0.13158193 0.026748529 0.06530187 0.031403087 0.06426608 -0.039845962
-0.006824912 -0.0408103 0.0150004225 0.036019422 -0.024522234 0.05231172 -0.057504155 0.056146234
-0.027176827 0.098548785 -0.054876406 0.009000953 -0.0062161814 -0.033835933 0.001187992 0.10750772
0.015176799 0.02466746 -0.02309419 -0.038690947 0.02317612 -0.010924407 -0.0749281 -0.11499815
0.09104044 0.09200623 0.0050803516 0.07264324 0.046972737 0.024232114 0.022331968 -0.061740406
0.01030346 -0.0007709671 -0.018745473 -0.032322317 0.018125815 0.020728746 0.051633757 0.10733058
-0.02517614 -0.041345198 0.01227436 0.005380591 -0.08543904 0.04603818 0.036966186 -0.024972826
-0.05532512 0.026064673 0.012844249 0.07344157 0.06945172 0.0032616223 0.05616106 -0.0024816634
0.05732515 0.04990877 -0.0013225062 0.058977064 -0.06793969 -0.112118356 -0.00033535832 -0.020018537
0.044010732 -0.02191814 0.059209257 -0.030065106 -0.01413292 -0.046317805 0.015040877 0.02704778
0.054085456 -0.072457455 -0.107075 0.088300414 -0.039255608 0.03211855 0.010814146 0.0573012
-0.023972988 -0.035694655 -0.020402875 0.029510593 0.078669064 0.0092408005 -0.02532149 0.014725994
0.012522399 -0.030455612 0.020877762 -0.088600054 -0.05564889 -0.0019543555 0.024099428 0.045327947
0.098645195 -0.010020728 -0.09415311 0.06359821 -0.06539059 -0.0057046423 -0.02636903 -0.0591925
0.06259761 0.050058585 0.037725244 -0.09532686 -0.12204397 0.025881732 0.02440668 -0.02661353
0.052729324 -0.05076678 0.019851448 0.031956486 0.048903782 -0.01819938 0.056011345 0.03125285
-0.0822685 -0.0047074216 -0.022761635 -0.04927752 -0.040102817 -0.04533708 0.07483784 0.011073497

network_body._body_endoder.seq_layers.0.bias f4 [256]
00000000: b3a5 9ebc 17db 863d 2ebd c6bc 3e7d 0d3d
00000010: 289b 00bd 7012 183d 3c01 013d e551 5fbc
00000020: f379 bcbc 667c 73bc 0de9 57bb 2c7d 4b3d
00000030: 3389 dfbb 9a3d f63c b412 a23c c69a b73c
00000040: 080c 5c3d d691 6cbb a4d0 8a3b a309 953a
00000050: 43cc bfbc dfdf aebc a2ac c83a a307 173d
00000060: 06a9 63bb 149c d0ba 867e 0cbd fd11 b5bb
00000070: f5db 7dbc 7336 67bc 6361 e53c 252a 4f3c
00000080: 24ac 1bbc 6d53 08bd 4402 aebb 94d7 64bc
00000090: 1891 07bd d1d6 d9bc 8c0b 19bc bbe4 ac3c
000000a0: 71b6 063d 9229 573c de8d 0abc f5a6 c23b
000000b0: 2edb 8abd 7c45 66bc d30c d03c a028 abbc
000000c0: 5009 01bd f109 ccbc ab9a 04bd b986 583a
000000d0: eafc d13b 392b 8ebd 6cf4 edb9 126b 37bd
000000e0: 0a1d 06bd a3cd 2eba 99d1 a0bc de9d 433c
000000f0: 9e4b 97bc 7487 8a3c 32cf 363d 3912 6dbc
00000100: 6cee 3c3b 82be 77bb e363 553b 6e9a aabc
00000110: 043e 873c b9c9 b63c 2dee 1fbc 5e7c 39bc
00000120: c367 ce3c 5d8d e13c c90e b23b 26b3 b83c
00000130: 7313 9fbb d729 ab3b 7cd4 fe3c 6f28 dfbc
00000140: c855 be3b 064e f9bc 26eb 43ba 1fa7 773d
00000150: 5ac9 b83b 7272 a83b 309a eebb ecd7 203d
00000160: f609 d9ba 332d ad3a 2065 84bc a9ad 25bd
00000170: 6e41 d13c fa4a bb3b b8fa 0abc 66bc 763d
00000180: f288 823c 8d72 88bb c3f7 82bc 935b 54bc
00000190: 589b 5abc ebb4 d23d 0e1d a53c 5551 ee3c
000001a0: d34d c73c b199 46bc 9083 ca3c 63e0 7e3d
000001b0: 85b9 babc b8f8 4fba 7cdb 993b b80f 30bb
000001c0: 9505 de3c ad93 fbbc 415b e23c 0660 aabb
000001d0: 5299 0e3d a5ff 0b3d 8686 d93b d1d4 1f3c
000001e0: bdd4 fc3c 75e7 76bc 031f 3a3d b5a6 db3b
000001f0: 1515 e1bc e76a 19bd fd42 8a3d a10a 39bd
00000200: c08a 8b3c 06a0 263d d080 793b 4065 53bc
00000210: b79c e1bc 274b d0bc 132c e23c e55b a53b
00000220: c65d 723c 937c f03c d1fa 883c cf3b 0ebd
00000230: 1265 573d 3955 5d3b 5d4a 8838 347d d83c
00000240: 8e3b 2dbd 01b6 bdbc 4976 3dbd 1985 d53c
00000250: e585 383d d372 1abc 5e92 08bb 8af1 b83c
00000260: 624e 14bc 4384 15bb c22c e53b 9314 5bbc
00000270: b6f3 393c 8a79 b13c 504e 05bd dc4b 8b3b
00000280: 5b35 14bd 23fb 8bbc 686e 65bc 5ccf 693b
00000290: 5846 c53c 1a2f 87bc ef23 143d cbed 21bd
000002a0: de7a 92bb e485 2b3d 211b d83c 87a9 4b3d
000002b0: 870c 66bc 821a 023c c1b8 7d3c 79e9 c2bc
000002c0: 87b5 bb3c e7a7 0c3c 74ef b5bc 7224 c0ba
000002d0: 0190 24bd 1e94 27bc 0f4d 38bc 4da5 083c
000002e0: c1ff eb3c bba5 c63c 0b28 dc3b 64c9 1c3d
000002f0: d385 b23b 77c8 e63c a42a 7b3c 45cf c43b
00000300: a077 513d 3291 ba3c 4b66 343d 1c8b 333d
00000310: 883f 2f3a 2890 153d 8835 783b 779f 213a
00000320: 04ea 5a3c 6ee1 803a ae3d 93bc fc32 93bc
00000330: d474 0e3d 3d15 abbc fca1 6e3c 93f7 9c3c
00000340: 0920 d4bc f8e8 37bb 1d96 25bc 9799 62bc
00000350: 22a9 68bc 0e48 673c a452 023d 8afb 813c
00000360: 7f3c 853c e3b2 2dbd 26f0 ee3b c944 d9ba
00000370: b52d 67bd 9462 143c bd9b 07ba 5f62 613c
00000380: 144c 89bc 923c ce3c 985a a33c 2fd0 173c
00000390: 282b 213d ae75 fc3b d99f 513c f8ad adbc
000003a0: b71e 573c e058 7fbc 2aaa aebb 0861 45bd
000003b0: bd39 e9bc cada 41bc 93ee 313d 583f 2e3d
000003c0: 973c 15bd 6a04 d53c dc82 5bbc e18f 123d
000003d0: 50b4 5dbc f051 8b3c c49d a73c ddf6 013d
000003e0: f526 1abd d094 8aba 6e07 cdbc 5e15 08bc
000003f0: 1508 9f3c 273c 81bc a307 a33c e939 dbbc
-0.01936612 0.06584757 -0.02426013 0.03454327 -0.03139797 0.03712696 0.031495318 -0.013630365
-0.023007369 -0.014861202 -0.0032945306 0.04967992 -0.0068217753 0.03005867 0.019784309 0.022412669
0.05372241 -0.0036097667 0.0042362977 0.001137067 -0.02341283 -0.021346984 0.0015310238 0.036872517
-0.0034738197 -0.0015915656 -0.03430035 -0.005525826 -0.015494336 -0.014112103 0.02800054 0.012644325
-0.009501491 -0.033282686 -0.0053103287 -0.013967413 -0.033097357 -0.02659169 -0.009341132 0.021105161
0.032888833 0.01313247 -0.008456675 0.005940313 -0.067800865 -0.014054652 0.02539674 -0.020893395
-0.03150302 -0.024907084 -0.032374065 0.00082598213 0.0064083235 -0.06941838 -0.0004538627 -0.044779845
-0.032742538 -0.00066682155 -0.019631194 0.011939494 -0.018468674 0.016910292 0.04463119 -0.014469677
0.0028828634 -0.003780276 0.0032560758 -0.020825591 0.016509064 0.022312986 -0.009761375 -0.011321155
0.025195962 0.027533228 0.0054338914 0.022546362 -0.0048546134 0.0052234936 0.03110718 -0.02724096
0.0058085658 -0.030432712 -0.00074736995 0.060462113 0.0056392374 0.005140596 -0.007281564 0.03926842
-0.0016558755 0.0013212323 -0.016161501 -0.04044882 0.025543895 0.005715725 -0.008482628 0.060238265
0.015934441 -0.004164046 -0.015987283 -0.012961286 -0.013342701 0.102884136 0.020155456 0.029091517
0.024329102 -0.012121604 0.024720937 0.06222571 -0.02279354 -0.00079334853 0.004695354 -0.0026864838
0.027102271 -0.030710066 0.027631404 -0.005199435 0.034814186 0.03417935 0.006638351 0.009755329
0.03086316 -0.015069832 0.04543973 0.0067032226 -0.027475873 -0.037455466 0.06751058 -0.045176152
0.017033935 0.040679954 0.0038071163 -0.012902558 -0.027540548 -0.02542646 0.027608907 0.005046355
0.014792865 0.029356277 0.016721161 -0.034725007 0.052586623 0.003377272 6.4988366e-05 0.026426889
-0.042293124 -0.023158075 -0.046255384 0.026064442 0.045049567 -0.00942679 -0.0020839195 0.022576112
-0.009051891 -0.002281443 0.006993861 -0.0133716045 0.011349609 0.0216644 -0.032545388 0.0042509865
-0.036183696 -0.017087525 -0.014003374 0.0035676574 0.024081394 -0.016501952 0.03616708 -0.039533418
-0.0044702133 0.041875735 0.026380124 0.04972222 -0.014041073 0.00794089 0.015485943 -0.023792969
0.022913707 0.008584953 -0.022208907 -0.0014659299 -0.040176395 -0.010228185 -0.011248841 0.008340192
0.028808476 0.024248948 0.0067186407 0.038278 0.005448082 0.028171761 0.015329991 0.0060061538
0.051139474 0.022774313 0.044042867 0.043833837 0.0006685187 0.03651443 0.0037873704 0.0006165425
0.013361458 0.0009832808 -0.017973747 -0.017968647 0.034779385 -0.02088415 0.014564987 0.019161021
-0.025894182 -0.0028062444 -0.010106591 -0.013830564 -0.014200481 0.0141163 0.031817093 0.015867013
0.016264198 -0.042406928 0.0072918115 -0.0016576286 -0.056440074 0.009056706 -0.0005173048 0.013756364
-0.01675991 0.025175367 0.01994066 0.009265943 0.039347798 0.007704458 0.012794458 -0.021201119
0.013129882 -0.015585154 -0.0053303437 -0.04818824 -0.028469915 -0.0118319485 0.043440413 0.042540878
-0.036434736 0.026003081 -0.0133978985 0.035781745 -0.013531759 0.017006844 0.02046097 0.031729568
-0.03763481 -0.0010572914 -0.025027957 -0.008305876 0.019413034 -0.015775753 0.019901102 -0.026761012

network_body._body_endoder.seq_layers.0.weight f4 [256, 252]
00000000: 995f 1e3d 02b3 62bb 84bf 7f3d 71a4 debd
00000010: 34a6 2c3e 1329 44be c1ba 833d 0003 a33d
00000020: b1c1 30be cfad 833c 4c98 883d 53d0 53bd
00000030: d5a0 bcbd d2a8 c43b 89e8 1db9 e20c dbbc
00000040: c023 863d 86e7 a0bc a3d6 17bd aed8 723d
00000050: 9602 c83d fc20 3bbd 2238 46be 48a6 c7be
00000060: 3548 01bd 5ca9 8a3e 7364 16be 6466 f33c
00000070: a9cf ef3d 79e5 16be d717 6cbd e378 7fbb
00000080: 2254 32bd ddd7 193e 5768 55be 9637 cb3b
00000090: 1ab1 06bd 5935 62bd a599 933e 49ee 6cbd
000000a0: 75da 96bd 537d b6be b708 753b ad42 cb3d
000000b0: edff 53be f09f 96bb 0776 f1bc 5fa9 acbd
000000c0: 2da9 22bd 448e 883c d9d7 0b3e 9c2a 0bbe
000000d0: d3b5 4cbe eda9 25be dd8f a53d 08e9 68bc
000000e0: 8b58 48be 87d1 ffbd 4bae 9c3d 95df 183d
000000f0: 9cf2 37be 85c3 82bd 086a 4fbd 1d3d e63d
00000100: 81f5 423e 50e9 b23d 5e89 bfbd 59c2 27bd
00000110: f493 bbbd dba5 d7bd 528e 973d 05ce 543e
00000120: ca58 38be 03bc c8bd 1097 1d3e 4634 cdbc
00000130: ba67 fc3d c248 f2bd a669 1abd 31bb 8b3c
00000140: 11cc 5ebc 0e04 55bd d149 5c3e 40d5 d63d
00000150: edd4 25be 5a00 e3bb 91ac 95bd 932e 8b3d
00000160: b85b 0d3e ab13 c43d d26e 033e ce28 e4bc
00000170: 6098 05be 308b ba3b 7711 9d3e eab8 c33d
00000180: ac1a 1c3c 363d 90bd f2ab 893d 206b 80bd
00000190: 306c 883d 865f 8d3c 250d 033e 5f5d c43d
000001a0: f58e 6ebd a2bf 683b 4bb1 1c3e da92 2a3d
000001b0: e1f6 133e 2024 88bd c6d4 283e bbb8 ffbd
000001c0: 4722 3ebd 0f18 0e3e c1de 0b3d 39f2 4b3d
000001d0: 229a 1abb 3d0e ea3c 6311 213e 6173 1c3d
000001e0: 5205 8d3d c0c8 523d 359c c2bd 572c 69bd
000001f0: b375 9b3d a9b7 2c3d 1fb7 5ebd 2049 593d
00000200: a673 d23c 2cce 053e aa1d 74bb 0889 c13d
00000210: 4e16 4b3d da75 d1bd 158a 17bd 22bd 0e3e
00000220: d020 b13d b32e 243e 99da 15be d10b e43b
00000230: c87c 713e b99e 0b3e b2f6 dcbc aea8 84bd
00000240: c7b4 a9bd e370 723d f544 b2bb 0def 173d
00000250: 49e3 4f3d 2dbd a8bb bc87 19be ca85 00be
00000260: 4996 ab3d 9150 cc3d b9b3 593d 5d4b 5f3d
00000270: 7c95 9fbb 453b 8b3d cbe6 1abe d7dc c03d
00000280: 33e1 bebd ca42 a0bd b79f 45bd d0b2 24bd
00000290: 60aa 5a3d c821 78bc dc17 63bd ef99 89bd
000002a0: 0af6 a3bc 4a5f 3e3d 2895 3a3d b2b6 2a3d
000002b0: 66c2 46bd 6b51 3abd 07ed 99bb f8d1 193d
000002c0: 65aa 2b3e d4ee 77bd e442 1cbe 68f8 d93d
000002d0: b666 f9bc e045 103e a137 4ebd cf0a 52bd
000002e0: e48c e2bd fd06 50be 84d1 f23d 8abf b53d
000002f0: 3254 0dbe 695d 2abc 4cdd 013e ebe9 003e
00000300: 8838 cdbd d3a3 ecbd a28a 0e3e 2b1d 48bd
00000310: df13 923d d127 963b 8673 2b3d efe4 03be
00000320: b2cc 133e 5414 cf3d 2f25 4b3e 908a 1a3e
00000330: 1340 87bd 8bc6 1a3e 7584 f83d 8a8e 8c3c
00000340: 39ef 203d 933b 4d3d 2ecb ce3d 9819 dabd
00000350: a231 a83d 05a1 b63b 97aa 573d 8cb8 163d
00000360: 6ff0 313d 8859 5abe d036 653c 0b3a a6bc
00000370: ad67 cebd 3e3f 4abd 8c5c 283c 15de 7abd
00000380: 15d4 38bd 42f9 af3c 4d91 79bd 692e 863d
00000390: b7e0 f33c 154d 05bd dcc7 c73d de92 eabc
000003a0: 1d39 bcbd 5aa8 d63d c834 3e3e fb7a 3cbe
000003b0: 83aa db3c ab7c f93d 3558 153e 1b0c 8b3d
000003c0: f35c c33c 6289 cfbd fd39 0e3c cd90 e1bd
000003d0: d618 fbbd e278 86bb a279 8b3d 6822 8cbd
000003e0: 0dcd aebe 5c20 cf3c 4c7e f43d 1e34 b03d
000003f0: 8e2f 8cbd 924b ef3d 8db6 283e 6574 9fbd
0.038665388 -0.003459156 0.062438503 -0.108712085 0.16860276 -0.19156294 0.06432105 0.079595566
-0.17261387 0.01607409 0.06669673 -0.051712345 -0.09210364 0.0060015703 -0.00015059313 -0.026739541
0.065497875 -0.019641649 -0.037069928 0.059288673 0.09766118 -0.045685753 -0.1935735 -0.3899405
-0.031563003 0.27082336 -0.14686756 0.02971191 0.1170953 -0.14735974 -0.057639923 -0.0038981966
-0.043537267 0.15023752 -0.20840584 0.0062016947 -0.03288374 -0.055226658 0.2882816 -0.057844434
-0.07365886 -0.3564249 0.0037389228 0.09924827 -0.20703097 -0.0045967028 -0.029475225 -0.084307425
-0.03971212 0.0166694 0.13656558 -0.13590473 -0.19991235 -0.16178103 0.0808408 -0.014215715
-0.19565026 -0.12491136 0.07650431 0.0373226 -0.17963642 -0.06384949 -0.05063823 0.11242125
0.19038965 0.08735907 -0.093523726 -0.04095683 -0.09159079 -0.10529681 0.07400192 0.20781715
-0.1800262 -0.098014854 0.15389657 -0.02504934 0.12324472 -0.11830284 -0.03769841 0.017057033
-0.013598458 -0.05200582 0.21512534 0.10489893 -0.16194506 -0.006927532 -0.07308305 0.06795993
0.13804519 0.09574064 0.12835243 -0.027851488 -0.13046408 0.005692862 0.30677387 0.09556754
0.009527843 -0.07042925 0.06722249 -0.062704325 0.0666126 0.017257463 0.12797983 0.095881216
-0.058241803 0.0035514613 0.15302007 0.041643955 0.14449646 -0.06647515 0.16487417 -0.124864064
-0.04641941 0.13876365 0.03414798 0.04979155 -0.0023590405 0.028571242 0.15729289 0.03819597
0.068857804 0.05146098 -0.095024504 -0.05692705 0.07590809 0.04216734 -0.054373857 0.053048253
0.025689911 0.1306693 -0.0037249126 0.09449965 0.04958182 -0.102275565 -0.03699692 0.13939336
0.086488366 0.1603344 -0.1463417 0.0069594164 0.23582757 0.13634767 -0.026973102 -0.064774856
-0.08286434 0.05918969 -0.005440349 0.03709321 0.050753865 -0.0051495046 -0.14993185 -0.12551036
0.08378274 0.09976304 0.053149913 0.05451523 -0.004870115 0.06798414 -0.15127103 0.09417122
-0.09320297 -0.07825239 -0.04824802 -0.04020959 0.05338514 -0.015144773 -0.055442676 -0.06718814
-0.020014782 0.046477593 0.045552403 0.041678138 -0.048525237 -0.045487802 -0.0046974453 0.037553757
0.16764219 -0.0605305 -0.15259892 0.10643083 -0.030444484 0.14089155 -0.05034602 -0.05127984
-0.11062029 -0.20315166 0.11856368 0.08874424 -0.13801649 -0.010398247 0.12682074 0.12589233
-0.10020548 -0.115546845 0.13920072 -0.04885594 0.07132696 0.004582383 0.04185822 -0.128803
0.14433554 0.10111299 0.19838403 0.1509192 -0.06604018 0.151148 0.12134639 0.017157812
0.03929064 0.050105643 0.10097347 -0.10649413 0.08212592 0.0055733942 0.05265292 0.03679709
0.043442186 -0.21323216 0.013990119 -0.020291349 -0.10078368 -0.04937672 0.010275971 -0.06124695
-0.045124132 0.02148116 -0.060929585 0.06551821 0.029770238 -0.032544214 0.09754917 -0.028634485
-0.09190581 0.10481329 0.18574822 -0.18406288 0.026814705 0.12181982 0.1458443 0.06789418
0.023848033 -0.101336256 0.008680818 -0.11013947 -0.122605965 -0.004103766 0.06810309 -0.068425
-0.34140816 0.025283985 0.11938152 0.086036906 -0.06845008 0.11684336 0.16475888 -0.07785872

network_body._body_endoder.seq_layers.2.bias f4 [256]
00000000: 4b0a e23b c24e 58bc 4fa3 c7bd 4389 07bd
00000010: bfd2 963b ffc9 413c aa36 a43c 599a 173d
00000020: 6a25 15bd 6cb1 93bd 5c01 62bd d2b4 09bd
00000030: bd1f c63c 26cc f6bc 3fc3 66bd 92e4 8fbb
00000040: 24a2 20bd 4c0c a3ba 6df6 97bb d703 b8bb
00000050: 5181 c2bc e935 2abd c880 dfbc 5034 35bd
00000060: 4655 4cbd 12a6 633c ce6b 023d 2664 7abd
00000070: 866a 5c3c 8ea2 acbd eab0 23bb 99b1 e5bc
00000080: 78ba ee3c 43ea c7bd 492b a4bc bf89 96bc
00000090: 5c82 d4bc a557 d2bc 9315 2ebd 868d a2bd
000000a0: 8c0b afbc db73 8e3c 1ddc 4fbd 3f3c 90bd
000000b0: 245d cabb dc4a fdbc 0867 d2bc a6e9 5cbd
000000c0: 03ce a5bd f623 0cbd 2373 1abd e5e4 3cbd
000000d0: 82ae 2bbd 8963 b4bc 5c52 043d 2af9 35bd
000000e0: e9da 34bd 0f8c c33c e5d7 98bd 1eba 973c
000000f0: 394e 40bd bda5 89bc e866 a2ba c414 a6bc
00000100: 67c4 2b3c 51b1 3fbd 6f58 b8bc 2008 2cbd
00000110: 5d27 61bd 86a3 8cbd 37ff 4abd 13f8 01bd
00000120: 2625 993c 1cf5 1b3d dcd9 cd3b 70f9 3dbd
00000130: 9e27 95bb e636 0d3d 21c7 223d 6b45 0e3d
00000140: 4ca4 45bd 9bf2 76bd a962 fc3b 1f11 dfbc
00000150: c10c 063d 6317 cdbc 94f7 3d3d aee0 76bc
00000160: 4252 ebbc 60b3 033d da05 56bd eee7 1cbd
00000170: b3dd 523c cecd 05bd 3b18 f0bc 6c94 b9bc
00000180: 7f38 9bbc cba5 33bd 61b6 12be ebde d23b
00000190: 580b 8bbd 844c 87bd c8d7 b9bc 1450 7e3c
000001a0: 91ab a2bd 129c 2dbd a2e4 983d dfd3 423c
000001b0: 111f 25bd 97e4 9aba e1c0 a13c c035 8fbd
000001c0: ac01 d6bc 7ecc f23a 9b9a 273a 0d16 8cbd
000001d0: b647 443d c965 edbb 664c 58bd 2e5a a1bc
000001e0: 79f1 1bbd ce6a ccbc d691 313c fbc5 fcbc
000001f0: 13c5 6dbc e5c0 413a a69b 30bd 1ea3 253d
00000200: cadb 3a3d 091a 233d 39a5 94bc b9b0 15be
00000210: 00e3 2fbd 0778 d4bc b4de 073c 0a43 a3bc
00000220: f6a0 ec3c 7507 0ebd f5db 583c 2db9 0dbd
00000230: 2b42 d1bc c750 743d b6fe 89bb add0 90bc
00000240: 171f 283d 2ee8 99bb d1a5 8fbc 7285 b9bd
00000250: 8d98 d13b ac0c 8d3d b4e4 26bd db58 983c
00000260: 2a94 16bd 6c72 febc e9d9 53bd 04f6 3fbb
00000270: 44eb b5bd 3c51 6f3c 211f c7bc 00fc 583b
00000280: d020 b93c 96b1 1cbc af01 093c 4b57 14bd
00000290: 436c 78bc 01ae 9ebd c7bc 90bd 0bd1 dabc
000002a0: 4385 88bd e773 17bd c829 7cbb dbf3 b8bb
000002b0: ec29 cebb 0e08 48bd 98b1 99bc f630 613d
000002c0: d674 de3b 4d05 d9bd db15 323c ef58 16bd
000002d0: ffe8 a6bd 54b8 6cbc 269e fd3c a771 9a3c
000002e0: 7e68 8cbc 8eaf 36bc 9e3a bebd cab5 7cbd
000002f0: 4ca6 073d 7178 363c 2782 663c 8b9e 063d
00000300: 25f4 9dbc 2ee2 0a3c cc44 6ebd 1c62 ec3c
00000310: dfa8 81bd 4319 2739 1033 07bd 9628 3dbc
00000320: 0ca5 4ebd d712 803d 4071 00bc 695a 81bd
00000330: 4803 b03b 8eb8 f73c 9517 e2bd 9334 dc3b
00000340: 2d33 e43b af54 ad38 0eb7 28bd cce4 bfbc
00000350: 1281 a6bd 1b2f ee38 f243 fdbc 420e dc3b
00000360: 8436 2ebd 6929 81bc 14f0 a3ba 7d1d 14bc
00000370: 2b8d d5bc f58f dcbd 6845 22bd 80b3 10bb
00000380: 9263 c7bc f2d6 1c3c d431 333d 1a25 35bd
00000390: 8738 7ebd 1b84 08be 6cdc 693c f41f 35bc
000003a0: 560b aabd 59e0 b3bc a62b c33c 5d61 58bd
000003b0: 9aac 63bc 4a53 bdbd eef5 ee3b f7a0 e33c
000003c0: e689 35bd 5640 22bd cdec d0bc cb69 84bc
000003d0: 10c3 01bd bbb2 96bd 364e 7cbd 316a e43b
000003e0: 96c0 0abd 0bd6 b3bc 877a 003d cadd ff3c
000003f0: 532c b33c da75 b5bb fdd0 45bd f649 03be
0.0068981997 -0.013202371 -0.097479455 -0.033089887 0.0046027596 0.011827945 0.020045597 0.03701243
-0.036412634 -0.07211575 -0.055177078 -0.03361971 0.024185056 -0.030126642 -0.056338545 -0.0043912614
-0.03921713 -0.0012439578 -0.0046375305 -0.005615692 -0.023743303 -0.04155532 -0.027283087 -0.044239342
-0.04988601 0.013894575 0.03184109 -0.061130665 0.013453132 -0.08429442 -0.0024977275 -0.028038787
0.02914165 -0.09761479 -0.020040171 -0.01837623 -0.025941066 -0.025676558 -0.042501044 -0.0793715
-0.02136781 0.017389229 -0.050747026 -0.07042741 -0.006175654 -0.030919485 -0.025683895 -0.053933762
-0.08095934 -0.034213983 -0.03770746 -0.04611673 -0.04191447 -0.022020118 0.032305107 -0.044427074
-0.04415408 0.023870496 -0.074630536 0.018521365 -0.0469496 -0.016802663 -0.0012390288 -0.020273574
0.010483838 -0.04679996 -0.022503106 -0.041999936 -0.05496918 -0.06867127 -0.049559798 -0.031730723
0.018694472 0.03807555 0.0062820744 -0.04638046 -0.004551842 0.034476183 0.039740685 0.03473417
-0.04825239 -0.06028996 0.007702191 -0.027229844 0.032727007 -0.025035566 0.046378687 -0.015068216
-0.028725747 0.032153487 -0.052251674 -0.038307123 0.01287024 -0.032666974 -0.029308429 -0.02265378
-0.018947838 -0.043859284 -0.14327385 0.0064352653 -0.06789273 -0.06606391 -0.0226859 0.015522022
-0.0794288 -0.04238517 0.07465483 0.011891334 -0.04031283 -0.0011817393 0.019745292 -0.06992674
-0.026123844 0.0018524078 0.00063935824 -0.06840143 0.04791995 -0.0072447998 -0.052807234 -0.019696321
-0.038072083 -0.024953272 0.010837993 -0.030856123 -0.014512318 0.0007391109 -0.043117188 0.040438764
0.045619763 0.03981975 -0.01814519 -0.14618196 -0.042941093 -0.02593614 0.008292843 -0.019929428
0.028885346 -0.03467508 0.013236036 -0.034600426 -0.025544247 0.059647348 -0.004211272 -0.01767763
0.041045275 -0.0046968674 -0.017535122 -0.09058656 0.0063963593 0.068871826 -0.040745452 0.018597057
-0.036762394 -0.03106042 -0.051721487 -0.0029290924 -0.08882764 0.01460677 -0.024306836 0.0033109188
0.022598654 -0.009563824 0.008362218 -0.03621606 -0.01516253 -0.07748032 -0.070672564 -0.026711008
-0.06666043 -0.036975767 -0.0038477052 -0.005644304 -0.0062916186 -0.048835807 -0.018761441 0.054978333
0.0067888303 -0.10596714 0.010869469 -0.036705907 -0.08149909 -0.014448244 0.0309592 0.018853022
-0.01713967 -0.011150254 -0.09288524 -0.061696805 0.033117577 0.011137114 0.014069117 0.032866042
-0.019281456 0.008476777 -0.05817108 0.028855376 -0.06331038 0.00015935772 -0.03300768 -0.011545321
-0.05045037 0.062535934 -0.007839501 -0.063160725 0.005371485 0.03023937 -0.11039654 0.0067201345
0.0069641084 8.2650564e-05 -0.0411902 -0.023424529 -0.08130087 0.000113574984 -0.030916188 0.006715567
-0.04253246 -0.015766816 -0.0012507462 -0.009040234 -0.02606829 -0.10769645 -0.039616972 -0.0022079647
-0.024339471 0.009572731 0.04374869 -0.044224836 -0.062065627 -0.13331644 0.014273744 -0.0110549815
-0.083029434 -0.021957563 0.023824524 -0.052827228 -0.013896132 -0.09244402 0.0072925007 0.027786715
-0.044320963 -0.039612137 -0.02550354 -0.016163727 -0.031680167 -0.07358309 -0.061598025 0.006970667
-0.03387507 -0.02195265 0.03136685 0.031233687 0.021871721 -0.0055377306 -0.04829501 -0.12821183

network_body._body_endoder.seq_layers.2.weight f4 [256, 256]
00000000: b0ee c9bd 2fa1 eabd 0947 0fbe 5f7b f1bd
00000010: 9d0c d63d 25c5 1abe 8503 61bd 2b3e c3bd
00000020: e2a9 8c3d 1327 47be 6c79 d93c df1c 6ebd
00000030: 51f5 74bd 6555 b03c 00aa 2ebe 5dad d53d
00000040: 3d59 74bd dfd9 c43d c85a 2cbe a013 8d3c
00000050: fb4d 6dbe ce29 2dbe 77de 7cbd babd 1ebc
00000060: cd38 723d 8ab2 973d a113 7abb 5e45 15be
00000070: aa2b 2cbd 30ee 753d 17fe eabc 98ee 0abd
00000080: ef2f 593c 89a9 b5bd 3405 163d 6832 423c
00000090: 1ce1 c1bc 35f3 ba3c 07d5 033d 8eaf 1fbc
000000a0: 7cd6 81bd 3b5f 3ebe 96aa 793d a509 ccbd
000000b0: 9207 893d 0fcb 7cbd defe 10be 97de 3cbe
000000c0: 608f 7e3d 2f39 d33b 10ce 20bd 23ea 073e
000000d0: 1abc 3ebe eb65 723d 94e0 0bbe d81d 5c3d
000000e0: 9670 6c3d cac7 e43d 5189 3d3e f2d9 d1bd
000000f0: 782f d03d 4862 733d c07b 983d b349 6c3c
00000100: d3cb fabc 0ed2 b7bc 6697 b93d 7f82 1e3d
00000110: 52a8 32be 86ef 11bc d16a 22be efe1 f2bc
00000120: 7ad5 923c 5591 3ebe 7594 c2bc 03cb 94bd
00000130: b556 4b3d 2a8b 513d 4156 cbbd cad6 5c3d
00000140: 95ca 7abe b02f 333e 3437 ff3c c1ac 4cbe
00000150: bd47 843d ef86 0abd c559 e4bb ed85 60bd
00000160: 34bf 92bd 0240 6e3e 6de8 f53d 3a5d 043d
00000170: 874c 30bd 1567 e6bc 1738 71bd 9509 e03d
00000180: 4ddc aebd dde0 1abe b47d c23d 711f efbd
00000190: e162 993d d1ed 0dbe 552b 9cbd 9817 473e
000001a0: 446f 34be 89d9 ee3c d17f 093d 9aa4 263d
000001b0: a0aa 8c3d 3a25 ef3d a1a3 003d a5ee 993c
000001c0: 7e71 46bd 4643 d93d 5989 703e 14fa 22bc
000001d0: 8def dcbd 3ac5 20be 0f56 adbd c57a 2abe
000001e0: 9ea7 c4bc f3b2 60be 0356 9ebd cad8 5e3c
000001f0: 56a2 febc 5348 843e 7ebf 0fbe 1434 f9bc
00000200: fae0 643d 375f 60be 49b0 27bd 0006 3d3e
00000210: 8ee2 213c 5fff 80bc 983d 36be 2310 26be
00000220: bc11 44be 9a8c be3d f3d9 233d 0bb6 9d3b
00000230: bf95 4abb d93b 223e b628 4dbb eaf1 c3bd
00000240: 2348 cabd f748 fc3d 430d afbd 2993 913d
00000250: 5467 32bd fedc b43d 5532 1e3d 0745 11be
00000260: 7e2c bbbc 9968 403c 885a 0d3e 0280 793d
00000270: 3199 d13c b983 203d f719 eebd ab55 353e
00000280: 5748 023d bf0a cb3d fc1a 843c 2a80 873e
00000290: fcac d8bc 9bee 003d fedf b9bc 46d8 57be
000002a0: f568 483d 78d1 a13d 00b0 2cbd 4613 21be
000002b0: 33d4 f4bd d0f6 f53d 8b69 94bd a8ac b93a
000002c0: 8fc6 11be 24b6 253d 6d80 f83d 00b5 c73d
000002d0: 3969 97bc fcca b0bd 2540 b6bd 095f f63c
000002e0: 12a9 243e a8a5 893d 4719 ebbc 532f e1bb
000002f0: 8d66 0dbe 576c c1bd 1cf6 923b c40f 113e
00000300: bc98 ea3b 833a 4dbd 3a5f cc3c b246 5cbd
00000310: 9739 8fbc a7da 28be b851 a8bd b7c3 573e
00000320: bfa4 b5bc 1b10 a7bd 61f4 4a3c c04f 89bd
00000330: 8ca6 383e 7695 58bd 63aa 8e3e 9f13 96bd
00000340: cfe1 353e f6e5 9f3d 7644 0cbe a2b6 ce3c
00000350: 1a35 16bd 2a56 23be eea5 13be ebaf 06be
00000360: 81a6 57bc aba8 05bc d267 0b3b 7d40 b4bd
00000370: c559 153d 3e44 a53c 0fb1 0cbd 6490 973d
00000380: e676 b3bd 52ec 8ebd a7c9 1ebd a914 27ba
00000390: af37 073e 4d94 9dbc aac6 91bd 5cba 1d3c
000003a0: 22a9 33bd 28c5 b23d d476 8dbc 3e3f a1bb
000003b0: d19e debd 69fb 513d 95d0 18be 2f39 08be
000003c0: 40f6 963d 9974 c5bd a12f 7abd 5fce 2ebe
000003d0: 34e4 8fbe ba31 e83c 816c 86bc 55f0 d03d
000003e0: 1e77 b0bc 4180 d83d dd3e c93d cf91 3a3b
000003f0: 0c03 18ba a66b efbd 146d 95bd 9f5b 48bd
-0.09859979 -0.114565246 -0.13991942 -0.11791109 0.104516245 -0.15114267 -0.054934997 -0.09533342
0.0686834 -0.194485 0.026547156 -0.058133002 -0.059804264 0.021525094 -0.17057037 0.10433457
-0.059655417 0.09611868 -0.16831505 0.017221272 -0.23174278 -0.16910478 -0.061735597 -0.009688789
0.0591362 0.074071005 -0.0038158672 -0.14577243 -0.04203383 0.060041606 -0.028685613 -0.033918947
0.013256057 -0.08870227 0.036626056 0.011852838 -0.02366691 0.022821048 0.03218558 -0.009746445
-0.06339738 -0.18591015 0.0609537 -0.09962777 0.06690897 -0.06171709 -0.14159724 -0.18444286
0.06214845 0.006446026 -0.039259017 0.1327291 -0.18626443 0.059179228 -0.13659889 0.0537394
0.057724558 0.11170919 0.18509413 -0.10246648 0.10165304 0.0594199 0.074454784 0.014421868
-0.03061477 -0.022439029 0.0906208 0.03869867 -0.17447022 -0.0089072045 -0.1586106 -0.02964875
0.01792406 -0.18610127 -0.02375243 -0.07265284 0.049643237 0.051158108 -0.09928561 0.053915776
-0.24491341 0.1749866 0.031154253 -0.19987775 0.064589955 -0.03382009 -0.006968709 -0.05481522
-0.07165375 0.23266605 0.12007222 0.03231547 -0.043041732 -0.028125325 -0.058891382 0.109393276
-0.08538113 -0.15124841 0.09496632 -0.11675919 0.07489563 -0.13860251 -0.076254524 0.19442594
-0.1762057 0.029156463 0.03356916 0.04068432 0.06868482 0.11677022 0.03140605 0.018790552
-0.04844808 0.106085345 0.23489894 -0.009947319 -0.10787878 -0.15700236 -0.0846368 -0.16648395
-0.024005707 -0.21943264 -0.07731249 0.013601491 -0.031083267 0.2583643 -0.14037892 -0.03042034
0.055878617 -0.21911322 -0.040939603 0.1845932 0.009880675 -0.01574677 -0.17796934 -0.16217093
-0.1914739 0.09304161 0.040002774 0.004812961 -0.003091201 0.15843143 -0.0031304783 -0.09567626
-0.0987704 0.123186044 -0.08547451 0.07108147 -0.043555573 0.088312134 0.03862222 -0.14186488
-0.022848364 0.011743688 0.13804066 0.060913093 0.025585743 0.03918812 -0.11626046 0.17708461
0.03180727 0.09914159 0.016126148 0.2646497 -0.026449673 0.031477552 -0.022689816 -0.21078596
0.04892822 0.07901281 -0.042160034 -0.15730008 -0.11954536 0.120099664 -0.07246693 0.0014165835
-0.142359 0.040456906 0.1213387 0.0975132 -0.018482791 -0.08632466 -0.08898953 0.030074613
0.1608012 0.067210495 -0.028698577 -0.0068720966 -0.13808651 -0.09444492 0.004484905 0.1416617
0.0071593206 -0.05010463 0.024947751 -0.053778358 -0.017483516 -0.16489659 -0.082187116 0.21070753
-0.022173284 -0.08157369 0.012387366 -0.06704664 0.18032283 -0.052876912 0.2786437 -0.07327961
0.1776192 0.078075334 -0.13697991 0.02523357 -0.036671735 -0.15950838 -0.14418766 -0.13153045
-0.013162256 -0.008157889 0.0021271599 -0.08801363 0.036462564 0.020174142 -0.034348544 0.07400587
-0.087629125 -0.06978668 -0.03876653 -0.0006373623 0.13204835 -0.019235754 -0.0711797 0.009626951
-0.04386247 0.08729011 -0.017268576 -0.004920869 -0.108701356 0.051265154 -0.14923318 -0.13303064
0.07371187 -0.0964138 -0.06108058 -0.17070912 -0.28103793 0.028344024 -0.01640916 0.1020209
-0.021541175 0.105713375 0.09826443 0.0028468256 -0.0005798794 -0.11690454 -0.072961956 -0.0489155
