Assets/TFModels/Other models trained in the process/Striker2-selfplay.onnx (onnx, 660452 bytes, 6 tensors)

action_model._discrete_distribution.branches.0.bias f4 [7]
000000 41 19 e7 bc ee b5 9e 3d b0 50 3d 3c 59 e2 39 bd
       -0.028210284 0.07749544 0.011554882 -0.045381878
000010 56 8e a6 bb cf d2 44 bb 47 db 0e bd
       -0.0050828857 -0.0030032878 -0.034877088

action_model._discrete_distribution.branches.0.weight f4 [7, 256]
000000 75 ad 66 bd 38 aa df bd d0 e0 0b bd a3 46 c5 bd
       -0.056317765 -0.109211385 -0.034149945 -0.096326135
000010 67 f9 11 bd ef 3e a7 bc 46 00 16 ba bc e7 d8 bc
       -0.03563824 -0.020415751 -0.00057220866 -0.026477687
000020 77 6a 06 bd 67 6c ac 3c a4 9f 7e bd 34 35 3b bd
       -0.032816377 0.021047784 -0.062163964 -0.045705035
000030 01 51 f4 3c 98 70 ea bc 2b 06 f2 bc e8 45 27 3d
       0.029823782 -0.028618142 -0.029543957 0.040838152
000040 6c 6c 81 bd ba 20 38 bd 15 49 42 3c 27 ec e4 bd
       -0.06319508 -0.044953085 0.011858244 -0.11177855
000050 0e bc 3f 3c 54 89 2c bd 26 49 4b 3c cf ef 0f 3d
       0.011702551 -0.042123154 0.012407577 0.03514081
000060 6e 49 cf bc ee 51 6f bc f9 bd 31 3d d0 16 2d 3d
       -0.025303569 -0.014606936 0.043394063 0.042258084
000070 d4 0e 65 bd c8 80 ac 3c 3f f7 a0 3c 96 ea 13 bd
       -0.055922344 0.021057501 0.019649146 -0.03611239
000080 25 5d c8 bc 45 48 6c bd e3 13 c1 bc 9a f8 20 bd
       -0.024458477 -0.05768611 -0.023569053 -0.039299585
000090 e7 f7 78 bd d2 73 11 bd bf 0d 6a 3d 3c 31 74 bc
       -0.060783293 -0.035510845 0.057142016 -0.0149043165
0000a0 5d a3 77 bc 18 cb 95 bd 25 c8 92 bd 88 d5 a0 bd
       -0.015114632 -0.07314128 -0.07167081 -0.07853228
0000b0 e3 a4 75 bc c5 16 20 bd bc ec 81 3c 2d 38 c7 bc
       -0.014992925 -0.039084215 0.015859954 -0.024318779
0000c0 21 db b5 3c f6 11 4b bd 30 d8 4b 3d 3e 68 8d bc
       0.022199215 -0.049577676 0.04976672 -0.01726162
0000d0 d7 5c 62 bd 91 3a 9b bc 6e df 0b 3d c4 d4 f5 3c
       -0.05526432 -0.018948825 0.034148626 0.030008681
0000e0 3d ab 40 bc f1 45 76 bd 70 b1 d0 3b 75 c0 13 bc
       -0.011759576 -0.060125295 0.0063688084 -0.009018053
0000f0 e6 2d e5 bd 10 04 0a be 5e 7a a2 3d 1f c6 bc 3c
       -0.11190395 -0.13478112 0.07933496 0.02304369
000100 90 35 bf bb 84 21 e8 ba 66 97 db 3c f3 d8 de bc
       -0.0058352426 -0.0017710184 0.02680559 -0.027203059
000110 12 bc 98 3b 82 1b 7f 3d 88 6c 3e bd 28 cc d3 bc
       0.0046610916 0.062282093 -0.046490222 -0.025854185
000120 bb bc b2 bc 66 d0 0c bd b8 16 8c bc 57 3a 0e bd
       -0.02181851 -0.03437843 -0.017100677 -0.034723606
000130 6b 81 a9 bc 53 97 a0 3c d0 be 41 3d 92 39 2a 3c
       -0.020691594 0.019603407 0.047301114 0.010389702
000140 c6 39 69 bd f3 4a 17 3d 7b fb 64 bd 78 f2 9b bd
       -0.056939863 0.03693671 -0.055903893 -0.076146066
000150 05 d1 1f bd f4 c1 08 bd 93 2b e5 bc e5 73 ad 3b
       -0.039017696 -0.033388093 -0.02797488 0.0052933567
000160 d7 4d 89 bd 8d 18 94 3d f1 85 af 3b cd b2 89 bd
       -0.067043 0.07231245 0.005356543 -0.06723557
000170 74 4c b8 bc ee 65 8c bd a7 70 06 3d 91 a5 68 3d
       -0.022497393 -0.06855379 0.032822277 0.05679852
000180 be f9 4e bd ed 06 43 3d 00 c9 68 3d 9e 3d 2e bc
       -0.05053114 0.047614027 0.056832314 -0.010634808
000190 d5 af 1f bb 40 88 20 bd 7f b7 4d 3c 9f 00 16 bd
       -0.0024366279 -0.039192438 0.012555956 -0.036621686
0001a0 2d b9 03 3b 05 d7 37 bc 67 34 7d 3d 12 35 66 bd
       0.0020099387 -0.011220698 0.061817553 -0.056202956
0001b0 cc d2 26 bc b0 12 74 3c d7 83 13 bd 88 a0 b6 bc
       -0.010182094 0.014897034 -0.036014404 -0.022293344
0001c0 60 41 8f bc 54 74 0e bd d0 6d 23 3d da 19 47 bd
       -0.017487228 -0.034778908 0.039899647 -0.04860864
0001d0 78 a9 e7 bc 2a 8f a9 3c 1e d7 12 3c 13 d7 30 bd
       -0.028279051 0.020698149 0.008962421 -0.04317386
0001e0 4c 23 4d bd 7e 1d fb bc c7 7d cb 3c dd b2 a4 bd
       -0.05008249 -0.030653711 0.024840249 -0.08041928
0001f0 48 57 91 3c a9 27 ab bc 75 cc a8 bb fc bb e1 bc
       0.017741814 -0.020892935 -0.0051513263 -0.027555458
000200 7a 5e 42 bd 44 50 76 bd d4 94 21 b9 af 4d be bd
       -0.04745338 -0.06013514 -0.000154096 -0.09292161
000210 c1 1f 34 3b 6e ed 15 3c 0c 25 cc bd 78 0d 1f bd
       0.0027484747 0.009150846 -0.09968004 -0.038831204
000220 38 33 e6 3c c0 40 63 bc b9 d7 7f bd fb 4f 4e bc
       0.028100595 -0.013870418 -0.06246159 -0.012592311
000230 79 92 82 bb 14 cf a5 bc b5 48 a9 bc e6 cd c9 3c
       -0.003984746 -0.020240344 -0.020664552 0.024634313
000240 ec 7c f5 bb 36 21 78 3b 73 ad 95 bc 30 f3 c5 3a
       -0.0074916985 0.0037861592 -0.018271184 0.0015102383
000250 4e 0c bd 3c e6 0b 03 3c a8 e4 29 3d ba e4 10 bd
       0.023077156 0.007998442 0.04147783 -0.03537438
000260 2b 7c ac 3c 25 93 cb 3c 2e 38 3b 3b 16 3c c0 3b
       0.021055302 0.024850437 0.0028567421 0.005866538
000270 b9 d7 71 3c 5f a2 ce bd b3 d0 59 bc a4 a3 75 bd
       0.014760905 -0.100895636 -0.013294387 -0.059970513
000280 f2 fd 29 3c f5 78 74 3c b2 94 69 3c 63 f3 25 bc
       0.010375487 0.0149214165 0.014256643 -0.010128829
000290 5e 16 33 bd c9 b9 18 bd 50 3e cc bc 96 f5 cd bb
       -0.043722503 -0.037286554 -0.024932057 -0.0062853796
0002a0 ae a8 03 3d 36 36 5e 3c 28 b0 93 bd 87 95 94 bd
       0.032143287 0.01356273 -0.072113335 -0.072550826
0002b0 16 65 3e bc 84 22 5e bd 59 99 d1 3c 00 3e ba 3c
       -0.01162078 -0.054232135 0.025585817 0.022734642
0002c0 8a 09 af 3d 3a 8a 52 3d 90 46 a7 bc 6a 0e 02 bd
       0.08546741 0.051401354 -0.020419389 -0.031752028
0002d0 b1 ca f8 bb 21 a9 32 bc be 30 f8 bb 75 84 17 3d
       -0.007592522 -0.010904581 -0.00757417 0.036991555
0002e0 e4 37 8f bc f5 1c 57 3c e7 a2 e1 bb 70 f2 7f 3c
       -0.017482705 0.0131294625 -0.0068858746 0.015621766
0002f0 13 bf 71 bc d0 f8 08 3d 72 e8 88 bd a2 99 36 bd
       -0.014755028 0.03344041 -0.066849604 -0.04458011
000300 23 6f a7 3c 05 9f 02 3c c5 6f 11 bd 1e 57 11 3c
       0.020438736 0.0079724835 -0.035506982 0.008870868
000310 71 5d fb 3a 04 59 2c 3d 47 dd 43 bd ef 5e ae 3c
       0.0019177628 0.04207708 -0.04781845 0.021285502
000320 f6 56 89 3c a7 fd b4 bd cd 2e 1c bd bd e9 63 bd
       0.016765099 -0.08837443 -0.03813057 -0.055642832
000330 85 df 15 bc 84 15 0a bd a5 40 e5 3c 59 d1 ac bc
       -0.0091475295 -0.033711925 0.027984926 -0.021095918
000340 d3 21 c3 3b 87 05 b0 3c 3f 49 32 bc ea 28 6a 3c
       0.00595496 0.02148701 -0.010881721 0.014291981
000350 1e 0f 60 3d e4 3d 09 3d f9 a5 52 3d 24 bf 88 3c
       0.054701917 0.03350629 0.051427815 0.016692705
000360 32 d8 e4 bc 8c 56 a1 3d ff b1 46 3d 26 15 8d 3d
       -0.027935121 0.07877836 0.048509594 0.06888799
000370 2f d8 5e bc a4 51 a8 bc f6 ef 87 bd c5 dd 98 3d
       -0.013601347 -0.020546742 -0.06637566 0.07464174
000380 63 3a 84 3c 29 e5 82 3d da bf e6 bd 56 8c 8f bb
       0.016141122 0.06391365 -0.112670615 -0.004380743
000390 1d 10 7b 3d 08 50 d6 bb 37 cb c2 bb 4c b1 6c bd
       0.061294664 -0.006540302 -0.0059446353 -0.05778627
0003a0 7b 18 2c bd 77 3d 4b 3d 7e 92 9f bd d7 0f 8e bd
       -0.042015534 0.049619164 -0.07791613 -0.06936615
0003b0 e8 36 2c 3c 67 d5 1c 3d f1 f3 16 3a 3d 45 a0 3c
       0.010511138 0.038289454 0.0005758396 0.019564265
0003c0 4d 47 45 bd 78 e3 67 bd 79 25 1f bd b8 90 20 3c
       -0.0481637 -0.056613415 -0.038854096 0.009800129
0003d0 76 6a 81 bd 63 be 48 3d c4 78 98 3c 97 48 20 bd
       -0.06319134 0.049009692 0.018612273 -0.039131727
0003e0 31 d9 23 3d d3 0b d4 3b 33 ff 15 3d 6f 05 29 bd
       0.04000205 0.006471136 0.03662033 -0.041264948
0003f0 bd 03 7e bd 56 8a a5 3c 74 63 08 3d 9a 4e 77 bc
       -0.062015284 0.020207565 0.03329797 -0.015094424

network_body._body_endoder.seq_layers.0.bias f4 [256]
000000 ef b4 76 bc 2f 9a cd 3b fe 2e e7 bc 24 b7 4c 3c
       -0.015057786 0.0062744836 -0.02822065 0.012494836
000010 b5 98 77 3c c5 65 24 bc f6 16 cf bc 64 16 64 bc
       0.015112092 -0.010034029 -0.025279503 -0.013921354
000020 16 c9 6b 3c 8f 01 3e bd 1b a0 94 bc 40 6d 9b 3b
       0.014391204 -0.046388205 -0.01814275 0.004743248
000030 9a c0 c3 3c 0b 84 a5 3b 92 b5 e7 3c 65 f0 80 3c
       0.02389555 0.005051141 0.028284822 0.015739629
000040 75 3d c5 bc 41 c5 ae 3b 20 98 ca bc 86 a3 20 3b
       -0.024077157 0.005333573 -0.024730742 0.002451153
000050 f2 44 3c bc a1 4b 34 3c db dc 92 bb db 25 c2 3c
       -0.011491047 0.011004359 -0.0044818944 0.023699692
000060 c0 cb 78 bc 53 04 5c bd d2 b9 90 3b 62 dc 13 bd
       -0.015185297 -0.05371506 0.0044166828 -0.036098845
000070 20 7b be bb 5a f0 26 3a 86 f0 e5 bc df b4 16 3a
       -0.0058130175 0.00063682126 -0.028068792 0.0005748998
000080 c5 83 11 3b bf 55 36 3d 9d 7e f4 bc bf 94 b7 bc
       0.0022203785 0.044515368 -0.02984553 -0.022409795
000090 ce 1b d5 bb 18 48 e4 3b fa ac 5e bc 01 d3 b2 3a
       -0.0065035587 0.006966602 -0.0135910455 0.0013643206
0000a0 91 c3 32 3c c8 e0 b2 ba 40 55 c6 bc f2 2f e8 bc
       0.0109108845 -0.0013647312 -0.024210572 -0.028343175
0000b0 2e 23 02 3b ef 91 8b bc 19 08 da ba 5e c8 0b bd
       0.0019857395 -0.01703736 -0.0016634493 -0.034126632
0000c0 3a 5d c0 bc ad 12 ea 3c 5d 66 81 bb 72 43 e2 bc
       -0.023481954 0.028573358 -0.00394897 -0.027620051
0000d0 d0 8a 31 bb cd ad 9c bb 92 3e 46 3c e2 b0 1a bc
       -0.0027090795 -0.004781461 0.012099879 -0.009441586
0000e0 84 f2 83 3c 6f 20 77 bb 11 e6 b6 bd 09 f5 51 bc
       0.016106851 -0.003770854 -0.089306004 -0.012814769
0000f0 e3 8d 2c 3c 52 48 a2 3c 1a 04 02 bd 5b c5 fb bc
       0.010531875 0.019809876 -0.031742193 -0.030733755
000100 fb 49 38 bb 79 68 a2 bc 57 5d 3e bd 0f 82 fb 3b
       -0.0028120268 -0.019825207 -0.046475735 0.0076754163
000110 ee d0 20 3c e9 e7 2a bc dc 51 be 3c ec 77 ee 3c
       0.009815438 -0.010431268 0.023232393 0.029109918
000120 99 e4 13 3d 32 f9 01 bd a2 80 22 bc 89 dc b1 3c
       0.03610668 -0.03173179 -0.009918364 0.021711605
000130 ba ce 28 bc 67 59 02 bc dc f5 00 3d 0d a1 e7 bc
       -0.010303194 -0.0079558855 0.03148447 -0.028275037
000140 76 74 87 bd ae 0d f7 3b 17 f2 ed bb 0f b7 cb bc
       -0.0661401 0.0075394725 -0.0072615254 -0.024867563
000150 da f9 ae bb 1e 71 1b bc 72 ef a9 bb 9a b9 39 3c
       -0.005339843 -0.009487418 -0.005186015 0.011335755
000160 e9 07 f1 3c d4 a3 43 bd 29 fc 2e bd 9b 58 f8 bb
       0.029422717 -0.04776366 -0.042720947 -0.007578922
000170 70 e5 14 bc a0 81 02 3d 02 df 29 3b ef cb 51 bc
       -0.009087905 0.0318619 0.0025920277 -0.012804969
000180 59 31 81 bd df 1f 7b bc 3d 64 d0 3c e2 50 72 bc
       -0.063082404 -0.015327423 0.025438422 -0.014789792
000190 3e 7c 29 bc ff 3a d0 3b 2e 24 13 bc 89 11 72 3c
       -0.010344563 0.006354689 -0.008980794 0.0147746885
0001a0 e5 09 00 bd ba 38 b9 bb c0 34 9e bc fe 10 e3 bc
       -0.031259436 -0.0056525143 -0.019312263 -0.027718063
0001b0 46 46 ec bc dc 29 17 bc f2 8c d8 bc 10 95 4a bd
       -0.028842103 -0.009226289 -0.026434395 -0.049458563
0001c0 bf 66 23 bc 09 7e f3 bb 7f 63 b3 3b 79 42 c8 3c
       -0.009973227 -0.007430796 0.0054745073 0.02444576
0001d0 ac df 37 bd 53 9b 15 bc b0 fa 3a 3c cc f4 af 3b
       -0.044891044 -0.00913127 0.011412308 0.0053697582
0001e0 c7 04 eb bc 47 8e ab bb cd 90 3b bc f5 72 76 bd
       -0.028688801 -0.0052354666 -0.011448097 -0.060168225
0001f0 8d 8e 42 3c 2b d9 0e bc 13 66 9b 3c 11 42 73 3c
       0.011874807 -0.008718769 0.018969571 0.014847294
000200 ec 1d 00 3b e4 8d 77 bc a3 ab 5e 3c 0b d6 15 3c
       0.0019549085 -0.015109513 0.013590726 0.00914527
000210 75 ed 0c 3d f8 87 e7 bc be bf c8 bb 0d 4b 69 bb
       0.034406144 -0.028263077 -0.006126373 -0.0035597712
000220 49 39 39 bc 41 68 f5 3b a1 ac 74 3c 3b 3a b1 3c
       -0.011305162 0.0074892347 0.014933736 0.021634212
000230 0d fd a7 3c 8e ad ee 3b c3 6d ea bc fc 33 5b bc
       0.020506406 0.007283873 -0.028616792 -0.013379093
000240 0e 20 dc 3a 60 4f b9 bc 74 44 1a bc 68 61 0f bd
       0.0016794221 -0.022620857 -0.009415735 -0.035005003
000250 f5 b8 8c bb 60 55 00 3d 4a e0 5b bc e4 0d 5f bc
       -0.0042945095 0.03133142 -0.013420174 -0.013614152
000260 1b 21 90 3c 62 0d ac bc b2 44 cf 3c 84 fa 1f 3a
       0.01759391 -0.021002475 0.025301311 0.00061026984
000270 c4 a5 e8 3c 1c 82 e3 3b 7d cd 60 b9 83 9e 13 3c
       0.028399356 0.0069430005 -0.00021438855 0.00900996
000280 8c 13 17 bd b5 44 b6 3c e1 65 7b 3c 7d aa 9d bd
       -0.036883876 0.022249559 0.015344114 -0.07698534
000290 49 f6 50 bc a1 7b 12 3d c5 5e 18 bd 2f 9d 16 bb
       -0.012754031 0.035762433 -0.037199754 -0.0022981872
0002a0 cd 06 96 3a 93 f3 05 be 17 92 e9 bc cb de 50 3c
       0.0011446119 -0.13081197 -0.028512044 0.0127484305
0002b0 c5 df e8 bc 70 97 a5 3b 62 cd 28 bd 9e ad ad 3c
       -0.028427014 0.005053453 -0.041211493 0.021200951
0002c0 da c0 80 bd 6d c9 cf bb ba 38 a0 bc b1 36 8f bc
       -0.062867835 -0.0063411505 -0.0195583 -0.017482134
0002d0 cf f8 23 bb a6 fa 5b 3c 54 74 f5 3c 46 b4 3b 3c
       -0.0025020128 0.013426458 0.029962696 0.011456555
0002e0 ca 43 6c 3c 0f 62 fd 3b 69 0e b0 ba a2 53 8f bc
       0.014420459 0.0077326368 -0.0013432029 -0.017495934
0002f0 7d bf d8 bc d8 74 55 bd f6 2b 14 3b 36 47 ce 3c
       -0.026458496 -0.052113384 0.002260921 0.02518044
000300 4b 33 3c bc 30 19 53 ba 67 f8 1e 3c 83 d8 7b ba
       -0.011486839 -0.00080527645 0.009702778 -0.0009607153
000310 ea 99 71 3c 21 66 ec 3c b5 57 85 bb 9d 9c f6 bc
       0.014746169 0.028857293 -0.0040692934 -0.030103976
000320 49 80 6a bc 30 c5 44 bb 74 bb ba bb f7 52 a3 bc
       -0.014312812 -0.003002476 -0.0056986157 -0.019937022
000330 8d d0 14 3b eb dc 04 bd eb 4b 05 bd 49 42 b9 3a
       0.0022707314 -0.032437246 -0.032543104 0.0014134134
000340 46 67 8e bc 2f a0 d9 bc 93 50 c4 bb 48 0f d3 3c
       -0.017383229 -0.02656564 -0.0059910505 0.025764123
000350 4b de 1c 3c 97 a4 d8 bc 10 48 8b 3c 5f e9 cd ba
       0.009574483 -0.02644567 0.017002136 -0.0015709809
000360 30 52 ea bb ba 40 2b bc 5f 8c 04 3d c6 7e b7 bc
       -0.007150911 -0.010452444 0.03236043 -0.022399317
000370 6b dc 2a bb 43 93 2b bd c5 93 5a ba 84 10 39 3c
       -0.002607132 -0.041888487 -0.00083380594 0.011295442
000380 38 62 94 bc 29 49 fb bb 25 7f ef bb 7c 77 9f 3c
       -0.01811324 -0.0076686335 -0.007308858 0.019466154
000390 c6 d6 d5 bb ff df 07 3c fe c1 bc bd 6e 4c c6 3c
       -0.006525847 0.008293151 -0.092166886 0.024206366
0003a0 27 8c 32 bc e3 64 9c bc 1a d9 57 bb 0f 80 c1 3c
       -0.010897673 -0.019091075 -0.00329358 0.023620633
0003b0 29 62 07 bd 2d 46 b8 bb ba c0 a4 bc ba 1f 47 3c
       -0.033052597 -0.0056236 -0.02011143 0.01215356
0003c0 33 fb db 3b 7b 17 ce bc 69 f7 58 ba 45 05 b4 bb
       0.006713295 -0.02515768 -0.0008276613 -0.0054937922
0003d0 86 6e 7c 3c 2e 0f b7 bc 69 bc 1e bc b1 71 8b 3c
       0.01540721 -0.022346105 -0.009688475 0.017021986
0003e0 77 6d 02 3d 3a 57 a7 bb e9 8f ed 3b c1 dd fc 3b
       0.031842675 -0.0051068338 0.0072498214 0.007716865
0003f0 c5 77 42 ba 08 16 96 bc 2f 1f 43 bb eb c8 13 3c
       -0.000741836 -0.018321052 -0.0029773226 0.009020071

network_body._body_endoder.seq_layers.0.weight f4 [256, 378]
000000 7e 6a 48 3e 94 53 ce 3a f1 8e b3 bc e5 84 92 bd
       0.19571874 0.0015741461 -0.021918746 -0.07154254
000010 6f f8 eb 3d 80 97 c2 bd 54 51 09 3d 4a 6e df 3b
       0.11521994 -0.095015526 0.033524826 0.0068185674
000020 41 98 93 bd 4b f7 a5 3d 2b 22 4b 3b 4c aa ee bb
       -0.072067745 0.08103808 0.0030995707 -0.0072834846
000030 64 79 0a 3c c2 f1 90 bd 5b 77 e8 bd ec 68 9c bd
       0.008451793 -0.07077362 -0.1135089 -0.076372
000040 c0 6c fd bd 72 4e 0d 3e 0d 42 c1 bd 52 f8 1b bb
       -0.12374258 0.13799456 -0.09436426 -0.0023799133
000050 a0 e2 f6 bc 86 84 50 3d 0f 43 2a be 98 99 fc 3d
       -0.03013736 0.050907634 -0.16627143 0.12333983
000060 4f 23 74 3d 7b 4a 69 bb 2a e7 0b be 71 ce 40 3d
       0.059603985 -0.0035597372 -0.13662401 0.047071878
000070 de 65 f1 3c fb 6b 35 3d 39 86 92 3c a1 5f de 3d
       0.02946752 0.04429243 0.017886268 0.108580835
000080 6a 1f 63 be 67 e7 47 bc cd 4b 95 3c 82 f6 54 3d
       -0.22179952 -0.012201167 0.018224621 0.0519929
000090 bc c8 8a 3d fc 16 2a 3d 80 77 01 bd be 7a 0f 3e
       0.06776568 0.041525826 -0.031608105 0.14011666
0000a0 3e b2 15 3e c7 da 06 be 60 06 7c bd d6 ce c0 3d
       0.14618775 -0.13169394 -0.061529517 0.09414451
0000b0 01 28 89 bd 80 a3 a5 bd 58 87 6e bd d9 e2 47 3e
       -0.06697083 -0.08087826 -0.058234543 0.1952013
0000c0 8a 73 ba bc b3 53 fa bd 30 ca 70 3c 75 a0 1e bd
       -0.022760171 -0.122229956 0.014696643 -0.038727242
0000d0 4d 48 8f 3b 35 a5 18 be 61 e1 d6 3d df 82 69 bd
       0.0043726326 -0.14906771 0.10492206 -0.057009574
0000e0 ca f4 3a 3d b5 78 01 bd c1 4d 28 bd f3 5b af 3c
       0.045643605 -0.031609256 -0.041089777 0.02140615
0000f0 d0 b2 00 3d 7e 8c f9 bc 10 02 d7 3b e0 0f 28 3d
       0.03142053 -0.0304625 0.006561525 0.041030765
000100 36 3b b0 bd 84 97 a1 3d d2 37 9f bd ad 3e 53 bd
       -0.086050436 0.078902274 -0.07774319 -0.051573444
000110 ca a8 7a bb ec ea 2d bd e1 6d 5e bd 6d c0 74 bd
       -0.0038247579 -0.042460367 -0.054304007 -0.059753824
000120 dc b2 21 be 5d f8 08 3c 90 f9 bf 3d 9d 52 66 bc
       -0.15790886 0.008359996 0.09373772 -0.0140577825
000130 b4 9d 09 be 39 bf bd bd 4c da 20 3e 05 04 60 bc
       -0.13439065 -0.092649885 0.15708274 -0.013672833
000140 8b 4a 03 be e5 a1 6f 3d 83 9d 41 3e 0a 70 12 be
       -0.12821405 0.058504004 0.18907742 -0.14300552
000150 b9 44 51 bd 86 b7 42 bd 80 90 96 3c 00 f4 c7 3d
       -0.05109093 -0.047538303 0.01837945 0.09763336
000160 84 75 7e bd 9e d5 8f 3d 74 63 6e bd 31 c4 89 3d
       -0.06212379 0.07023166 -0.058200315 0.06726874
000170 74 44 0c bd dc bc ef 3c e0 db ba bd 93 2e 68 bc
       -0.03424497 0.02926486 -0.09123969 -0.01417126
000180 4f 45 b6 3d 2c 73 8a bd aa 81 4f 3e 4c c1 ed 3b
       0.08899938 -0.067602485 0.20264307 0.007255709
000190 45 51 d9 3c c5 6d e8 bd 1b c2 a7 3d 0b e4 16 bd
       0.02652801 -0.11349062 0.081913196 -0.036838572
0001a0 b9 aa ba 3d 3e 40 83 3d 9a 51 ec bc 22 c4 a1 3d
       0.09114594 0.064087376 -0.028847504 0.078987375
0001b0 b2 1b 32 3c 3b f5 a3 bd a0 30 96 bd 15 55 26 3c
       0.010870861 -0.080057584 -0.07333493 0.010152121
0001c0 4e f3 81 bc 62 c9 c3 bb f5 e3 ac bd 61 86 a1 bd
       -0.015863087 -0.0059749344 -0.08441917 -0.07886959
0001d0 36 75 0a 3d 80 34 be 3d 21 23 a8 bd 43 ae 9b bd
       0.033803187 0.09287357 -0.08209825 -0.07601597
0001e0 d3 80 75 bc 45 c3 33 3d 13 de 8b bd fc 79 6d bd
       -0.014984327 0.043887395 -0.06829467 -0.05797766
0001f0 a4 f1 73 bd 11 7c ed 3d 8a 6c ca 3d 86 6b 12 bd
       -0.05955662 0.115959294 0.098839834 -0.035747074
000200 86 d0 3c bc dd d9 16 3c e9 0c b1 bd 61 b9 f2 3d
       -0.011524325 0.009207216 -0.086450405 0.118517645
000210 34 e7 c2 bd 57 96 33 be e6 29 d3 3c ed 11 ac 3d
       -0.09516755 -0.17537819 0.025776815 0.084018566
000220 30 df ce bc 7d 33 8f 3d f3 8b 27 3d a3 00 ac 3d
       -0.025252908 0.069922425 0.04090495 0.08398559
000230 bb 0d c3 bd aa 92 89 bc c8 f0 8d 3d 14 b9 bc 3d
       -0.09524103 -0.016793568 0.06930691 0.09214988
000240 5d 90 06 3e 77 97 43 bd ce 59 97 bd a6 6a 15 3e
       0.13141008 -0.04775187 -0.07390176 0.14591464
000250 fb 8c a9 3b ba ad 3e bd 92 63 0d 3d 3f 16 5a be
       0.005174277 -0.046552397 0.034518786 -0.21297549
000260 fe 20 39 bc f6 74 f4 bc de ec 0b 3d 88 bf 02 3e
       -0.01129937 -0.029840928 0.03416144 0.12768376
000270 ec 13 15 3c 9f bd 87 bd 57 b3 ae bd e1 d8 69 3c
       0.009098988 -0.06627964 -0.085303 0.014272899
000280 7d 9d 91 bd 83 54 09 3e 0f 2d 43 bd a6 16 e9 3c
       -0.07110117 0.13411145 -0.047650393 0.028453182
000290 93 86 34 be 2a 0c 63 3c be 32 14 bc 20 6c fa bd
       -0.17629461 0.013857881 -0.009045301 -0.122276545
0002a0 63 00 d1 3d e5 fa 25 be f5 b5 7d 3d fd ab ad 3d
       0.10205152 -0.1620899 0.061941106 0.0848007
0002b0 09 72 69 3e ca c3 87 bd 98 aa 30 3d 08 85 15 be
       0.22797407 -0.06629141 0.04313144 -0.14601529
0002c0 34 c0 76 bd 0e db 21 be 14 1c c8 bd e2 28 40 3d
       -0.060241893 -0.15806219 -0.097709805 0.04691399
0002d0 24 99 52 3a ab 9f 3a bc a5 7d a7 bc ba b6 c6 3b
       0.0008033684 -0.011390607 -0.020445654 0.006064263
0002e0 83 62 bb 3b 02 00 1e 3c be eb 08 3e 6a 8f d9 3b
       0.0057185306 0.009643557 0.13371179 0.0066394107
0002f0 21 5a ac 3d 9c 71 28 3e 7c 05 28 3d 7d c9 c7 bd
       0.08415628 0.16449589 0.041020855 -0.09755228
000300 14 0f 07 bd 2b 6c 52 3d e8 51 ba 3d 72 65 ac 3d
       -0.032973364 0.05137269 0.090976536 0.08417787
000310 10 de 33 bc 02 0a ca 3c 5f d8 a5 bd 54 d0 40 bc
       -0.010978237 0.024662975 -0.0809791 -0.011768419
000320 5d 8f f5 bd 33 df 4c 3d 23 29 87 bb 0c 9d af 3d
       -0.11990235 0.050017547 -0.004124777 0.08574876
000330 9a 6c 11 3d f6 06 07 be 01 84 84 3c 14 3b cc bd
       0.03550396 -0.13186249 0.016176226 -0.09972206
000340 a1 a8 b9 bd 52 7d 74 3d c8 cc b4 bb a8 75 b0 bd
       -0.090653665 0.059689827 -0.005517576 -0.08616191
000350 7b c3 2c bc 89 28 13 bd 99 66 61 bd 8d eb a9 3d
       -0.010544653 -0.03592733 -0.055029485 0.08296881
000360 c2 45 65 bd 1b 45 a8 bc 86 66 45 3d 26 aa b0 bc
       -0.05597473 -0.020540765 0.048193477 -0.021565508
000370 31 99 67 3c be 7a 9e 3c 55 85 5b 3b 00 2c ac bb
       0.014135645 0.019345637 0.003349622 -0.0052542686
000380 4e 32 96 bd 75 f1 00 3e 6c fc 18 be 96 94 82 bd
       -0.073338136 0.12592109 -0.14940041 -0.06375997
000390 d7 9a c9 bc 82 0a 9f bd 7b 93 0d 3c 8a 43 40 bd
       -0.024609966 -0.07765676 0.008641119 -0.04693941
0003a0 b5 5f df bd 12 48 bb 3d 52 e0 78 bc 42 84 03 3d
       -0.109069265 0.09144606 -0.015190201 0.032108553
0003b0 46 8f 7d 3e 2d 60 22 bc 7c e0 ab bd 80 af cb bd
       0.24761686 -0.009910625 -0.08392426 -0.09945583
0003c0 fc 02 7e bd 63 d1 04 bd e5 8c 24 bd 5e 89 c2 3d
       -0.062014565 -0.03242625 -0.04017343 0.09498857
0003d0 1b 5b f3 3d e9 a8 4f bd 1a 99 66 bd 13 21 1d bd
       0.11882611 -0.050698195 -0.056298353 -0.03836162
0003e0 2b 4d 9e bd 5d 4c c3 3d 5a 1f bd 3b ff 4b 2f 3a
       -0.07729562 0.095360495 0.0057715597 0.00066870445
0003f0 c5 4d 82 3c b5 2c 4a 3e 96 49 4b 3e 49 a0 fd bc
       0.015906224 0.19743617 0.1985229 -0.030960219

network_body._body_endoder.seq_layers.2.bias f4 [256]
000000 96 3e bf bc cd 89 36 3b 90 36 ac bd 13 ae e4 3c
       -0.023345273 0.0027853132 -0.084088445 0.027915036
000010 20 96 29 bc c7 89 3e bd 06 db ac bd 29 82 ca 3c
       -0.010350734 -0.046518113 -0.08440213 0.024720268
000020 25 24 c9 ba 62 57 64 bc f2 fe ba 3c 9c 2c 8b bc
       -0.0015345855 -0.013936849 0.022826646 -0.016989045
000030 fa af 91 bd 61 5a 3b 3d 2e 3c 4e bb b3 e5 53 bc
       -0.07113643 0.04574049 -0.0031468975 -0.0129331825
000040 2d cc 47 bb 96 d7 32 bc 0c 9e 2a 3c 27 b4 43 3c
       -0.0030486688 -0.0109156575 0.010413658 0.011944807
000050 78 c3 31 bd c7 de 7e bd 3a ae 1a bd 2b 83 d2 bc
       -0.043399304 -0.062224176 -0.03776381 -0.025697311
000060 1d 84 1f bc 9b 30 5b bd de 22 39 bd d4 54 f3 bc
       -0.009736088 -0.05351315 -0.045199268 -0.029703535
000070 8d 73 3c bd 55 6a 89 3c 80 d2 51 bc 15 f3 13 3d
       -0.046008635 0.016774336 -0.012806535 0.036120493
000080 0f 56 c5 bd d7 7d 0d b9 a9 e9 83 3b 6d a4 9f bd
       -0.09635555 -0.00013493687 0.004025657 -0.077950336
000090 20 a1 11 3c 89 56 82 bd 42 ab 63 3c 36 3f 7d bd
       0.008888513 -0.063641615 0.0138958115 -0.06182786
0000a0 6d ca 53 bd ac 0e 8f bb b7 9c 86 3c 7c 98 27 bd
       -0.05170672 -0.0043657627 0.01643215 -0.040916905
0000b0 7d ed 4d bd 08 84 ff 3a 89 37 0b bd 06 da 3b bd
       -0.050275315 0.0019494304 -0.03398851 -0.04586222
0000c0 fe d0 f3 bb 4d a4 b9 3c 99 00 30 bb 95 2c 96 bc
       -0.0074406853 0.022661353 -0.0026855825 -0.018331805
0000d0 68 a4 bf bc 50 1b 8a 3b ec 56 20 bd 0e f3 ac bc
       -0.023393825 0.0042146817 -0.039145395 -0.021111991
0000e0 31 a6 a2 bc 24 0b ee 3c 12 37 36 bd 97 a8 ac bc
       -0.019854637 0.029058047 -0.044486113 -0.021076484
0000f0 d7 0e a7 3b 92 60 b0 3c a0 1b bb bc 07 a1 f1 bc
       0.0050982046 0.021530423 -0.022840321 -0.02949573
000100 bd a1 8a bd b3 1b 80 bd 38 16 16 3c 40 f5 02 bc
       -0.067691304 -0.06255283 0.009160571 -0.0079930425
000110 d5 31 22 bd b9 ad 18 bd 31 55 80 bc f4 8a e5 bc
       -0.039598305 -0.03727505 -0.015665622 -0.02802036
000120 e5 77 89 bc 35 42 b7 bc 79 f3 3a bd ab 4b a5 3c
       -0.016780803 -0.022370437 -0.04564235 0.020177683
000130 b6 80 85 3c 4d a7 07 bd 43 c2 c3 3c 43 75 ad bd
       0.016296726 -0.033118535 0.023896342 -0.084696315
000140 93 eb 6f bd 00 c9 3f bd f1 09 6e bc bf 71 17 bd
       -0.05857427 -0.046822548 -0.014528737 -0.03697371
000150 ad ad 1e bd 24 a2 99 bc f6 1a 82 bd ed 19 98 bd
       -0.03873985 -0.018754072 -0.06352799 -0.0742682
000160 bc 44 c0 bc b5 22 33 3c 97 1e 35 bd ff 32 90 bb
       -0.023470275 0.010933568 -0.044218626 -0.0044006105
000170 7c c0 3a bd ea ef ea bc a9 00 80 bc 9b a4 34 bd
       -0.045593724 -0.028678853 -0.015625315 -0.044102293
000180 a7 07 d5 3c 7d 17 ac 3c e5 38 b9 bc a8 26 af bd
       0.026004625 0.021007294 -0.022610137 -0.08552295
000190 88 ea 7a bd 6a dd 9f bd 37 c1 33 bd ff bf 18 bd
       -0.061258823 -0.07805903 -0.043885436 -0.037292477
0001a0 bd cf 08 bd 26 52 c2 bd 8e 05 3d bd 00 5a 02 3d
       -0.03340124 -0.09488325 -0.046147875 0.031824112
0001b0 68 95 54 bd a4 9d 30 bd c2 cb 4c bd ab 35 3b bc
       -0.051900297 -0.043119088 -0.049999006 -0.01142637
0001c0 74 e1 ae bd ea 52 66 bd e0 0c 13 3c f3 f8 03 3b
       -0.085390955 -0.056231417 0.008975238 0.00201374
0001d0 bb ed 41 bd 6f 9b 58 bd ea 63 16 3c ee d9 30 bd
       -0.047345858 -0.052882608 0.009179095 -0.043176584
0001e0 67 60 90 3c 7a 7c 34 bd ba 4c 07 3c 3a 55 64 bb
       0.017624093 -0.044064023 0.008258039 -0.0034840838
0001f0 37 71 2d bd 3a 68 37 3c 23 a3 51 bd 26 82 6f bc
       -0.0423443 0.011194283 -0.05118097 -0.014618432
000200 35 36 88 ba 19 61 e0 bc 1f 0c a6 bc 16 4c d7 3c
       -0.0010392132 -0.02739005 -0.020269452 0.026281398
000210 5f 67 58 bd 45 fd 64 bc 16 03 33 bc 4f 1b 2e bc
       -0.052832957 -0.0139764 -0.010926029 -0.010626628
000220 03 6b f1 bb ae 13 9c bc 20 08 15 3c 5c ae c4 bc
       -0.007367493 -0.019052353 0.009096175 -0.024008922
000230 c7 52 f0 3c ec dd 47 bd ab c0 79 bd 9d 86 29 bd
       0.029336346 -0.048795626 -0.060974758 -0.041388143
000240 8a 06 16 bd 3e 80 44 bc 06 e3 31 bd 1d 2f b3 bc
       -0.03662733 -0.011993466 -0.043429397 -0.021873051
000250 38 65 96 bc 73 c1 1d 3c a6 36 3d bc c3 ea 04 3b
       -0.018358812 0.009628641 -0.011548674 0.002028153
000260 bf 23 34 bd 5a c4 93 bc 64 1b 2d bd d3 99 da bc
       -0.043979403 -0.018037964 -0.04226245 -0.026684677
000270 85 20 cb bc 4c 21 89 3c a6 18 5d 3b d5 ea 0d bd
       -0.02479578 0.01673951 0.0033736615 -0.03464778
000280 af f8 f2 bc 5e d5 64 bd f1 c7 d0 bc 94 57 96 bc
       -0.029659597 -0.055867545 -0.025485964 -0.018352307
000290 65 4b 19 bd 03 4e 8a bb 00 1b 70 bc 2b 35 1c bc
       -0.037425417 -0.0042207255 -0.014654875 -0.009534161
0002a0 4a 78 02 bd 7c dc 0e bd 21 74 20 3b 13 08 ab bc
       -0.031852998 -0.03487824 0.002448328 -0.020877874
0002b0 a5 d1 3c bd 49 46 91 bd a6 dc 84 bd 57 28 59 bc
       -0.04609837 -0.07093484 -0.06487398 -0.013254247
0002c0 2e 51 cd bc ab a1 1a 3d 0c ae c1 bc b2 4b 8d bd
       -0.025063124 0.037751835 -0.023642562 -0.06899203
0002d0 98 e8 86 bd 9f f5 91 3b 32 38 4c bd e9 f0 51 bb
       -0.065873325 0.004454329 -0.04985828 -0.0032034463
0002e0 d6 95 29 bd 5e 08 4c 3c 25 80 22 bc ec 5c fe bc
       -0.04140266 0.012453167 -0.009918247 -0.031050168
0002f0 62 99 71 bd 5b 4f 17 bd c8 5d 1d 3c cb 12 41 bd
       -0.058984168 -0.036940914 0.009604879 -0.047137063
000300 51 b3 85 bd aa 28 87 bd 48 f5 84 bd 0a e8 a4 bd
       -0.065283425 -0.06599553 -0.06492096 -0.080520704
000310 11 01 2b bb e2 d1 1a bd ab c1 b4 3c 8e fe d9 bc
       -0.0026093165 -0.037797816 0.022065004 -0.026610639
000320 78 bc e0 bc 60 4e 45 bd d5 9f 85 bc 0a ac f9 bc
       -0.027433619 -0.048170447 -0.016311565 -0.030477542
000330 ab c1 be bc 0f fc b4 3b f4 39 65 bd 85 7f ee 3b
       -0.023285707 0.005523212 -0.05596347 0.007278385
000340 fa 52 19 3d 09 cd 01 bd 42 c4 aa bd c4 ff 84 bd
       0.03743265 -0.031689677 -0.083382145 -0.06494096
000350 d5 84 35 bd e8 58 9e bd 12 b4 55 bd cf 14 d2 3c
       -0.04431613 -0.07731801 -0.05217368 0.025644688
000360 a4 69 94 bd a2 77 5d bd 9e 34 14 bd 70 39 9c 3c
       -0.07246712 -0.05406917 -0.036182992 0.019070357
000370 dd 1a 91 39 cd 15 0b bd 7b 0d 15 bd 8f 2b 80 bd
       0.0002767657 -0.033956338 -0.03638981 -0.06258308
000380 d8 42 29 bd cf b4 0f bd bb ea 02 3d 46 b9 2a bd
       -0.041323513 -0.035084542 0.031962138 -0.041680597
000390 55 95 8d bc 3d 8e 42 bd 9d 44 04 bd c1 f3 a5 3c
       -0.017283121 -0.04749893 -0.032291997 0.020257832
0003a0 b2 cb 0f bc ea 0b 08 bd a9 21 ce bb 23 d1 32 3d
       -0.008776592 -0.033214487 -0.0062906337 0.04365648
0003b0 58 68 fb bc 8a eb aa bd 61 25 80 bd ca ec 3d bd
       -0.030689403 -0.08345707 -0.062571295 -0.046368398
0003c0 5e b8 ef bb fc cc 2d bd 5b 81 c4 bc 95 96 8e bd
       -0.0073156795 -0.042431816 -0.023987463 -0.06962315
0003d0 d6 6a 12 3c 2d ec a1 bd ea c8 27 bd af e3 a7 bc
       0.0089366045 -0.07906375 -0.04096309 -0.02049431
0003e0 76 fd 6d bd 51 13 e2 bb 3f 25 53 bd 38 66 8d bd
       -0.058103047 -0.0068992754 -0.051549193 -0.06904262
0003f0 13 22 14 bd 48 1a c8 bc 7c 72 66 bd 81 ba dc bc
       -0.03616531 -0.024426594 -0.056261525 -0.0269444

network_body._body_endoder.seq_layers.2.weight f4 [256, 256]
000000 21 62 e3 bd 99 48 26 be 5e 37 0f 3d 6e da 2c be
       -0.11102701 -0.16238631 0.03496491 -0.168802
000010 0c ed 63 be 6e e8 1a bd dc cd 27 be a3 12 aa bd
       -0.22258395 -0.03781932 -0.16387123 -0.08304336
000020 12 ae 40 be 16 7f c8 3d f7 48 ea bc 46 33 61 3d
       -0.18816403 0.09789865 -0.028599245 0.05498054
000030 3b 90 db bc 15 be cf 3d d6 4a fa bc ce 70 c4 bd
       -0.026802173 0.10143677 -0.030553263 -0.09591828
000040 41 c3 8e 3c bd 17 00 bd a1 4f 4a 3d cc e4 c8 3c
       0.017427089 -0.03127264 0.049392346 0.024523161
000050 d4 f7 4c 3d 48 92 21 bd 8a f8 b3 bc b1 27 f9 bc
       0.050041035 -0.039446145 -0.021969099 -0.030414434
000060 cd 75 c6 3b 3b b6 a7 bd 9e ae ba 3d 93 8c b2 3d
       0.0060565234 -0.081890546 0.09115337 0.08718219
000070 05 92 03 bd 87 30 ca bd a8 07 11 bd 05 f0 a6 bd
       -0.032121677 -0.09872537 -0.035407692 -0.08151249
000080 17 ba a5 3d ae 81 40 bd e7 9b fa bc df 46 1b be
       0.080921344 -0.046998672 -0.030591918 -0.15163754
000090 0a a8 7a 3b 99 28 92 bd 55 d4 c4 bd 75 b8 ed bd
       0.0038247132 -0.0713665 -0.096108116 -0.11607448
0000a0 f4 8b 13 bd e9 56 16 bd e6 bc 33 bc 8e c7 b6 bd
       -0.03602214 -0.036703978 -0.01097033 -0.08924781
0000b0 a7 a9 ad 3d f3 96 20 be 40 04 3a be 98 f3 97 bd
       0.08479624 -0.15682583 -0.18165684 -0.07419509
0000c0 29 62 3e bd 53 ad 86 3d 8b f2 32 bd 5b 5e 1e 3e
       -0.04648033 0.06576028 -0.04368834 0.15465681
0000d0 07 97 c6 bd 52 36 61 3e ba 53 ef 3d d5 34 ff 3c
       -0.09696775 0.21993378 0.116858914 0.031153122
0000e0 5e 9a d7 3d de 07 17 bd d9 30 49 bd e8 b9 de bd
       0.1052749 -0.036872737 -0.04911885 -0.108753026
0000f0 40 c1 6e be 93 17 bf bd d5 0e d0 bd 60 44 bb bd
       -0.23315907 -0.09330668 -0.10159079 -0.09143901
000100 52 cb 89 bd c5 65 3f 3d 3e 16 13 3d ff 0b f0 3c
       -0.067282334 0.046727914 0.035909884 0.029302595
000110 96 a2 26 3d 82 a3 6b bd 4b 66 4a 3e c3 8b ca 3b
       0.040682398 -0.05752898 0.19765584 0.0061812117
000120 c8 03 40 be 77 bc 28 bd ff fa 5e be 9d b7 28 bd
       -0.18751442 -0.04119536 -0.21775435 -0.041190732
000130 ca cd 6c be ae ee a9 3c d1 7d 87 3e 55 29 f0 bc
       -0.23125377 0.020743694 0.26463178 -0.029316584
000140 59 cf 8d 3d f8 fc 85 3e 0b 91 c6 bd 65 54 3c be
       0.06924314 0.26169562 -0.096956335 -0.18391569
000150 c7 7f d9 bd 91 5f 99 bd 83 a0 67 bd 20 6c 7c bd
       -0.10620075 -0.07488931 -0.05654956 -0.061626554
000160 ae 26 2a bc 79 3f 9b 3d 36 31 ac 3b 2e af aa 3c
       -0.0103851985 0.07580466 0.00525489 0.020835485
000170 7e 9e 9f bc 6e a7 30 bd e5 92 ed bd ad 12 31 3d
       -0.019484755 -0.043128423 -0.116002835 0.0432307
000180 b5 c6 12 3d bc fa 25 be 1f b6 f0 3d 73 ca 12 be
       0.035834033 -0.16208929 0.11753487 -0.14335041
000190 f8 c4 16 bd 89 51 7f bd 46 3e e5 3d 0a 89 80 bd
       -0.036808938 -0.062333617 0.11193518 -0.06276138
0001a0 1e 73 89 3d e1 28 a2 bd b3 53 6d 3e 4e 5e 79 bd
       0.0671141 -0.07917953 0.2317646 -0.06088095
0001b0 eb a4 cb bd 46 79 1b bd 65 f8 8e 3d 8a 6d 89 bd
       -0.09943565 -0.037957452 0.06980971 -0.06710346
0001c0 cd 18 22 bd 25 e9 e3 3d 9f 2c 92 3d 34 51 64 3d
       -0.039574433 0.11128453 0.07137417 0.055741504
0001d0 57 77 e5 3d 82 62 16 be 5d 3d 44 bd f4 ce 52 be
       0.11204403 -0.14686015 -0.047910083 -0.20586759
0001e0 ee a8 8b bd 69 0e 22 bc 62 b0 57 bc 73 53 94 3c
       -0.0681933 -0.009891131 -0.0131646115 0.018106198
0001f0 d7 8b 9b bd 68 e5 a1 3d 19 03 78 3c 17 70 1d bd
       -0.07595032 0.07905084 0.015137457 -0.038436975
000200 99 c4 7b 3d c6 56 22 3d 99 92 22 3e eb 77 e5 bb
       0.061466787 0.039633535 0.15876235 -0.0070028207
000210 7b 03 c3 3d b8 05 a7 3d f8 11 a6 bd 3a 19 b1 3c
       0.09522148 0.08155388 -0.08108896 0.021618474
000220 67 49 b2 3d 80 6c 1a 3d f0 a0 62 3b c5 7d 45 3e
       0.08705407 0.03770113 0.003458079 0.19286259
000230 1a fd 2f be 92 14 21 3e ee ad 29 be 0c b4 a3 bd
       -0.17186394 0.15730503 -0.16570255 -0.079933256
000240 6e fb 33 be 56 6e a3 bd a0 21 e2 bd af 65 bf bc
       -0.17576382 -0.07980029 -0.1104157 -0.023363916
000250 b0 55 ec 3c 19 e5 06 3e 2c e4 58 bd 74 2d 4b bd
       0.028849453 0.13173331 -0.052951977 -0.049603894
000260 36 e1 84 bd cc 2a 72 3d bd 43 20 3e 56 12 15 bd
       -0.06488268 0.059122846 0.1565084 -0.03639444
000270 8f 3b 17 be 8e 50 ad 3d 59 7f 93 bc 24 bb 29 3d
       -0.14768814 0.0846263 -0.01800506 0.041438237
000280 ab c4 1a be 6e d4 35 bd 96 40 6f 3d 52 93 40 bc
       -0.15114085 -0.04439204 0.058411203 -0.011753874
000290 86 dd 0a be 1e f4 1f 3e d3 76 dc 3d a2 17 2a be
       -0.13561067 0.15620467 0.107648514 -0.16610578
0002a0 ce fb 5a bc 18 b3 cd bd 09 46 78 3b 66 10 51 bd
       -0.013365699 -0.10043925 0.003788354 -0.05104103
0002b0 c7 2e d0 bc 0b ce ad bd de 5c ee 3c 80 76 0f 3d
       -0.02541293 -0.08486565 0.029097017 0.03502512
0002c0 94 3f af bc f4 2c d8 bd f3 15 77 bd 67 68 2d be
       -0.021392621 -0.10555449 -0.060323667 -0.16934358
0002d0 1f a6 fb bd e7 6d aa 3c 16 34 dc bd ce ec 47 bd
       -0.122875445 0.020804359 -0.10752122 -0.04880982
0002e0 60 5d 15 bd 96 d2 4d 3d af e4 c4 bb 51 2b f8 3c
       -0.036466002 0.05024966 -0.0060087065 0.030294092
0002f0 54 ff 2e 3d a5 44 42 3e 17 38 8f bd ef 86 3b bd
       0.04272397 0.18971498 -0.0699312 -0.04578298
000300 fb ed d8 3d 5b 74 23 3e 7d fd 18 be 84 ee 39 bd
       0.10592266 0.15962355 -0.14940448 -0.04539348
000310 1f 04 e1 3c 89 a9 6b bd c0 c7 25 be 93 47 9b bd
       0.027467785 -0.05753473 -0.1618948 -0.07582011
000320 4e 55 90 3d ea 89 76 bd 55 bb e1 bb c6 a1 88 3c
       0.070475206 -0.06019012 -0.006888787 0.016678702
000330 17 4b 1d 3c a8 b3 76 be 6e 42 e5 3d e9 aa 15 3d
       0.009600422 -0.24091971 0.11194311 0.036539946
000340 6a 07 25 bd c9 cc dd 3a 2d c2 2b bd 5b 42 65 3d
       -0.040290274 0.0016921993 -0.041933227 0.055971485
000350 7e 0c e5 bc d5 e6 9d bc e8 b4 b5 bc c2 56 86 3d
       -0.027960058 -0.019275108 -0.02218099 0.065595165
000360 fc 9f 0d bd 23 ac 99 3c 1f e9 ae 3c f4 2f ea 3d
       -0.0345764 0.018758839 0.021351395 0.114349276
000370 e3 ca 07 3d 94 d3 ed 3d 85 8d 71 3d 5c 92 b4 bd
       0.033152472 0.11612621 0.058972854 -0.08816978
000380 c0 c5 8b bd 78 d4 8f 3d be c4 13 be 13 d3 cf b9
       -0.06824827 0.07022947 -0.1443052 -0.0003963938
000390 e5 a7 01 3c 16 0e 89 3d b6 d7 b5 bc ce ac 5e bd
       0.007913564 0.0669214 -0.022197586 -0.05436402
0003a0 46 38 04 3d 3a 7e c8 bd 25 15 88 3d 14 7f fc 3d
       0.03228023 -0.09789701 0.06644658 0.12328926
0003b0 b6 87 91 bd 11 d6 34 3d 91 c6 b5 3d 72 f7 cb bb
       -0.07105963 0.044149462 0.08875764 -0.006224566
0003c0 f4 21 3e 3e b4 a5 08 be 6b 0d 81 be 0a c9 b4 bc
       0.1856764 -0.1334446 -0.2520555 -0.02206852
0003d0 f0 d1 a6 3c 8e 0c 52 bd 69 8d c0 bd ad d0 16 bb
       0.020363778 -0.051281504 -0.09401972 -0.0023012564
0003e0 82 06 2b bd 38 29 98 bd be 87 73 bd 9a 5b 1c bd
       -0.041754253 -0.07429737 -0.059455626 -0.038173296
0003f0 e2 2b ca bd b4 48 76 bc 42 16 b5 3b 39 1e 90 3d
       -0.09871651 -0.015031982 0.005526335 0.070370145
