Assets/TFModels/Other models trained in the process/Striker2_selfplay3_1M.onnx (onnx, 911175 bytes, 9 tensors)

action_model._discrete_distribution.branches.0.bias f4 [5]
000000 fe 58 a2 3c 17 27 71 3d bc 74 bf bc 52 6f aa 3b
       0.019817825 0.05887517 -0.023371093 0.0052012587
000010 10 ca 84 bd
       -0.06483853

action_model._discrete_distribution.branches.0.weight f4 [5, 256]
000000 93 f1 31 bd b9 4e b9 bd 63 87 f7 3c da c5 39 3d
       -0.043443274 -0.09048218 0.030215925 0.0453547
000010 a8 bd 55 3d aa b1 e3 3c d4 c1 de bc b8 fd 8d 3d
       0.052182823 0.027794678 -0.027192034 0.06933159
000020 38 b6 92 bd 79 6e 5d bd 45 ad 3c 3d 32 4c 40 bc
       -0.07163662 -0.054060433 0.04606368 -0.011736916
000030 96 94 08 bd 79 fc f4 3b ef 8a 7a bc a7 95 96 3d
       -0.033344828 0.007476386 -0.015291913 0.07352763
000040 95 6a 8a bd d1 1e 71 bc b8 94 2e bd f7 92 69 bd
       -0.0675861 -0.01471682 -0.042622298 -0.057024922
000050 ce 90 15 be b7 22 ba bc 94 80 a1 3d 36 07 e8 3c
       -0.1460602 -0.022721631 0.078858525 0.028323751
000060 f7 30 b9 3d 61 9b 54 3c 1a a0 a1 bd 3d 9a 4b 3d
       0.090425424 0.012976498 -0.07891865 0.04970764
000070 32 28 38 3d 00 6e af 3d 2d 19 5b bb 71 85 a3 3d
       0.04496021 0.08565903 -0.0033431754 0.07984436
000080 23 76 71 bd 2e 36 87 bd da 83 34 3c 85 16 ba bd
       -0.058950555 -0.06602131 0.011017764 -0.090863265
000090 77 95 d7 3c 43 ce 9a 3c 65 96 0a 3d da 62 18 3d
       0.026316388 0.018897181 0.033834834 0.037203647
0000a0 91 b9 dc bc 32 30 a8 3d e5 38 d6 bc b3 d0 09 ba
       -0.026943954 0.082123175 -0.026150176 -0.0005257234
0000b0 11 12 aa bd 4e 7c cb bd cf 90 a1 bd be 1e 4f bd
       -0.08304227 -0.099358186 -0.07888948 -0.050566427
0000c0 6c 89 82 bc 07 2b f6 3d 29 44 77 3d 2b 6d ba bc
       -0.015934668 0.120199256 0.060367737 -0.022757133
0000d0 0c 7e 18 bd 76 48 87 3b 57 d9 19 3d f5 c7 48 3c
       -0.037229583 0.004128511 0.037560787 0.012254705
0000e0 37 55 29 3c 9e f8 95 bd 21 69 43 bc 13 42 06 3d
       0.010335258 -0.073228106 -0.01192692 0.032777857
0000f0 0c e1 34 bd 9f f3 3d bd 96 b6 44 3d 5d 5c 82 3b
       -0.044159934 -0.046374913 0.04802569 0.0039782957
000100 a5 99 ff bc 87 63 13 bd 33 b4 46 bd 72 79 54 3c
       -0.031201193 -0.03598359 -0.048511695 0.012968408
000110 bf 86 d5 bc 24 fd 92 3c f1 f4 bd 3d 2b dd 13 bd
       -0.026065229 0.017942972 0.092752345 -0.036099594
000120 cc 1f a6 bc 83 69 f0 3c 5f bf 97 3d 9f 85 3a 3c
       -0.020278834 0.029347187 0.07409548 0.011384397
000130 1a 1e d0 3d 5b ce e7 3c f1 6d 2f bd e5 ea 8a bd
       0.101619914 0.02829664 -0.042829458 -0.06783084
000140 a3 04 3f 3d ab 37 15 bd 2f 03 08 bd 74 04 43 bc
       0.04663528 -0.036430042 -0.03320616 -0.011902917
000150 12 fd 89 bc 10 06 41 3d 8a 32 dc 3c 55 04 8d 3c
       -0.016844306 0.047124922 0.026879568 0.01721398
000160 f9 fc 17 3d e8 37 45 3d 67 46 d3 bd 60 6a 89 bd
       0.037106488 0.04814902 -0.103161626 -0.067097425
000170 27 76 2e bc ef ed 17 be 0b d3 6a 3c 71 9b 28 3b
       -0.010648287 -0.14836858 0.014332543 0.0025727416
000180 0a 42 d2 bd c3 21 a8 bc a9 50 ab 3d 14 75 3d bd
       -0.10266502 -0.020523911 0.08364994 -0.046254233
000190 d4 5f 39 be 34 71 5a bd 94 c1 73 bc 87 b4 c9 3c
       -0.18102962 -0.053330615 -0.014877696 0.024622215
0001a0 62 b9 f4 3b 24 2e 53 bd eb c9 a9 bb 54 00 8d bc
       0.0074683884 -0.051557675 -0.005181541 -0.01721207
0001b0 4f 46 36 bc 4c 57 0d 3c 8f 78 c1 bc f9 33 fa bc
       -0.011125161 0.00862677 -0.023617057 -0.03054236
0001c0 53 f7 33 bd 50 fc 29 bc dc 04 e6 bc f4 f1 fe 3c
       -0.04393704 -0.010375097 -0.028078489 0.031121232
0001d0 99 4e aa 3d 29 e7 14 be fa 59 c4 bd a3 90 95 3d
       0.083157726 -0.14541306 -0.09587474 0.07302978
0001e0 cc 3b a4 bd f0 bf 0e 3d 57 e3 cf 3c 0c 80 85 bd
       -0.08019218 0.034851015 0.025376959 -0.06518564
0001f0 55 81 7b bd 3b 48 bf bd ca 4a 05 be 8e f4 3b 3d
       -0.061402638 -0.09339949 -0.13016811 0.045887522
000200 8b b7 73 3d 10 25 17 bd c2 ee 63 3d 7a e4 e9 3c
       0.059501212 -0.03690058 0.05564762 0.028551329
000210 7a be 2c 3d ed ed e6 bd de e1 78 3b b4 53 9f bd
       0.04217384 -0.112758495 0.0037976424 -0.07779637
000220 e8 3b 24 bc 57 e1 b6 39 b0 8c 01 3d 5f 82 a2 3d
       -0.010024048 0.00034881636 0.03162831 0.079350226
000230 65 f8 b4 bd 4e c1 73 bc b3 12 58 3d 6e 17 e9 bb
       -0.0883644 -0.01487763 0.052752208 -0.0071133887
000240 a5 89 c4 bd a3 10 19 3d f4 5d 88 bd 92 0f 7f bd
       -0.09596566 0.03736938 -0.06658545 -0.06227071
000250 96 e9 bd 3c 7c 44 8f bd 73 f7 72 bd 06 08 45 bd
       0.023182672 -0.06995484 -0.059318017 -0.048103355
000260 46 b2 5b 3c 14 63 94 bc b8 66 66 bd e1 03 10 3a
       0.013409203 -0.01811365 -0.056250304 0.0005493742
000270 2c 04 a1 bb 9b e9 83 3d 1a 67 1c 3c d0 aa 16 be
       -0.0049138274 0.06441041 0.009546066 -0.14713597
000280 01 97 c5 3c a8 3f 3f bd c7 63 b0 bb 19 ff 5c bd
       0.024119856 -0.046691567 -0.005382988 -0.053954218
000290 fe 83 d2 3c 9c 0b 94 3d 9e 4b fe bd 48 46 5a bb
       0.025697704 0.07228777 -0.124167666 -0.003330605
0002a0 5b f1 85 3d b1 7a d9 3d 6b e0 59 bd 24 0c da ba
       0.065401755 0.10619105 -0.053192537 -0.0016635698
0002b0 a3 34 80 bd 41 65 c1 3c 61 3f 57 bd 1a 59 76 bd
       -0.0626004 0.023607852 -0.052550677 -0.060143568
0002c0 63 c3 2d bd 29 a3 9a 3b 19 6e 27 be bc 25 0d bd
       -0.042422663 0.0047191572 -0.16350593 -0.034459814
0002d0 2f 27 0e 3b 8b 31 79 3c 8f ac 07 3d fa 67 22 3d
       0.0021690836 0.015209566 0.03312355 0.03964994
0002e0 02 cf 59 3b bb 13 0b bc 85 99 06 bc 16 ef ba bc
       0.0033234959 -0.008488591 -0.008215313 -0.022819083
0002f0 34 d9 f5 bc b0 ad bb 3d de 19 06 bd 11 d2 8f 3b
       -0.030010797 0.09163988 -0.032739513 0.0043890555
000300 00 7b bb bd 2c d3 03 3e f6 d4 57 3c 89 eb cb 3d
       -0.0915432 0.12873524 0.013173332 0.09957034
000310 b5 69 c4 bd dc 0e 31 3c 8c 08 34 3d 8d a3 92 3d
       -0.095904745 0.010806765 0.043953463 0.07160101
000320 e4 8e 4f 3c b3 bb 1a bd 56 3b 5b 3d 8e 5a 0e bd
       0.012668345 -0.03777666 0.053523384 -0.03475433
000330 32 e5 84 3d ae 79 53 bd 5a f8 20 bd 75 72 21 bd
       0.06489028 -0.051629715 -0.039299347 -0.039415795
000340 2c 71 a3 bd 9e 98 9a bd 89 6c fd bc b1 80 1e bc
       -0.0798057 -0.07548641 -0.030935543 -0.009674237
000350 26 a8 fd bc a9 e0 09 bd 28 76 1e be 70 60 19 3b
       -0.030963968 -0.03366152 -0.1547476 0.0023403428
000360 2f df 27 3d 10 07 24 3e e9 67 12 be 9b 13 92 bc
       0.04098433 0.16018319 -0.14297451 -0.017831614
000370 10 ea 4d bd 79 ca 3e bd 92 7c 3b bd bd 42 19 bd
       -0.050272048 -0.04657981 -0.045773096 -0.037417162
000380 e8 32 e4 3c c6 bb 1b bd 4c 16 45 bd 52 c7 3e bd
       0.027856305 -0.03802087 -0.048116967 -0.046576805
000390 0f 09 a0 bd 32 89 96 3c 8e bc b2 3c 30 a9 9a bc
       -0.07814228 0.018375967 0.021818426 -0.018879503
0003a0 71 94 28 bd d4 d8 c2 3d f7 8d 24 bd 67 6c 1a bd
       -0.04115719 0.09514013 -0.04017445 -0.037701037
0003b0 25 0b b4 3d b5 28 57 bd 12 a8 8d 3d 12 71 a2 3d
       0.08791188 -0.052529056 0.069168225 0.07931723
0003c0 c0 45 e9 3c 77 9e ac bd 54 a8 7f bd a9 b5 70 3d
       0.028475642 -0.08428662 -0.06241639 0.058766995
0003d0 c5 96 ce ba 00 c6 41 bd b1 0c 8a 3d 4c b1 7a bc
       -0.0015761486 -0.04730797 0.06740702 -0.01530106
0003e0 c7 1a 3e 3d 2b 39 12 3d 9e b5 9c bd 8c 6f 4e 3d
       0.046412256 0.03569905 -0.07651828 0.05039935
0003f0 bb 6a 0a 3c 44 f0 df 3a 01 68 d3 bc 5c f0 9a bd
       0.008448298 0.0017085155 -0.025806429 -0.07565376

action_model._discrete_distribution.branches.1.bias f4 [3]
000000 74 02 23 bb 64 df 95 3b 3e 1c 0f bc
       -0.0024873288 0.0045737494 -0.008734761

action_model._discrete_distribution.branches.1.weight f4 [3, 256]
000000 b7 18 2c bd d1 52 97 bc 48 c2 0e be df 24 a2 3c
       -0.042015757 -0.018472107 -0.139413 0.019792972
000010 ab 37 ed bb 4d 9a 00 3c d8 f0 7f 3c 71 22 aa 3d
       -0.007239302 0.007849288 0.0156213865 0.083073504
000020 1d ba 08 3c 40 63 0c 3c 56 84 1e 3c 36 34 12 3d
       0.008345154 0.008568585 0.009675106 0.035694323
000030 3a e2 cd bc 3c e5 96 bd 0f 49 17 3d f2 5c 15 3d
       -0.025132287 -0.07367942 0.03693491 0.036465593
000040 f6 45 92 ba e6 f2 6f bd 2e 29 8d bd bb 1f 26 3d
       -0.0011159766 -0.058581255 -0.0689262 0.040557604
000050 78 99 27 3d 10 22 9e bd ac 22 a3 3d 2d 33 69 bc
       0.040917844 -0.07721341 0.079655975 -0.014233393
000060 81 f2 0d bd 4a f1 83 bd 66 a1 8a bc 97 b5 08 3c
       -0.034655098 -0.064425066 -0.016922664 0.008344076
000070 7c f3 f0 bb af 1e ae bd 2d 51 81 bc c1 49 f7 3b
       -0.0073532443 -0.08501946 -0.015785778 0.007546634
000080 79 f0 05 bd 45 9a 23 3e b7 74 d2 bc 7a dd 7f 39
       -0.032700036 0.15976818 -0.02569042 0.00024401202
000090 fc 04 e8 bd 2d 17 05 bd 37 bc fb bc 78 54 73 bd
       -0.11329076 -0.032492805 -0.030729396 -0.059406728
0000a0 36 c6 11 3d 57 ad 04 bc ad 34 09 3d ed 36 b2 bb
       0.03558942 -0.008097968 0.0334975 -0.0054386766
0000b0 8c e9 06 3c 9e 18 39 bd fc 7a e7 bc 9f 3e 85 3d
       0.008234393 -0.045189492 -0.028256886 0.06506085
0000c0 84 ae 62 3c c7 2c 99 bd ad 40 10 3d ae ca ae bd
       0.013835553 -0.07479244 0.03521793 -0.08534752
0000d0 8a 22 ec 3c 95 46 27 3d 8d 56 ee 3b 3a e9 06 3d
       0.028825063 0.040838797 0.0072735013 0.032937266
0000e0 4d 08 2e 3d 78 5c 95 3d e6 1e e7 3c a4 ae 82 bd
       0.042488385 0.07293028 0.028212976 -0.06380966
0000f0 c7 62 87 bc 90 db 84 3d 25 12 01 3e 1a c5 d8 bd
       -0.016526593 0.06487191 0.12604578 -0.10584469
000100 79 8f cf 3c ed 67 16 3d 2b 80 1a bd f9 5f 8c 3d
       0.025336968 0.036720205 -0.037719887 0.06854243
000110 30 c8 a9 3d a2 ed 6e bd 43 4d bd 3c b4 09 13 3d
       0.08290136 -0.058332093 0.02310813 0.035897925
000120 5b 67 ba 3b 7e 0b f1 3d 55 59 03 bd 97 78 a9 3c
       0.0056885905 0.1176977 -0.032067616 0.020687385
000130 9a 69 b8 bc 92 0b 0b 3d 41 aa 68 3d 4c ea 23 bd
       -0.022511292 0.03394658 0.05680299 -0.040018365
000140 3d 31 e6 bd 9b a6 74 3d 8a de 4d bd d8 87 3f bd
       -0.1123986 0.0597292 -0.050261058 -0.04676041
000150 0d 16 8b bd fa 46 05 3d 30 6c 9f 3d f0 01 a7 bd
       -0.06791315 0.03253839 0.07784307 -0.081546664
000160 32 18 85 bc d5 17 25 be cd 04 69 b9 63 ea a4 bc
       -0.016246889 -0.16122372 -0.000222224 -0.020131296
000170 34 ee ca bd a6 99 8f 3c d0 89 0f bc cf 3a 25 3d
       -0.09908715 0.01752932 -0.008760884 0.040339287
000180 2d 5b b4 3c a8 7c ef bc 37 0f 2a bd 55 9c 1b 3c
       0.022016132 -0.029234245 -0.041518416 0.009497722
000190 6b 08 a9 3c 1f d0 18 bd 08 99 71 3a b7 59 0b bd
       0.020633897 -0.037307855 0.0009216224 -0.034021106
0001a0 1c e3 80 3c 6a ed 46 3c 1d 28 b2 bc e5 ee ba bd
       0.015733294 0.012141565 -0.021747643 -0.09127597
0001b0 ff 78 36 bd b7 6c bd 3d f0 41 d3 3c 94 b1 83 bc
       -0.044548985 0.09249251 0.025788277 -0.016075887
0001c0 e2 9e 51 3d 7d af 04 3c 84 bc 92 bd 29 5d eb bd
       0.051176913 0.00809848 -0.07164863 -0.11492378
0001d0 2d 4c 49 3d 45 ba a5 bd af 2c 9e bd 70 3e a4 3d
       0.049144913 -0.08092169 -0.077233665 0.080197215
0001e0 7d 6c ba 3d 4c a5 22 3c fb ea 20 bd 34 3d 19 bd
       0.09102724 0.009927105 -0.039286595 -0.037411883
0001f0 76 6f 2f bd da f1 15 3d 88 4b 07 3d 9e a9 3a 3d
       -0.042830907 0.0366076 0.033031017 0.045571916
000200 fa 0a f1 bc 82 43 70 3d 70 66 cd bd d7 7c 03 3d
       -0.02942418 0.05865813 -0.10029304 0.03210148
000210 16 28 a9 3d 89 89 44 3d c4 91 d7 bb 15 4c ad 3c
       0.08259599 0.047982726 -0.006578656 0.021154443
000220 38 75 0b 3d 58 56 61 bd 35 14 2d 3d 73 40 55 bc
       0.034047335 -0.055013984 0.0422556 -0.013015854
000230 f6 7c 87 3d b3 c1 89 3d 65 69 fc 3c b8 27 86 3d
       0.06615631 0.06726398 0.030811975 0.065505445
000240 cf 8e d8 3c 35 45 69 bd de f5 a9 ba bc a6 c2 bd
       0.026435284 -0.056950767 -0.0012966951 -0.09504458
000250 05 81 85 3c 88 00 41 3c 07 f1 48 3c e7 9f 05 bd
       0.016296873 0.011779912 0.012264497 -0.032623198
000260 55 fe 93 bd 50 68 2f 3d ae d3 7e 3d 0c 8d 88 bc
       -0.07226244 0.04282409 0.062213592 -0.016668819
000270 98 f4 4a 3d 47 5c ba 3c a2 0b c2 bd 18 cf a4 3d
       0.04954967 0.02274908 -0.09474875 0.080473125
000280 b6 ff 47 bd 94 c7 a5 3d ac 03 85 bd 95 f0 10 3d
       -0.04882785 0.08094707 -0.06494841 0.035385687
000290 7a 95 18 3d b3 f1 f4 bb b0 23 1b 3d 82 07 cf bc
       0.037251927 -0.007475102 0.03787583 -0.025272135
0002a0 0b 7d 9c 3b 07 94 42 3d 4d 9e 71 bd 60 49 71 3c
       0.0047756485 0.04750445 -0.058988858 0.014726967
0002b0 3b 78 8a 3d e7 b8 cf 3b 7e 82 61 bc 92 f5 2c bd
       0.067612134 0.0063391807 -0.013764022 -0.04222638
0002c0 46 66 8e bd ea 84 7d bd 07 eb 6a 3c 20 c1 0e 3d
       -0.06953101 -0.061894335 0.014338261 0.034852147
0002d0 e6 ef c2 3c fc 02 dd bd e6 ef d0 bd e6 05 30 3d
       0.023796033 -0.10791585 -0.10202007 0.042974375
0002e0 1c 6f 87 bd db 29 74 3b 33 c7 de bc 98 40 fb 3d
       -0.06612989 0.0037256393 -0.027194595 0.1226818
0002f0 ab 81 97 3d 24 7e cd bd 4c 4a d0 3d 16 8c 86 bd
       0.07397779 -0.10033825 0.10170421 -0.06569688
000300 14 5d 06 bd 61 c4 7f 3c 44 d6 ad 3d 15 da 08 be
       -0.03280361 0.015610785 0.084881335 -0.13364442
000310 d7 a1 ff bc e0 53 27 bc 27 0c 05 3d 0f b5 9b bd
       -0.031205101 -0.010212868 0.032482293 -0.076028936
000320 af a1 c2 3c bf a4 6d bc 56 ac 9c 3c 6e ef ce 3c
       0.023758737 -0.014504611 0.019125145 0.025260653
000330 3c c5 02 bd 0a 6a 1f 3d 11 28 7a bc 1c e4 ba bc
       -0.03192638 0.038919486 -0.015268342 -0.02281385
000340 ec 8b c5 3b 3d fa 00 bd a5 4d b4 bd 00 1b 81 3c
       0.006028643 -0.031488646 -0.08803872 0.015759945
000350 9f 2e 70 3d 8b 5e fb 3d 1f 6e ab bd f2 0f 5e 3d
       0.05863821 0.12273892 -0.08370613 0.054214425
000360 db dd fe 3c f7 64 1f be 12 78 29 bc 2d 83 85 bd
       0.031111648 -0.15565859 -0.010343568 -0.065191604
000370 be ea aa 3b 99 0c e4 bc 3f b1 88 3c 06 58 75 bd
       0.0052159717 -0.027838038 0.01668608 -0.0598984
000380 c3 94 2b bc c8 ff 99 3c 63 0b 7c bd f5 8d d5 bd
       -0.010472479 0.018798724 -0.061534297 -0.10427467
000390 fa d3 67 bd 16 b2 42 bd 51 9a ea 3b 9b 9c 1e 3d
       -0.05659864 -0.047533117 0.007159509 0.03872357
0003a0 e8 d1 c6 bd 8b da 92 3b 01 0b 68 3d 89 e2 84 3d
       -0.09708005 0.0044816188 0.05665112 0.06488521
0003b0 18 80 92 bd 0b e4 ae 3d 39 a2 db bc 32 4a 9f bc
       -0.07153338 0.085395895 -0.026810752 -0.019444559
0003c0 63 10 13 be f2 a8 65 bd 44 d7 09 3c 24 92 76 bc
       -0.1436172 -0.056069322 0.00841314 -0.015049491
0003d0 ef 3f 98 bd 22 2c 99 bc 2d 58 50 bc 94 7d 94 bd
       -0.07434069 -0.018697802 -0.012716335 -0.072505146
0003e0 bd 0c e9 3b 37 25 75 3d 5b 32 5f 3d e7 aa 69 3d
       0.007112114 0.059849944 0.054491382 0.05704775
0003f0 ea 4b 85 3d a8 ef 86 3b bd 31 3d bd e2 ea 3f bb
       0.0650862 0.0041179247 -0.046190012 -0.0029284288

discrete_action_output_shape f4 [1, 2]
000000 00 00 a0 40 00 00 40 40
       5.0 3.0

network_body._body_endoder.seq_layers.0.bias f4 [256]
000000 7b 46 26 bd 6d eb 15 bd 77 19 43 bd 18 21 3f 3c
       -0.04059456 -0.036601473 -0.047631707 0.011665605
000010 8c 91 b6 3c 14 25 68 3d fa 7f 7a 3c 3d 1c 41 bd
       0.022286199 0.056675985 0.015289301 -0.04714607
000020 05 4f 00 3d 95 ec 39 bd 6e 47 11 bd 05 23 12 bd
       0.03132536 -0.045391638 -0.03546851 -0.03567793
000030 e5 ed 45 3d a8 dc 3a 3d ef b8 a8 bc 68 c5 53 3d
       0.048322577 0.04562059 -0.020595996 0.051701933
000040 9a a0 66 bd b5 c9 f4 bc 7f cc 21 bd 0f 21 5a 3b
       -0.056305505 -0.029881338 -0.039501663 0.0033283865
000050 33 b6 44 bc 19 78 dc ba 73 05 c7 3b b4 d8 56 3d
       -0.01200633 -0.001682046 0.0060736476 0.052452758
000060 80 01 54 bd 14 17 d5 3b 0d f2 d6 3c 74 b5 8a bd
       -0.051759243 0.0065029953 0.026238466 -0.06772891
000070 85 aa 7c bc aa 66 5f 3c d7 b1 68 ba 02 b8 bc bd
       -0.015421514 0.013635317 -0.0008876598 -0.09214784
000080 9a b3 04 bd 57 12 52 3b 0b 8c 78 3d 6d 5e 35 bd
       -0.032397844 0.0032054388 0.06068043 -0.044279505
000090 bd ee 53 bd 77 45 46 3d c1 bd a2 3c bd 15 75 3c
       -0.05174135 0.04840609 0.019865872 0.014958796
0000a0 8e 4d 8c bc 31 d4 ac 3d 21 18 ec bc 5b 92 0c bd
       -0.017126825 0.0843891 -0.0288201 -0.034319263
0000b0 9c 2e 97 3b 2f d0 bd bd 11 94 14 3d d7 14 b9 bb
       0.0046137106 -0.092682235 0.03627402 -0.0056482363
0000c0 6a 61 c1 bb ba 48 0c bd 2c 5e 9d bd 28 8f ec 3b
       -0.0059015052 -0.034249045 -0.076839775 0.007219214
0000d0 ac d5 16 bd 1a 75 d1 bc 0f 8d ce bc 49 61 ac bc
       -0.036824867 -0.025568534 -0.025213746 -0.021042483
0000e0 c8 a7 d1 bc a9 da 97 bd bc bc 5e bc 15 b5 5b bd
       -0.0255927 -0.07414753 -0.0135948025 -0.05363949
0000f0 f2 ee f5 bc a0 86 bc bb 11 2b eb 3d c2 7c 25 bd
       -0.030021165 -0.0057533532 0.11482824 -0.04040218
000100 3f 0f 20 bd 98 fa b1 bd 8b 2c 00 bd 81 91 b4 bc
       -0.03907704 -0.08690375 -0.03129248 -0.022042038
000110 a0 c5 89 3d 5c f6 9f 3c 3a d8 4a bd 27 33 82 bd
       0.06727147 0.019526653 -0.049522616 -0.06357413
000120 48 3c 32 bd 72 c0 81 3d 5c 04 a0 bb 57 bf 05 3c
       -0.04351452 0.06335534 -0.004883332 0.008163295
000130 93 20 94 bb 69 c1 35 bd 1a 26 42 bd e6 7d ec 3b
       -0.0045204847 -0.044373903 -0.047399618 0.0072171567
000140 47 58 6b bd 57 ef 28 3c 8e 3f 07 bd da d3 42 3d
       -0.057457235 0.010310969 -0.033019595 0.04756532
000150 0b 5b 28 3d be 4c c4 bc 3e 49 9d bc f7 18 2d 3c
       0.04110245 -0.023962375 -0.019199964 0.010565034
000160 7b d5 10 3d d2 20 fe 3c 16 7a 84 bd 76 38 d9 bc
       0.03535984 0.03102151 -0.064685985 -0.02651618
000170 04 99 4d bd 0a 0f 02 bd 72 69 c0 3c bb e1 cc 38
       -0.050194755 -0.031752624 0.02348778 9.7695236e-05
000180 6b db c1 3d 9b a2 c2 3b 00 b6 23 bd a1 8b e2 3c
       0.09465679 0.0059397942 -0.03996849 0.02765447
000190 63 3f 9b bc b5 4b 16 bc 90 bf 62 bc e6 41 16 3d
       -0.018951124 -0.009173323 -0.013839617 0.03668394
0001a0 c9 ad ea bc ab df 5d bc b6 37 35 3c a0 f9 0c bd
       -0.02864732 -0.013542096 0.011060646 -0.03441775
0001b0 e1 ae 97 bc 86 63 51 3d e8 e4 cc bc d4 93 c0 bc
       -0.018516006 0.051120304 -0.025011495 -0.02350799
0001c0 3a 51 f1 3b f1 89 b3 bd c5 a4 16 bd ae 2b 29 bd
       0.0073644193 -0.087665446 -0.03677823 -0.04130142
0001d0 84 08 b1 bd 3d 69 82 bd 34 f3 9a bc 3c 35 c2 3c
       -0.08644202 -0.06367729 -0.018914796 0.023707025
0001e0 38 8a c9 3c 3c d9 25 bd e7 8a ba bc 19 21 a7 bc
       0.02460204 -0.040490374 -0.022771312 -0.020401524
0001f0 93 4f 8d 3d 39 99 b7 3b 4a 8b 82 bb 16 03 8e 3b
       0.06899943 0.0056029824 -0.0039838897 0.004333864
000200 0d 52 f1 bb cf 93 da 3c 73 f1 23 bc 06 32 0f bd
       -0.0073645175 0.026681809 -0.010006296 -0.034959815
000210 46 d0 9c bb 8d 5c 0b bd b7 ef 19 bc 23 81 9f 3c
       -0.0047855703 -0.03402381 -0.009395531 0.019470757
000220 e0 1b dc bc c9 e3 05 3d 89 b1 db bc 90 96 3d 3d
       -0.02686876 0.032687936 -0.026818054 0.046286166
000230 1d 82 1a 3d 54 a6 23 bd 79 de b2 bc 01 a5 de bc
       0.037721742 -0.039953545 -0.021834599 -0.02717829
000240 50 c8 c2 3b 7b 05 f3 3c a8 f5 dc 3b 98 3e b4 bc
       0.0059442893 0.0296657 0.0067431517 -0.022002503
000250 3d c3 83 3c bc e6 39 bc a2 76 1d bd 07 4d b4 bd
       0.016084308 -0.011346515 -0.038443215 -0.08803754
000260 47 6e 4e bd 65 da 22 bd 1e 5f 53 3c b9 81 15 3d
       -0.050398137 -0.03975906 0.012901096 0.036500666
000270 b3 f7 01 3d ce 3f e6 bc a8 e8 4c bd 5a f6 0b 3c
       0.031730365 -0.028106596 -0.050026566 0.0085426215
000280 f8 03 50 3d 10 c2 a6 bd 51 3b 98 bc 45 0a 9c bd
       0.050785035 -0.08142483 -0.018582972 -0.07619146
000290 ba 4e ee bc 37 61 9c bb 1b a5 09 3c d1 00 70 bc
       -0.029090274 -0.004772331 0.008401181 -0.014648632
0002a0 ed d9 8b bc 11 47 e6 bc 67 d1 b9 3c 04 6d 1d bd
       -0.017071689 -0.028110059 0.022682859 -0.038434044
0002b0 f2 01 e8 3b 8d 10 05 3d 7e 5d 39 bd b5 f9 f6 bc
       0.00708031 0.032486487 -0.045255177 -0.030148366
0002c0 61 b7 20 bd 52 c9 85 3d e3 ee 79 bc 1b 93 88 3c
       -0.039237384 0.065325394 -0.015254709 0.016671708
0002d0 d5 b5 c1 bc 94 6f 4d bc a4 34 a8 bd d1 a3 92 bc
       -0.023646275 -0.012538809 -0.082131654 -0.01790038
0002e0 4f 41 c0 ba 9f a0 6d bd a5 bd 60 bd 80 47 b5 bb
       -0.0014667901 -0.05801451 -0.05486836 -0.005532205
0002f0 37 db a2 3c ac d2 f9 3c 3a bb 10 bd 31 8e d9 3c
       0.01987992 0.030495964 -0.035334803 0.02655706
000300 a0 eb 60 bc f1 27 99 bc d6 44 01 3d 4c 4d 31 bd
       -0.013728052 -0.018695803 0.031559788 -0.043286607
000310 5b 9b a7 bb 59 ff 0d bd ec 94 75 3c dc 60 35 bc
       -0.0051149554 -0.034667347 0.014989119 -0.011070456
000320 eb b1 07 3d ce 31 31 3c 6e ff 65 3c 7b 06 5a 3d
       0.03312866 0.010815097 0.01403795 0.053228837
000330 ee b9 3e 3d 02 27 af bc 61 3b c3 bd 53 d3 70 bc
       0.046564035 -0.021380905 -0.0953281 -0.014698821
000340 8f bf 47 bd 57 a2 b1 3d 43 d5 05 3d 02 c6 5c bd
       -0.04876667 0.08673542 0.032674085 -0.053899772
000350 7e b0 2d 3c a6 28 1c 3d 73 a4 4e 3d fc e6 90 3b
       0.010601161 0.038124703 0.0504498 0.0044220667
000360 79 15 8c 3c 18 46 3d 3c e1 f4 de bd 6a de d1 bd
       0.017100083 0.011552356 -0.10886551 -0.102475
000370 88 7b 7b bd 2d 23 05 3d 4c c8 83 bc 7a 75 6f 3c
       -0.061397105 0.03250425 -0.01608672 0.014615411
000380 bd 9c 2d bd a1 7f 2c bc d3 8d ef bc 39 d8 ed 3c
       -0.042385805 -0.010528476 -0.029242432 0.029033767
000390 7e 12 84 3c e3 bf 49 bc 73 7b 76 3d 3c 04 21 bc
       0.016122099 -0.012313816 0.060176324 -0.00982767
0003a0 3c 8a 21 bd 90 2f 87 3d 01 f5 bd bd 74 b5 a6 bc
       -0.03943847 0.06600869 -0.092752464 -0.020350195
0003b0 57 08 d4 bc 9b e6 50 3d ac e1 93 bb 28 47 d3 3c
       -0.025882883 0.051001173 -0.004512986 0.025790766
0003c0 05 d1 cf bc 2e 95 11 3c 64 b3 12 bd e4 e6 9a bd
       -0.025368223 0.008885665 -0.03581561 -0.0756357
0003d0 f8 16 58 3b d3 b6 ae bb 18 f2 a7 bc d1 f2 6a 3b
       0.0032972675 -0.005331853 -0.020501181 0.0035850296
0003e0 05 92 9d bd bd 00 0f 3d 6b 70 6b bd 7f f5 60 bd
       -0.07693867 0.034912813 -0.057480257 -0.054921623
0003f0 50 37 14 bd 60 b7 85 3c 86 39 16 bd 72 77 2f bd
       -0.036185563 0.016322792 -0.036675952 -0.04283852

network_body._body_endoder.seq_layers.0.weight f4 [256, 621]
000000 6a dd a6 3d 91 f1 21 3d 57 dc cd 3d 08 19 94 bd
       0.081477 0.039537016 0.10051792 -0.07231337
000010 ea f3 c3 3d 27 d3 0a bd 67 67 96 bd 4e 01 cb 3c
       0.09568007 -0.033892777 -0.07343941 0.024780896
000020 18 03 8d 3d a9 18 c1 3c 7b 7c 65 3d 85 e5 55 bc
       0.06885356 0.02357133 0.056026917 -0.01305521
000030 a0 07 a3 bd 7a 37 1b bd 21 e8 dc 3d 36 7a 17 be
       -0.07960439 -0.037894703 0.107864626 -0.14792714
000040 12 ac 97 3c 78 68 55 bd cc 5d 78 3b 1e 7b 89 bd
       0.018514667 -0.052101582 0.0037897704 -0.06712936
000050 8f 8d ba 3d a1 aa 83 bd b2 02 09 3e 0a c0 bc 3d
       0.091090314 -0.06429029 0.13379934 0.09216316
000060 3e c7 54 bd 21 ef 80 bb 56 cd 45 3d 28 00 ca 3d
       -0.051947825 -0.0039347564 0.048291527 0.09863311
000070 92 a6 4c bc 98 fe 34 3e 33 7b 76 bd b5 02 94 3d
       -0.012490885 0.17675245 -0.060176086 0.07227079
000080 12 cd b8 bd 35 27 e5 bd ff 5d 7f bb ab 62 5c 3d
       -0.09023489 -0.11189119 -0.0038965938 0.053805035
000090 0b 55 60 3c a2 7e ad bd fb 3f 5c be 47 11 53 bd
       0.013692151 -0.08471419 -0.21508782 -0.05153015
0000a0 a1 be ae bb 99 98 28 3d d7 17 4b 3d 7c 69 04 3d
       -0.0053327833 0.041161153 0.049583282 0.03232716
0000b0 28 21 59 bd 25 3a e3 3c 6c 6a 96 bc b5 8b 45 bd
       -0.053010136 0.027737686 -0.018361293 -0.048228938
0000c0 b2 fc de bd 29 22 a4 3d e5 ef a7 3d 1f 1b 85 3d
       -0.108880416 0.08014328 0.08200053 0.064993136
0000d0 30 ce e8 bc cd 24 9c 3d d6 a7 8d bb 45 b5 e1 bd
       -0.02841863 0.07624207 -0.004322986 -0.110209025
0000e0 d9 78 fa bc 57 2a 59 bd 46 9c c2 bc 2d 0c 9f bd
       -0.030575203 -0.053018894 -0.023756158 -0.07765994
0000f0 c2 73 41 bd b7 3c 46 bd 4b e8 40 bd 92 65 22 bd
       -0.047229536 -0.048397746 -0.04709653 -0.039647646
000100 c0 04 5f bd f1 b7 75 bd 0d d8 23 bd 1d 0f 80 3c
       -0.05444789 -0.059989873 -0.040000964 0.015632207
000110 9e b2 32 3d 42 95 99 3d ca 88 31 3c b8 82 c2 bd
       0.043627374 0.07499172 0.010835836 -0.09497589
000120 2d f3 7b bc 7a cc b0 3d 41 d9 c1 3d ec 62 9b bd
       -0.015377802 0.08632751 0.09465266 -0.07587227
000130 de b3 27 3d a9 91 37 be 16 c4 3a 3d 28 6e f8 bc
       0.04094302 -0.17926659 0.04559716 -0.030325964
000140 18 3c 87 bc 41 48 07 bd ed 83 b4 3b ee 05 80 be
       -0.016508147 -0.03302789 0.005508891 -0.25004524
000150 c2 1d 31 3d 14 1a 09 3e 76 44 11 3d c7 3a 09 be
       0.04324127 0.13388854 0.03546568 -0.13401328
000160 cb 98 12 3d 81 41 ae 3b 0c af 20 be 05 d3 cd 3d
       0.035790246 0.0053178673 -0.15691775 0.100500144
000170 ec a5 5f be 5a f8 2e 3d 4e a4 27 3e 3b be 57 3d
       -0.21840638 0.042717315 0.16371271 0.052671652
000180 42 2c ad 3d c5 80 7f 3d 10 c9 8f 3d ca 2f 6a bd
       0.08455707 0.062378664 0.070207715 -0.05717448
000190 56 b6 99 3d 9a 94 20 be 53 6c 2f bd b8 82 90 3d
       0.07505481 -0.15681687 -0.042827915 0.070561826
0001a0 39 ff d5 bc 94 3c 68 bd b8 71 3f bc 13 8f 7d bc
       -0.026122676 -0.056698397 -0.0116848275 -0.015476006
0001b0 ca 76 10 be 09 e2 aa 3d bd e7 2e ba d2 91 a9 bd
       -0.14107814 0.08343894 -0.0006672105 -0.08279766
0001c0 dc ed 0c 3e 44 70 47 3e eb 15 9f 3d 1e 7a 40 3d
       0.13762611 0.1947642 0.077678524 0.04699146
0001d0 fb 43 99 bd 80 30 cf bd b6 96 9d 3d 39 a2 0a 3c
       -0.07483669 -0.101166725 0.076947615 0.008461528
0001e0 8d 67 67 3d ac df 2f 3d 6f 7b 98 bc f0 17 e6 bc
       0.056495238 0.04293792 -0.018613545 -0.028087586
0001f0 50 23 00 3d a2 fa 56 3d 46 b6 21 3d d9 e8 41 3d
       0.031283677 0.052485116 0.03948047 0.0473412
000200 19 99 f9 b2 29 36 15 be 66 aa 65 3d 86 cf c9 bb
       -2.9057036e-08 -0.14571442 0.056070708 -0.006158772
000210 81 fd a0 bc f2 94 4d 3d 33 3e cd 3c 38 ef ed 3d
       -0.01965213 0.050190873 0.025054073 0.11617893
000220 20 f1 46 be c3 7d d9 bd 91 91 11 bb c2 ef 61 bc
       -0.1942792 -0.1061969 -0.0022212008 -0.013790073
000230 c6 de 59 3b 02 f6 e9 3c 48 cd 35 bc 9f e8 1e 3d
       0.0033244356 0.028559688 -0.011096306 0.038796064
000240 d9 96 8b 3d 1b 33 68 3d 08 ee 4e be ee f4 9f bd
       0.06815881 0.056689363 -0.20207989 -0.078103885
000250 cc 7d 03 3e ea d4 02 3e a5 0e 9f bd 09 a6 fc bb
       0.12840956 0.12776533 -0.07766465 -0.0077102226
000260 23 04 f8 3c 63 ab 12 bd 3e e2 f1 3c 05 2c 33 be
       0.03027541 -0.03580798 0.029526826 -0.17497261
000270 04 5a f9 bd ac 6e b6 3c f8 d1 5b 3d ca ab 84 3d
       -0.12175372 0.02226957 0.05366704 0.06478079
000280 63 76 f4 bc 45 42 57 3c 88 c3 d7 bd fd 0b d0 3c
       -0.029841607 0.0131383585 -0.105353415 0.025396341
000290 5e 12 e2 bd 10 3d 65 bd 25 ef aa 3d 8b 9f e3 3c
       -0.110386595 -0.055966437 0.083463944 0.027786037
0002a0 14 c0 a0 bb 34 49 af bd dd 63 66 3d ae 20 11 3c
       -0.00490571 -0.08558884 0.05624758 0.008857889
0002b0 dd 8f a8 3d dc f4 3f bd a2 09 8e bd 79 67 13 3d
       0.08230565 -0.046864375 -0.06935431 0.03598735
0002c0 3e d4 01 bd 46 19 29 3d 66 80 ff 3c 53 19 0b bd
       -0.03169655 0.04128387 0.031189155 -0.033959698
0002d0 d9 63 8b bb 62 1e 07 bd 10 68 5c be e1 c3 ab 3d
       -0.004253846 -0.03298796 -0.21524072 0.0838697
0002e0 0f 4f 4c 3c d0 6d 2d bd 0c 58 fe 3d ac 9a f7 3b
       0.012470021 -0.042341053 0.12419137 0.00755628
0002f0 ed e3 b1 39 aa 04 77 bd 94 db 2f 3e 82 ae a1 be
       0.0003392989 -0.060307182 0.17173606 -0.3157845
000300 5c fe ad 3d b4 42 41 be e8 5f 53 3e 9b 1b f8 bc
       0.08495781 -0.18873101 0.20642054 -0.0302866
000310 c8 74 f1 bc bc b1 fe 3c fe ec db 3d e9 76 9d bd
       -0.029474631 0.03109061 0.10738562 -0.07688696
000320 39 ac 0e bd ec 40 c7 3c 53 f5 18 3d 74 c2 0a be
       -0.034832213 0.02432295 0.037343334 -0.1355074
000330 cd 18 09 bd fa a4 d1 bc 22 1e 87 ba 57 fc b1 3d
       -0.033470917 -0.025591362 -0.0010308663 0.08690708
000340 09 be 00 3d af e4 7b be 35 45 5d 3d e1 9d 1b bd
       0.03143123 -0.24598955 0.05402108 -0.037992362
000350 68 6d a9 bd 9e cb 15 be e9 de 30 3c 5f 92 8d 3d
       -0.08272821 -0.14628455 0.010795333 0.06912684
000360 13 d2 97 bd 24 43 9e 3d db a6 50 be 8d fc 99 3d
       -0.07413115 0.0772765 -0.2037615 0.07518873
000370 30 c4 ef 3d 64 05 c0 bd 93 9f c4 3d d6 0f 8b 3d
       0.11707342 -0.09376028 0.09600749 0.0679013
000380 be 8a 0b 3d 32 8c ac bc 41 09 78 3d 4f de a3 bd
       0.03406786 -0.021062944 0.0605557 -0.080013864
000390 5c 94 37 3e 97 35 45 3e 42 41 ae 3d 77 26 b2 bd
       0.17927688 0.19258724 0.08508541 -0.08698743
0003a0 fd 17 5e 3d 5a e4 98 bb 52 dc c0 3d ca 3c 8f bb
       0.054222096 -0.0046658935 0.09417023 -0.0043712603
0003b0 42 02 b2 bd 42 25 19 3d be 1b bc 3d a6 27 27 3e
       -0.08691837 0.037389047 0.09184979 0.16323718
0003c0 d1 10 9b 3d 05 d7 6e bb 31 dd 0a 3e 0e b9 4a 3d
       0.07571567 -0.003644408 0.1356094 0.04949289
0003d0 6a 77 01 3d 25 88 03 be 3c 77 94 3d 34 7a 7d bc
       0.031608023 -0.12844904 0.07249305 -0.01547103
0003e0 c7 a7 0e bd 50 3b 8a 3c 08 2d a8 3d a8 12 bc 3c
       -0.034827974 0.016873986 0.08211714 0.022958115
0003f0 d6 38 53 3c 65 3b b0 3c 03 53 c1 3d e9 7d 82 3d
       0.012891969 0.021512697 0.09439661 0.06371672

network_body._body_endoder.seq_layers.2.bias f4 [256]
000000 67 06 09 bd c5 72 1e bd 6b 1f 02 bd ba ce fa bc
       -0.03345337 -0.03868367 -0.031768244 -0.030616153
000010 47 ed b7 bc 6a eb 8b bd a6 53 32 bd cb a2 27 3c
       -0.02245201 -0.06832011 -0.043536805 0.010231684
000020 38 ac 9f 3c 9e 2e e1 bc 77 8c 81 bc 47 68 d3 bd
       0.0194913 -0.02748805 -0.01581405 -0.10322624
000030 69 70 bd 3b 5d e7 e8 bd 20 ea a6 bd 80 9c 8c 3b
       0.0057812226 -0.11372254 -0.081501245 0.004291117
000040 43 1a 32 bd 0c 2e 02 be 43 d9 5c bd d4 b3 b8 bc
       -0.043482076 -0.12712878 -0.053918134 -0.022546686
000050 80 12 39 bd 26 43 f3 bd 2e b0 8e bc 98 66 38 bd
       -0.04518366 -0.11878042 -0.017417993 -0.045019716
000060 d3 eb 56 bb a9 7c 49 bd 45 e1 84 bd 58 50 2d bd
       -0.003279437 -0.04919115 -0.06488279 -0.04231295
000070 8b 4a 29 bd ca 33 11 3d 8a 23 97 bd e3 1b a1 bc
       -0.041330855 0.03544978 -0.073798254 -0.019666618
000080 35 34 85 bd f1 c9 06 3b 56 87 5f bd 20 18 0c bd
       -0.06504098 0.0020567144 -0.054572426 -0.034202695
000090 94 93 af bc a6 8b 44 bd fc 8f ca bc da 1d 20 bc
       -0.021432675 -0.04798474 -0.02472686 -0.009772742
0000a0 59 4a b6 bd 66 4f 4d 3c e4 82 94 bc b0 02 a9 bd
       -0.089008994 0.012531137 -0.01812882 -0.08252466
0000b0 3e 6f 1a bd fc 47 af bb 25 b7 8c bd 72 08 86 bd
       -0.037703745 -0.0053491574 -0.068708695 -0.065445796
0000c0 4f 4a 04 bd c0 8d 88 bd f4 b8 4b bc b4 f5 b0 bd
       -0.03229743 -0.06667662 -0.012434233 -0.08640614
0000d0 12 06 e1 bc 1c 9e e9 3b 73 a9 c5 3c 1c e1 3f bc
       -0.027468715 0.007129444 0.024128651 -0.011711385
0000e0 04 cb 0b bd 62 a3 76 bc 00 20 4c bd f4 47 3d bd
       -0.034129158 -0.015053602 -0.049835205 -0.046211198
0000f0 8e a0 89 bc 62 69 88 bd 5d 0a d0 ba f1 1e 2c bb
       -0.016800191 -0.06660725 -0.0015872229 -0.002626356
000100 6a 3b ad bc 0c 99 b7 ba 63 85 3e bd b9 d1 7e bb
       -0.021146495 -0.0014007404 -0.046513926 -0.0038882329
000110 d8 8e b9 bc ab e7 87 3c ff 02 de bc bd aa 60 bc
       -0.022651121 0.01658996 -0.027101038 -0.013712582
000120 34 fb 0e bd cd e3 53 bc 92 a1 73 bd 0c b5 65 bc
       -0.034907535 -0.01293273 -0.059480257 -0.014020216
000130 27 70 f8 3c be da 9d bd 6d a4 80 bd 54 ba 44 bd
       0.030326916 -0.077077374 -0.06281362 -0.04802926
000140 a5 b1 0e 3b 79 fe 4f bd 5a 92 78 bd 78 9b 08 be
       0.0021773365 -0.050779793 -0.060686447 -0.13340557
000150 d0 78 9a bd b7 9b b4 3c 89 6f 9c 3c 2c f7 6e bd
       -0.075425744 0.022046907 0.019096153 -0.05834119
000160 5b fb be bc 51 2e 9e bc 29 3e 02 3d dd 82 e9 3b
       -0.023313215 -0.019309195 0.03179756 0.007126196
000170 2a 87 8c bb 6c fb cb bc 06 bb c1 ba d1 2e 9b 3c
       -0.0042885737 -0.02490016 -0.0014780469 0.018943222
000180 1c 3b 9e bc b4 3e 08 bd a5 88 a8 3c 12 cd 35 bd
       -0.019315295 -0.033262923 0.02057297 -0.044385023
000190 fe e6 2b 3d 97 a5 40 bd d4 b8 31 bd 94 25 ea bc
       0.04196834 -0.04703292 -0.043389156 -0.028582372
0001a0 cd e2 d1 bc de bf 19 bd 8f da 44 bd 54 f6 03 3c
       -0.025620842 -0.037536494 -0.048059996 0.008054335
0001b0 05 7e 49 bd cf 8b ee bb 64 99 0f bd 89 ab b3 bd
       -0.049192447 -0.00727985 -0.035058394 -0.08772952
0001c0 1d 3e 22 bd 68 b7 15 be 68 4e 64 bd 6d 73 c9 bd
       -0.039610017 -0.14620745 -0.055738837 -0.09836469
0001d0 27 bc 55 3c f3 28 98 bd c9 f4 9f bd ff a9 c1 3c
       0.013045347 -0.074296854 -0.07810361 0.02364063
0001e0 2d f3 45 3b 51 c5 e7 bc 5c 25 0f bd 57 76 63 bd
       0.0030204759 -0.02829233 -0.034947738 -0.05553278
0001f0 3c 16 f2 bd a9 7a 0b bd 7c 63 87 3c 13 54 1c bd
       -0.11820647 -0.034052525 0.01652693 -0.038166117
000200 db 86 22 bd b6 43 03 bd 05 b8 6e 3c 67 a1 b2 bd
       -0.03967939 -0.032046996 0.014570241 -0.08722191
000210 f8 1c 1c bd e5 01 0d 3c 73 77 71 bd d4 70 d7 bd
       -0.038113564 0.008606409 -0.058951806 -0.10519567
000220 65 d3 b1 3b dc c5 87 bd 0a f6 13 38 34 fe 04 bd
       0.0054268115 -0.066295356 3.5276673e-05 -0.03246899
000230 ac b0 e2 bc 7f 19 98 bd 81 a5 8f bd 9e 31 91 bb
       -0.027672134 -0.07426738 -0.07013989 -0.0044309637
000240 e3 3e 02 bd 5f 35 e6 bb 88 33 0c bd 92 4d c8 bc
       -0.031798255 -0.0070254053 -0.03422883 -0.02445105
000250 14 f3 c6 3b a0 42 ab bd 1e 90 81 bd 89 0a 53 bd
       0.0060714576 -0.08362317 -0.06326316 -0.05152372
000260 24 c7 dc bc ad 87 fe 3b 4d 20 a2 bb c3 c4 c2 bc
       -0.026950426 0.0077676387 -0.004947698 -0.023775464
000270 d1 7f 14 bc 4c 85 2f bc bd 1e 20 bd 56 07 16 bb
       -0.009063677 -0.010712933 -0.039091814 -0.0022892556
000280 bd 92 a1 bb 72 70 de 3c 8c 9d a0 bd 98 e1 58 bd
       -0.0049308226 0.027153227 -0.0784255 -0.052949518
000290 ae 8e e4 bb 6c 3e 66 3d 47 27 0b 3c 59 e6 16 bd
       -0.0069750166 0.056211874 0.008493251 -0.03684077
0002a0 fb 55 66 bd 07 27 20 3d f4 c4 dc bd 69 d9 44 bd
       -0.05623434 0.03909972 -0.10779753 -0.0480589
0002b0 57 01 97 bc 6d f1 9e bd 40 38 4f bd e6 1f ca bd
       -0.018433256 -0.07760892 -0.050590754 -0.098693654
0002c0 41 4b fc 3a ed a9 a2 bd 3c c0 56 3d 4f 1c f5 bc
       0.0019248502 -0.07942567 0.052429423 -0.029920725
0002d0 6e fa 43 3b e8 73 a7 bd 3f b0 8a bd ae f0 63 bd
       0.0029903906 -0.08176404 -0.067718975 -0.055649452
0002e0 2e 7e 15 be 8e 1d ac bd 82 89 03 be cc ae 43 3c
       -0.14598915 -0.084040746 -0.12845424 0.01194353
0002f0 5e 9e 05 bd 14 bb 25 bd c0 e1 9e bc 99 e7 fa bc
       -0.032621734 -0.040461615 -0.019394755 -0.030628012
000300 c9 0b 79 bd db 43 b9 bc 22 a8 b3 bc 84 06 1e bc
       -0.060802255 -0.022615364 -0.021930758 -0.009645108
000310 b2 c0 d4 bd 06 f4 32 bd 97 3b 8b bd 4b c7 88 3c
       -0.10388316 -0.04368975 -0.06798475 0.016696593
000320 e7 90 b8 bb f3 4a 08 bd 6b 39 cb ba df 83 85 bd
       -0.005632508 -0.033274602 -0.0015504783 -0.06519293
000330 71 f6 5b bd c8 3c 62 bd e4 f6 93 bd 45 c9 8f 3b
       -0.05370182 -0.055233747 -0.07224825 0.004388007
000340 ca 9f 82 bd b6 f1 86 bd 55 0a 7c bd 3e b3 c4 bc
       -0.063781336 -0.065890715 -0.06153329 -0.02401125
000350 f5 11 bd bc 60 25 00 bb c7 7d a9 bd 4b 24 1d bd
       -0.023079852 -0.0019553527 -0.08275943 -0.03836469
000360 6b 32 b9 bc 27 cb ff ba 40 94 0f bd 71 34 a6 bd
       -0.022607049 -0.00195155 -0.03505349 -0.08115471
000370 ba d5 89 bd e8 7a ed bd 02 84 dc bd d5 aa 01 bd
       -0.06730218 -0.11595708 -0.10767366 -0.03165706
000380 9a e5 33 bd 6e 8e dd bd b3 16 18 bd 74 76 a6 bc
       -0.043920137 -0.10818182 -0.037131023 -0.020320155
000390 67 ea db bc 01 62 b2 bd 73 c9 1d bd f3 22 02 bd
       -0.02684517 -0.08710099 -0.038522195 -0.03177161
0003a0 06 a3 27 bd 01 1a e6 bb 11 1a a4 bc 64 d2 a5 3c
       -0.040926956 -0.007022143 -0.02003196 0.020241924
0003b0 0f 56 0f bc 93 77 b1 3c cd 3b 17 bd 89 00 02 bd
       -0.008748545 0.021663463 -0.036922265 -0.03173879
0003c0 09 8b 51 bc 65 6b 47 3a 3e 48 ca bc 77 f8 d6 bb
       -0.012789496 0.00076072506 -0.02469265 -0.006560381
0003d0 6c f6 2d bd 65 fc 58 bd a6 5a 45 3d 5f e6 c5 bc
       -0.042471334 -0.052975077 0.048182152 -0.024157701
0003e0 63 26 ee 3b 20 7d b9 bd c8 51 ee bc 73 4c 97 3b
       0.0072677596 -0.09057069 -0.02909173 0.0046172678
0003f0 64 8f 03 bd fd 31 7f bd fa 37 4c bd 41 3b 3f bd
       -0.03211917 -0.062303532 -0.04985807 -0.04668737

network_body._body_endoder.seq_layers.2.weight f4 [256, 256]
000000 63 67 03 be e7 1b d2 bd cb af 3a 3e 64 0d a8 3d
       -0.12832408 -0.10259228 0.18231122 0.08205679
000010 f1 1b c1 bd 54 97 30 bd 12 f9 8d bd 8c c1 03 be
       -0.094291575 -0.043113068 -0.06932272 -0.12866801
000020 75 bc 00 be 59 4d cc bd 20 8e 8d 3c a4 6d a4 bd
       -0.1257189 -0.099756904 0.017279685 -0.08028725
000030 68 99 4a be 30 40 c8 bd 39 82 26 be c1 2c a8 bb
       -0.19785082 -0.09777868 -0.16260614 -0.005132288
000040 d2 68 ae bd 19 15 11 3d e3 29 05 3d 9c 9a 53 bd
       -0.08516087 0.03542051 0.03251065 -0.05166112
000050 6b 18 26 bd 05 74 b6 3c cc 2d 06 be 5d 1e bd bd
       -0.04055063 0.02227212 -0.13103408 -0.09234307
000060 d7 3b 07 bd d1 5c 25 bd ef ee 30 be 77 2d e5 3d
       -0.033016052 -0.04037172 -0.17278646 0.11190312
000070 a7 c7 83 bd 86 b0 1f bc 24 38 1b bb 0f 82 8c bd
       -0.06434565 -0.009746676 -0.0023684585 -0.06860744
000080 4a e3 83 bd e2 6b b5 3d ca f2 3b bd 08 55 b5 bd
       -0.06439836 0.08858468 -0.04588584 -0.08854109
000090 6b 1b 4c bc 9a 9b 92 bd a0 d7 25 3d 03 12 8f bd
       -0.012457709 -0.07158585 0.04048884 -0.06985857
0000a0 9a 83 35 bd 01 8b b2 bd 69 dd 8a bd fc b1 7a 3c
       -0.04431496 -0.08717919 -0.06780512 0.015301224
0000b0 18 41 41 3e e3 04 86 3a 67 08 34 bd 07 9c c0 3d
       0.18872488 0.0010224845 -0.043953326 0.0940476
0000c0 7a d9 01 bc bd 12 69 3b ab 35 ff 3c c1 cc d6 bd
       -0.007925386 0.0035564147 0.03115352 -0.104882725
0000d0 a1 a5 46 bd 2e 2d 9a bd fe fd f7 3a 2b 84 54 bd
       -0.0484978 -0.075281486 0.00189203 -0.051883858
0000e0 22 1f 3e 3d a9 0c b0 3c 00 ba 44 3e ec 11 57 3b
       0.04641641 0.021490412 0.19211578 0.0032817079
0000f0 a6 0d 36 be 7d 73 df bc 44 74 54 3d 6d 3c 95 bd
       -0.17778644 -0.027276749 0.051868692 -0.07286916
000100 3d 95 58 3d b2 e9 5d be 67 f1 a2 3d 69 28 b9 3d
       0.0528767 -0.21671179 0.079562 0.09040911
000110 85 0b a2 3d a9 c8 c9 3b 89 f9 33 bd a9 99 03 be
       0.079123534 0.0061579538 -0.043939147 -0.12851585
000120 a2 cd 12 bc f9 30 ed bc 43 7f 0f bd 2b ed 21 bd
       -0.0089601595 -0.028954016 -0.035033476 -0.03953282
000130 11 6e ab 3d 96 a2 03 3e 02 ba f7 bd 9f 30 b6 bd
       0.08370603 0.1285499 -0.12096025 -0.088959925
000140 b7 6b b1 bd cd 60 01 3c c2 98 ff bc ac db d1 bd
       -0.08663123 0.007896614 -0.03120077 -0.10246977
000150 b6 a9 e4 3d 95 42 2f 3c 74 88 71 3c 06 dc f8 3c
       0.11165182 0.010697027 0.014742006 0.030378353
000160 ae 98 70 bd 28 3c 00 be 06 cd 1f bc 0f e6 97 3c
       -0.058739357 -0.12522948 -0.009753471 0.018542318
000170 dc 52 9a 3d fb 48 0e 3d 4f 2e 5a bd e7 32 61 bd
       0.075353354 0.03473757 -0.05326682 -0.054980185
000180 64 72 5a bd 3c f8 b6 3d ed 50 18 bd 75 4d 83 bd
       -0.053331748 0.08934066 -0.03718655 -0.06411258
000190 bf 66 aa bd cf 68 93 bd d8 ea 3e 3e 3b 52 b8 3c
       -0.083203785 -0.07197725 0.18644273 0.022500148
0001a0 89 d3 25 bd 32 0b ba 3d 48 36 d1 3d 00 d1 2b 3e
       -0.04048494 0.090841666 0.102154315 0.16778946
0001b0 c8 c8 05 bb 2a f9 ae bd 21 ae 28 bd 92 94 d2 3d
       -0.0020413864 -0.08543618 -0.041181687 0.10282244
0001c0 2c 46 55 bd c9 0d 2b bd 14 95 56 3e 99 4d 5b bd
       -0.052068874 -0.041761193 0.20955306 -0.0535408
0001d0 5f 90 14 3d 70 e9 81 bd 47 ce 7a 3c d6 b8 7e 3d
       0.036270496 -0.06343353 0.015307969 0.062187992
0001e0 c0 2c 25 be d6 db fe bb 96 85 29 bd 3c b8 0b be
       -0.16130352 -0.0077776713 -0.041387163 -0.13644499
0001f0 62 1f 3a bc 70 57 48 3d 66 a6 a4 bd 3a e6 a4 bd
       -0.011360021 0.048911512 -0.080395505 -0.08051725
000200 bf ca d9 bd 82 0b 19 be 5a 76 c3 3d 62 14 2d 3d
       -0.10634374 -0.14945796 0.09544058 0.042255767
000210 f4 2e 50 be d4 3f 12 bd b8 3f c2 bd 9f d6 72 bc
       -0.20330411 -0.035705402 -0.0948481 -0.0148216775
000220 23 67 2d bd 3f 17 b7 3c 12 c0 5f bd 8f 2e 40 bb
       -0.042334687 0.022349952 -0.054626532 -0.0029324626
000230 57 e7 2d be 23 7d 02 be 03 8a b2 bc 2b dc a9 3d
       -0.1698278 -0.12743048 -0.021794325 0.08293947
000240 cb dc 0a 3d 79 d9 40 3d 1f d2 8b bd 47 34 0c 3c
       0.03390197 0.047082398 -0.06827187 0.008557386
000250 bd 17 5c 3e 73 eb 3b be 18 6b d5 bc 38 3b ce bd
       0.2149343 -0.18351535 -0.026052043 -0.10069889
000260 61 6c d2 3d 46 f9 e6 3c 39 50 9d 3c 82 33 23 3c
       0.10274578 0.028195035 0.019203292 0.009961011
000270 7b 9f 26 bd 28 ae bd bd 3e cd f1 bc b2 63 0c 3c
       -0.040679436 -0.09261733 -0.029516812 0.008568691
000280 d6 03 4e 3c 11 66 16 be d4 17 a8 3d 9d 3f a4 3c
       0.012574157 -0.14687373 0.0820767 0.020049864
000290 13 58 41 be 84 9b 06 bd ed cf 57 bd 2d e8 97 bd
       -0.18881254 -0.032863155 -0.052688528 -0.07417331
0002a0 40 4e d6 bc fe 63 62 bc 8a 01 8a bc ca 77 46 bd
       -0.02616036 -0.013817785 -0.016846437 -0.048454084
0002b0 eb 63 1e bd 4a c9 71 3c 7a d1 de 3d 5d c8 2d 3c
       -0.038669508 0.014757464 0.10879798 0.010606852
0002c0 8d e8 80 3c 9e 29 28 bd ca bf 9e bd f4 33 0a bd
       0.015735889 -0.041055314 -0.077514246 -0.033740953
0002d0 d4 81 bd bb 34 17 f4 3b a3 05 96 3d a0 8b c0 bd
       -0.005783299 0.007449055 0.07325294 -0.09401631
0002e0 c5 e5 2f 3e e5 6e b9 bd 3c c1 ed 3d 06 99 b8 3d
       0.17177494 -0.090543546 0.11609122 0.09013562
0002f0 96 3e 43 3e 31 43 c9 bd 50 20 2d bb 48 b4 b4 bd
       0.19066843 -0.09827269 -0.0026416965 -0.088234484
000300 4a b4 23 3e 54 7e 70 bd 89 be 78 be c4 d2 01 bd
       0.15986744 -0.058714226 -0.24291433 -0.031695142
000310 7d 84 77 bc e5 c9 33 bc de d9 e4 bd 90 86 b0 bd
       -0.015107271 -0.010973428 -0.11174367 -0.08619416
000320 03 7a cc 3d dd 8e d1 3d ee d9 f5 3d 9b c7 26 3e
       0.099842094 0.10232327 0.120044574 0.16287081
000330 38 6a d8 ba fa 29 e0 3c 04 96 5e be 60 4c 4c bd
       -0.0016511148 0.027363766 -0.21736914 -0.049877524
000340 ba 97 05 bd be 00 43 bd 12 c7 79 bd b4 0a 9b 3d
       -0.0326154 -0.04760813 -0.060980864 0.07570401
000350 00 fd d0 bd 70 8b ac 3c ec e2 05 be 54 be 21 be
       -0.10204506 0.021062583 -0.13074845 -0.1579526
000360 bf 6d 7c 3d 02 1b 03 3d eb a4 00 3d af 95 48 3d
       0.0616281 0.03200818 0.031407278 0.048970874
000370 9d e5 53 bd d0 11 29 3e 25 07 bf 3c df cc 57 be
       -0.05173265 0.16510701 0.023318836 -0.21074246
000380 9b 3a 45 be cc 4c 3f bd ba cb 02 3d 16 b5 b6 3d
       -0.19260637 -0.0467041 0.03193257 0.08921258
000390 7c 52 22 3d 6a 6b be 3c ff 22 cc bc bb 84 86 bc
       0.039629444 0.023244578 -0.024919031 -0.016420713
0003a0 f5 b6 bf bc 7c b0 5b be e0 49 9e 3d 59 43 01 3d
       -0.02340267 -0.21454042 0.07728934 0.03155837
0003b0 f4 91 2e 3e 9e b4 0e 3e 1d 97 d4 3d d5 bb 0f be
       0.17047864 0.13936087 0.10380385 -0.14036496
0003c0 ad 8a bb bd 6c 43 80 bc 31 7f 90 bd 9a 34 4e bd
       -0.0915731 -0.01565715 -0.0705551 -0.050343134
0003d0 f8 34 3b be 17 9c b0 bd 39 e9 b9 bd e4 27 13 3e
       -0.18281925 -0.08623522 -0.09077687 0.14370686
0003e0 3d f1 e3 bc 18 50 8a bd d4 41 26 3d 81 08 a8 bc
       -0.027824992 -0.06753558 0.040590122 -0.020511867
0003f0 e5 92 c2 bd 5d 5a 3b bb 92 e7 14 3d 89 95 81 3d
       -0.09500674 -0.0028587796 0.036353655 0.0632735
