Assets/TFModels/Other models trained in the process/Striker3_poca_4M_new.onnx (onnx, 982892 bytes, 9 tensors)

action_model._discrete_distribution.branches.0.bias f4 [5]
0	0xbb2f4460	-0.0026743636
1	0x3dca0bc1	0.09865523
2	0xbd608be3	-0.054820906
3	0x3c02679c	0.007959273
4	0xbd1902f7	-0.037356343

action_model._discrete_distribution.branches.0.weight f4 [5, 256]
0	0xbd933bd2	-0.07189144
1	0xbddf0a4b	-0.10890635
2	0xbd79834a	-0.060916223
3	0xbc817553	-0.015803015
4	0x3de960e8	0.113954365
5	0xbe371aeb	-0.17881362
6	0x3d1c4991	0.038156096
7	0x3c469f1d	0.0121228965
8	0x3deeea72	0.11665811
9	0x3e4f880f	0.20266746
10	0x3e2be525	0.1678663
11	0xbd4bf902	-0.04979802
12	0x3d74431d	0.059634317
13	0xbdad4970	-0.08461273
14	0x3db8aab4	0.09016934
15	0xbd83b6d1	-0.06431354
16	0xbd7c68ed	-0.061623503
17	0xbd9fee6c	-0.07809147
18	0xbdb50b75	-0.08840076
19	0x3e355548	0.17708313
20	0x3df764b5	0.12079755
21	0xbd82c235	-0.06384698
22	0xbd857489	-0.06516368
23	0xbdacbaeb	-0.08434089
24	0xbe0f4c53	-0.13993959
25	0xbe2ba3e3	-0.16761737
26	0x3dcc2633	0.099682234
27	0xbc4e7b88	-0.012602694
28	0xbdd8f587	-0.105937056
29	0xbc63769c	-0.013883259
30	0x3e16d1b8	0.14728439
31	0x3cf448e2	0.02981991
32	0x3e07ebbe	0.13273522
33	0x3c1a2c58	0.009409986
34	0xbcc8e9a7	-0.024525477
35	0xbe0306a6	-0.12795505
36	0x3d823a26	0.06358747
37	0xbceaf5e2	-0.0286817
38	0xbdabfc11	-0.08397687
39	0xbd2aad64	-0.041669264
40	0x3e061776	0.13094887
41	0x3b88abc8	0.0041708685
42	0xbe1cb862	-0.15304711
43	0x3e2b14bc	0.16707128
44	0xbe3da45d	-0.18519731
45	0x3cf08470	0.029360026
46	0x3df3783e	0.11888169
47	0x3de7f45a	0.11325903
48	0x3de545f8	0.11194986
49	0x3da2d099	0.07949943
50	0x3dd05a2e	0.101734504
51	0xbc9f3cdd	-0.019438202
52	0x3d78e4ec	0.060765192
53	0x3df58b5f	0.119894736
54	0xbc64b48b	-0.01395906
55	0x3dd7f9ff	0.1054573
56	0x3d8e8603	0.069591545
57	0xbd0ee8e1	-0.03489006
58	0x3cf8e6f8	0.030383572
59	0x3d2bc0ee	0.04193204
60	0xbd08ffdf	-0.033447143
61	0xbce79c2e	-0.028272714
62	0xbe7a8103	-0.24463277
63	0x3db148d9	0.08656473
64	0xbdc7ada7	-0.097499184
65	0x3d810b2f	0.06300961
66	0xbdbd41f3	-0.092410944
67	0x3dab6e9e	0.08370708
68	0xbdfcd5dc	-0.12345478
69	0x3d85eb25	0.06538991
70	0xbe49283c	-0.19644254
71	0xbc615c8a	-0.013754973
72	0x3d1d12e9	0.038348112
73	0x3dbd1b05	0.09233669
74	0xbd1cc375	-0.03827234
75	0xbc7623de	-0.0150232
76	0x3db1d834	0.086838156
77	0xbcdabbc4	-0.026700862
78	0x3d1f0ec6	0.03883245
79	0xbd512493	-0.05106027
80	0x3d9be63d	0.07612274
81	0xbdd3a5cb	-0.10334357
82	0x3d3d2a2f	0.046182808
83	0x3e2fe90c	0.17178744
84	0x3c613212	0.013744848
85	0x3d4fe25e	0.05075299
86	0xbc66b691	-0.014081613
87	0xbc999449	-0.018747466
88	0xbd3cf111	-0.046128336
89	0xbe06b189	-0.13153662
90	0xbd876ace	-0.06612168
91	0x3cac0a01	0.021000864
92	0xbe167abc	-0.14695257
93	0xbdb5817b	-0.08862587
94	0xbc9c4d9c	-0.019079976
95	0x3db65672	0.08903207
96	0x3e23d838	0.1600045
97	0xbdd545c2	-0.10413696
98	0x3cabe503	0.020983225
99	0xbd64371a	-0.05571661
100	0xbd794b21	-0.060862664
101	0x3e5bdb04	0.21470267
102	0x3d3c722a	0.046007313
103	0x3cf960d0	0.030441672
104	0x3e03b39b	0.12861483
105	0xbb9ab789	-0.004721586
106	0x3d3d0fc6	0.04615762
107	0xbc6a92db	-0.01431724
108	0x3d096e56	0.03355249
109	0x3d77bd6b	0.060483377
110	0xbdc28b67	-0.09499245
111	0xbca65411	-0.020303758
112	0xbdda4913	-0.10658469
113	0x3d21720f	0.039415415
114	0x3c88a183	0.016678577
115	0xbe27165f	-0.16317128
116	0xbb815f86	-0.003948155
117	0xbde2aeb2	-0.11068477
118	0x3dd9baa7	0.10631304
119	0xbd373bdc	-0.04473482
120	0x3e112c79	0.14177121
121	0x3c8f0e16	0.017462771
122	0x3c99eed3	0.018790638
123	0x3e133ec2	0.14379409
124	0xbe0071f6	-0.12543473
125	0xbdc4001d	-0.09570334
126	0x3d54fddf	0.051999923
127	0xbdd1f059	-0.10250921
128	0x3d4a9aa1	0.049463872
129	0x3d3116a4	0.043234482
130	0xbd8da8d8	-0.0691697
131	0xbd3fb08d	-0.04679923
132	0xbc004d3f	-0.007830917
133	0x3e1788bc	0.14798254
134	0x3dc23513	0.09482779
135	0x3dc2c081	0.095093735
136	0x3d7c1eb5	0.061552722
137	0x3d9c3f25	0.07629231
138	0x3e4f63f0	0.20252967
139	0x3e6f5a45	0.23374279
140	0x3df362c4	0.118840724
141	0xbd1b3ef8	-0.03790185
142	0xbdfba879	-0.12287993
143	0x3df6d555	0.120524086
144	0x3d20d6ef	0.039267477
145	0x3ddbafeb	0.10726913
146	0xbdcfdcdc	-0.101495475
147	0x3d82d76c	0.06388745
148	0xbd6d9758	-0.05800566
149	0x3b8b578a	0.004252379
150	0xbd24d3c8	-0.040241033
151	0x3e3e46fe	0.18581769
152	0x3e14a3a6	0.14515552
153	0xbd5203bb	-0.05127309
154	0xbd5daa6a	-0.054117598
155	0x3dee0522	0.11622073
156	0x3d89092f	0.06691205
157	0x3d36da01	0.0446415
158	0x3e22fa13	0.15915708
159	0xbded4a52	-0.11586441
160	0x3d1d4431	0.03839511
161	0xbd6a6f12	-0.05723483
162	0xbcbeb1b9	-0.023278104
163	0xbd84cad7	-0.06484001
164	0xbbf29d57	-0.0074040103
165	0xbdada713	-0.084791325
166	0xbd5ba67c	-0.05362557
167	0xbdcd4af7	-0.10024064
168	0x3d99241f	0.07477593
169	0x3d0aec81	0.033916954
170	0xbd813116	-0.063081905
171	0x3b8a0194	0.004211614
172	0x3ddbb2d4	0.10727468
173	0x3dd210f3	0.10257139
174	0xbd82347a	-0.06357665
175	0xbccfff2c	-0.02539023
176	0xbe2d417c	-0.16919512
177	0x3c360e81	0.011111856
178	0x3e1162c4	0.14197832
179	0x3e047506	0.12935266
180	0x3daf6e02	0.08565904
181	0x3e0d44a2	0.13795713
182	0xbe36773c	-0.17818922
183	0xbdcbc7f0	-0.099502444
184	0xbc0c5f87	-0.008567697
185	0xbbc84f20	-0.006112948
186	0x3e4b004e	0.19824335
187	0x3c8d2917	0.017231507
188	0x3e3ad467	0.18245088
189	0xbe08245f	-0.13295124
190	0x3dba6c6d	0.09102712
191	0x3ca97f33	0.020690536
192	0x3e663742	0.22482017
193	0x3adb4756	0.0016729634
194	0xbc2f7f98	-0.010711573
195	0x3ce6ef13	0.028190171
196	0x3d481cd6	0.048855625
197	0x3d1607ad	0.036628414
198	0x3d2d53cb	0.04231624
199	0x3d9a5408	0.07535559
200	0x3e05b65e	0.13057849
201	0xbda06f08	-0.078336775
202	0xbdbc689d	-0.09199641
203	0xbe11c0fc	-0.14233774
204	0xbda3b6c7	-0.079938464
205	0xbd0ff03c	-0.035141215
206	0x3d31cc1d	0.04340755
207	0x3cd19215	0.025582353
208	0xbdcc629a	-0.09979744
209	0x3d491943	0.049096357
210	0x3c69f721	0.0142801115
211	0x3dbfda55	0.093678154
212	0x3cf79c83	0.030225998
213	0x3e0665a2	0.13124707
214	0xbdc32206	-0.09527974
215	0x3de22063	0.110413335
216	0x3e613dde	0.21996257
217	0xbda6ac3f	-0.08138322
218	0x3d0168dc	0.031594142
219	0x3d17faee	0.03710454
220	0xbd9c4f5e	-0.076323256
221	0xbce813d9	-0.028329777
222	0xbe063769	-0.13107075
223	0x3e092c3a	0.13395777
224	0xbd879d6b	-0.06621822
225	0xbd5fb231	-0.054613296
226	0xbe197e65	-0.14989622
227	0x3e3da240	0.18518925
228	0xbcc5c5ad	-0.02414211
229	0xbdd95e65	-0.106137075
230	0xbe40fa64	-0.18845516
231	0x3dc7ad67	0.09749871
232	0x3c63c0a6	0.013900911
233	0x3da225f1	0.07917393
234	0x3da50758	0.08058041
235	0x3dcc311a	0.09970303
236	0xbc921c01	-0.017835619
237	0x3e102117	0.14075123
238	0x3e5d1f81	0.21594049
239	0x3e3216a5	0.1739145
240	0xbe176fe2	-0.14788774
241	0x3d31dc6c	0.0434231
242	0xbe4d8568	-0.20070422
243	0xbe3c9eb2	-0.18419912
244	0x3cd4eff0	0.025993317
245	0x3d59be61	0.053160075
246	0xbdb08036	-0.08618204
247	0x3e3797f5	0.17929061
248	0xbd6a8354	-0.05725415
249	0xbe5549e9	-0.20828976
250	0xbc9054ef	-0.017618624
251	0xbe4f6428	-0.2025305
252	0xbdb24ba1	-0.08705831
253	0x3d4eda78	0.050501317
254	0xbd9ee0f6	-0.07757752
255	0xbd031294	-0.03200014

action_model._discrete_distribution.branches.1.bias f4 [3]
0	0x3dc4d553	0.09611001
1	0xbd8c0155	-0.068361916
2	0xbd24f6cc	-0.040274426

action_model._discrete_distribution.branches.1.weight f4 [3, 256]
0	0xbda21fed	-0.079162456
1	0xbe3b8145	-0.18311031
2	0x3be8902a	0.007097264
3	0x3e442283	0.1915379
4	0xbdd0d6ee	-0.101972446
5	0xbbc2a882	-0.005940498
6	0x3e03cd12	0.12871197
7	0x3dbf87b4	0.09352055
8	0xbdd05ded	-0.10174165
9	0xba483483	-0.00076372194
10	0x3e1d9b59	0.15391292
11	0x3c38018c	0.011230838
12	0x3da5652d	0.080759384
13	0xbe13202c	-0.14367741
14	0x3d27356e	0.04082244
15	0x3d2595c9	0.04042605
16	0xbe2c4e7c	-0.16826814
17	0x3ccc0048	0.024902478
18	0xbd01b310	-0.031664908
19	0x3e3dbb4d	0.18528481
20	0xbca37e47	-0.019957675
21	0xbd897604	-0.06711963
22	0xbcf33e85	-0.029692898
23	0x3e07b55e	0.1325278
24	0xbb7921c9	-0.0038014522
25	0xbcafc23a	-0.02145492
26	0xbe4aa3e8	-0.19789088
27	0xbdbbbb66	-0.09166603
28	0xbd9a62aa	-0.0753835
29	0x3e2bd61c	0.16780895
30	0xbe08aa10	-0.13346124
31	0x3d1d2ac5	0.038370866
32	0xbd06017a	-0.032716252
33	0xbb6f3c76	-0.0036504543
34	0x3de3ab9b	0.111167155
35	0x3c524eb4	0.012836147
36	0x3d693ce5	0.05694284
37	0x3c98bf81	0.018646004
38	0xbd8aa439	-0.06769604
39	0xbdcfd632	-0.101482764
40	0x3e3354af	0.17512773
41	0xbe689575	-0.22713263
42	0x3df4f3a7	0.119605355
43	0x3c24ed7f	0.010066389
44	0x3d315089	0.043289695
45	0xbcb3c9d2	-0.021946821
46	0xbe54e504	-0.20790488
47	0x3e89b450	0.2689538
48	0xbe72d355	-0.2371343
49	0x3e3cb533	0.18428497
50	0x3d5ee128	0.054413944
51	0xbe0ad080	-0.13556099
52	0x3df2afdc	0.11849949
53	0x3c794aa5	0.015215551
54	0x3d22319b	0.03959809
55	0xbc42c214	-0.011887092
56	0xbd90d455	-0.07071749
57	0xbc151062	-0.009098144
58	0x3dace9cb	0.0844303
59	0x3c19b483	0.009381416
60	0xbe7ffef0	-0.24999595
61	0x3d9ec290	0.077519536
62	0xbd317781	-0.04332686
63	0xbe15e02b	-0.14636295
64	0xbd793a03	-0.06084634
65	0x3db0a85c	0.08625862
66	0xbe0e7a98	-0.13913953
67	0xbc8f82d5	-0.01751844
68	0xbde64922	-0.11244418
69	0xbdac47b1	-0.084121116
70	0xbe1b75dd	-0.1518168
71	0x3d934b45	0.07192091
72	0x3d003f68	0.03131047
73	0xba29477a	-0.0006457489
74	0x3d77f31c	0.06053458
75	0x3d850805	0.0649567
76	0xbd0c5936	-0.034264766
77	0x3d957a57	0.07298725
78	0x3e05a726	0.13052043
79	0xbdd6631b	-0.104681216
80	0x3d96a103	0.07354929
81	0xbc747252	-0.014919834
82	0xbdcce918	-0.100053966
83	0xbdbe80e4	-0.09301928
84	0xbc152ed6	-0.009105405
85	0x3db3514e	0.08755742
86	0x3d3e5922	0.046471722
87	0x3c06bb1e	0.008223323
88	0xbc655f14	-0.013999719
89	0x3e289338	0.1646241
90	0xbd9ff0e6	-0.078096196
91	0xbd29900d	-0.041397143
92	0xbd1a9ca5	-0.037747044
93	0x3d523d9c	0.051328287
94	0xbbc320ca	-0.0059548365
95	0xbd5d4169	-0.054017458
96	0xbddb8039	-0.10717816
97	0x3ceea808	0.029132858
98	0xbda70d44	-0.08156827
99	0x3daee82a	0.085403755
100	0x3d0a7676	0.03380438
101	0x3d37d3e5	0.044879813
102	0x3dd9e9a8	0.106402695
103	0xbd3587d6	-0.044318996
104	0x3d704f2e	0.05866926
105	0x3d349aae	0.044092827
106	0xbe1717db	-0.14755194
107	0x38bf4593	9.120549e-05
108	0x3cddb584	0.027064092
109	0x3d997ca2	0.07494475
110	0xbd7c46e0	-0.06159103
111	0xbc66deb5	-0.014091183
112	0xbe125d4d	-0.14293404
113	0x3c159d7d	0.009131786
114	0xbde434ef	-0.11142909
115	0xbbfd8f30	-0.0077380165
116	0xbe2088f1	-0.15677239
117	0xbe249321	-0.1607175
118	0xbc46e891	-0.012140409
119	0x3e354270	0.17701125
120	0xbd2bf070	-0.041977346
121	0xbd83bc8a	-0.06432445
122	0xbe126044	-0.14294535
123	0x3d32bbd4	0.043636158
124	0xbddfe87c	-0.10933015
125	0xbe18eb08	-0.14933407
126	0x3d745868	0.059654623
127	0x3d854870	0.06507957
128	0x3bf2f5fa	0.0074145766
129	0xbe0470bc	-0.1293363
130	0x3da15b48	0.07878739
131	0xbe0f10e8	-0.13971293
132	0x3e24d6f0	0.16097617
133	0x3d8bd6e8	0.068280995
134	0xbc54e922	-0.012995036
135	0x3da6a7fb	0.081375085
136	0xbda9a939	-0.0828423
137	0xbdef8175	-0.11694614
138	0xbd7f6680	-0.06235361
139	0xbdb02605	-0.08601002
140	0x3c4558da	0.01204511
141	0xbd8b0508	-0.06788069
142	0xbd0fd542	-0.035115488
143	0xbe015171	-0.12628724
144	0x3d392780	0.045203686
145	0x3de9c6af	0.11414849
146	0x3dec276a	0.11530955
147	0x3dd42118	0.10357875
148	0xbdfe072b	-0.12403711
149	0xbe51b010	-0.20477319
150	0xbb8ac6cf	-0.0042351256
151	0xbda25cb0	-0.07927835
152	0x3e2aa045	0.166627
153	0xbe043efc	-0.12914652
154	0x3a9df103	0.0012049977
155	0xbd1dc4f6	-0.038517915
156	0x3d92db67	0.07170754
157	0x3c198754	0.009370644
158	0xbdbd734e	-0.09250508
159	0xbdf46385	-0.11933044
160	0xbc5801d5	-0.013184031
161	0xbde591ab	-0.112094246
162	0xbd00bf09	-0.031432185
163	0xbda04ef5	-0.0782756
164	0xbc2c3ae6	-0.010512089
165	0x3e6615e3	0.22469287
166	0x3e0f38d8	0.13986528
167	0xbd969f31	-0.07354582
168	0xbd4f41d7	-0.0505999
169	0xbd1ffbec	-0.03905861
170	0xbd8cc007	-0.06872564
171	0x3d39fba5	0.045406003
172	0xbdb957c5	-0.09049944
173	0x3ca29e3e	0.019850846
174	0x3d8e30a2	0.0694287
175	0x3c332483	0.010933998
176	0xbd1499d6	-0.036279522
177	0xbd581a5f	-0.052759524
178	0xbde234a7	-0.11045199
179	0x3de1465f	0.1099975
180	0x3db22ad2	0.086995736
181	0xbde4e96c	-0.11177334
182	0x3dcb2bd7	0.09920471
183	0xbdea3f7d	-0.11437891
184	0x3e33a58b	0.17543618
185	0x3de26cb1	0.110558875
186	0x3d49ad7d	0.049237717
187	0xbe5b9563	-0.21443705
188	0x3bf2ecfa	0.0074135037
189	0x3dd13729	0.10215599
190	0x3da6b2f5	0.08139602
191	0x3de2f8cc	0.110826105
192	0x3df3ffee	0.11914049
193	0xbe050dfa	-0.12993613
194	0x3e101ddb	0.14073889
195	0x3b391fda	0.0028247745
196	0x3d98762a	0.07444413
197	0xbdad90ad	-0.0847486
198	0xb9591cb7	-0.0002070543
199	0xbdf2edf4	-0.11861792
200	0xbd99139e	-0.07474445
201	0xbe1f05b7	-0.15529524
202	0x3be9bf49	0.0071333987
203	0xbd48c509	-0.049016032
204	0x3e252449	0.16127123
205	0xbd1d43a2	-0.038394578
206	0xbd8df331	-0.06931151
207	0x3d081af1	0.03322882
208	0x3dd9c109	0.10632522
209	0x3e250ab6	0.16117367
210	0x3dd43a52	0.10362686
211	0xb943f7a9	-0.0001868891
212	0xbe2b3000	-0.1671753
213	0x3da88578	0.08228582
214	0xbe637d87	-0.22215854
215	0xbd9a6ce6	-0.07540302
216	0xbc083c9e	-0.0083152335
217	0xbe02a2f2	-0.12757471
218	0xbba7ba38	-0.0051186346
219	0xbe1207cd	-0.14260788
220	0x3cb1c9c3	0.021702653
221	0x3d86f158	0.065890014
222	0x3e259eed	0.16173907
223	0x3dd232e4	0.10263613
224	0x3e027689	0.1274053
225	0x3de9b39b	0.1141121
226	0xbe0034a5	-0.12520082
227	0x3c58732d	0.013211054
228	0xbdc0bc4d	-0.094109155
229	0x3d0d9546	0.034566186
230	0xbe4c062b	-0.19924228
231	0xbc346e97	-0.011012695
232	0x3d8afdac	0.06786665
233	0xbb907858	-0.0044088773
234	0x3da9a4a6	0.08283357
235	0xbc9b9e40	-0.018996358
236	0x3df80719	0.12110729
237	0xbcc1bbb4	-0.023649074
238	0x3d8bd959	0.06828565
239	0x3c89bcee	0.016813722
240	0x3dfa218d	0.122134306
241	0x3daafc9f	0.08348965
242	0xbce92d5a	-0.028464008
243	0x3e0937d7	0.13400207
244	0x3e1236ca	0.14278713
245	0x3d0d613e	0.034516566
246	0x3c9748d5	0.018467346
247	0x3d3327e2	0.043739207
248	0xbe09d4dd	-0.13460107
249	0xbcb79f57	-0.022414846
250	0x3dc2b5e9	0.09507353
251	0xbd9c9fa2	-0.07647635
252	0xbe3494f3	-0.17634945
253	0xbe2e632c	-0.17030019
254	0xbd10dcca	-0.03536681
255	0x3d962c62	0.07332684

discrete_action_output_shape f4 [1, 2]
0	0x40a00000	5.0
1	0x40400000	3.0

network_body._body_endoder.seq_layers.0.bias f4 [256]
0	0xbcc9a255	-0.024613539
1	0x3d66630c	0.056246802
2	0x3b99b9b0	0.004691325
3	0x3c20acfb	0.009806867
4	0x3cc30be6	0.023809385
5	0x3d282a34	0.041055873
6	0x3d4bc45c	0.04974781
7	0xbd7e0255	-0.062013943
8	0x3d060e3d	0.032728422
9	0xbd5ef1ff	-0.054430004
10	0x3db555bd	0.08854244
11	0xbd0e182f	-0.034691032
12	0x3d135bd8	0.03597626
13	0x3ccaf82a	0.024776537
14	0xbca31204	-0.019906051
15	0xbd06270e	-0.03275209
16	0xbdf48b19	-0.11940593
17	0xbadb76e5	-0.0016743807
18	0x3cbc5d87	0.022993816
19	0xbbe79b11	-0.007068046
20	0xbcf54c43	-0.029943591
21	0x3d0b44e2	0.03400124
22	0xbd6d5b79	-0.057948563
23	0x398f42de	0.00027324905
24	0xbc9ef3f4	-0.019403435
25	0xbc615510	-0.013753191
26	0x3befbb92	0.0073160613
27	0x3d1514eb	0.036396902
28	0xbd12cfef	-0.035842832
29	0xbd77693b	-0.06040309
30	0xbc98e018	-0.018661544
31	0x3c539966	0.012914991
32	0x3c611065	0.013736819
33	0x3bb80b8e	0.005616612
34	0xbc3a1194	-0.01135673
35	0x3d2f18f7	0.042748418
36	0xbd4fa3f8	-0.050693482
37	0x3c23ba21	0.009993107
38	0x3d0b72e1	0.034045104
39	0x3c133449	0.008984634
40	0x3d5506aa	0.05200831
41	0x3ddaad81	0.106776245
42	0x3d2aff88	0.0417476
43	0x3d178807	0.03699496
44	0xbd9a8a1c	-0.075458735
45	0x3ce8daae	0.028424587
46	0x3cb043c4	0.021516688
47	0x3caad13f	0.02085173
48	0xbc3a0217	-0.011353037
49	0x3cfc343c	0.030786626
50	0x3c00549e	0.007832674
51	0x3c19604f	0.009361341
52	0xbd6a922d	-0.05726831
53	0xbd159a11	-0.036523882
54	0x3d29f49e	0.04149305
55	0x3d18366a	0.03716127
56	0xbdbb2b5b	-0.09139129
57	0xbd71512f	-0.058915313
58	0xbd6747bf	-0.056464907
59	0x3d8c8d2f	0.06862866
60	0x3b068201	0.0020524266
61	0xbc9142fa	-0.017732132
62	0xbcf53e1e	-0.029936846
63	0xbc82c827	-0.01596458
64	0x3d1c4dd8	0.038160175
65	0xbbe50e45	-0.0069902265
66	0xbc509a16	-0.012732049
67	0xbc4d642a	-0.012536088
68	0x3d5ea355	0.054354984
69	0xbcf5e241	-0.030015113
70	0x3da5c427	0.08094054
71	0x3a3b9b94	0.0007156667
72	0xbda910cc	-0.08255157
73	0xbd0135d2	-0.031545468
74	0x3ca4c74a	0.02011456
75	0x3cc145f0	0.02359292
76	0xbd939c72	-0.07207574
77	0xbd21f438	-0.039539546
78	0xbbfce01b	-0.007717145
79	0xbd84ae2b	-0.064785324
80	0xbd52df51	-0.051482502
81	0x3d847476	0.06467526
82	0xbce19aaf	-0.02753958
83	0xbcc94f0e	-0.024573829
84	0xbb971022	-0.0046100775
85	0x3d091f14	0.033476904
86	0xbd18dcff	-0.037320133
87	0x3c3f7dc0	0.011687696
88	0x3c3ce91c	0.011530187
89	0xbd87703d	-0.06613205
90	0x3d03cf22	0.03217996
91	0xbc4a5edc	-0.012351718
92	0xbc0a3a19	-0.008436703
93	0xbb5a7b13	-0.0033337518
94	0xbb155bde	-0.0022790353
95	0x3d03a172	0.032136388
96	0xbc803789	-0.015651481
97	0x3cd2c53b	0.025728812
98	0x39a283a6	0.00030997134
99	0xbd43f799	-0.04784355
100	0xbc529205	-0.012852197
101	0xbc0fbfc9	-0.0087737525
102	0x3ceab887	0.028652443
103	0x3d71e825	0.05905928
104	0x3caa76a5	0.020808527
105	0xbd192152	-0.037385292
106	0xbd3c3d8c	-0.045957133
107	0xbb947d8d	-0.0045315684
108	0xbd618571	-0.0550589
109	0xbd6be131	-0.057587806
110	0x3c85373f	0.016261695
111	0xbbc6e10b	-0.0060693077
112	0x3daeb2af	0.08530175
113	0x3c24ff96	0.010070702
114	0xbc8692ad	-0.016427362
115	0x3bc39cdb	0.0059696264
116	0xbdf136dc	-0.11778042
117	0xbc8ff3d4	-0.017572321
118	0x3d338e98	0.04383716
119	0xbc311d1a	-0.010810161
120	0x3c839a67	0.016064836
121	0x3c552a31	0.0130105475
122	0x3d6322b7	0.05545303
123	0xbcddac76	-0.027059775
124	0x3d4d6b30	0.05015105
125	0x3ce5f995	0.028073112
126	0xbd9231bd	-0.07138393
127	0x3bb014f6	0.0053735925
128	0xba7e7678	-0.0009706984
129	0x3a8e47d6	0.0010855149
130	0x3d22a9e8	0.039712816
131	0xbc616df3	-0.013759124
132	0xbd2e50f2	-0.042557664
133	0xbd33c9b1	-0.04389352
134	0xbdc79ff9	-0.09747309
135	0xbd2d0215	-0.042238314
136	0x3d53a2d5	0.05166896
137	0x3ccb405e	0.024810966
138	0xbd8e8b7c	-0.06960198
139	0xbd70931e	-0.058734052
140	0xbcafe4fb	-0.021471491
141	0x3d7a20ce	0.06106644
142	0xbd1860c4	-0.037201658
143	0x3d716e1d	0.058942903
144	0x3d2af4f6	0.04173752
145	0xbcf938b3	-0.030422544
146	0xbb81b8a8	-0.0039587803
147	0xbcfb1da7	-0.030653788
148	0xbced484a	-0.028965134
149	0x3a44e53a	0.0007510964
150	0xbde7d8c7	-0.11320644
151	0x3d6d49f8	0.05793187
152	0xbcedd87f	-0.029033897
153	0x3cf51087	0.029915107
154	0xbdf64a8d	-0.12025938
155	0x3c93109b	0.017952254
156	0xbb82ce80	-0.003991902
157	0xbbcf8bcd	-0.006333804
158	0x3c3a6434	0.011376429
159	0x3bc82c46	0.0061087934
160	0x3c9f385f	0.01943606
161	0xbcde887e	-0.027164694
162	0xbd262343	-0.040560972
163	0x3c27d398	0.010243319
164	0x3d45152f	0.048115905
165	0xbc6f13cd	-0.014592123
166	0xbcc5d518	-0.024149463
167	0xbca965de	-0.020678457
168	0x3d6c1b0b	0.057642978
169	0xbd0841aa	-0.033265747
170	0xbd18d97c	-0.037316784
171	0x3ccf7568	0.025324538
172	0xbd21f451	-0.03953964
173	0x3d05ea86	0.032694362
174	0xbd5c2921	-0.05375016
175	0x3b68f4b0	0.0035546236
176	0x3c993c44	0.018705495
177	0xbccc0802	-0.024906162
178	0xbd03f8db	-0.03221975
179	0x3a279e21	0.00063941075
180	0xbe0c07a5	-0.13674791
181	0xbd0d7eda	-0.034544803
182	0x3cfa50ce	0.030556109
183	0x3d104cef	0.03522962
184	0xbd515a00	-0.05111122
185	0xbc89bcaf	-0.016813604
186	0x3cfcee53	0.03087536
187	0xbd94a441	-0.072578914
188	0xbc906969	-0.017628388
189	0x3d0491c8	0.03236559
190	0x3d3bf19d	0.045884717
191	0xbd158fb4	-0.036514
192	0x3d634570	0.055486143
193	0xbbe5a922	-0.0070086876
194	0x3b919682	0.0044429908
195	0x3c9d196f	0.019177167
196	0x3d9d315d	0.07675431
197	0xbd1462f7	-0.036227193
198	0x3bd0696c	0.0063602235
199	0xbd2b0e07	-0.041761424
200	0xbb307514	-0.0026925253
201	0xbca25760	-0.019817054
202	0xbd52a549	-0.05142716
203	0xbc9e5c4f	-0.019331126
204	0xbcbc2504	-0.02296687
205	0x3af27833	0.0018498957
206	0x3d9f7ff8	0.0778808
207	0x3d029aef	0.031886037
208	0xbd0d3d2c	-0.034482166
209	0x3cccfe4a	0.025023598
210	0x3c015560	0.00789389
211	0x3ccccd49	0.025000231
212	0x3bd04316	0.0063556535
213	0x3c9dfb4d	0.019284869
214	0xbc1c837b	-0.009552832
215	0x3d684885	0.056709785
216	0x3d25e51e	0.040501706
217	0x3c251268	0.010075189
218	0xbc48efdc	-0.012264218
219	0xbca255ee	-0.019816365
220	0x3cf26b3a	0.029592145
221	0xbd00317c	-0.031297192
222	0xbbc8e1c6	-0.00613043
223	0x3d053d8e	0.032529406
224	0xbc7a3b6d	-0.015272957
225	0xbbbb7ec2	-0.005721898
226	0x3d69e867	0.0571064
227	0xbce33a3f	-0.027737735
228	0xbd57a08e	-0.05264335
229	0x3ce78392	0.02826098
230	0xbd146f8a	-0.036239184
231	0xbd17b18f	-0.037034567
232	0x3d19ffa8	0.03759733
233	0xbcc6b461	-0.024255933
234	0x3b617bbd	0.003440603
235	0xbcb25356	-0.021768253
236	0x3d07a2b8	0.033114165
237	0xbd0b0d6f	-0.03394836
238	0x3a9afeaf	0.0011825169
239	0x3c4fd31a	0.012684608
240	0xbd17bae9	-0.037043486
241	0x3d20a0ac	0.03921573
242	0xbc28c409	-0.010300645
243	0x3d860d94	0.065455586
244	0x3daa5166	0.08316307
245	0xbba7f86e	-0.0051260507
246	0xbd9b9b76	-0.07598011
247	0x3d627fc2	0.05529762
248	0xbc6c75e7	-0.014432407
249	0x3d1fa672	0.038977094
250	0x3ceca795	0.028888503
251	0xbb78baf9	-0.0037953241
252	0xbc581a17	-0.013189814
253	0x3d068268	0.03283921
254	0xbd255adb	-0.04036985
255	0xbd369d6e	-0.04458373

network_body._body_endoder.seq_layers.0.weight f4 [256, 691]
0	0xbd520bd3	-0.051280808
1	0x3bbe5173	0.0058080493
2	0xbd831a21	-0.06401468
3	0x3c9f409b	0.019439986
4	0xbdf5d0fe	-0.12002753
5	0x3e0677ea	0.13131681
6	0xbd9be4c9	-0.07611997
7	0x3c0b06cd	0.008485508
8	0xbdffa3c3	-0.12482407
9	0xbcab426c	-0.020905696
10	0xbde5ec94	-0.11226764
11	0x3e634f44	0.22198206
12	0x3de52f5e	0.11190675
13	0xbd6d1fe4	-0.05789174
14	0xbc7650fa	-0.015033955
15	0xbdec4524	-0.11536625
16	0x3d8cfe34	0.06884423
17	0xbcd59b3b	-0.026074996
18	0xbd98ad70	-0.074549556
19	0xbe010430	-0.12599254
20	0xbd9fe1b4	-0.07806721
21	0xbe93fa17	-0.2890174
22	0x3e801c7a	0.25021726
23	0x3dea4b12	0.114401
24	0x3d25cd53	0.040479016
25	0xbe1a5154	-0.15070087
26	0xbbb104ce	-0.005402184
27	0x3dd9bda1	0.10631872
28	0xbd7e47fb	-0.062080365
29	0x3d13ce02	0.036085136
30	0x3d27254f	0.040807065
31	0xbd8b049e	-0.0678799
32	0xbdfaba1e	-0.1224253
33	0x3d87aa25	0.06624249
34	0xbdba36ea	-0.09092505
35	0x3e2a2aaf	0.16617845
36	0x3d0e9f86	0.034820102
37	0xbc9ceb9e	-0.01915532
38	0xbbc84262	-0.006111429
39	0xbd0b1d4b	-0.033963483
40	0xbddd846e	-0.108162746
41	0x3c66a3e3	0.01407716
42	0x3dcbffb9	0.099608846
43	0xbcf75a61	-0.030194463
44	0xbe1dcac0	-0.15409374
45	0xbcb2411f	-0.021759568
46	0x3dc9e4fb	0.09858128
47	0xbe6b7e39	-0.22997369
48	0xbdb39e60	-0.08770442
49	0x3d87bd5d	0.06627915
50	0xbe2d0570	-0.16896605
51	0x3d4ba3e8	0.04971686
52	0x3d957f29	0.072996445
53	0x3b2a8a72	0.0026022461
54	0x3e4d960a	0.20076767
55	0xbc02bf4b	-0.007980178
56	0x3c3f9f9f	0.0116957715
57	0xbe31bea5	-0.17357881
58	0x3c6e1d42	0.014533343
59	0x3dc5677e	0.0963888
60	0xbe219d1d	-0.1578259
61	0xbdd2e803	-0.10298159
62	0x3de9423f	0.113895886
63	0x3d1678f7	0.036736455
64	0xbe8f5eef	-0.28002116
65	0x3dc4d1d0	0.09610331
66	0x3e8c0fc5	0.2735578
67	0xbd35919d	-0.04432832
68	0xbdebeeb1	-0.11520136
69	0xbdf997cf	-0.12187158
70	0x3d75abe3	0.059978377
71	0x3d36a93e	0.044594996
72	0xbd71220f	-0.05887037
73	0x3d32699d	0.043557752
74	0xbdac34a3	-0.08408477
75	0x3e0bfbf6	0.13670334
76	0x3d107e42	0.03527666
77	0xbe673900	-0.22580338
78	0xbe03565c	-0.12825912
79	0xbd5fcbc9	-0.054637704
80	0xbe188e24	-0.14897972
81	0xbdedfedc	-0.11620876
82	0x3e40d41a	0.1883091
83	0xbe488a5d	-0.19584031
84	0x3b857079	0.0040722457
85	0xbe002a0b	-0.12516038
86	0x3e9a647a	0.30154783
87	0xbda30246	-0.07959418
88	0xbdb3cd26	-0.08779363
89	0xbd9530e7	-0.07284718
90	0x3c95ccfc	0.01828622
91	0xbd068461	-0.03284109
92	0xbd8912c5	-0.06693033
93	0xbe08eb20	-0.13370943
94	0xbe3d521c	-0.18488353
95	0x3e81d2ca	0.25356132
96	0x3d08d6a2	0.033407815
97	0xbe2e7295	-0.17035897
98	0x3cf1f2b7	0.02953468
99	0x3c2a63c2	0.010399761
100	0x3d7b7591	0.061391417
101	0xbe2e708a	-0.17035118
102	0xbbc52e72	-0.0060174996
103	0xbd3db4fc	-0.04631518
104	0x3b2cee02	0.002638698
105	0x3d913b10	0.070913434
106	0xbcaf9118	-0.02143149
107	0xbc999a6a	-0.018750388
108	0x3d960ba8	0.07326442
109	0x3cc10192	0.02356032
110	0x3d73313f	0.059373137
111	0xbe214366	-0.15748367
112	0xbdc3b6d5	-0.09556357
113	0xbe411642	-0.18856147
114	0xbdb2281d	-0.08699057
115	0xbdc365cd	-0.09540901
116	0xbd0f40b5	-0.03497382
117	0xbdab6286	-0.08368401
118	0x3c4fb2fd	0.0126769515
119	0x3dce0fe8	0.100616276
120	0x3dd8d703	0.10587885
121	0xbd7c7a54	-0.0616401
122	0xbe0a8089	-0.13525595
123	0x3e1192c7	0.14216147
124	0x3e6afcd0	0.22948003
125	0xbde449f7	-0.1114692
126	0xbe245ee3	-0.16051821
127	0xbe80047f	-0.2500343
128	0xbd105b87	-0.035243537
129	0x3c4b353d	0.01240283
130	0x3d9ccc7c	0.0765619
131	0xbd30e3a6	-0.043185852
132	0xbdbed35a	-0.09317656
133	0xbd350122	-0.044190533
134	0x3cd66332	0.026170347
135	0x3ccfa478	0.02534698
136	0x3c6fcb57	0.014635882
137	0xbe327305	-0.17426689
138	0xbc82f376	-0.015985232
139	0x3dd13d80	0.10216808
140	0x3e1a6d41	0.1508074
141	0x3d03c5c9	0.032171044
142	0xbe3e6aca	-0.18595424
143	0xbe69e4b8	-0.22841156
144	0x3cb984a2	0.022646252
145	0x3dbd1e9f	0.09234356
146	0x3d9a62e3	0.075383924
147	0xbd93da0f	-0.07219326
148	0x3bce46ce	0.0062950617
149	0xbd17ac76	-0.037029706
150	0x3e8d9f1b	0.2766045
151	0x39acacf0	0.00032935245
152	0xbe1fffa6	-0.15624866
153	0xbe048d82	-0.12944606
154	0xbd804d0b	-0.06264695
155	0x3a0b82b8	0.0005321908
156	0xbd9e14b4	-0.077187926
157	0xbcadb699	-0.021205233
158	0xbd071874	-0.032982305
159	0x3ccb9995	0.024853507
160	0xbdeec3d7	-0.11658447
161	0xbd89e67a	-0.06733413
162	0x3d1553d5	0.0364569
163	0xbe8a79a7	-0.27045938
164	0x3c972d6d	0.018454278
165	0xbe161bd1	-0.14659049
166	0x3df2e813	0.11860671
167	0x3c393064	0.011303041
168	0xbd70f764	-0.05882968
169	0xbc35015f	-0.01104769
170	0x3df91a4b	0.12163218
171	0xbdd95f1f	-0.10613846
172	0xbbf85fb5	-0.0075797685
173	0xbcc3c5cb	-0.023898026
174	0xbd8eeb80	-0.06978512
175	0x3dafe360	0.0858829
176	0x3d67c3f8	0.056583375
177	0xbb806570	-0.0039183423
178	0xbc71b95a	-0.014753664
179	0xbd579b14	-0.05263813
180	0xb992dca4	-0.0002801168
181	0xbda125a8	-0.078685105
182	0xbe4d64bb	-0.20057957
183	0x3d910588	0.07081133
184	0x3d39635c	0.045260772
185	0x3c809c7f	0.015699623
186	0xbde67bba	-0.11254068
187	0xbc98e66f	-0.018664567
188	0xbd2115ac	-0.03932731
189	0x3d8b1e67	0.06792908
190	0xbda93946	-0.08262877
191	0xbcc6ef04	-0.024283893
192	0x3e856d26	0.26059836
193	0x3d03711f	0.032090303
194	0xbe2aec3e	-0.16691682
195	0x3d3f3efe	0.046690933
196	0xbd6f95e2	-0.05849255
197	0xbe00efea	-0.1259152
198	0xbdad9984	-0.084765464
199	0xbddb92bd	-0.107213475
200	0x3d02acfc	0.031903252
201	0x3e34fc81	0.17674448
202	0x3e1e5155	0.15460713
203	0xbd2d53b8	-0.04231617
204	0xbde5842c	-0.112068504
205	0xbd1d3161	-0.03837717
206	0xbba5bf30	-0.0050581917
207	0xbe38c14a	-0.18042484
208	0xbdb6ad5e	-0.08919786
209	0xbd905d50	-0.07049048
210	0xbdbba7fe	-0.09162901
211	0xbdbeb40a	-0.093116835
212	0xbc73c837	-0.014879278
213	0xbdaff643	-0.085918926
214	0xbdce3f27	-0.10070639
215	0xbb5c6393	-0.0033628687
216	0x3e12522c	0.14289159
217	0xbdc23bd1	-0.09484065
218	0xbe038dcc	-0.1284706
219	0xbd6ff9aa	-0.058587708
220	0x3d74e2a3	0.05978645
221	0xbdeac95d	-0.11464188
222	0x3d63cbf2	0.05561442
223	0xbe8e8026	-0.27832144
224	0x3c9b25e7	0.018938972
225	0xbc3c690c	-0.0114996545
226	0xbe516b18	-0.2045101
227	0xbda278f0	-0.07933223
228	0xbd03c43b	-0.03216956
229	0xbcd7483b	-0.02627956
230	0xbd2f7b55	-0.042842228
231	0x3d19d589	0.03755716
232	0xbe392be5	-0.1808315
233	0xbdbb0b26	-0.09132986
234	0xbe7b42f5	-0.24537261
235	0x3e21bd47	0.1579486
236	0x3e3d5d5d	0.18492647
237	0xbd29b176	-0.041429006
238	0xbdfc6bfb	-0.12325283
239	0xbc7dbade	-0.015486447
240	0xbd877c85	-0.06615547
241	0x3d3e0848	0.046394616
242	0x3ceb37c3	0.028713113
243	0xbdd3c5ff	-0.10340499
244	0x3b5e3bbc	0.0033910116
245	0x3e97b66f	0.29631373
246	0xbd69d1fc	-0.057085022
247	0xbd63e3b9	-0.055637095
248	0xbd26749d	-0.040638555
249	0x3dda1e0f	0.106502645
250	0x3dc5d53e	0.09659813
251	0x3d00b38a	0.03142122
252	0x3e0cc2fd	0.13746257
253	0xbc63a292	-0.01389374
254	0x3e6d151b	0.23152582
255	0xbe40c3f6	-0.18824753

network_body._body_endoder.seq_layers.2.bias f4 [256]
0	0xbcb14d29	-0.021643238
1	0xbd929a35	-0.07158319
2	0xbc10adb4	-0.008830477
3	0x3db1671a	0.08662243
4	0xbdef5780	-0.11686611
5	0xbd84c5c1	-0.06483031
6	0xbd13ae94	-0.036055163
7	0xbceb95bf	-0.028757928
8	0xbdaab2b5	-0.08334867
9	0xbd84c4dc	-0.064828604
10	0x3c5b4332	0.01338272
11	0xbdfb9eef	-0.122861736
12	0xbd7902ce	-0.06079369
13	0xbdc2cc58	-0.09511632
14	0xbc2f930a	-0.010716209
15	0x3d5d9f3f	0.054106947
16	0xbcd64a77	-0.026158554
17	0xbccea25f	-0.025223909
18	0xbdf65204	-0.12027362
19	0x3d48abda	0.048992015
20	0xbe0b1424	-0.13581902
21	0xbe01ede2	-0.12688401
22	0xbd323d85	-0.0435157
23	0xbd3971a2	-0.045274384
24	0x3d18c886	0.03730061
25	0xbd0e8f60	-0.0348047
26	0xbc5df53d	-0.013547239
27	0xbd48ef6a	-0.049056448
28	0xbd8ba2b8	-0.068181455
29	0xbd7102d8	-0.058840603
30	0xbe047f9a	-0.12939301
31	0xbc72a08e	-0.014808787
32	0xbde0bc7f	-0.10973453
33	0xbe063440	-0.1310587
34	0x3c31f564	0.010861728
35	0xbdf57d24	-0.11986759
36	0xbda7e7ec	-0.081985325
37	0x3d82b64d	0.06382427
38	0x3cfb0537	0.030642135
39	0xbe4011a2	-0.18756726
40	0x3c11fdf8	0.0089106485
41	0xbdcc7a06	-0.099842116
42	0xbcf5f6db	-0.030024936
43	0xbd3556d6	-0.044272266
44	0x3d158d55	0.036511738
45	0xbd0e656d	-0.034764696
46	0xbc11da7b	-0.008902187
47	0x3d5b97a0	0.053611398
48	0xbd049aa6	-0.032374047
49	0x3c69ff1b	0.014282013
50	0xbda66e6b	-0.08126529
51	0xbd79c9cb	-0.06098346
52	0xbe141cbe	-0.1446409
53	0xbd095980	-0.03353262
54	0xbd500598	-0.050786585
55	0xbd80c2d6	-0.06287162
56	0xbd161f64	-0.03665103
57	0xbd9bcbcc	-0.076072305
58	0xbd6d6a2c	-0.05796258
59	0x3dafd0fd	0.08584783
60	0xbd9e5fbe	-0.07733105
61	0xbd10e171	-0.035371248
62	0xbd2050c5	-0.039139528
63	0xbe276c46	-0.16349897
64	0xbd86b07e	-0.06576632
65	0xbdb4842d	-0.08814273
66	0xbd8e98dc	-0.06962749
67	0xbc963406	-0.018335354
68	0xbd217682	-0.03941966
69	0xbde408d8	-0.11134499
70	0xbdbdd0dc	-0.092683524
71	0xbe0d6443	-0.13807778
72	0xbd24c9cb	-0.040231507
73	0xbd28a547	-0.041173246
74	0xbda82309	-0.082098074
75	0xbdc76e47	-0.097378306
76	0xbd099045	-0.03358485
77	0xbd2643c5	-0.040591974
78	0xbb9ce441	-0.004787952
79	0xbcfc5926	-0.030804228
80	0xbd1784f9	-0.036992047
81	0x3b84db12	0.0040544355
82	0xbda372e5	-0.07980899
83	0x3cf18f46	0.029487263
84	0xbb70b99e	-0.003673173
85	0xbd565948	-0.05233124
86	0xbd7ad4a1	-0.061237935
87	0x3d56809b	0.05236874
88	0xbe487cf9	-0.19578923
89	0xbd6c045b	-0.05762134
90	0xbdd1095c	-0.10206863
91	0xbe0b26bd	-0.13588996
92	0x3bcf1639	0.006319788
93	0xbc2ed80e	-0.010671629
94	0xbe868335	-0.26271978
95	0xbd27b05b	-0.04093967
96	0xbcfb7ea3	-0.030700034
97	0xbdc62b49	-0.09676225
98	0xbe112a2e	-0.14176247
99	0x3cab7ac8	0.02093257
100	0x3c72ab71	0.014811383
101	0x3d20ce1a	0.039259054
102	0x3be58664	0.007004546
103	0xbe1fa5cb	-0.15590589
104	0xbd909ae4	-0.07060793
105	0xbd3385b3	-0.043828677
106	0xbe0d0bd7	-0.13774048
107	0xbd46b9b2	-0.048516937
108	0xbd20a83f	-0.039222952
109	0x3d6c6347	0.057711866
110	0xbded6af5	-0.11592666
111	0xbdde768e	-0.10862456
112	0xbe174a32	-0.14774397
113	0xbd3038d0	-0.04302293
114	0xbd019017	-0.031631555
115	0xbb00a4f5	-0.0019629572
116	0xbe1ab3d0	-0.15107656
117	0xbdd74267	-0.10510712
118	0xbcb0adf7	-0.021567328
119	0x3daceb0c	0.08443269
120	0xbe2f995f	-0.1714835
121	0xbdb91072	-0.0903634
122	0xbd6088ed	-0.054818083
123	0x3bc2dc80	0.005946696
124	0xbd4a98e5	-0.049462218
125	0xbd8cd32f	-0.068762176
126	0xbdda5f7a	-0.10662742
127	0xbdb34d9b	-0.087550364
128	0xbc6768a3	-0.014124068
129	0xbdb92894	-0.09040943
130	0xbdefe5ea	-0.117137745
131	0xbd3f752e	-0.04674261
132	0xbc541255	-0.012943824
133	0xbcdd6b51	-0.027028712
134	0x3b98ff81	0.0046691303
135	0xbdd6f6a1	-0.104962595
136	0xbdfbe386	-0.12299256
137	0xbdd54a5f	-0.10414576
138	0xbd403fb8	-0.046935767
139	0xbd5d80fb	-0.054078083
140	0xbde31422	-0.110878244
141	0xbda29f13	-0.07940497
142	0x3b7221e1	0.0036946463
143	0xbd63751f	-0.055531617
144	0xbd133b7a	-0.035945393
145	0xbcd62e5a	-0.026145149
146	0xbd2a9b02	-0.041651733
147	0xbc97e44b	-0.018541476
148	0xbd4b8623	-0.04968847
149	0xbce34d1f	-0.027746735
150	0xbd60946d	-0.05482905
151	0xbdd17713	-0.1022779
152	0x3b8c0182	0.0042726407
153	0xbe33e327	-0.1756712
154	0xbdab5d31	-0.08367384
155	0xbca2dfdf	-0.01988214
156	0xbdb5fd98	-0.0888626
157	0xbdacb867	-0.084336095
158	0xbd5d9140	-0.0540936
159	0xbe028b29	-0.12748398
160	0xbd022d0f	-0.031781252
161	0xbdf0255d	-0.117258765
162	0xbd0c4337	-0.03424379
163	0x3b9b6b06	0.004742983
164	0xbcb1b683	-0.021693474
165	0x3d054527	0.032536652
166	0xbda6839f	-0.081305735
167	0xbd814892	-0.0631267
168	0xbde8c4bd	-0.1136565
169	0xbe586726	-0.21133098
170	0xbba5251d	-0.0050398246
171	0xbd41b742	-0.04729391
172	0xbdbf459f	-0.09339451
173	0xbdb942f6	-0.09045975
174	0xbb4f8a07	-0.0031667964
175	0x3d33ab15	0.04386433
176	0xbddd788c	-0.10814008
177	0xbd70ee15	-0.058820803
178	0xbd6a7be7	-0.05724707
179	0x3aa240ac	0.0012378893
180	0xbc914a23	-0.017735546
181	0xbd3bf533	-0.045888137
182	0xbd743cab	-0.05962817
183	0xbe66b4d3	-0.22529916
184	0xbd8df64a	-0.069317415
185	0xbcd3f340	-0.025872827
186	0xbccd8395	-0.025087157
187	0xbe29112a	-0.16510454
188	0x3c6d211f	0.014473229
189	0x3c96e87e	0.018421408
190	0xbd44617d	-0.047944535
191	0x3d9087c7	0.070571475
192	0xbd316415	-0.043308336
193	0xbde0f283	-0.109837554
194	0xbc1f48c1	-0.009721936
195	0xbd824fd1	-0.0636288
196	0xbbc28b13	-0.005936989
197	0xbcdea545	-0.027178416
198	0xbdd3fb9c	-0.10350725
199	0xbe1abbe8	-0.15110743
200	0xbd82b3eb	-0.06381973
201	0xbcd15224	-0.025551863
202	0xbd9729a5	-0.0738099
203	0xbc445ae8	-0.011984564
204	0xbda603dd	-0.081062056
205	0xbd844c29	-0.06459839
206	0xbe3b59db	-0.18295996
207	0xbdf3c027	-0.119018845
208	0xbe0e8366	-0.13917312
209	0x3d0c10be	0.034195654
210	0xbd1dc177	-0.03851458
211	0xbdaddb29	-0.08489067
212	0xbdf3758b	-0.11887654
213	0xbd8a6eec	-0.06759438
214	0xbdc720d9	-0.09723062
215	0xbc91eada	-0.017812181
216	0xbd38862d	-0.045049835
217	0xbdc0e60c	-0.09418878
218	0xbd908b1f	-0.07057785
219	0xbe155a58	-0.14585245
220	0xbd8b4b5d	-0.06801484
221	0xbda1e379	-0.07904715
222	0x3c172534	0.0092251785
223	0x3bd569a9	0.00651284
224	0x3be6d4e7	0.007044423
225	0xbcc4ef49	-0.024039881
226	0xbc46ac8d	-0.0121261
227	0xbc485244	-0.012226645
228	0xbd9b6852	-0.07588257
229	0xbd7ff3c2	-0.062488325
230	0xbdbc8d45	-0.092066325
231	0x3bf09536	0.007342006
232	0xbdc63fb7	-0.096801214
233	0xbccce16c	-0.025009833
234	0xbd0dd014	-0.034622267
235	0xbd835c86	-0.06414132
236	0xbdcf812b	-0.10132059
237	0xbd1cd839	-0.038292143
238	0x3bf5423e	0.0074847033
239	0xbd8cb3b4	-0.06870213
240	0xbd68a4cb	-0.056797784
241	0x3bf877a9	0.007582624
242	0xbdf0a5ab	-0.11750349
243	0x3d885f46	0.06658797
244	0xbbd753a9	-0.0065712524
245	0xbd65ccfa	-0.056103684
246	0xbdb620f3	-0.08893003
247	0xbcde0c33	-0.027105426
248	0xbe1289d4	-0.1431039
249	0xbd181f15	-0.037139017
250	0xbe12eb80	-0.14347649
251	0xbd078baa	-0.03309218
252	0xbe2b1464	-0.16706997
253	0xbcb9e6d5	-0.022693077
254	0xbe0bffa9	-0.13671745
255	0xbd199f92	-0.037505694

network_body._body_endoder.seq_layers.2.weight f4 [256, 256]
0	0xba2296ce	-0.0006202281
1	0xbd4dc57a	-0.050237156
2	0xbe81e34f	-0.25368735
3	0x3dd97277	0.106175356
4	0xbd2f0c5d	-0.0427364
5	0x3d3818bf	0.044945475
6	0xbcd1b8ea	-0.02560087
7	0xbe7772e7	-0.24164926
8	0xbd8528eb	-0.06501945
9	0xbb9924b2	-0.004673564
10	0x3d2362eb	0.039889257
11	0xbdad81a6	-0.08471994
12	0x3ea0bbd3	0.31393299
13	0x3e5145a9	0.2043673
14	0x3e1eb213	0.15497617
15	0x3e13c650	0.14431119
16	0x3cd9eb35	0.026601413
17	0xbdd8dc3e	-0.10588883
18	0xbc62af4f	-0.013835742
19	0x3dbaa057	0.09112614
20	0xbe0b7279	-0.13617887
21	0x3cb9eff9	0.022697436
22	0x3e4e65bd	0.20155998
23	0xbe89c9e1	-0.26911834
24	0x3dd14966	0.10219078
25	0xbd709136	-0.058732234
26	0x3db33840	0.08750963
27	0xbddfde6e	-0.10931097
28	0x3be4876e	0.0069741523
29	0x3e6f1b32	0.23350218
30	0x3e8f5210	0.27992296
31	0xba10d524	-0.00055249245
32	0xbdd67580	-0.1047163
33	0xbdf435e4	-0.11924341
34	0x3dfe4458	0.12415379
35	0x3d3a3153	0.045457195
36	0xbe540d69	-0.2070824
37	0xbd1c78d9	-0.038201187
38	0xbd3c765e	-0.04601132
39	0xbe2efc28	-0.17088377
40	0xbd8b6ee6	-0.068082616
41	0xbe2a334e	-0.16621134
42	0x3d7c86b3	0.061651897
43	0x3e5bec87	0.21476947
44	0xbdaaf29b	-0.083470546
45	0x3e2c9d99	0.16856994
46	0x3e8ff710	0.2811818
47	0xbd24780c	-0.040153548
48	0x3dd7a2c6	0.105290934
49	0xbd53b964	-0.051690474
50	0xbc918821	-0.017765107
51	0xbeadd881	-0.33954242
52	0x3e852bae	0.26009887
53	0xbe670fda	-0.2256464
54	0x3d94708b	0.07248028
55	0x3dc08b13	0.09401526
56	0x3d86fae4	0.06590822
57	0xbace5a06	-0.0015743382
58	0xbe819005	-0.2530519
59	0xbd9a7f38	-0.07543796
60	0xbd0904f9	-0.033452008
61	0xbd912f5b	-0.070891105
62	0x3b887c7f	0.0041652317
63	0x3e535c07	0.20640574
64	0xbd6d9fea	-0.058013834
65	0x3ca3a657	0.019976778
66	0xbdc03c4e	-0.09386502
67	0xbe39ed0c	-0.18156832
68	0xbc84b8b3	-0.016201353
69	0x3e7b3427	0.24531613
70	0xbce42ce2	-0.027853433
71	0xbeba85de	-0.36430258
72	0xbe0a95fa	-0.13533774
73	0xbe21b521	-0.15791751
74	0x3d85dc4f	0.06536161
75	0xbdffd2e9	-0.124914
76	0xbe669309	-0.22517027
77	0x3e02051d	0.12697263
78	0x3dffcdbf	0.12490415
79	0xbd70f648	-0.058828622
80	0xbdd9c43e	-0.10633133
81	0x3e485f17	0.19567524
82	0x3d7681a6	0.060182236
83	0xbda11c17	-0.07866686
84	0xbe4bf0f0	-0.19916129
85	0x3e31b837	0.17355429
86	0xbe3d8e84	-0.18511397
87	0x3c198131	0.009369181
88	0x3e53ff22	0.20702794
89	0xbd3a23f3	-0.04544444
90	0xbd3285fc	-0.04358481
91	0x3e534290	0.2063086
92	0x3dd86324	0.105657846
93	0xbd49a1bd	-0.04922651
94	0xbe1949bf	-0.14969538
95	0x3d07de6f	0.033171114
96	0x3e280a97	0.1641029
97	0x3db59c47	0.08867698
98	0x3d47da38	0.048792094
99	0xbe211035	-0.15728839
100	0x3d135850	0.035972893
101	0xbe5a9a63	-0.21347956
102	0xbd560f6a	-0.052260794
103	0xbd98aeb7	-0.07455199
104	0xbdade2ed	-0.08490548
105	0xbe51a51f	-0.20473145
106	0x3e9243e8	0.28567433
107	0x3cc82f51	0.024436625
108	0xbec2fab9	-0.3808191
109	0xbdd1b759	-0.10240049
110	0x3dcfe4a1	0.101510294
111	0x3d3f4fdd	0.046707023
112	0x3d2476bb	0.040152293
113	0x3e5abebf	0.21361826
114	0x3cc48423	0.023988789
115	0xbdc6d613	-0.097088
116	0xbd87dc0d	-0.06633768
117	0x3cdf04a1	0.027223887
118	0x3eae2269	0.34010628
119	0x3e094e95	0.13408883
120	0x3e8407b2	0.2578712
121	0xbe1ed125	-0.1550947
122	0xbccc929a	-0.024972249
123	0x3e05fbba	0.13084307
124	0x3dcecb0b	0.10097321
125	0xbd17f9c1	-0.03710342
126	0xbda22fd1	-0.079192765
127	0xbe08f576	-0.13374886
128	0x3d108929	0.035287056
129	0xbe8ec17b	-0.2788199
130	0x3dd233b7	0.1026377
131	0xbc53178d	-0.012884033
132	0xbd1ebe43	-0.038755666
133	0xbe5c4445	-0.21510418
134	0xbe15c36c	-0.14625329
135	0xbc9e5ccb	-0.019331357
136	0x3df30692	0.118664876
137	0xbbab839c	-0.005234195
138	0x3d6ce999	0.057839964
139	0xbe728596	-0.23683771
140	0x3e5b90a3	0.21441893
141	0xbd2d1449	-0.042255674
142	0x3eb799e3	0.35859594
143	0xbcf4f3c5	-0.029901395
144	0x3d648c53	0.055797886
145	0xbe01cf2e	-0.12676689
146	0x3c516150	0.012779549
147	0x3e04d76f	0.12972806
148	0xbd9a6eea	-0.075406864
149	0xbd86e7ef	-0.065872066
150	0x3e01d940	0.1268053
151	0x3cf0c19b	0.029389193
152	0xbdb7db03	-0.0897732
153	0x3dbbdfee	0.091735706
154	0xbd3c0acd	-0.045908738
155	0x3d1e7308	0.03868392
156	0x3e841a4c	0.25801313
157	0x3e1144c6	0.14186391
158	0xbeb29004	-0.348755
159	0xbde74e92	-0.11294283
160	0xbbcc64ca	-0.006237601
161	0x3d077849	0.033073697
162	0x3da86f91	0.082244046
163	0x3d248b29	0.040171776
164	0xbd8ffd0e	-0.07030688
165	0xbe6da9bd	-0.23209281
166	0xbd8405da	-0.064464286
167	0x3e0507f6	0.12991318
168	0xbdd30e29	-0.10305435
169	0xbe2ecd3a	-0.17070475
170	0x3de1981f	0.11015343
171	0x3d29aaf8	0.041422814
172	0x3e25494b	0.1614124
173	0x3e392f9f	0.18084572
174	0x3c9281c2	0.017884139
175	0x3dcb5c58	0.099297225
176	0x3d92c296	0.071660206
177	0x3ddd6d13	0.1081182
178	0x3e419d19	0.18907584
179	0x3c20e1d9	0.009819471
180	0xbd3167fb	-0.043312054
181	0x3e1d5ab8	0.15366638
182	0xbc979897	-0.018505378
183	0xbdbbaed2	-0.09164204
184	0x3e985cee	0.297584
185	0x3e1df755	0.15426381
186	0xbd5bb6f8	-0.05364129
187	0xbd926e04	-0.0714989
188	0x3d0e0e70	0.034681737
189	0x3c832057	0.016006632
190	0xbd41972d	-0.047263313
191	0x3ca37342	0.01995242
192	0x3e5b8489	0.21437277
193	0xbe997152	-0.2996927
194	0x3c2a4625	0.0103927
195	0x3e18ad7e	0.14909932
196	0x3e2c6aca	0.16837612
197	0x3dd30c29	0.10305054
198	0x3e648972	0.22318056
199	0x3daaffd5	0.08349577
200	0x3db5e1e4	0.08880976
201	0xbe04e045	-0.12976177
202	0x3d188159	0.03723273
203	0xbe1e0745	-0.1543246
204	0x3e64c788	0.2234174
205	0xbd39f05d	-0.045395244
206	0xbd731b58	-0.05935225
207	0x3ea5edd0	0.32408
208	0x3e00bb38	0.12571418
209	0x3e10b6a9	0.1413218
210	0x3d4486e7	0.047980215
211	0x3dee8bf3	0.11647787
212	0xbda377bf	-0.07981824
213	0x3d808109	0.062746115
214	0x3d8368e3	0.0641649
215	0x3dbf1664	0.093304425
216	0xbeaebafa	-0.34127027
217	0xbc42ba51	-0.011885242
218	0xbd11b4fa	-0.035572983
219	0x3e8a70e2	0.27039248
220	0xbe9ae70a	-0.30254394
221	0x3dab8ff4	0.08377066
222	0xbde883c8	-0.1135326
223	0xbcc63e0a	-0.024199504
224	0x3e65d6c8	0.22445214
225	0xbd5c8328	-0.053836018
226	0x3e4bb85d	0.19894548
227	0xbd473652	-0.04863579
228	0x3d51ed68	0.0512518
229	0x3e51ff6b	0.2050759
230	0xbdf7e12e	-0.121034965
231	0xbda44bf8	-0.080223024
232	0xbd92fffa	-0.0717773
233	0xbdf765b0	-0.12079942
234	0x3c523f03	0.012832406
235	0xbde87b27	-0.113516144
236	0x3cb969c1	0.022633435
237	0xbd7d07da	-0.061775066
238	0x3e082191	0.13294055
239	0x3dc54e7f	0.096341126
240	0x3e8ba073	0.2727085
241	0xbd678149	-0.05651978
242	0x3ddace6e	0.106839046
243	0x3e3472eb	0.17621963
244	0x3e4c9a93	0.1998084
245	0xbb6f6f0b	-0.0036534693
246	0xbd204161	-0.03912485
247	0xbdc0e808	-0.094192564
248	0xbe357a1d	-0.17722364
249	0x3cae0ab4	0.021245338
250	0x3c2d54eb	0.010579328
251	0xbe0a3064	-0.13495022
252	0x3d1bb332	0.03801269
253	0xbca47188	-0.020073667
254	0xbdff46ea	-0.12464698
255	0x3c61d14a	0.013782809
