Assets/TFModels/Other models trained in the process/Striker2_selfplay3_6M.onnx (onnx, 911175 bytes, 9 tensors)

action_model._discrete_distribution.branches.0.bias f4 [5]
000000 f9 ea 86 bd 63 ee 16 3e 01 0d c7 bc 9c 4b 0a 3d
       -0.06587786 0.14739375 -0.024298193 0.033763513
000010 4a 5f e1 bd
       -0.11004503

action_model._discrete_distribution.branches.0.weight f4 [5, 256]
000000 1e bf 8b bc 57 fe b7 bd a1 34 20 3d 63 43 e8 3d
       -0.017058905 -0.08984058 0.03911269 0.11340978
000010 fe ce b1 3d e3 1d 7f 3c 01 23 2c 3d 08 20 4c 3b
       0.08682059 0.01557109 0.04202557 0.0031147022
000020 33 d4 10 be 23 4a 88 bd c0 84 9e 3d 14 0e 12 3c
       -0.14143448 -0.066547655 0.07740164 0.008914489
000030 3d 5f 29 bd ba ba c3 3c 44 70 c9 3c 9e a6 03 3e
       -0.041350592 0.02389275 0.024589665 0.12856528
000040 88 ab a4 bd 30 df bc bb 20 f2 1d bc d7 67 d4 bd
       -0.080405295 -0.0057639107 -0.009640247 -0.103713684
000050 e7 95 9c bd 6e 06 73 3d ba c7 a4 3c 88 1f 42 3d
       -0.07645779 0.059332304 0.020114768 0.04739335
000060 8b 56 31 3e d6 26 9d 3d fd 1a 5f bd f2 51 15 bc
       0.1731817 0.07673423 -0.054469097 -0.009113776
000070 d2 97 b8 3d dd 08 41 bd 63 14 c2 3c d6 24 84 3d
       0.090133324 -0.047127593 0.023691362 0.064523384
000080 eb f3 e2 3c fa 82 0d be fc 8e cd 3c 2e 7b 5a bd
       0.0277042 -0.13819495 0.025092594 -0.05334013
000090 02 4d 53 3d 6a aa 75 bc 78 78 96 3c 9e ac a9 3d
       0.051587112 -0.014994243 0.01836799 0.08284877
0000a0 11 eb 63 bd 30 71 15 3e a6 88 d1 bc b0 8b 31 3d
       -0.0556441 0.14593959 -0.025577854 0.043346107
0000b0 a9 fa 91 bd 0b ab ce bd e7 22 72 3b 93 d5 80 3c
       -0.07127888 -0.100912176 0.0036947073 0.01572684
0000c0 9c c4 06 3c 19 31 3b 3e d0 80 7a 3d 00 6b c1 bc
       0.008225586 0.18280448 0.061158 -0.023610592
0000d0 aa 54 70 3d 01 11 c8 3c 80 59 09 3e dd bf 89 3b
       0.058674492 0.02442217 0.13413048 0.00420378
0000e0 ac 93 ce 3d ec bd 6f bd eb 34 e8 3a ad 9c 80 3a
       0.1008676 -0.058530733 0.0017715966 0.0009812318
0000f0 5e a3 8c bd 42 ec 47 3d d4 09 f5 3d 47 05 6f bd
       -0.06867097 0.048809297 0.11964765 -0.058354642
000100 ba 5f cb bc 2c 08 1f bd c7 1a d2 bd dd 05 89 3d
       -0.02482592 -0.038826153 -0.102590136 0.066905715
000110 8a c3 5c bc ec 1f 92 bc 14 2d 0b 3e dd e5 b1 3c
       -0.0134743545 -0.017837487 0.13591415 0.021716053
000120 0f ba 08 3d 53 1b 99 3d e8 6c 01 3e fb ba 35 3d
       0.033380564 0.07475915 0.126392 0.04436777
000130 a3 e1 d1 3d 7f 4b 20 bd 02 ac d1 bc 1a 44 6b bd
       0.10248115 -0.0391345 -0.025594715 -0.057437994
000140 2e 68 4c 3d 59 3c de bb 59 02 53 3c 0c db 0f 3b
       0.04990404 -0.0067820963 0.012878978 0.002195063
000150 a2 00 08 3d 12 5e cf 3d 62 c3 b5 3c 20 ba f3 bb
       0.03320373 0.10125364 0.022187892 -0.0074379593
000160 6a 65 c8 bc 3d 78 92 3c 4f 31 96 bd c6 47 89 bd
       -0.02446242 0.0178796 -0.073336236 -0.06703143
000170 2c 88 22 bd d2 31 12 be 52 d3 33 3d a1 81 8d 3b
       -0.039680645 -0.14276817 0.043902703 0.0043184315
000180 c6 15 8e bd 59 8e 31 3d 85 43 db 3d f4 32 4b 3d
       -0.06937747 0.043348644 0.10706238 0.04960914
000190 1b 7c 40 be 7d 9a 9b bd 61 a3 31 3c 56 07 1b 3d
       -0.18797342 -0.07597826 0.010842175 0.037848793
0001a0 a1 b5 4c 3d 3c 6e 01 bc d2 68 47 3d c9 5d 68 bd
       0.049977902 -0.007899817 0.04868395 -0.056730065
0001b0 d9 5b 8e 3c d3 ad d4 3d 58 d5 4e bc 63 da dd bc
       0.01737778 0.10384717 -0.012624107 -0.027081674
0001c0 94 56 31 3d 27 fc b7 bb 9f b1 f6 3b f6 e2 d0 3d
       0.043295458 -0.0056147757 0.0075284983 0.10199539
0001d0 24 14 f6 3d a9 68 3f be 20 ac bb bb bb f4 1b 3e
       0.1201556 -0.18692268 -0.005727306 0.15230076
0001e0 03 31 b1 bd cd 97 ac 3d 0b 84 5f 3d 46 d7 79 3d
       -0.08651926 0.08427391 0.054569285 0.060996316
0001f0 5c ba b1 bd 26 bd d2 ba 53 30 20 be bc 25 41 3c
       -0.08678123 -0.0016078099 -0.15643434 0.011788782
000200 bc c5 08 3e 7c 82 cb bd ed 49 61 bc f2 b6 04 3d
       0.1335668 -0.09936997 -0.013750535 0.032401033
000210 7c 92 84 3d 96 aa fc bd 9b 7e 66 3d f7 07 6f bd
       0.06473252 -0.12337224 0.056273084 -0.058357205
000220 e3 40 ab 3d a8 5b 07 bc 98 9a aa 3d 0e 24 8e 3d
       0.083619855 -0.008261599 0.08330268 0.06940471
000230 74 2e 01 bd 61 d7 84 bd c5 1f e3 3d 7c b7 35 bd
       -0.03153844 -0.06486393 0.11090044 -0.044364437
000240 da 5b b5 bd 88 70 29 3d e2 22 a3 bc 03 13 f9 bd
       -0.0885541 0.041367084 -0.019914094 -0.12161829
000250 f2 d7 f2 3d 63 e8 79 3c 6d be 07 3d 5c 0b cd 3a
       0.118575945 0.015253159 0.03314059 0.0015643644
000260 bd 3a 09 bd 79 f7 04 be 13 be ea bb 01 45 76 3d
       -0.033503283 -0.12985028 -0.007163772 0.0601244
000270 74 a6 a8 3d 60 bc be 3d c7 e2 98 bc a4 9c 3f be
       0.082348734 0.093132734 -0.018662823 -0.18712097
000280 ce 0c ac ba a1 eb 77 bc 69 99 0b bd 74 2c bf bd
       -0.0013126375 -0.015131862 -0.03408185 -0.09334651
000290 e7 f3 42 3d 15 13 62 3d 34 d7 d4 bd 9c c2 85 3c
       0.047595885 0.05519398 -0.10392609 0.016328149
0002a0 59 de 8e 3d 38 2b d8 3d 3e 68 0b bd 39 6d 92 3d
       0.06976003 0.10555118 -0.03403496 0.07149739
0002b0 ca 32 1f be ed 17 db 3d 03 74 e2 3b ee ec 2d bd
       -0.15546718 0.10697923 0.0069108023 -0.042462282
0002c0 af 20 81 bd 08 b7 9b 3d 99 52 63 be 3c 28 54 3c
       -0.06305062 0.0760327 -0.22199477 0.012949046
0002d0 47 9a 0c bd 4e 13 f0 bc f7 e6 d2 3d ce 81 3f 3e
       -0.034326818 -0.02930608 0.10297959 0.1870186
0002e0 ba 8b 00 3d f7 71 8c 3d ed 0d b3 bb 11 0b 01 3d
       0.031383254 0.068576746 -0.0054643066 0.031504694
0002f0 6d cc 1e bd 8e 53 ae 3d b6 be 7c 3d 5a 44 9a 3c
       -0.038769174 0.085120305 0.061705314 0.01883142
000300 b2 9c e0 bd 04 4c e3 3d d0 6f bf 3d 47 25 ac 3d
       -0.10967387 0.11098483 0.093474984 0.084055476
000310 b5 6c d2 bb 35 f5 a9 bc 59 d0 52 3d 10 2d fe bb
       -0.0064216503 -0.020746807 0.051468227 -0.0077568367
000320 d5 5f 25 3d c8 32 ac bd 9c 98 91 bd 45 07 32 bb
       0.040374596 -0.08408123 -0.07109186 -0.0027164978
000330 93 d1 6d 3d 49 81 70 bd 7a 73 1a bd e7 f8 53 bc
       0.058061194 -0.058717046 -0.037707783 -0.012937761
000340 e6 10 3b be 6e 38 0c bc 0a ad 96 bd 2f cb 18 bd
       -0.18268165 -0.008558376 -0.07357223 -0.037303146
000350 e8 20 3b 3d f4 0e 6e bd c3 87 2f bd 37 8e cc 3c
       0.04568568 -0.05811973 -0.04285408 0.024970157
000360 3e 61 7b 3d 72 e8 3b 3e ac d4 0b be 21 46 6d 3d
       0.061372034 0.1835039 -0.13655347 0.05792821
000370 08 dd a1 3c 03 8a 63 3c b7 c8 a6 bc ad 60 49 bc
       0.019758716 0.013887885 -0.02035938 -0.012291116
000380 ec bb 98 3d 41 a9 1b bc a5 23 bf bd 6f 4a c9 3c
       0.07457718 -0.0095008025 -0.093329705 0.024571626
000390 99 41 81 bd 37 85 ff 3d 67 15 f7 3b 14 8e 1e 3d
       -0.0631134 0.124765806 0.007540393 0.038709715
0003a0 f5 d1 3c 3d e0 db 09 3c 59 83 8e bd 72 0b 33 bc
       0.046098668 0.008414239 -0.06958646 -0.010928022
0003b0 42 fd e4 3d ee 9f 06 bd 43 12 df 3d a0 da 42 3e
       0.111811176 -0.032867365 0.10892155 0.19028711
0003c0 1a e9 6e 3d ae 5a 1b bc 92 a6 ad 3c f1 68 08 3d
       0.05832777 -0.009482069 0.021197591 0.033303205
0003d0 a7 d7 b0 3b 29 39 b0 bc 4e c3 e1 3d 90 bf 4a 3c
       0.0053968015 -0.021511631 0.110235795 0.012374774
0003e0 42 7e ec 3c e1 ca 27 3e 36 a4 67 bd e3 93 e5 bc
       0.028868798 0.16385986 -0.056553088 -0.02802462
0003f0 77 ed 78 3d 80 94 8e 3d 4d f6 08 3c b7 b9 48 bd
       0.06077334 0.06961918 0.008359504 -0.049005236

action_model._discrete_distribution.branches.1.bias f4 [3]
000000 8f 43 83 3d 73 c6 66 bd e1 11 e5 bc
       0.0640937 -0.0563416 -0.027962627

action_model._discrete_distribution.branches.1.weight f4 [3, 256]
000000 c9 e9 0e be 94 f2 70 bc a9 77 39 be 57 36 81 3c
       -0.1395637 -0.014706273 -0.18112053 0.015772982
000010 45 1f 12 3d 5a 6a 40 bd 90 e8 17 bd 16 c6 11 3e
       0.035674352 -0.046976425 -0.037087023 0.1423572
000020 f8 a9 49 3a 07 ca fd 3b 84 d2 39 bd 51 dc 3b 3d
       0.0007692869 0.007745031 -0.04536678 0.045864407
000030 f2 1c d0 3c 28 f5 44 be d7 80 3c 3d b2 2d 04 3c
       0.025404427 -0.19234145 0.04602131 0.008067535
000040 29 47 bd 3c a7 68 c1 bd 59 f1 af bd 1d 5a c8 3d
       0.02310522 -0.09443789 -0.08590955 0.09782813
000050 40 e8 c4 3d 11 11 20 be 5a c0 13 3e a1 e7 a2 bd
       0.09614611 -0.1563151 0.14428845 -0.07954336
000060 f1 ee 86 3b 7f 90 68 bd f0 76 93 bd d7 bf 04 bd
       0.0041178395 -0.056778427 -0.0720042 -0.032409515
000070 ae f1 32 bd 57 b6 ea bd 2c f0 b6 bd 60 e5 6b 3d
       -0.043687515 -0.1146056 -0.08932528 0.057591796
000080 0e 70 95 bc 58 6c 83 3e 10 0c 01 bd 9d 8a 42 3d
       -0.018241908 0.25668597 -0.031505644 0.047495473
000090 5d 72 4c be b6 bb 17 3b 8c 39 5d ba 43 80 92 bd
       -0.19965501 0.0023152656 -0.0008439056 -0.0715337
0000a0 d5 aa c7 3c 62 65 03 bd 3a 42 9a bc d2 6f ea bc
       0.024373451 -0.032079108 -0.018830407 -0.028617773
0000b0 bc e6 8f 3d 97 dc 85 bd 53 8c de bb 25 c1 7a 3d
       0.07026431 -0.06536215 -0.0067916303 0.061219353
0000c0 ab 3f 40 3d 91 25 1a be 48 0a c4 3d a1 23 24 be
       0.04693572 -0.15053393 0.095722735 -0.16029216
0000d0 72 b7 06 3e df 32 d3 3c a9 80 06 bd 59 93 c8 3b
       0.13155916 0.025781093 -0.032837544 0.006121081
0000e0 9a 06 f7 3b c7 d0 7e 3e f2 3a 4f bc 74 46 ca bc
       0.0075386288 0.2488433 -0.012648331 -0.024691798
0000f0 ea 1e 50 3d 6b d6 58 3d c8 6f 2f 3e 60 b6 41 be
       0.050810732 0.05293886 0.17132485 -0.18917227
000100 8e d4 7b 3d 17 2f 42 3d 00 85 06 bd ed 67 cc 3d
       0.061482005 0.04740819 -0.032841682 0.0998076
000110 25 82 b6 3d 74 51 1f be ee b3 d0 bd 5d 86 a6 3d
       0.08911542 -0.15558416 -0.10190569 0.081310965
000120 ad b6 91 bd 8f 27 02 3e d9 fd 1b be 6c cb 83 bd
       -0.07114921 0.12710403 -0.15233554 -0.06435284
000130 c3 0c 86 bd d1 d6 97 3d 34 9d cb 3d 1d 4a 73 bc
       -0.06545403 0.0741402 0.099420935 -0.014849213
000140 36 d2 e2 bd fa 06 a2 3b 4b 45 c6 bd b8 3a 4a be
       -0.11075251 0.0049446793 -0.09681185 -0.19748962
000150 a8 1b 3f bd 63 3c 9a bb d1 7c bc 3d 4c 6d dd bd
       -0.046657234 -0.0047069057 0.09203494 -0.10811862
000160 6e f8 80 bd f3 9d 5d be 87 b0 8d 3c cb 3c 89 bb
       -0.06297384 -0.21642284 0.017296089 -0.0041881553
000170 cc 83 15 be 6d 41 47 3c b5 61 14 3d f4 29 f3 bc
       -0.14601058 0.012161595 0.036225993 -0.02968309
000180 f5 19 e7 3d 57 ef 4a bc 9d 5c b5 bd 7b ee a3 3c
       0.11284248 -0.012386165 -0.08855555 0.020011177
000190 95 c9 00 3d 10 4d 7e bd eb f3 f5 b9 8b df 8f bd
       0.031442244 -0.06208521 -0.00046911775 -0.07025059
0001a0 91 f7 3d bc 19 4a 1f 3d ca 4e 79 3d da 68 3a be
       -0.011594669 0.038889024 0.060866155 -0.1820406
0001b0 37 d4 66 bc 60 7d 0c 3e e5 62 2c 3d c5 30 a3 bd
       -0.014088682 0.13719702 0.0420865 -0.079682864
0001c0 7c db c4 3c c1 3c be 3d 69 b0 88 bd 62 23 a5 bd
       0.02403044 0.09288932 -0.066742726 -0.08063389
0001d0 6c ac b4 bc b5 26 00 be f4 d0 23 be 4e 03 38 3d
       -0.022054873 -0.12514766 -0.15997678 0.044925027
0001e0 69 31 e4 3d 73 8c c3 bc f6 a1 25 bd 8b f3 80 bd
       0.11142237 -0.023870682 -0.04043766 -0.06296452
0001f0 44 f2 cd bd c4 96 05 3e 92 7b 9e 3c dc 05 cd 3d
       -0.10055974 0.13045794 0.019346032 0.10010883
000200 9b 18 88 bd 03 54 da 3d 35 94 36 be ef e6 34 3d
       -0.06645318 0.10660555 -0.17829974 0.044165548
000210 7e 30 1b 3d 87 d4 c1 3d 37 7a a0 bd ca 89 d8 3d
       0.037888043 0.094643645 -0.07835811 0.10573156
000220 6b 1d 9d 3d 4b fb ed bd 99 20 95 3c 54 97 46 bb
       0.07671627 -0.11620196 0.01820402 -0.00303026
000230 94 ff 27 3e 7d 4d b9 3d da 5f ea 3c 9f f5 f0 3d
       0.16406089 0.09047983 0.028610159 0.117655985
000240 76 a6 c6 3c c0 0c 2e bd e8 4a 44 bc 5d ab 47 bd
       0.024249297 -0.042492628 -0.01198075 -0.04874741
000250 1f 3f 92 3b e0 db a0 bc 6a 50 4d bd a9 ca 15 bd
       0.004463091 -0.019636095 -0.050125517 -0.036570225
000260 82 22 e0 bd 36 c6 4f 3d ad bb f9 3d 6d 73 c9 3c
       -0.10944082 0.050726138 0.121939994 0.024591172
000270 68 4f 85 3d e3 89 cd 3c 90 72 06 be 97 e6 53 3e
       0.06509286 0.025090164 -0.1312964 0.20693432
000280 b5 27 aa bd e0 00 3f 3e 25 d7 86 bd 2a e6 94 3d
       -0.08308355 0.18652678 -0.06584004 0.07270463
000290 47 00 b9 3c 0d 58 64 3d f3 36 c2 3d 44 03 88 bd
       0.02258314 0.055748034 0.09483137 -0.06641248
0002a0 13 63 81 bc 93 1f 03 3c 53 c2 09 be da 56 97 ba
       -0.015794313 0.008003133 -0.13453035 -0.001154627
0002b0 a7 12 d9 3d 2d f8 08 bb 5b 88 85 3d 64 ed 1d bd
       0.10599261 -0.0020899877 0.06520148 -0.03855647
0002c0 91 44 22 be 93 5f c5 bd 3c b5 c4 3b 8f d7 90 3d
       -0.15846469 -0.0963737 0.00600305 0.070723645
0002d0 15 7d 2d 3c 4e 1e 2f be 18 43 30 be d5 c1 5e bc
       0.010588904 -0.17101404 -0.17213094 -0.013596018
0002e0 3f 1f 2d be 7d ab 1c 3d a4 07 67 bd 64 8a fb 3d
       -0.1690645 0.03824948 -0.05640377 0.12282255
0002f0 df 1d 44 3d 22 4d 7b be 9d 22 d2 3d 4a 93 0d be
       0.04788005 -0.24541143 0.10260508 -0.13825718
000300 5a f8 39 bc 71 5c 27 3c 8c 61 39 3d e4 7c 80 be
       -0.0113507155 0.010214911 0.045259044 -0.25095284
000310 aa 22 26 bd f9 95 8c 3d 21 39 c2 3c db 31 10 be
       -0.040560402 0.068645425 0.023708882 -0.14081518
000320 fc 95 6b 3d a9 d2 0e bd 56 dc c3 3d 52 d9 a9 3c
       0.057516083 -0.03486887 0.0956351 0.02073351
000330 84 5e 81 bd eb e5 a2 3b 51 79 a9 bc c4 af 20 bd
       -0.063168555 0.004971256 -0.020687731 -0.039230123
000340 ca 06 f9 3c 0e 27 bf bd 5f 01 93 bc 4c f6 a4 3d
       0.030398745 -0.09333621 -0.01794499 0.0805479
000350 c4 23 b5 3d 78 7e 58 3e 9d eb 16 be 1a 3b aa ba
       0.088447124 0.21141994 -0.14738317 -0.0012987584
000360 55 71 12 3d c8 a9 98 be a4 3d 9c bb 00 a6 db bd
       0.035752613 -0.29817033 -0.0047680903 -0.10725021
000370 a0 7b 2c bd 32 7d bb bd a1 57 61 3c b0 5e 1c be
       -0.042110085 -0.091547385 0.0137538025 -0.15270495
000380 f0 6f 51 bd 1c 33 c3 bc 63 4d d6 bd 19 47 56 bd
       -0.051132143 -0.023828082 -0.10463979 -0.052313898
000390 2c 71 c0 bc 83 ec a6 bd 42 42 8a 3d 40 5c 28 3d
       -0.023491465 -0.0815058 0.06750919 0.0411036
0003a0 1b 90 21 be 68 a1 25 bd d8 26 08 3d ff ed 2f 3e
       -0.15777628 -0.040437132 0.03324017 0.17180632
0003b0 bc 67 20 be 08 da db 3d 72 df d2 bc 33 d3 6b bd
       -0.15664572 0.107349455 -0.025741313 -0.057574462
0003c0 e2 66 1e be 1b 01 4e bd 58 fb 58 3c 5d d0 94 3c
       -0.15468934 -0.050294023 0.013243519 0.018165762
0003d0 28 07 95 bd ec d6 36 be 74 34 34 bd ce 55 ec bd
       -0.072767556 -0.17855424 -0.043995336 -0.115398034
0003e0 9b b1 24 bc 8f 48 fb bc 4e ba d8 3d 1d 52 99 3d
       -0.01005211 -0.030674247 0.1058241 0.07486365
0003f0 c3 85 15 3e de 5a 0e bd 3d 7d d5 bd 90 d6 b5 3c
       0.14601807 -0.034754626 -0.10424278 0.022197038

discrete_action_output_shape f4 [1, 2]
000000 00 00 a0 40 00 00 40 40
       5.0 3.0

network_body._body_endoder.seq_layers.0.bias f4 [256]
000000 ae f0 67 bd 1e 28 66 bd 6e ec 07 bd cc a1 84 bd
       -0.056626014 -0.056190602 -0.03318446 -0.06476173
000010 23 2f 8b 3d 4e b7 79 3d 85 e2 2c 3d 9b da 4a bd
       0.067961 0.06096583 0.042208213 -0.049524885
000020 67 88 8a 3d d9 eb 2e bd 04 75 a4 bc 43 fe d5 bc
       0.06764298 -0.04270539 -0.020075329 -0.026122218
000030 37 e8 80 3d c1 8b c9 3d ee 50 ad 3c 07 cf fc 3d
       0.062942915 0.09841109 0.021156754 0.12344175
000040 26 b9 67 bd 9c 3c 27 bd 16 c8 5f bc e7 f9 82 bc
       -0.056573056 -0.040829286 -0.013658544 -0.015988303
000050 80 98 57 3c aa c3 49 3d 91 47 ac 3c cd 7b ca 3d
       0.013158917 0.049258865 0.02103022 0.098868944
000060 df c9 89 bd d8 bb 88 3c d3 cf 6a 3c 33 ad d8 bd
       -0.06727957 0.016691133 0.014331776 -0.1057991
000070 73 3b e9 3c 20 ca 30 bd 38 ff 4a 3c 38 e8 00 be
       0.02847073 -0.04316151 0.01238995 -0.12588584
000080 4d 28 ae 3c e7 44 49 bc f3 96 dd 3c 18 9f 51 bd
       0.021259451 -0.012284494 0.027049517 -0.051177114
000090 dc 11 57 bd 4e 0c 67 3d 51 b8 c5 3d ad fe 67 3d
       -0.052507266 0.05640822 0.09654296 0.056639362
0000a0 65 fd 71 bc 8f 03 4a 3d d0 12 a1 bd 28 a9 83 3b
       -0.014769887 0.0493198 -0.07864916 0.0040179677
0000b0 ae 89 4a bd e0 fe 05 be cf 8d 19 3e 1f 01 23 bd
       -0.049447708 -0.13085508 0.14995502 -0.03979599
0000c0 a3 60 96 3c 5c 85 6a bd ba f5 f6 bd dd ae bb bd
       0.018356627 -0.057256088 -0.12058587 -0.09164212
0000d0 5c 78 78 bd 8c d9 b7 bc 5a ae d7 bc e4 4f 2c bd
       -0.06066166 -0.022442602 -0.026328254 -0.042068377
0000e0 fa 8f 1e bd ff f3 bc bd 81 87 69 bd 67 5f 54 bd
       -0.038711525 -0.09226226 -0.057013992 -0.051848795
0000f0 70 9b b4 bd f4 45 5b 3c ea 8c 31 3e 94 3b 5d bd
       -0.0881871 0.013383377 0.1733891 -0.054011896
000100 ee 6e 69 bd 3d f9 56 be f9 00 78 bd 49 3e 39 bd
       -0.056990556 -0.20993514 -0.060547803 -0.045225415
000110 e3 af 4f 3d 0a c6 3c bc bb 56 81 bd ad 9e 0a be
       0.050704848 -0.011521826 -0.06315371 -0.13537093
000120 87 f0 62 bd 96 d0 8d 3d cf 98 96 3c a9 bc 50 3c
       -0.055405166 0.0692455 0.018383412 0.012740293
000130 f7 42 0a bd 33 a0 d4 bd 5d 12 9a bd 8c 00 a5 3d
       -0.03375527 -0.10382118 -0.07523034 0.08056745
000140 f1 de a0 bd 02 92 c3 bb be 94 5f 3d ab 7f 18 3d
       -0.07855023 -0.005968333 0.05458521 0.03723113
000150 30 b1 ac 3c c9 86 16 bd 9a 49 37 bd d9 d8 af bc
       0.021080583 -0.036749635 -0.044747926 -0.021465706
000160 2b 62 c1 bc 19 5e 34 3c 15 9e c5 bd 7b 4f c8 bc
       -0.02360638 0.011008763 -0.096492924 -0.024451962
000170 29 84 d4 bd 98 f2 d9 bd e4 aa 14 3d c2 df 1a bd
       -0.1037677 -0.10641974 0.036295786 -0.03781105
000180 21 58 89 3d 9e 08 5e bd 75 26 6b bd bd 1e e0 3d
       0.067062624 -0.054207437 -0.057409722 0.10943363
000190 1d 10 da bc 65 37 32 3c 01 5c 13 bd c8 76 c3 bc
       -0.026619012 0.010877465 -0.035976414 -0.02386035
0001a0 15 5e 37 bd ba 61 d4 bb dd 71 56 bd c0 f1 9d bd
       -0.044767458 -0.0064813765 -0.052354682 -0.07712126
0001b0 ee b3 e3 bd 46 9e ca 3a 02 07 26 bc e5 63 83 3c
       -0.11118303 0.0015458546 -0.010133507 0.016038844
0001c0 85 3a 81 3c 4e 33 e5 bd 15 dd 62 bd 13 1b 48 bd
       0.015774975 -0.11191426 -0.05538662 -0.048853945
0001d0 91 4d 0a be 1b 39 9b bd 2f 39 83 bd 0d b0 64 3d
       -0.13506152 -0.075792514 -0.06407391 0.055831958
0001e0 bb 6c cc 3d 51 7f 44 bd ae 37 a1 bd 8d ab 9a bc
       0.09981676 -0.04797298 -0.07871948 -0.01888063
0001f0 ec cf be 3d 58 0a b3 bc c4 21 74 3c ce d2 95 3b
       0.09317002 -0.021855518 0.0149006285 0.004572249
000200 99 81 ed bc 10 85 c1 3c 8d 2e 08 bd 4e 31 f2 bc
       -0.028992461 0.02362302 -0.03324752 -0.029564526
000210 50 c9 30 bc 1c 53 ab bd 4b 0c 36 bd b8 68 a0 bc
       -0.010790184 -0.08365461 -0.044445317 -0.019581184
000220 1b 21 89 bd a4 2c c1 3d 4c 92 65 bc cf 84 0e 3d
       -0.066957675 0.09432343 -0.014011931 0.034794625
000230 6b 58 a4 3d c8 f5 36 bd 26 9c 10 bc 5d 95 d2 bc
       0.08024677 -0.04466799 -0.008826291 -0.025705988
000240 e4 30 18 3d ba 80 21 bd af 74 d6 bc 6f f5 4c bd
       0.037156 -0.039429404 -0.026178686 -0.05003875
000250 19 7b d1 bc 16 ea 49 bc 25 6e e6 bc 21 70 bb bd
       -0.025571393 -0.012323877 -0.028128693 -0.09152246
000260 ee 46 df bd c6 f1 bf bd 07 e1 21 bd 1f 8d 31 3d
       -0.10902201 -0.093722865 -0.039521243 0.043347474
000270 a4 b6 a7 3b 62 ba 46 3c 46 1f 6b bc ec 3e 3b bd
       0.005118208 0.012129398 -0.014350718 -0.045714304
000280 0b d1 ba 3c 87 9a a7 bd fe 6c a5 bd 24 fd 9a bd
       0.022804758 -0.081837706 -0.08077429 -0.07567814
000290 a1 44 77 bc 23 90 b1 bc 98 b3 ac 3c 55 11 96 bd
       -0.015092046 -0.021675175 0.02108173 -0.073275246
0002a0 2f 32 6d 3d 62 1b 8f 3d d1 d1 6b 3c ae bc c8 bd
       0.057909187 0.06987645 0.014393286 -0.09801613
0002b0 ad cc bf 3b d0 25 a9 3d dd 8c a0 bd 3e 3a 79 bd
       0.0058532567 0.08259165 -0.078393675 -0.06084656
0002c0 b5 d7 7f bd 49 f4 68 3d c8 22 11 3d ad 82 e6 ba
       -0.062461574 0.056873593 0.03543356 -0.0017586552
0002d0 22 3c 2e bd 19 89 1f ba 7b c2 05 be 15 6a 3f bd
       -0.042537816 -0.0006085798 -0.1306247 -0.046732027
0002e0 c5 61 67 bd e9 f8 ae bd b8 b4 0f be 8e 12 93 bd
       -0.056489725 -0.085435696 -0.14033782 -0.071812734
0002f0 87 19 2a 3c 8e 11 31 bc ca 12 c5 bd 16 13 2d 3d
       0.010382063 -0.010807408 -0.09622724 0.04225453
000300 20 c9 94 bd f5 c4 0c bc 42 20 ff 3d e1 f5 b3 bd
       -0.07264924 -0.00859188 0.124573246 -0.08787132
000310 3b 9e 54 bd 8f 6c 7f bd 81 b3 05 3d d2 9d 79 3d
       -0.051908713 -0.06235939 0.03264189 0.060941525
000320 dc ac fc 3c 9d 78 b5 bc 2a c3 ab bc 59 38 d9 3d
       0.030844145 -0.02215224 -0.020967085 0.106064506
000330 15 d7 d8 3c cf 23 a2 bd a8 df 59 be b8 13 6e bc
       0.026469747 -0.07916986 -0.21276724 -0.0145310685
000340 02 f5 b7 bd 58 55 37 3e 1d 75 5e bc 9d 5a 56 bb
       -0.089822784 0.1790365 -0.013577727 -0.0032707818
000350 7d 01 45 3d 7d 18 ac 3d d4 ed 8f 3d fc d4 fe 3c
       0.048097122 0.08403108 0.07027784 0.031107418
000360 a9 c7 92 ba 3a b4 26 3d 2e 75 1a be 8b 47 ff bd
       -0.0011198419 0.04069922 -0.15083763 -0.124648176
000370 f6 e9 b2 bd d8 31 8b bc d5 d8 79 3d 7d b7 b4 3c
       -0.08736031 -0.01699154 0.060997803 0.02206015
000380 4e ed 56 3b 69 69 27 bd 15 31 ac bd e8 d3 09 3c
       0.0032795253 -0.04087201 -0.08407799 0.008412339
000390 76 72 4b 3d b8 0f f4 3a de 6a 84 3d 50 31 3c bd
       0.049669705 0.0018620407 0.06465696 -0.045945466
0003a0 d4 07 ad bd 5d 59 02 3e b8 54 18 be a4 1a 89 bc
       -0.08448759 0.12729402 -0.14876068 -0.016736336
0003b0 cc ef 5e bd c3 e9 27 3c d0 4a 47 bc 2c 57 23 3d
       -0.054427907 0.010248604 -0.012163833 0.039878055
0003c0 c2 14 2f bd 2f f3 2e bd ce f2 84 3c 02 53 a2 bd
       -0.042744406 -0.042712387 0.01622906 -0.07925989
0003d0 37 90 00 3c bb 73 eb bc 21 82 a5 bd 77 41 6c bd
       0.0078468835 -0.028741708 -0.08081461 -0.05767962
0003e0 5e d0 17 be 8c af 6d 3d ef 1d bb bd 70 10 da bd
       -0.1482558 0.058028743 -0.09136569 -0.106476665
0003f0 30 e6 85 bd f3 9f c4 3a 8a 64 a4 bd 04 20 cf bd
       -0.065380454 0.0015001282 -0.08026989 -0.10113528

network_body._body_endoder.seq_layers.0.weight f4 [256, 621]
000000 cf f8 2f 3e a5 8a 4b bc f4 03 33 3e e8 83 4c be
       0.17184757 -0.012423192 0.17481977 -0.19972193
000010 87 5d ea 3d 29 61 4c bd 30 09 b0 bd 33 39 f9 3b
       0.1144362 -0.049897347 -0.085955024 0.0076056956
000020 85 80 02 3e 24 31 9c bc 5a 95 50 3d 8d 4b 09 3d
       0.12744339 -0.0190664 0.050923683 0.033519316
000030 61 0c 26 be 3a 73 9d bc bd 1f e7 3d 74 33 9e bd
       -0.1621566 -0.019219983 0.112853505 -0.07724658
000040 6d 78 62 bb a4 0d 1d bc 17 fe 06 3c 11 22 90 3b
       -0.0034556643 -0.009585772 0.008239291 0.0043985923
000050 85 df b7 3d 3a c8 4a be b1 11 0c 3e 94 62 ab 3d
       0.0897818 -0.19802943 0.13678624 0.08368412
000060 a2 26 82 3d cb 15 82 bc 18 b2 d6 3d b2 d5 26 3e
       0.06355025 -0.015879532 0.104831874 0.16292456
000070 44 d4 7b bc 92 77 29 3e 50 66 cd ba 69 ac 13 3e
       -0.015370432 0.16549519 -0.001567075 0.14421238
000080 8f 31 16 be 3b 48 36 be f2 60 ab bd a9 2f fb 3d
       -0.14667343 -0.17800991 -0.083681 0.1226495
000090 d0 42 cd 3d d1 1b 63 be 13 bd 0e be 74 12 17 bd
       0.10022509 -0.2217858 -0.13939314 -0.036882833
0000a0 1a 86 eb bc b1 7c 49 3d 38 b2 ee 3d ea 3d f8 3c
       -0.028750468 0.04919118 0.11655086 0.03030296
0000b0 5d cc 77 bc 98 50 d7 3d cd 7d 2d 3d 87 d9 4e be
       -0.015124408 0.10513419 0.0423563 -0.20200168
0000c0 aa b0 05 bd e2 83 05 3e 49 92 2b 3d 67 53 ba 3d
       -0.032639183 0.1303859 0.041887555 0.09097939
0000d0 5b 2a c4 bd 67 f9 13 3e 02 40 80 3d be b4 cf bd
       -0.09578391 0.14450608 0.062622085 -0.10141896
0000e0 50 36 f8 bc e4 22 48 bd b5 5f 11 be 52 24 bd bd
       -0.030299336 -0.0488614 -0.14196666 -0.09235443
0000f0 5c 2d 0c 3c 7d ec d5 bd 44 b9 a6 bd 4a 96 cc 3a
       0.008555736 -0.10445497 -0.08140805 0.0015608754
000100 03 e7 9d bd 38 f1 04 3e 23 65 33 bd 3a c3 0e bd
       -0.077100776 0.12982643 -0.043797623 -0.03485415
000110 7d af 5a 3d 15 60 fa 3c 33 9f 16 bd 91 35 fb bd
       0.053390015 0.030563394 -0.036772918 -0.12266076
000120 d3 d3 60 3d 34 98 06 3e 2f bf 09 bd 98 fb 1c bd
       0.05488951 0.13143998 -0.033629593 -0.038325876
000130 22 7b 00 3d 9f f9 25 be e4 2d b6 3d a3 66 08 be
       0.03136743 -0.16208504 0.08895472 -0.13320403
000140 4a 1d 11 bd 72 ad ab bc fb e1 a9 bd 17 f4 52 be
       -0.035428323 -0.020956729 -0.082950555 -0.20600925
000150 95 98 14 3d c3 da ae 3d 81 da 1d 3d 40 59 1c be
       0.036278326 0.08537819 0.03853846 -0.15268421
000160 53 76 6f 3d 85 3a 47 3d 47 25 35 be 95 9e 11 3e
       0.058462452 0.048639793 -0.17690001 0.1422065
000170 7a 9c cd bd 90 52 80 bd 5a e1 80 3d a3 a7 b1 3c
       -0.10039611 -0.062657475 0.062929824 0.02168638
000180 c6 67 da 3d ea 8c d5 3d 50 76 b9 3d 5a ac b4 bd
       0.106643245 0.10427268 0.090557694 -0.08821936
000190 62 73 bf 3d ca 6d 07 bd 8f 44 79 3d 7b 62 6a 3d
       0.093481794 -0.033063687 0.0608564 0.057222825
0001a0 2f a0 2c be cf fd b1 bd 53 e4 82 3c e3 aa af 3c
       -0.1685798 -0.08690988 0.015978014 0.02144379
0001b0 77 78 ec bd 58 74 ad 3d 61 e8 25 bd 79 2b 35 be
       -0.11546414 0.084694564 -0.040504817 -0.17692365
0001c0 e6 ce eb 3d ff 8d 25 3e 22 5d 59 3c 8f e0 ad 3d
       0.11514072 0.16167448 0.0132668335 0.08490097
0001d0 d7 06 b5 bc f5 dd df bd ee c6 57 bc 8a 37 0a 3d
       -0.022097988 -0.10931007 -0.013169987 0.033744372
0001e0 08 23 d0 bc 6f af 5d 3d 89 11 da bc 7a a6 62 bc
       -0.02540733 0.054122385 -0.02661969 -0.013833636
0001f0 70 30 db 3c 6c 49 c6 3d 87 c5 a4 3d 98 7e df bc
       0.026756495 0.09681973 0.08045488 -0.027282044
000200 0e 77 43 be 72 e1 54 be fa 16 ed 3b cf 88 d1 bc
       -0.19088385 -0.20789126 0.007235405 -0.02557793
000210 c8 25 e9 bd bc 82 b9 3d 6d ca e6 3d cf fe 04 3e
       -0.11384159 0.09058139 0.112690784 0.12987827
000220 d3 7d 61 be ff 58 1c be b9 a2 8d bd 5b 63 76 bd
       -0.22020654 -0.15268324 -0.069158025 -0.060153347
000230 23 15 89 bd 6a 0d 34 bd a6 45 35 3d 27 cf dc 3d
       -0.06693485 -0.043958105 0.044255875 0.10781699
000240 9d 9c 5e 3d 48 54 4d 3d c8 5e 3f be b3 01 c8 bd
       0.054348577 0.050129205 -0.186885 -0.09765949
000250 2e d4 26 3d ec b7 27 3e 98 e3 c8 bd ee c1 55 3c
       0.040729694 0.16378754 -0.09809035 0.013046725
000260 d1 33 ac 3d d5 35 26 bc e0 2a fb bc 46 ce 50 be
       0.08408321 -0.0101446705 -0.030660093 -0.20391187
000270 ee eb 0f be 58 61 81 3c 39 e8 14 bd f9 54 9f 3c
       -0.14054844 0.015793487 -0.036354277 0.019449698
000280 55 3c af 3c 86 38 8c 3d ca 24 b7 bd 52 dc 3f 3c
       0.021391073 0.068467185 -0.08942564 0.011710243
000290 c9 9f d3 bd 2d e8 d2 bd 89 9c 96 bb e3 8a 84 3d
       -0.10333211 -0.1029819 -0.004596297 0.06471803
0002a0 9e 32 96 bc de 6e 8c bd 96 39 f3 3d 87 e4 9d bc
       -0.018334683 -0.06857084 0.11876218 -0.01927401
0002b0 8c c9 94 3c cf 86 e0 bd 47 eb ac bd 35 a3 a3 bd
       0.018162511 -0.10963213 -0.08443313 -0.07990114
0002c0 05 8b 13 3c 51 8c f4 3d 06 52 ae 3d f5 60 97 bb
       0.009005313 0.11940826 0.085117385 -0.0046197125
0002d0 2c 27 a7 bd fd 95 1c 3d 05 d0 85 be 6f 5f 01 3e
       -0.08161768 0.038228977 -0.2613527 0.12634061
0002e0 e4 81 ad bc 22 66 fb bd 3d 18 b8 3d b2 06 5c 3d
       -0.0211801 -0.1227534 0.08988998 0.053717323
0002f0 0b 92 37 3d c1 b3 4c bd 8f 7d fe 3d ea 3a ab be
       0.04481701 -0.049976114 0.12426292 -0.33443385
000300 1c c8 45 3e 27 45 3a be 55 ca 15 3e 60 c5 cb 3c
       0.19314617 -0.18190442 0.14627965 0.02487439
000310 e2 6e ca 3c b3 9a 76 3d 5d 5b 50 3d 3b f2 92 bd
       0.024711076 0.060206126 0.05086838 -0.07175108
000320 50 76 2d bd f2 5d ce 3d 05 f1 f4 3a 5f e9 14 be
       -0.04234916 0.100765124 0.0018687552 -0.14542149
000330 dd db d3 bd 69 35 04 3d 23 cb 71 3d 9b e9 2f 3e
       -0.1034467 0.0322775 0.059031617 0.17178957
000340 19 db 95 bd 37 cf 54 be ef a9 ce 3d f2 78 9b bd
       -0.0731718 -0.20782171 0.10091006 -0.07591428
000350 ea 60 99 bd c4 e9 e9 bd 2a 18 92 3d fc 3c c0 3d
       -0.07489188 -0.114215404 0.07133515 0.09386632
000360 1b 1b 41 bd 39 95 5d bd 29 e8 3c be ea 78 fd 3a
       -0.04714499 -0.054097388 -0.18447937 0.0019338403
000370 8a a6 e7 ba 28 c7 7a 3c 50 e7 e9 3d c7 f9 cb 3d
       -0.0017673534 0.015306272 0.114210725 0.099597506
000380 c1 ae 23 3d 27 3d db bc 41 88 53 bc a8 a6 01 be
       0.03996158 -0.026762558 -0.012910903 -0.1266123
000390 b6 27 de 3d ae 8f 58 3e ee d6 b9 3d ac 9e 84 bd
       0.10847418 0.2114856 0.09074198 -0.06475577
0003a0 23 f2 b6 3d be 69 0a 3d 32 dc a1 3d 68 47 b7 bd
       0.08932903 0.03379225 0.07903327 -0.089491665
0003b0 fe 20 00 bd 07 8d 4c bd ce 00 3f 3d c4 8a 83 3e
       -0.031281464 -0.04993918 0.046631627 0.25691807
0003c0 05 bd 85 3d c4 91 0e 3c c1 6f 34 3e a4 e6 09 3e
       0.06530193 0.008701745 0.17620756 0.13466889
0003d0 c6 11 d8 bd 6b ba e0 bd ad f4 92 bc 41 46 18 bd
       -0.10550265 -0.109730564 -0.017938936 -0.037176374
0003e0 d1 7f bb bc f2 c5 f5 3c cf 2b e5 3d 79 6d 5b 3d
       -0.022888096 0.030001614 0.111899965 0.053571198
0003f0 56 4a cd 3c 96 42 8f 3d 29 d1 23 3e 35 8f 7c bd
       0.02505986 0.06995122 0.15997757 -0.06166001

network_body._body_endoder.seq_layers.2.bias f4 [256]
000000 ca ff 99 bd 16 3f c9 bc c1 d7 9c bd 41 f9 ba bc
       -0.07519491 -0.024566215 -0.07658339 -0.022823932
000010 eb 42 69 bc 45 1a bb bc fc 00 07 be 42 34 ce 3d
       -0.014237146 -0.022839675 -0.1318397 0.10068561
000020 dd a2 08 ba c6 19 a8 bc 43 4b 97 bb b1 a4 38 bd
       -0.0005212257 -0.020520102 -0.004617126 -0.045078937
000030 31 6c 9c 3d 7b e8 1d be 3d 81 c8 bd 9c 55 d9 bd
       0.076378234 -0.15420716 -0.09790275 -0.10612032
000040 e0 71 08 3c 0b fc 68 be 04 87 bb bd 5d 4c 94 3d
       0.008327931 -0.22752397 -0.091566116 0.07241128
000050 03 2b 8a 3d e7 86 36 be df 8c 37 3c b8 f7 a2 bd
       0.06746485 -0.17824899 0.01120302 -0.07957405
000060 f5 96 15 bd 3f 66 ba bd bc 80 97 bd b6 3b b3 bd
       -0.036520917 -0.09101533 -0.07397601 -0.08751623
000070 a4 5b ed bd 48 a1 a3 3c 93 6b d1 bd 9f a6 ff bc
       -0.11589745 0.019974366 -0.10225596 -0.03120738
000080 22 f0 80 bd 40 21 c8 3d 4a de 7e bd cb 46 7f bc
       -0.06295802 0.09771967 -0.06222371 -0.015580843
000090 f5 fb b1 bd 83 f2 af bd d5 e5 5d bd 8b 9d b6 bd
       -0.08690635 -0.08591177 -0.054174263 -0.08916768
0000a0 2f 20 b3 bd db c8 99 bb 1f 14 f4 bc 2f d2 eb bd
       -0.08746373 -0.0046931333 -0.02979475 -0.11514699
0000b0 3f d1 4a bd d3 6d 90 bd 49 71 d5 bd f9 16 8c bd
       -0.04951596 -0.07052197 -0.10421998 -0.06840319
0000c0 e3 6b 94 bc c6 c3 00 be ee a9 25 3d 7d ba 01 be
       -0.01811785 -0.12574682 0.04044526 -0.12668796
0000d0 0b e9 a8 3c 4c 54 09 3d cc 2d 86 3d b0 30 e4 3c
       0.020618936 0.033527657 0.06551704 0.027855247
0000e0 60 7f c7 bc aa 3e e9 3d 02 4d d0 bc 87 7c 8c bd
       -0.02435273 0.11388905 -0.025427345 -0.06859689
0000f0 02 63 0a 3d 79 0c 8d bd ef c1 4a 3d ab 0f 08 3b
       0.033785827 -0.068871446 0.049501356 0.0020761292
000100 2e 98 bb bc de f3 ef 3c 0e cd b2 bc ac a1 f8 3c
       -0.022899713 0.02929109 -0.021826293 0.030350529
000110 e4 43 fc 3c bc 1f 33 bc 74 ae 3a bb c3 9a cf 3c
       0.030794092 -0.010932859 -0.002848533 0.02534235
000120 e3 f1 97 bd 54 c2 29 3d cb d9 ff bd 94 c9 98 bb
       -0.07419183 0.04144509 -0.124927126 -0.004662702
000130 e3 1f 30 bd 7b 56 dc bb 79 ca 59 bd c4 7f 0c be
       -0.04299916 -0.0067241765 -0.05317161 -0.13720614
000140 67 51 a4 bd 02 8f 5b bd b1 e8 cc bd 79 9d 07 be
       -0.08023339 -0.05360318 -0.1000532 -0.13243665
000150 07 62 1b be f5 3f 43 bd 3b 4d 86 3d b5 9e f3 bd
       -0.15174113 -0.047668416 0.06557699 -0.11895505
000160 6e 10 bc bd 7d 1b 29 bd fb 04 66 3d 9e 97 22 3d
       -0.09182821 -0.04128598 0.056157093 0.039695375
000170 2e 57 94 bd c4 28 9e bc b1 c4 cc bd 9c e6 b9 bc
       -0.07243191 -0.019306548 -0.099984534 -0.022692971
000180 ec 84 e1 3c 0f 39 07 bd df f7 08 bd 3c 05 08 bd
       0.027529202 -0.0330134 -0.033439513 -0.033208117
000190 e1 c2 c5 3d cd 79 a5 bd e8 e1 57 bd fb e2 84 bd
       0.09656311 -0.08079872 -0.052705675 -0.064886056
0001a0 1c 16 89 bd 04 79 13 bd 06 80 95 bd b0 f6 6b 3a
       -0.0669367 -0.03600408 -0.07299809 0.0009001298
0001b0 a9 4e eb bd 7d be 73 3d 46 aa 8b 3b b8 51 56 bd
       -0.114896126 0.059507836 0.0042622415 -0.052324027
0001c0 12 ce 5c bc f3 21 ad bd 26 b8 b9 bd c0 d6 21 be
       -0.013476865 -0.08453741 -0.09068327 -0.15804577
0001d0 16 dd 0e 3d 5a f2 7e bd e4 11 f7 bd af 07 24 3d
       0.034878813 -0.062242843 -0.12063959 0.04004639
0001e0 35 5d 92 3d 99 da 4a bd 7b ef 29 bd b4 39 6a bd
       0.07146684 -0.049524877 -0.041488152 -0.057183936
0001f0 0e 6f 23 be 26 d7 0f bd 11 ec 82 3d 12 74 71 bd
       -0.15960333 -0.03511729 0.06392682 -0.058948584
000200 98 66 13 bd c6 08 89 3d 50 1d bb 3a 91 c3 05 bd
       -0.035986513 0.066911265 0.0014275704 -0.03265721
000210 64 b5 42 bd 43 6b a7 3b b0 59 97 bd 6b 3c 36 bd
       -0.04753627 0.005109222 -0.073901534 -0.044491213
000220 fb fc cd 3c 21 4e c9 bd d8 46 b2 bc 45 b8 41 bd
       0.025145045 -0.09829355 -0.021762297 -0.047294874
000230 33 ec 33 3b 93 70 ba 3d 33 05 9a bd 2d cb 2c 3c
       0.0027454018 0.09103503 -0.07520523 0.010546488
000240 5e 58 89 bc f3 e8 64 bb 68 8d 8c bd 2b 39 55 bd
       -0.01676577 -0.0034928888 -0.068629086 -0.052056473
000250 35 9f 5a 3c e7 b7 ff bd 3b a4 0b bd fc 75 88 bd
       0.013343622 -0.124862485 -0.03409217 -0.06663129
000260 0d c6 c1 bd b0 36 9a 3d fe d3 86 3d 5b 54 27 bd
       -0.09461603 0.07529962 0.06583403 -0.040851932
000270 f6 ee 08 bc 0f f1 95 bb 57 10 88 bd ee 7c e1 3d
       -0.008357754 -0.0045758556 -0.066437416 0.110101566
000280 b5 29 8f bd 8c 06 54 3d ac a6 cb bd 5b 8a 9c 3c
       -0.06990377 0.051764056 -0.099438995 0.019108942
000290 f1 5e 6e 3d 18 26 04 3d 0e f3 e4 3c da 9d 39 bd
       0.058196012 0.03226289 0.027947929 -0.045316555
0002a0 d0 4f a3 bd 7c 16 07 bd a8 0a 11 be 7e 38 1f bd
       -0.079742074 -0.032980427 -0.14164221 -0.038872235
0002b0 b5 2d ed bc 02 4b eb bd e9 b9 da bd 7c 42 de bd
       -0.028952459 -0.11488916 -0.10679991 -0.10852525
0002c0 c6 e2 23 bd be 33 06 be 8c 78 e7 3d 90 c8 7c 3b
       -0.04001119 -0.13105676 0.11302289 0.0038571693
0002d0 92 ce ca 3c de c3 cb bd 6c 36 16 be 8e 35 d8 bc
       0.024756704 -0.09949468 -0.14669198 -0.026392724
0002e0 63 0f 3c be e2 58 19 be 70 14 5b be e8 75 97 3d
       -0.18365245 -0.14975312 -0.21394515 0.07395536
0002f0 99 74 0d bd 23 7b 87 bd 26 47 02 bd 52 0b 57 bd
       -0.034535024 -0.06615283 -0.031806134 -0.05250103
000300 2c ce 3a 3b ab ef 83 bd 16 e2 d3 3c 18 b2 7a bc
       0.0028504236 -0.064421974 0.025864642 -0.01530125
000310 9f e7 0c be ef 7f a0 bd 93 09 bd bd b6 5a 1f 3d
       -0.13760231 -0.078369014 -0.09230342 0.038904868
000320 aa cd ad bc 94 2e ae 3b fc 7f c9 3c 21 4c 9a bd
       -0.021216232 0.005315611 0.02459716 -0.07534052
000330 d7 3e d0 bd f8 a5 82 bd 64 b0 a7 bd 84 04 a5 bb
       -0.10168236 -0.06379312 -0.08187941 -0.0050359387
000340 30 71 82 bb 27 17 dc bd 1a ea da bd a8 d1 d4 3c
       -0.003980778 -0.107466035 -0.106891826 0.025978878
000350 a8 72 47 3d 00 ad 99 3d 41 dd 05 be 3c 0b 61 bd
       0.04869333 0.075037 -0.13072683 -0.054942355
000360 20 58 1d bd 5e 55 8d 3c a0 1a 61 bc 89 f2 18 be
       -0.03841412 0.01725262 -0.013739258 -0.1493627
000370 90 22 eb bd 26 b5 2d be 2a e6 f9 bd e1 b8 1a bd
       -0.11481202 -0.16963634 -0.122021034 -0.03777397
000380 8f 4f 2a be bc dc 0d be 27 dc 3b bd db 41 c9 bd
       -0.16631912 -0.13853735 -0.04586425 -0.09827014
000390 af 01 0c bd ff 29 5d be 87 fd 09 bd 1f bf 0b b5
       -0.034181293 -0.21598051 -0.03368905 -5.2059653e-07
0003a0 61 c6 c0 bd 62 34 10 be f8 dc 43 3d da 83 a4 3d
       -0.09412838 -0.14082482 0.047818154 0.08032961
0003b0 40 58 46 bd 58 fd 1c 3d cc f9 e5 bd de b9 00 be
       -0.048424006 0.038327545 -0.112292856 -0.12570903
0003c0 45 f6 00 be e5 cf 88 bd a7 4b e6 bc 94 30 ce bc
       -0.12593944 -0.06680278 -0.028112246 -0.025169648
0003d0 06 a0 a7 bd f0 a0 b5 bd aa 8b b3 bc ae 9d fb bd
       -0.08184819 -0.08868587 -0.021917183 -0.122859344
0003e0 44 b1 3c 3c 60 cf 14 3c 7e 98 71 3d a1 f8 2c 3d
       0.011516873 0.009082645 0.05898332 0.0422293
0003f0 7f 8d 13 bc 14 93 6e bd 8c 92 b4 bd 20 33 39 bd
       -0.009005903 -0.058245733 -0.08817014 -0.045214772

network_body._body_endoder.seq_layers.2.weight f4 [256, 256]
000000 29 dd c6 bd cb 01 ec bc a5 8d 6c 3e 6f 90 e0 3d
       -0.09710152 -0.028809449 0.23100908 0.109650485
000010 4c 91 d0 bc 64 46 76 bc e4 68 8a bd 1a 1b 9a be
       -0.025459908 -0.015031431 -0.067582875 -0.30098802
000020 84 8a d1 bd ce e3 1d be b6 9e 93 3a d5 5c 7a be
       -0.10231498 -0.15418932 0.001126251 -0.24449475
000030 6d 0a 84 be 55 c8 11 be 30 c5 3a be 29 d6 2b bd
       -0.25789204 -0.14236577 -0.18239284 -0.041952286
000040 6c 98 7c be b8 5a 00 3d 51 a9 b3 bc 04 66 8d bc
       -0.2466752 0.031336516 -0.021931322 -0.017260559
000050 0e c9 34 3d 67 22 02 3e 77 1e 78 be 19 a6 9a bd
       0.044137053 0.12708436 -0.24230371 -0.07551212
000060 e6 6c 03 be c0 c5 8e bd 50 de 13 be 07 13 f1 3d
       -0.1283451 -0.069713116 -0.14440274 0.11771207
000070 7a 10 2a be b8 6a 46 bd 13 5e 04 bd 98 36 8f bc
       -0.16607848 -0.04844162 -0.03231628 -0.017482087
000080 8a 0a 3d 3c 3c f8 3f 3e 31 f5 cc bd 3b a0 df bd
       0.011538157 0.18747038 -0.10007704 -0.109192334
000090 8a c4 3f bd d8 65 33 bd 17 5a 14 3e 35 21 45 bd
       -0.046818294 -0.043798298 0.14487492 -0.04812737
0000a0 cc f9 2e bc 68 c0 a7 bd b1 e3 d1 bd d7 24 37 3d
       -0.010679673 -0.081909955 -0.10248507 0.044712868
0000b0 b6 0e 55 3e 5d 4b bc 3b fc de 2c bd 76 66 36 3d
       0.20806393 0.0057462887 -0.042204842 0.044531308
0000c0 fc 46 9d ba 09 92 61 bd b6 82 23 3e 78 fc 87 bd
       -0.0011999304 -0.05507091 0.15967831 -0.066399515
0000d0 10 88 6e bd 19 66 3e be ff b5 1d bc d1 63 56 bd
       -0.058235228 -0.18593635 -0.009625911 -0.052341286
0000e0 eb 31 4e 3d 52 6b d2 3d b5 95 8a 3e c9 6a 9d 3d
       0.050340574 0.10274376 0.27067342 0.07686383
0000f0 7f 01 2b be a6 7e cd bb ac f4 8d 3d 5c 97 1b 3c
       -0.1669979 -0.006271201 0.06931433 0.009496536
000100 cf df ff 3d 7b 6e 4f be 87 4f ac 3b 70 62 ec 3d
       0.1249386 -0.20256989 0.005258504 0.11542213
000110 d0 d7 e5 3d e8 8f a1 3c 3c 73 a5 bd 3a 4b 27 be
       0.112228036 0.01972194 -0.0807862 -0.1633729
000120 53 e0 a3 bd ca cf af bd 2e 24 89 bd 0d 74 d1 bc
       -0.08001771 -0.085845545 -0.06696354 -0.025568033
000130 a7 40 d9 3d 72 ed 11 3e 22 42 1a be 7d b3 c3 bd
       0.106080346 0.14250734 -0.1506429 -0.09555719
000140 1c e2 03 be ea 5b 9f bd 1e 13 8c bd 88 2d 88 bd
       -0.12879223 -0.07781203 -0.06839584 -0.066493094
000150 e2 48 0c 3e c6 ba 43 bc 24 08 2f bd 40 b6 2a ba
       0.13699678 -0.011946386 -0.042732373 -0.0006512143
000160 77 d7 30 3b 3c 05 50 be 9e a6 78 bd a1 2f 01 be
       0.0026983896 -0.20314497 -0.060705774 -0.12615825
000170 3a ef ac 3d db 85 8e 3d b8 cf a9 bd 60 72 78 3b
       0.08444066 0.06959125 -0.08291572 0.003790997
000180 00 96 d8 bc 9f 11 30 3e 21 c2 84 bd aa c5 20 be
       -0.026438713 0.17194222 -0.0648234 -0.15700403
000190 b4 d2 95 bd d8 4a 1f be 3e 61 92 3e c4 38 23 bd
       -0.07315579 -0.15555894 0.28589815 -0.039849058
0001a0 8a 5d 07 bd 23 2f 1b 3e 7c 2c 9f 3d aa 89 ec 3d
       -0.03304819 0.151547 0.077721566 0.11549695
0001b0 a4 5f bd 3c b2 1d 19 be 45 25 72 bd 31 64 f6 3d
       0.023116894 -0.14952734 -0.059117574 0.12030829
0001c0 76 5e a9 bd 9c 30 e8 bd bf 4b 3b 3e 72 69 4d bc
       -0.0826997 -0.113373965 0.18290614 -0.012537347
0001d0 85 ad 21 3d 8a a0 cf bd 2e 13 4b 3d 8b ab bc 3c
       0.03947212 -0.10138042 0.049578838 0.023031017
0001e0 c4 fe 6d be 15 e6 cf bd 2b bf bf bc 38 cd 6e be
       -0.23241717 -0.101513065 -0.023406586 -0.23320472
0001f0 92 2b cb bc f8 61 dc 3d c7 2a a6 bd 73 e1 06 be
       -0.02480105 0.107608736 -0.08113628 -0.1317194
000200 2f 46 29 be c1 ca 1b be 22 f5 ca 3c 18 26 ac bc
       -0.16530679 -0.15214063 0.024775092 -0.021014258
000210 37 2b 54 be 2b bc 05 bd 7d de 9c bd 51 36 e6 bc
       -0.2071961 -0.032650154 -0.07659624 -0.028102072
000220 6f 5c 06 bd 57 86 11 bd e9 a3 66 bd 47 84 bc 3d
       -0.032802995 -0.035528507 -0.05630866 0.092049174
000230 1e 15 68 be b8 8a f9 bd c2 6c 9c 3d 52 bb 3d 3d
       -0.22664306 -0.121846616 0.076379314 0.04632122
000240 38 62 a0 3a 16 6b 09 3e b1 b9 47 be 23 92 7f bc
       0.0012236303 0.13419756 -0.1950443 -0.015598807
000250 64 8f 5e 3e 0e 5f 45 be af 6b c4 bd 8d 19 e1 bd
       0.21734387 -0.19274542 -0.095908515 -0.109912015
000260 2b 45 e3 3d 1c 70 b9 bb a6 ea f1 bd a7 ee d7 3b
       0.11097177 -0.0056591164 -0.11812334 0.006589729
000270 1d b2 a2 bc 21 bd f7 bd 10 b2 9d bd 8e fb 1b 3d
       -0.019860322 -0.1209662 -0.07699978 0.038081698
000280 2f 57 a4 3b 25 4f 02 be 56 af 9d 3d a0 69 6f 3d
       0.005015276 -0.12725504 0.07699458 0.05845034
000290 0a f7 8f be 4a 71 ae 39 94 92 97 bd 4a 17 c8 bd
       -0.28118163 0.00033272273 -0.074010044 -0.09770067
0002a0 ac 48 a4 bc b6 99 36 bd 7f 04 08 3c da 12 0d be
       -0.020054184 -0.044580184 0.008301853 -0.13776723
0002b0 7c a8 bd bd 82 d2 0a bd 4a 3e a4 3d bc bf d3 3d
       -0.092606515 -0.033892162 0.08019693 0.10339305
0002c0 6b ce b2 bd fd ca 1b bd ec 76 d1 bd 40 0e 40 bd
       -0.08730777 -0.03803538 -0.10227761 -0.04688859
0002d0 3a c5 9f bd de c8 56 bd ef 4f 84 3d 1e 0e 04 be
       -0.0780129 -0.052437656 0.064605586 -0.1289601
0002e0 f2 28 9b 3e 8f 0c a4 bd 30 c5 f9 3d 55 af 2a 3e
       0.30304676 -0.08010208 0.12195814 0.16668446
0002f0 18 26 73 3e 58 a1 dd bd 11 80 0d bd c8 54 02 be
       0.23745 -0.108217895 -0.03454596 -0.12727654
000300 1b 7c 11 3e 5b f3 8f bd e1 5f 86 be dd d5 38 bd
       0.14207499 -0.07028838 -0.26245025 -0.04512583
000310 d8 7a af 3c c3 1e 7e bc 76 d0 2f be 50 b1 af bd
       0.021420881 -0.015510264 -0.17169365 -0.085787416
000320 e0 e8 32 3d a4 e4 c1 3d 91 db cc 3d 81 27 e5 3d
       0.04367912 0.09467438 0.100028165 0.111891754
000330 c9 a0 9c 3d 9f 35 e5 bb dd 34 3b be ee 63 98 bd
       0.07647855 -0.0069949175 -0.18281884 -0.07440935
000340 26 6c 0f be 39 e2 53 bd e3 2a c4 3c 61 79 98 3d
       -0.14006099 -0.051729415 0.023946231 0.07445026
000350 e1 05 ea bd 80 86 9c 3b bd b5 d1 bd af ef 4b be
       -0.114269026 0.004776776 -0.10239742 -0.19915651
000360 d8 85 38 3e cf f5 07 3d 6b 83 12 3e 2b 43 9e 3d
       0.18019807 0.033193406 0.14307944 0.07727655
000370 c9 42 4a bd 1f 58 35 3e 63 0a f5 3c 16 83 b3 be
       -0.049380098 0.17709397 0.02991218 -0.35060948
000380 7c c5 93 be d4 60 63 bd fa 98 02 bd 71 47 1b 3e
       -0.28861606 -0.055512264 -0.03188417 0.15163971
000390 72 3c 94 3d 6e cb 71 3d fa 3d ed bb 05 d6 93 3d
       0.072380915 0.059031896 -0.007240054 0.07218555
0003a0 c6 1e eb bd a7 88 98 be b2 d1 26 3d 2f cc e6 3d
       -0.11480479 -0.29791757 0.040727325 0.11269414
0003b0 1c 7f d6 3d e8 7a 70 3e 94 fa 2d 3e ef 23 d5 bd
       0.10473463 0.23484385 0.16990119 -0.104072444
0003c0 21 90 19 be 99 56 6b 3d c4 e3 46 bd 5f ce d8 bd
       -0.14996387 0.057455633 -0.048557058 -0.10586237
0003d0 c9 03 af be cc 8b 2f be 35 8b a5 bd e9 ce 10 3e
       -0.34182575 -0.17143172 -0.08083192 0.1414143
0003e0 c7 c2 b8 bd a8 57 5d bd a3 ec 3f bd 31 75 82 bd
       -0.09021526 -0.054038674 -0.046856534 -0.06370009
0003f0 fe da d3 bd b2 b7 c3 bd 44 1a ee bd c6 de 55 3e
       -0.10344504 -0.095565215 -0.116261035 0.20885763
