Assets/TFModels/Other models trained in the process/Striker3_ppo_4M.onnx (onnx, 981831 bytes, 9 tensors)

action_model._discrete_distribution.branches.0.bias f4 [5]
000000 d9 34 73 bd fd 36 6a 3c 55 77 8f 3d cc 5d f2 3b
       -0.05937657 0.014295337 0.07005183 0.0073964354
000010 43 c8 2f bd
       -0.042915594

action_model._discrete_distribution.branches.0.weight f4 [5, 256]
000000 21 cd 14 be c3 72 8f bd f4 76 54 3e 59 83 cc bd
       -0.14531375 -0.07004311 0.20748502 -0.0998599
000010 e1 4b 7f bd d6 23 fa 3b ca 30 d1 bd d1 6d 8c bb
       -0.062328223 0.0076336665 -0.10214384 -0.004285552
000020 05 93 d2 3d 50 c3 99 3c b5 3c 2d bd de bc fd 3d
       0.10281948 0.01876989 -0.042294223 0.12389539
000030 6e c0 1c be c1 6f cc 3d 99 80 e3 3b c9 99 ea 3d
       -0.15307781 0.09982253 0.0069428203 0.114551134
000040 3f a6 b9 3c 74 5d 1e bd f7 9b 7a 3c e2 4e 87 bc
       0.02266228 -0.038663343 0.015295974 -0.016517106
000050 f0 b6 64 be 14 97 0e bd 3a 1f a9 bd 3f 70 85 3d
       -0.2233541 -0.034812048 -0.08257909 0.0651555
000060 c9 ea 17 be 51 da 0d 3e 0c 27 49 3e 65 8c 39 3b
       -0.14835657 0.13852812 0.19643801 0.0028312441
000070 ab 49 da bc 47 8f dc 3b f6 f9 36 3e 80 37 82 bd
       -0.026646456 0.006730947 0.1786879 -0.06358242
000080 36 e3 28 3e ed e6 da 3d 65 5a b4 3d 1a 28 2e be
       0.16492924 0.10688577 0.08806304 -0.17007485
000090 50 b0 9b 3d 66 2d 3c be e7 e7 14 be d4 1c 10 3e
       0.07601988 -0.18376693 -0.14541589 0.14073497
0000a0 5b f4 24 bd 71 cc 97 3d 58 0f 99 bd 29 e6 2c 3d
       -0.040272098 0.07412041 -0.0747363 0.042211685
0000b0 40 da 28 be 92 49 cb 3d d6 78 cf 3d 33 36 19 bc
       -0.16489506 0.09926142 0.101304695 -0.009351301
0000c0 5a 53 88 bd e6 f5 1c ba 81 f6 cf bd a7 9f bf bd
       -0.06656523 -0.00059875695 -0.10154439 -0.09356623
0000d0 27 5a 66 bd a1 a9 d7 3c 7f 14 03 3e ea 95 98 3d
       -0.05623832 0.026326003 0.12800787 0.07450469
0000e0 b1 4d 0a 3c ad 04 07 bd 12 d6 ac 3b 1b 24 00 bd
       0.008441375 -0.032963444 0.0052745426 -0.031284433
0000f0 5c 51 a1 3d 80 c3 10 3d b3 5b c9 3d c2 01 a9 bc
       0.07876846 0.035342693 0.09831943 -0.020630721
000100 87 24 77 3d 18 d7 18 be 1e 74 eb 3b 0e c2 11 bd
       0.06033757 -0.14925802 0.007185473 -0.035585456
000110 91 58 b9 bc a1 2e 6f 3d c8 61 d7 bc c2 cf 89 3d
       -0.02262524 0.05839408 -0.026291743 0.0672908
000120 2f 56 ea 3d dd 62 81 3d db 3d 9a 3d b5 82 88 3c
       0.114422195 0.06317685 0.07531329 0.016663888
000130 b7 68 cb 3d fa 2d 05 3c ca d9 be 3d 58 f0 5e 3d
       0.09932082 0.008128637 0.09318884 0.05442843
000140 53 4b d3 3d 86 fc c5 3c 23 bb d4 3a b4 51 12 bc
       0.10317101 0.024168264 0.0016230087 -0.008930612
000150 ce 44 14 3d 96 bd 94 3d 8a d4 41 3e 84 55 4b b9
       0.03619843 0.07262723 0.18928733 -0.00019391446
000160 e4 69 53 3d a8 4c c3 3d 1e cd 2c bc a0 92 2e 3b
       0.051614657 0.095361054 -0.010546951 0.0026637688
000170 31 6a bb 3c 42 b1 40 3d bb c4 66 bd d3 d6 87 bd
       0.022877784 0.047044046 -0.05633996 -0.06632771
000180 62 9c bb 3d d5 2a a1 bd 55 8d 81 be d5 6b f9 bd
       0.09160687 -0.07869498 -0.2530314 -0.121787705
000190 56 25 b4 3a b2 24 01 bd b9 47 43 3d 85 41 e5 bd
       0.0013744037 -0.031529136 0.047675822 -0.111941375
0001a0 86 f0 66 be 5b 6b e0 bc 72 24 f3 3c c5 36 63 bd
       -0.2255269 -0.027394941 0.029680464 -0.055472154
0001b0 c8 47 da bd 68 de 23 3a 70 f0 b8 bc 19 99 b0 3d
       -0.106582224 0.00062510977 -0.022575587 0.08622951
0001c0 5e 87 96 3d f0 18 6b bd c3 3f 01 3c 8b 7b 7e bd
       0.07350038 -0.05739683 0.007888737 -0.06212954
0001d0 47 c5 0e 3e a3 75 40 bd 91 f8 d2 bc 25 b7 a6 bd
       0.13942443 -0.046987187 -0.025753291 -0.08140401
0001e0 fb 9b 84 bc 67 35 87 3d ac 87 42 3d ed 7e f1 bc
       -0.016187659 0.066019826 0.047492668 -0.029479468
0001f0 12 95 1b bd 43 52 86 3c ca fa b9 3d 6d 92 4d 3d
       -0.03798396 0.016396647 0.09081037 0.05018847
000200 19 ef ac bd 75 e3 08 3e b6 b3 27 3d e5 e8 00 be
       -0.08444042 0.13368018 0.04094287 -0.12588842
000210 0a c1 6a bd 7b ad 82 3d 41 cc 20 3d c2 63 92 bd
       -0.057313003 0.06380745 0.03925729 -0.071479335
000220 37 79 e1 bc 0c cd 10 bc 07 27 39 3e 38 fb e9 bb
       -0.02752362 -0.0088379495 0.18081294 -0.0071405433
000230 e6 f0 e4 bd 06 df 2f 3d 1b de 16 3e 8d c2 89 3d
       -0.1117876 0.0429373 0.14733164 0.06726561
000240 0f 71 fb 3c 18 4b 9a 3b e1 fd d5 3d 53 c4 41 bc
       0.030693559 0.004708659 0.10448814 -0.0118265925
000250 8e c2 e1 bd 46 48 d2 3d 3b af 04 3e da 77 28 bd
       -0.110234365 0.10267691 0.1295747 -0.041129924
000260 7d 74 b9 bd 4c 4b 88 bc 8d 09 a7 3b ee 89 3c bc
       -0.090554215 -0.016637467 0.005097574 -0.011507494
000270 3b 05 29 3e 63 d3 00 be 3d c8 ba 3c c2 c7 72 be
       0.16505902 -0.12580638 0.02280056 -0.23709014
000280 f6 24 cc 3c 45 51 1f bd c4 bd 10 3e d4 4e 81 bd
       0.024919968 -0.038895864 0.1413489 -0.063138634
000290 77 d9 01 3d 40 a1 c1 3c d3 de 7d 3d 1f 78 2b bc
       0.03170153 0.02363646 0.06198008 -0.010465651
0002a0 27 cb 4b bc bf 58 6d 3d 72 b4 b1 bc 24 4f 08 bd
       -0.012438572 0.057945963 -0.021692488 -0.0332786
0002b0 dc ed 21 3d 65 c7 be bd 32 67 9a 3d ba a9 f9 bb
       0.03953348 -0.09315375 0.07539214 -0.00761911
0002c0 f6 0b ed bb 62 ac 2e 3d 5a 9c 35 be f9 58 0d bd
       -0.007234092 0.042644866 -0.17735425 -0.03450868
0002d0 32 26 92 3c 2c 19 dc bd 90 42 4c bc 53 4e a3 3d
       0.017840479 -0.10746989 -0.012467042 0.079739235
0002e0 8b f6 9e 3d 78 97 9b bd 66 9c 3d bd 3c fa cd bd
       0.07761868 -0.0759725 -0.04629173 -0.10057494
0002f0 6c 75 13 3d 08 ad 0d 3e d8 ea 97 bb 9b 57 de bd
       0.036000654 0.13835537 -0.00463615 -0.10856553
000300 af ef 8b ba 64 32 e6 3d 55 9f 81 3d 92 7c 95 3d
       -0.001067629 0.1124008 0.06329218 0.072991505
000310 20 d8 0a 3c a7 ca 0e be 38 e2 15 3e 2e 30 a8 3d
       0.00847438 -0.13944493 0.14637077 0.082123145
000320 a8 c8 59 3d 1a 76 69 3d 2a 1e 5b bc 10 0b 48 3c
       0.053169876 0.056997396 -0.013373891 0.012209669
000330 ff 03 46 3d eb b4 49 bd aa 7a 7a 3b 4a e9 7b 3d
       0.048343655 -0.049244802 0.0038220086 0.06150178
000340 f1 27 f9 3c 80 65 9f bd 9d 98 13 be 9b 97 b3 bc
       0.030414553 -0.077830315 -0.14413686 -0.021922877
000350 4f 4f 21 3e cc c9 8c bd c3 02 e0 3d d4 40 56 be
       0.1575291 -0.06874427 0.10938027 -0.20923167
000360 a1 ec 08 3d 98 b6 d2 bd 43 27 99 3d d1 e2 e0 3c
       0.033428792 -0.10288733 0.07478192 0.027451904
000370 90 e1 e3 3b ff 3f 04 3d ba d6 49 bd a3 60 b2 bd
       0.0069543794 0.032287594 -0.049277045 -0.08709838
000380 69 31 93 3d c1 54 1d be d5 81 fa bc f5 ce b9 bd
       0.071871586 -0.15364362 -0.030579487 -0.09072677
000390 ba 3f 62 bd 2e 26 18 3a 9f ce df bd 38 d1 30 3d
       -0.055236556 0.0005804029 -0.10928082 0.043168277
0003a0 fe f4 17 3c 88 ee 0c 3d f7 18 54 3d 26 9f 93 3d
       0.009274719 0.03440717 0.05178162 0.072080895
0003b0 c8 59 1a 3d f1 bd b0 bd bd e0 af 3c a5 ad b3 3c
       0.03768328 -0.086299784 0.021469468 0.021933386
0003c0 f4 28 c5 bd 48 a0 c1 bc bd 27 be 3c 23 9e eb bd
       -0.09626952 -0.023635998 0.023212308 -0.115047716
0003d0 8a 2c 95 3d 62 f2 2f bc 54 88 96 bd 39 cf 0b 3e
       0.07283886 -0.010738941 -0.07350221 0.13653268
0003e0 04 09 33 bd b3 2c 04 3e 55 5c 6b 3d 67 6b 0b 3c
       -0.04370977 0.12907676 0.0574611 0.008509493
0003f0 6d 40 1b be 3d b7 23 3d b8 8e 9b 3d f5 66 95 3d
       -0.15161295 0.03996967 0.07595581 0.07295028

action_model._discrete_distribution.branches.1.bias f4 [3]
000000 30 a7 10 3b 1a ba 46 bd 04 6a 36 3d
       0.0022072308 -0.048517324 0.044534698

action_model._discrete_distribution.branches.1.weight f4 [3, 256]
000000 64 76 9f bb b5 b1 3a 3d 32 72 d8 3d 0d 81 18 3e
       -0.004866408 0.04557963 0.10568656 0.14892979
000010 72 3a 49 be a5 dc 5a 3c 4e 84 93 bd 06 b0 bb 3d
       -0.19651201 0.01335827 -0.072029695 0.09164433
000020 7d 3c 48 3d 97 4c bc 3d 46 0d 07 3e 64 ef 83 3d
       0.04888581 0.09194296 0.13188657 0.064421445
000030 06 c4 be 3c 40 b6 96 3d c8 2c 50 bd 2b df 38 3d
       0.02328683 0.0735898 -0.050823957 0.045134705
000040 23 7d 20 3e 49 40 c4 3d 4c 34 e5 3d 02 6a 83 bd
       0.15672736 0.09582574 0.111916155 -0.06416704
000050 38 a1 a8 bd 47 d5 94 bd 8e 4c 2e 3e 62 97 d9 bb
       -0.08233875 -0.07267242 0.17021391 -0.0066403607
000060 67 b8 e8 3c fd 96 1f bb 24 d2 00 bd cd 8a cd 3d
       0.028408242 -0.002435147 -0.031450406 0.1003624
000070 11 ec 03 bd 99 bd 93 bb c5 29 cd bb 59 7c 55 3d
       -0.032207552 -0.004508686 -0.006261083 0.05212054
000080 d7 57 1c bd 31 ad e4 3d cd 7d aa 3d 5e 25 65 3c
       -0.038169708 0.11165846 0.08324776 0.01398596
000090 37 ae b9 3d 27 31 7b bc 85 4d e6 bd f8 b6 d6 bd
       0.09066432 -0.015331543 -0.112452544 -0.10484117
0000a0 b3 ad c3 bc c9 57 a1 bd 23 de fe 3d 26 c1 c3 3d
       -0.023886537 -0.07878072 0.12444713 0.095583245
0000b0 b9 44 8a 3d 17 25 fc 3d 0e b4 be bc b0 ca 42 bc
       0.06751389 0.12311762 -0.023279216 -0.011889145
0000c0 94 99 16 3e 3a 84 b6 3d 6f 32 26 3c b9 1a 33 3d
       0.14707023 0.08911939 0.01014386 0.043726657
0000d0 d0 b3 63 3e a7 db c3 3d 7a f6 0d bd d1 9c d4 bd
       0.22236562 0.0956338 -0.034658886 -0.10381473
0000e0 a0 2c 50 be 01 12 34 bd 0d d6 b2 bd e6 d5 e1 3d
       -0.20329523 -0.043962482 -0.08732233 0.11027126
0000f0 e6 a4 43 be 37 b3 10 3d f8 fe ef 3c 11 33 d4 3d
       -0.19105873 0.035327163 0.029296383 0.10361303
000100 b4 5e 9a bd c9 2f 17 bd e7 f9 14 3c 8b c5 06 3e
       -0.075375944 -0.036910806 0.0090927845 0.13161294
000110 da 98 cb 3d 9d 69 c9 3d bc 3a 1c be 91 71 ce 3d
       0.099412635 0.09834597 -0.1525678 0.10080255
000120 db 6a 02 3e 1a 85 17 3e 4d b1 86 3d 4f 49 ec 3c
       0.12736075 0.14796868 0.06576786 0.02884355
000130 36 a3 50 3e ea 38 4d be af f8 30 3d 91 e5 b7 3d
       0.2037476 -0.20041242 0.043205913 0.08979333
000140 db 3c c3 bc 31 86 27 be bd d3 e1 bd 89 dd 0d 39
       -0.02383273 -0.16359784 -0.11026714 0.00013529336
000150 6c b6 bb 3d 5b 0c c8 bc 4f 02 44 bc b8 e9 c3 3d
       0.091656536 -0.024419954 -0.011963441 0.09566063
000160 66 b3 f7 bd 2c db b9 3d fb 36 27 bd c9 80 ab bd
       -0.120947644 0.09075007 -0.040823918 -0.08374173
000170 f0 47 ef bd 68 73 4b be 77 c9 4c bb 6f f1 74 3d
       -0.11683643 -0.19868243 -0.0031248012 0.05980056
000180 cb 37 f9 3d 75 b6 12 3d bc cd 6f 3d 90 2e 9c 3d
       0.12168845 0.035818536 0.058545813 0.076260686
000190 7a 1f f5 bd 08 5a c4 bd 9c f0 97 bd 63 da e7 3d
       -0.11968894 -0.095874846 -0.074189395 0.11320951
0001a0 4c 1a d1 bd d6 70 42 3d e7 3c a1 3d 6e e4 94 3d
       -0.10210094 0.04747089 0.07872944 0.07270132
0001b0 e5 e5 bc 3d ac 67 3b bd 93 4d 92 bd 16 41 1c 3c
       0.092235364 -0.045753166 -0.07143702 0.009537002
0001c0 92 38 d1 3d bf 8e 01 3e c9 0d be bb 8b 5b 6b 3d
       0.10215868 0.1265211 -0.005799983 0.05746035
0001d0 72 b2 83 3d 5f 32 11 bd 3b 8a ed bd 82 88 df bd
       0.0643052 -0.03544843 -0.11598631 -0.10914709
0001e0 d0 1e 39 3b e7 90 f0 3d 4a 27 c8 bd 54 d2 c5 3d
       0.0028247125 0.11746388 -0.09773119 0.096592575
0001f0 2a 42 73 3d 96 4a 31 3c 95 15 f7 3d 9c b9 99 3c
       0.05938927 0.010821005 0.12064663 0.018765263
000200 3e dd 38 3c ba 61 c8 3d 58 0d cf bc ee 2a 9b 3c
       0.011283217 0.09784265 -0.025274917 0.018941369
000210 7e 33 8b 3d 05 ad ce 3d 5a 1c ec 3c ba 4f 33 3d
       0.06796931 0.100915946 0.028822113 0.043777205
000220 0e 2b 21 bb b6 ce 3b be 40 bf 23 3e f9 f2 1b 3d
       -0.0024592313 -0.18340573 0.15990925 0.038073514
000230 80 81 36 3e 48 6a 1d 3d 95 0b dd bc 7f 73 00 3d
       0.17822838 0.038431436 -0.026983062 0.031360146
000240 a8 69 8d bc 22 02 a1 bc 4f 55 c7 3d f2 bd e8 3c
       -0.017262295 -0.019654337 0.09733068 0.028410885
000250 84 36 a9 3d 91 d2 88 bd a5 c8 b8 3d 88 64 10 3e
       0.08262351 -0.06680787 0.09022645 0.1410085
000260 09 21 04 bb ca bf 48 3d 59 c7 cc bc f0 df b1 3b
       -0.0020161292 0.04901103 -0.0249974 0.0054283068
000270 98 de 63 3d 46 85 fa bd 6e d4 54 3d 97 0d 51 3c
       0.055632204 -0.12232451 0.0519604 0.012759588
000280 87 88 24 3d 15 71 2f 3d 15 d4 59 3d 24 d8 ba bc
       0.040169265 0.042832453 0.053180773 -0.022808142
000290 c2 77 bc bd 6b 79 be bc 46 c6 0c bc 26 ef 39 bd
       -0.092025295 -0.023251256 -0.008592194 -0.045394085
0002a0 ba 10 86 bd 4a 2d 29 3d ce 3a 80 3d 60 e8 08 3c
       -0.06546159 0.041302957 0.06261216 0.008356184
0002b0 d2 02 c2 bc 8d ab c5 3d 07 4d 00 be e8 0a 21 3d
       -0.023682985 0.09651861 -0.12529384 0.03931704
0002c0 ac 4c ba bc a8 90 09 bc c4 f1 9c 3c bd 72 03 3d
       -0.022741638 -0.008396305 0.019158252 0.032091845
0002d0 4c 83 d9 bb 5c b2 b6 3d 26 5c 2f 3d ef 02 88 3d
       -0.0066379663 0.08920738 0.04281249 0.066411845
0002e0 df 25 2d be 20 a7 73 bd 90 8a c2 bb 16 9b 12 bd
       -0.16908978 -0.059485555 -0.005936928 -0.035792433
0002f0 71 a8 d8 3d 86 f7 27 bc ba e1 83 3d 3d 02 71 bb
       0.10579003 -0.010251885 0.06439538 -0.0036775016
000300 32 f9 a0 bd 77 a8 27 3d e0 8b 76 ba 2d ed 7b bd
       -0.0786003 0.040932145 -0.0009404998 -0.061505485
000310 5e 6a 06 3d a8 11 24 3e 7c 1c b8 3c 10 1d 20 3d
       0.032816283 0.1602236 0.02247452 0.039090216
000320 1f a4 d3 3c 0f a4 67 3d c8 ac 0d 3d 4c 4f 38 3e
       0.025835095 0.056552943 0.034588605 0.17999
000330 a1 78 e8 bd df 67 00 3d e5 f1 0d 3e e1 2c 61 3d
       -0.11351133 0.03134906 0.13861807 0.05497444
000340 a5 83 d9 3d d3 24 0c 3d 9f 57 72 3d 37 15 b2 3d
       0.10620812 0.034214806 0.059165593 0.08695453
000350 3b 8b b5 3d 2a 47 06 bd 31 2a 38 be 25 5f c2 3d
       0.08864447 -0.03278271 -0.17984845 0.09490804
000360 5a fa 9c bd ff 02 b7 3c 5b 5a 16 3e d9 59 e3 bd
       -0.07664938 0.022340296 0.14682905 -0.111011215
000370 6b c4 35 bd da 86 d1 bd 06 5f d9 3d 5a 7d a0 3c
       -0.044376772 -0.10230799 0.106138274 0.019591022
000380 db d7 f5 bc 67 4e 3b 3e 0a 31 e3 bd ac b4 b3 bd
       -0.030010154 0.18291627 -0.11093338 -0.08774695
000390 74 48 ba 3d d5 79 57 bd ff d4 af 3c f7 07 d3 bd
       0.090958506 -0.052606422 0.02146387 -0.103042535
0003a0 e8 d1 0a 3e 3c 15 08 bd 06 19 16 3e cb 62 96 3d
       0.13556635 -0.033223376 0.14657983 0.07343062
0003b0 82 92 4d be 76 b3 c7 bc 72 8c aa 3d a5 55 36 3c
       -0.2007542 -0.024377566 0.08327569 0.011128818
0003c0 64 2e 73 3c 0d 23 c2 bd 0a b5 1d bd 2a 99 bf 3d
       0.014842603 -0.09479342 -0.03850273 0.093553856
0003d0 6c c4 d4 3c 2c 92 23 3e a8 4f 4f 3c df bd 33 3e
       0.025972567 0.15973729 0.012653269 0.17552899
0003e0 17 d8 f8 3d bb a7 f4 3c 0c 34 d0 bd d1 e6 02 be
       0.12150591 0.029865136 -0.10166177 -0.12783362
0003f0 4d 03 51 bd 59 38 b2 3d 9f 38 0a bd f1 bf bc 3d
       -0.05102854 0.08702154 -0.033745404 0.092162974

discrete_action_output_shape f4 [1, 2]
000000 00 00 a0 40 00 00 40 40
       5.0 3.0

network_body._body_endoder.seq_layers.0.bias f4 [256]
000000 5b 90 39 bd ea c3 96 bc c6 b4 c7 39 42 8a 55 bc
       -0.045303684 -0.018403966 0.00038090924 -0.0130334515
000010 4f 7c be 3c 77 44 c0 bd 81 45 0f 3d 77 c9 e1 bc
       0.023252634 -0.09388059 0.034978393 -0.027561886
000020 6d e7 8e 3c a3 50 cf 3d 0b 98 a8 3c d4 a6 90 bc
       0.017444337 0.10122802 0.020580312 -0.017657675
000030 40 a2 5b bc 4a 15 e1 bc 68 13 5e 3d 19 c1 e0 bc
       -0.013405383 -0.027475972 0.054217726 -0.027435826
000040 8a f6 d3 bc 39 8a 8d 3b 73 42 c2 bc 93 e9 ad bd
       -0.025874395 0.004319456 -0.023713326 -0.08491816
000050 18 20 29 bc 92 f2 92 bd d6 a9 de bc d0 dd 82 bc
       -0.010322593 -0.07175173 -0.027180593 -0.015974909
000060 1e e1 53 3d ac ca b2 bb 75 3d da bb 06 d1 b0 bc
       0.05172836 -0.0054562893 -0.0066601583 -0.021584045
000070 32 8c 3a bd e5 bb cd 3d bd b3 c7 3a 7e 28 6d bd
       -0.045543857 0.10045604 0.0015236061 -0.057899944
000080 e7 03 73 bc cb 57 51 bd 21 fa 76 bc 2f 6c 9e bc
       -0.014832473 -0.051109117 -0.015074284 -0.019338695
000090 42 00 55 bc 6f b1 6b bb 67 51 8d 3d 0d b3 1d 3c
       -0.01300055 -0.0035963913 0.06900292 0.009625209
0000a0 29 53 27 bd ac 97 be 3c 78 66 8b bd 4b 1b 1e 3d
       -0.040850792 0.023265682 -0.06806654 0.038600247
0000b0 b5 ed a3 bd 6d 6d f3 bc a3 75 1e bb 15 4f 12 3d
       -0.080043234 -0.029715264 -0.0024179004 0.03571995
0000c0 85 8b 5b bd 05 75 55 3d 24 57 2b 3c a6 e9 6a 3c
       -0.053599853 0.05211355 0.010457788 0.014337933
0000d0 48 b7 20 bd c8 0b 9f 3d 52 dd 73 bd 64 67 9f 3c
       -0.03923729 0.07765919 -0.05953724 0.01945848
0000e0 70 20 85 bb 44 33 82 3c bf 03 d1 3d ad 41 ef bc
       -0.0040627047 0.015893586 0.10205793 -0.029206121
0000f0 0a e1 00 bd 40 28 43 bd 04 4f 53 3d dd 6f 65 3d
       -0.031464614 -0.047645807 0.051589027 0.056014884
000100 56 75 ab bd 4a 8d 0e bc fc f4 8d bd ed 7c 77 3d
       -0.083719894 -0.008700678 -0.06931493 0.060421873
000110 1a 2b 24 bd 40 44 e7 bc 67 ea 95 3c 69 4c 58 bd
       -0.040080167 -0.028230786 0.018300248 -0.052807245
000120 3f e5 ac bc 2a 7a be bc 1c 26 ba bc f7 59 a6 bd
       -0.021105407 -0.023251612 -0.02272325 -0.08122628
000130 e4 81 06 3d 40 7e 47 3b b6 2a aa bb 4a 92 88 3d
       0.032838717 0.003044024 -0.00519308 0.066685274
000140 59 63 98 3c a8 59 23 3d 61 49 84 bc 44 31 52 bd
       0.01860206 0.039880425 -0.016148271 -0.051316515
000150 85 74 17 bd 23 7f a8 3c f8 05 19 3d d5 22 d5 bd
       -0.036976356 0.020568436 0.037359208 -0.10407034
000160 ac 56 dc bc e0 9c 70 bc 1e 5b a8 bd 57 5e d3 3c
       -0.026896797 -0.014685839 -0.08220504 0.02580182
000170 5e a4 64 3d 7a 71 e4 3c 3d 98 38 bc e4 7f ac bd
       0.055820815 0.027886141 -0.011266765 -0.08422831
000180 28 dd 0e bc 8b 32 9b bc 93 4b 53 bd 46 57 2f 3b
       -0.00871972 -0.018945 -0.051585745 0.00267549
000190 fc 56 34 bc 88 84 c3 3d 0b a2 94 bc 41 7f 36 3c
       -0.011007067 0.09546763 -0.018143674 0.011138738
0001a0 31 b6 9d bd 05 f2 8c bd 4b db a0 3d e7 4c c3 bb
       -0.07700766 -0.06882099 0.07854327 -0.005960095
0001b0 2f e6 00 bd 6e 8b 54 3d a3 ee 0e bc 20 2a 31 bd
       -0.03146952 0.051890783 -0.008723888 -0.043253064
0001c0 ae ae 52 bd 11 b0 0d 3d 6c 3f ed bb 57 89 b0 3b
       -0.05143612 0.034591738 -0.0072402265 0.005387466
0001d0 c5 fb de bc 6f 60 d3 ba 30 e2 08 3d 06 ee 54 bb
       -0.027219662 -0.0016126762 0.033418834 -0.0032490506
0001e0 b6 5d 1f bd 74 c8 b7 3c 3f 99 73 bd 4f 0d 8c bd
       -0.03890773 0.02243445 -0.05947232 -0.06838476
0001f0 01 b3 0e bc 46 6f aa 3c 97 19 4a bd c1 1e ac bc
       -0.00870967 0.020805012 -0.04934081 -0.021010758
000200 11 e8 de bc 03 ac 6e bd ef ee 3a 3d 7a b8 ba 3d
       -0.027210267 -0.058269512 0.04563802 0.09117217
000210 66 cf 4a bd 16 89 c3 3c 23 b4 e1 3c 1d 2a 19 bd
       -0.049514197 0.023869079 0.027551716 -0.037393678
000220 2f 13 b8 3c 84 4d c8 3c 4a be d0 3c 48 ee 57 bd
       0.022470085 0.024451025 0.025481362 -0.052717477
000230 c1 28 2e 3b 2f fb e5 bb bc 84 3d bd f0 7d cf bd
       0.0026574584 -0.007018469 -0.046269163 -0.101314425
000240 88 cc 61 bd a4 d3 41 3b e1 10 6b 3d 5a b6 39 bd
       -0.055126697 0.002957561 0.057389144 -0.04533992
000250 5c 39 79 bd a6 66 81 bc c3 57 07 bd aa 45 9f 3c
       -0.060845718 -0.015796017 -0.03304268 0.019442398
000260 7b d6 ba 3c 9a d0 7e 3c b9 8d 4c bc 4e 5f 96 bd
       0.02280735 0.015552664 -0.012484961 -0.07342397
000270 4e 61 83 bd dc 34 4e 3d b7 db 43 bd 8c 9f 69 bb
       -0.06415044 0.05034338 -0.04781696 -0.0035648076
000280 58 f8 ae bd d6 80 09 3b b3 dc 07 bd 50 18 80 3c
       -0.085434616 0.0020981333 -0.03316946 0.015636593
000290 90 75 c7 ba 64 dd b3 bc db 5d 20 bd 84 37 ee bd
       -0.0015217531 -0.021956153 -0.039152008 -0.116316825
0002a0 6d 16 3f bd a2 17 08 be 62 ce aa bd ef c1 00 bd
       -0.046652246 -0.13290265 -0.08340146 -0.03143495
0002b0 7a fb 51 bd e7 00 c3 3c 85 f8 06 be fb 40 ec bd
       -0.051265217 0.023804141 -0.1318074 -0.115358315
0002c0 21 b4 c4 bc 62 b5 93 bd 7f 1b f7 bc 3b 11 5e 3d
       -0.024011673 -0.072123304 -0.030164478 0.05421565
0002d0 3d 26 0c be c9 c2 7d 3d 2c f3 94 bd 01 7a f5 3b
       -0.13686462 0.06195334 -0.07272944 0.0074913506
0002e0 15 23 b8 bc 1d 5e 40 3d 2f 3b ea 3c 8f 95 02 bd
       -0.022477666 0.046964753 0.028592674 -0.03188091
0002f0 b5 6b a5 bd fa ad de 3c 24 9a 30 3d 09 af 84 3d
       -0.08077184 0.027182568 0.04311575 0.06478698
000300 89 f7 33 3d 54 95 15 3d 8c 74 5c bb 30 4b 3e 3d
       0.04393724 0.036519364 -0.0033638803 0.046458423
000310 d3 14 38 3c 76 fa 66 3c c2 7d 01 3c da e6 2f bd
       0.011235434 0.0140978005 0.007903518 -0.042944767
000320 b1 e4 b1 bc af 77 7b 3c 23 6d 79 bc 88 e7 a1 3c
       -0.021715494 0.015348359 -0.015223774 0.019763723
000330 5e 40 99 3c 3f eb f8 bc dd d6 b4 3c 96 69 9e bc
       0.01870745 -0.030385612 0.022075111 -0.019337457
000340 24 a1 64 3c 18 bc 15 3c 62 fc d9 bd 34 ad 87 bd
       0.013954435 0.009139083 -0.10643841 -0.06624833
000350 81 27 5a 3d e1 28 5b bd 48 b7 98 bc 9c 6b c2 3c
       0.05326033 -0.053505782 -0.018642083 0.023732953
000360 a6 ab 26 3d 9b d8 08 3d 39 15 d9 bc 47 bf 6c bb
       0.04069104 0.033409696 -0.026499378 -0.0036124752
000370 45 4b ac bd 1e ca b4 bc fb 6b c4 bb eb 9e 7b bc
       -0.08412794 -0.022069033 -0.0059943176 -0.015357713
000380 ac d5 45 bd 82 7c b3 3c 04 eb 1c be 6b 59 1b 3d
       -0.048299477 0.021909956 -0.15324026 0.037927072
000390 bb f7 86 bd e0 6f 2f 3d 3a ac 47 3d c1 c0 65 3d
       -0.065902196 0.0428313 0.048748232 0.056092028
0003a0 50 75 e5 bd ce 4e 09 bd a5 8a 7c 3d ef 81 fd bc
       -0.11204016 -0.03352242 0.06165566 -0.030945746
0003b0 98 ff 21 bb 8b 0f 56 3d 97 91 90 3d 01 15 c8 ba
       -0.0024718996 0.052260917 0.07059019 -0.0015265049
0003c0 8c 3f f0 3c 79 8f 60 3c 32 e5 28 bd 77 ae 02 bd
       0.029327177 0.013706082 -0.041234203 -0.031904664
0003d0 af 54 d3 3c a1 39 1d bb e0 f2 ce bd 2a 49 bd bc
       0.025797216 -0.0023990648 -0.101049185 -0.023106176
0003e0 9f 62 16 3d 86 c0 8e bd d9 58 81 3c 11 f7 ee 3c
       0.036715146 -0.06970315 0.015789436 0.029170545
0003f0 96 bb 08 bc ae e4 d1 3c 2f cd 00 bd e3 e3 56 bc
       -0.008345505 0.025621738 -0.03144568 -0.013115856

network_body._body_endoder.seq_layers.0.weight f4 [256, 690]
000000 1d 79 94 3b 3c 20 6a be fa 2c 15 bb 6f 58 4b bd
       0.0045310394 -0.22863859 -0.0022762404 -0.049644884
000010 fb cb 9f bd 2a 04 a5 3e b6 1a a3 be 61 5a f0 3d
       -0.07802578 0.3222974 -0.31856316 0.117359884
000020 11 80 1b bd f2 8e c8 bc 25 c6 01 3e 77 be b5 3d
       -0.03796393 -0.024482224 0.12673242 0.08874219
000030 8e 4c de 3d 6b 65 3e bc 61 92 59 bd 03 94 85 bd
       0.108544454 -0.01162086 -0.053118113 -0.065223716
000040 93 ac 09 3d 58 3e 46 3e 54 0f 1f bd 49 df 82 bd
       0.033611845 0.1935972 -0.038832977 -0.063902445
000050 6f 24 cb 3d 8e 96 fc bd ba ad 04 bd c4 b4 88 bd
       0.099190585 -0.123334035 -0.03239224 -0.06675103
000060 42 89 5a 3e 3d 0f 59 3d a3 e8 3b 3e fa 69 2e be
       0.21341422 0.052993048 0.18350463 -0.17032614
000070 da 75 27 bd 70 9d fe 3d bf f9 a8 3c 97 94 81 bd
       -0.040883876 0.124323726 0.0206269 -0.063271694
000080 4e 6f 1b be 96 01 ce 3d fd 1e 98 3d d9 12 eb 3d
       -0.15179178 0.10058896 0.074277855 0.11478204
000090 f1 03 0f be 8e 84 26 3c 08 b4 87 3c 2b 40 45 be
       -0.13966347 0.010163439 0.016565338 -0.1926276
0000a0 35 35 1e 3e 82 0f e3 3c 8f 4f 11 be 2e 2e 4f bd
       0.15449984 0.027717356 -0.14190505 -0.05058115
0000b0 2a af 5e 3d 60 08 e7 3d 8e 75 ac bd a8 6e a1 3d
       0.05436627 0.11280894 -0.08420859 0.07882434
0000c0 13 f2 f2 3d 2b 17 52 3c 4e 65 7e 3c 85 03 d4 bd
       0.11862578 0.0128229065 0.015527083 -0.10352234
0000d0 06 2a a7 bc 22 b4 65 bd 35 26 90 3d 67 f4 26 3e
       -0.02040578 -0.05607999 0.070385374 0.1630417
0000e0 f7 39 1b 3d b6 5e 81 3d 4a 0c eb bd bc bd 7c 3c
       0.037897076 0.06316893 -0.11476953 0.015426096
0000f0 4c c7 d1 bd c2 a6 1f be f4 02 b7 3c 60 28 81 3d
       -0.10243091 -0.15590957 0.022340275 0.06306529
000100 41 ca 1f bc cc 85 bb 3d 72 53 f3 bd 37 e4 bb 3a
       -0.009752811 0.09156379 -0.1188115 0.0014334981
000110 88 50 bd 3c ea 5d 02 be b0 7c 81 bd 27 58 b2 bd
       0.02310969 -0.12731138 -0.063226104 -0.0870822
000120 78 e4 16 3e af 5d 80 3d 3a 0c b0 bc ea b4 83 bd
       0.14735591 0.06267869 -0.021490205 -0.06430991
000130 08 71 ca 3d 2a 8d 7e 3c c0 9a e6 bd e7 ea ed bd
       0.0988484 0.015536586 -0.11259985 -0.1161707
000140 97 05 fc bc ad d1 37 3d f0 4a 31 3e 2e 9c ad bd
       -0.030764384 0.044877697 0.17313743 -0.084770545
000150 a3 91 b8 3d b6 f3 5c 3e 5b b6 0c 3d df b6 a0 3d
       0.09012153 0.21577343 0.034353595 0.0784738
000160 c7 a9 00 bd 37 42 22 bd 58 1c 05 be 33 af 32 3e
       -0.031411912 -0.03961393 -0.12999094 0.17449646
000170 ff 5c c9 bb 5b 6f 12 3e c8 d0 26 be f0 50 f0 3d
       -0.006145119 0.14300291 -0.16290581 0.117341876
000180 78 1b 7d 3e 5b e7 ce 3c f9 19 5a 3d 7d 37 7e bd
       0.2471751 0.025256803 0.053247426 -0.062064636
000190 47 fd c0 3d d2 45 03 be 77 6c 43 be 40 ce e8 3c
       0.09423309 -0.12819603 -0.19084345 0.02841866
0001a0 ec b0 71 bd ae 59 45 3e 09 14 aa bd 00 89 07 be
       -0.059006616 0.19272491 -0.08304603 -0.13235855
0001b0 20 c6 41 3d e1 74 c4 bc 8b 23 f4 3c 53 2c 14 be
       0.047308087 -0.023981513 0.029802104 -0.14470033
0001c0 ae be 25 be d9 a6 42 3d 1e 82 3c bc 4c d8 4d be
       -0.1618602 0.0475224 -0.011505632 -0.20102042
0001d0 85 d8 16 be 1c df 24 3e c3 ca e8 3d 17 b7 13 3c
       -0.14731033 0.16100734 0.11366799 0.00901582
0001e0 08 eb 33 3d ce 79 30 bd d3 13 84 3d ac 92 6b 3d
       0.043925315 -0.043084912 0.06449094 0.057512924
0001f0 d7 14 ab bc 7e 8b cf 3d ca b1 74 bd e9 4a 5b bc
       -0.02088396 0.10134028 -0.059739865 -0.013384559
000200 d7 ed 8e 3d 07 3c 1d bc 72 dc ec 3c b3 d3 63 be
       0.06978958 -0.009596831 0.02891371 -0.22248726
000210 41 b1 d4 bd 6e 32 34 3e b8 19 39 bd 8f b4 9d bd
       -0.10385371 0.17597362 -0.045190543 -0.077004544
000220 89 02 9d 3c 12 1d 80 3e 4d d5 ee 3d 10 9a 2c bd
       0.019166248 0.2502218 0.11661778 -0.042139113
000230 84 be b5 3c b1 90 71 3d 5b 4b 06 be 93 66 c8 bd
       0.022185571 0.05897588 -0.13114683 -0.097851895
000240 e3 6c 98 bd c9 4f 7a 3e a2 17 1f bd 16 e7 81 3e
       -0.074426435 0.24444498 -0.038840897 0.25371617
000250 91 c8 e5 3c 2e 71 ce bd a5 77 91 bd 08 cd a4 3d
       0.02804974 -0.10080181 -0.071028985 0.08046919
000260 00 5a 6f be 2c e4 39 3e dc af c0 bd a6 90 e4 3d
       -0.23374176 0.18153447 -0.094085425 0.11160402
000270 00 49 5a 3e 5b a3 3e 3e 47 8e 6c bd b0 3e 10 be
       0.2131691 0.18617003 -0.057752874 -0.14086413
000280 39 59 1b 3e aa 29 a1 be 28 ed 11 bd fc 01 9a 3d
       0.15170754 -0.314771 -0.03562656 0.0751991
000290 20 08 c5 bd e1 ab c4 bd 0c 71 8d 3c 28 4b 90 3d
       -0.0962069 -0.09603096 0.017265819 0.07045585
0002a0 10 1a 2a 3d b4 d2 2a bd ea 11 1d be 8f 4d 42 3d
       0.04152876 -0.04170485 -0.15338865 0.047437247
0002b0 10 66 8c be 62 b1 e4 bd 61 e1 05 bd 94 4a 49 3e
       -0.27421618 -0.111666456 -0.03268564 0.19657356
0002c0 c1 ba 7f bd 25 85 1e 3e ec 01 8c bd c6 49 93 3c
       -0.06243396 0.15480478 -0.06836304 0.017979514
0002d0 58 cf cd bc 52 d5 02 be f1 22 a9 3d 32 9e ad 3d
       -0.025123283 -0.12776688 0.08258618 0.08477439
0002e0 b9 36 07 3d 9e 88 4f bd d3 36 d5 3c 8b 43 3c 3c
       0.033011172 -0.050667398 0.026027119 0.011490713
0002f0 86 0d 16 bd bb 48 ac bd 81 dc 45 3d 0c 30 4e bd
       -0.03663399 -0.0841231 0.048305992 -0.05033879
000300 73 e4 d5 3d 94 bf 67 bd 8a 7f f6 bb 6e a2 12 be
       0.10443964 -0.056579188 -0.007522528 -0.14319775
000310 cf fb 39 3e a7 f0 ac 3d f7 a6 06 3d cd 54 e0 3c
       0.18162464 0.08444338 0.032874074 0.027384186
000320 64 42 0a 3d f5 d5 a7 bc 80 c1 e2 3c 80 ae 20 bc
       0.03375472 -0.020487765 0.027680159 -0.009807229
000330 a2 1c f9 3d 60 dc 4f be cf 80 8a bd 6e 1d a2 3e
       0.121636644 -0.2029891 -0.067628495 0.31663078
000340 e8 71 b4 3c 73 31 c1 ba eb 5a 2e bd 0c b6 53 bd
       0.022026971 -0.0014739468 -0.042567175 -0.051687285
000350 e5 11 7c bb 54 7e fd 3d 51 18 dd bd 57 2f 4d 3d
       -0.0038462814 0.12377611 -0.107956536 0.050093975
000360 77 03 30 3e bd ee b2 bc 71 a2 06 bd 54 e4 b0 bc
       0.17188822 -0.021842355 -0.03286976 -0.02159325
000370 4b a2 8c bd 1c 64 cf 3d aa 82 e9 3d e5 3e d0 bd
       -0.068668924 0.10126516 0.11401875 -0.10168246
000380 8f e8 e9 bc 77 22 3d 3e 33 5a 09 bd 5b 2b 8d 3e
       -0.028553275 0.18470179 -0.033533286 0.2757214
000390 4d e3 89 3c 89 cb 62 3d 2c 42 ca bd fd e2 9c 3d
       0.016832018 0.055369888 -0.098759025 0.07660482
0003a0 cc 1a 8e 3d 1a d9 61 3e 4c e0 85 be 97 5e fb 3d
       0.06938705 0.22055474 -0.26147687 0.12273901
0003b0 9d b2 9c 3d 69 dc 85 bd ab f8 42 3d 5f 9a b8 bc
       0.07651255 -0.065361805 0.04760043 -0.022534547
0003c0 b0 81 38 be 45 36 3d 3e fe d8 8f bd 7a 17 a5 3d
       -0.18018222 0.18477733 -0.0702381 0.080611184
0003d0 47 89 b7 3c 18 06 0a bd 5f 09 22 3c 47 4b 86 bd
       0.022404326 -0.033697218 0.00988993 -0.06557327
0003e0 0e f0 d4 3d 86 67 51 bc 48 8e 0b 3d 1e dc b7 3d
       0.10397349 -0.01278103 0.034071237 0.08977531
0003f0 fa 9c 41 be 9a cc 04 3d 52 c4 23 bd 7c b6 07 3d
       -0.18907538 0.032421686 -0.039982148 0.033133015

network_body._body_endoder.seq_layers.2.bias f4 [256]
000000 f0 65 45 bd 42 f7 96 bd 47 2c 10 bd 12 05 92 3d
       -0.04819292 -0.073713794 -0.035198476 0.07129873
000010 bb ef 53 bc 61 6e 03 be b0 1d 15 be 2a 4c 8e bd
       -0.012935574 -0.12835075 -0.14562106 -0.06948121
000020 6f fe 35 bd 47 e2 ec bc f1 07 aa 3d 92 73 62 bd
       -0.0444321 -0.028916491 0.08302296 -0.055285998
000030 14 55 8a bc 49 b2 7c bd 23 d8 99 bc 42 4b 70 bd
       -0.016886272 -0.061693463 -0.01877982 -0.05866552
000040 6f 69 e3 bc 09 57 2f 3d 1d 67 a7 3d ca b2 42 bd
       -0.027760236 0.042807613 0.08173964 -0.047533788
000050 d2 58 93 3d 23 f4 55 bd fa c7 8b 3c 98 ae 9c bd
       0.071946755 -0.05223478 0.01706313 -0.076504886
000060 1e 26 03 be e4 f0 62 3c bd 17 0c be aa b3 d1 bd
       -0.1280751 0.013851378 -0.1368093 -0.10239346
000070 ed 3d 4b be 7f f9 65 bd c1 97 64 bd 9c d5 2f bd
       -0.19847842 -0.05614614 -0.055808786 -0.042928323
000080 e4 4b ed bc e2 3e 8d 3b cb 11 ea bd c4 53 d8 bd
       -0.028966852 0.0043104747 -0.11429175 -0.10562852
000090 be 56 a9 3d 7d d5 01 bd c8 38 34 3d 3d d4 29 bd
       0.08268498 -0.03169774 0.043999463 -0.04146217
0000a0 c4 21 4e be 7d 7f 3a bd a1 e0 80 bc 67 7a aa bc
       -0.20130068 -0.04553174 -0.015732111 -0.02081032
0000b0 62 bb 95 bd 24 c3 81 bc 12 06 7c bd 43 f0 00 bd
       -0.07311131 -0.01584012 -0.061529227 -0.03147913
0000c0 69 d6 13 bd bb 7f b3 3c bf a4 55 bd f1 97 1b 3d
       -0.03609315 0.021911493 -0.052159067 0.0379867
0000d0 02 06 07 3d cd b9 2f bd 35 fe 93 bd 62 e1 8f bd
       0.032964714 -0.042901803 -0.072262205 -0.0702541
0000e0 63 f4 5e bd 6a 4e f8 bc 9e 8d 2f bc 4b c3 ab bd
       -0.054432284 -0.030310828 -0.0107149165 -0.083868586
0000f0 80 83 91 bd e5 f9 1d bd 17 f0 8f bc da 52 8c bd
       -0.0710516 -0.038568396 -0.017570538 -0.0685174
000100 68 8c 7f bb 78 52 92 bd 97 5e d1 3d 01 e6 a7 bd
       -0.00389936 -0.07144636 0.1022312 -0.08198167
000110 5e fc e6 bd 4b b3 1d 3d bd 1b 16 3d f5 55 96 bb
       -0.11278604 0.038501065 0.036647547 -0.0045878836
000120 b3 99 a1 bc b1 1c 2f bd 1e 1a be bd 81 6d 49 bd
       -0.01972661 -0.04275197 -0.09282325 -0.049176697
000130 60 1a 81 bd 5a 23 6e bc b1 d1 c0 bd 6a de 3b 3d
       -0.06303859 -0.014534796 -0.094149955 0.045866407
000140 69 f4 0b bd 0b f6 ad bd c0 b6 ef bd 38 04 80 3c
       -0.034168635 -0.084941946 -0.11704779 0.015627012
000150 3c ce 62 bd 0c 09 97 bd 72 53 0e be d7 00 c9 bd
       -0.05537246 -0.073747724 -0.1389902 -0.09814613
000160 d9 27 ac 3c be 30 b9 bd e3 f5 2f be 37 48 9b bd
       0.021015095 -0.090425 -0.17183642 -0.07582133
000170 f8 e8 92 bd 8e 81 27 bd ea 26 f4 3c 71 2f 01 bd
       -0.071733415 -0.040895037 0.029803712 -0.031539384
000180 57 2c 2b bc f6 4c c5 bd 4c 3b 05 3b b9 0b 9e 3c
       -0.010447583 -0.0963382 0.0020329533 0.0192927
000190 8e 3e 8c bd 4f 1c 9c bc 17 0f 1e bd 60 a3 0a bc
       -0.06847869 -0.019056467 -0.03858861 -0.008461803
0001a0 9b e5 16 bc 3f 9b 75 3d 10 f8 2f bc a7 ec 5e bd
       -0.009210016 0.059962507 -0.010740295 -0.054424908
0001b0 56 fe 7b 3c 4c b9 53 be a3 2c a0 bd 9a 21 d7 bc
       0.015380463 -0.20676154 -0.07821014 -0.02626114
0001c0 0f 5d 95 3c 6e 92 f4 bd 85 e4 94 bc 91 e5 bd ba
       0.01823285 -0.11941992 -0.018175373 -0.0014487972
0001d0 81 3c 27 bd 47 5b 47 3c 19 e8 9e bd 9e 85 be bc
       -0.040829185 0.012167758 -0.07759113 -0.023257073
0001e0 c8 32 69 bc b6 99 47 3c fc 79 b1 bd 92 5f 9e bd
       -0.014233299 0.012182644 -0.08665845 -0.07733072
0001f0 bc f1 68 bd 19 a0 b9 bd 64 77 b4 ba a9 48 67 bd
       -0.05687116 -0.09063739 -0.0013768491 -0.05646578
000200 bc d5 02 3d 7e 23 8a bd fc 97 2b be 1f b8 f2 bc
       0.031942114 -0.06745051 -0.16757196 -0.029628811
000210 21 f9 11 be bf 07 ef 3c d0 eb ec bd a9 2d 28 be
       -0.14255191 0.029178498 -0.11568415 -0.16423668
000220 d5 92 bb 3b a3 7b 75 bd 2c 70 73 bc 3c 99 f2 bd
       0.005724291 -0.059932362 -0.014858287 -0.118456334
000230 5d 93 8e 3c d8 7d 67 3b ab 2f 3c bd 49 e3 f0 3b
       0.017404253 0.0035322811 -0.045943897 0.0073513133
000240 61 b8 ad bd d5 34 b9 bd 86 2f b8 3c 26 57 5d 3c
       -0.08482433 -0.0904328 0.022483598 0.013509547
000250 34 07 0d bc 8f 17 29 3d 3d b5 af bd 2d bf c6 3b
       -0.008607674 0.041282233 -0.0857949 0.0060652704
000260 85 62 bc bd 2a b1 89 bd 8b 30 14 bd d1 63 10 bd
       -0.091984786 -0.067232445 -0.036179107 -0.035251442
000270 ac 6b e9 3c 57 9d 5b bd 86 07 b5 bd 99 1c 06 bd
       0.028493725 -0.053616848 -0.088393256 -0.032742117
000280 6a 5d ff bd 9d 02 37 bb 6c fe d1 bb e7 11 9e bd
       -0.12468989 -0.0027925142 -0.0064085033 -0.07718258
000290 0a 5d ff 3b 63 ed 8d bd b7 07 a4 bb af d5 58 bc
       0.0077930735 -0.069300435 -0.0050058025 -0.01323454
0002a0 ff aa 2b 3c 50 e8 79 bd 18 d5 2e bd 88 df 0a be
       0.01047778 -0.061012566 -0.04268369 -0.13561833
0002b0 ae 22 f7 bd 4b 13 27 3c 27 81 9b bd 9f e7 1f bd
       -0.120671615 0.010197471 -0.07592993 -0.03903925
0002c0 30 f4 ab bd 53 66 a7 bd 0a 8d 89 bd fb 9e 2a bd
       -0.083961844 -0.08173814 -0.06716354 -0.04165552
0002d0 c4 56 29 bd ac f1 a2 bd b2 da ab bd 61 09 9f bd
       -0.04134251 -0.079562515 -0.08391322 -0.07765461
0002e0 c5 75 85 bd eb c2 0d be 57 67 1a be 02 3a e8 bd
       -0.065166034 -0.13843887 -0.15078484 -0.11339189
0002f0 57 3b 41 bd 93 de 2f ba 4d df 0a bd ca 0b 95 3d
       -0.04717573 -0.00067088864 -0.033904362 0.07277639
000300 b7 a3 db bc b7 8a 75 bd 1f ea 48 bb f3 ad b2 bd
       -0.026811464 -0.059946742 -0.0030657125 -0.087245844
000310 e0 65 1c 3c d8 31 05 bd 96 0c 23 3c 17 0b 53 bd
       0.009545773 -0.032518238 0.009951731 -0.051524248
000320 f5 ed c2 bd f1 60 46 bb 7a f3 af bc 8b 8a 1c bd
       -0.09518043 -0.0030270184 -0.021478403 -0.038218062
000330 6c 75 b4 bc ee 63 c8 bd 69 dd c3 3d 52 a2 2d bd
       -0.022028647 -0.09784685 0.09563715 -0.04239113
000340 36 07 3f bd 2d 2f 12 3d 07 ad 2a bd 09 5b b9 3a
       -0.046637736 0.03568952 -0.041668918 0.001414151
000350 83 04 5f bd 0d bc 6e bd 63 7b 9d bc aa b8 60 bd
       -0.054447662 -0.058284808 -0.019223874 -0.05486361
000360 aa 3a 0f bd 3b 49 d9 bd f5 d8 6a 3d c9 a7 ba bd
       -0.034968056 -0.10609671 0.057335813 -0.09114034
000370 d1 48 21 bd dd fb 78 bc f7 70 f0 bd 7f 83 fc bd
       -0.039376084 -0.015196768 -0.11740296 -0.123297684
000380 92 ce 0f bd c3 5f 5d 3c ab ec 80 bc 7f 5e 9a bd
       -0.03510911 0.013511601 -0.015737852 -0.07537555
000390 ad ba 25 bd b1 9c 34 be d5 81 e1 bd 8d 7c 4a 3c
       -0.04046123 -0.17637898 -0.110110916 0.012358797
0003a0 f7 5e 5b bd 58 18 2b be 5c 98 c5 bc f4 00 dc bd
       -0.053557362 -0.16708505 -0.024120502 -0.10742369
0003b0 56 0f f5 bd 60 2b ac bd 2a 0c c5 bd 42 1b 58 bd
       -0.11965816 -0.084067106 -0.09621461 -0.05276037
0003c0 43 a4 f6 bc 23 22 f0 bd 15 35 f4 bd 77 cf 9c bd
       -0.030107623 -0.11725261 -0.11924187 -0.07656758
0003d0 ce 68 bd bd 24 34 86 bd f4 3f 49 bd 57 bb bb bc
       -0.092485055 -0.06552914 -0.049133256 -0.022916479
0003e0 e7 c8 30 3d 56 24 95 3b b1 53 46 bc 42 d2 2a 3d
       0.043160345 0.0045514507 -0.0121049145 0.041704424
0003f0 05 bb c2 3c 6d f2 cd bc 70 0c fe bd e6 62 75 bc
       0.023770818 -0.025140012 -0.12404716 -0.0149771925

network_body._body_endoder.seq_layers.2.weight f4 [256, 256]
000000 25 32 ac bc f3 b4 2a be ba 11 69 be 01 9e 6f 3c
       -0.021020005 -0.16670589 -0.22760668 0.014625073
000010 73 5c c8 bd 0a 8f db bd a5 03 7b 3d b5 ce 24 bd
       -0.09783258 -0.10720642 0.061282773 -0.040236194
000020 29 d3 d6 bd 49 ac 0f be 2b fc cf 3d cb 01 35 be
       -0.10489494 -0.14030565 0.10155519 -0.17676465
000030 b0 e4 b7 bd 29 6b 6d be 79 9a 3a be ed cd 99 3c
       -0.089791656 -0.2318541 -0.18222989 0.01877495
000040 0b d6 03 be 1c fe b4 3d a0 70 1b be 89 6f a8 bc
       -0.1287462 0.0883753 -0.15179682 -0.020560997
000050 aa 6d 0c 3e 00 65 04 bd a0 8b aa bd f2 1e ec bb
       0.13713709 -0.032322884 -0.083274126 -0.0072058374
000060 57 24 de bd 36 7a a1 3c 49 d0 06 3e 40 cf 30 be
       -0.10846775 0.019711595 0.13165392 -0.1726656
000070 45 9f 0f bd 1e 90 45 be f8 e3 c1 3c 89 c6 85 3a
       -0.035064 -0.19293258 0.023668274 0.0010206263
000080 ce f0 18 bd 8e cd 63 be e7 d5 fc 3c 1b 90 00 3e
       -0.037339024 -0.22246382 0.030863715 0.12554972
000090 c1 e6 80 3e 1c 71 15 be 72 a8 b0 3d b9 ce 8c 3e
       0.2517605 -0.14593929 0.086258784 0.27501467
0000a0 a0 01 26 3d cf 0d 60 bd e6 41 21 be d6 d9 b4 bd
       0.040528893 -0.05470067 -0.15747795 -0.088306114
0000b0 74 cc 8d bc ee 73 06 bd e7 74 39 bd 0b 8d 5c bd
       -0.017309405 -0.032825403 -0.045277502 -0.053845447
0000c0 6f ac 05 3e a6 4f a2 bd a1 fe cf bd 52 12 ae 3d
       0.1305406 -0.07925348 -0.101559885 0.08499588
0000d0 b9 c2 e4 3d 1f be 23 be 92 48 04 bd 70 8f 0a 3e
       0.11169953 -0.15990494 -0.03229577 0.1353128
0000e0 06 a9 49 bc 44 45 bd 3d 13 cc 01 be fa 1f 7f bd
       -0.012308365 0.09241727 -0.12675504 -0.062286355
0000f0 1a 02 0d be 70 92 a4 bc 05 31 2c 3e 70 18 6d 3d
       -0.13770333 -0.020089358 0.16815574 0.057884634
000100 d5 b0 4f be 10 e6 cc 3b 15 05 6d bd b4 4b 75 3c
       -0.202823 0.0062530115 -0.057866175 0.014971662
000110 90 58 d9 bd b8 70 17 bd 9b 53 a5 bd ef f0 66 be
       -0.10612595 -0.03697273 -0.08072587 -0.22552846
000120 c8 0f a3 3d a8 ac 93 bd af 71 50 bc ea 02 db bd
       0.079619944 -0.07210666 -0.012722417 -0.10693915
000130 dc 5e 90 3e eb ad 38 be 79 30 46 3e e0 04 d3 bd
       0.28197372 -0.18035094 0.19354428 -0.10303664
000140 f7 52 cd bc eb 94 0d be 4b cd 35 3e 8b e4 8a bc
       -0.025063975 -0.13826339 0.17754094 -0.01695468
000150 3f 8f 04 bc 38 b5 e9 bd c2 b4 98 3d a8 f4 93 3d
       -0.008090793 -0.11411518 0.07456352 0.07224399
000160 4d 73 b5 3c ca 94 7e bd a0 cc be bd e5 72 08 3e
       0.022149706 -0.062153615 -0.09316373 0.13325079
000170 c3 e3 45 3d 50 24 20 be 67 a9 38 be 9a 03 b4 3d
       0.048312914 -0.15638852 -0.18033372 0.087897494
000180 09 af 19 3e f7 b6 2d 3e 86 fa c4 3d 0c 26 9a be
       0.15008177 0.16964327 0.09618096 -0.30107152
000190 ce b7 81 be f2 dd 5f 3d 86 d7 83 bd 2c a8 af 3b
       -0.25335544 0.054655023 -0.06437592 0.005360624
0001a0 99 ef 7b 3e 6a 7e b0 bd 4e 3e 90 bd 29 76 cd 3c
       0.24603118 -0.086178616 -0.07043134 0.025080757
0001b0 b6 c4 ba 3c 35 78 8e bd 8f 17 77 bd 19 d9 87 3d
       0.022798877 -0.069565214 -0.0603252 0.06633205
0001c0 ee 0e 41 3e 2f a7 65 bd 3a fa dd bd 2a 3a f8 bc
       0.18853351 -0.05606764 -0.108387426 -0.030301172
0001d0 e5 79 00 3e 3b 61 98 bd a0 e6 c9 bd e7 56 09 be
       0.12546499 -0.0744042 -0.09858441 -0.13412057
0001e0 fb 7c 32 3e d7 8b e7 bd 91 d7 b5 3d 9e 94 3f 3d
       0.17430489 -0.11305969 0.08879007 0.04677259
0001f0 08 39 49 3d 94 dc 82 3d 62 93 09 3e 3a 8e 91 3d
       0.049126655 0.06389728 0.13435128 0.07107206
000200 62 46 4b be dd 14 2e be 87 f3 62 3c 91 e9 29 be
       -0.19851068 -0.17000146 0.013852007 -0.16593005
000210 22 16 a3 bd 8c be 9d bb 98 04 00 be d0 20 97 3c
       -0.07963206 -0.0048139747 -0.12501752 0.018448263
000220 fd cb 6d bd 58 8e 63 bd 07 0c 88 3d f4 d1 66 bc
       -0.058055867 -0.05555567 0.06642919 -0.014088143
000230 68 ca e3 bd ae 89 c6 bd 03 72 e5 bb 12 25 0c 3e
       -0.1112259 -0.09694229 -0.0070021166 0.13686016
000240 d0 9b a8 bc 7a 5d 07 be ea e4 1f bb f6 dc c0 be
       -0.02058211 -0.13219252 -0.0024397918 -0.3766858
000250 2c 1d a8 3d 52 2a c4 3c 44 93 ec 3c 14 15 46 be
       0.08208689 0.023945961 0.028878815 -0.19343978
000260 22 05 8e 3d 6f 01 20 be 62 26 f6 3c 33 4b 7c be
       0.06934573 -0.15625547 0.0300476 -0.24638061
000270 11 32 3f 3e f5 00 14 3c 02 5b c3 bd a9 e4 d1 bd
       0.18671443 0.009033431 -0.09538843 -0.102486916
000280 02 39 35 3e 04 6a 20 3d 2a 20 19 3d ec 77 44 be
       0.17697528 0.039163604 0.03738419 -0.19186372
000290 08 fb d2 bd 74 06 b9 bd 96 b0 a5 bd 74 82 9b bc
       -0.10301787 -0.09034434 -0.08090322 -0.018983103
0002a0 24 03 c4 3d 80 9b b4 3d a0 85 6c 3d 38 57 2a 3c
       0.095709115 0.08818722 0.057744622 0.010396771
0002b0 d9 e9 53 3d eb dd 1f 3e 91 a1 f8 39 74 c2 7d 3d
       0.051736686 0.15611999 0.00047422622 0.061953023
0002c0 fe fb 1e 3e c6 be 1c bd 3e 5e 6b 3e b8 e0 87 be
       0.15525815 -0.038267873 0.2298517 -0.26538634
0002d0 74 6f 24 3d 9b 04 10 bd 25 ce d9 bc c1 4f 68 be
       0.040145352 -0.035160642 -0.026587555 -0.22686674
0002e0 30 95 9e bd c8 0a 5c be ef 97 e5 3b 35 10 e5 3d
       -0.07743299 -0.21488488 0.0070066373 0.11184732
0002f0 96 55 6f 3e 77 1e d1 3c 0f aa 8d be 51 1a 55 be
       0.23372492 0.025527222 -0.27668807 -0.2081082
000300 9c be 20 3e 21 7d 03 bd f3 05 47 3e 7c bc 86 bd
       0.15697712 -0.032101754 0.19435863 -0.06578919
000310 a2 54 54 be 74 fe 0d bd 0e 1c df 3b 9e aa 05 3e
       -0.2073541 -0.034666494 0.0068087643 0.13053367
000320 9f 64 c5 bc 89 9b e5 bd 2d c0 dc bd 15 5e a4 be
       -0.024095831 -0.112113066 -0.10778842 -0.3210303
000330 d9 e5 02 be cb 86 e7 bb 28 ec 38 bd e1 64 35 3e
       -0.12782992 -0.007065629 -0.04514709 0.17714263
000340 61 72 ce 3d 92 11 ee bc 18 3d bf 3d 23 ea 16 bd
       0.1008041 -0.029061113 0.093378246 -0.036844384
000350 a5 59 a8 3c d0 b7 0b be ce e7 2d be 8a 3b c3 3d
       0.020550558 -0.13644338 -0.16982958 0.095328405
000360 d1 da 02 be d5 dd 33 be bd de 21 3e 7a a0 b1 3d
       -0.12778784 -0.17565091 0.15807624 0.086731866
000370 c7 c3 46 be 93 8f 96 be c3 ca 57 3c 3e 21 0b be
       -0.1941062 -0.29406413 0.013170901 -0.135869
000380 18 8d 58 bd cd d8 8b be 05 3c 48 3e 7b b1 e7 bd
       -0.052868932 -0.27313843 0.19554146 -0.113131486
000390 25 6a 94 3e 46 11 e5 be 17 f4 8c bd 98 46 c0 3b
       0.28987232 -0.4473974 -0.06882494 0.0058677904
0003a0 c0 9c 9e 3c 2a 73 55 3c 2c 54 80 3a 53 69 d3 3d
       0.019361854 0.0130279455 0.000979071 0.103228234
0003b0 56 92 6b bd a4 67 8a bd dd 31 3b 3d ba f2 48 be
       -0.057512604 -0.06758049 0.04570185 -0.19623843
0003c0 92 9a 72 be 11 d4 b9 bc 7d 47 b1 3c 9d 11 cb bc
       -0.23691776 -0.022684129 0.021640534 -0.024788672
0003d0 18 22 13 3c e6 57 de bc d0 c6 9b 3e 33 e0 5c bd
       0.008980297 -0.027141523 0.3042512 -0.05392475
0003e0 fc b2 82 3d fd f8 80 3c 58 30 2d be 68 52 a6 3b
       0.06381795 0.015743727 -0.16912973 0.0050757416
0003f0 c4 f4 f9 3d 89 70 2c be 24 9b 01 3e ab 0d 66 3e
       0.122048885 -0.16839804 0.12656838 0.22466151
