Assets/TFModels/Other models trained in the process/Striker3.onnx (onnx, 981831 bytes, 9 tensors)

action_model._discrete_distribution.branches.0.bias f4 [5]
0	0x3c79288e	0.015207423
1	0x3d368391	0.044559065
2	0x3cdcde1f	0.026961384
3	0xbd7016db	-0.058615547
4	0xbc1dc621	-0.009629757

action_model._discrete_distribution.branches.0.weight f4 [5, 256]
0	0xbd2fc46c	-0.042911932
1	0xbd92168f	-0.07133209
2	0xbd191af7	-0.03737923
3	0xbcd68353	-0.026185667
4	0x3d2f821b	0.042848688
5	0xbded16ce	-0.11576615
6	0xbd0ddd96	-0.03463515
7	0x3ddd6135	0.108095564
8	0xbdf8c1d8	-0.12146348
9	0xbe2627ca	-0.16226116
10	0x3c9f802c	0.019470297
11	0x3dac68ed	0.084184505
12	0x3d0d4ed2	0.034498997
13	0x3d8861cf	0.066592805
14	0x3a32ef6e	0.0006825839
15	0x3c24fc25	0.010069882
16	0x3c888644	0.016665585
17	0xbd1e5f9d	-0.038665403
18	0x3d8704c4	0.06592706
19	0xbcc67bd8	-0.024228975
20	0x3bae00cf	0.005310155
21	0xbdfe0ffc	-0.124053925
22	0xbe13f939	-0.1445054
23	0xbd5ede24	-0.05441107
24	0x3dfc1459	0.123085685
25	0x3d2d8992	0.042367525
26	0xbbc55273	-0.0060217916
27	0x3d9677dd	0.07347081
28	0xbe0f8deb	-0.14018981
29	0xbc3ddca3	-0.011588248
30	0xbc9758e6	-0.018475007
31	0xbe7176d5	-0.23580487
32	0xbb908313	-0.0044101565
33	0x3d792edd	0.060835708
34	0x3d0afd7c	0.033933148
35	0xbdd4bde5	-0.10387782
36	0x3d92a73f	0.07160806
37	0x3d8edba4	0.06975487
38	0xbdb22777	-0.086989336
39	0x3d11cca1	0.03559554
40	0xbc4dc146	-0.012558287
41	0xbe27a01a	-0.16369668
42	0x3a6a5aee	0.0008939941
43	0xbda965d5	-0.08271376
44	0x3cab92de	0.020944055
45	0x3ccefde0	0.025267541
46	0x3dee3f1b	0.1163313
47	0x3e07374c	0.13204688
48	0x3e2ecc06	0.17070016
49	0x3e093712	0.13399914
50	0xbd79abed	-0.060954977
51	0xbd94f4b0	-0.07273233
52	0xbd5ba0e6	-0.05362024
53	0xbd634f66	-0.055495642
54	0x3c85f0ea	0.016350228
55	0x3e35b42a	0.17744508
56	0x3cb39094	0.021919526
57	0xbcdae589	-0.026720779
58	0xbd85219b	-0.0650055
59	0xbd89e09b	-0.06732293
60	0xbdc21324	-0.09476307
61	0x3de56be5	0.1120222
62	0x3d34306e	0.0439915
63	0x3c8e5f96	0.017379563
64	0xbd908cfd	-0.070581414
65	0x3c173eda	0.009231294
66	0xbde20087	-0.11035257
67	0xbe08a6d9	-0.13344897
68	0x3d08d086	0.03340199
69	0xbca0a0c8	-0.019607916
70	0xbd4a1fa5	-0.049346585
71	0xbdfe8f0a	-0.12429626
72	0x3bb738b5	0.005591477
73	0xbc4dd785	-0.012563591
74	0x3dbc0627	0.09180861
75	0x3cbc0178	0.02294992
76	0x3d81680b	0.06318673
77	0xbe00cb8f	-0.12577651
78	0x3da638e1	0.081163175
79	0xbb51d2c9	-0.0032016507
80	0xbcc5db7b	-0.024152508
81	0xbd8b0d47	-0.06789642
82	0xbd7c4643	-0.061590444
83	0x3db7e80c	0.08979806
84	0x3d31546c	0.0432934
85	0xbd5bb4be	-0.053639166
86	0xbdb943e0	-0.09046149
87	0xbe2e1acf	-0.17002414
88	0x3e49b56f	0.19698118
89	0xbbd58f52	-0.0065173293
90	0xbd0563b1	-0.032565776
91	0x3d664fc7	0.056228425
92	0xbcb4d642	-0.022074822
93	0x3cfcb66d	0.030848706
94	0xbdfc9633	-0.12333336
95	0x3cc6b350	0.024255425
96	0x3cc1fcdd	0.023680145
97	0xbc80ecee	-0.015737977
98	0x3d4cbd22	0.04998506
99	0xbda25a80	-0.07927418
100	0xbd5aa4b8	-0.053379744
101	0x3d15a248	0.036531717
102	0xbc8a2a73	-0.016865944
103	0xbdc07200	-0.09396744
104	0xbd423d33	-0.047421645
105	0x3cc25b1c	0.023725085
106	0xbd168875	-0.03675123
107	0xbc11d653	-0.0089011965
108	0x3c1dd9ba	0.00963443
109	0x3ada3c3e	0.0016650034
110	0xbc47bf33	-0.012191582
111	0xbcdeb150	-0.027184159
112	0x3bd922bf	0.0066264565
113	0x3ca64271	0.020295354
114	0xbe13bf1c	-0.14428371
115	0xbcd029bf	-0.025410531
116	0xbe6e850c	-0.23292941
117	0xbc3ba998	-0.0114540085
118	0x3d41fea3	0.04736198
119	0xbbc420d7	-0.00598536
120	0x3d1f61d0	0.03891164
121	0x3cebee15	0.02880005
122	0x3bc02f87	0.0058650407
123	0xbcf9efa3	-0.030509776
124	0xbda8e808	-0.082473814
125	0x3c8e49c6	0.017369162
126	0x3e2f9806	0.17147836
127	0xbd91b9a1	-0.07115484
128	0xbe44c75c	-0.19216675
129	0x3cd33982	0.025784258
130	0xbb8b0019	-0.004241955
131	0xbc87af14	-0.016562976
132	0xbca9770b	-0.020686647
133	0xbe008d9d	-0.12554021
134	0xbdc46416	-0.095894024
135	0xbc577f0f	-0.013152852
136	0x3cd13f2f	0.025542824
137	0x3d5c6ec4	0.05381657
138	0xbe2a996f	-0.16660093
139	0x3d4eeaad	0.050516773
140	0x3df248b2	0.11830272
141	0xbd4ed9be	-0.050500624
142	0xbd3532fd	-0.04423808
143	0x3c426643	0.011865201
144	0xbcf97dd6	-0.030455511
145	0x3e0d8e6d	0.13823862
146	0xbd052da8	-0.032514244
147	0x3df0d6cc	0.11759719
148	0xbc39e3cd	-0.011345816
149	0x3d5eaf0f	0.054366168
150	0x3cf7098b	0.030155918
151	0x3c0def63	0.008663031
152	0xbda6abcc	-0.081382364
153	0x3deae509	0.11469466
154	0x3d9515e7	0.07279568
155	0x3dd885c3	0.10572388
156	0x3e1abfca	0.15112224
157	0xbde56d85	-0.1120253
158	0xbe3a2f95	-0.18182214
159	0xbbda42b8	-0.0066607855
160	0x3db4b5f9	0.08823771
161	0x3d99bb1b	0.07506391
162	0xbdd4aae1	-0.10384155
163	0x3d7b17be	0.06130194
164	0xbded7b8e	-0.11595832
165	0x3dbb9fcd	0.09161339
166	0x3d6955d0	0.056966603
167	0xbe1e3a0b	-0.15451829
168	0xbd4377c0	-0.047721624
169	0xbe03a332	-0.12855223
170	0xbdf577cb	-0.11985739
171	0x3c93efd3	0.018058693
172	0x3d28025c	0.041017875
173	0x3e192b50	0.14957929
174	0xbe239639	-0.15975274
175	0xbd55f8c3	-0.05223919
176	0x3e83aeca	0.2571929
177	0xbd673dbf	-0.05645537
178	0x3ba17133	0.0049268245
179	0xbce6a94d	-0.0281569
180	0x3dd66525	0.104685105
181	0xbe21ca75	-0.15799887
182	0x3c992cb8	0.018698081
183	0xbe41a021	-0.1890874
184	0xbd651853	-0.0559314
185	0x3d90b47d	0.070656754
186	0x3d595700	0.053061485
187	0xbd8abdbc	-0.0677447
188	0x3e030351	0.12794234
189	0xbe62352b	-0.22090594
190	0x3cce12aa	0.025155384
191	0xbd812def	-0.06307589
192	0xbe1074f0	-0.14107108
193	0x3e0263df	0.1273341
194	0x3c2eff85	0.010681038
195	0x3d059b86	0.03261902
196	0xbe0224f4	-0.12709409
197	0x3d9bab17	0.07600992
198	0x3e0258b8	0.12729156
199	0xbc7d5387	-0.015461809
200	0xbb8989f4	-0.0041973535
201	0x3d533233	0.051561546
202	0x3c91a583	0.017779117
203	0xbe3343da	-0.17506352
204	0x3da70b7f	0.081564896
205	0xbdaecb5f	-0.08534884
206	0xbcfd7ad2	-0.030942354
207	0x3cfb9fb0	0.030715793
208	0xbc1975b3	-0.009366441
209	0xbcd2d052	-0.0257341
210	0xbd8c87b0	-0.06861818
211	0x3e4c6d64	0.19963604
212	0x3d599f7e	0.05313062
213	0xbe14e12e	-0.14539024
214	0xbd7d4439	-0.06183264
215	0xbbbc836a	-0.0057529705
216	0x3855b353	5.0950166e-05
217	0x3d8df35d	0.069311835
218	0x3dc8945c	0.09793922
219	0x3d8d27ef	0.06892382
220	0xbde938d9	-0.11387796
221	0xbb3f618b	-0.0029202427
222	0xbe6ad281	-0.22931863
223	0xbe1f4538	-0.15553749
224	0x3d7ee885	0.062233467
225	0x3ce62774	0.028094985
226	0xbe179645	-0.14803417
227	0xbe1a5856	-0.1507276
228	0x3b19fd1f	0.002349682
229	0xbd4fbb7d	-0.050715912
230	0x3c560889	0.013063558
231	0xbde1eb9b	-0.11031266
232	0xbc26565d	-0.010152427
233	0xbd250f19	-0.0402976
234	0x3cb74871	0.02237341
235	0xbd54f837	-0.05199453
236	0x3d993b16	0.07481973
237	0x3cd6383a	0.026149858
238	0x3de5bfbb	0.1121821
239	0xbe1c4277	-0.1525973
240	0x3c2806c3	0.010255518
241	0x3db7d97b	0.08977028
242	0xbe21a581	-0.15785791
243	0xbdc13cec	-0.09435448
244	0x3dc0e4bd	0.09418628
245	0x3dc1e63f	0.09467744
246	0x3d0dbd10	0.034604132
247	0x3cae98fd	0.021313185
248	0xbbf8fe59	-0.00759868
249	0x3cac2744	0.021014817
250	0xbd1ac2f1	-0.037783567
251	0xbdfb5caa	-0.12273534
252	0x3d3a8aa1	0.045542363
253	0xbe306b27	-0.17228375
254	0x3d065982	0.032800205
255	0x3e3bdac9	0.18345179

action_model._discrete_distribution.branches.1.bias f4 [3]
0	0x3c12dabc	0.008963283
1	0xbc283fdd	-0.010269132
2	0x3b486e4e	0.0030583325

action_model._discrete_distribution.branches.1.weight f4 [3, 256]
0	0x3dd20553	0.10254922
1	0xbd32acc1	-0.043621782
2	0x3d6d8450	0.05798751
3	0x3d90682d	0.0705112
4	0xbd6ed1eb	-0.058305662
5	0xbe475a67	-0.1946808
6	0x3e1fb0df	0.15594815
7	0x3e1eae81	0.15496255
8	0xbd9a2420	-0.075264215
9	0x3d88da5a	0.06682272
10	0xbe391d62	-0.18077615
11	0xbd92f674	-0.071759135
12	0xbe50b4e3	-0.20381503
13	0xbe0a7a60	-0.13523245
14	0x3b9e9d7d	0.0048405514
15	0xbdd2584c	-0.102707475
16	0xbda4cdc6	-0.08047061
17	0xbe59488c	-0.2121908
18	0xbdfd1177	-0.12356847
19	0x3d582327	0.0527679
20	0x3c9ba934	0.01900158
21	0x3cce1a72	0.025159094
22	0x3e0354ec	0.12825364
23	0xbdba415d	-0.09094498
24	0xbe4da2cc	-0.20081633
25	0xbe1394b4	-0.14412194
26	0xbcc39b8a	-0.023877878
27	0xbe461835	-0.19345172
28	0x3d6b3579	0.057424042
29	0x3e2b10d8	0.16705644
30	0xbcaaafae	-0.020835724
31	0xbce9cd4f	-0.028540282
32	0x3e20ba68	0.15696108
33	0xbe16d712	-0.1473048
34	0xbdafb974	-0.08580294
35	0xbd88a575	-0.066721834
36	0x3e21d653	0.15804414
37	0xbd362a4d	-0.044473935
38	0x3e1508d0	0.14554143
39	0xbe427c7a	-0.18992797
40	0xbdbc4ea3	-0.09194686
41	0xbd29de57	-0.041471805
42	0xbd856617	-0.06513613
43	0xbd29aa50	-0.04142219
44	0xbda533aa	-0.08066495
45	0x3d3fa683	0.046789657
46	0xbd5f65f0	-0.054540575
47	0x3d5dacc8	0.054119855
48	0xbba74edd	-0.005105837
49	0xb93d217b	-0.00018036917
50	0x3e76580b	0.24057023
51	0xbcb5102b	-0.022102436
52	0xbe814a33	-0.25251922
53	0xbdc43081	-0.09579564
54	0xbd74266b	-0.05960695
55	0x3dc4b3c8	0.09604603
56	0x3c88935a	0.016671825
57	0x3e004c2e	0.1252906
58	0xbe255de9	-0.16149105
59	0x3d9519c4	0.07280305
60	0x3d285b2e	0.04110258
61	0x3db0bf16	0.08630197
62	0x3d4765dd	0.04868113
63	0x3e338e5c	0.17534775
64	0x3e0caf14	0.13738662
65	0x3df397b7	0.11894172
66	0x3d505bc4	0.050868765
67	0x3d2b5da8	0.041837364
68	0xbe0141b2	-0.12622717
69	0xbc027535	-0.007962515
70	0xbdbd0b5d	-0.09230683
71	0x3e1ae5bd	0.151267
72	0x3e059285	0.13044174
73	0xbdc32528	-0.09528571
74	0x3e08d04f	0.13360713
75	0x3dd34140	0.1031518
76	0xbd49af4f	-0.049239453
77	0x3d9824b4	0.074288756
78	0x3dcb9162	0.09939839
79	0x3daf6e25	0.0856593
80	0xbdf8b95f	-0.12144732
81	0xbcb868bf	-0.022510884
82	0x3d469499	0.048481558
83	0x3d0864dd	0.033299316
84	0xbdb4bcf2	-0.08825101
85	0x3d6f1287	0.05836728
86	0xbd0501fb	-0.03247259
87	0x3c1f824e	0.009735657
88	0x3bdb2c25	0.006688612
89	0xbd19a950	-0.037514985
90	0x3d9839cd	0.074328996
91	0xbd859faf	-0.06524598
92	0xbc8def2c	-0.01732596
93	0xbdd6333e	-0.104589924
94	0x3e081caf	0.13292192
95	0x3e04aaf3	0.12955837
96	0x3e03a0bc	0.12854284
97	0xbb08d61d	-0.0020879575
98	0xbd26fa7a	-0.040766217
99	0x3ddcb6d5	0.1077706
100	0x3ca3b297	0.01998262
101	0xbcc676e9	-0.024226623
102	0x3c06ae89	0.008220323
103	0xbc9204f9	-0.017824637
104	0xbc8acfcf	-0.016944794
105	0xbca8a49e	-0.020586308
106	0x3d40a9da	0.047036983
107	0x3e43d0e1	0.1912265
108	0xbcbe1675	-0.023204068
109	0x3d2d5245	0.042314786
110	0xbde79c20	-0.11309075
111	0xbe419057	-0.18902718
112	0xbe49fbf4	-0.19725019
113	0xbc733082	-0.014843108
114	0xbc94a8d5	-0.018146912
115	0x3cd3ee2d	0.025870407
116	0x3d883bc4	0.066520244
117	0xbdf1fe49	-0.11816079
118	0xbdb57733	-0.08860626
119	0x3d0a3637	0.03374311
120	0x3d5827b8	0.052772254
121	0xbd98064e	-0.074230775
122	0x3dd71ccc	0.105035394
123	0xbdb7f182	-0.08981611
124	0x3d64c5f1	0.055852834
125	0xbd7a0397	-0.06103858
126	0xba560e59	-0.000816559
127	0xbd774436	-0.060367785
128	0x3cabc7f2	0.020969365
129	0xbd2406d1	-0.040045563
130	0xbddde7fb	-0.108352624
131	0x3c9c22a5	0.019059489
132	0xbd9a4a56	-0.0753371
133	0xbd43648a	-0.047703303
134	0xbe021ff6	-0.12707505
135	0xbe5c7388	-0.21528447
136	0x3c8f21cf	0.017472176
137	0xbd2baea5	-0.0419146
138	0x3dd57028	0.10421783
139	0x3ca6d96a	0.020367343
140	0xbd90e038	-0.07074016
141	0xbd344a5d	-0.04401623
142	0xbd710423	-0.058841836
143	0x3da8bb3b	0.082388364
144	0xbdd813f0	-0.10550678
145	0xbd69b4af	-0.05705708
146	0x3de8ba78	0.11363691
147	0x3dc021b6	0.0938143
148	0xbe48b53e	-0.19600388
149	0x3c4c0660	0.012452692
150	0xbe28eb88	-0.16496098
151	0xbcb804b3	-0.022463178
152	0x3d72665e	0.059179656
153	0xbd843899	-0.06456108
154	0x3e176751	0.14785506
155	0x3df5c73b	0.12000891
156	0x3d8369c0	0.064166546
157	0x3cbe8523	0.023256844
158	0x3d851f55	0.06500117
159	0x3e0304db	0.12794821
160	0xbd754e87	-0.059889343
161	0x3d143448	0.03618267
162	0x3cd8985b	0.026439836
163	0xbe0bc8dd	-0.13650842
164	0xbd1b4a83	-0.037912857
165	0xbe4c443e	-0.19947907
166	0xbd578fbc	-0.05262731
167	0x3d77ce94	0.060499743
168	0x3dae5a29	0.085132904
169	0x3e10d6f0	0.14144492
170	0xbe125e91	-0.14293887
171	0xbdfd0633	-0.12354698
172	0xbe3ca265	-0.18421324
173	0xbe1315ac	-0.14363736
174	0x3da47c2b	0.08031496
175	0xbdcd177d	-0.10014246
176	0x3d0d13c0	0.034442663
177	0xbe07c15a	-0.13257352
178	0x3dba0f6e	0.09084974
179	0xbe03990b	-0.1285135
180	0x3e2264c3	0.1585875
181	0x3d1c1f9d	0.038116086
182	0xbd690d5b	-0.056897502
183	0x3d7e08e5	0.0620202
184	0xbd1dc76a	-0.038520254
185	0x3c68bcb9	0.014205151
186	0x3df7671c	0.120802134
187	0x3dd8f5a0	0.10593724
188	0xbbca96a0	-0.0061825067
189	0xbdd5fcdb	-0.10448619
190	0x3e1a4ef8	0.15069187
191	0x3d33caff	0.043894764
192	0xbe2db8df	-0.16965054
193	0xbd1d00b4	-0.03833075
194	0x3ddd6164	0.108095914
195	0x3d31225e	0.043245666
196	0x3c43d81a	0.011953378
197	0x3dcf44ff	0.10120582
198	0x3cdc8550	0.026919037
199	0xbde669f7	-0.1125068
200	0xbd0608c3	-0.0327232
201	0xbda6592e	-0.081224784
202	0x3dcc1917	0.09965723
203	0x3de9a68e	0.11408721
204	0xbcfb4095	-0.030670444
205	0xbd05000c	-0.032470748
206	0xbced0968	-0.02893515
207	0xbd5e701e	-0.054306142
208	0xbd219bf8	-0.039455384
209	0x3d53a592	0.051671572
210	0x3d2966cf	0.04135781
211	0x3d247058	0.0401462
212	0x3e0c42ec	0.13697404
213	0x3d722315	0.059115488
214	0xbde40616	-0.11133973
215	0x3e2584b4	0.16163903
216	0x3d8a3adc	0.06749508
217	0xbc54337f	-0.012951731
218	0x3ccc3714	0.024928607
219	0xbc1d38ac	-0.009596031
220	0x3d146909	0.03623298
221	0x3d317550	0.04332477
222	0x3d3496ac	0.044089004
223	0x3d99e380	0.07514095
224	0xbb516c5f	-0.0031955463
225	0xbdda2465	-0.10651473
226	0xbcb61649	-0.022227423
227	0x3d92a122	0.0715964
228	0x3df7bd15	0.120966114
229	0xbe1ef835	-0.15524371
230	0x3b7a8cea	0.0038230964
231	0xbddacbbc	-0.106833905
232	0xbd50a969	-0.050942812
233	0x3cab3a1f	0.020901738
234	0x3d200882	0.039070614
235	0x3cc66822	0.024219576
236	0xbdad32f7	-0.084569864
237	0xbdd920ac	-0.10601935
238	0x3d388437	0.045047965
239	0xbd99c881	-0.07508946
240	0x3c816758	0.015796348
241	0xbccae1e2	-0.024765912
242	0x3b510bbe	0.0031897868
243	0x3dc65a5a	0.09685202
244	0xbe0aa7d8	-0.1354059
245	0x3dbcb89b	0.09214898
246	0xbdc18bd6	-0.094505
247	0x3dcff28b	0.10153683
248	0xbe026757	-0.12734734
249	0x3dbea2ed	0.093084194
250	0xbceadd6f	-0.02867004
251	0x3e1c678e	0.15273878
252	0x3e30ab44	0.17252833
253	0x3bcdc55e	0.0062796315
254	0x3cae566b	0.021281442
255	0xbb3685c9	-0.0027850738

discrete_action_output_shape f4 [1, 2]
0	0x40a00000	5.0
1	0x40400000	3.0

network_body._body_endoder.seq_layers.0.bias f4 [256]
0	0xbd1bc3af	-0.038028415
1	0x3c8dc6fd	0.0173068
2	0xbd2de180	-0.04245138
3	0x3baf1511	0.0053430875
4	0xbd3d95c7	-0.046285417
5	0x3c8d8493	0.01727513
6	0xbc91d0c7	-0.017799748
7	0x3d38b6ad	0.04509609
8	0x3d129f69	0.035796557
9	0x3d2fc1fe	0.042909615
10	0x3d433d0f	0.047665652
11	0xbc3105e1	-0.010804624
12	0xb683cb50	-3.927773e-06
13	0x3cd0d24d	0.025490904
14	0x3d7e3cf6	0.062069856
15	0x3ccb616a	0.024826724
16	0xbcbdf78d	-0.02318933
17	0x3c794d4b	0.015216182
18	0x3d89ff04	0.067380935
19	0xbbf77cfc	-0.007552741
20	0xbbbe6fbc	-0.0058116596
21	0xbd0d528a	-0.034502544
22	0x3c7bfee1	0.015380592
23	0xbd0255d5	-0.031820137
24	0x3d38c4c1	0.045109514
25	0xbb2dbfcc	-0.0026512025
26	0xbc868741	-0.016421916
27	0x3d7901bb	0.060792666
28	0xbc59be75	-0.013290037
29	0x3c023a0c	0.00794841
30	0xbcd6c339	-0.026216136
31	0x3c8e9519	0.01740508
32	0x38786640	5.9223035e-05
33	0xbd244b4f	-0.040110882
34	0xbcb61e9f	-0.022231398
35	0x3c89ee54	0.016837277
36	0x3ca8bfa7	0.0205992
37	0xbd136fe6	-0.035995387
38	0x3cf45194	0.029824056
39	0x3d2b3a63	0.04180373
40	0xbd65f794	-0.056144312
41	0x3d62a777	0.05533549
42	0xbbd97ebc	-0.0066374224
43	0xbcf0762c	-0.029353224
44	0xbd3da65c	-0.04630123
45	0x3cc4a719	0.02400546
46	0x3da76e9f	0.08175396
47	0xbcb806d5	-0.022464195
48	0xbd03c5e9	-0.032171164
49	0xbcdd9c53	-0.02705208
50	0x3ccbca26	0.024876665
51	0x3d62ffac	0.05541961
52	0x3d6ce2d0	0.057833493
53	0xbd49dde1	-0.049283866
54	0xbd03f4ce	-0.032215886
55	0x3cd5c21d	0.026093537
56	0xbb8d5434	-0.0043130163
57	0x3ce68d2d	0.02814349
58	0xbcca0fba	-0.024665702
59	0x3c9a9350	0.018869072
60	0x3d193d56	0.03741201
61	0xbd059961	-0.032616977
62	0x3afb110e	0.0019154863
63	0xbce229fc	-0.02760791
64	0xbca1d63f	-0.01975548
65	0x3d80c099	0.06286735
66	0x3dc09e01	0.09405137
67	0x3dc4d462	0.09610821
68	0xbbb5209b	-0.0055275685
69	0x3d525cb4	0.05135794
70	0x3cc2b92d	0.02376994
71	0x3d075ab6	0.033045493
72	0x3c87a604	0.016558655
73	0x3b18415b	0.0023232314
74	0xbccf575c	-0.02531021
75	0xbd00223d	-0.031282652
76	0xbdab2cc4	-0.08358148
77	0x3c7146ad	0.014726323
78	0x3be0b609	0.006857638
79	0x385ff799	5.3397936e-05
80	0x3c76676e	0.015039308
81	0xbbdfe510	-0.0068327263
82	0xbd2ba5d5	-0.041906197
83	0xbc220d9f	-0.009890943
84	0x3ce91bc3	0.02845562
85	0x3dab0e11	0.08352292
86	0x3d1800b6	0.037110053
87	0x3bdd56a2	0.006754712
88	0xbce0f4d3	-0.027460491
89	0x3cf58a8b	0.029973289
90	0xbc9e9775	-0.01935933
91	0xbc4092b2	-0.011753725
92	0x3df323fb	0.11872097
93	0x3d5d6ba0	0.054057717
94	0xbc3e9c94	-0.011634011
95	0x3d2d34e8	0.042286783
96	0xbc998a3f	-0.018742679
97	0xbcb116ec	-0.021617375
98	0x3cdb8f7b	0.026801815
99	0x3cb844a0	0.02249366
100	0x3c017911	0.0079024
101	0x3da1cec4	0.079007655
102	0x3d138165	0.036012072
103	0xbbbfa494	-0.0058484767
104	0xbd4108a5	-0.047127385
105	0xbc2dc5c3	-0.010606232
106	0xbd5e55f6	-0.054281197
107	0x3d515b71	0.051112596
108	0x3d183caa	0.03716723
109	0x3cd8b1cb	0.026451966
110	0x3d0f8b6c	0.035045072
111	0x3c3e26cd	0.0116059305
112	0x3d85a22a	0.06525071
113	0xbd0304ce	-0.031987004
114	0x3ca92a4a	0.020650048
115	0xbc5247f7	-0.012834541
116	0xbc0e6444	-0.008690897
117	0x3d943814	0.072372586
118	0x3c9a2571	0.018816682
119	0x3da4f401	0.080543526
120	0xbce6c03b	-0.028167835
121	0x3db507c3	0.08839371
122	0x3d976c72	0.07393731
123	0xbcf5b71b	-0.029994538
124	0x3c94eead	0.018180216
125	0xbc4eeefe	-0.012630222
126	0x3cebbc8b	0.028776428
127	0xbcb0e0d3	-0.02159158
128	0xbcc9092d	-0.024540508
129	0xbcaf5a1b	-0.02140527
130	0x3ba0e893	0.0049105375
131	0x3d7bcb0c	0.061472937
132	0xbc7255af	-0.014790936
133	0xbbe858e6	-0.0070906756
134	0x3bee5fcf	0.007274605
135	0x3d1c09a7	0.038095143
136	0xbc573c59	-0.013136947
137	0xbbf03c34	-0.0073313955
138	0x3d10a8b6	0.035317145
139	0x3d97db74	0.07414904
140	0x3cc6088d	0.024174
141	0xbdb2bda4	-0.08727577
142	0x3cb57dda	0.022154737
143	0xbd6450ad	-0.055741
144	0x3d0cd677	0.034384217
145	0xbb155a50	-0.0022789426
146	0x3c82195c	0.015881233
147	0xbd3510da	-0.044205524
148	0x3b87b352	0.0041412497
149	0xbc204a83	-0.00978339
150	0xbc9fc9aa	-0.01950534
151	0xbc0552e3	-0.0081374375
152	0xbcb695a5	-0.022288153
153	0x3aab9e24	0.0013093394
154	0xbd317ef0	-0.043333948
155	0x3b32c98c	0.0027280776
156	0xbd019e31	-0.031645004
157	0xbd0c7caa	-0.034298576
158	0x3d852f3c	0.0650315
159	0xbd50ff9b	-0.051025014
160	0xbb72209a	-0.0036945702
161	0x3d0c0793	0.03418691
162	0x3d5c1d3f	0.05373883
163	0x3c5632a5	0.013073598
164	0x3c38f689	0.011289247
165	0x3c9b7205	0.018975267
166	0xbc57d384	-0.013172988
167	0x3dc18393	0.09448924
168	0xbcadee9b	-0.02123194
169	0x3df2ead1	0.11861194
170	0x3a5f6672	0.00085220404
171	0xbc2dfbe9	-0.010619142
172	0xbd932950	-0.07185614
173	0x3d9e56f3	0.07731428
174	0x3c032e52	0.008006649
175	0x3cce0fe7	0.025154067
176	0xbd90519b	-0.07046815
177	0x3dbcdd8f	0.092219464
178	0x3cfdc683	0.030978447
179	0x3d0794a9	0.033100758
180	0x3d63576e	0.0555033
181	0x3cd515ce	0.026011374
182	0xbd20e861	-0.039284114
183	0xbd24a5b6	-0.040197097
184	0xbd17ba00	-0.037042618
185	0xbc40d999	-0.011770629
186	0xbd797729	-0.060904656
187	0x3ceda422	0.029008929
188	0x3da313fc	0.07962796
189	0x3db8c7c5	0.09022478
190	0x3c878fae	0.016548004
191	0x3d4283bb	0.04748891
192	0x3d80a67e	0.06281756
193	0xbd66d58e	-0.056356005
194	0xbd3a0bd0	-0.04542142
195	0x3d14d123	0.03633226
196	0x3d3d4d0d	0.04621606
197	0x3d80a300	0.0628109
198	0xbc9842d8	-0.018586561
199	0x3c2cd1ae	0.010548038
200	0xbcae1b99	-0.021253394
201	0x3d4cdb89	0.050014053
202	0x3bb7f173	0.0056135
203	0x3bc5368c	0.0060184654
204	0xbd0d2465	-0.034458537
205	0xba1c7404	-0.00059682154
206	0x3d47c4e2	0.048771746
207	0xbd3d6aef	-0.046244558
208	0x3d8d61f9	0.069034524
209	0xbc878e32	-0.016547296
210	0x3d5ed49d	0.054401983
211	0x3d9461de	0.07245229
212	0xbbe81d14	-0.0070835445
213	0x3c892dfe	0.016745564
214	0xbceb00cc	-0.028686903
215	0x3d6c7ee0	0.057738185
216	0x3d879e38	0.06621975
217	0x3d8a5853	0.06755128
218	0x3d13118b	0.035905402
219	0x3d2acc61	0.041698817
220	0x3dbe3d71	0.09289063
221	0xbb6d84c3	-0.0036242462
222	0x3db27525	0.0871375
223	0x3d3257d4	0.04354079
224	0x3cbab3f5	0.022790888
225	0x3c80bfc9	0.01571645
226	0xbcb5e347	-0.0222031
227	0xbd697190	-0.056993067
228	0x3d24024b	0.04004125
229	0x3d2c51ed	0.042070318
230	0x3cd4eaf4	0.02599094
231	0x3d68c920	0.056832433
232	0x3c525a86	0.012838965
233	0xbcc97c13	-0.024595296
234	0x3d1203f6	0.03564831
235	0xbc83ed34	-0.016104318
236	0x3d097ee3	0.033568274
237	0x3c447ca7	0.01199261
238	0xbc61a4c1	-0.013772191
239	0x3d2ce4db	0.04221044
240	0xbd685819	-0.05672464
241	0x3cc9c2d6	0.024629038
242	0x3bae7803	0.005324365
243	0x3da9d071	0.0829171
244	0x3dd318f7	0.10307496
245	0xbbd5b448	-0.0065217353
246	0x3d9517e0	0.072799444
247	0xbc3cf464	-0.011532877
248	0xbcd36c74	-0.02580855
249	0x3c4b388e	0.01240362
250	0x3a25ac0d	0.0006319888
251	0xbd866b49	-0.06563432
252	0x3d0def5f	0.03465211
253	0x3d159c56	0.036526047
254	0x3d2ec971	0.04267258
255	0xbd6ea72f	-0.058264907

network_body._body_endoder.seq_layers.0.weight f4 [256, 690]
0	0xbdece2ee	-0.11566721
1	0xbe017e95	-0.12645943
2	0x3e2a8031	0.16650464
3	0x3e6098b0	0.21933246
4	0x3cb4ead1	0.022084625
5	0xbe0c2537	-0.13686071
6	0x3dc68281	0.096928604
7	0xb9a50b0b	-0.0003147948
8	0x3c95ed61	0.018301668
9	0x3d8985b0	0.06714952
10	0xbda61ead	-0.0811132
11	0xbcc10995	-0.02356414
12	0xbd975e8d	-0.07391081
13	0x3e8a5b23	0.27022657
14	0xbdb0bd32	-0.08629836
15	0x3e08a714	0.13344985
16	0x3ce64ff5	0.028114298
17	0xbe8f77dc	-0.28021133
18	0x3de82f30	0.11337125
19	0x3e12d38d	0.14338513
20	0xbe2558a2	-0.16147092
21	0x3d9c1641	0.07621432
22	0xbcff4377	-0.0311601
23	0x3d2f6e19	0.042829607
24	0xbdef9cee	-0.11699854
25	0xbd5e6e0b	-0.054304164
26	0x3dc3f318	0.09567851
27	0xb8bf66ab	-9.126713e-05
28	0xbd42659a	-0.047460176
29	0x3d25db5d	0.040492404
30	0xbd85b7a0	-0.06529164
31	0x3cca28f8	0.024677739
32	0x3e5d3bae	0.21604797
33	0x3e7d09e7	0.24710809
34	0x3bc7e070	0.006099753
35	0x3e215124	0.15753609
36	0x3d95c28b	0.07312497
37	0x3e091114	0.13385421
38	0x3d8eb766	0.06968574
39	0x3d53cbe6	0.051708125
40	0xbdf52bf2	-0.119712725
41	0xbe29b388	-0.16572392
42	0x3d84116b	0.06448635
43	0x3e606466	0.21913299
44	0xbeaafa71	-0.33394197
45	0x3e74e534	0.23915559
46	0x3d57f515	0.052723963
47	0xbe0a74e1	-0.13521148
48	0x3d7677e5	0.060172934
49	0x3c2f846b	0.010712723
50	0xbd9ae791	-0.07563699
51	0x3e65cfa1	0.22442485
52	0x3dbabb0e	0.09117709
53	0x3e04f65d	0.12984605
54	0x3b86b620	0.0041110665
55	0xbeb54ecb	-0.35411677
56	0xbe239020	-0.15972948
57	0x3dcdf460	0.100563765
58	0xbd1eb680	-0.038748264
59	0x3d7ed4b2	0.06221456
60	0x3d2c41e5	0.04205503
61	0xbd8d0782	-0.068861976
62	0xbd1412b6	-0.036150657
63	0x3e147713	0.14498548
64	0xbd8744d1	-0.066049226
65	0x3e4f208a	0.20227256
66	0xbd3c9321	-0.04603875
67	0x3dbf6994	0.09346309
68	0x3aa25fe5	0.0012388198
69	0x3bfe0d43	0.0077530458
70	0xbe938254	-0.2881037
71	0xbe6598a9	-0.22421516
72	0xbc6b9a75	-0.014380087
73	0x3ddbb69c	0.10728189
74	0xbe50f332	-0.20405272
75	0xbddc17bd	-0.10746715
76	0x3e1a2d22	0.1505628
77	0x3d25643c	0.040378794
78	0x3d4ab666	0.049490355
79	0xbdf0c7b7	-0.117568426
80	0xbdbb33a3	-0.09140708
81	0x3da37642	0.0798154
82	0xbdd62d41	-0.1045785
83	0x3d8373ad	0.06418548
84	0xbda91c5a	-0.08257361
85	0xbe3f4533	-0.18678741
86	0x3bf68631	0.007523321
87	0x3da228fa	0.07917972
88	0xbd20e51c	-0.039280996
89	0xbd2d23a0	-0.042270303
90	0x3c661b93	0.01404466
91	0xbd56eddd	-0.052472938
92	0x3d90fc15	0.07079331
93	0xbe8ddd1b	-0.27707753
94	0x3e31cd9b	0.17363589
95	0xbe04e44b	-0.12977712
96	0xbe2191c9	-0.15778269
97	0xbe13b8c7	-0.14425956
98	0xbb168399	-0.0022966622
99	0x3d8a8b64	0.06764868
100	0xbd8f6d03	-0.07003214
101	0x3a17736b	0.00057773915
102	0xbe880f25	-0.26574054
103	0xbca6ff19	-0.020385312
104	0x3d895bbe	0.067069516
105	0x3d8ccf68	0.06875497
106	0xbe5ac568	-0.21364367
107	0x3dcc9099	0.09988517
108	0xbd80a364	-0.06281164
109	0x3de8adf4	0.11361304
110	0x3d215b7d	0.03939389
111	0x3c2ae1f2	0.010429846
112	0xbdc58130	-0.09643781
113	0x3d61fddb	0.055173736
114	0x3dbedbff	0.09319305
115	0xbdc00043	-0.0937505
116	0xbc0cb1bf	-0.0085873
117	0xbd769e76	-0.060209714
118	0x3d0d5cd8	0.03451237
119	0x3da1b59d	0.07895968
120	0x3dc640c3	0.09680321
121	0xbd907897	-0.07054251
122	0x3cd62759	0.02614181
123	0xbd259613	-0.040426325
124	0xbdf2fb94	-0.11864391
125	0xbc1c742a	-0.00954918
126	0xbd6f3b1e	-0.058405988
127	0x3dcf4d2d	0.10122142
128	0xbdd01252	-0.10159744
129	0x3d82cdbb	0.06386896
130	0xbb5a33d1	-0.0033295045
131	0x3dc5aa20	0.096515894
132	0xbd360a11	-0.044443194
133	0x3e2acb35	0.1667908
134	0x3c400fc9	0.0117225135
135	0x3d921531	0.07132948
136	0xbd81797d	-0.06322
137	0xbcde85bc	-0.027163379
138	0xbc54eb4f	-0.012995555
139	0x3b0c6eca	0.002142834
140	0x3c90047c	0.017580263
141	0x3e137bd7	0.1440271
142	0xbdb3a1b4	-0.08771077
143	0x3e0a64ea	0.13515058
144	0x3dcee41f	0.101021044
145	0x3cab9381	0.020944359
146	0xbd2cca7a	-0.042185284
147	0x3c9cb7d4	0.019130625
148	0x3d204031	0.039123718
149	0x3da8fc81	0.08251286
150	0xbd826329	-0.063665695
151	0xbd909d8c	-0.070613
152	0xbe835367	-0.25649568
153	0x3c8bd955	0.017071405
154	0x3e16cced	0.1472661
155	0xbd66c65a	-0.056341507
156	0xbe145cb3	-0.14488487
157	0x3d1a787c	0.03771256
158	0x3d8512b2	0.064977065
159	0x3d8a6006	0.06756596
160	0x3da0a087	0.07843118
161	0x3cd2664f	0.02568355
162	0xbc4342fd	-0.011917827
163	0x3e0c9156	0.13727316
164	0xbd30f4b7	-0.04320213
165	0x3d441501	0.047871593
166	0x3ca5fa85	0.020261059
167	0xbe09e2f7	-0.13465486
168	0x3d527526	0.051381253
169	0x3d116510	0.03549677
170	0xbd2d1786	-0.04225876
171	0xbcd316c1	-0.025767686
172	0xbcecd3da	-0.028909612
173	0xbe30830e	-0.17237493
174	0x3d864801	0.065567024
175	0xbe1a6018	-0.1507572
176	0xbcc01a5e	-0.023450073
177	0xbbe941b0	-0.0071184263
178	0xbba2ea1e	-0.0049717566
179	0xbba23ba7	-0.004950959
180	0xbdab16ea	-0.0835398
181	0xbc421574	-0.011845935
182	0xbe91e353	-0.28493747
183	0x3d873111	0.066011555
184	0xbc406b58	-0.011744343
185	0xbc9ccdff	-0.019141195
186	0x3e0a9529	0.13533463
187	0x3ceeaea9	0.029136019
188	0x3d08fc2e	0.033443622
189	0xbd056a50	-0.03257209
190	0x3bd84028	0.006599445
191	0xba531bf3	-0.0008053176
192	0xbd9fb423	-0.0779803
193	0xbd3e94b2	-0.046528526
194	0x3e577039	0.21038903
195	0xbc658adb	-0.0140101565
196	0xbe3eda84	-0.18638045
197	0x3de6c4d8	0.11268014
198	0x3c1b4144	0.00947601
199	0x3d2f39f1	0.042779867
200	0xbd531188	-0.05153039
201	0x3b2d03c9	0.0026399961
202	0x3c96aaa6	0.018391918
203	0x3cf53a0c	0.029934905
204	0x3df81901	0.12114144
205	0xbdb44427	-0.088020615
206	0x3bda6b0f	0.0066655944
207	0xbc869bf2	-0.016431782
208	0xbcef5a9b	-0.029218009
209	0xbce70df1	-0.02820489
210	0x3d00569c	0.031332597
211	0xbe1e6a77	-0.154703
212	0xbdf9af36	-0.12191622
213	0x3b3fb889	0.0029254279
214	0xbc5c7012	-0.013454454
215	0xbd1aacb2	-0.03776235
216	0xbd242464	-0.040073767
217	0x3e2064d9	0.1566347
218	0x3d619ceb	0.05508129
219	0xbda43f17	-0.08019846
220	0x3bf2d341	0.0074104373
221	0x3c0deb76	0.008662095
222	0x3d13d58f	0.036092337
223	0x3c0b4a44	0.008501593
224	0x3e772394	0.24134666
225	0x3d296501	0.04135609
226	0xbe3a5188	-0.18195164
227	0xbd4612cb	-0.048357766
228	0xbd6b064c	-0.057379052
229	0xbd8f3b4f	-0.06993734
230	0xbd24ab10	-0.0402022
231	0x3e10cdbe	0.14140984
232	0xbd8f4617	-0.069957905
233	0x3d2e7135	0.04258843
234	0xbd0000a1	-0.0312506
235	0x3c6bd0e4	0.014393065
236	0xbe53e495	-0.20692666
237	0x3e8826e0	0.2659216
238	0xbd5e8a79	-0.054331277
239	0xbd4f9da4	-0.050687447
240	0x3d59f2dd	0.053210128
241	0x3a9a2aed	0.001176206
242	0xbd936e78	-0.071988046
243	0xbbc11fc3	-0.005893679
244	0x3da2965d	0.07938836
245	0xbdb29298	-0.08719367
246	0xbc759844	-0.014989916
247	0xbc6cf1fa	-0.014461989
248	0x3cb35d99	0.021895217
249	0x3e1255e1	0.14290573
250	0x3e3d35c2	0.18477538
251	0xbda315ac	-0.07963118
252	0xbdbd3c2a	-0.09239991
253	0xbe02d0c6	-0.12774953
254	0xbc89c5a7	-0.01681788
255	0xbd6e174d	-0.05812769

network_body._body_endoder.seq_layers.2.bias f4 [256]
0	0xbcfa18e2	-0.030529443
1	0xbc9f0420	-0.019411147
2	0x3d36bc20	0.044613004
3	0xbd2b4eeb	-0.04182331
4	0xbcd2b924	-0.025723048
5	0xbdd13cdb	-0.102166854
6	0x3d4a6bf5	0.049419362
7	0x3d011139	0.031510565
8	0xbd0839c0	-0.0332582
9	0x3d342a6a	0.04398576
10	0xbdd0a20d	-0.10187159
11	0xbd411917	-0.04714307
12	0xbb69fb21	-0.0035702663
13	0xbd7e44de	-0.062077396
14	0xb95cb87a	-0.00021049558
15	0xbd7aa443	-0.06119181
16	0xbda74504	-0.081674606
17	0xbd8ae650	-0.0678221
18	0xbe4bace5	-0.19890173
19	0xbc9886f7	-0.018619044
20	0x3cd5bb17	0.026090188
21	0xbdc628f2	-0.096757784
22	0x3d659560	0.05605066
23	0xbd568214	-0.052370146
24	0xbdb9312c	-0.09042582
25	0xbc5db27c	-0.0135313235
26	0xbbcf4f5e	-0.0063266
27	0xbde06d71	-0.10958374
28	0xbd22191e	-0.039574735
29	0x3c4bd66d	0.01244126
30	0xbb6a23f2	-0.0035726991
31	0x3cb02558	0.021502182
32	0xbd1ad7e5	-0.03780355
33	0xbd38674a	-0.04502038
34	0xbcea9e4d	-0.028639937
35	0xbdc49683	-0.0959902
36	0xbd76a01d	-0.06021129
37	0xbdbcd3b8	-0.0922007
38	0x3d9a4eef	0.07534587
39	0xbe1ca950	-0.15298963
40	0x3cdf8cd8	0.02728884
41	0x3d03d90b	0.03218941
42	0xbd1538cb	-0.036431115
43	0xbb4be390	-0.003111098
44	0xbe1146b6	-0.1418713
45	0xba42f331	-0.0007436751
46	0x3bf12473	0.0073590814
47	0xbcbbb099	-0.022911357
48	0xbc9e252a	-0.01930483
49	0xbcb68fcf	-0.02228537
50	0x3d8e320c	0.069431394
51	0xbd8202e2	-0.06348206
52	0xbdb92465	-0.09040145
53	0xbd675a2b	-0.056482475
54	0x3c7819fa	0.015142912
55	0x3d845199	0.06460876
56	0xbd48eaef	-0.049052175
57	0x3d12c6c1	0.035834078
58	0xbd260a78	-0.040537328
59	0xbc591892	-0.013250487
60	0xbd1dd4b2	-0.03853292
61	0xbb2716f7	-0.0025495866
62	0xbd03cca0	-0.032177567
63	0x3c9f462f	0.019442646
64	0x3dd36f23	0.10323932
65	0x3d2bf43e	0.041980974
66	0x3d031c03	0.032009136
67	0xbde4e7e1	-0.1117704
68	0xbd505c59	-0.05086932
69	0xbd79601b	-0.06088267
70	0xbda1ec73	-0.07906427
71	0x3d065a0d	0.032800723
72	0x3c4ae772	0.012384282
73	0xbc0cd8d7	-0.0085966205
74	0x3d5023bc	0.05081533
75	0x3c466116	0.012108108
76	0xbc7e675e	-0.015527574
77	0xbc16cf85	-0.00920475
78	0xbb716293	-0.0036832436
79	0xbbbff9d7	-0.0058586407
80	0xbdea35d6	-0.1143605
81	0xbd9c7763	-0.07639959
82	0xbb2b8c68	-0.0026176218
83	0x3d60681a	0.05478678
84	0xbe1d15b4	-0.1534031
85	0x3c433483	0.011914375
86	0xbd4ed7a9	-0.05049864
87	0x3d60988b	0.054832976
88	0x3d9bc6b7	0.07606261
89	0xbdc17768	-0.09446603
90	0xbdb6924e	-0.08914624
91	0xbd43d279	-0.047808144
92	0x3c510c21	0.012759239
93	0xbdcb3f68	-0.09924203
94	0x3db3cc3f	0.08779191
95	0xbb49fcb9	-0.00308208
96	0xbd013e35	-0.031553466
97	0xbd06a676	-0.032873593
98	0xbd30e27e	-0.04318475
99	0xbc8c5f0a	-0.017135162
100	0x3d8e0b6e	0.06935774
101	0xbd24fc1b	-0.04027949
102	0x39bed4b5	0.00036398103
103	0x3c8ac72f	0.016940681
104	0x3bd8f523	0.0066210194
105	0xbcdcafcf	-0.0269393
106	0x3c6bbd4f	0.014388396
107	0x3c26e995	0.010187526
108	0xbd4b9abc	-0.049708113
109	0xbaba5631	-0.0014216361
110	0xbd4fb278	-0.05070731
111	0xbd291003	-0.041275036
112	0xbd887d7c	-0.06664559
113	0xbd3afd4d	-0.045651723
114	0x3ca794c1	0.020456674
115	0xbd7beda8	-0.061505944
116	0x3daa9a0a	0.08330162
117	0xbd7652a6	-0.060137413
118	0xbe0abb95	-0.1354812
119	0xbd4760d7	-0.048676338
120	0x3c31d79f	0.010854631
121	0xbdc191ba	-0.09451623
122	0xbc439304	-0.011936907
123	0xbd3b3e93	-0.045713972
124	0xbd4a8d48	-0.049451143
125	0xbd74ebc0	-0.05979514
126	0xbd15a73a	-0.036536433
127	0xbd9cb086	-0.07650857
128	0x3c855755	0.016276995
129	0xbd9fd649	-0.078045435
130	0xbdd530d3	-0.10409703
131	0xbdb45193	-0.088046215
132	0xbd58dffd	-0.052947987
133	0xbd947eda	-0.072507575
134	0xbdf01cd7	-0.11724251
135	0xbd81ba55	-0.06334368
136	0xbca45688	-0.020060793
137	0xbd878261	-0.06616665
138	0x3d5e1c06	0.054225944
139	0x3d9e09c5	0.07716707
140	0x3c9eaded	0.019370044
141	0xbde5c35b	-0.11218902
142	0xbddbc496	-0.10730855
143	0x3e0e43ca	0.13893047
144	0xbd6f643a	-0.058445193
145	0x3cb48f4a	0.022040982
146	0x3d0d8879	0.03455398
147	0xbcc9b5e6	-0.024622869
148	0xbc3ad2f7	-0.011402837
149	0xbd380b69	-0.044932757
150	0x3cf7dd50	0.030256897
151	0xbcb91a36	-0.022595506
152	0x3b803e73	0.0039136945
153	0xbdaf1062	-0.08548047
154	0xbb13b3b5	-0.0022537534
155	0xbd04c61f	-0.032415505
156	0x3d639c81	0.055569176
157	0xbd30a806	-0.04312899
158	0xbcc64b37	-0.024205787
159	0x3d60a913	0.05484874
160	0xbd823a40	-0.063587666
161	0x3c626e9a	0.013820315
162	0xbcdfa863	-0.027301973
163	0xbdefb7a5	-0.11704949
164	0xbd852598	-0.06501311
165	0xbd4669be	-0.048440687
166	0xbe292b61	-0.16520454
167	0xbda5e4b1	-0.0810026
168	0x3cf7118c	0.030159734
169	0xbcc87bf3	-0.024473166
170	0xbd0b8416	-0.034061514
171	0xbd92e673	-0.07172861
172	0xbdec5860	-0.11540294
173	0xbd5437e5	-0.051811118
174	0xbd8ea4c2	-0.06965019
175	0xbdbf8002	-0.093505874
176	0x3ca4c5bb	0.020113816
177	0xbddfb5ab	-0.10923322
178	0x3d052974	0.032510236
179	0xbda2fce5	-0.07958392
180	0x39c8834d	0.000382448
181	0x3c0ed51a	0.0087178
182	0xbd72aad9	-0.059244964
183	0xbba7f67e	-0.0051258197
184	0xbd7e36b2	-0.06206388
185	0xbdd02b73	-0.10164537
186	0x3c31f763	0.010862204
187	0x3d766a8c	0.060160205
188	0xbcc97a5d	-0.02459448
189	0xbd7f688b	-0.06235556
190	0xbc870a6d	-0.016484464
191	0x3cec0faf	0.028816072
192	0xbd8617c2	-0.065475
193	0xbcef821d	-0.029236848
194	0xbd0cbca9	-0.034359608
195	0x3d2b8b3a	0.041880824
196	0xbcb12197	-0.021622462
197	0x3b8c1339	0.0042747525
198	0xbd9c7252	-0.07638992
199	0xbdb5f68f	-0.08884918
200	0xbe26f8d8	-0.16305864
201	0xbe0545fa	-0.13014975
202	0xbc0be35e	-0.008538095
203	0x3ce43c24	0.027860709
204	0xbd8a8b56	-0.067648575
205	0xbcaf6962	-0.021412555
206	0xbddbd65c	-0.10734245
207	0xbdb5b5df	-0.0887258
208	0xbe11b52e	-0.14229271
209	0xbc6270ef	-0.013820871
210	0x3d767f6b	0.06018011
211	0xbcb9d0d5	-0.022682587
212	0xbd0c71f9	-0.03428838
213	0x3d0d2c0f	0.034465846
214	0xbd27c475	-0.04095884
215	0x3d6dc112	0.058045454
216	0x3c8289c5	0.015934834
217	0xbd111c4c	-0.035427377
218	0xbda57b2f	-0.08080136
219	0x3c6abc2c	0.01432709
220	0x3d6e1267	0.05812302
221	0xbd6e49f6	-0.058176003
222	0x3b424cff	0.0029647944
223	0x3d108bd2	0.035289593
224	0xbda50ae4	-0.08058718
225	0xbde8208f	-0.11334335
226	0xbd260f97	-0.04054221
227	0xbe25dedc	-0.16198295
228	0x3dff215c	0.12457535
229	0xbd472b15	-0.04862507
230	0xbd9feb18	-0.078085124
231	0x3aaaa06d	0.0013017781
232	0xbe272a9e	-0.16324851
233	0xbb20dcac	-0.0024545593
234	0xbdf20a78	-0.11818403
235	0x3ad65ebc	0.0016355137
236	0xbd2ff572	-0.042958684
237	0xbd9386fe	-0.07203482
238	0x3d586852	0.052833863
239	0xbc8fada3	-0.017538851
240	0x3c7eee49	0.015559741
241	0xbd751a2a	-0.059839405
242	0xbcc95d3d	-0.024580592
243	0xbd938ef4	-0.072050005
244	0xbd39da4a	-0.045374192
245	0x3c3a5e23	0.011374983
246	0xbc6ee055	-0.014579852
247	0x3cb35682	0.021891836
248	0xbd4994e8	-0.049214274
249	0x3cfd874a	0.0309483
250	0xbdbe2861	-0.092850454
251	0xbcab7944	-0.020931847
252	0x3d852734	0.06501618
253	0xbd8676ce	-0.06565629
254	0xbe1266c0	-0.14297009
255	0xbd78785e	-0.060661666

network_body._body_endoder.seq_layers.2.weight f4 [256, 256]
0	0x3b8979e8	0.0041954406
1	0x3d730cf2	0.059338517
2	0x3d6681cf	0.05627614
3	0x3e258dad	0.16167326
4	0x392325b4	0.00015558937
5	0x3e19c7d4	0.15017635
6	0xbe08cf67	-0.13360368
7	0x3dceac94	0.100915104
8	0x3db813b0	0.0898813
9	0x3e8cc588	0.27494454
10	0xbcd6dece	-0.026229288
11	0x3e35bf7f	0.17748831
12	0xbe832b9b	-0.25619206
13	0xbc2c2138	-0.010505967
14	0xbc748c81	-0.014926077
15	0x3d426ab9	0.04746506
16	0x3e24a21c	0.16077465
17	0xbdffb902	-0.12486459
18	0x3c80557b	0.01566576
19	0xbdca870c	-0.098890394
20	0xbdf2b09f	-0.11850094
21	0x3dcc9a17	0.09990328
22	0xbd7a2e81	-0.061079506
23	0xbdb9c356	-0.090704605
24	0xbcbfc8c9	-0.023411172
25	0xbe40c39e	-0.18824622
26	0xbe06acfa	-0.13151923
27	0x3dd9a0b9	0.106263585
28	0x3e041047	0.12896834
29	0xbcfbf71e	-0.030757483
30	0x3db1ea15	0.08687226
31	0xbe3b2939	-0.18277444
32	0x3dd14461	0.1021812
33	0x3dbacd4a	0.09121187
34	0x3e0fe548	0.14052308
35	0xbd80b83d	-0.06285141
36	0xbe0d310f	-0.13788246
37	0x3df094a2	0.117470995
38	0xbc82c37f	-0.01596236
39	0xbe154ffe	-0.14581296
40	0xbc85fd6a	-0.016356189
41	0x3d6e4217	0.058168497
42	0x3c9207ae	0.017825928
43	0x3d466699	0.04843769
44	0x3e2731f4	0.1632765
45	0x3e45e867	0.19326936
46	0xbdb57249	-0.08859689
47	0xbdfc2724	-0.12312153
48	0xbe78bb4b	-0.24290197
49	0x3bb1ba8f	0.005423851
50	0x3d185348	0.0371888
51	0xbe0ea884	-0.13931471
52	0xbe193b58	-0.14964044
53	0xbae9fbaf	-0.0017851497
54	0x3d6a07ac	0.057136223
55	0xbd3f82fe	-0.046755783
56	0x3e455d3c	0.19273847
57	0xbdc823c3	-0.09772446
58	0x3d2862e8	0.04110995
59	0x3d825a1f	0.063648455
60	0xbca49ace	-0.020093348
61	0xbd7894e1	-0.060688857
62	0xbde2e1a2	-0.11078192
63	0x3b161a02	0.0022903685
64	0x3d9a335f	0.075293295
65	0xbc88e963	-0.01671285
66	0x3ccb6e74	0.024832942
67	0xbe3d9948	-0.18515503
68	0x3e598d9d	0.21245427
69	0xbe51df35	-0.20495303
70	0x3dd46207	0.1037026
71	0x3cf787d4	0.030216135
72	0x3d5451ea	0.05183593
73	0x3d2d585d	0.042320598
74	0x3df1c4da	0.118051246
75	0xbc943e9e	-0.018096264
76	0x3e05ade6	0.13054618
77	0xbc37ea12	-0.01122524
78	0x3d805c10	0.062675595
79	0x3df497ce	0.11943017
80	0xbd2c597f	-0.042077538
81	0x3e27972f	0.16366266
82	0x3dada617	0.08478945
83	0x3dfe33b2	0.12412204
84	0xbdda6d75	-0.106654085
85	0xbe3148fc	-0.17312998
86	0x3e0b5971	0.13608338
87	0x3e47b92b	0.1950423
88	0xbe2df0e7	-0.16986428
89	0x3da6d299	0.08145637
90	0xbdf073ca	-0.11740835
91	0x3d58e719	0.052954767
92	0x3e0e4d12	0.13896587
93	0x3de42a1c	0.11140844
94	0xbc792e74	-0.015208829
95	0xbe0735b8	-0.13204086
96	0xbc8d815f	-0.017273603
97	0xbe847dc9	-0.25877216
98	0x3c58e404	0.013237957
99	0xbcee4b3b	-0.029088607
100	0xbdbb78b3	-0.09153881
101	0x3b91642c	0.0044369902
102	0xbcb3b9f7	-0.02193926
103	0xbb208376	-0.002449242
104	0x3dfb9103	0.12283518
105	0xbd1fdf72	-0.039031453
106	0xbcf304fc	-0.029665463
107	0xbd313572	-0.04326386
108	0x3e553519	0.20821036
109	0xbd6d3a3b	-0.05791686
110	0xbdf01f02	-0.11724664
111	0xbd24dc5b	-0.04024921
112	0x3dde6eaf	0.10860955
113	0x3e0e8111	0.13916422
114	0xbda73531	-0.08164442
115	0x3e802b86	0.25033206
116	0xbd0b2907	-0.033974674
117	0xbdf22dfa	-0.118251756
118	0xbe790e35	-0.24321826
119	0xbe012856	-0.12613043
120	0xbd515150	-0.051102936
121	0xbd70085c	-0.058601722
122	0xbd2b776d	-0.04186194
123	0x3dcd0855	0.10011355
124	0xbb95b9f8	-0.0045692883
125	0x3bdd39c4	0.006751271
126	0xbe1ce1d3	-0.1532052
127	0xbd0dfa05	-0.034662265
128	0xbe7074b7	-0.23482023
129	0x3c96dee3	0.018416828
130	0x3dc8045b	0.09766456
131	0xbd2582b1	-0.04040784
132	0x3cf2b09d	0.029625231
133	0xbce1a021	-0.027542176
134	0x3da4a5df	0.0803945
135	0xbd0215db	-0.031759124
136	0x3dca7b8e	0.098868474
137	0x3d86b1f7	0.06576913
138	0xbdf2c623	-0.11854198
139	0x3e396881	0.18106271
140	0x3e2ef792	0.17086628
141	0xbe1e12cd	-0.1543686
142	0xbdd12eea	-0.10214026
143	0x3d4296e1	0.04750717
144	0xbdb702fc	-0.08936116
145	0xbd0b29f7	-0.033975568
146	0x3d706c1c	0.05869685
147	0xbdf2a35b	-0.11847564
148	0x3db1f1d9	0.08688707
149	0x3e61133a	0.2197999
150	0xbe4634db	-0.193561
151	0xbd91527c	-0.07095811
152	0xbc5e60b2	-0.013572859
153	0x3db7bd68	0.08971673
154	0x3ddbe5c0	0.10737181
155	0xbcd6573f	-0.026164649
156	0xbdd13224	-0.10214642
157	0x3d2d3324	0.0422851
158	0x3d4ef612	0.05052764
159	0xbd43aff7	-0.047775235
160	0x3e1c8163	0.15283732
161	0x3e933ee2	0.28758913
162	0xbe000ee3	-0.12505679
163	0x3da8fec2	0.08251716
164	0x3d776357	0.060397472
165	0x3dc3da53	0.095631264
166	0x3da28467	0.0793541
167	0xbd32fec8	-0.04370001
168	0x3e61fe81	0.22069742
169	0xbd8783b7	-0.066169195
170	0xbe4e85f5	-0.20168288
171	0x3eb15eac	0.3464254
172	0xbd849b60	-0.06474948
173	0xbd879420	-0.066200495
174	0xbe1280fd	-0.14307018
175	0xbe27bc4c	-0.16380423
176	0x3d921061	0.0713203
177	0xbdd2051e	-0.10254882
178	0xbdbad80c	-0.09123239
179	0x3c29b313	0.010357636
180	0x3e755ff7	0.23962389
181	0xbd87e64a	-0.06635721
182	0xbb8e850a	-0.0043493556
183	0x3e256229	0.16150726
184	0x3db3ac7e	0.08773135
185	0xbdbbe4a3	-0.09174468
186	0x3c59f1c9	0.013302275
187	0x3ea108c1	0.3145199
188	0x3baaa568	0.0052077062
189	0x3d208131	0.039185707
190	0xbdf6a15d	-0.12042496
191	0x3dc1cb82	0.09462644
192	0x3c9eb8e3	0.01937527
193	0x3d8a662d	0.0675777
194	0x3e2a484d	0.16629143
195	0xbc688b7d	-0.014193413
196	0xbd62a1cc	-0.055330083
197	0xbe21b141	-0.15790273
198	0xbcd9c53b	-0.026583305
199	0x3e30cf75	0.17266639
200	0x3b8b8d78	0.0042588077
201	0xbde2fd89	-0.11083514
202	0xbd9a3548	-0.07529694
203	0xbc0f1865	-0.008733843
204	0xbd9764de	-0.07392286
205	0xbd2f89aa	-0.042855896
206	0x3d1fc27e	0.03900384
207	0xbdb70960	-0.08937335
208	0x3e749c2e	0.23887703
209	0xbd520aee	-0.051279955
210	0x3c009361	0.007847638
211	0xbe8d8d4d	-0.27646866
212	0xbd802c68	-0.0625847
213	0xbdd89e73	-0.10577097
214	0xbe3538bd	-0.17697425
215	0xbe0ee7fb	-0.13955681
216	0xbd0772b3	-0.03306837
217	0xbced1ff4	-0.0289459
218	0x3eb09508	0.34488702
219	0xbe29c14f	-0.16577648
220	0x3d27366d	0.04082339
221	0xbd4c4c17	-0.049877252
222	0xbd51cfa3	-0.05122341
223	0xbe1d400f	-0.15356468
224	0xbe1a123e	-0.15046021
225	0xbc8538a7	-0.016262366
226	0xbd4b1f3d	-0.049590338
227	0xbd918d63	-0.071070455
228	0x3dcba81d	0.099441744
229	0xbd1a6baf	-0.03770035
230	0x3e38f953	0.1806386
231	0x3de02478	0.10944456
232	0xbcfa1068	-0.030525401
233	0xbe109bbb	-0.14121906
234	0x3de1e777	0.110304765
235	0xbd2eeb30	-0.04270476
236	0xbe2eaa2e	-0.17057106
237	0x3d6e7ac0	0.058222532
238	0x3deeab4b	0.11653765
239	0x3d2e8b9a	0.042613603
240	0xbe5cba9d	-0.21555562
241	0x3df06157	0.11737316
242	0x3dc9301e	0.09823631
243	0xbd618f40	-0.055068254
244	0xbc197f12	-0.009368675
245	0x3e11f0aa	0.14251962
246	0x3d3bbd19	0.045834634
247	0x3d9d3930	0.07676923
248	0x3aa5fcd4	0.001266385
249	0xbdd05408	-0.10172278
250	0xbe5d2866	-0.21597442
251	0x3e0c3cdc	0.13695091
252	0x3d48e089	0.04904226
253	0x3dbf41b6	0.09338705
254	0xbd05109f	-0.032486554
255	0xbdf32c6f	-0.118737094
