Assets/TFModels/Other models trained in the process/Striker3_poca_REBUILD_12M.onnx (onnx, 840518 bytes, 9 tensors)

action_model._discrete_distribution.branches.0.bias f4 [5]
0	0x3e4eb360	0.20185614
1	0x3d6d0337	0.057864394
2	0x3d748c28	0.059703976
3	0xbe4b7233	-0.19867782
4	0xbd1e5c02	-0.038661964

action_model._discrete_distribution.branches.0.weight f4 [5, 256]
0	0xbe825320	-0.25454044
1	0xbe425825	-0.18978937
2	0x3e0ab957	0.13547264
3	0x3ef2dbbd	0.47433272
4	0x3dd271d2	0.10275616
5	0x3e6fe6dd	0.23427911
6	0x3e506a92	0.20353153
7	0x3e6ca1a3	0.23108535
8	0x3ecb0a10	0.39656115
9	0xbea23107	-0.3167803
10	0x3daba5bf	0.08381223
11	0x3e441921	0.19150211
12	0x3e9a1be7	0.30099413
13	0x3ede71b2	0.43446118
14	0x3e82e29d	0.25563517
15	0x3d47a755	0.048743565
16	0x3d79d0dd	0.060990203
17	0xbf76c41b	-0.96392983
18	0x3edfd2b7	0.4371545
19	0xbe0de85c	-0.1385817
20	0xbc950a72	-0.018193457
21	0x3da461aa	0.080264404
22	0x3eb74e28	0.35801816
23	0xbe73fd8a	-0.23827186
24	0x3d822c76	0.063561365
25	0x3cd783b6	0.026307922
26	0xbe91d210	-0.28480577
27	0x3d5ba703	0.05362607
28	0x3f28b22c	0.6589687
29	0x3f0dfae1	0.55460936
30	0x3e9fe1cf	0.31226966
31	0x3eba37ae	0.36370605
32	0xbf34dbb7	-0.7064776
33	0xbebc9d41	-0.36838725
34	0xbe3548b1	-0.17703511
35	0x3edbc5eb	0.42924437
36	0x3d4a8cf3	0.049450826
37	0x3d45b516	0.0482684
38	0x3d16626d	0.03671496
39	0xbec073a4	-0.37588227
40	0x3e3eeae3	0.1864429
41	0x3e5396aa	0.20662943
42	0x3ec9856b	0.39359602
43	0x3eb1f88d	0.34759942
44	0xbf5a241a	-0.85211337
45	0xbf0357d1	-0.5130587
46	0xbe7d8650	-0.24758267
47	0xbe23306f	-0.15936445
48	0xbed7aae1	-0.42122558
49	0x3ee8b1fb	0.45448288
50	0x3e293c15	0.16526826
51	0xbe8635e4	-0.2621299
52	0x3e8297e6	0.25506514
53	0x3dda6c71	0.10665215
54	0x3e0e2a5d	0.13883348
55	0xbe8c7d74	-0.27439463
56	0x3e091e43	0.1339045
57	0xbd2d83f1	-0.042362157
58	0x3db21cf9	0.08696932
59	0xbeb6d7b9	-0.35711458
60	0xbdff35b0	-0.12461412
61	0x3e3d9b2a	0.18516222
62	0xbe1e7f63	-0.15478282
63	0xbec67f61	-0.38769057
64	0x3e8ac4cd	0.27103272
65	0xbe72e7d6	-0.23721251
66	0xbb5e524c	-0.0033923564
67	0x3eb59cbb	0.35471138
68	0xbf06fb43	-0.52727145
69	0xbdf36975	-0.11885349
70	0xbf09dbc8	-0.53850985
71	0x3d8c0582	0.06836988
72	0x3e3ff2de	0.1874499
73	0xbe66dd4c	-0.22545356
74	0x3ed8c6f2	0.42339283
75	0x3eb10d2b	0.3458036
76	0x3e6d8e32	0.23198774
77	0x3e8d6c3e	0.27621645
78	0x3e2c1075	0.16803153
79	0x3e8635f5	0.2621304
80	0xbef61901	-0.4806595
81	0xbf12cfc0	-0.5734825
82	0x3f1c8f4f	0.6115617
83	0x3e996274	0.29957926
84	0x3cd5117d	0.026009316
85	0xbde01260	-0.10941005
86	0xbe4c303f	-0.1994028
87	0x3ee057bc	0.43816936
88	0xbea8875b	-0.32915768
89	0xbe04a82c	-0.12954777
90	0x3e614e4b	0.22002523
91	0xbe8d7dbb	-0.27634987
92	0x3ebd1a90	0.36934328
93	0x3e2d13c1	0.16902067
94	0x3e7a9ced	0.24473925
95	0xbec89adf	-0.39180657
96	0xbe6296fa	-0.22127905
97	0x3c87b116	0.016563933
98	0xbcabdcba	-0.020979274
99	0x3e612aa6	0.21988925
100	0x3ef39964	0.47577965
101	0x3ea32178	0.31861472
102	0x3ea6d7a5	0.325864
103	0xbe763ac9	-0.24045862
104	0xbd02669b	-0.031836133
105	0x3e1d813b	0.15381329
106	0x3d7ee249	0.06222752
107	0x3e18f99f	0.14938973
108	0xbf3b9513	-0.73274344
109	0x3ead550f	0.33853957
110	0x3e846b34	0.2586304
111	0xbe9e1626	-0.30876273
112	0xbec5863d	-0.38578978
113	0x3d45ec25	0.048320908
114	0x3e151edc	0.14562553
115	0x3de81210	0.1133157
116	0xbd97f3bc	-0.074195355
117	0xbedbf029	-0.42956665
118	0x3e2052e5	0.15656622
119	0x3e676940	0.22598743
120	0x3e8a6220	0.27027988
121	0xbeecae94	-0.46226943
122	0xbe09bc2a	-0.13450685
123	0x3ea36090	0.3190961
124	0x3dd02955	0.101641335
125	0xbeb176ab	-0.3466085
126	0x3de9530e	0.113927945
127	0x3e714b2b	0.2356383
128	0x3916490c	0.00014332327
129	0xbda363ab	-0.079779945
130	0x3a06f13a	0.000514764
131	0x3edc101d	0.42981043
132	0xbed64d8f	-0.41856048
133	0x3ee48025	0.44629017
134	0x3ee4aa62	0.44661242
135	0x3d9b057c	0.075694054
136	0xbf1bc327	-0.60844654
137	0x3db3b25b	0.08774253
138	0xbcba4386	-0.022737276
139	0xbb67bbc8	-0.003535973
140	0xbe4b37e7	-0.19845544
141	0x3d0f5ce0	0.035000682
142	0xbf00a88b	-0.50257176
143	0xbdd83dca	-0.1055866
144	0x3cd102b1	0.025513979
145	0xbe4ea056	-0.20178351
146	0x3e2282c0	0.1587019
147	0x3e948860	0.29010296
148	0xbd843504	-0.064554244
149	0x3e3a0562	0.18166116
150	0x3e26e798	0.16299284
151	0x3e3e00ac	0.18554944
152	0x3e1eb5f9	0.15499105
153	0xbe4f7fa3	-0.20263533
154	0xbf0dcd1e	-0.5539111
155	0x3e99a585	0.30009094
156	0x3e0dd263	0.13849787
157	0x3edcf0bf	0.43152425
158	0x3ebeaf4b	0.37243113
159	0x3e72324f	0.23652004
160	0x3e87d986	0.26533145
161	0xbe7bed4d	-0.24602242
162	0xbe1657c6	-0.1468192
163	0x3df4e80e	0.119583234
164	0x3f0c4dbf	0.5480613
165	0xbee08311	-0.43849996
166	0xbf24bcac	-0.6435039
167	0xbeec2284	-0.46120083
168	0xbeb297e0	-0.34881496
169	0x3e3ba47d	0.18324466
170	0xbd8bbe4b	-0.06823405
171	0xbf17c357	-0.5928244
172	0x3d66ab17	0.056315508
173	0xbe032e55	-0.12810643
174	0xbf065bf3	-0.52484053
175	0xbe8f74ab	-0.28018698
176	0x3dac5c00	0.08415985
177	0x3e823753	0.25432834
178	0xbeba132d	-0.36342755
179	0x3e7f9009	0.24957289
180	0xbea000be	-0.31250566
181	0x3f464413	0.77447623
182	0x3e21572a	0.15755907
183	0x3ed25679	0.41081598
184	0xbce650ea	-0.028114755
185	0xbf68445d	-0.90729314
186	0x3e98a932	0.29816586
187	0xbed11b94	-0.40841353
188	0x3eece712	0.46270043
189	0xbdf7e049	-0.12103326
190	0x3eb509e2	0.35359102
191	0xbf602de2	-0.8757001
192	0x3ee58b34	0.44832766
193	0xbf280391	-0.6563044
194	0xbe8154fd	-0.25260153
195	0xbf3504c2	-0.70710385
196	0x3de11912	0.1099111
197	0xbdf96ec6	-0.121793315
198	0xbd8fe910	-0.07026875
199	0x3ec62457	0.386996
200	0xbcb10858	-0.021610424
201	0x3e45f699	0.19332351
202	0xbe09ef8c	-0.13470286
203	0xbd177166	-0.03697338
204	0xbdfa6073	-0.122254275
205	0xbe446e4d	-0.19182701
206	0xbef52f69	-0.47887734
207	0x3ec1b377	0.37832233
208	0xbf66de0a	-0.90182555
209	0xbf00ed3e	-0.50362
210	0xbe153ffd	-0.14575191
211	0xbe4bbdc2	-0.19896606
212	0x3cd2d12a	0.025734503
213	0xbe354c47	-0.17704879
214	0x3eaa158d	0.33219567
215	0xbe6b94d5	-0.23005994
216	0x3e9789d5	0.29597345
217	0x3e9e447c	0.30911624
218	0x3eb320b2	0.34985882
219	0xbb031f29	-0.0020007587
220	0x3eec9641	0.46208385
221	0xbf518f58	-0.8185935
222	0x3e872006	0.2639162
223	0x3dfb437d	0.12268732
224	0x3bcf82b4	0.0063327197
225	0x3e7ef0b9	0.24896516
226	0x3e96bf8c	0.29443014
227	0x3e77c321	0.2419553
228	0xbd3ccf49	-0.04609612
229	0xbe35332c	-0.17695302
230	0x3dfe14c3	0.12406304
231	0x3f0aba71	0.54190737
232	0xbecec339	-0.40383318
233	0x3ecc4ab7	0.39900753
234	0x3e185e52	0.1487973
235	0x3e269bb7	0.16270338
236	0xbe92da80	-0.28682327
237	0xbf01660a	-0.50546324
238	0x3e972675	0.29521528
239	0xbeb2883f	-0.34869573
240	0x3ea05ec9	0.31322315
241	0xbe87efea	-0.26550227
242	0xbf02be55	-0.51071674
243	0x3e9ceb46	0.3064825
244	0x3f048028	0.5175805
245	0xbeee4e60	-0.4654417
246	0xbced31ed	-0.02895447
247	0xbf1094f5	-0.5647729
248	0x3e8f76a9	0.28020218
249	0x3d875e90	0.06609833
250	0x3e9aa885	0.30206695
251	0xbf3aad61	-0.72920805
252	0x3c91c337	0.017793281
253	0xbf34d799	-0.70641476
254	0xbf0c79f1	-0.5487357
255	0xbdb31ff4	-0.08746329

action_model._discrete_distribution.branches.1.bias f4 [3]
0	0xbe37cf1e	-0.17950103
1	0x3e809094	0.25110304
2	0xbd271550	-0.04079181

action_model._discrete_distribution.branches.1.weight f4 [3, 256]
0	0xbeeadc08	-0.45870996
1	0x3e0264f9	0.1273383
2	0xbe72d628	-0.23714507
3	0xbdf9a15a	-0.121889785
4	0x3d9bd095	0.07608143
5	0xbf39f4c0	-0.72639084
6	0xbd1dcde0	-0.038526416
7	0xbe670f8d	-0.22564526
8	0xbc9b496d	-0.01895591
9	0x3e3a417d	0.18189044
10	0x3c905549	0.017618792
11	0xbef6ad04	-0.48178875
12	0xbe670f5b	-0.22564451
13	0xbda4a909	-0.080400534
14	0x3d65bdfd	0.05608939
15	0xbf453425	-0.7703269
16	0x3e5ce022	0.21569875
17	0xbe7d527b	-0.24738495
18	0x3e770915	0.24124558
19	0x3f0c9eb8	0.54929686
20	0xbdf89345	-0.121374644
21	0xbe916d72	-0.28403813
22	0xbf1989fd	-0.5997618
23	0x3d271b37	0.04079744
24	0x3e6314d0	0.22175908
25	0xbf1bfe85	-0.6093524
26	0xbf54efd7	-0.83178467
27	0x3ecfc293	0.40578136
28	0xbf2bfb49	-0.67180306
29	0xbd59ea03	-0.053201687
30	0x3df0ed7f	0.11764049
31	0x3ef3be99	0.47606352
32	0x3c7561cb	0.014976929
33	0x3e731cfb	0.23741524
34	0x3e00869d	0.12551351
35	0xbec26ba4	-0.37972748
36	0x3f0706ac	0.52744555
37	0x3e68362c	0.22676915
38	0x3e1efb06	0.15525445
39	0xbe8c8aab	-0.27449545
40	0x3ec8585d	0.39129916
41	0xbf3f89ab	-0.7481944
42	0xbd58142b	-0.05275361
43	0xbe73eaad	-0.2381999
44	0x3ebc6c37	0.3680131
45	0xbf112d17	-0.56709427
46	0x3dbbde20	0.09173226
47	0xbe6ff1da	-0.23432103
48	0xbcf9f198	-0.030510709
49	0xbe95b962	-0.29242998
50	0x3d4c2ba8	0.04984632
51	0x3ea889f4	0.3291775
52	0xbde94200	-0.113895416
53	0x3e2bd079	0.16778745
54	0x3da8356e	0.08213316
55	0x3e6fed4d	0.23430367
56	0x3ea8f4cd	0.32999268
57	0x3f321858	0.69568396
58	0x3ea46063	0.32104787
59	0x3e162d01	0.14665605
60	0x3eaa3fcf	0.33251807
61	0xbedca3da	-0.4309376
62	0xb903be0b	-0.0001256393
63	0xbe47e1d6	-0.19519743
64	0x3d99fe18	0.07519168
65	0x3d309fe0	0.04312122
66	0x3cff267e	0.031146284
67	0x3d3c98b4	0.046044067
68	0x3ec9ed34	0.39438784
69	0x3eb2a026	0.3488781
70	0x3dd1eeaf	0.102506034
71	0x3df484b3	0.11939373
72	0xbf4b3e4f	-0.7939195
73	0x3c8955df	0.01676458
74	0xbe94f478	-0.29092765
75	0x3d92fa43	0.0717664
76	0x3f05acb0	0.52216625
77	0xbd8d26f5	-0.06892196
78	0x3ea51c60	0.3224821
79	0x3df33154	0.11874643
80	0x3e54b13d	0.20770736
81	0x3db3e8ff	0.08784675
82	0x3e4af79e	0.19821021
83	0xbdb61af1	-0.088918574
84	0x3ec6058c	0.38676107
85	0xbf78d9cc	-0.9720733
86	0xbf1a86db	-0.60362023
87	0xbd79ee93	-0.061018538
88	0xbc334c46	-0.010943478
89	0xbdeb80b5	-0.11499158
90	0x3e96c8d0	0.29450083
91	0xbe497a32	-0.1967552
92	0xbed1f5bb	-0.4100779
93	0xbcaa9605	-0.020823488
94	0xbecaaac0	-0.39583397
95	0x3c43e6e1	0.011956901
96	0x3dfe2d49	0.12410981
97	0xbdd50877	-0.10402005
98	0x3f1cdae1	0.6127148
99	0x3e015620	0.1263051
100	0x3e47f237	0.19525991
101	0xbea3c204	-0.3198396
102	0xbf308b1b	-0.6896226
103	0x3ea3544d	0.31900254
104	0xbd71ce62	-0.059034713
105	0x3ed7b507	0.421303
106	0x3e1eea4e	0.15519068
107	0x3e36f84b	0.17868154
108	0x3d10c243	0.035341512
109	0x3e4b5e80	0.19860268
110	0xbf2f9fce	-0.6860322
111	0x3e5789f8	0.21048725
112	0xbefa8646	-0.48930568
113	0x3f1a47a8	0.6026559
114	0xbda2f78a	-0.079573706
115	0x3e752f16	0.23943743
116	0xbed2991e	-0.41132444
117	0x3f25b298	0.6472564
118	0x3eaba178	0.33521628
119	0x3f345fdd	0.70458776
120	0xbdcfaa8b	-0.1013995
121	0xbf0b64e0	-0.544508
122	0x3f202c7c	0.6256788
123	0x3e84bf1f	0.25927064
124	0xbf08b3b8	-0.5339923
125	0x3e14bdc1	0.1452551
126	0x3e2eb0c1	0.17059614
127	0xbdd32984	-0.10310653
128	0x3e9a2d1d	0.30112544
129	0xbe0e6eed	-0.13909502
130	0x3f096010	0.53662205
131	0xbedbdcfb	-0.42942032
132	0xbec8f1c4	-0.39246953
133	0x3e8aa7ea	0.27081233
134	0x3efb3544	0.49064076
135	0xbe3c5407	-0.18391429
136	0x3e324f2d	0.17413016
137	0x3c77b7d0	0.015119508
138	0xbef9300a	-0.48669463
139	0xbe50ef48	-0.20403779
140	0x3eacdb73	0.33761176
141	0xbe5e1fd3	-0.21691827
142	0xbf029ac7	-0.5101742
143	0xbf0fa4bc	-0.5611074
144	0xbe98ac42	-0.29818922
145	0xbdc7a932	-0.09749068
146	0x3f017462	0.5056821
147	0xbe69c06d	-0.22827311
148	0x3d341837	0.043968406
149	0xbe0870df	-0.13324307
150	0xbed33e8a	-0.4125865
151	0xbf243a26	-0.6415123
152	0xbdd5c07f	-0.10437106
153	0xbf3a0d55	-0.72676593
154	0xbf0c2bb3	-0.5475418
155	0xbea8c8f5	-0.32965818
156	0x3e80a0bb	0.25122628
157	0x3e8a1682	0.26970297
158	0xbf590206	-0.8476871
159	0xbda50fee	-0.08059679
160	0x3db545a9	0.08851177
161	0x3eb0dbfa	0.3454283
162	0x3eaf8492	0.3428083
163	0xbca96d68	-0.020682052
164	0x3da313d7	0.079627685
165	0xbf17d35f	-0.593069
166	0xbe6ddef4	-0.23229581
167	0xbcd83f5c	-0.0263974
168	0x3c16aee7	0.009196973
169	0x3e1ef20d	0.15522023
170	0x3d6ab1bc	0.057298407
171	0xbdc273b6	-0.09494726
172	0xbe2cafc5	-0.16863926
173	0x3f4a1709	0.789414
174	0xbf5b92fe	-0.8577117
175	0xbf1d549c	-0.6145723
176	0xbe2206bb	-0.1582288
177	0xbec40fa4	-0.38293183
178	0xbe8e9af9	-0.2785261
179	0x3e07bddf	0.13256024
180	0x3ea4ccbb	0.32187447
181	0x3eab8253	0.33497867
182	0x3c054849	0.00813491
183	0xbec18069	-0.37793282
184	0x3e256459	0.16151561
185	0x3e060df5	0.13091262
186	0xbdc1a6a2	-0.09455611
187	0xbeb32452	-0.34988648
188	0xbe5509a2	-0.20804456
189	0x3e26bcdf	0.16282986
190	0xbcfb1958	-0.030651733
191	0x3e4f243a	0.20228663
192	0xbc45917b	-0.012058611
193	0xbc527868	-0.01284609
194	0xbf04c181	-0.51857764
195	0x3e8416c0	0.25798607
196	0x3e9c4341	0.3052006
197	0x3eaf1ce1	0.3420172
198	0xbee6d7b6	-0.4508645
199	0x3e975682	0.29558188
200	0x3e3fdc47	0.18736373
201	0x3e872cd6	0.26401395
202	0xbd6ccf44	-0.05781485
203	0xbea88b17	-0.32918617
204	0x3efb2e66	0.49058837
205	0x3eb190ab	0.34680685
206	0x3ec32a3d	0.38118163
207	0xbeeab182	-0.45838553
208	0x3d8552be	0.065099224
209	0xbe624bce	-0.2209923
210	0x3c064973	0.008196223
211	0x3eb5079a	0.35357362
212	0x3e221157	0.15826927
213	0xbe0cdd0d	-0.13756199
214	0xbe4f4e39	-0.20244683
215	0xbf3f9f94	-0.7485287
216	0xbe7dc8a1	-0.24783565
217	0xbe371d80	-0.17882347
218	0x3e68b43b	0.22725002
219	0x3e040a7c	0.12894624
220	0x3e68f899	0.22751082
221	0xbe8a42e6	-0.27004164
222	0xbee603ca	-0.44924766
223	0x3e019093	0.12652807
224	0x3f05b8dc	0.522352
225	0xbed26aff	-0.41097257
226	0x3eb4e3da	0.35330087
227	0xbb9ab34b	-0.0047210804
228	0x3df5f2cb	0.120092
229	0x3efe3b1a	0.49654466
230	0x3e5dc6c0	0.21657848
231	0x3eb8561a	0.3600319
232	0xbd9a4b8e	-0.07533942
233	0xbea80df2	-0.3282314
234	0xbebf9057	-0.3741481
235	0x3f2a4473	0.66510695
236	0xbef6df5c	-0.48217285
237	0xbeb4adf4	-0.35288966
238	0x3ede1a96	0.43379658
239	0xbeeec350	-0.46633387
240	0x3edc5fbb	0.43041787
241	0x3e9c378e	0.30511135
242	0xbdbf1168	-0.09329492
243	0xbd1c218a	-0.038117923
244	0x3eb86962	0.360179
245	0x3e8bcec2	0.2730618
246	0x3f132122	0.5747243
247	0xbf2b1ef7	-0.66844124
248	0x3e5ff489	0.21870627
249	0x3ec1857c	0.37797153
250	0x3eefa9c7	0.46809217
251	0x3e98a10d	0.29810372
252	0xbe3f1cef	-0.18663381
253	0x3e1e04eb	0.15431564
254	0xbee788da	-0.45221597
255	0x3bbd623a	0.005779532

discrete_action_output_shape f4 [1, 2]
0	0x40a00000	5.0
1	0x40400000	3.0

network_body._body_endoder.seq_layers.0.bias f4 [256]
0	0xbe4f91e0	-0.2027049
1	0x3d1796e9	0.037009154
2	0xbeea9393	-0.45815715
3	0xbf233927	-0.6375908
4	0xbe1cd0c6	-0.15314016
5	0xbd8ecf55	-0.06973139
6	0xbe164422	-0.14674428
7	0xbda4d83c	-0.08049056
8	0xbe896aab	-0.26839194
9	0xbd33a614	-0.043859556
10	0xbd40e3bc	-0.047092184
11	0xbdba5949	-0.09099061
12	0xbea7bba0	-0.32760334
13	0xbd228851	-0.039680783
14	0xbd9aabc4	-0.07552293
15	0x3c8b01a5	0.016968558
16	0x3c3852b5	0.011250188
17	0x3f136db5	0.57589275
18	0xbdae8c6b	-0.08522876
19	0xbd38879c	-0.045051202
20	0xbddc2472	-0.10749139
21	0xbe6da0c4	-0.23205858
22	0x3f8fbc7c	1.1229396
23	0xbe5026ab	-0.2032725
24	0xbe9f6b4c	-0.3113655
25	0xbdc5857f	-0.09644603
26	0xbe6d334a	-0.23164096
27	0x3ca3b04e	0.01998153
28	0xbe563b44	-0.20921046
29	0xbed0c2d8	-0.40773654
30	0xbee7f2f2	-0.4530254
31	0xbdc3f3f9	-0.095680185
32	0xbe81b060	-0.25329876
33	0xbdbe5788	-0.09294039
34	0xbc829325	-0.015939305
35	0xbde4cb7b	-0.11171623
36	0x3d44d0fe	0.048050873
37	0xbe8d8708	-0.27642083
38	0xbe22c27b	-0.15894501
39	0x3d176e97	0.0369707
40	0xbe67fcd1	-0.22655036
41	0xbea7d8d3	-0.3278261
42	0xbe1d8a48	-0.15384781
43	0xbea0f3d6	-0.31436032
44	0x3dc71f5d	0.09722779
45	0xbd8a9479	-0.067666
46	0x3e59fe27	0.21288358
47	0xbd3d5180	-0.046220303
48	0xbc0638f6	-0.0081922915
49	0xbf22697d	-0.6344221
50	0xbe260050	-0.16211057
51	0xbe690611	-0.2275622
52	0x3d7065b5	0.058690745
53	0x3e673981	0.2258053
54	0xbe2f96a0	-0.17147303
55	0xbe1f8c47	-0.15580855
56	0xbda21b91	-0.07915414
57	0xbe58cf4f	-0.21172832
58	0x3db1ca1d	0.08681128
59	0x3c8cfa9f	0.01720935
60	0xbdb040cc	-0.08606109
61	0xbd0a1cb6	-0.033718787
62	0xbe6b7b5e	-0.2299628
63	0x3c92df0f	0.017928628
64	0xbe113530	-0.14180446
65	0xbb1a1b42	-0.0023514782
66	0x3cc39543	0.023874884
67	0x3e085f13	0.13317518
68	0xbc6c26fa	-0.01441359
69	0xbd7c41ac	-0.061586067
70	0xbe9cf421	-0.30655006
71	0xbd58d619	-0.052938554
72	0x3d1643d4	0.03668578
73	0xbe98e4ac	-0.29861963
74	0xbebe2f20	-0.3714533
75	0xbd5e9d07	-0.05434897
76	0xbe2502b1	-0.16114308
77	0x3d811858	0.06303471
78	0xbe0bdbb8	-0.13658035
79	0xbe09a53e	-0.13441941
80	0xbd64f9b2	-0.05590219
81	0x3dbd26a0	0.09235883
82	0x3da15f20	0.07879472
83	0xbebf94b1	-0.3741813
84	0x3b1897ff	0.0023283956
85	0xbe4c47a0	-0.19949198
86	0x3c755ff2	0.014976488
87	0xbf155b91	-0.58342844
88	0xbe93e86f	-0.2888827
89	0xbec982d4	-0.39357626
90	0xbd77a375	-0.06045862
91	0xbe481a7d	-0.19541354
92	0x3cb96615	0.022631684
93	0x3f0157c7	0.5052456
94	0x3dcefa3a	0.10106321
95	0xbef29b56	-0.47384137
96	0xbd84e523	-0.06489017
97	0xbe0525d5	-0.13002713
98	0xbe2519b8	-0.16123092
99	0xbea11c48	-0.3146689
100	0x3d244a3d	0.04010986
101	0xbd62388e	-0.055229716
102	0xbdde794d	-0.1086298
103	0xbe850789	-0.2598231
104	0xbe1da885	-0.15396316
105	0x3dfe8556	0.124277756
106	0xbc048597	-0.008088491
107	0xbe374d58	-0.17900598
108	0xbe55680e	-0.20840475
109	0xbe1dd4fa	-0.15413275
110	0x3cb74386	0.022371065
111	0x3dc645e9	0.09681303
112	0x3e91b2b3	0.2845665
113	0x3e35ffaa	0.1777331
114	0x3c6b9ca9	0.014380612
115	0xbe624470	-0.2209642
116	0xbed7b7c3	-0.42132387
117	0xbdbfbec1	-0.09362555
118	0xbc0cf30b	-0.008602868
119	0xbe56b781	-0.20968439
120	0xbeb8f64f	-0.3612542
121	0xbe3c43b2	-0.18385199
122	0xbd15757a	-0.036488988
123	0xbeacb210	-0.337296
124	0xbe5f03f6	-0.21778855
125	0x3d807d21	0.062738664
126	0xbdc0fe15	-0.09423462
127	0x3f0fe251	0.56204706
128	0xbe6439b3	-0.22287636
129	0xbd45bebd	-0.048277605
130	0xbb9bc66a	-0.0047538774
131	0x3d35cbfc	0.044383988
132	0x3e46bf88	0.19409001
133	0xbeae846b	-0.34085402
134	0xbdddb93d	-0.10826347
135	0x3d19f71d	0.03758918
136	0xbe2f3144	-0.17108637
137	0xbf0fb267	-0.56131595
138	0xbdc6d01e	-0.09707664
139	0xbdf382ea	-0.11890204
140	0xbde7f10e	-0.113252744
141	0xbd32ff52	-0.043700524
142	0xbe24e52f	-0.16103052
143	0xbec2648b	-0.37967333
144	0xbcee49bc	-0.029087894
145	0xbe7053f8	-0.23469532
146	0x3eecc55b	0.4624432
147	0xbdda2a2d	-0.10652576
148	0xbda98266	-0.08276825
149	0x3d5c8b90	0.053844035
150	0x3d3686c2	0.04456211
151	0x3c9308c7	0.017948521
152	0x3e4b1a6f	0.19834302
153	0x3ecaa6c7	0.39580366
154	0xbe0df4cf	-0.13862918
155	0xbd89a80b	-0.06721505
156	0xbd4414a5	-0.04787125
157	0xbdb87b59	-0.09007902
158	0xbe4483fb	-0.19190972
159	0x3c3307d8	0.010927163
160	0xbe2d0b5d	-0.16898866
161	0xbcfd79f0	-0.030941933
162	0xbe37167c	-0.17879671
163	0x3d8122bb	0.063054524
164	0xbdd74327	-0.10510855
165	0xbe56d638	-0.20980155
166	0xbea4ec65	-0.32211605
167	0xbed70af1	-0.42000535
168	0x3cde90be	0.027168628
169	0xbd9d6b84	-0.076865226
170	0xbd78cb26	-0.060740612
171	0x3d2d1771	0.042258684
172	0xbdbad4ba	-0.091226056
173	0xbd83d0c4	-0.06436303
174	0xbdf528ae	-0.1197065
175	0xbd9f21da	-0.077701285
176	0xbdf217c8	-0.11820942
177	0xbdab86d9	-0.083753295
178	0xbe0c49ca	-0.13700023
179	0xbc163b50	-0.009169415
180	0xbd5d4512	-0.05402095
181	0xbdea7ef4	-0.11449996
182	0x3d2b34bc	0.04179834
183	0xbe2a5cea	-0.16637006
184	0xbe888098	-0.2666061
185	0xbeb4ae6d	-0.35289326
186	0xbd189f0a	-0.037261046
187	0x3db2ce60	0.08730769
188	0x3e71bcaf	0.23607133
189	0x3dbb5db3	0.09148731
190	0xbedf32a9	-0.43593338
191	0xbed80266	-0.4218933
192	0xbdc070f3	-0.09396543
193	0xbe01d60e	-0.12679312
194	0x3c3bf07a	0.011470908
195	0xbe2a03f5	-0.16603072
196	0x3de80dc3	0.1133075
197	0xbcc1c24b	-0.023652216
198	0x3dfaab86	0.12239747
199	0x3dfd031a	0.12354107
200	0xbe424acc	-0.18973845
201	0xbe21396d	-0.15744562
202	0x3df1e3b0	0.11811006
203	0xbe25082d	-0.161164
204	0xbe544349	-0.20728792
205	0xbe24072c	-0.16018361
206	0xbe64ab50	-0.22330976
207	0xbc868f99	-0.016425895
208	0xbe087147	-0.13324462
209	0xbd48458b	-0.048894446
210	0xbd69df8d	-0.05709796
211	0x3d9fad4e	0.07796727
212	0xbe8472e3	-0.25868902
213	0xbdc8e180	-0.09808636
214	0xbdeb2c18	-0.114830196
215	0xb874eeaf	-5.8396425e-05
216	0xbe9f889d	-0.31158915
217	0xbd8f6b92	-0.07002939
218	0xbcd665eb	-0.026171645
219	0xbd82c9da	-0.063861564
220	0xbedddc82	-0.43332297
221	0xbe017434	-0.12641984
222	0xbc28fed9	-0.010314667
223	0xbe881b2f	-0.2658324
224	0xbeea9bfe	-0.45822138
225	0xbf5d5956	-0.8646444
226	0xbc8806bb	-0.016604772
227	0xbcaafd3e	-0.020872708
228	0x3e7bcf11	0.24590708
229	0xbe040b3b	-0.12894909
230	0x3cc2fecc	0.023803137
231	0xbe5d8ba7	-0.21635304
232	0xbde05496	-0.109536335
233	0xbe29a41b	-0.16566508
234	0xbe755cd4	-0.23961192
235	0xbeb87c73	-0.36032447
236	0x3c5e9981	0.013586403
237	0x3e4d6aee	0.20060322
238	0xbeb52390	-0.35378695
239	0xbeac0e17	-0.336045
240	0xbdfce51f	-0.12348389
241	0xbdfb71e9	-0.12277586
242	0xbd9d4dfb	-0.07680889
243	0xbe6cb1d3	-0.2311471
244	0x3e7e0916	0.24808154
245	0xbd55bff5	-0.052185018
246	0xbd8a6b71	-0.06758774
247	0x3cb1ab4d	0.021688128
248	0xbe083b5d	-0.13303895
249	0xbe5e45a4	-0.21706253
250	0xbe251dd2	-0.16124657
251	0xbce78309	-0.028260725
252	0x3e8c592d	0.27411786
253	0x3bf7ad4d	0.007558501
254	0xbe738e41	-0.23784734
255	0xbe8afcce	-0.27146

network_body._body_endoder.seq_layers.0.weight f4 [256, 552]
0	0xbf19b6e9	-0.60044724
1	0xbdf4f745	-0.119612254
2	0x3ed1f7af	0.4100928
3	0x3e6aa345	0.22913845
4	0xbf6497c7	-0.89294094
5	0xbe1de7e0	-0.15420485
6	0xbe41e22e	-0.18933937
7	0xbd40de3f	-0.04708695
8	0xbe0fd3e3	-0.14045672
9	0xbe86153c	-0.26188076
10	0x3f299c42	0.66254056
11	0xbd00d7e5	-0.031455893
12	0x3e61dbc1	0.22056486
13	0xbeeb816d	-0.45997182
14	0x3d71eb6c	0.059062406
15	0xbf460e7a	-0.7736584
16	0x3f0ba35b	0.54546136
17	0x3e0fcfc9	0.14044107
18	0x3dc83ea0	0.0977757
19	0x3e8cc94d	0.2749733
20	0xbf0fb7ce	-0.5613984
21	0x3ee9b09a	0.4564255
22	0x3df5dccb	0.120050035
23	0x3ded3ea4	0.115842134
24	0x3df0db25	0.117605485
25	0xbede40c1	-0.43408778
26	0x3e588d1c	0.21147579
27	0x3e89075e	0.26763433
28	0xbe167b02	-0.14695361
29	0xbe709eb5	-0.23498042
30	0xbdfc7883	-0.12327673
31	0x3ccfa58f	0.0253475
32	0xbdb0f22a	-0.08639939
33	0xbda086db	-0.07838222
34	0x3f3b4b76	0.7316202
35	0x3d5424eb	0.05179302
36	0x3e291351	0.16511275
37	0xbf29599e	-0.6615237
38	0x3c79a8e9	0.015238025
39	0xbf2476b0	-0.642436
40	0x3f013633	0.50473326
41	0xbe50c3ed	-0.2038724
42	0x3e182e05	0.14861305
43	0x3ea3ebb3	0.32015762
44	0xbeaab330	-0.33339834
45	0x3e82ca9d	0.25545207
46	0xbd7153dd	-0.05891787
47	0x3ea30374	0.31838572
48	0xbe9361e7	-0.2878563
49	0xbed75a03	-0.4206086
50	0x3e6b08c6	0.22952566
51	0x3f017857	0.5057425
52	0xbde10003	-0.1098633
53	0x3ea0b191	0.31385472
54	0xbeaaef21	-0.33385566
55	0xbe5e3029	-0.21698059
56	0xbd20b788	-0.03923753
57	0xbe3dc8d1	-0.18533637
58	0x3e6301a8	0.221686
59	0x3e6dd4dc	0.2322573
60	0x3e090f5f	0.1338477
61	0x3da30b60	0.07961154
62	0xbeb4a45a	-0.3528164
63	0xbf53f81c	-0.8280046
64	0x3e958079	0.2919958
65	0xbe6927e5	-0.22769125
66	0x3d67f9ed	0.056634832
67	0x3f001852	0.5003711
68	0x3e46a536	0.1939896
69	0xbdb30d9e	-0.08742832
70	0xbe1163c4	-0.14198214
71	0x3e8662d5	0.26247278
72	0xbf56e388	-0.83940935
73	0x3d40d3af	0.047076877
74	0x3ebcc72b	0.36870703
75	0xbe384166	-0.17993698
76	0xbe5bf224	-0.21479088
77	0x3e0da369	0.13831867
78	0x3dd2e167	0.10296898
79	0xbd269e2a	-0.04067818
80	0xbedbfbac	-0.42965448
81	0xbee880ea	-0.45410854
82	0xbd0de75c	-0.03464447
83	0x3d7b8764	0.061408415
84	0x3ed4867b	0.4150885
85	0x3dbb4b3a	0.09145208
86	0x3dd2a53f	0.102854244
87	0xbe629fad	-0.22131224
88	0xbf0c1df2	-0.5473319
89	0x3e6e88cc	0.23294371
90	0x3d84abb3	0.064780615
91	0xbee21874	-0.4415928
92	0x3d7e7290	0.062120974
93	0xbe7bb89f	-0.24582146
94	0xbc471c5d	-0.012152758
95	0xbd08aac7	-0.03336599
96	0xbe9bdcb5	-0.30441824
97	0xbdc63d9a	-0.09679718
98	0xbf0506ae	-0.5196332
99	0xbe469281	-0.19391824
100	0x3f01b3aa	0.5066477
101	0xbe3304e8	-0.1748234
102	0x3d414149	0.0471814
103	0xbdb768ef	-0.08955561
104	0xbf356de6	-0.70870817
105	0x3da5e61a	0.08100529
106	0x3e72f210	0.23725152
107	0xbf11e162	-0.5698453
108	0xbea8661a	-0.32890397
109	0xbeab8d96	-0.3350646
110	0xbdcd2a4c	-0.10017833
111	0x3e0b7991	0.13620593
112	0xbea6b968	-0.3256333
113	0x3e5d4696	0.21608958
114	0x3cf2b4c5	0.029627213
115	0xbe9d7fbd	-0.3076152
116	0xbeb3d159	-0.35120657
117	0xbe0b9c6e	-0.13633892
118	0x3e6d98d2	0.23202828
119	0x3db256f2	0.0870799
120	0xbec948b3	-0.39313278
121	0x3df90edd	0.12161038
122	0x3dacfaa3	0.08446243
123	0xbf08abad	-0.53386956
124	0xbd114052	-0.03546173
125	0x3e74dab6	0.23911557
126	0x3e1cc6d2	0.15310219
127	0x3d1ee188	0.038789302
128	0xbea0a083	-0.3137246
129	0x3ea6ca40	0.3257618
130	0x3ef3b6aa	0.476003
131	0xbf5a554a	-0.8528639
132	0xbe8cd370	-0.27505064
133	0xbe87251d	-0.26395503
134	0x3e0d8a7c	0.13822359
135	0xbc3f4705	-0.011674647
136	0xbe2d4e75	-0.1692446
137	0xbe1edc5c	-0.15513748
138	0x3d342b00	0.04398632
139	0xbe620c2e	-0.22074959
140	0xbd26f843	-0.040764105
141	0x3ee6faaa	0.45113117
142	0x3e6c4e2f	0.230767
143	0x3d6bddc3	0.057584535
144	0xbee65142	-0.4498387
145	0x3e7bf1c5	0.24603947
146	0x3eb6f81a	0.3573616
147	0x3ebb8503	0.36624917
148	0x3e08e7a9	0.13369621
149	0xbefd0f29	-0.4942563
150	0x3e5d815f	0.21631382
151	0x3d58b86f	0.052910265
152	0xbec58762	-0.3857985
153	0x3eb16db8	0.3465402
154	0x3d0041d8	0.031312793
155	0x3d844c45	0.0645986
156	0xbdb346de	-0.08753751
157	0x3eeec22d	0.4663252
158	0x3df79f3d	0.12090919
159	0xbd5fb948	-0.054620057
160	0x3d018086	0.03161671
161	0x3e2ab54a	0.16670719
162	0x3d6f95d2	0.05849249
163	0xbeb2f112	-0.34949547
164	0xbe94e0d1	-0.2907777
165	0x3e3a086b	0.18167274
166	0x3dbcb1e2	0.09213616
167	0xbcd0bc22	-0.025480334
168	0xbf314fb7	-0.6926226
169	0x3ca86cb9	0.020559656
170	0x3edceb9a	0.431485
171	0x3eba68ce	0.36408085
172	0xbe1c86b8	-0.15285766
173	0x3eed225d	0.4631528
174	0xb96cfd95	-0.0002260118
175	0xbe30003f	-0.17187594
176	0x3de74bc1	0.11293746
177	0xbec02cd1	-0.37534192
178	0x3ecf4961	0.4048567
179	0xbe82a757	-0.25518295
180	0xbe5daab1	-0.21647145
181	0xbdbca0c6	-0.092103526
182	0x3e0bc2fa	0.13648596
183	0x3dcaf809	0.0991059
184	0xbf1ce27a	-0.61283076
185	0x3e78c21d	0.24292798
186	0x3f1893d9	0.596006
187	0x3e650857	0.22366463
188	0xbe8f78ac	-0.28021753
189	0x3e9fdf64	0.3122512
190	0xbbd2f269	-0.006437589
191	0xbdde2586	-0.10847001
192	0xbecff42e	-0.40615982
193	0x3e1cd8c7	0.15317069
194	0x3dac5b13	0.084158085
195	0xbdca90dd	-0.09890912
196	0x3ba499d2	0.0050232196
197	0x3e9a0130	0.3007903
198	0x3d93d28c	0.07217893
199	0xbe909718	-0.28240275
200	0x3d18efe3	0.03733815
201	0xbee0ddf1	-0.43919328
202	0x3de0f98a	0.10985096
203	0x3ebc3200	0.36756897
204	0x3f362a4d	0.71158296
205	0xbe49472a	-0.19656053
206	0x3e44d87a	0.19223204
207	0xbead4b48	-0.33846498
208	0x3e26fd92	0.16307667
209	0xbbab5091	-0.00522811
210	0x3ef31a58	0.47481036
211	0xbe9f48e9	-0.31110314
212	0xbedf2883	-0.43585595
213	0xbe67f2ad	-0.22651167
214	0x3d068b54	0.032847717
215	0xbe3492cb	-0.17634122
216	0xbdef15dc	-0.11674091
217	0xbe31c469	-0.17360081
218	0xbe8619d3	-0.26191577
219	0x3f047bfc	0.51751685
220	0x3e10d21b	0.14142649
221	0x3ea8c7ff	0.32965085
222	0x3e5393f9	0.20661916
223	0x3cd24883	0.025669342
224	0xbe48e231	-0.19617535
225	0x3e352339	0.17689218
226	0x3e740c03	0.23832707
227	0xbeaecbc6	-0.34139842
228	0x3d571203	0.05250741
229	0xbd023f9b	-0.03179894
230	0xbc9e42e8	-0.019319013
231	0xbe2821b5	-0.16419108
232	0xbdb4da1b	-0.08830663
233	0xbf1d4895	-0.61438876
234	0xbeb7ba10	-0.35884142
235	0x3d1b3716	0.03789433
236	0xbebabc51	-0.364718
237	0x3f33bbd4	0.7020848
238	0x3d9e91ad	0.07742629
239	0x3db6edb7	0.08932059
240	0xbdd59d33	-0.10430374
241	0x3dbc907f	0.09207248
242	0x3e4dbb9d	0.200911
243	0xbe48019f	-0.19531868
244	0x3e7787f2	0.24172953
245	0x3eb798c6	0.35858744
246	0xbdac4d21	-0.08413149
247	0xbeae6109	-0.34058407
248	0x3ec99ec8	0.39378953
249	0xbf788d0f	-0.9709024
250	0x3e5be8a3	0.21475463
251	0xbe8bfe3e	-0.2734241
252	0xbe26c499	-0.16285934
253	0x3f1097db	0.56481713
254	0x3e524053	0.2053235
255	0xbe037ac7	-0.12839805

network_body._body_endoder.seq_layers.2.bias f4 [256]
0	0xbe2c277c	-0.16811937
1	0xbe25ffb7	-0.16210829
2	0xbe9c8d08	-0.30576348
3	0xbe323a5b	-0.17405073
4	0xbe8bf3ac	-0.27334344
5	0xbd28db6d	-0.041224886
6	0xbecad5b9	-0.39616182
7	0xbe8baed2	-0.27281815
8	0xbec62675	-0.38701215
9	0xbf086a92	-0.53287613
10	0xbcaeee12	-0.021353755
11	0xbe822e02	-0.25425726
12	0xbe953e4b	-0.29149088
13	0xbea0f5ca	-0.31437522
14	0xbdb93211	-0.090427525
15	0xbe3ecdd2	-0.18633202
16	0x3e3617fc	0.17782587
17	0xbed33e1a	-0.41258317
18	0x3d319d00	0.043362617
19	0xbcaf3967	-0.021389676
20	0x3bb80cc3	0.0056167557
21	0xbe4e6681	-0.2015629
22	0xbf20a85a	-0.62756884
23	0xbeb5e6d7	-0.3552768
24	0xbe95b3ab	-0.29238638
25	0xbec6386a	-0.38714916
26	0x3d881f93	0.06646647
27	0xbdbcf360	-0.092261076
28	0xbe867b44	-0.2626592
29	0xbdce4683	-0.10072043
30	0xbe5c3477	-0.21504389
31	0xbecd19fa	-0.4005888
32	0xbe73628b	-0.2376806
33	0x3d15adcf	0.03654271
34	0xbe2e6c19	-0.17033423
35	0xbeaae247	-0.3337576
36	0xbed205cd	-0.4102005
37	0xbd681c40	-0.056667566
38	0xbebe0352	-0.37111908
39	0xbe9067d9	-0.2820423
40	0x3d2073e8	0.039173037
41	0xbe5df045	-0.21673687
42	0xbe3e83ca	-0.18604961
43	0xbdf23cf1	-0.1182803
44	0xbe5573d6	-0.20844969
45	0xbded021d	-0.11572669
46	0xbdfbc90e	-0.122942075
47	0xbe847849	-0.2587302
48	0xbe213df9	-0.15746297
49	0xbe5d49a9	-0.2161013
50	0xbdad37c4	-0.08457902
51	0xbe657ec7	-0.22411643
52	0xbe7af4e9	-0.24507488
53	0xbe11ea47	-0.14249526
54	0xbe790158	-0.24316919
55	0xbe5ddde5	-0.21666677
56	0x3dbbd3de	0.0917127
57	0xbdff0253	-0.12451615
58	0xbd0a46a7	-0.033758786
59	0xbea9f5c9	-0.33195332
60	0xbe15782f	-0.14596628
61	0xbe02783f	-0.12741183
62	0xbeab0386	-0.33401126
63	0xbe337788	-0.17526066
64	0xbe920a91	-0.28523687
65	0xbe17445c	-0.14772171
66	0xbd19e551	-0.03757221
67	0xbe8eba5c	-0.27876556
68	0xbd4a895f	-0.049447414
69	0xbea72e83	-0.32652673
70	0xbd36351e	-0.04448425
71	0xbdd24555	-0.1026713
72	0xbe1065ab	-0.14101283
73	0xbe1007fd	-0.14065547
74	0xbe885c29	-0.26632813
75	0x3da6e424	0.08148983
76	0xbcac03e6	-0.020997953
77	0x3e20d37e	0.15705678
78	0x3daafe9c	0.08349344
79	0x3e25ae9d	0.16179891
80	0xbc1bef1f	-0.00951746
81	0x3d88b6e0	0.06675506
82	0xbe4ca0c4	-0.19983202
83	0xbdd645a3	-0.10462501
84	0xbdfdc74e	-0.1239153
85	0xbe7519f3	-0.2393568
86	0xbe472fe3	-0.19451861
87	0xbe7ee868	-0.24893343
88	0x3e120ea7	0.14263402
89	0xbe17706a	-0.14788976
90	0xbe5f3757	-0.21798454
91	0xbe2eced2	-0.17071083
92	0xbdffdd96	-0.12493436
93	0xbe83a3eb	-0.25710997
94	0xbd35a5dd	-0.044347633
95	0xbed32068	-0.41235662
96	0xbd8c14a8	-0.06839877
97	0xbe808ced	-0.25107518
98	0xbdc50854	-0.09620729
99	0xbd20f334	-0.039294437
100	0xbe9ba93b	-0.3040255
101	0xbe8c5854	-0.2741114
102	0xbe307155	-0.17230733
103	0xbe8d4f7e	-0.2759971
104	0xbc06f85b	-0.0082379235
105	0xbe9ca6bc	-0.30595958
106	0x3ca013cd	0.019540692
107	0xbbd4f785	-0.006499233
108	0xbdeb49f1	-0.114887126
109	0xbeb399ea	-0.35078365
110	0xbe8a4e93	-0.27013072
111	0xbe6d7498	-0.23189008
112	0xbeb2fc88	-0.3495829
113	0x3ce7bb28	0.028287485
114	0xbea64c78	-0.32480216
115	0xbd70ba76	-0.058771573
116	0xbdf99764	-0.121870786
117	0xbe995ea5	-0.2995502
118	0xbd75b9e1	-0.05999172
119	0xbc159e1a	-0.009131933
120	0xbe2de70c	-0.16982669
121	0xbdc0979b	-0.094039164
122	0xbd1422fd	-0.03616618
123	0xbe5cd5f0	-0.21565986
124	0xbdb9b0cc	-0.090669245
125	0xbd5c91fb	-0.053850155
126	0xbe100259	-0.14063396
127	0xbe866fb8	-0.2625711
128	0xbeb256bf	-0.34831807
129	0xbe53bd66	-0.20677719
130	0x3dc7c3ba	0.09754129
131	0xbe2d2838	-0.16909873
132	0x3e023653	0.12716036
133	0xbe565708	-0.20931637
134	0xbe3f1d04	-0.18663412
135	0xbcab23c9	-0.020891087
136	0xbe8f7f9b	-0.28027043
137	0xbd9dc930	-0.07704389
138	0xbdd78b6d	-0.1052464
139	0xbec21f62	-0.37914568
140	0xbe95e626	-0.29277152
141	0xbe1f8b35	-0.15580447
142	0xbeb1ec14	-0.34750426
143	0xbe90c3ec	-0.28274477
144	0xbdd99243	-0.106236
145	0xbe8ca16e	-0.2746691
146	0x3d23f7f6	0.040031396
147	0xbe32ff66	-0.1748024
148	0xbefb6dda	-0.49107248
149	0xbeacefbb	-0.3377665
150	0xbe95a1f6	-0.2922513
151	0xbd8405e5	-0.06446437
152	0xbe6e649a	-0.23280564
153	0xbd694556	-0.05695089
154	0xbec1fcf3	-0.37888297
155	0xbd9745ba	-0.07386346
156	0x3db6ccc2	0.08925773
157	0xbd7d819f	-0.061891194
158	0xbde399e7	-0.11113339
159	0xbed818bd	-0.42206374
160	0xbd8822a2	-0.06647231
161	0x3d5e6c30	0.054302394
162	0xbee9363b	-0.45549187
163	0xbe33bdec	-0.17552918
164	0xbe4572d9	-0.19282092
165	0xbdea86e2	-0.11451508
166	0xbe864343	-0.26223192
167	0xbde163ef	-0.11005389
168	0xbd4cad35	-0.04996987
169	0xbe89291a	-0.2678917
170	0xbe275663	-0.16341548
171	0xbe6078bc	-0.21921057
172	0x3da789a3	0.08180549
173	0xbd757427	-0.059925225
174	0xbe6c15fc	-0.23055261
175	0xbe2e5ccb	-0.17027585
176	0xbe8993e6	-0.2687065
177	0xbeacad9e	-0.3372621
178	0xbe8a6b59	-0.27035025
179	0xbe5fc414	-0.21852142
180	0xbdf3d9b2	-0.119067565
181	0xbe1b2381	-0.15150262
182	0xbdb16073	-0.08660974
183	0xbdb4c5b8	-0.08826774
184	0xbe79a0de	-0.24377772
185	0xbdbd05cd	-0.09229622
186	0xbe02115c	-0.12701935
187	0xbdadfe5e	-0.08495782
188	0xbe8a528d	-0.27016106
189	0xbd36f513	-0.044667315
190	0xbec26791	-0.3796964
191	0xbe74b44b	-0.23896901
192	0xbee8daf4	-0.45479548
193	0xbe8c3f5f	-0.27392098
194	0xbe81adaf	-0.25327823
195	0xbe24603e	-0.16052338
196	0xbe06322f	-0.13105081
197	0xbeb53677	-0.35393116
198	0xbe452bde	-0.19255015
199	0x3db495f1	0.088176616
200	0xbeeb85ec	-0.46000612
201	0xbe04ea75	-0.12980063
202	0xbdad8869	-0.08473284
203	0xbe07f9e8	-0.13278925
204	0xbe9b3ef9	-0.30321482
205	0xbdf6ec13	-0.12056746
206	0xbc4a9b83	-0.012366178
207	0xbdadca5c	-0.084858626
208	0x3d49ecfc	0.04929827
209	0xbebccdaa	-0.3687566
210	0xbd6bb1f2	-0.05754275
211	0xbe8372bc	-0.25673473
212	0xbe71b223	-0.2360311
213	0xbdbf8f75	-0.09353534
214	0xbe5040b4	-0.20337182
215	0xbe16a58c	-0.14711589
216	0xbe103150	-0.14081311
217	0xbe9213e9	-0.28530815
218	0xbe445243	-0.19172005
219	0xbe1b3d8a	-0.15160194
220	0xbe556443	-0.20839028
221	0xbe1c012a	-0.15234819
222	0xbe91b482	-0.2845803
223	0xbe52d288	-0.20588124
224	0xbd8d2a36	-0.06892817
225	0xbd625c52	-0.055263825
226	0xbe350643	-0.1767817
227	0xbe96091c	-0.29303825
228	0xbdef090e	-0.11671649
229	0x3e1630c9	0.14667048
230	0xbc17ab6e	-0.009257181
231	0xbc21a014	-0.009864826
232	0xbe098603	-0.13430028
233	0xbe4aba22	-0.19797567
234	0xbe7b355b	-0.24532072
235	0x3c966789	0.018359916
236	0xbe8dec08	-0.2771914
237	0x3d428cb3	0.047497462
238	0x3d2fc9cd	0.04291706
239	0xbe8d4694	-0.2759291
240	0xbd8ee4f6	-0.069772646
241	0xbc96c8c8	-0.018406287
242	0xbe863c27	-0.26217768
243	0xbdea2318	-0.11432475
244	0xbe2ea678	-0.1705569
245	0x3d49ef41	0.049300436
246	0x3d5a6042	0.053314455
247	0xbce516a8	-0.027964905
248	0x3cc1af10	0.023643047
249	0xbd332fb0	-0.04374665
250	0x3dafe94e	0.08589421
251	0x3d7ace63	0.061231982
252	0xbe6129c5	-0.2198859
253	0xbd1ccb72	-0.038279958
254	0xbe0182c6	-0.12647542
255	0xbe9d5825	-0.3073131

network_body._body_endoder.seq_layers.2.weight f4 [256, 256]
0	0xbe937005	-0.28796402
1	0x3e40572c	0.18783253
2	0xbce69c2f	-0.028150646
3	0x3f10d496	0.5657438
4	0x3dee541a	0.11637135
5	0xbe94ce0f	-0.2906346
6	0x3d31f1f5	0.04344364
7	0xbdfaf16d	-0.122530796
8	0xbda111ef	-0.07864749
9	0x3e4fad9f	0.20281075
10	0x3f101112	0.5627605
11	0x3cdcc8dc	0.026951246
12	0xbea43c83	-0.32077417
13	0x3e65a4c0	0.22426128
14	0x3ddd1692	0.107953206
15	0xbea84e9c	-0.32872474
16	0x3e4e7afd	0.20164104
17	0xbe844787	-0.2583582
18	0x3f51479e	0.81749904
19	0xbe2ce5df	-0.16884564
20	0x3ec40a41	0.38289073
21	0xbf339484	-0.7014849
22	0xbce74150	-0.028229386
23	0xbc734132	-0.014847087
24	0x3e97aca4	0.29623902
25	0x3e66a066	0.22522125
26	0x3eb44cd1	0.35214856
27	0xbd6b7dc0	-0.05749297
28	0x3f13f5d9	0.5779701
29	0xbe97f646	-0.2968008
30	0xbf019364	-0.50615525
31	0x3e9034e8	0.28165364
32	0x3e6192e6	0.22028694
33	0xbe818d9c	-0.25303352
34	0xbef4a30f	-0.47780654
35	0xbd7b6a35	-0.061380584
36	0x3e028d62	0.12749246
37	0x3e5b6f5a	0.21429196
38	0x3dc4c44a	0.09607752
39	0x3db77f10	0.08959782
40	0x3d83366c	0.064068645
41	0xbe112906	-0.14175805
42	0x3ea4d60f	0.32194564
43	0x3e53dabc	0.2068891
44	0xbe55cb6d	-0.20878382
45	0xbf2a4cb6	-0.665233
46	0xbe05eeb0	-0.13079333
47	0x3d30fbc7	0.043208864
48	0x3eaa3abb	0.33247933
49	0xbe2b5a2d	-0.16733618
50	0x3ea0f94f	0.31440207
51	0x3f28680d	0.6578377
52	0xbddb54c2	-0.10709526
53	0xbee40a19	-0.44538954
54	0x3f2b95f2	0.67025673
55	0x3dca077c	0.09864709
56	0xbe309379	-0.17243756
57	0xbec3217a	-0.38111478
58	0x3e62d13e	0.22150132
59	0xbed6e219	-0.41969374
60	0xbda7cc9e	-0.081933245
61	0x3e76f323	0.24116187
62	0x3e1297e4	0.14315754
63	0xbe9e42bc	-0.3091029
64	0xbea894f1	-0.32926133
65	0xbe53ca84	-0.20682722
66	0xbc876ee5	-0.01653237
67	0xbd9fbdc1	-0.077998646
68	0xbf135676	-0.57553804
69	0xbf05c671	-0.5225592
70	0xbf410b08	-0.7540746
71	0x3db66aa7	0.08907061
72	0xbe978510	-0.29593706
73	0x3ea0b33c	0.31386745
74	0xbddcedc0	-0.10787535
75	0x3d24ca48	0.040231973
76	0xbdd38c54	-0.103295
77	0x3eb587ed	0.35455266
78	0xbef2ec28	-0.47445798
79	0x3e5e44d8	0.2170595
80	0xbe628d61	-0.22124244
81	0xbf1acaf8	-0.60465956
82	0x3ece12d0	0.40248728
83	0x3b3ea4c9	0.0029089919
84	0xbed13f07	-0.408684
85	0x3eb3f8c1	0.35150722
86	0xbe52c40e	-0.20582601
87	0x3e98b7c8	0.29827714
88	0x3ecc46bf	0.39897725
89	0x3eab8816	0.33502263
90	0xbe2c96bc	-0.16854376
91	0x3f1b750f	0.6072549
92	0x3e922ac8	0.28548265
93	0xbe8d18b1	-0.275579
94	0x3f0d46e5	0.551863
95	0xbd878ce3	-0.06618669
96	0xbd2049a8	-0.039132744
97	0x3eafbc40	0.3432331
98	0x3eb0236c	0.34402025
99	0xbd9636bc	-0.073346585
100	0x3e37bdaf	0.17943452
101	0x3ed92e2e	0.42418045
102	0xbe208c08	-0.15678418
103	0xbdecdef8	-0.115659654
104	0xbe7927f8	-0.24331653
105	0xbf0cca15	-0.5499585
106	0x3dce7d94	0.10082546
107	0xbe697018	-0.22796667
108	0x3e97c67e	0.29643625
109	0x3d721009	0.059097324
110	0xbe993dd5	-0.29929987
111	0xb8f02013	-0.00011450066
112	0xbf1c5b79	-0.61077076
113	0xbebdc2ef	-0.37062785
114	0x3da2687d	0.07930086
115	0xbd180134	-0.037110522
116	0x3eaec2fc	0.34133136
117	0x3ed8d688	0.42351174
118	0xbe9955d7	-0.29948303
119	0x3d270d25	0.04078402
120	0xbe9235ec	-0.28556764
121	0xbf240b66	-0.6407989
122	0xbc3bcdd6	-0.011462649
123	0x3e24dcd6	0.16099867
124	0xbd8196f0	-0.06327617
125	0xbd23db47	-0.04000404
126	0x3e6a7c2d	0.22898932
127	0xbcca3187	-0.02468182
128	0xbd531664	-0.051535025
129	0x3ea3f8a3	0.32025632
130	0xbd6ddc85	-0.058071632
131	0xbe1a3407	-0.1505891
132	0xbdad4041	-0.08459521
133	0x3ebb9d00	0.3664322
134	0x3f1b04fe	0.6055449
135	0xbf5a6759	-0.85313946
136	0xbe587d58	-0.21141565
137	0x3c99d98e	0.018780496
138	0xbdc49e31	-0.09600485
139	0xbdb8593d	-0.09001396
140	0x3e3312b2	0.174876
141	0xbebf9c95	-0.3742415
142	0xbdcb84b1	-0.09937418
143	0x3e7cad1c	0.24675411
144	0x3db98238	0.090580404
145	0xbed4b026	-0.4154064
146	0xbd8facd8	-0.07015389
147	0xbf36df7d	-0.71434766
148	0xbf5d5d42	-0.86470425
149	0xbf64a881	-0.89319617
150	0xbe9419e0	-0.2892599
151	0x3da069d1	0.07832683
152	0xbf599b9f	-0.85003084
153	0xbf12de63	-0.57370585
154	0x3e91aa3b	0.28450188
155	0x3e650e9e	0.22368857
156	0x3eb2c5cf	0.3491654
157	0xbf0e4b39	-0.5558353
158	0x3dc310d2	0.095246926
159	0xbe7131e6	-0.23554191
160	0xbe9f0c96	-0.3106429
161	0x3ddca0e1	0.10772873
162	0x3e2b0e0b	0.16704576
163	0xbd89fccc	-0.0673767
164	0x3d5b248e	0.05350166
165	0x3efdcad2	0.49568802
166	0x3e097c27	0.13426267
167	0x3e185d03	0.14879231
168	0xbe95773e	-0.29192537
169	0xbf0b8470	-0.5449896
170	0x3ded223e	0.11578797
171	0xbe2e235e	-0.17005679
172	0x3d94df00	0.072690964
173	0x3d7fee81	0.062483314
174	0xbc0ca3ed	-0.008584005
175	0xbe1c6dd5	-0.15276273
176	0x3d2dac68	0.042400748
177	0x3d9a2485	0.07526497
178	0x3e5a48d9	0.21316852
179	0xbf100718	-0.56260824
180	0xbce395d6	-0.027781408
181	0xbe5f0ede	-0.21783015
182	0xbe8945f6	-0.26811188
183	0xbd0b6384	-0.034030452
184	0xbe9a498d	-0.3013424
185	0xbec724e9	-0.38895348
186	0x3ea5ba7e	0.32368845
187	0xbeb4da6e	-0.353229
188	0xbf0bfd40	-0.54683304
189	0x3d6f46cd	0.05841713
190	0x3f307cf7	0.6894068
191	0x3e15d536	0.14632115
192	0xbe704a8e	-0.2346594
193	0x3e8bb026	0.27282828
194	0xbe8f9133	-0.28040466
195	0x3db8ec61	0.09029461
196	0x3da1bcb1	0.07897318
197	0xbf294acd	-0.6612976
198	0xbc9eb1b3	-0.019371843
199	0xbe38c082	-0.18042186
200	0xbf2a607f	-0.6655349
201	0x3e0f2319	0.13978232
202	0xbee2b4e6	-0.4427864
203	0x3e8260a2	0.2546435
204	0xbd938f33	-0.072050475
205	0x3ede7cd7	0.4345462
206	0xbf0f25db	-0.5591714
207	0x3e03abe4	0.1285854
208	0xbde13c33	-0.1099781
209	0xbe602448	-0.2188884
210	0xbe80cf48	-0.25158143
211	0xbba251a5	-0.0049535804
212	0x3f00eef7	0.5036463
213	0x3e2514db	0.16121237
214	0xbe12e570	-0.14345336
215	0x3ef67b33	0.4814087
216	0x3df7f46e	0.12107168
217	0x3e9f90c3	0.31165132
218	0x3e12b47c	0.14326662
219	0xbe0b7b5b	-0.13621275
220	0xbd1738d8	-0.036919445
221	0xbdc36d6d	-0.09542356
222	0x3ecd0f68	0.40050817
223	0x3e5f6d9f	0.21819161
224	0x3e5443b3	0.2072895
225	0xbc075669	-0.008260348
226	0x3e1a0258	0.15039957
227	0xbdb62918	-0.08894557
228	0xbf05c6e3	-0.522566
229	0x3ccf746f	0.025324075
230	0xbed6cd76	-0.4195363
231	0xbd9baf7e	-0.07601832
232	0xbd53ab26	-0.05167689
233	0xbe55b0d1	-0.20868231
234	0xbee69b78	-0.45040488
235	0xbe475c5e	-0.19468829
236	0x3a4904e7	0.0007668272
237	0x3da7677d	0.08174036
238	0x3e86b9e0	0.26313686
239	0xbc4df325	-0.012570177
240	0xbe3858a6	-0.18002567
241	0x3e5276f7	0.20553194
242	0x3f015353	0.5051777
243	0x3e1c1ddd	0.15245767
244	0xbecf67a7	-0.40508768
245	0xbc2c5d0c	-0.010520231
246	0xbe69fb1d	-0.22849698
247	0xbe3bb872	-0.18332079
248	0x3ec67060	0.3875761
249	0x3ebd0eb7	0.3692529
250	0xbe815bea	-0.25265437
251	0x3e0f4a7e	0.1399326
252	0xbf072259	-0.52786785
253	0x3ebc562a	0.36784488
254	0xbecb1fa6	-0.39672583
255	0xbdb59662	-0.08866574
