Assets/TFModels/Other models trained in the process/Striker4_ppo_12.onnx (onnx, 840518 bytes, 9 tensors)

action_model._discrete_distribution.branches.0.bias f4 [5]
00000000: e576 0f3e b7ce 70be b9ca c43d daf9 ac3d
00000010: 6801 49bd
0.14010198 -0.23516355 0.09608979 0.08446093 -0.049073607

action_model._discrete_distribution.branches.0.weight f4 [5, 256]
00000000: 4355 fcbc 779d 9cbe f3cf 37be bb15 b43d
00000010: b646 ec3c 2426 153e 45e9 ac3c 47fd 0e3d
00000020: d2e1 08be 85ef 173e c393 30be a66d 52be
00000030: 5cc3 0c3e abad 853e 1e35 083e 7b35 463e
00000040: 2b7c 603b aa6c 1abe e0eb 0ebe 7d7a 09bc
00000050: e988 f43d e5c2 203e 21ce 833d edeb 263e
00000060: 6020 5a3c ad74 4e3e c1c1 223e 6fac 3fbe
00000070: 9a8d 2b3e 3a63 3c3d fce9 b53d 4eb1 2ebc
00000080: d3c7 a73d 72e1 babd 3a0f ce3d 71da 06bc
00000090: df95 503e e535 73bb 8cd3 44be 5f4b c9be
000000a0: a909 203c 67f9 8abe 937d 543e c970 133e
000000b0: 5726 a0be 7a70 25bd 8a96 3e3e ff59 1e3d
000000c0: be77 b53d faa1 1b3e 9107 1e3d 5a26 153d
000000d0: edb8 a5be d333 763d 7a9a 18be a7d3 043c
000000e0: 1c36 803b 1683 8d3d a795 ef3d 0c1a 8f3e
000000f0: d47f 6bba 0a71 8bbd 75a0 0039 db5a 53bd
00000100: 943b 7b3e 5646 e3be 78e8 123e a6ae b73e
00000110: 9847 40be 1dad 2cbe 508f 3bbe e4da 293e
00000120: 1f41 08be f62e e03e 8a5f 153d b356 e33e
00000130: 79b7 083e 57bf e23e 6545 93bd b382 89be
00000140: 17bc 343e f526 6bbc a76b eebc 2b3b 5ebe
00000150: 2e4c c73e 20f0 243e b1fa 2e3e f335 a03e
00000160: 89ff 71bd d21c b43b fa47 ffbd 7e35 30bd
00000170: a037 843c d04b d13d 22b8 5d3e 2c60 213e
00000180: 4ce1 d5bd c8bb 4ebd 18fa 73be 25b3 253e
00000190: 4fdd 1e3b f277 2ebe c538 cebd 2cb7 123e
000001a0: b157 1dbe f4a3 ebbd 33b2 8a3e cb90 e63d
000001b0: 36d0 6ebe 1103 9dbe cdfc 3e3e 73af 883e
000001c0: 1230 9e3e a891 ba3e ce25 91bd b60f 59be
000001d0: ad52 27be 3720 58be 4f59 843c 6aa7 923e
000001e0: c18f 55be 2aa6 163d 9800 513e 8f90 f73d
000001f0: d8b0 c4bc c3c7 86bd 32f3 133e 0cb4 66bc
00000200: 3f35 df3e 9094 49bc 5c76 6d3e 051b 883e
00000210: 7d69 f7bd e460 df3e cd38 663d fd33 44be
00000220: 5d7f 583e c384 f63b 40c0 c1bd 16d2 a4be
00000230: 3394 43bd beb0 2a3e 2eac 8d3e 1641 ef3d
00000240: e86c 823e d885 69bd 5f83 84bd eac1 823e
00000250: 7a86 9d3e b1ff 84bd 656f c93c 9e70 053d
00000260: 1b9d 83be 73b8 f4bd e437 403e 8425 e53d
00000270: c501 c63c d459 a43c f386 cb3d 589b 283e
00000280: 49ee 48bd eaeb 54be 4ca0 2dbd 1d4c 22be
00000290: 09d7 24bc 0c2e 8a3d 8803 c63e 3f30 ba3d
000002a0: 256d e93d f548 71bd 4446 6e3d dde6 4a3e
000002b0: 1d8a efbd 1c5c cb3a db79 dc3c b7c4 35be
000002c0: 01ab 06bf 2d71 ddbd 436b fd3e 7077 9bbe
000002d0: 4808 fbbe f480 863e eb79 ee3b 827b 6abe
000002e0: 6de8 313e 21d7 81be 5772 4c3e f0a0 dfbd
000002f0: 6598 3dbd 1b8d d9bd 9054 ef3d cae6 b3bc
00000300: 9134 153e 0d4a 73bd ee97 8fbe 6271 803e
00000310: 52f8 903e c6de b23d e3c7 353d aaa9 3ebe
00000320: 01df 04bc 5e68 2fbe a93a c63d a39f 323d
00000330: 4002 49bc d30c d33d c602 723e 32c2 f13d
00000340: 375d 81be ed4f 303d 2584 1a3e 4bd6 dc3d
00000350: b9a6 51bd 8dab 143e 9b3a 1fbe c864 363e
00000360: a0e2 583e b971 473e 194e 99bd a3f7 c1bd
00000370: 787b 2e3e 4918 c23b 27c4 023b 6cc0 73be
00000380: 9141 1abd 418f ff3d adc2 093e e00f 233e
00000390: 8c76 debd a666 9fbe affd 843d 92d8 b8be
000003a0: 9b9e 28be d390 c23c 29d6 943e 7078 f03d
000003b0: 4261 a9be 658b 0b3e 212e 1dbd d821 a83d
000003c0: 7c3e eabd 32ee 833e 32c8 53be 6617 223e
000003d0: c9d6 9e3c 95e6 643d 0798 e3bc affc 4cbe
000003e0: 79bb a63d 803c a63e 6965 b0be b5a0 46bd
000003f0: 8ee1 d8be 278d fabd 5f41 ebbd 6c6c 82be
-0.030802375 -0.30588886 -0.1795042 0.08793207 0.028842311 0.1456533 0.021107325 0.034909513
-0.13367394 0.14837463 -0.17243867 -0.2054964 0.13746399 0.2610906 0.13301513 0.19356339
0.0034253697 -0.15080515 -0.13957167 -0.00839102 0.11940176 0.15699346 0.064358 0.16300936
0.013313383 0.20161696 0.15894224 -0.18718122 0.16753235 0.045993067 0.088825196 -0.01066239
0.0819241 -0.091250315 0.10061498 -0.008230791 0.20369671 -0.003711098 -0.19221324 -0.39315316
0.009767928 -0.27143404 0.20751028 0.14398493 -0.3127925 -0.04039047 0.18612114 0.038660046
0.0886073 0.15198508 0.038581435 0.036413528 -0.3236765 0.060108017 -0.14902678 0.0081071025
0.0039127003 0.06909768 0.11698466 0.2794956 -0.00089835864 -0.0680867 0.00012266806 -0.05160032
0.24534446 -0.443896 0.14346492 0.35875434 -0.18777311 -0.16862912 -0.18316388 0.16587406
-0.13306092 0.43785828 0.036468066 0.44402084 0.1335124 0.44286606 -0.0719097 -0.26857528
0.17649876 -0.01435255 -0.029104067 -0.21702258 0.38925308 0.16107225 0.17087819 0.3129116
-0.059081588 0.0054965997 -0.124649 -0.043019764 0.016139805 0.10219538 0.21652272 0.15759343
-0.104433626 -0.05047205 -0.23825872 0.1618162 0.0024240797 -0.17037943 -0.10069422 0.14327687
-0.15365483 -0.11505881 0.2708908 0.11258086 -0.23321614 -0.30666402 0.18651123 0.26696357
0.3089605 0.36439252 -0.07087289 -0.211974 -0.16340132 -0.21106039 0.016155867 0.28643352
-0.20855619 0.03677956 0.20410383 0.12088119 -0.024010107 -0.0658107 0.1444824 -0.014081012
0.4359531 -0.0123034865 0.23189682 0.26583114 -0.12080667 0.4362861 0.056206513 -0.19160457
0.21142335 0.0075231506 -0.09460497 -0.32191533 -0.047748756 0.16668984 0.27670425 0.11682336
0.25473714 -0.05701241 -0.064703695 0.2553857 0.3076666 -0.06494082 0.02458925 0.032578103
-0.257058 -0.119492434 0.1877132 0.11188796 0.024170766 0.020062365 0.09937849 0.16465509
-0.04905537 -0.20793119 -0.0423892 -0.15849347 -0.010061034 0.06747064 0.3867457 0.090912335
0.11397771 -0.058907468 0.05817248 0.1981463 -0.11696265 0.0015515122 0.026913574 -0.17750822
-0.5260468 -0.10812602 0.49495897 -0.3036456 -0.49029756 0.26270258 0.0072777173 -0.22898677
0.1737382 -0.25359443 0.19965492 -0.10919368 -0.046287913 -0.10622617 0.11686051 -0.021960635
0.14570834 -0.059396792 -0.280456 0.25086504 0.28314453 0.08733897 0.04438008 -0.18619409
-0.008109809 -0.17129657 0.09679157 0.043609273 -0.012268603 0.103051804 0.2363387 0.11804618
-0.2526643 0.043044973 0.15089472 0.10783061 -0.05118439 0.14518566 -0.155497 0.17811882
0.211802 0.19476976 -0.07485599 -0.09471061 0.17039287 0.005923305 0.0019953342 -0.23803872
-0.037660185 0.124784954 0.13453169 0.15924025 -0.10862455 -0.31133002 0.06493699 -0.3610273
-0.16466753 0.023750698 0.2906964 0.11741722 -0.33082014 0.13627394 -0.03837407 0.0820958
-0.11437699 0.25767666 -0.20681837 0.15829238 0.019389527 0.055883963 -0.027782453 -0.20018266
0.08141226 0.32468033 -0.3445237 -0.048493106 -0.42359585 -0.12233954 -0.11487078 -0.25473344

action_model._discrete_distribution.branches.1.bias f4 [3]
00000000: e615 493e ac7b 1d3d 8c3f 71be
0.1963726 0.03844802 -0.23559397

action_model._discrete_distribution.branches.1.weight f4 [3, 256]
00000000: 3ac5 5ebd 61c3 2abd 06d6 6a3c 9477 15be
00000010: dcf6 6cbe 38af 093e 739b a13e 9716 733d
00000020: 94bf 0b3e 27ed 9d3c 7d78 f7bb 6782 ef3d
00000030: 944e 303e c17a dc3b 0e2c 6abd 0154 983d
00000040: 04be 9ebd 7fcb 00bf ca0f 493e 7c43 3dbe
00000050: c083 3e3e 0c98 c23d 8c98 433e e56f 98bd
00000060: accd 4cbe 5a95 d93c 4547 523e 4d45 c4bd
00000070: 9da8 d33d 274f 103e 35b5 7ebe 0430 c73b
00000080: 7283 693d 1cae 133e 747a d7bd e0fc 2f3c
00000090: 62da 343e 3b07 75bc d928 513e 1793 2abe
000000a0: b34a 833e 4358 34bd 47ae 513e 90f7 85be
000000b0: 3f8e 9fbe 720b 15be 0dc7 40be d499 bc3d
000000c0: 8844 0d3e 1061 423e da26 45be 4a34 eabe
000000d0: e833 00be fd3a 22be ed60 a53d 829c 38bb
000000e0: 90c0 093e 98ef 0fbc 9e69 0c3d a8e8 39bd
000000f0: 7209 ce3d 9945 fe3e 831b 4bbc 523c 643e
00000100: 42f8 ea3d 1e9a 023d 2dcc c33d 92f8 de3d
00000110: ff08 393c 777a 9abd 3fbe 70bb 7bc5 18be
00000120: b1cb dabd b6b0 bb3d 73c2 37be 9493 423d
00000130: 4758 673c 4b22 57be 18a0 78be f895 1d3e
00000140: bc52 b3bd f911 f2bd 4fdb 0f3e 5ff8 c5bc
00000150: 41b4 373e 8048 6dbe 31ee c63d ae2b 1a3e
00000160: 353f 80be 2780 91bd 409b bdbc e479 b1be
00000170: c75a 243e cfa7 1e3e ddd2 40be 279d 5ebc
00000180: 78b5 b4bc 398a 843e 9400 cfbd 4928 9c3e
00000190: 09c3 9e3d 8bd8 d33a 1e25 a8bb 2831 09be
000001a0: 6666 38be f717 693e fb43 1ebe 299d 383e
000001b0: 229a 343e 475e e93d 9595 0c3e 5909 05bb
000001c0: cd9d d93d d402 81bd 7923 563e d8a4 9abd
000001d0: 18e3 8abd 7f53 f73d d326 f3bd 9140 c3bd
000001e0: 7b53 d9bd 2099 5ebd c04e 62bd e182 9fbe
000001f0: 7e17 613e 3222 103e de07 65bd 0bad a5bd
00000200: 69ca 493c b97c 9fbd b096 803e ef1a 41be
00000210: ee13 003e ce8e 453e ca3b 2d3e 5911 8ebb
00000220: a795 e53c f638 8b3c b62f c73d 9838 933a
00000230: 4b01 65bd 3580 87bd 281b e13c 1226 ddbd
00000240: 0f7b 42be b0d2 513c c5a6 e4be ff2c dfbe
00000250: 53ca f3bd 5951 a23e cac6 5ebc 028a 98be
00000260: 9672 c4be 2ef3 323d 87be 82bb d8a2 89be
00000270: 94ff 823e 9c9e 82be c4bc 623d 18bb 3b3d
00000280: 45de 473e 9c85 ef3d 6763 2d3d 0f50 98bc
00000290: 2564 86be 8c36 0f3d b8d6 1a3e 3a95 413d
000002a0: a165 30be 2d9c a83e 43d9 023e 705e 2a3e
000002b0: b6a0 e2be 29ab af3b 25dd dcbe f06f 2f3e
000002c0: 9918 13bd 5d9c fc3d ccdf 68bd 9f60 d4bd
000002d0: 32f7 72be 8c73 8dbe 5145 d43e ff74 7dbe
000002e0: 18ce 953e c075 023d f3ce 993c 4502 a63d
000002f0: 6377 29bd 6679 ae3e b9da 7c3e fbef 963d
00000300: 613d fe3d db82 e63c 6e6b cf3c 7b46 dfbd
00000310: 4899 f8bd d4e9 6abe bd7e fb3d 87b7 3dbe
00000320: cc95 df3d 0304 81bd 70b9 1abe 9fa4 93bd
00000330: 3479 66bd 3b26 593d d874 153e 490d d33b
00000340: d4ab aabe 0982 8dbe 2a0f fb3c 45d6 983d
00000350: 49ce 99bd da63 5f3e 9369 dcbc 4ef0 3e3e
00000360: 3e60 283c b905 0f3e a9ae af3d eea0 86be
00000370: 051d 81bd 16d8 c2be d750 2dbe bc25 8b3e
00000380: 00ac ef3d 3650 2cbe 59d1 c9bd 4966 d93d
00000390: 9cee b1be f9d5 d83d 26c9 47bd b83c 0fbf
000003a0: 6d5a 7abe 5eb2 a0bc 91df dfbd 98fc 373e
000003b0: 4090 8f3d 3457 87bd d27b 97be b7e3 c3bc
000003c0: 328e 8e3d bc09 c8bd 8876 9cbe ac04 663e
000003d0: 59a0 a43d da28 68be 467a d7bd af9f 2fbe
000003e0: 0596 87bc 004e 42be fabe 333d c226 773e
000003f0: 1430 31be 21fa fb3d 27dc 9dbe 65b7 c63d
-0.05438731 -0.041690234 0.014333254 -0.14596397 -0.23141044 0.13445747 0.3156391 0.059347715
0.136473 0.019278122 -0.007552205 0.11694794 0.17217475 0.0067285006 -0.05717092 0.074378975
-0.07751086 -0.5031051 0.1963493 -0.18482774 0.18604946 0.09501657 0.19101161 -0.07443217
-0.20000333 0.026560474 0.20535 -0.095835306 0.10334895 0.14092694 -0.24873812 0.006078722
0.05701012 0.14421886 -0.10521403 0.010741442 0.17661431 -0.014955337 0.20425738 -0.16657673
0.25642928 -0.044029485 0.20476638 -0.26165438 -0.31163213 -0.14555147 -0.18825932 0.09209028
0.13795674 0.18982339 -0.19253102 -0.45743018 -0.125198 -0.15842815 0.08075128 -0.0028169458
0.13452363 -0.008785151 0.034280412 -0.045387894 0.10060395 0.49662474 -0.012396696 0.22288635
0.11473133 0.03188526 0.09560428 0.10887255 0.011293649 -0.075428896 -0.003673449 -0.14919083
-0.10683382 0.09164564 -0.1794527 0.047504023 0.014120168 -0.21009175 -0.24279821 0.1538924
-0.08756015 -0.11819834 0.14048503 -0.024166284 0.17939855 -0.23172188 0.097134 0.15055725
-0.25048223 -0.07104521 -0.023145318 -0.34663308 0.16050254 0.15493701 -0.18830438 -0.013587273
-0.022059187 0.25886706 -0.10107532 0.30499485 0.07752044 0.0016162557 -0.005131378 -0.13397658
-0.18007812 0.22763048 -0.1545562 0.18028702 0.17636922 0.11394935 0.13728936 -0.002029976
0.10625801 -0.062993675 0.20911969 -0.07550973 -0.06781596 0.120764725 -0.118726395 -0.095337994
-0.10611626 -0.05434525 -0.055250883 -0.3115454 0.21981618 0.14075544 -0.055915706 -0.08089646
0.012316325 -0.07787461 0.25114965 -0.1885793 0.12507603 0.19292757 0.16917339 -0.004335564
0.028025461 0.016994935 0.09725897 0.0011232076 -0.055909436 -0.066162504 0.02747877 -0.10798277
-0.18992256 0.0128065795 -0.44658485 -0.43589017 -0.11903825 0.31702688 -0.0135972 -0.29792792
-0.38368672 0.043688945 -0.003989998 -0.26882052 0.25585616 -0.25511634 0.055355802 0.045832723
0.19518383 0.11695406 0.042331126 -0.018592862 -0.2624828 0.03496413 0.15120971 0.047261454
-0.17226268 0.32931653 0.12778191 0.16637588 -0.44263238 0.00536098 -0.4313747 0.17132545
-0.03591213 0.123345114 -0.056854054 -0.103699915 -0.2372711 -0.27627218 0.41459134 -0.24751662
0.292588 0.031850576 0.018775439 0.08105902 -0.04137362 0.34076995 0.24692811 0.073699914
0.12414051 0.028138569 0.025319781 -0.10902115 -0.12138611 -0.22940761 0.12280033 -0.18527041
0.10917243 -0.06299593 -0.15109801 -0.07209133 -0.056267932 0.053014975 0.14595354 0.0064407927
-0.3333422 -0.2763827 0.03064688 0.07462744 -0.07510049 0.21815434 -0.02690581 0.18646356
0.010276852 0.13967027 0.08578236 -0.26294655 -0.06304363 -0.38055485 -0.16925369 0.27177227
0.11702728 -0.16827473 -0.09854383 0.106152125 -0.34752357 0.10587687 -0.048775814 -0.55952024
-0.24448557 -0.019616302 -0.10931314 0.1796745 0.070099354 -0.066084296 -0.29586655 -0.023912294
0.06960715 -0.09767482 -0.30559182 0.2246272 0.080383964 -0.22671834 -0.10521369 -0.17150758
-0.016551027 -0.18975067 0.0438833 0.24135879 -0.17303497 0.12303568 -0.30832025 0.097029485

discrete_action_output_shape f4 [1, 2]
00000000: 0000 a040 0000 4040
5.0 3.0

network_body._body_endoder.seq_layers.0.bias f4 [256]
00000000: 2eb0 373d a918 02bd eedd b1bd d969 dabc
00000010: 86bf 803d 1883 a8bd 82ba 6c3d 059a 18bd
00000020: 09be d6bd 4056 5ebd 1958 9d3d e278 813d
00000030: 147e 2cbe 6c2b 753b 759f cfbd 7a3a d1bd
00000040: 6585 af3d f2ae 1fbd 0a61 27be a43b 0a3b
00000050: 6fa0 8c3d b256 943d 73a9 00bd aaf4 0c3e
00000060: f9be a5bd 91fb 1e3d 1d32 f2bd f009 ecbd
00000070: 166b 5d3e f83e 613c 56b6 833d 19df adbc
00000080: f32f 03bd 7a96 fdbb a1cc 5d3c f7a4 bf3c
00000090: 82b5 3ebd dc83 0e3d 6723 b43d 5c4b fe3b
000000a0: 0546 ba3d 2b03 fabd 6a7f 00be 3c64 5abd
000000b0: 0a74 233e 8158 92bd 1cbd 0c3d ecc8 f9bb
000000c0: 1153 8a3d af5c 64be 8214 d2bd 577f 423d
000000d0: 03db babc 82de e0bd 46dd 003e a619 b4bc
000000e0: 8829 32bd ceff d4bc 3a12 643c e148 7d3b
000000f0: 7598 53bd b3e1 9a3d a3b9 c13d a13f 893d
00000100: 6793 243e 7ed4 11be 525d 00be f1d2 753c
00000110: ce9a 6ebd 986c f2bd 109d 0ebe baaa 9bbd
00000120: 10f6 9ebb e3a4 0e3c 6987 c2bb 42ee dfbd
00000130: 5b9b 8f3d 3349 a33d e18e 853c 0880 cf3d
00000140: 88be a3bb 26b1 c4bd fb61 b8bd 7c44 1dbd
00000150: 9e14 d0bc 1c49 2e3d aeea 95bd 79fd 6dbc
00000160: f65e 2abd 60f2 c5bd 7dfb 3b3c 8d0e a3be
00000170: 5acc aebd 902e 14bd f50c c43c 1436 0dbd
00000180: 4394 efbd 7974 1a3c dec0 7b3d b139 ebbd
00000190: 2a98 fd3d aceb 02bd f9c5 9cbc e512 a13c
000001a0: 3c8e afbc dc39 b03d 80a5 02be 07ad d0bd
000001b0: 3019 b83d 2273 17bd c898 48bc e264 37bd
000001c0: 29c4 5fbc 1066 aebd 54c2 2bbd 7cc8 9b3d
000001d0: 91ec 2b3d d607 aa3d 1958 f73c 75ba 35bd
000001e0: e3cf adbc 22a9 ae3d cbbd c9bd 71ec 063e
000001f0: 0591 69bd 7dac 383d ef5b 66bc d36a 8dbd
00000200: 79c3 1d3e 4419 7abc fe3b 8ebd 29d0 fcbc
00000210: 7131 943d 3e95 a63c 1c86 2dbc 4f81 05bd
00000220: f103 a13d b377 3e3b 6d39 253d a692 363c
00000230: b24b f9bd 9bfe dabd db7e 9fbd 65b9 8a3d
00000240: 0bef 14be 7c47 dc3c 4ce7 823d 8de0 853d
00000250: fab1 9fbd a451 87bd aca0 a53d 5c8b 703d
00000260: e945 f83d 17cb 4f3e 1681 a33d 5e5a b0bd
00000270: 721c 83bd 9f65 883d 705e b43d 0b3a 1cbd
00000280: 05db 1a3d 13a9 06bc bc0d 81bd 559e 813a
00000290: 717d 51bc abeb cf3d a346 a9bb b608 1bbc
000002a0: f63d 55bd 4c21 87bd 2474 77bd d28e 21be
000002b0: 5485 10bc 5560 b1bc 8ee5 8d3b 1531 073a
000002c0: 274b ddbd 0b9a 18bd 4c1b f4bb cae6 3a3e
000002d0: c330 a6bb c35e eb3c 3077 e1bd 9c20 61bb
000002e0: 6834 cd3d e9fb a4bd f79c ca3d 1d7e f73c
000002f0: ab33 083d ad1e c93b 2444 a3bc 7a5b 533d
00000300: 40d7 b43d c6a9 ad3d 0ab9 333e 80de 183e
00000310: 4ffa 0abd e7da aabd 3004 173e e2e7 003d
00000320: b9f6 dd3d a97e dcbd 0c5c af3d eb7f 973d
00000330: f5f3 593e 97e1 b93c 2554 9dbd a301 0b3e
00000340: 02ae 633d 26bb f2bb da54 abbd ff3b a73d
00000350: afe2 b4bc ab36 553c bda1 d73c ba05 153c
00000360: 8384 a0bc da5b 9dbc d05f dc3d f4ab 2bbd
00000370: 45ee 2a3d ed34 2bbc 9b48 3c3e 72ba 95bd
00000380: cae7 db3d 742f dbbd f46f 82bd e1fc d8bc
00000390: d535 cd3a 1e3c 953d 7ad0 63be 7b4c e43d
000003a0: 9ac5 82bd 00b7 cc3d fc30 e8bc a85e 28bd
000003b0: 5997 ba3d a425 71be 23d2 b3bd 4331 e03d
000003c0: d7d7 1e3e d8a7 0bbd cf37 ccbc dce4 b63d
000003d0: 69f7 053d 744d 893d 2967 d4bd 5cd8 333e
000003e0: 14e2 ec3c 0b67 453e 715f 15be f2b6 053e
000003f0: 7839 b3bc 0d06 633e 7156 e7bd 0eee 1cbd
0.044845752 -0.0317618 -0.08684908 -0.0266618 0.0628653 -0.08228129 0.057795055 -0.03725626
-0.10485465 -0.054281473 0.07682819 0.06321885 -0.1684497 0.0037409915 -0.10137836 -0.10216232
0.08570365 -0.0389852 -0.16345611 0.0021092677 0.06866538 0.07243098 -0.0314116 0.13765207
-0.08093066 0.03881413 -0.118259646 -0.11525333 0.21622881 0.013747923 0.06431262 -0.021224545
-0.03202815 -0.0077388855 0.013537557 0.023394091 -0.046559818 0.03479372 0.08795815 0.0077604484
0.090953864 -0.122076355 -0.12548605 -0.053318247 0.15962234 -0.07145787 0.034360036 -0.0076228287
0.06754125 -0.22300981 -0.10257818 0.047484722 -0.022809511 -0.1097994 0.12584409 -0.021984886
-0.04349664 -0.026000883 0.013920361 0.0038648176 -0.051659066 0.0756258 0.094592355 0.067015894
0.16071855 -0.14241216 -0.12535599 0.015003906 -0.058253102 -0.11837119 -0.13927102 -0.07600923
-0.0048511103 0.008706304 -0.0059365523 -0.10934116 0.070120536 0.07972946 0.016303482 0.10131842
-0.0049970783 -0.09604101 -0.09003063 -0.03839539 -0.025400456 0.04255019 -0.07320152 -0.014525765
-0.041594468 -0.0966537 0.011473534 -0.3184704 -0.08535071 -0.036177218 0.02393196 -0.0344754
-0.116982006 0.009427183 0.06146323 -0.11485613 0.123825386 -0.031963035 -0.01913737 0.01966233
-0.021430127 0.08604786 -0.12758446 -0.10189252 0.08989179 -0.036975034 -0.012243457 -0.044773944
-0.013657608 -0.085155606 -0.041933373 0.07606599 0.041973654 0.08302276 0.030193375 -0.044367272
-0.021217292 0.08528353 -0.09850653 0.13176133 -0.057023067 0.045086373 -0.014060005 -0.06905141
0.15406598 -0.015264813 -0.06945036 -0.030860977 0.07235993 0.020334836 -0.010591056 -0.03259402
0.0786208 0.0029063046 0.04033797 0.011143362 -0.12172641 -0.106930934 -0.07787868 0.067736425
-0.14544313 0.026889555 0.06391773 0.0653697 -0.07797618 -0.066073686 0.08087286 0.058726653
0.12122709 0.20292316 0.079836056 -0.08610986 -0.0640191 0.06660008 0.08807075 -0.03814129
0.03780653 -0.008219021 -0.06301448 0.0009889106 -0.012786255 0.10152372 -0.0051658913 -0.009462526
-0.052061044 -0.06598148 -0.060413495 -0.15777138 -0.00882085 -0.02165238 0.0043303436 0.0005157155
-0.1080535 -0.03725628 -0.007449543 0.18252102 -0.005071731 0.02873171 -0.11009061 -0.0034351712
0.10019761 -0.080558605 0.0989322 0.030211503 0.0332524 0.00613769 -0.019929953 0.05160091
0.08830118 0.08479647 0.17551056 0.14928627 -0.03393012 -0.083425336 0.14747691 0.03147114
0.10838074 -0.10766346 0.085624784 0.07397445 0.21284468 0.022690577 -0.07682065 0.13574843
0.05558587 -0.0074075637 -0.083657935 0.0816574 -0.022080747 0.013013522 0.02632224 0.009095604
-0.019594437 -0.019208837 0.10760462 -0.041912034 0.041731138 -0.01044963 0.18387072 -0.07310952
0.1073757 -0.1070241 -0.063690096 -0.02648777 0.0015656302 0.07286857 -0.22247496 0.111474
-0.06385346 0.09995842 -0.02834367 -0.041105896 0.091108985 -0.23549515 -0.08780315 0.10946896
0.15512024 -0.034095615 -0.024928955 0.0893037 0.03270665 0.06704226 -0.10371239 0.17563003
0.028916396 0.19277589 -0.1458719 0.1305807 -0.02187799 0.22170277 -0.11295784 -0.038312964

network_body._body_endoder.seq_layers.0.weight f4 [256, 552]
00000000: add2 3dbe f327 64bb 4631 65be 6856 be3e
00000010: 698c ca3c 1b2c a83b 7b80 13be 0e1f 47bb
00000020: 369b ec3d a981 86bc 8e46 3cbe 1e3f 313e
00000030: f3ec 46be caf2 12be 9eb1 31be 7795 d4bb
00000040: 121a 0b3e f290 bbbd df61 5abe 8d0a 363e
00000050: 2fba 40be 9e9f f3b9 90a1 71be 8297 adbd
00000060: fa2b a1be c4a6 5abc 61a7 a1be 7049 813e
00000070: 1b34 88be 8f1c ce3d 1c40 90bd 21fb cc3d
00000080: 076a 73be 1716 b53e 96cd 9dbd e426 5d3e
00000090: 4d45 06be 28df 56be f88c c43d 8b8a 823d
000000a0: 12b8 b43e 3546 2cbd 084c 80bd bce7 353e
000000b0: 7d3a 4dbe 6bfe 01bd db16 77be 068a e2bd
000000c0: aa2f 4dbc d950 883e dc73 16bf 4f79 7f3d
000000d0: c180 dd3d 7e18 d4bd 61e3 a1bd 1845 73bd
000000e0: fd82 8fbc f2dc bf3e 4803 53be c793 383e
000000f0: 85f2 e9bd 0041 1b3e 1cf9 84bd b681 d9bd
00000100: cd55 c83e d712 083e fccc 29be c9a4 5f3d
00000110: 4674 a4bd ec5c 673e df82 ebbd ee3b 3ebd
00000120: 1e12 063d e489 913e d737 0a3e 1dd6 fabe
00000130: 565a fbbe 3cab e6bd e2e0 47be 1aaf 903e
00000140: cd10 0d3e 8dee 8b3e 4f92 bfbd 4e96 e1be
00000150: d283 9e3e c3de a9be f595 02bd e9f8 703e
00000160: b93d 2d3e 4bc2 4c3e 672f 36bd 2bcc a6be
00000170: 85fb e2be 3178 5b3e c527 4ebe ade9 0d3e
00000180: fd5c aebd 85d3 403d c56b 31be 6d0d bfbe
00000190: 8f49 c03c 17b3 053b 4dc6 19be b586 353e
000001a0: deb9 163e e837 703d 40d1 923e 96d9 2dbe
000001b0: effd 883e 1654 423e a011 55be 8314 8e3d
000001c0: c881 0dbe cbde 593d 31a8 973b fb39 01bd
000001d0: 1997 d0be d083 753e f1e7 91bd 3316 e93d
000001e0: 7966 12bd 2f85 8bbe f12a 593e 2330 0ebd
000001f0: 9467 1f3d 0850 81bd d69a c3bd f89f 053e
00000200: 84f4 10be 1d21 603e 93f6 423f 4c1b 443e
00000210: 0774 27be b872 4d3d 5fe9 c6bd 30d1 05bd
00000220: 15ce 19bd 26da a3be fccf 8abc 1be8 97bc
00000230: a10c a4be e672 dc3e aabb 29be 6a60 163e
00000240: 5515 01be 7dd8 cc3e 5bd3 e93e d79b 19bc
00000250: 35ee 6a3c b22b a4bc 804b b8bd 371f 103d
00000260: d1b6 79be 19a4 ad3e 4cef 25bc 0ac0 20bc
00000270: a602 873e 789e b0bc 0c3c 1e3e 2f65 283e
00000280: e0c5 32be e611 263e e9d9 32be f221 ea3d
00000290: 0bc0 823d 0629 cc3c 8a4b 0c3d 7338 1f3e
000002a0: cc63 eabe ae9c dc3e c13d cdbd 49a1 153d
000002b0: a8b4 403e 06ac 933e 39b8 c93d f972 f23d
000002c0: ea9e d0bd d6cc 56bc 50a9 583e 02b7 59bd
000002d0: 50f3 9ebd 78be 883e d757 df3d 9a7f f53c
000002e0: d8d8 9cbe ba51 1b3e d362 d93e d31d e93d
000002f0: 026c d13e 8bb0 50be 82e1 823d 8f0d 4d3e
00000300: 6091 7c3e b45c 013e fd99 a7be 5c96 46be
00000310: 6ab6 eabe 6205 d9bd 1c45 39be acaa 883e
00000320: 5823 663e e919 b03d 6215 34be 441d 32be
00000330: 67b3 96bc d4eb 68be 423e cdbd a325 893e
00000340: 33d7 a13e a8ef 6abd 7a98 c93e 8884 943c
00000350: 4400 e63e 3ed8 033e 112e 65be 8794 ef3a
00000360: 1e5e 3b3e d92a af3c 8aa3 c83c bb78 21be
00000370: 4cec df3d 0d20 42be 953f 4dbe 0d21 8e3e
00000380: d74a 1f3e 09fb 013e 31d6 373e 514f 4bbd
00000390: fbff 343d 73b4 213e d9c6 e93c 5cae 9a3d
000003a0: 0667 cc3c e09d 353e ed5e 013f 420a 033e
000003b0: 3249 88be ba1c 153e 8ed1 14be 440c 903d
000003c0: 9b80 da3d 21f8 553d 4cda c73d e73a afbb
000003d0: c0e1 42bd d21f 5cbe 4082 12bd 26a4 9d3e
000003e0: c6c2 b43e 8324 e7bd 5e7f 9d3e f7ae 53bd
000003f0: 260c e7bd 4048 55be 52ef 87be a12a bd3d
-0.18537398 -0.003481385 -0.22382078 0.37175298 0.024725156 0.005132211 -0.1440448 -0.00303835
0.11553042 -0.016419249 -0.1838629 0.17309234 -0.19426326 -0.14350429 -0.17352912 -0.006487544
0.13584164 -0.091585055 -0.21326397 0.17777462 -0.18821023 -0.00046467496 -0.23596787 -0.084761634
-0.31478864 -0.013345424 -0.31573012 0.2525134 -0.26602253 0.10064041 -0.07043478 0.100088365
-0.23770915 0.35368416 -0.07705228 0.21596867 -0.13112374 -0.20983565 0.095972 0.06374081
0.35296685 -0.042059142 -0.06264502 0.17764181 -0.20041843 -0.031736773 -0.24129812 -0.11061482
-0.012523571 0.26624182 -0.5877054 0.06237155 0.108155735 -0.10356234 -0.07904697 -0.059392065
-0.017518515 0.37473255 -0.2060672 0.18025123 -0.1142321 0.15161514 -0.06492826 -0.106204435
0.3912796 0.13288437 -0.16582102 0.05460051 -0.0802999 0.2259404 -0.11499571 -0.046443872
0.03273212 0.28425515 0.13497864 -0.4899148 -0.49092358 -0.11263129 -0.1951938 0.28258592
0.1377594 0.27330437 -0.09354078 -0.44059986 0.30959946 -0.33177766 -0.03188129 0.23532452
0.16918077 0.19995992 -0.0444788 -0.32577643 -0.4433252 0.21432568 -0.20132358 0.13858671
-0.0851383 0.04707672 -0.17326267 -0.3731493 0.023472575 0.0020400935 -0.15017052 0.17727168
0.1471934 0.058647066 0.2867527 -0.16977534 0.26756236 0.18977389 -0.20807505 0.06937506
-0.13819039 0.053190988 0.0046282043 -0.031549435 -0.40740278 0.23976064 -0.071243174 0.11381187
-0.035742257 -0.2725005 0.21207787 -0.034713876 0.03891714 -0.06314093 -0.09551017 0.13049304
-0.14155775 0.21887632 0.7615749 0.19151038 -0.16352855 0.050158232 -0.09712481 -0.0326702
-0.03755005 -0.32002372 -0.016944878 -0.018543294 -0.32040885 0.4305641 -0.16575494 0.14685217
-0.12605794 0.40008917 0.45669064 -0.009375534 0.01433902 -0.020040367 -0.089987755 0.03518602
-0.24386145 0.3391426 -0.010127854 -0.009811411 0.26369208 -0.021559939 0.15452594 0.16444848
-0.17458296 0.16217765 -0.17465939 0.11432256 0.063842855 0.024921905 0.034251727 0.15548877
-0.45779264 0.43088287 -0.10021544 0.036530767 0.18818915 0.2884218 0.09849591 0.118383355
-0.101865605 -0.01311036 0.21158338 -0.053153045 -0.07761252 0.26707816 0.10905426 0.029968072
-0.3063419 0.15167895 0.4245821 0.11382642 0.40902716 -0.20379846 0.063906685 0.20024703
0.24664831 0.1263302 -0.3273467 -0.19393295 -0.45842296 -0.1059673 -0.1809277 0.26692712
0.2247442 0.08598692 -0.17586282 -0.17393976 -0.018396093 -0.22746211 -0.1002164 0.26786527
0.31609496 -0.05735746 0.39374143 0.018129602 0.44922078 0.12875459 -0.22380854 0.0018278518
0.18297622 0.021382736 0.024492044 -0.15768711 0.10933742 -0.18957539 -0.20043786 0.2775959
0.15555893 0.12693419 0.17952801 -0.04963619 0.044189434 0.15791492 0.0285372 0.07552788
0.02495147 0.17736006 0.5053547 0.12796882 -0.26618344 0.1456174 -0.14533064 0.070335895
0.10669061 0.052238587 0.09758434 -0.005347598 -0.047578573 -0.21496513 -0.035768747 0.30789298
0.3530485 -0.11286261 0.30761236 -0.05168053 -0.11281614 -0.20828342 -0.26549774 0.092366464

network_body._body_endoder.seq_layers.2.bias f4 [256]
00000000: af6c cdbd c52e a1bd abe5 c83d f734 48be
00000010: cf47 82bd 60ad b9bc b7da debd 9bf1 1cbe
00000020: f629 16be 76ff 2fbd ed3d 02be d459 fb3c
00000030: 4ef1 1bbe 9826 99be 1182 673c cc15 acbd
00000040: 62fb 0bbe 3ff1 cebb 2685 56be 8691 57be
00000050: 5091 35be 4eeb f8bd ee26 fbbd f364 93be
00000060: 8986 bebc 0ffa 0b3d 94e1 88bd c536 15bd
00000070: 8c9b 0fbe 82cb 83bd 4cf5 51be 32b5 3cbd
00000080: 9956 f2bd 4e62 babd 70d4 a2be df66 e7bd
00000090: 83af 75be 6299 a3be 4850 35be 06fb bb3d
000000a0: 95f7 be3d eded e3bd 4a08 68be 79e3 4abd
000000b0: a2c6 cc3d 7c48 7fbe 1bdf 09be 28b4 4ebd
000000c0: c42f 48be 9311 34be 851b 52bd aa21 fbbd
000000d0: 811d 24bd 4092 a4bd 4301 27be 2822 e7bd
000000e0: fea4 1bbd a4b0 b6bd f5f7 dcbd 08d1 a5bd
000000f0: 4cc3 d5bc 8196 03b9 f791 7cbe 41cb 4cbe
00000100: 180a 6ebd 7035 a1bd 87c4 923c f6f8 16be
00000110: 122f f3bc 8f5f f7bc 3be7 49bd 665c fd3d
00000120: dd2f e2bc 364d 11be 685c c6bd a2d1 f5bd
00000130: 3d49 213e a3f1 81bd 2c1f 7bbe a2b3 24bd
00000140: 881a adbe 007c 87be cf95 10be e379 44ba
00000150: 64c8 29be 85cb c1bd dc7b 35be 2110 80bd
00000160: 840e 17be 924a 2fbe fc0a c6bd 936d bbbd
00000170: fdeb aebe 6966 ffbd 85d3 22be eec3 e2bd
00000180: dfcb 253e fe52 73be cea8 80be b3b1 11be
00000190: aab5 01be 3334 9cbd 24e4 03be a878 3abe
000001a0: 26b0 a1bc 6d5a 74bd d5f9 e33d 7936 ccbd
000001b0: 1550 17be 91e5 4cbd e100 b2bd 22f3 56be
000001c0: 1c0e c4bd 696a e8bd 3e8a 4bbe 42e9 96bd
000001d0: 6c4f 25be 451b 7fbe f6a6 a5bd 825f e8bd
000001e0: 2f70 3a3d 531a 113d cc3e c4be 2edd 66be
000001f0: aa7d 90bd c356 a7bd d276 92be 385d 8cbe
00000200: 8cc6 18bd 64a9 9e3d 49d5 acbd bca2 b7bd
00000210: d2cf 6abd 3b42 d6bd ef5a e0bc 3293 91bd
00000220: 5a92 48be d2d2 4abd 8d6b 173d 1561 c93c
00000230: b064 adbd 53ac 743b 8b03 1fbe 9b95 57be
00000240: 20d0 26be 0c57 40be 636d d1bd cfe7 63bd
00000250: 0dd5 8cbd 83d8 b1bd 5734 7bbd d2d8 c7bc
00000260: ff3e ecbb 8d4a db3d f11d 1dbe 475a 7fbd
00000270: 43ce 20be 8611 25bd 2175 83be 14cf 98bd
00000280: 8228 febd 986d 253e 2abe d8bd 8487 57be
00000290: 98db 2dbe 55d4 febd 02cf 26be da6a a2bd
000002a0: cd96 82be 1f21 59bd b086 2dbe 298e 08be
000002b0: 5978 85bd 4b22 593d 0302 293c 06ab a6bd
000002c0: 322b 1dbe 7edd 383e 34ad 44be 664c 49bd
000002d0: 1e02 a7bd 98ee c33d ec62 e3bb e23b e0bc
000002e0: fdb8 12be 9fb3 36be 2535 1bbe a9ed 67bc
000002f0: 03aa 883b e385 91bc 3c0f 5ebe 0141 02be
00000300: 9c56 103d aaab fdbd 5bfe a73d 8fa0 dabd
00000310: 3b35 6cbd 3605 cdbd 4755 10be 0791 98bd
00000320: 3ffe cfbd cce8 aabd b184 b0be 6f5f 87bd
00000330: 7dc9 78bd e206 c4bd a88a 7abc f7d4 b5bd
00000340: c199 f2bb 7bfa 21be 6882 25bc e9ab 82be
00000350: 6bf6 d23c 1a14 2b3c 715c b4bd 50b5 6b3d
00000360: 0ffb bdbe 28b5 0bbe 6c91 94bc 9a3f 0fbe
00000370: 0a5b fbbd 027e 01be 540b 32be 0c71 21be
00000380: ca32 9cbd 6682 aa3c 4682 0dbe a754 50be
00000390: 300f 803b 1647 00be 0566 66be 0e2e ae3d
000003a0: b8ed 2bbe f23e 4cbd 3ffe 68be ce91 6cbd
000003b0: fb27 00be 2ccd b5bc 4ecc 11be 5c89 4ebe
000003c0: 8930 d4be 760e d9bd e53f d4bd 981d 08bd
000003d0: 5ae2 e0bd d6be 45bd e747 02be 2df8 eebd
000003e0: 380e b2bb 8d4c 8ebd 15b7 50be 39bb 9dbd
000003f0: 30df 2bbe 2b5d 64bd b78b 06be 88ba 5cbe
-0.100304954 -0.07870249 0.09809431 -0.19551454 -0.06361353 -0.02266568 -0.1088156 -0.1532654
-0.14664444 -0.042968236 -0.12718935 0.030682482 -0.15228769 -0.29912257 0.014130131 -0.08402595
-0.13670114 -0.00631538 -0.2094923 -0.21051607 -0.17731214 -0.12154256 -0.122632846 -0.28787956
-0.02325751 0.03417402 -0.066836506 -0.036429185 -0.1402418 -0.064353004 -0.2050373 -0.04607124
-0.118329234 -0.091007814 -0.31802702 -0.11298918 -0.23992734 -0.3195296 -0.17706406 0.09178738
0.09324566 -0.11129365 -0.22659412 -0.04953334 0.09998824 -0.24929994 -0.13464014 -0.05046478
-0.19549471 -0.17584829 -0.051295776 -0.1226228 -0.0400672 -0.080357075 -0.16309075 -0.11285812
-0.037999146 -0.0892041 -0.107894816 -0.0809651 -0.026094101 -0.000125492 -0.24665056 -0.1999941
-0.058115095 -0.078715205 0.017915977 -0.14743409 -0.02968553 -0.030196933 -0.049292784 0.12371139
-0.027610714 -0.1418961 -0.09685594 -0.12002875 0.15750594 -0.06344917 -0.2452361 -0.040210374
-0.33809304 -0.26461792 -0.14119647 -0.0007494969 -0.16580349 -0.094626464 -0.1772303 -0.06253076
-0.14751631 -0.1711829 -0.09670064 -0.09151759 -0.3416442 -0.12470705 -0.15901001 -0.11072527
0.16191052 -0.23762128 -0.25128788 -0.14227943 -0.12666956 -0.07627144 -0.12879997 -0.18210089
-0.019737314 -0.05965655 0.11131636 -0.09971327 -0.14776643 -0.05002362 -0.08691574 -0.20991185
-0.09573004 -0.11348421 -0.19876954 -0.07368709 -0.16143578 -0.24912746 -0.08088486 -0.11346342
0.045517143 0.035425495 -0.3832916 -0.22545311 -0.070552185 -0.08170845 -0.28606278 -0.2741487
-0.037298724 0.077471524 -0.084391184 -0.08966586 -0.0573271 -0.10461851 -0.02738711 -0.071081534
-0.19587079 -0.04951746 0.036967803 0.024582425 -0.0846647 0.0037334159 -0.15528695 -0.21053164
-0.16290331 -0.18783206 -0.10225942 -0.05564099 -0.06876574 -0.086838745 -0.061329212 -0.02439538
-0.007209658 0.10707579 -0.15343453 -0.062341955 -0.15703683 -0.040299915 -0.256753 -0.07461372
-0.1241007 0.16155088 -0.10583146 -0.21047789 -0.169783 -0.12442843 -0.16289905 -0.079305366
-0.25505677 -0.053010102 -0.1694591 -0.1333548 -0.06517095 0.05301122 0.010315421 -0.08138089
-0.15348509 0.18053243 -0.19206697 -0.049145125 -0.08154701 0.095669925 -0.0069392826 -0.027372304
-0.1432838 -0.17841958 -0.15156992 -0.014155784 0.0041706576 -0.017764037 -0.21685499 -0.1272011
0.035238847 -0.12386258 0.08202811 -0.10675155 -0.057667952 -0.100107595 -0.1409503 -0.07449537
-0.101559155 -0.08345184 -0.34476236 -0.066099994 -0.06073903 -0.09571625 -0.015291847 -0.088785104
-0.007403583 -0.15818207 -0.010101892 -0.25521782 0.025752267 0.010441804 -0.08806694 0.05754596
-0.37105605 -0.13643324 -0.018135749 -0.13989106 -0.12273224 -0.12645724 -0.17387134 -0.1576578
-0.07626875 0.020814132 -0.13819227 -0.20344792 0.0039080605 -0.12527117 -0.22499855 0.08504878
-0.16789901 -0.049864717 -0.22753237 -0.057756238 -0.12515251 -0.02219256 -0.14238092 -0.20169586
-0.4144328 -0.10598461 -0.103637494 -0.033231348 -0.10980673 -0.0482777 -0.12722741 -0.116684295
-0.005433824 -0.06948195 -0.2038234 -0.077017255 -0.16784358 -0.055752914 -0.13139234 -0.21555531

network_body._body_endoder.seq_layers.2.weight f4 [256, 256]
00000000: 9554 093e 930a 393e c9ca b63c 316a 24be
00000010: 8200 e73e b1a8 0abe 89f7 5e3e f181 86be
00000020: 0595 f03e 451e 763e d27a ea3c 1254 1d3e
00000030: ae2f dd3d 44cc 853e 6733 843e 6ba1 c43d
00000040: 86c1 533d 26e4 e83d dfe4 643d cb98 943e
00000050: f765 c63d 4563 563e 9984 89bd 906c 473e
00000060: fe69 d0bd 07bd 693e fd2c c63e 112c c63e
00000070: de4e 3abd 8b09 353d 1064 19bd 6f7a 4cbc
00000080: c744 d23e f30d f83d d979 4ebe 1de0 b93e
00000090: c7e9 083e 8b7f 7bba b2ec 3b3e 932f a73e
000000a0: 3d4b 6d3c 096d 503e 491c 0e3d 7226 14be
000000b0: fc7e 8a3d 5c45 1abe 680e 093f fa17 d23d
000000c0: 6be2 ff3d 7136 2e3e 7bdc 02be 9d7e d03d
000000d0: 65ed 70bd b654 e43d c011 85bd a558 053e
000000e0: 45ef d8be bc3f bb3e 41d9 36bd 2f29 ed3d
000000f0: 3dce cfbe e1ab 533e 6e3d 59bd ac7a 333e
00000100: f586 333e 2d34 18be a08d 383c 2c58 e6bd
00000110: c9d4 ed3d f1f7 20be 0d1a 4d3e 7d8a 9a3e
00000120: 6db4 15be ddfd 3e3e 4253 1dbe 664d 88bb
00000130: 1fa2 37be b261 243d b03f 8d3b 44b8 0e3e
00000140: b6e9 4ebe 92c9 3abe 7e63 a03e d162 693e
00000150: a882 123e 7957 20be 87fe 0e3b 17a8 ccbd
00000160: 24fc 493d 38a1 823d 2a3c f93d e902 98bd
00000170: 5fbe adbe fe7e 13be f681 47bf b1b6 0abc
00000180: 632b 2ebe d583 873e ccd1 91bd 0f9b 763e
00000190: 262d 09be 1dc6 80be 0435 073e ddfc b2bd
000001a0: 0a42 2cbb 7f79 1e3e b0ff 65bd d2ea 0bbe
000001b0: e4f6 4fbe 3147 25be 2566 6a3c 5135 f9bd
000001c0: 3181 85bc de5f a4bd 22a3 bd3e 494c 97bd
000001d0: 8f9b 803c b35d 9d3d 5b1e 203e 2b19 8cbe
000001e0: b803 97bd 30ea bbbe 5650 cd3d fefa 583e
000001f0: 4365 793c bb0c 263e caf3 9b3e f272 063f
00000200: 79a3 47bc 61db c93c e264 be3e 5e3e eb3d
00000210: 1f7f 45be d311 b8be 94f7 a73e 28ce 873d
00000220: ecfd 093e 4682 e6bd d42a b43d 0cc7 2e3e
00000230: 91c9 bd3d 6ed0 a2be 9ef3 113d b883 52be
00000240: 455b 34bd 089d febd 6e25 3abd 2f3b 753e
00000250: e686 afbd dc19 08bd 2f1e b7bd 0b15 e2bd
00000260: 50b9 ccbd 9770 65be 4dd6 d8be 61ee 33be
00000270: b3ea 77be d552 9bbe cff5 883e 661a 8a3d
00000280: 9dd2 8d3d 0a6f 1fbe 6410 b63c fb8e 80be
00000290: 13d0 b1bd 1c73 5bbe 7adb 963d 46e7 1d3e
000002a0: 43c8 bb3d af96 363d d793 c5bd 24fb ba3d
000002b0: abae b33d 1fdd e4bd 313e 0cbf 33d7 fe3d
000002c0: 9009 a13e adac d23b 0764 9bbe 28d4 c43e
000002d0: f203 e13c 411d e53b 0f72 653e 3a44 333e
000002e0: 9647 933c d3b4 81be 9d25 cbbd 4256 043d
000002f0: d33c 443e 8212 263d 3f07 80be 96bb 1bbe
00000300: be4e 11bf c995 873e 184b 6ebe be08 2cbe
00000310: de95 b7bb 6309 623e 4472 1f3a 725e 173d
00000320: 8298 a7be 13f5 0cbe 2e1b b2be 6428 24bd
00000330: 12c8 a4be a8a4 8e3c 0980 d23e 43da af3e
00000340: cb23 2f3d 94a3 1e3c 33ac 99be dcbf 42be
00000350: 32ea d23e 2c75 19be 3b7f 003d 8c5d ccbd
00000360: c63b 203d 3369 2a3e c7bf ccbe ea37 053f
00000370: 9e87 e3bb 9809 e2be aba4 febd fd6f 07be
00000380: 6d2c 14be fc31 a4be 78cc 483e 6a7d 78bb
00000390: 53cb 18be 4476 3fbe 6fb5 33bd db14 2abe
000003a0: f8ae bb3d f436 9cbe 7832 aa3e 7d44 c73d
000003b0: 2af2 8e3c 4559 543e 6a74 a43d 0f9c 6b3e
000003c0: 4de1 56bd 9ae6 48bc 595a 483d 93e0 973d
000003d0: 9be5 e33e 531b 7c3e 764d 813e 7545 b33e
000003e0: 1896 223d cb01 003e 37a5 5e3e b4f8 0b3f
000003f0: 8efb 333e 7704 063e 29c0 023f f6e5 c9bc
0.13411172 0.1807044 0.022313492 -0.16056134 0.45117575 -0.13540913 0.21774115 -0.26271012
0.46988693 0.24034984 0.028623018 0.15364102 0.1080011 0.26132405 0.25820467 0.096011005
0.05169823 0.11371641 0.05588233 0.29022822 0.09687417 0.20936306 -0.06714744 0.19475007
-0.101764664 0.22826014 0.38706198 0.38705495 -0.04548537 0.044198554 -0.037448943 -0.012480362
0.41068098 0.121120356 -0.20163669 0.36303797 0.13370429 -0.00095938955 0.18352011 0.32653484
0.01448327 0.20354094 0.034694944 -0.1446779 0.067625016 -0.15065521 0.5353761 0.102584794
0.12494358 0.17012955 -0.12779419 0.101803996 -0.058820147 0.1114897 -0.06497526 0.13022096
-0.42370048 0.36572063 -0.044640783 0.11580121 -0.40587035 0.20671035 -0.0530371 0.17527264
0.17531951 -0.14863653 0.011264235 -0.11247286 0.11612851 -0.15719582 0.20029469 0.30183783
-0.14619608 0.18651529 -0.15363792 -0.0041596172 -0.17932938 0.040132232 0.0043105707 0.1393748
-0.20206341 -0.18240955 0.31325907 0.22791602 0.14307654 -0.15658368 0.002181919 -0.09992998
0.049312726 0.06378406 0.121696785 -0.0742243 -0.33934304 -0.14403912 -0.7793268 -0.008466409
-0.17008738 0.26467767 -0.07120094 0.24082588 -0.13396129 -0.25151148 0.13203818 -0.08739636
-0.002628448 0.15476035 -0.056152046 -0.13663796 -0.20309025 -0.16140439 0.01430658 -0.121683724
-0.016296955 -0.08026098 0.37038523 -0.07387597 0.015699176 0.07683887 0.1563658 -0.27362952
-0.07373756 -0.36702108 0.100250885 0.21189496 0.015221897 0.16215794 0.30459434 0.5251914
-0.012184971 0.02464074 0.37186342 0.11486505 -0.19286774 -0.359511 0.32806075 0.06631118
0.1347577 -0.112553164 0.08797231 0.17068118 0.09266961 -0.31799644 0.035632722 -0.20558059
-0.044032354 -0.12432295 -0.045445852 0.23948358 -0.08570652 -0.033227786 -0.08941304 -0.1103917
-0.09996283 -0.22406231 -0.42351 -0.17571403 -0.24210624 -0.30336633 0.26750037 0.06743316
0.06924937 -0.15569702 0.022224613 -0.25109085 -0.08682265 -0.2143063 0.073660806 0.15420255
0.09169056 0.044577297 -0.09647339 0.091299325 0.0877355 -0.11174988 -0.54782397 0.1244339
0.31452608 0.006429276 -0.30349752 0.38443112 0.027467702 0.0069920127 0.22406791 0.17506495
0.01797847 -0.2533327 -0.099192835 0.032308824 0.19163828 0.040544994 -0.25005528 -0.15208277
-0.56760776 0.26481465 -0.23270833 -0.1680021 -0.0056025824 0.22073893 0.00060823956 0.036955304
-0.32733542 -0.13765363 -0.3478636 -0.040077582 -0.32183892 0.017412499 0.41113308 0.34346208
0.042758744 0.009682555 -0.3001419 -0.19018501 0.41194302 -0.14986104 0.031371336 -0.0997878
0.039119504 0.16641693 -0.39990065 0.52038443 -0.006943657 -0.44147944 -0.12433752 -0.13226314
-0.14470072 -0.32069385 0.19609249 -0.003791655 -0.14921312 -0.18697459 -0.0438742 -0.16609518
0.09164232 -0.30510676 0.3324163 0.0972986 0.017449457 0.20737179 0.08030017 0.2300875
-0.052460957 -0.012262011 0.048914287 0.07415881 0.44511113 0.24619798 0.2525441 0.3501393
0.03969392 0.12500684 0.21742712 0.54676366 0.17576429 0.1308764 0.51074463 -0.024645787
