Assets/TFModels/Best models/original_6M_REBUILD (1vs1).onnx (onnx, 769862 bytes, 9 tensors)

action_model._discrete_distribution.branches.0.bias f4 [5]
000000 70 e5 14 3c 6e 12 2a 3e 1d 95 ce bd fe d4 99 bd
       0.009087905 0.16608593 -0.10087035 -0.07511328
000010 22 ec 00 bd
       -0.031475194

action_model._discrete_distribution.branches.0.weight f4 [5, 256]
000000 ba 17 b8 3a 42 d5 34 bd 1a d5 0d 3e fb 28 00 bc
       0.0014045157 -0.04414869 0.13850823 -0.0078222705
000010 af d1 8b 3d bd 14 a0 3c 7a f4 a3 bd c8 fa 74 3d
       0.06827103 0.019541139 -0.080056146 0.059809476
000020 62 86 cc bd 4b 83 ce 3b 7d 18 0d 3e dd 4b 20 be
       -0.09986569 0.0063022724 0.13778873 -0.1565394
000030 1f 13 a1 3d f2 a5 aa 3d 25 a1 61 3d 11 2c eb bd
       0.07864975 0.08332433 0.05508532 -0.114830144
000040 5e 12 75 be 67 49 04 3e 10 f8 bd bd 4c 62 82 bd
       -0.23932788 0.12918626 -0.0927583 -0.06366405
000050 be 16 ef 3d 77 bd 84 be 5c c4 05 be b3 50 e1 3d
       0.116742596 -0.259258 -0.13063186 0.1100172
000060 d1 ee 6b 3c fd 45 0c be 1a 5e b5 3d 07 f5 70 3e
       0.0144002 -0.13698573 0.08855839 0.2353097
000070 3a 98 db 3d f2 1a a0 3d 68 da a7 bd ef 43 b6 3d
       0.10722394 0.078176394 -0.081959546 0.08899676
000080 c2 01 42 bd b5 35 c7 bd 50 17 60 3e a4 d3 35 be
       -0.047364958 -0.09727041 0.21883893 -0.17756516
000090 46 d4 a9 bd 3d 3d a6 3d 28 13 0c 3d f5 56 37 bd
       -0.08292441 0.08117149 0.034197956 -0.044760663
0000a0 e0 ce 10 3d a7 3e d3 bd 24 33 a8 bd f2 bf be bd
       0.03535354 -0.10314684 -0.08212879 -0.093139544
0000b0 47 a1 88 be 74 f1 1f 3e 02 35 f9 bd 03 7c 86 3c
       -0.26685545 0.15619451 -0.121683136 0.016416555
0000c0 4a 78 a1 3d 22 0a 09 be f0 d8 a4 3b ee 13 e9 bd
       0.078842714 -0.13382772 0.005030744 -0.113807544
0000d0 19 84 69 3c 02 ea b4 3d 90 3e a8 3d c8 9f 97 bc
       0.014252686 0.08833696 0.08215058 -0.018508807
0000e0 a7 c7 43 bc 77 93 10 3c 0d 31 ef bc 44 85 23 bd
       -0.011949456 0.008824221 -0.029198194 -0.039922014
0000f0 11 4c 5c be 44 9c 52 3e 0c 2e 5c be 2e 2b b5 3d
       -0.21513392 0.20567423 -0.2150194 0.088461265
000100 d1 1c 80 bd 00 22 f0 bc 29 0e 3f bc f1 aa 36 be
       -0.06255496 -0.029313087 -0.011661091 -0.17838646
000110 fe 93 8c be fc 46 97 be 24 0a 86 bd f2 df 2f be
       -0.2745666 -0.29546344 -0.06544903 -0.17175272
000120 76 8c 89 bc 36 34 28 bd df 4e c8 3d 7e 9b 3e be
       -0.01679061 -0.041065417 0.097806685 -0.18614003
000130 7a 9d 66 bc b1 2d 7d 3d 1d 81 9c bd 8e f0 a8 bd
       -0.014075631 0.061811153 -0.07641814 -0.08249007
000140 9e 6c 8b bd a5 3f 25 bd c8 82 62 bd 0b 05 02 bd
       -0.068078265 -0.0403439 -0.055300504 -0.03174309
000150 08 2c 3e be a7 20 aa bd 4b 40 53 bb 60 4e d2 bd
       -0.18571484 -0.08307009 -0.0032234367 -0.10268855
000160 45 31 6c bd eb d4 24 3d 16 7c f0 bd 61 56 3a bd
       -0.057664175 0.040242117 -0.117424175 -0.045492534
000170 b4 21 8c 3d 09 7f 87 3d 99 e1 ca 3d f2 91 bf bc
       0.06842366 0.06616027 0.099063106 -0.023385022
000180 30 48 65 be 8c 30 83 bd bc 7a aa bd 8c 31 7c bd
       -0.22390819 -0.06405744 -0.08324191 -0.06157069
000190 10 d7 99 3d a4 cf 41 3e ff e4 f9 bc 17 1e d4 bc
       0.07511723 0.18926865 -0.030504702 -0.025893254
0001a0 dd de af bd 3a 80 2a bd 82 0e 07 3e 4e 9b c3 bd
       -0.0858743 -0.041626193 0.13189128 -0.095511064
0001b0 71 25 1b be 71 ce 8b 3d cb 33 b4 3d 1d 2c 02 be
       -0.15151002 0.06826485 0.08798941 -0.1271214
0001c0 80 00 6a bb da 72 a7 be 23 e0 6a bd a2 29 6d bd
       -0.0035705864 -0.32704812 -0.05734266 -0.057901032
0001d0 86 11 8d bd e7 69 3f be 3a dc b4 bd 93 71 3b 3b
       -0.06888108 -0.18692742 -0.088310674 0.002860163
0001e0 fa a5 93 bb 40 ef 41 3e 6c a4 2d bd 5d 4f 0a 3d
       -0.00450587 0.18938923 -0.042393133 0.033767093
0001f0 0a 09 d7 bc a2 06 45 be 90 01 20 3e 0a 91 fd bd
       -0.026249427 -0.19240811 0.15625596 -0.1238118
000200 d1 a4 48 bd 4f 62 35 3d fa 1f 89 bc a9 a0 99 bd
       -0.048985306 0.044283208 -0.01673888 -0.075013466
000210 47 e2 8b bc 1e bb 14 bd 15 5b b2 bb 26 2e 8d bd
       -0.01707567 -0.03631126 -0.0054429867 -0.06893568
000220 df 85 2b 3d 68 aa 11 3e 66 b8 f6 bd 7c b4 4c be
       0.041875716 0.14225161 -0.1204689 -0.19990724
000230 47 8a 0b be 73 0a d3 bd 6e 57 3e 3e af 2f a9 bd
       -0.13626967 -0.103047274 0.1858804 -0.08261048
000240 d9 74 11 be 90 6d 93 bd 57 36 2e 3d cd f2 d2 3d
       -0.1420473 -0.07198632 0.04253229 0.10300217
000250 44 f5 34 3e 85 68 9a 3d 06 4e 1f 3e 94 a3 6d bd
       0.17671686 0.07539467 0.15557107 -0.05801733
000260 76 c7 15 bd 25 22 36 be c3 30 5b be 4d 03 3c 3c
       -0.036567174 -0.17786463 -0.2140532 0.011475396
000270 2a 8a 4d 3d 8e ec 69 3d a5 17 0c be 86 86 58 be
       0.05018059 0.05711036 -0.13680895 -0.21145067
000280 18 3d 51 be 2f 83 62 3e 91 d0 e2 bd 60 f3 00 be
       -0.20433462 0.22120355 -0.11074937 -0.1259284
000290 0f b6 ad bc a0 70 f5 3d ca ee 06 bd 27 ec 17 bd
       -0.021204976 0.11984372 -0.03294257 -0.037090447
0002a0 bb 3e 04 3c 95 a5 b7 bd 2a 08 48 bd bc 37 70 3c
       0.008071597 -0.08967129 -0.04883591 0.014661726
0002b0 cb b6 3e bd aa 1b 44 be b2 92 2b bd c8 49 b1 be
       -0.046561044 -0.19151178 -0.041887946 -0.34626603
0002c0 b0 e6 da 3d 79 1f d6 3a 02 6c 32 3d b0 a4 c9 3c
       0.106885314 0.0016336284 0.043560036 0.024614662
0002d0 b3 80 64 bd 14 6c 6a be ef 6f 9e 3d 98 33 01 bd
       -0.0557868 -0.22892791 0.077361934 -0.031543344
0002e0 a9 00 2a 3e 36 ca 14 3e 22 d7 09 be 3d be 42 3e
       0.16601814 0.14530262 -0.13460973 0.19017883
0002f0 d5 b9 05 3c 72 21 1a 3e d8 4d 59 be ee 08 17 bc
       0.008161982 0.15051821 -0.21221101 -0.009218438
000300 1e 1e 59 3c c4 2a bd bc c2 99 68 be bb 4b 43 3d
       0.013251809 -0.023091681 -0.22714904 0.047679644
000310 a7 32 06 bc 28 59 67 bd 00 c2 4a be 4c 32 d0 3b
       -0.008190787 -0.05648151 -0.19800568 0.006353652
000320 b1 83 12 3e 5e bd 36 bd 06 66 0b 3d 9c 22 b4 bd
       0.14308049 -0.04461419 0.034032844 -0.08795664
000330 21 1e 74 be d7 80 4e bd f2 ea a4 bd 11 71 d5 3b
       -0.23839618 -0.05041584 -0.08052625 0.0065137227
000340 26 f0 8a 3c 01 5e 9b 3d b0 ee 24 3c 7f 45 a6 3c
       0.016960215 0.07586289 0.010066673 0.02029681
000350 90 b3 55 be 67 c9 cf bd 11 46 68 bd 10 0f 93 be
       -0.20869279 -0.10145836 -0.056707446 -0.2872243
000360 0d 9a 67 bd 4e 7e 15 3d b9 7b 23 be e7 c8 6c bc
       -0.0565434 0.036497407 -0.15965165 -0.014452196
000370 08 9a 83 bd 08 ab cc bd ad b5 13 be ec 43 9c bc
       -0.064258635 -0.09993559 -0.14424773 -0.019075356
000380 d7 c9 a3 3d 77 db f9 3c 52 3b 1a 3e dc 45 92 bd
       0.07997482 0.030500157 0.15061691 -0.07142231
000390 ab ec 6f be 42 85 a0 3d f1 44 aa 3d 06 70 53 3d
       -0.23430125 0.07837917 0.08313931 0.051620506
0003a0 4a 20 6c bc 2d b4 92 bb e2 db 17 bc ba 17 cc bc
       -0.014411995 -0.004477045 -0.009268733 -0.024913657
0003b0 0e d2 9a 3d 05 de 57 3e 25 49 61 bd ce 7f 22 be
       0.07559596 0.21080787 -0.055001397 -0.15869066
0003c0 85 09 e8 bc 65 96 89 3d 51 3a 1f 3c 0f 3c a2 bd
       -0.028324852 0.067181386 0.009718494 -0.079216115
0003d0 2d 81 31 be de 3c 1a bd 79 bb 84 bd 04 e3 eb bc
       -0.17334433 -0.037655704 -0.0648107 -0.028794773
0003e0 ec 0f da bd 1b 17 aa 3d 5d 26 24 3e 19 1b 7e bc
       -0.10647568 0.08305188 0.1603026 -0.01550939
0003f0 6f 32 3b 3d 22 83 8c 3c 4e 99 1a be f2 0d 3c be
       0.045702394 0.017152373 -0.15097544 -0.18364695

action_model._discrete_distribution.branches.1.bias f4 [3]
000000 8c 59 67 3d d3 65 8a bd 7e 4e d1 ba
       0.056481883 -0.06757703 -0.0015968827

action_model._discrete_distribution.branches.1.weight f4 [3, 256]
000000 63 f3 88 be 19 e2 68 3e 76 d7 d1 3c 75 5d 89 3d
       -0.2674819 0.227425 0.025615435 0.06707279
000010 fe 50 e9 3d 20 dc ec 3d cf 88 67 be 47 23 e1 3d
       0.11392401 0.11565423 -0.22610782 0.10993057
000020 22 b4 41 bc 62 d2 8b bd 3d dd 22 3c 17 16 2f 3d
       -0.011822732 -0.06827237 0.009940443 0.042745676
000030 b1 40 ad bd 30 72 24 bd 73 ac 1c be 1b 36 0b 3e
       -0.084596045 -0.04014796 -0.15300159 0.13594858
000040 78 d4 7f 3d bb 2b c0 bd 78 68 46 3e 32 05 63 3d
       0.062458485 -0.09383341 0.19375789 0.055424877
000050 74 42 2a 3d 98 37 88 3d 3d 90 b4 bd cd 5d a3 3e
       0.04156728 0.06651229 -0.08816574 0.31907502
000060 0e 93 9f 3e 1e c0 7e 3e 7b 98 aa bc 2c 96 c7 bd
       0.3116688 0.24877974 -0.020824661 -0.0974544
000070 ca d9 8f bc ac 79 3e be 6a 95 7a bd 01 88 2f 3e
       -0.017559905 -0.18601102 -0.06117765 0.17141725
000080 5a 6b 2a be ad 70 c0 3a e1 13 68 3e 01 c4 af 3d
       -0.16642514 0.0014682017 0.22663833 0.08582307
000090 c6 ff 88 3c 48 3d 96 3d e6 62 cc bd 3b fc e7 bc
       0.016723525 0.07335907 -0.09979801 -0.028318515
0000a0 21 30 71 3a b2 cc af 3b 1f 7c f2 3c 8f a8 a3 3d
       0.0009200592 0.0053649778 0.029600201 0.079911344
0000b0 ef db 0b 3d 5f f8 cf bd d7 31 cd 3d 98 8f 98 3d
       0.034145292 -0.10154795 0.10019272 0.07449263
0000c0 77 30 56 ba 2e aa db 3d a1 b8 1d be 01 9b 1c 3d
       -0.0008170674 0.107258186 -0.15402462 0.03823376
0000d0 45 2a d7 3d 91 6a 97 bd 21 44 f5 bc a0 f5 b6 3c
       0.10506109 -0.07393373 -0.029939713 0.02233392
0000e0 24 ea a5 3d 36 6b ea 3d c0 2c 02 3e f6 73 77 be
       0.081012994 0.1144623 0.12712383 -0.2416533
0000f0 d4 67 46 be 29 75 cf 3d 2c 99 0a 3e 25 8d a2 bd
       -0.19375545 0.101297684 0.13534993 -0.079370774
000100 19 f9 2f 3d 1a bd 9c 3d b4 ef da bc 67 56 6d 3a
       0.042962167 0.07653256 -0.026725627 0.00090537075
000110 12 f9 aa 3e 4b c6 5e 3c c4 15 b9 bd e2 6b e8 bb
       0.3339315 0.013597081 -0.090373546 -0.0070929388
000120 ce eb 3a be 50 90 38 bd 15 6c 88 3c c2 be 0f be
       -0.18254015 -0.045059502 0.0166531 -0.14037612
000130 a8 88 31 3d 97 a9 1d be 36 c3 cc 3d 90 10 54 3e
       0.043343216 -0.15396725 0.09998171 0.20709443
000140 98 94 3c be 97 c0 10 bd 83 2d b6 3c 3e 5e e9 bd
       -0.18416059 -0.035339918 0.022238499 -0.113949284
000150 ff 06 a6 3e 59 f9 18 be d8 b7 89 3d 5d ea 20 bd
       0.32427213 -0.14938869 0.067245185 -0.039286006
000160 9a 0e 89 bd 05 4e 8e be 2e fb 89 3d bd 3e cc bd
       -0.06692238 -0.277939 0.06737362 -0.09972904
000170 4c 56 b0 3d 30 54 11 3e b2 79 85 bd 80 30 9b be
       0.0861021 0.14192271 -0.06517352 -0.3031044
000180 30 42 0e 3e 59 18 d7 3d 8b c2 c4 3c 7a e9 dc 3d
       0.13892436 0.10502691 0.024018547 0.107867196
000190 31 dc 6b be da 6f 34 3e 42 f1 13 3c 10 d3 e4 3d
       -0.23033215 0.17620793 0.009029688 0.111730695
0001a0 c7 25 ad bd 21 45 86 3e 02 fd d2 bc eb bb 20 3e
       -0.08454471 0.26224616 -0.02575541 0.15696685
0001b0 0a 9f a7 bc 46 3d 58 be b3 52 13 3e 0a 6b c7 bc
       -0.020461578 -0.21117124 0.14387016 -0.024343032
0001c0 e0 a3 17 bd 32 d9 e9 bd b0 b7 68 bd de 6f 8a bd
       -0.037021518 -0.1141838 -0.056815803 -0.06759618
0001d0 df a7 36 be ba 4a bf bd 21 c4 06 3d fb 8c 99 bd
       -0.17837475 -0.09340425 0.032901887 -0.07497593
0001e0 27 9a 3a 3d 78 1e 87 3d c6 8d 8f 3e fa 06 01 be
       0.045557167 0.06597608 0.28037852 -0.12600318
0001f0 47 61 9d 3d 2f de 67 be 13 61 c7 3c 64 4b 6b bb
       0.0768457 -0.2264335 0.02433828 -0.003590309
000200 31 28 1e 3e d0 03 d5 bc cc 41 81 3c 40 74 b4 bd
       0.1544502 -0.026002795 0.015778445 -0.088112354
000210 61 2d 91 bc a0 07 ed bd 52 08 d3 3c 79 9d 03 bd
       -0.017721834 -0.1157372 0.025760803 -0.0321326
000220 15 a2 34 be 02 65 fd bd 03 73 20 3d b0 47 83 3d
       -0.17639954 -0.12372781 0.039172184 0.06410158
000230 f9 d9 25 be b2 de 31 3d b9 2c aa 3c ba 59 4c 3d
       -0.16196431 0.04342527 0.020773279 0.049890257
000240 53 0d b6 bc 64 17 d0 3d 6a fd 45 be 01 95 a5 3d
       -0.02222315 0.101607114 -0.19334951 0.08085061
000250 1d 1e 8c 3c c0 32 76 3d 86 09 4a be ee 55 e7 3d
       0.017104203 0.060106993 -0.19730195 0.11295687
000260 9a 2f d1 bc 03 32 65 3d a0 e5 2d bc aa d9 fe 3d
       -0.025535394 0.055955898 -0.010613829 0.1244386
000270 bf 22 9e 3d e9 80 90 bc 03 2c 0c bd 52 a3 a3 3d
       0.07721471 -0.017639594 -0.03422166 0.07990135
000280 0e 30 53 3e 39 99 22 bd ab 9c d7 3d fe d8 c8 bd
       0.206238 -0.039696906 0.10527929 -0.09807013
000290 e7 8d 58 3c e5 fa bf bc 04 d8 55 3d 96 58 4b bd
       0.013217426 -0.023435066 0.05220796 -0.04964503
0002a0 72 9c ee bd a8 47 4c 3e 1a c3 27 3e 27 3f 0c be
       -0.11650933 0.1994921 0.16383019 -0.13695966
0002b0 08 ae 34 3d 25 dc c2 3d 87 c4 c0 3d b9 9f 1e bc
       0.04411128 0.095146455 0.094124846 -0.009681636
0002c0 da cc 85 3d f6 39 41 3d 41 7f 1e 3e e5 d0 6f 3e
       0.06533213 0.047174416 0.15478231 0.2341953
0002d0 07 0a 55 3e 3d 43 55 be 8a 6e d5 3c 02 03 49 3c
       0.20804606 -0.2082643 0.026053686 0.0122687835
0002e0 a7 3e db bd 88 6c ef bd 56 d9 a3 3d fb 25 23 be
       -0.10705309 -0.116906226 0.08000438 -0.15932457
0002f0 92 68 de 3d 75 be a8 3d 49 12 80 3e b1 0f 4f be
       0.10859789 0.08239452 0.2501395 -0.2022083
000300 13 f2 4e 3c 0b f2 15 3e 22 ae 8f bd 90 61 01 be
       0.012630957 0.14643113 -0.07015635 -0.12634873
000310 06 42 37 3d d5 93 03 be 3c ea ef bc 7e 58 12 be
       0.0447407 -0.12849362 -0.029286496 -0.1429157
000320 08 09 47 be b1 b2 08 3e 4d 2d 5a 3d 5e 57 40 3e
       -0.19437039 0.13349415 0.05326586 0.18783328
000330 67 f6 35 3e cf f9 26 3d 44 04 9b 3d 95 29 fd bd
       0.17769776 0.04076558 0.07569173 -0.12361447
000340 6a cc 93 3d bb 10 07 3d bc 85 a4 3e e4 89 a1 bd
       0.07216723 0.03297494 0.3213328 -0.07887629
000350 cb 21 66 3d 86 2b 20 be 73 de 81 3d 14 16 25 3d
       0.05618457 -0.15641603 0.06341257 0.04030426
000360 cf a4 0a be 52 6e 4d 3d a0 0b 44 3d 84 74 f0 3d
       -0.13539432 0.050154038 0.04786265 0.117409736
000370 09 77 39 be 5d d2 c1 3d bf aa c0 bd 83 a8 67 3e
       -0.18111815 0.09463952 -0.09407567 0.22622876
000380 3f e7 89 bd e7 9b 35 3d 9f fb 9c 3c 3d e1 6d bd
       -0.0673356 0.044338133 0.019162951 -0.058076132
000390 aa ea 25 be e8 d8 fc bc ac 42 b3 bd 99 30 35 bd
       -0.16202798 -0.030865148 -0.08752951 -0.0442358
0003a0 15 75 3a 3e 0b 54 67 be 14 db 83 ba 2d 1b 60 be
       0.18208726 -0.22590654 -0.0010059797 -0.21885367
0003b0 7a 1d b0 bd bd e3 fd bd 2d f5 57 be db 18 1d be
       -0.08599372 -0.12396953 -0.21089621 -0.15341513
0003c0 94 14 09 3c 3c 94 b6 3d b4 3c e5 3d 3d 4c 9a bd
       0.008366723 0.08914992 0.11193219 -0.075340725
0003d0 8c e7 e1 bd f1 d9 b0 bd 2a 34 97 3d 79 68 45 3d
       -0.11030492 -0.08635319 0.073829964 0.048195336
0003e0 e8 47 2e 3d a9 07 23 3e 9e b8 b7 3d 5f a3 dc bd
       0.042549044 0.15920891 0.0897076 -0.10773348
0003f0 4c 3d 17 3e ab 53 5e 3d 6c e5 92 bd 84 63 15 bd
       0.14769477 0.05427901 -0.07172665 -0.03647186

discrete_action_output_shape f4 [1, 2]
000000 00 00 a0 40 00 00 40 40
       5.0 3.0

network_body._body_endoder.seq_layers.0.bias f4 [256]
000000 1d d7 5e 3d 12 0f 29 3d e9 3b f1 bb 6e 6f 10 bd
       0.054404367 0.041274138 -0.007361878 -0.035262518
000010 4a ab 48 3d 84 2b 2e be b1 ff 8f bd 68 7b 46 bc
       0.04899148 -0.17008787 -0.07031191 -0.012114383
000020 d6 ca 1c bd ac da 06 3e 9b e6 79 3c 3c cf 37 bd
       -0.038279377 0.13169354 0.015252735 -0.04487537
000030 cc d4 d5 bd 0d 23 c4 3c 22 4a 20 bd 80 93 87 3d
       -0.104409784 0.023942495 -0.0391332 0.0661993
000040 15 b9 36 3d 80 4c da bc 53 9e 98 bd 66 21 22 3c
       0.0446101 -0.026647806 -0.07452073 0.009895658
000050 b3 ae 91 bc a9 b9 46 3d 82 2f 1a 3d 5f 3c 3c 3d
       -0.017783498 0.048516903 0.037642963 0.04595601
000060 a3 18 02 bd 71 f1 97 bb 3a bf 83 bd b5 a3 77 bc
       -0.031761777 -0.0046369364 -0.06432958 -0.015114714
000070 7d 55 1c bd 00 1b c7 3c a2 a5 e5 bc c7 22 8a bc
       -0.038167465 0.024304867 -0.028033081 -0.016862286
000080 a8 8e 7f bd b6 f2 90 bc 5f 1f 68 3d d1 fb 57 bd
       -0.062391907 -0.017693859 0.056670543 -0.052730385
000090 87 cd b4 3d fd 34 60 bd 0c 7a 76 bc f8 28 2d 3d
       0.08828264 -0.054738034 -0.015043747 0.0422754
0000a0 b2 94 62 bd fb 0e 21 3c 81 0f 63 bd b3 06 f7 bd
       -0.05531759 0.009830232 -0.055434708 -0.12061825
0000b0 e0 ce 21 3d 74 30 c7 bb 61 ce 3f 38 01 14 57 3d
       0.039503932 -0.006078774 4.5730154e-05 0.05250931
0000c0 c7 50 41 3d d0 e0 91 bc ca 92 09 3d 5c ba 24 bd
       0.047196176 -0.017807394 0.033587255 -0.04021679
0000d0 8a 78 eb bb bc 73 70 3e b4 49 13 3d fe ef c8 3d
       -0.0071860002 0.23481649 0.03595896 0.098114
0000e0 55 10 6f 3c 82 d0 ac bd 01 dc bf bc 58 9f cb 3c
       0.014591296 -0.08438207 -0.023420336 0.024856254
0000f0 42 36 04 bd bc 63 67 3c ed cf 62 bc 5b 11 e6 bc
       -0.032278307 0.0141229 -0.013843519 -0.028084448
000100 65 fb 97 3c 0f dc ff 3a 9f 55 6c 3b dd 1a a6 bc
       0.018552491 0.0019520539 0.0036061776 -0.020276481
000110 ed 23 60 bd 43 c1 72 bc d5 fa d6 3c e2 a6 6a 3d
       -0.05472176 -0.014816585 0.026242653 0.057288058
000120 73 5c c1 3c 6d 49 ed 3d 98 c9 77 3d 75 3d 82 3c
       0.023603654 0.115862705 0.06049499 0.015898446
000130 25 04 23 bd 4d 1d 00 be 90 40 13 bd ab 01 dc 3a
       -0.039798874 -0.12511177 -0.035950243 0.0016785165
000140 c5 98 a7 bd 2f 01 b0 3d e6 31 91 3c 45 3a 75 3d
       -0.08183435 0.08593976 0.017723989 0.059870023
000150 6b 67 3d 3d c3 61 23 3d e4 f9 7c bb 04 61 94 3e
       0.046241205 0.039888155 -0.0038601095 0.28980267
000160 7a e9 a7 bd 99 dd 20 3d 2d e0 46 3c 4c e8 d6 bc
       -0.08198829 0.039273832 0.012138409 -0.026233815
000170 5b 89 8f 3c a3 e5 79 3d c8 42 c9 bc 63 05 2d 3e
       0.01752155 0.061010014 -0.024567977 0.16896586
000180 61 28 06 3e fa 0c 2f 3c 11 76 6f 3d 72 3a d3 3d
       0.13101341 0.010684246 0.058462206 0.10313882
000190 10 95 e6 bc 5e 62 80 bd 2c 08 a1 3d 55 f8 87 3d
       -0.02814725 -0.06268762 0.07862887 0.066391625
0001a0 5c 5f 5b 3c 7e 7c 74 bd 44 d6 b4 3d e8 02 89 3b
       0.013389435 -0.059689038 0.088299304 0.0041812547
0001b0 83 2a 00 be 20 d5 71 3d e1 8a 4c bd b1 a3 39 bd
       -0.12516217 0.059041142 -0.049937133 -0.045322124
0001c0 a7 bf 16 bc f1 4c 17 bd 28 19 80 bd 09 45 5c bd
       -0.009200967 -0.03693861 -0.06254798 -0.053776775
0001d0 bd 90 03 3c 35 63 2e bd 1e 3c 2b 3d ab 43 5a 3d
       0.008030114 -0.04257508 0.04180538 0.05328719
0001e0 70 5b 15 3d 8a 6a 6e bc 96 e4 48 bd 34 9a 23 bd
       0.036464155 -0.014551768 -0.04904612 -0.03994198
0001f0 f4 cb 8c bd d1 6f 76 bc 1e 74 80 bd 26 c1 55 bd
       -0.068748385 -0.015041308 -0.062721476 -0.052186154
000200 55 47 8f bd 7f 47 0e bd b7 f9 81 3d f3 5b 4e 3d
       -0.069960274 -0.034736153 0.063464575 0.05038066
000210 36 69 21 bc c4 31 c6 b7 6d a9 a4 bc be 8e 1f bd
       -0.009851744 -2.3626613e-05 -0.02010032 -0.03895449
000220 f5 b7 87 bd 5f e2 61 bd 0d 8f 28 bd 16 c2 be bd
       -0.06626884 -0.055147525 -0.04115205 -0.09314363
000230 4e 01 02 bd 10 f2 b1 bd 3b d5 07 bd 9b aa f2 bc
       -0.031739525 -0.08688748 -0.033162337 -0.029622367
000240 8b 3a 15 3d dc 94 08 3d 05 fa ff 3c e2 d6 9e 3c
       0.036432784 0.03334509 0.031247148 0.019389573
000250 e5 78 d8 bc 9c 64 2d 3d 12 22 95 bc 0d 56 f0 bd
       -0.026424835 0.042332277 -0.018204723 -0.11735163
000260 a5 0d 18 bd 08 f9 9a 3d 71 b5 e4 bc 34 c6 b1 3b
       -0.037122387 0.0756703 -0.02791855 0.005425239
000270 a5 01 41 3d 64 cd bb bc 1a 89 c5 bc 2e 2b 9b bc
       0.04712071 -0.022925086 -0.024113227 -0.018941488
000280 96 d6 e2 3c 3a ef 4c 3a 39 20 2a 3d f0 4b 48 3d
       0.027690213 0.000781763 0.041534636 0.048900545
000290 fa bc 9e bc 1d 17 ae 3c 5f 2d a0 bd f3 24 34 3d
       -0.01937722 0.021251256 -0.07821154 0.04398055
0002a0 3b 9a 7d 3a bb 72 e9 39 f2 b4 98 3d f2 66 09 3d
       0.0009674166 0.00044526704 0.074563876 0.033545442
0002b0 75 a5 46 bd ae 9d bf bc b9 76 34 bd 74 c3 44 bc
       -0.048497636 -0.023390617 -0.044058535 -0.01200949
0002c0 75 42 0d bd f3 9a a2 3d 11 8e a3 bc 29 c0 14 bd
       -0.034487206 0.079397105 -0.019965203 -0.03631607
0002d0 2c 42 1e 3c 11 f2 2b bd f6 49 2f bd 52 be 4c 3d
       0.009659331 -0.0419789 -0.042795144 0.04998619
0002e0 b1 98 81 3c f0 f7 96 3d 3e e0 1a 3d 6a b3 21 bb
       0.01581988 0.07371509 0.03781151 -0.002467359
0002f0 e8 b2 76 3c f4 a6 bb bd df 78 04 bc 62 18 14 3c
       0.015057303 -0.09162703 -0.008085459 0.009039016
000300 fa 3d c2 3b 6a 8f 43 3d fd 0b a4 bd 15 66 1b 3d
       0.0059277983 0.047744192 -0.08010099 0.03793915
000310 d4 f0 af bd 57 27 4b bd 77 21 3e bd ce 61 d0 3b
       -0.08590856 -0.049598064 -0.046418633 0.0063593155
000320 62 b5 e2 bc 7c 29 b1 bd 43 29 09 3d 38 6d 79 3c
       -0.02767438 -0.08650491 0.033486616 0.015223794
000330 9b a7 97 3c f9 25 9e bc 03 6b 34 3d bc 0e 3b 3d
       0.018512538 -0.019305216 0.044047367 0.04566835
000340 15 f1 98 bd c5 26 70 3d 2d c4 ab 3c 92 fb de 3c
       -0.07467858 0.058630724 0.020967567 0.027219567
000350 21 07 fe bc e2 a8 c6 3d 4a fb aa 3c 78 54 a1 bc
       -0.031009259 0.097001806 0.020871777 -0.019693598
000360 f6 0a 95 bc 83 55 83 bd 8b b6 26 3d 39 d5 dd 3c
       -0.018193703 -0.064127944 0.04070143 0.027079212
000370 8c 93 15 bc 03 04 f3 3c 47 3f 28 bb 04 2d 9a bc
       -0.009129416 0.029664999 -0.0025672482 -0.018820293
000380 e7 d0 14 3d 59 e4 c7 bb de bf d6 3d 37 11 e7 3c
       0.036332037 -0.006100219 0.104858145 0.02820645
000390 61 b8 16 3b f5 63 55 bd 52 89 27 bd 99 36 50 3d
       0.0022998082 -0.05209728 -0.040902443 0.05083332
0003a0 93 ad e5 3c 2e a4 3c bd 83 72 c2 bd c8 fb e2 bd
       0.028036868 -0.04605501 -0.094944976 -0.1108318
0003b0 2f 7a 0f bd 10 f3 03 bd c6 bd 48 3c fa 06 e5 3c
       -0.035028633 -0.032214224 0.012252277 0.027957428
0003c0 26 fe 3f 3d 40 99 5f bd ab 16 8b 3d 0a 45 1e bd
       0.046873234 -0.05458951 0.06791433 -0.03864006
0003d0 9d ac 67 bd 8e 40 63 3d 1b c3 07 bd 37 05 af bd
       -0.0565611 0.055481486 -0.03314505 -0.085459165
0003e0 fc 7f 49 bd c4 c5 af bc 7f 5d 81 bd fd 53 ff 3b
       -0.04919432 -0.021456607 -0.06316661 0.0077919946
0003f0 9c a3 ad bb 9d bf b4 ba 1c 8e f8 3c c0 a6 a3 bb
       -0.005299045 -0.0013790015 0.0303412 -0.0049942434

network_body._body_endoder.seq_layers.0.weight f4 [256, 483]
000000 4d 59 3f bc 1c 6a 6d bc 37 63 8c bc 35 6f 93 3e
       -0.011679006 -0.0144906305 -0.017137153 0.28795782
000010 54 94 ad bd 5e 3a a5 bd e3 9a b8 bd d7 8a 27 bd
       -0.08475557 -0.08067773 -0.09013917 -0.040903892
000020 32 05 d5 3c a9 b2 bb 3d 5a 88 8f 3e 11 4e 87 be
       0.026003454 0.09164936 0.28033715 -0.26426747
000030 26 a0 96 be 62 91 67 be 0e 96 c1 bd d5 55 4e bd
       -0.2941906 -0.22614053 -0.09452449 -0.050374825
000040 da 7b f4 3c d8 02 7a 3e d3 8d 80 3b 2d 6c 09 be
       0.029844213 0.24415147 0.0039231568 -0.13420172
000050 c6 f2 7b 3d 9f d0 83 be 42 66 9a bd 0d 42 00 bd
       0.061510824 -0.25745103 -0.075390354 -0.03131299
000060 7c 9b 63 3d dc 8c 95 be 18 2f 81 be f2 ae 09 be
       0.055568203 -0.2920903 -0.25231242 -0.13445643
000070 89 81 07 bb 06 d7 77 bd 43 fe e9 bc 2b c3 08 3e
       -0.0020676574 -0.060507797 -0.028563624 0.133557
000080 1f 4c 1c be f8 84 14 be 19 23 80 be b9 49 41 bd
       -0.15263413 -0.14503849 -0.25026777 -0.047189448
000090 a8 df 83 3e 52 3d 76 be 7b 0c 26 39 68 2f c7 3d
       0.25756574 -0.2404683 0.00015835643 0.09725839
0000a0 e8 00 ec bd 1f 15 3c bd f4 a2 22 bd 70 4a 7f bd
       -0.1152361 -0.04591858 -0.039706185 -0.06232685
0000b0 e2 8f 10 be 4c 1e 12 3e 8d 3e 93 be d0 31 81 be
       -0.14117387 0.1426937 -0.2875866 -0.25233316
0000c0 2a 2e de 3b f0 01 22 3d a5 88 96 bc 64 35 80 3d
       0.0067804055 0.03955263 -0.018375704 0.062601835
0000d0 76 04 68 3e 9f 2d 21 3e 35 77 54 be e1 29 4a be
       0.22657952 0.1574006 -0.20748599 -0.19742538
0000e0 2b b5 a9 3e 26 5b cc 3e 30 34 21 3d d3 73 97 3d
       0.33146033 0.3991329 0.03935641 0.073951386
0000f0 52 a3 27 3e 61 3d 08 bd f6 ce 13 bd 9a 27 32 bd
       0.16370896 -0.03326166 -0.036086045 -0.0434948
000100 39 e5 47 3e 99 cc ba bd 93 b6 17 bd 7f 37 72 3e
       0.19521035 -0.09121055 -0.03703935 0.23653983
000110 33 b2 6d bd 5e d4 cd 3c 20 2f 24 be 6b b8 9f 3d
       -0.058031272 0.025125679 -0.16033602 0.07798847
000120 75 72 28 3e 02 62 94 bd 98 2c 53 3e aa 50 31 bd
       0.16449912 -0.07245256 0.2062248 -0.043289818
000130 64 d2 ad 3d 05 bc 93 bc d1 d9 53 be f9 19 7f be
       0.084873945 -0.01803399 -0.20688559 -0.24912252
000140 e3 c0 05 3d 46 0e 99 3e 84 bb b7 3b 38 f6 a7 3d
       0.032654654 0.29893702 0.0056070704 0.082012594
000150 30 a2 55 3d e6 33 97 ba a5 31 0a be 95 27 30 be
       0.052156627 -0.0011535853 -0.134955 -0.172026
000160 57 27 2b 3e d1 1b ab bd e4 9e 32 3e a1 8b e6 3d
       0.16714226 -0.08354915 0.17443424 0.11257101
000170 b8 bc 12 be 4c 5b 3b 3e 26 ec b2 bd d8 a9 4d 3e
       -0.14329803 0.18296546 -0.08736448 0.20084321
000180 9f 23 14 3c 4a e0 6e 3d 90 96 53 be c6 89 28 be
       0.009041696 0.058319367 -0.20662904 -0.16458806
000190 14 2a 3c 3e 10 91 c8 bc 74 0a 16 bc 44 19 46 bd
       0.18375427 -0.024483234 -0.009157766 -0.04836394
0001a0 d3 5e 5c bc da c5 67 be cf 1a e6 3c 3e c1 a8 3d
       -0.013450342 -0.22634068 0.028088955 0.08239983
0001b0 5f e3 1f be 5d 34 43 be 24 54 59 3c ce 7f dc 3d
       -0.15614079 -0.19062944 0.01326469 0.10766564
0001c0 22 37 8b be af 6a 48 be 81 3f a5 bd a9 4d dc 3d
       -0.271905 -0.19571947 -0.08068753 0.10757
0001d0 ee 54 b2 bd 74 d6 8c bc 09 bf 95 3d 9d b0 97 bc
       -0.08707605 -0.017192103 0.07311828 -0.018516833
0001e0 7c 94 f1 bd e4 18 5c be f2 30 eb bd 5d d3 ca 3d
       -0.11795899 -0.2149387 -0.11483945 0.099035956
0001f0 d6 c5 02 be 5d 99 23 3e 49 e8 2e 3e 2e a2 ca bd
       -0.12770781 0.15976472 0.17080797 -0.098942146
000200 29 12 a6 bd 3f a8 d9 3c b6 59 82 3e c9 cf bf 3b
       -0.081089325 0.026569484 0.2545907 0.0058536273
000210 f9 30 0d bc 6f f6 f8 3d a6 a8 88 3e c0 14 cb be
       -0.008617633 0.121563785 0.2669117 -0.39664268
000220 86 ea 8d be 96 e3 7b be 2c d8 e9 bd ac 68 a4 3e
       -0.2771799 -0.24598536 -0.11418185 0.32111108
000230 8f a5 2d bd 0d 8f 03 3e 13 85 46 be 2f 8d 12 3e
       -0.042394217 0.12847538 -0.19386701 0.1431167
000240 71 6a f9 bd 91 99 3f be e0 e6 97 3e b4 18 c0 3d
       -0.12178505 -0.18710925 0.2966833 0.09379712
000250 6a 5e ca 3d 87 73 84 3e f4 38 c8 3b ef 76 89 bd
       0.09881289 0.2586939 0.006110305 -0.06712138
000260 95 09 d3 bd b0 5a 2a bd da 82 53 be c3 0e c8 3b
       -0.10304562 -0.041590393 -0.20655385 0.0061052754
000270 e8 b4 39 be e5 e5 5d 3e 62 4d 92 be 33 4b 28 be
       -0.18135417 0.21669729 -0.28574663 -0.16434936
000280 96 f4 56 3e 5a 07 1b 3e 7b c2 c0 bc 25 20 72 be
       0.2099174 0.15139523 -0.023530236 -0.23645075
000290 7c d7 5d bd 5d 1c 44 3c 12 69 36 bd 6a 56 c0 3d
       -0.05416058 0.011969653 -0.044533797 0.09391482
0002a0 50 c3 58 3e 02 21 06 bd 31 d7 b4 3d 30 a5 92 bd
       0.21168256 -0.032746322 0.08830107 -0.07160413
0002b0 73 f5 3a be e8 69 01 3e 66 16 b6 3c 61 bc 9a 3d
       -0.18257694 0.12638056 0.022227477 0.07555462
0002c0 7f 60 a8 bc c3 fa bc 3d 4e 5e 80 be f6 1e 97 be
       -0.020553825 0.092275165 -0.2507195 -0.2951581
0002d0 5c 9a 26 3d b7 29 fd 3d 81 6f f3 3d 4c ff 82 be
       0.040674552 0.12361472 0.11886502 -0.255854
0002e0 9f 8a 57 3e b2 53 0b bd c0 d9 12 be 88 01 02 3e
       0.21048974 -0.034015365 -0.14340878 0.12695897
0002f0 86 09 67 bd 51 15 b4 3d fb 72 50 3d 21 2f 0a bd
       -0.056405567 0.08793128 0.050890904 -0.033736352
000300 e7 ac f3 bd ed 3f 54 3e 45 74 0b 3e 23 9c 8e 3d
       -0.11898213 0.20727511 0.13618572 0.069633745
000310 84 44 ca 3c 29 ee 96 3b 14 76 b8 3c b1 9f 61 bd
       0.024690874 0.0046060276 0.022517242 -0.055083934
000320 55 88 a3 bd ca a6 93 bc 87 44 07 3d 44 b6 23 bd
       -0.07984988 -0.018023867 0.033024337 -0.039968744
000330 2d 3d d4 bd 22 42 74 bd 3d 9f 57 be 1d 53 7a be
       -0.10363231 -0.05963338 -0.21056838 -0.24445768
000340 f5 2d 72 3e 63 06 22 3e 27 c8 90 bd 5e ae b3 3d
       0.23650344 0.15822749 -0.07069426 0.08773492
000350 1b be 04 be 7c 81 65 bd bc 4d a0 be 08 36 24 3e
       -0.12963144 -0.05603169 -0.31309307 0.16036236
000360 42 d4 00 3e bc 22 3f 3d 73 30 ce bd ec 97 c6 bb
       0.1258097 0.046663985 -0.10067835 -0.006060591
000370 f2 65 fd bd 7b 73 34 bd 7b 1f 15 3e 3b 9b 23 3e
       -0.1237296 -0.044055443 0.1456279 0.15977184
000380 f3 40 d0 3c 3e f3 5b bd 6d b0 4a 3d 72 17 ec bd
       0.025421595 -0.05369877 0.04948466 -0.11527909
000390 b0 09 9d bd 75 8c 8f 3d 80 87 01 3e 4d 84 1d bc
       -0.07667863 0.07009212 0.12649345 -0.0096140625
0003a0 7d 70 18 3e bf e9 40 be 3c f6 44 be 13 60 0e 3d
       0.14886661 -0.18839167 -0.19234556 0.034759592
0003b0 42 1a d1 3d ce 65 1e 3e 92 1e 71 bd e0 e4 cd bb
       0.102100864 0.15468523 -0.058867045 -0.0062833875
0003c0 42 75 7b 3e 68 ff 66 be 3d 7b 92 bd 2e 1c cc 3d
       0.24556449 -0.22558367 -0.07152412 0.09966312
0003d0 fb 43 4b bc da f0 30 3e eb 3b d4 3c 0f ab cf 3d
       -0.0124063445 0.17279378 0.025907477 0.10140049
0003e0 15 50 e2 bc f3 49 67 3d c1 87 f4 3d c9 20 02 3e
       -0.027626077 0.056467008 0.119399555 0.12707819
0003f0 8a 7f c4 bd 1b 89 27 be 0e 34 a2 bd b3 b1 14 bd
       -0.09594639 -0.16360895 -0.07920085 -0.03630228

network_body._body_endoder.seq_layers.2.bias f4 [256]
000000 b4 73 6a bd 15 83 a9 3b 4a 2c 8e bd 2b 53 3d bc
       -0.05723925 0.005173097 -0.06942041 -0.011555473
000010 d2 24 19 bd 96 94 b5 bd c0 ec 51 be 4e e0 ba bc
       -0.03738863 -0.08866231 -0.20500469 -0.022812035
000020 bd f7 35 be ca b9 20 be 42 7b e7 bd 0c 14 88 3a
       -0.17770286 -0.15695873 -0.113028064 0.0010381951
000030 96 5c 88 bd 6b 06 af bd 9f 32 20 be c4 12 f3 bd
       -0.06658284 -0.08546146 -0.1564431 -0.11868814
000040 c0 b9 5f 3c a4 7b 01 be 0f 2c b5 3b 97 15 a8 bd
       0.013655126 -0.12644821 0.005528934 -0.08207243
000050 68 6c de bc f6 3f c7 bb 2b b9 aa bd 62 a0 3d 3d
       -0.027151302 -0.006080623 -0.08336099 0.04629553
000060 12 ce 0f bd 41 c7 96 3d b8 7a c8 bd 10 f6 4a 3d
       -0.035108633 0.073622234 -0.09789032 0.04955107
000070 77 86 12 bd 94 73 62 be 03 4c 00 be 65 f1 d9 bc
       -0.035772767 -0.22114402 -0.12528996 -0.026604364
000080 a6 5d d6 bd f5 d8 64 3b 43 01 42 bb 70 7e 80 bd
       -0.10467081 0.0034919356 -0.0029602803 -0.06274116
000090 5b 58 2a be 8d f9 ee bb 7e 45 a8 bd a6 3c d5 bd
       -0.16635267 -0.0072929324 -0.082163796 -0.104119584
0000a0 87 4f 61 be 3a 7e 10 be ee f5 93 bd 29 52 f5 bd
       -0.22002994 -0.14110652 -0.07224642 -0.119785614
0000b0 96 82 27 be ca 73 25 bd ba 4e 68 bd bd 5a a1 bd
       -0.16358408 -0.04039363 -0.056715705 -0.07878635
0000c0 0a 3b 23 be 48 1a 27 be 2c 95 34 bd 6b ee 11 be
       -0.1594049 -0.16318619 -0.044087574 -0.14251105
0000d0 ef 59 91 bd cf 2a 6b bd 1f db 28 bd b6 db 69 bc
       -0.070972316 -0.057413872 -0.041224595 -0.014273575
0000e0 41 69 41 3d 54 4b 4d be fe c1 e5 3c 91 3d 04 be
       0.04721952 -0.20048267 0.028046604 -0.1291411
0000f0 fb 1a 43 bd 96 6d dd bb 4b ed 2f bd 90 1c 64 3d
       -0.047633152 -0.0067574484 -0.04295091 0.0556913
000100 2e a6 01 be 6f 03 e3 bd 07 4f 11 be 99 8d 05 be
       -0.12661049 -0.11084639 -0.14190303 -0.13042296
000110 82 f1 2f 3e b1 e0 6c bd 6f fc 9f bd 3f f5 d3 bd
       0.17181972 -0.05783147 -0.0781182 -0.10349511
000120 fc 3d 1b be 2a 2f bd bd de b5 08 bd 04 2b d2 bd
       -0.15160364 -0.092375115 -0.033376567 -0.10262111
000130 3f 7a f3 bd 76 1f eb bd 3b 30 fd 3d f1 f7 91 3a
       -0.11888551 -0.1148061 0.12362715 0.0011136514
000140 b0 5d 15 bd 0b ef 26 be 48 7d 94 bd 69 bc 6e 3b
       -0.0364663 -0.16302125 -0.07250458 0.003642822
000150 01 35 09 3e 73 cf cd bd 13 0c ce bd 30 78 43 bd
       0.13399126 -0.100493334 -0.10060897 -0.04772204
000160 ed 8a 54 be 1a b5 db bd 1e 33 38 bd 44 65 5c bc
       -0.20756121 -0.10727902 -0.044970624 -0.013451878
000170 ba 6b c9 bc 08 09 84 bc 58 bf 54 be c6 fd e4 bd
       -0.0245875 -0.016117588 -0.20776117 -0.11181216
000180 f7 5e 71 bd 81 c7 cb 3c be 70 b7 3c d6 82 75 bc
       -0.058928456 0.024875404 0.022392627 -0.014984807
000190 66 df 7d bd a8 f3 1d bb ee 7c 04 be 05 e3 8c 3d
       -0.061980627 -0.002410153 -0.12938282 0.06879238
0001a0 2f e0 01 be 1f 8f 21 3d eb 70 19 be 7a a4 49 3b
       -0.12683176 0.03944313 -0.14984481 0.0030768202
0001b0 98 fb 7a bd 3b 89 1f be cd 1a 47 3d 91 16 16 bd
       -0.061275095 -0.15579693 0.048609544 -0.036642615
0001c0 da bb 7f be ad 38 41 be 82 c4 90 3d 99 35 42 be
       -0.24974003 -0.18869276 0.07068731 -0.18965758
0001d0 04 9f e2 bd 9d 57 23 bd d0 0f cc bd f4 c8 3f be
       -0.11065486 -0.039878476 -0.099639535 -0.18729001
0001e0 ba 56 a0 bd 72 39 ee 3c c0 8c 96 bd fd 6b 63 bd
       -0.07829042 0.029080126 -0.07351065 -0.055522908
0001f0 4a 11 f2 bd 41 99 c4 bd c6 84 45 bd 38 45 9c bd
       -0.11819704 -0.09599543 -0.048222326 -0.0763039
000200 a5 35 77 bc 53 da e9 bd 09 6d 2b bd 65 dd 45 be
       -0.015088473 -0.11418595 -0.04185203 -0.19322737
000210 42 f9 cc bd b9 75 79 bd 66 34 9f bd 54 02 2a be
       -0.1000848 -0.060903285 -0.07773666 -0.1660245
000220 18 8e e4 bd 6c ff d2 bd 0c fa 01 bc 1a df 8a 3c
       -0.11159915 -0.10302624 -0.007933151 0.016952086
000230 4d e0 ff bd 2c 2e 1c be e8 b5 97 bd 44 b0 31 bd
       -0.12493954 -0.15251988 -0.07407743 -0.04338099
000240 f7 09 38 be 21 dc d8 3c e9 4d 0b 3c 42 da de bb
       -0.17972551 0.026472153 0.008502462 -0.0068009207
000250 c2 10 ae bd a5 7b 15 bd 24 4e 2b bd 00 0d 0a be
       -0.0849929 -0.03649487 -0.041822568 -0.13481522
000260 d5 63 7e bc c7 c0 b4 3c 15 96 b2 bd 76 40 00 3d
       -0.0155267315 0.02206458 -0.08720032 0.031311475
000270 54 13 bb bd 6d 0c 9a bd 17 39 68 be fa 07 8f bd
       -0.09134546 -0.07521901 -0.22678028 -0.06983943
000280 09 85 38 3d 5a 9b 3d be a3 02 ff 3d 79 43 18 be
       0.045048747 -0.18516293 0.12451675 -0.14869489
000290 44 ea e9 bd ea d0 2a be 5f c5 30 be ba 04 0d bd
       -0.11421636 -0.16681257 -0.17262791 -0.034428336
0002a0 19 12 e4 bd 83 0a e9 bc e8 5a 21 3d 89 74 1a be
       -0.11136264 -0.028447395 0.039393336 -0.15083517
0002b0 e7 9f b8 bd c2 5c c1 bd d5 52 65 bd d3 9b b7 3c
       -0.09014874 -0.0944152 -0.055987198 0.02241317
0002c0 18 f1 9d 3c 11 99 30 3d e5 34 c9 bd a3 ce 90 bc
       0.019280002 0.043114726 -0.09824542 -0.017676657
0002d0 1b e3 c1 3d 94 65 a1 bd b2 06 2a be fc c8 da 3c
       0.09467145 -0.078807026 -0.16604117 0.026707165
0002e0 c0 c7 8c bd fe fb 28 be 15 b4 e9 3c a7 43 38 be
       -0.06874037 -0.16502377 0.028528253 -0.17994557
0002f0 39 be 68 bc 6c 95 ce bd 2f c6 38 3b a2 af 4d be
       -0.014205509 -0.10087094 0.0028194299 -0.2008653
000300 d4 70 87 3d 2b 26 05 bc 73 d4 9b bd 5f bc d8 bd
       0.06613317 -0.008126776 -0.07608881 -0.10582804
000310 04 da 26 bd ac be dc bd 16 13 1b be b5 5f 0e bd
       -0.04073526 -0.10778555 -0.15144 -0.034759242
000320 8d 33 a8 bd 33 c5 fe bd 5e 04 99 bd a0 97 64 3c
       -0.082129575 -0.124399565 -0.07471536 0.013952166
000330 ae 37 b1 bd 7e 3b 4a bd 9f b7 96 bc 0c e5 b7 bc
       -0.08653198 -0.049373142 -0.018398104 -0.022448085
000340 54 e3 54 3c 21 3d b8 bd cf 58 67 3d f8 d8 b7 bb
       0.012993652 -0.089960344 0.05648118 -0.0056105815
000350 a9 08 2a bd 34 e6 17 be f7 34 d6 bd 01 e0 a7 bd
       -0.041512165 -0.1483391 -0.10459321 -0.08197022
000360 41 ac 57 be d5 5c 90 3d bf fc 49 bc a0 82 f2 bc
       -0.21061803 0.07048956 -0.012328326 -0.029603302
000370 a8 e4 04 bd 92 80 6f 3c 7b d8 ac bd 8e a8 3e bd
       -0.032444626 0.014618056 -0.08439728 -0.046547465
000380 63 20 b8 bd 0e 80 43 3c 6e c2 b1 bc a4 f9 ad 3b
       -0.08990552 0.011932386 -0.021699157 0.0053093005
000390 f4 87 1f be 08 e4 20 bd 98 37 29 be 9f f9 17 be
       -0.15579206 -0.039279968 -0.16525114 -0.14841317
0003a0 69 12 1b be 39 de 8f bd 42 88 3e bd 5d 3a bd bd
       -0.15143742 -0.070248075 -0.046516664 -0.092396475
0003b0 17 6d 0e be ee 4c 13 3c 27 d7 aa bc d6 56 93 3c
       -0.13908802 0.008990509 -0.020854546 0.017985743
0003c0 23 7b 5b 3c d2 cd dc 3c c8 92 b5 3a a2 e7 39 be
       0.013396057 0.026953612 0.0013852948 -0.18154767
0003d0 0a d0 d3 bc 0d ca bc bd 1e f8 88 bc e9 78 12 be
       -0.025856037 -0.09218226 -0.016719874 -0.14303936
0003e0 2b f3 77 be c2 a9 dc 3d 7d 8f 02 3d aa ad 2f bd
       -0.24213855 0.10774566 0.031875122 -0.04289023
0003f0 3a 2a 1e bd ea b3 3b be 32 bd f5 3c 41 a0 d9 bd
       -0.03861449 -0.1833035 0.029997442 -0.10626269

network_body._body_endoder.seq_layers.2.weight f4 [256, 256]
000000 4e a5 5e 3d d8 2a 9d bd c7 08 40 be ec 46 74 3e
       0.054356866 -0.076741874 -0.18753348 0.2385518
000010 e0 5f ef bd 21 a3 b3 bd ed 29 8b bd 85 86 87 be
       -0.116882086 -0.08771349 -0.06795106 -0.26469818
000020 e7 be 8b 3e 60 98 2a bd 18 25 2c 3e 03 eb ea 3d
       0.27294084 -0.041649222 0.16811025 0.11470606
000030 0a 19 37 bd bd ee 1a 3e 84 93 9e be f7 e9 8c bd
       -0.044701613 0.15130134 -0.3097192 -0.06880563
000040 5f d9 0c be 95 19 54 be 3a 01 05 3d 19 ae c2 3e
       -0.13754795 -0.20712884 0.032471873 0.3802345
000050 73 9a 38 3e ac 56 2d be 27 35 39 3e 21 a0 e8 bd
       0.18027668 -0.16927594 0.18086682 -0.11358667
000060 3a 69 05 3e 3a b1 04 bc 3d a2 94 bd 95 0c 5e be
       0.13028422 -0.008098895 -0.07257507 -0.21684487
000070 48 b6 a6 3d 31 24 f1 bd f2 3a b3 bd a1 09 98 bd
       0.08140236 -0.11774481 -0.08751477 -0.074237116
000080 b8 9a e2 3b 1a 38 cf bd 77 ae a6 3d 1b f0 f6 3d
       0.0069154166 -0.101181224 0.08138745 0.12057515
000090 16 e6 d0 bd e8 8e 1d bd 38 41 be 3c 63 57 2d 3e
       -0.102001354 -0.038466364 0.023224458 0.16927867
0000a0 7d c7 cf 39 fb 2f 01 be 98 e7 83 be 79 fc 1e be
       0.00039630747 -0.1261596 -0.2576263 -0.15525998
0000b0 5d 64 e8 bc 54 d4 27 be ab cf 1f 3e ac 9f 2d be
       -0.02836817 -0.1638959 0.15606563 -0.16955441
0000c0 df ea 08 bd 46 5e 46 3d f5 07 29 be 4b 95 81 bc
       -0.033427116 0.04842975 -0.16506942 -0.015818259
0000d0 42 6c 72 bd 65 3c 7d bd 19 38 05 3e 9c fa 09 3d
       -0.059185274 -0.061825175 0.13009681 0.033686265
0000e0 22 9d df 3c af 7f 3b be ae cf a7 3d 0a 70 c2 bc
       0.027296606 -0.18310426 0.08193909 -0.023735065
0000f0 b0 3a a4 be de 07 d5 bd 0c 14 9d be 87 9a 1b 3d
       -0.32076025 -0.10401891 -0.30679357 0.037989166
000100 0c 3f bf 3d f8 23 25 bd ac b6 71 3e 66 9a 5a 3e
       0.09338197 -0.040317506 0.2360484 0.21347961
000110 d8 e1 3e 3d d4 47 15 be 3c f6 44 3d 7e ec e0 3d
       0.0466021 -0.14578182 0.04808639 0.10982607
000120 a5 75 04 be 2f 30 40 be 34 17 83 3e cd f3 fb 3b
       -0.12935503 -0.1876838 0.2560364 0.0076889754
000130 3d 16 b8 bd b3 d4 74 3d 83 3f cb 3d cc e9 a2 be
       -0.089886166 0.05977316 0.09924223 -0.31818998
000140 e2 1c 57 be 1a 49 2d bd f0 0e 90 be 57 20 de bc
       -0.21007112 -0.042306043 -0.28136396 -0.02711503
000150 ee 06 1a 3d 38 7c 91 3b bb 59 db bd a6 1e 58 be
       0.037604265 0.004439857 -0.10710474 -0.21105441
000160 42 fb d7 bd 90 3d 35 bd 06 5a a0 3d 3d b9 27 3e
       -0.105459705 -0.044248164 0.078296706 0.16379257
000170 4e 39 36 be e7 81 09 3e d9 1d d2 bd a3 8d a5 bc
       -0.17795298 0.1342846 -0.10259599 -0.02020914
000180 f2 72 73 be 19 ba 76 3e 70 d3 bb 3d 4d 9d 33 3e
       -0.23774317 0.24094428 0.09171188 0.17540474
000190 33 10 a0 bc ab 8c d4 bd 09 1b 39 bd da 73 73 bd
       -0.019538974 -0.10378393 -0.0451918 -0.059436657
0001a0 90 cf bc ba 1a 7b 70 bd dc 9f f6 3c e2 c5 01 be
       -0.001440512 -0.05871115 0.030105524 -0.12673143
0001b0 08 d3 59 3d 73 c5 71 3c 33 7c 2e bd f3 35 a6 bd
       0.05317977 0.014756548 -0.042598914 -0.08115759
0001c0 f9 25 bd bd d3 20 07 3e 1f da e4 bd 53 4b 08 3c
       -0.09235758 0.13196115 -0.11174416 0.00831874
0001d0 d1 40 47 be e9 76 20 3e 9f ac 2b be c2 f6 a8 bd
       -0.19458319 0.1567036 -0.16765068 -0.0825019
0001e0 66 d0 00 3e e1 8d 80 3d 38 1e 31 3e 68 ad f9 3d
       0.12579498 0.06277061 0.17296684 0.12191278
0001f0 6f c8 04 be 7f 63 02 3e a1 58 9e 3d 52 a1 b9 3e
       -0.12967084 0.12733267 0.07731748 0.3625589
000200 79 86 70 bb 60 4b 2c bd 96 5f 99 3e 5e 56 ee bd
       -0.0036701246 -0.04206407 0.2995574 -0.11637567
000210 c0 39 51 be 7e 0f ff bd fc 66 c6 3d e8 b9 6b 3e
       -0.20432186 -0.12454127 0.096876115 0.23020136
000220 2d e0 2e 3d 03 e6 bc 3c 18 19 4e 3d 9e 5d a1 be
       0.04269426 0.023058897 0.0503169 -0.31516737
000230 aa bd 01 bc ac bb 8c 3d 48 28 2b 3e 5f 18 14 3a
       -0.007918755 0.06871733 0.16714585 0.00056493835
000240 b0 6b 90 be 7e 3d bd 3d 50 0c 0b be 58 97 ea bc
       -0.2820716 0.09240244 -0.13578916 -0.02863662
000250 d5 b9 f1 bd 4e 9e 94 3d e4 d3 c8 3d 9d 3e 88 be
       -0.11803023 0.07256757 0.0980604 -0.2661027
000260 63 88 19 be 25 b3 8e be c3 77 14 bd 7b fd 8c be
       -0.14993434 -0.2787105 -0.036247026 -0.2753714
000270 47 26 60 3d 0b 53 eb 3d c3 ac 30 be 53 24 8a be
       0.054724004 0.114904486 -0.17253403 -0.26980838
000280 b6 5a ba 3c 28 62 ae 3d c3 f4 83 be 0a a5 43 3e
       0.022748332 0.085148156 -0.25772676 0.19105926
000290 d2 35 ad be 35 b9 30 3e 45 ca d5 bb fb 55 37 be
       -0.33830124 0.17258151 -0.0065243565 -0.17903893
0002a0 57 03 02 be cd dc 3c 3d 80 62 2d be a6 ee f6 bd
       -0.12696587 0.04610901 -0.16932106 -0.12057237
0002b0 b0 09 81 be 67 c6 06 3e 48 04 aa be 07 58 40 3e
       -0.25202703 0.13161622 -0.3320639 0.1878358
0002c0 88 a7 30 3e fb b5 32 bd 72 c3 d6 3c 50 6c 40 bd
       0.17251408 -0.04363058 0.026216242 -0.046978295
0002d0 c9 4c be 3d b6 73 8c be 1d 6e 08 be d3 0e 86 3d
       0.09291989 -0.2743203 -0.13323255 0.06545796
0002e0 90 df 9f bd 2d 18 22 be 45 53 9f be e9 eb 80 3c
       -0.07806313 -0.15829535 -0.31118217 0.01573749
0002f0 87 27 4c 3c 1a c7 40 be e1 2e 41 be 62 43 ca bc
       0.012460596 -0.18825951 -0.18865539 -0.024690334
000300 7b b3 c0 bd 2f f7 31 3d 40 38 16 3e b5 4f c7 be
       -0.09409233 0.043448623 0.14669895 -0.38928
000310 cc 74 9a 3c 51 57 69 bd d8 36 88 bd df ad 89 be
       0.018854521 -0.056968037 -0.066510856 -0.26890466
000320 df 04 c3 3d e8 54 b1 bd b9 7a 46 3b 9d 65 08 3d
       0.095224135 -0.08658773 0.003028555 0.03330003
000330 53 96 b1 3c 3a af 6d 3c e9 2e 4b bd 94 b6 48 bc
       0.021678125 0.014507109 -0.049605284 -0.012250561
000340 57 5b cb be 6b cc 88 be e9 63 b5 bd 64 18 b0 bd
       -0.39718124 -0.2671846 -0.08856947 -0.08598402
000350 0e f9 8b 3a b0 7f eb bc 57 df 77 3e 10 68 f0 3d
       0.0010679082 -0.02874741 0.24206291 0.11738598
000360 27 30 9c 3d ca 79 35 3e 34 e9 0e 3e c6 06 82 be
       0.07626372 0.1772224 0.13956147 -0.25395793
000370 06 8e a1 3e 3e 0c 11 3e 9d ce 7f 3d f9 24 9c 3e
       0.31553668 0.14164826 0.0624529 0.30496958
000380 1a 2e ef bd 0e fd a7 bd 19 db 63 3d e0 42 5c be
       -0.11678715 -0.08202563 0.05562887 -0.21509886
000390 55 66 e3 bd be 06 ed bd a0 52 2f 3e 55 65 78 bd
       -0.11103503 -0.115735516 0.17121363 -0.060643513
0003a0 bb 07 cb bd bf a8 25 be dc 24 66 3e 6a e4 66 be
       -0.09913584 -0.16177653 0.22474998 -0.2254807
0003b0 29 a9 80 bd b5 56 6b bb dc ce ac 3e b0 b4 2b be
       -0.06282265 -0.0035909836 0.3375157 -0.16768146
0003c0 dc 28 db be 0f a0 00 3e 5e 52 37 be 75 38 6f 3e
       -0.4280461 0.12561058 -0.17902514 0.2336138
0003d0 19 cc 24 be bb 33 8a be ae b5 a6 be ab 5a a1 3d
       -0.16093482 -0.26992592 -0.32560486 0.07878622
0003e0 d4 65 f8 be 4c 9e 80 be 45 7f f9 bd fa db 95 be
       -0.4851519 -0.2512077 -0.12182478 -0.2926939
0003f0 b1 8b 87 bd 4a bc 8e 3e 0e 11 5d bd 89 88 df bd
       -0.06618441 0.27878028 -0.053971343 -0.10914714
